Vehicles/ModRepeat_forest_4/ModRepeat_forest_4_critic_target.pth (torch, 353500 bytes, 10 tensors)

weight f4 [200, 15]
-0.8398656 0.8456018 0.09996811 0.9953387 0.18587933 -0.47978058 -1.7794635 1.1556479
-0.057350412 -2.4297924 -2.0968933 0.67036843 -1.7099319 -0.67444074 0.6003177 0.84531045
0.2972177 0.6562886 -1.5222932 -0.04573753 -0.30611688 -0.25131738 -1.0767432 -0.06682104
-0.16641775 -0.9660555 -0.3920429 -0.56867796 -0.8471999 -0.17053626 0.40593246 0.4461823
-0.18008502 0.4716892 -0.025464987 0.19459908 -0.04755567 0.22210729 0.73592556 -4.445746
0.38674632 -0.27723455 -0.17465626 0.2475382 0.2968684 0.42947832 1.1726114 0.4615672
-0.9977563 0.15669096 0.012694751 0.66032547 0.25914854 -0.14253858 -0.09065786 -1.6414185
1.2032228 -0.62154484 -0.7153287 -0.696436 -0.15017153 0.76946056 0.92353195 0.61160433
-1.1946516 -0.4841397 -0.6379089 0.044774096 0.5212883 -0.49341732 -0.32146809 0.19655073
0.21707563 -0.2966634 0.5245262 -0.13610913 -0.07878195 -0.1135117 -0.17094424 0.3098916
-0.301694 -0.097866654 -0.1417225 -0.06823202 -2.5247264 1.0290023 0.6561681 0.17327139
0.004358301 0.21205668 0.13069344 -0.101440124 0.12314946 -0.25194806 1.5423824 0.7921703
1.2286892 -0.4796316 -4.774963 0.014091365 0.027036434 -0.061500132 0.0919866 0.51040184
-0.33161095 0.8245688 0.38986787 -0.62084454 -0.18042664 -1.0999577 -1.288195 -0.47477517
0.21400426 -0.1057921 0.19918703 -1.7167348 0.36712673 0.7341488 0.23296705 0.004983152
0.13378455 -0.79697174 0.33633226 -1.1144934 -0.9843055 -0.9803559 -0.83965576 0.61339337
-0.023421882 0.06285876 0.017839747 0.0784003 -0.33985612 -0.29169086 -0.8038476 -0.08814269
-0.18049346 -0.056238152 0.14237925 0.083228275 -0.3146324 0.0043974766 -0.0974604 -0.06289265
-0.091645956 -0.042956736 0.09973729 0.13608497 -0.29018253 -0.06206451 -0.19941778 -0.096185975
-0.26997042 -0.0010446393 0.50901616 0.98510575 0.6537219 -1.051897 -0.07468298 -0.45314783
1.2439551 0.045316048 -0.01998164 -0.18022442 -0.1244817 0.054300457 -0.6031444 -0.45986167
0.7186368 0.54296815 0.46427244 -0.45904195 -0.40719095 0.016984483 -2.385617 -0.43250042
0.22756904 0.34904993 0.69880295 -0.15847273 0.03042736 0.074458845 1.3094425 -0.61429775
0.6597911 -0.021270724 0.10031244 0.12435102 0.32077911 -1.6475983 -0.3947412 -1.1401466
-0.42348847 -0.5344506 -0.14670359 0.9244891 -0.37795678 -0.5788908 0.1678697 -0.82631034
-0.16925295 1.0723137 -0.5539737 -0.15368868 0.15285341 -1.9251028 -0.27628413 0.35356733
-0.15975468 -0.18567489 -0.048400883 -0.019477138 -0.10174299 0.1489149 -0.24622256 -0.20546487
-0.14118716 0.041753463 -0.12107876 -0.10122293 -0.07044307 0.0027608853 -0.19740929 -0.11865136
0.025673049 1.4058335 -0.10266144 0.010339809 -0.25208655 0.19308932 0.24695231 -0.082503825
-0.36013365 -1.1970534 -0.6681555 -0.31230748 0.40252092 -0.8777104 0.14181143 0.12585138
-0.29812607 -0.1324916 0.5085123 -0.77581716 -0.16717905 -1.1470792 0.86437505 -0.4814928
-4.4650974 0.8865308 -0.22454567 -0.15954621 0.12496873 0.20403293 -0.13122651 0.81324613
00000000: 6f01 57bf 5c79 583f 15bc cc3d 84ce 7e3f
00000010: 2757 3e3e cda5 f5be 76c5 e3bf 45ec 933f
00000020: 44e8 6abd b881 1bc0 8033 06c0 449d 2b3f
00000030: 0cdf dabf 26a8 2cbf 6cae 193f 4466 583f
00000040: eb2c 983e 8802 283f 81da c2bf 4757 3bbd
00000050: 5abb 9cbe acac 80be b9d2 89bf 78d9 88bd
00000060: 6a69 2abe 6a4f 77bf d9b9 c8be e194 11bf
00000070: 18e2 58bf 0fa1 2ebe 61d6 cf3e 0272 e43e
00000080: 3568 38be 3f81 f13e f39b d0bc fb44 473e
00000090: bcc9 42bd 1870 633e 9e65 3c3f 8d43 8ec0
000000a0: 9d03 c63e b0f1 8dbe 17d9 32be a77a 7d3e
000000b0: 23ff 973e 95e4 db3e 2118 963f 8952 ec3e
000000c0: f56c 7fbf 9873 203e a5fd 4f3c 170b 293f
000000d0: 1eaf 843e a2f5 11be d4aa b9bd 001a d2bf
000000e0: 3403 9a3f 901d 1fbf c81f 37bf a149 32bf
000000f0: 91c6 19be 5efb 443f 976c 6c3f 1a92 1c3f
00000100: 58ea 98bf 29e1 f7be ff4d 23bf 0b65 373d
00000110: 2673 053f 32a1 fcbe 7797 a4be 9844 493e
00000120: 1349 5e3e 44e4 97be 5947 063f 3160 0bbe
00000130: 6e58 a1bd d278 e8bd 020c 2fbe 1daa 9e3e
00000140: a377 9abe 506e c8bd b41f 11be 3bbd 8bbd
00000150: 1e95 21c0 59b6 833f a2fa 273f 0e6e 313e
00000160: 14d0 8e3b 6325 593e 80d4 053e d7bf cfbd
00000170: c935 fc3d 56ff 80be c96c c53f accb 4a3f
00000180: b045 9d3f 4692 f5be 7fcc 98c0 78df 663c
00000190: 837b dd3c 90e7 7bbd 7863 bc3d b2a9 023f
000001a0: e9c8 a9be f116 533f c39c c73e abef 1ebf
000001b0: c3c1 38be 6acb 8cbf 93e3 a4bf bb15 f3be
000001c0: ef23 5b3e 87a9 d8bd aff7 4b3e f7bd dbbf
000001d0: 09f8 bb3e 2df1 3b3f ea8e 6e3e b549 a33b
000001e0: d1fe 083e 5706 4cbf be33 ac3e b8a7 8ebf
000001f0: 72fb 7bbf 9bf8 7abf aef3 56bf 5907 1d3f
00000200: 3fdf bfbc 18bc 803d a924 923c 5690 a03d
00000210: 9f01 aebe 8158 95be f5c8 4dbf 2884 b4bd
00000220: 47d3 38be fa59 66bd decb 113e 9673 aa3d
00000230: 7f17 a1be b518 903b 5199 c7bd ddcd 80bd
00000240: e0b0 bbbd 67f3 2fbd 1043 cc3d dc59 0b3e
00000250: ce92 94be 5b37 7ebd 2d34 4cbe 27fd c4bd
00000260: 9039 8abe 47ec 88ba e24e 023f e42f 7c3f
00000270: 525a 273f 90a4 86bf 64f3 98bd fe02 e8be
00000280: ec39 9f3f 529d 393d 89b0 a3bc c08c 38be
00000290: 43f0 febd 286a 5e3d ac67 1abf fd72 ebbe
000002a0: 95f8 373f f6ff 0a3f 1eb5 ed3e 8c07 ebbe
000002b0: 557b d0be 0b23 8b3c f3ad 18c0 b270 ddbe
000002c0: dc07 693e acb6 b23e c0e4 323f ad46 22be
000002d0: cd42 f93c e17d 983d d09b a73f 9e42 1dbf
000002e0: 12e8 283f f13f aebc 9c70 cd3d bfab fe3d
000002f0: 293d a43e 80e4 d2bf 851b cabe 53f0 91bf
00000300: 7bd3 d8be c1d1 08bf 7739 16be 51ab 6c3f
00000310: 8d83 c1be 3032 14bf 09e6 2b3e 1389 53bf
00000320: a550 2dbe 9341 893f 38d1 0dbf 9160 1dbe
00000330: 9b85 1c3e c569 f6bf 1d75 8dbe c706 b53e
00000340: bb96 23be 8f21 3ebe 0140 46bd 858e 9fbc
00000350: a15e d0bd 267d 183e c421 7cbe 6265 52be
00000360: 5e93 10be ae05 2b3d 24f8 f7bd f84d cfbd
00000370: 7544 90bd f8ef 343b a925 4abe 7cff f2bd
00000380: 4950 d23c 5af2 b33f 2940 d2bd 4d68 293c
00000390: 7d11 81be 35b9 453e 11e1 7c3e c4f7 a8bd
000003a0: 7063 b8be 0c39 99bf 3d0c 2bbf c4e6 9fbe
000003b0: 3917 ce3e a1b1 60bf 0437 113e 2fdf 003e
000003c0: fba3 98be e1ab 07be dd2d 023f f49b 46bf
000003d0: fc30 2bbe 7ed3 92bf af47 5d3f 3986 f6be
000003e0: 14e2 8ec0 aff3 623f 4def 65be 1560 23be
000003f0: 9bef ff3d 02ee 503e 3e60 06be e630 503f

bias f4 [200]
0.129319 0.21093637 0.1943535 -0.49993297 -0.20283549 0.2500741 -0.09384298 0.16757265
0.18353061 -0.26171532 -0.032779157 0.2785656 0.084599935 0.037763506 -0.24627918 -0.06855649
-0.33349335 -0.3022591 0.53066707 -0.80532974 0.5287058 0.031381793 -0.1868283 0.19915548
-0.64022243 -0.2808186 -0.2204275 0.00016878826 -0.08049624 0.13042916 0.22278419 -0.2624601
0.13305983 0.23405614 0.6638822 0.582117 -0.2725987 -0.48399928 -0.25383797 0.82210475
-0.65892065 0.2771074 0.35306832 0.018348286 0.4306833 0.15595391 -0.1763262 -0.38506034
-0.8872405 0.2626416 -1.059878 0.525906 -0.21861133 0.15507025 -0.53604025 -0.11414095
0.29510182 -0.10960584 0.4239463 -0.18453169 0.35099313 -0.6581867 0.13944903 -0.73352265
-0.10774518 -0.7496407 0.42411873 -0.7088928 -1.1390717 -0.12522735 -0.63438946 0.23606852
-0.34828356 -0.015631115 -0.002580894 0.14366074 0.40098354 0.73216236 -0.272649 -0.8618144
-0.2017903 -0.9354199 0.31129065 0.08145416 0.13166766 0.21774225 -0.14203618 -0.64696664
-0.25525802 0.64511263 0.19541335 -0.049750067 -0.82034034 -0.38201034 -0.6377759 0.3904255
-0.5120016 0.0838888 0.2289264 -0.2185159 -0.5297544 -0.774076 0.16928612 -0.29405087
0.40917388 -0.26862583 -0.32677096 -0.22845943 -0.3555212 -0.27332336 0.08087106 -0.19388536
-0.47911644 -0.642762 0.07614731 0.0598097 -0.60556674 -1.1938298 0.0008976322 0.06265987
-0.93560606 0.011254242 0.57571244 -0.07498769 -0.6128353 -0.4736271 -0.041553997 -0.5622895
-0.2599093 -0.23284778 -0.1835711 -0.175295 0.015053191 0.07363878 -0.42984197 -0.58598703
-0.39990377 -0.3358059 -0.113141954 -0.37633517 0.18791854 -0.72608066 -0.79937077 0.020695137
-0.025839513 -0.8934296 -0.7086539 -0.06098918 -0.106604144 -1.0316538 -0.22933364 -0.06372581
-1.0493892 -0.07885938 -0.6165387 -0.31257007 0.098751724 0.17075168 -0.94341546 -0.56540745
-0.45652273 0.43340528 -0.46280792 -0.6277576 -0.43188685 0.2814727 0.12560067 -0.40511203
-0.14032035 0.04331866 -0.1968651 0.40954104 0.24791183 -0.08295701 -0.0011219346 -0.27331161
-0.14111969 -0.6386515 -0.4875892 -0.40440625 0.45733735 0.055272706 0.52548224 -0.5194767
0.514487 -0.44223216 -0.19490321 -0.20542017 -0.22860184 0.07365328 0.050044224 -0.7093362
-0.38075268 0.33159384 -0.47937557 -0.5629226 -0.3458715 -0.5227137 -0.70587397 0.059866834
00000000: 336c 043e b4ff 573e 9b04 473e 37f7 ffbe
00000010: 1bb4 4fbe b609 803e c030 c0bd 2a98 2b3e
00000020: 73ef 3b3e 8dff 85be 7043 06bd 26a0 8e3e
00000030: bb42 ad3d e8ad 1a3d 9c30 7cbe 5867 8cbd
00000040: a4bf aabe b4c1 9abe ccd9 073f 172a 4ebf
00000050: 4359 073f 328a 003d eb4f 3fbe 6aef 4b3e
00000060: 9ee5 23bf 75c7 8fbe bfb7 61be c1fc 3039
00000070: 36db a4bd 398f 053e 8a21 643e 2c61 86be
00000080: d640 083e 6aac 6f3e 2ff4 293f 9f05 153f
00000090: 0f92 8bbe c1ce f7be 0df7 81be 7575 523f
000000a0: 06af 28bf 05e1 8d3e 5fc5 b43e 254f 963c
000000b0: 8682 dc3e 62b2 1f3e db8e 34be a126 c5be
000000c0: 3222 63bf f678 863e 15aa 87bf c7a1 063f
000000d0: a6db 5fbe bcca 1e3e ef39 09bf bbc2 e9bd
000000e0: 9617 973e 0779 e0bd 7d0f d93e e0f5 3cbe
000000f0: 5fb5 b33e ec7e 28bf bacb 0e3e 24c8 3bbf
00000100: 81a9 dcbd 74e8 3fbf 1726 d93e 007a 35bf
00000110: 1acd 91bf 993b 00be 5967 22bf f2bb 713e
00000120: 3952 b2be d30c 80bc 3724 29bb cd1b 133e
00000130: b74d cd3e fe6e 3b3f a698 8bbe de9f 5cbf
00000140: 1ea2 4ebe ae77 6fbf 7d61 9f3e 70d1 a63d
00000150: e3d3 063e d3f7 5e3e ef71 11be 9b9f 25bf
00000160: 2eb1 82be 1a26 253f 701a 483e bac6 4bbd
00000170: d301 52bf dc96 c3be 4845 23bf dae5 c73e
00000180: 8912 03bf e4cd ab3d af6b 6a3e a2c2 5fbe
00000190: fc9d 07bf d829 46bf 5759 2d3e d68d 96be
000001a0: 3d7f d13e 5389 89be 864e a7be 45f1 69be
000001b0: e006 b6be 0af1 8bbe ba9f a53d e289 46be
000001c0: c04e f5be 0d8c 24bf 1ff3 9b3d 04fb 743d
000001d0: 6c06 1bbf 6acf 98bf 144f 6b3a d153 803d
000001e0: e183 6fbf b663 383c e461 133f 2593 99bd
000001f0: c6e2 1cbf 407f f2be 8634 2abd 34f2 0fbf
00000200: d512 85be a66f 6ebe 10fa 3bbe 8880 33be
00000210: a9a1 763c eecf 963d 3f14 dcbe 3f03 16bf
00000220: 30c0 ccbe c0ee abbe f8b6 e7bd 01af c0be
00000230: b86d 403e 6ce0 39bf 90a3 4cbf d988 a93c
00000240: 63ad d3bc cdb7 64bf 586a 35bf cacf 79bd
00000250: 4653 dabd 3b0d 84bf 70d6 6abe ad82 82bd
00000260: 6352 86bf 0781 a1bd 7bd5 1dbf 2f09 a0be
00000270: 583e ca3d 87d9 2e3e ad83 71bf 8bbe 10bf
00000280: 59bd e9be 4ce7 dd3e 29f5 ecbe b9b4 20bf
00000290: 4620 ddbe 311d 903e 769d 003e d86a cfbe
000002a0: 23b0 0fbe e86e 313d 0197 49be 5daf d13e
000002b0: 99dc 7d3e 5de5 a9bd e10d 93ba 80ef 8bbe
000002c0: ae81 10be aa7e 23bf 4ba5 f9be 560e cfbe
000002d0: 1f28 ea3e a265 623d 0186 063f 6dfc 04bf
000002e0: 6cb5 033f 416c e2be b594 47be aa59 52be
000002f0: 9a16 6abe 88d7 963d 2cfb 4c3d 0f97 35bf
00000300: 04f2 c2be abc6 a93e b770 f5be b21b 10bf
00000310: 1216 b1be 91d0 05bf 28b4 34bf ed36 753d

weight f4 [200, 200]
-0.34857726 0.28530663 -0.57094187 -0.57699335 0.40544605 -0.37844646 -0.85102785 -0.22029477
-0.8112999 0.029279506 -0.16725987 -0.042285997 0.63560665 0.047135096 -0.016996097 0.23730259
0.8535333 -1.3533161 0.5479107 -0.35680866 0.38578844 -0.6451912 1.2562742 -0.43762496
0.45286423 -0.01174186 -0.7950076 -0.034056176 0.064097755 -0.008322773 -0.5653021 0.20116532
-0.722504 0.5887036 -0.15763809 0.35839033 -0.03833141 -1.1339796 -0.5791491 1.5804185
-0.13111992 0.107525975 -0.22304599 0.3700742 0.13388531 0.60465986 -2.0094793 -1.6152725
0.46690434 -0.5783444 0.26939124 -0.22246246 0.306722 0.41233924 -0.74349636 -0.5730933
-1.48672 0.58313704 -1.7878002 0.023036284 0.10153493 0.28624862 0.5169394 -1.1366408
0.26981598 -0.43350202 1.2997193 -0.11736241 0.16820893 -0.5626679 -0.40918332 0.008679216
0.21440095 -0.8966486 0.06593695 -1.05759 -0.363834 -1.5633992 0.108503684 -0.9039148
-0.23369227 0.49075827 0.30713847 -0.32887194 -0.54263765 -0.11637568 -1.822024 -0.38417318
-0.93852973 -0.38341483 -0.15123352 -1.2916765 0.22284292 -3.6667511 0.9738325 0.17717648
0.1664804 -0.48951852 -0.106710345 -1.103133 -0.014686604 -0.25326338 -0.7563897 0.023474382
-1.0182223 -0.82519996 0.15978985 0.34788582 -0.14433727 -0.48152566 0.1066731 -0.5977089
0.2779693 -1.4087738 -0.95326805 0.19002232 -1.1672952 -0.71004933 0.29247174 -0.72404516
-0.55113125 0.20394196 0.6336752 0.572974 -1.2091291 -0.44169596 -0.27243033 -0.0025806758
-0.09908909 0.22285095 -1.1408813 -0.029879281 -0.08861208 -1.710683 -0.93408316 -0.5370247
-2.2139904 -0.9270021 -0.61056095 -0.076513804 -0.15035808 -0.10890598 -1.2430115 0.04269447
-1.6589676 0.3191623 -1.0430651 2.490664 -0.54772055 0.26834333 -0.84633315 0.25162584
0.84044415 -0.47364613 0.15218124 0.07046725 -0.24285269 0.21458016 -1.0815274 -0.115355216
0.6021225 -0.3730938 -0.6266545 -0.16789743 -0.10953184 -0.3688162 -0.5093401 -2.5811045
-2.355858 0.07503114 0.16398118 -2.1326954 0.12507048 -0.23292027 0.41282395 1.9230449
-0.076433346 -0.42519212 -1.3511075 1.0592266 0.4612162 -0.48528063 0.38022375 -0.016297083
-0.0054260306 0.42571762 -0.7588183 -0.018476525 -0.004650145 0.29686132 -0.7525144 -1.0913739
0.2053246 -1.5022659 -0.06358109 0.33439726 -0.29313892 -0.8876023 -0.022929613 1.0651568
-0.20721725 -0.2938746 1.3310802 0.050539512 -0.25380576 0.24209686 -0.27932587 1.093782
0.36544994 0.11891213 0.3303345 0.29334885 -0.032332532 0.70437855 -0.010188925 0.86675876
-0.7609792 -0.20834376 0.0422607 -1.8292574 0.9027549 -0.62018096 -0.44976988 -0.0056479233
-1.3171251 0.00045749563 0.18126138 0.8197256 -0.23251347 -0.9845922 1.1177634 -0.5544608
0.70852256 -0.4854833 -1.1132305 0.61515236 0.0733742 -2.4275143 0.11822647 -0.37575114
-0.15674327 0.017542211 -0.88436097 -0.78131634 -0.13669163 0.29039222 -1.2378142 -1.5382395
0.25557604 -0.8453788 0.3979557 -0.1697527 -1.4361607 -1.0936074 0.26784256 0.53480095
00000000: b878 b2be b613 923e 3f29 12bf d6b5 13bf
00000010: a096 cf3e bcc3 c1be f6dc 59bf f494 61be
00000020: 5ab1 4fbf 93db ef3c 2c46 2bbe 1534 2dbd
00000030: 1eb7 223f bb10 413d 663b 8bbc 73ff 723e
00000040: 2981 5a3f 7639 adbf e043 0c3f a0af b6be
00000050: 1086 c53e 402b 25bf 98cd a03f 6110 e0be
00000060: d2dd e73e ee60 40bc 9e85 4bbf 7d7e 0bbd
00000070: af45 833d 3d5c 08bc a3b7 10bf 48fe 4d3e
00000080: 06f6 38bf 47b5 163f e16b 21be f07e b73e
00000090: 6601 1dbd 3e26 91bf 1e43 14bf 274b ca3f
000000a0: 4d44 06be 9436 dc3d 2b66 64be 5e7a bd3e
000000b0: 3b19 093e fdca 1a3f 4f9b 00c0 40c1 cebf
000000c0: 160e ef3e 610e 14bf a6ed 893e 33cd 63be
000000d0: aa0a 9d3e 211e d33e c755 3ebf 3eb6 12bf
000000e0: d74c bebf 7848 153f a3d6 e4bf 97b6 bc3c
000000f0: 8cf1 cf3d 2e8f 923e 2456 043f 727d 91bf
00000100: 5225 8a3e faf3 ddbe 345d a63f b45b f0bd
00000110: f63e 2c3e 010b 10bf 7a80 d1be 4533 0e3c
00000120: ec8b 5b3e c38a 65bf f409 873d 1c5f 87bf
00000130: 7348 babe 771d c8bf 2e37 de3d f666 67bf
00000140: 074d 6fbe ab44 fb3e 4141 9d3e e761 a8be
00000150: 4dea 0abf 5f56 eebd 1538 e9bf 59b2 c4be
00000160: 7c43 70bf f34e c4be f6dc 1abe a855 a5bf
00000170: ef30 643e 0dac 6ac0 164d 793f c06d 353e
00000180: d779 2a3e 2ca2 fabe f48a dabd 7633 8dbf
00000190: 15a0 70bc bdab 81be c1a2 41bf 594d c03c
000001a0: 1c55 82bf 4e40 53bf f39f 233e 171e b23e
000001b0: 26cd 13be 888a f6be 6d77 da3d 7303 19bf
000001c0: fe51 8e3e b352 b4bf 6009 74bf 3695 423e
000001d0: ee69 95bf cbc5 35bf dbbe 953e 065b 39bf
000001e0: f016 0dbf 29d6 503e 8a38 223f 6dae 123f
000001f0: bec4 9abf f925 e2be fd7b 8bbe 8e20 29bb
00000200: 39ef cabd 0a33 643e 6608 92bf 65c5 f4bc
00000210: 407a b5bd a9f7 dabf 1320 6fbf 737a 09bf
00000220: 05b2 0dc0 0250 6dbf b94d 1cbf 45b3 9cbd
00000230: 78f7 19be 190a dfbd 001b 9fbf 66e0 2e3d
00000240: 0d59 d4bf 3e69 a33e 2883 85bf 0a67 1f40
00000250: 6a37 0cbf 4c64 893e 4aa9 58bf 1ad5 803e
00000260: 5927 573f bf81 f2be 66d5 1b3e 2251 903d
00000270: 60ae 78be e7ba 5b3e 7d6f 8abf 5b3f ecbd
00000280: b324 1a3f 2706 bfbe 6e6c 20bf 4eed 2bbe
00000290: 3b52 e0bd 7ad5 bcbe 1d64 02bf d130 25c0
000002a0: 61c6 16c0 eda9 993d afea 273e 157e 08c0
000002b0: 7a12 003e a782 6ebe a95d d33e 5626 f63f
000002c0: 1689 9cbd c8b2 d9be 17f1 acbf bd94 873f
000002d0: 8824 ec3e b476 f8be b0ac c23e 7681 85bc
000002e0: d8cc b1bb a9f7 d93e eb41 42bf 155c 97bc
000002f0: 3e60 98bb 35fe 973e c9a4 40bf 24b2 8bbf
00000300: 9d40 523e 404a c0bf cd36 82bd 1e36 ab3e
00000310: 4e16 96be e839 63bf e2d6 bbbc 0f57 883f
00000320: c230 54be bb76 96be d660 aa3f 8502 4f3d
00000330: d4f2 81be 3de8 773e cd03 8fbe 0c01 8c3f
00000340: 411c bb3e 3488 f33d 9b21 a93e d231 963e
00000350: 1e6f 04bd 2752 343f 73ef 26bc e7e3 5d3f
00000360: 88cf 42bf 1158 55be 8e19 2d3d 1b25 eabf
00000370: f21a 673f 2ec4 1ebf 3d48 e6be 3712 b9bb
00000380: 8e97 a8bf 06dc ef39 959c 393e 89d9 513f
00000390: 0318 6ebe 3c0e 7cbf df12 8f3f 25f1 0dbf
000003a0: bc61 353f 4491 f8be 567e 8ebf a07a 1d3f
000003b0: 3645 963d 655c 1bc0 b820 f23d 7462 c0be
000003c0: 4f81 20be afb4 8f3c 7b65 62bf 5904 48bf
000003d0: e4f8 0bbe 4aae 943e b270 9ebf 08e5 c4bf
000003e0: ddda 823e bf6a 58bf d9c0 cb3e a7d3 2dbe
000003f0: 1dd4 b7bf 54fb 8bbf a922 893e b7e8 083f

bias f4 [200]
-0.36768663 -0.038722917 0.08751237 -0.36968327 0.11659435 -0.31249255 -0.032426823 -0.058191698
-0.26356062 -0.33023506 -0.11016365 0.44326055 -0.06365559 -0.4060004 -0.093834944 0.9303161
-0.6800645 -0.08349054 -0.10897751 -0.10495122 -0.44207916 -0.7785994 1.3638766 0.22220387
-0.047741506 -0.47170866 -0.09909654 -0.40821773 -0.44047257 -0.20284225 -0.004780623 -0.15002951
-0.3081295 -0.65676636 -0.06942085 -0.053663976 -0.20802489 -0.061683044 -0.24753273 -0.67653453
-0.08663344 -0.055220827 -0.05466012 0.05580353 -0.55059195 -0.1331882 0.23319443 -0.017116422
-0.25043663 0.009719198 -0.8600266 -0.09122872 -0.13295728 -0.0021297273 -0.2878857 -0.38629103
-0.04316461 -0.5142351 -0.1080149 -0.016533852 -0.18243062 -0.086509526 -0.07504009 -0.016520375
-0.24752553 -0.21965377 -0.5536184 -0.06709925 -0.43849835 -0.19441117 -1.0335845 -0.50327814
-0.67841834 0.026677014 -0.076054856 -0.08265458 -0.110069774 -0.6725111 0.07709048 -0.4417871
1.4017814 -0.53090864 -0.013514155 -0.07948958 -0.072810344 0.13170403 -0.47676587 -0.21810658
-0.020895926 -0.053943373 1.2899944 -0.020950494 0.102726765 -0.6943171 -0.4604843 -0.037819557
-0.45990095 -1.3587091 -0.05247561 -0.006835495 0.02002215 -0.12142447 -0.56850374 -0.0085466625
-0.14765128 -0.41405082 -0.0233697 -0.48659807 0.030203005 -0.5617139 -0.11640724 -0.034661252
-0.10934408 -0.13655885 -0.17348993 -0.050547726 -0.020423366 -0.84013325 -0.389174 -0.027335647
-0.11056501 -0.41607362 -0.15205011 -0.09754384 -0.8771242 -0.38218075 -0.22022158 -0.08189463
-0.071672425 -0.4036277 0.0037272358 -0.079275005 -0.19546022 -0.50991076 -0.14096364 -0.27361125
-0.20480624 -0.12508719 -0.15190408 -0.11762914 -0.07721417 0.119864315 -0.5828804 -0.082730584
-0.04122522 -0.11893895 -0.43957576 -0.12697624 -0.11725512 -0.13926192 -0.82520926 -0.59802276
-0.47510016 -0.057037603 -0.07216714 0.1320098 -0.31840467 -0.10796274 -0.055905115 -0.83474517
-0.069982626 -0.15586248 -0.39156416 -0.15529856 -0.10353114 -0.05949779 -0.03639277 -0.04635048
-0.031354222 -0.854453 -0.20456798 -0.07601164 -0.076172575 0.063494824 -0.25158617 -0.11480685
-0.11486795 -0.38509706 0.07804815 -0.3607635 -0.2666306 -0.31630132 -0.037575178 -0.024539817
-0.028776787 0.03776665 -0.05531354 -0.20981897 -0.0970372 -0.11044826 -0.1486884 -0.12111419
-0.07885804 0.039646048 -0.27193174 -0.023062363 -0.023878576 -0.060327135 -0.624091 -0.1959897
00000000: 6c41 bcbe ec9b 1ebd af39 b33d 2047 bdbe
00000010: 05c9 ee3d 06ff 9fbe fdd1 04bd 6b5a 6ebd
00000020: 6bf1 86be 9214 a9be 7b9d e1bd 0cf3 e23e
00000030: dd5d 82bd 49df cfbe 892c c0bd 3229 6e3f
00000040: b518 2ebf 17fd aabd 9a2f dfbd aaf0 d6bd
00000050: 3358 e2be 4a52 47bf 8293 ae3f 6989 633e
00000060: 998c 43bd cc83 f1be 20f3 cabd ea01 d1be
00000070: 9f85 e1be e1b5 4fbe c6a6 9cbb 56a1 19be
00000080: 26c3 9dbe d721 28bf 852c 8ebd c2ce 5bbd
00000090: 7a04 55be 5ca7 7cbd 3879 7dbe 5e31 2dbf
000000a0: df6c b1bd 3c2f 62bd 4ae3 5fbd 3e92 643d
000000b0: 98f3 0cbf 7d62 08be 85ca 6e3e bd37 8cbc
000000c0: 3b39 80be 453d 1f3c b42a 5cbf 20d6 babd
000000d0: f425 08be e592 0bbb c165 93be f0c7 c5be
000000e0: 60cd 30bd e9a4 03bf ea36 ddbd 0072 87bc
000000f0: 18cf 3abe e82b b1bd 9eae 99bd bd55 87bc
00000100: 5577 7dbe ebec 60be efb9 0dbf 556b 89bd
00000110: db82 e0be b913 47be 7f4c 84bf d6d6 00bf
00000120: d3ac 2dbf c189 da3c a6c2 9bbd ce46 a9bd
00000130: 436c e1bd b029 2cbf 9de1 9d3d eb31 e2be
00000140: 936d b33f a1e9 07bf 796a 5dbc 6fcb a2bd
00000150: 971d 95bd 6cdd 063e a81a f4be 5557 5fbe
00000160: ef2d abbc baf3 5cbd 891e a53f 5fa0 abbc
00000170: 6962 d23d c4be 31bf 99c4 ebbe aee8 1abd
00000180: 2378 ebbe 2eea adbf aaf0 56bd 4afc dfbb
00000190: 7e05 a43c 64ad f8bd 7689 11bf 4d07 0cbc
000001a0: e631 17be 78fe d3be d071 bfbc 6223 f9be
000001b0: 4b6c f73c 7bcc 0fbf eb66 eebd f5f8 0dbd
000001c0: caef dfbd 15d6 0bbe 58a7 31be 220b 4fbd
000001d0: e74e a7bc f912 57bf d141 c7be 02ef dfbc
000001e0: e86f e2bd 9a07 d5be 06b3 1bbe 11c5 c7bd
000001f0: 368b 60bf 32ad c3be c481 61be 5fb8 a7bd
00000200: fec8 92bd 4aa8 cebe a444 743b ef5a a2bd
00000210: b926 48be 8389 02bf c658 10be c616 8cbe
00000220: bab8 51be db16 00be be8c 1bbe 8ce7 f0bd
00000230: 7622 9ebd 6c7b f53d a637 15bf a76e a9bd
00000240: c7db 28bd 4496 f3bd 1310 e1be 0f06 02be
00000250: 7423 f0bd ad9a 0ebe ea40 53bf 0518 19bf
00000260: 5440 f3be 43a0 69bd 5ecc 93bd 942d 073e
00000270: f005 a3be 921b ddbd c3fc 64bd dcb1 55bf
00000280: 0d53 8fbd 6a9a 1fbe 197b c8be 9606 1fbe
00000290: 2208 d4bd f4b3 73bd 9610 15bd 00da 3dbd
000002a0: 496d 00bd 6fbd 5abf 457a 51be feab 9bbd
000002b0: 5e00 9cbd 9309 823d e7cf 80be db1f ebbd
000002c0: e33f ebbd 712b c5be b5d7 9f3d feb5 b8be
000002d0: ce83 88be 3ff2 a1be 6ee8 19bd ba07 c9bc
000002e0: 4cbd ebbc 34b1 1a3d 7390 62bd c9da 56be
000002f0: 71bb c6bd b332 e2bd c641 18be b70a f8bd
00000300: 5380 a1bd e563 223d a33a 8bbe 48ed bcbc
00000310: 019d c3bc 9619 77bd 6ec4 1fbf 86b1 48be

weight f4 [1, 200]
0.45762768 0.19847324 -0.7042236 0.28353062 0.07436429 -0.24202935 0.026867377 -0.010295315
-0.29858518 -0.36026993 0.005182023 0.06446298 0.01660345 -0.52500415 0.005225144 0.06701521
-0.20709689 0.019720403 -0.017518379 -0.023403227 -1.3746393 -0.51462793 0.06130031 -0.143511
-0.0032133223 -0.34823748 -0.97043014 -1.2381684 -0.27349573 -0.49831018 -0.00037414464 0.26286566
-0.50489354 -0.046266284 -0.03738295 0.06231485 0.15659496 0.009650281 -0.51999164 -0.64321274
0.19321741 -0.490728 0.009392677 0.20152669 -0.43296298 0.003978381 0.11178508 -1.324619
-0.16322896 0.05906416 -0.17670493 0.028026318 0.2954503 -0.00013755794 -1.3501258 0.12053023
0.021619558 0.29599038 -0.01631325 0.09469415 -0.005695369 0.017065758 0.005868316 -0.10262664
0.37322083 -0.8225985 -0.29796293 0.025127664 0.5441792 -0.9804318 -0.29268092 -0.3281063
-0.24692652 0.45802337 -0.00023137422 0.0009517951 -0.011881359 -0.3214973 0.7195658 -0.6882972
0.06364731 -0.640801 -0.41504243 -0.09002172 -0.8610638 0.7466263 0.43879986 -0.27911368
-0.6892198 -0.003354557 0.06998748 0.002606332 0.29101104 0.37417537 -0.28846568 0.008013945
-0.48567995 0.18610498 0.29645887 0.02312979 -0.33910006 -0.37619805 -0.04759696 0.015515383
0.0029699206 -0.37467098 0.022025988 -0.23605382 0.032604888 0.2912072 -0.012078241 0.033884898
-0.0058591883 -0.01684522 -1.2382876 -0.20554702 -0.024397507 -0.5437057 -1.2785089 -0.111463025
-0.45231083 0.17829107 0.40170884 0.017599221 -0.3315798 -0.22954124 -0.31872547 0.019333344
-0.023760112 -0.23988235 0.12270934 0.012406812 -1.3284576 0.09680726 0.0009984138 0.13758485
0.054437343 -0.00019385062 -0.017747488 -0.010587936 -0.0025442126 0.74268055 -1.6655818 0.003932094
-0.0023169233 -0.018456781 0.013570966 -0.2197931 -0.6180828 -0.008246217 -0.34520957 0.06556076
-0.12212183 0.011972815 -0.009802646 0.2611279 0.12913431 0.024744706 0.011569925 -0.5299212
-0.06972185 -0.6242595 -0.5187218 -0.0042087906 0.00153304 -0.0010069587 0.014141867 -0.02194105
-0.83824176 0.08750113 0.5983057 -0.004808749 0.053666208 0.072372064 -0.6790814 0.015134472
0.0109289875 -1.186503 0.216311 -0.26371738 0.14476052 -0.9121605 -0.007843002 0.017700547
0.09170658 0.51009107 0.027962988 -1.04977 -0.022399262 -0.024338277 -0.015744397 0.27568138
-0.41751283 0.050388508 -0.39642537 0.014521661 -0.0074738245 0.22832623 -0.88272774 -0.31372577
00000000: 2d4e ea3e 923c 4b3e ff47 34bf ed2a 913e
00000010: 4e4c 983d 8bd6 77be f918 dc3c aead 28bc
00000020: 28e0 98be 4d75 b8be f6cd a93b 2b05 843d
00000030: f503 883c ac66 06bf af37 ab3b 453f 893d
00000040: 3511 54be af8c a13c b482 8fbc 20b8 bfbc
00000050: 2ef4 afbf a8be 03bf 0916 7b3d 8cf4 12be
00000060: 9a96 52bb 2f4c b2be 1c6e 78bf 4d7c 9ebf
00000070: a207 8cbe 8322 ffbe d828 c4b9 5496 863e
00000080: b440 01bf b781 3dbd dd1e 19bd db3d 7f3d
00000090: 6e5a 203e 361c 1e3c 2c1e 05bf 97a9 24bf
000000a0: c9da 453e b340 fbbe bee3 193c 035d 4e3e
000000b0: 53ad ddbe 145d 823b 93ef e43d 1e8d a9bf
000000c0: 7e25 27be 43ed 713d 23f2 34be 7397 e53c
000000d0: 4345 973e 6e3d 10b9 ecd0 acbf 8ed8 f63d
000000e0: 801b b13c 0d8c 973e 5da3 85bc 02ef c13d
000000f0: 38a0 babb 7dcd 8b3c 014b c03b ea2d d2bd
00000100: cd16 bf3e d195 52bf 998e 98be 88d8 cd3c
00000110: 544f 0b3f 94fd 7abf 46da 95be 8dfd a7be
00000120: 4eda 7cbe 0a82 ea3e 0b9d 72b9 e381 793a
00000130: 08aa 42bc 4b9b a4be 7735 383f 3f34 30bf
00000140: 8559 823d 890b 24bf 7180 d4be 4f5d b8bd
00000150: ad6e 5cbf e722 3f3f 60aa e03e fde7 8ebe
00000160: b570 30bf 21d8 5bbb 9955 8f3d ffce 2a3b
00000170: 66ff 943e ea93 bf3e c6b1 93be ec4c 033c
00000180: 0bab f8be 4e92 3e3e 75c9 973e af7a bd3c
00000190: 869e adbe 089d c0be 08f5 42bd 3c34 7e3c
000001a0: 00a3 423b e0d4 bfbe d86f b43c 18b8 71be
000001b0: b48c 053d 1c19 953e d1e3 45bc e4ca 0a3d
000001c0: 6ffe bfbb fdfe 89bc 3580 9ebf eb7a 52be
000001d0: 48dd c7bc 4c30 0bbf 2ea6 a3bf ba46 e4bd
000001e0: 4995 e7be ef91 363e c8ac cd3e 3e2c 903c
000001f0: d4c4 a9be dc0c 6bbe fc2f a3be f660 9e3c
00000200: 91a4 c2bc b8a3 75be 094f fb3d f145 4b3c
00000210: e60a aabf e242 c63d 35dd 823a 0be3 0c3e
00000220: b1f9 5e3d 6144 4bb9 2e63 91bc 0679 2dbc
00000230: cebc 26bb 5020 3e3f c931 d5bf ccd8 803b
00000240: 86d7 17bb ad32 97bc c258 5e3c 7111 61be
00000250: ad3a 1ebf 241b 07bc 4fbf b0be b844 863d
00000260: 031b fabd a029 443c 479b 20bc 8eb2 853e
00000270: c93b 043e 69b5 ca3c c88f 3d3c eaa8 07bf
00000280: 54ca 8ebd 78cf 1fbf f4ca 04bf e5e9 89bb
00000290: 49f0 c83a edfb 83ba 4ab3 673c b8bd b3bc
000002a0: 0397 56bf cb33 b33d 902a 193f b692 9dbb
000002b0: 19d1 5b3d ce37 943d 47d8 2dbf 94f6 773c
000002c0: 7f0f 333c 55df 97bf a180 5d3e f705 87be
000002d0: 1a3c 143e 5a83 69bf ef7f 00bc bd00 913c
000002e0: a9d0 bb3d 5495 023f a312 e53c dd5e 86bf
000002f0: a87e b7bc 1161 c7bc 65fa 80bc 1c26 8d3e
00000300: 3ec4 d5be 2e64 4e3d 44f8 cabe 43ec 6d3c
00000310: fce6 f4bb 5ace 693e 72fa 61bf aaa0 a0be

weight f4 [200, 15]
-0.04156658 0.051527068 -0.79151905 1.0058451 2.0645657 1.1504173 0.6685154 0.1385952
-1.4949132 -0.19188039 -0.067836635 0.038368706 -0.07558814 -0.06200202 0.14560786 -1.1271459
-0.8053595 0.20635912 0.7293035 -0.20525914 -0.67386115 0.23713444 0.1513883 0.5077023
0.5757841 -1.181848 -0.8074821 -0.8878878 -0.77258873 1.0498677 -0.5572659 -0.57292444
-0.13535844 -0.37984708 0.7113333 0.43431187 0.7987045 0.052575093 -1.5567365 0.35169807
-0.74967533 0.06948181 0.19908667 -0.61964464 -0.69607294 -1.1990309 0.4595765 0.5401385
0.04020806 0.42886323 0.19908339 0.3893307 1.2399796 -0.2255529 -0.36079565 0.02700422
-0.23534252 -0.42868865 -3.39142 0.024472978 0.0016597458 0.32934368 0.0772273 -0.4122995
-0.16861334 -0.2965724 0.20211655 0.8626934 -3.3524537 0.16762185 0.43719688 0.22145505
0.2683395 -0.31043798 0.5222904 0.08210854 0.96214247 0.26509118 0.15910046 -1.0299821
-0.631619 0.03576757 0.8398644 -0.027277855 -2.3632572 -0.4404977 0.45666716 0.6338908
0.37888676 0.05757214 0.13862227 0.123533785 1.2989157 -0.9648202 0.40000397 0.07279159
-0.33041084 -1.3763007 -0.4992249 0.12637672 0.08982905 -0.41251191 -0.2913827 -0.31933463
-0.26466775 -0.18255877 -0.08409702 -0.030756958 0.07750622 -0.06272539 -0.1687126 -0.29726952
-0.35484767 -0.11667844 -0.081598096 -0.29491514 0.1552151 -0.20683876 -0.2275186 -0.005749944
0.33917165 0.44175914 0.49614054 -0.048513178 0.4489703 -0.2996736 -0.64165956 -0.51965535
-2.2785008 -0.78420794 0.21495363 -0.08361135 0.16327985 -0.39671782 0.46770394 0.088521935
-0.100421555 -0.3558384 1.0721006 0.14200673 0.11157326 -0.058869425 0.40896702 0.65711236
-0.1011575 -0.2721182 0.6808255 -0.22907068 -0.0040706964 -0.052699514 -0.34854156 -0.5141837
0.5086825 -0.60574675 -0.7817652 -0.67386746 -0.20941861 0.22682355 0.28511217 -0.098458275
0.8198066 0.81097215 0.38704783 0.53285 -0.39079475 0.7245811 0.22788493 0.13012876
-1.1431545 -0.93953043 -1.1678658 -0.23972943 0.17383304 0.6055233 -0.202702 -1.2117814
-0.37335062 -0.23767926 -0.47088072 -0.5506734 -0.11800224 1.215196 -1.3447943 0.16882716
-0.8810923 -0.48190722 -0.13805646 -0.38850525 0.6062836 -0.75113606 -0.93098795 -0.8503572
-1.0649546 -0.8584446 0.5366122 0.30475998 1.4549035 -0.3642023 0.3202699 0.5693374
0.11339339 0.59962153 -0.5734659 -0.22895534 0.076866716 -1.781296 -0.3878222 -0.18219735
-1.2639763 0.26691997 -1.5805681 0.103433706 0.21378864 -0.87502867 -0.68307287 0.696452
0.5752406 0.09278126 -0.24692994 -0.08710136 0.32357928 -0.058636945 -0.101581044 0.5036747
0.22391045 0.420029 -0.014340904 -0.9166569 0.7732846 0.06458871 -0.11434369 -0.20965007
0.27028346 0.63479245 -1.1874592 -0.35948655 -0.4210713 0.2805504 0.20050743 -0.13791864
-0.047875006 0.18689167 0.30156946 -0.22302395 -0.02039184 0.25731197 0.095949076 1.0323473
-1.8929034 0.45308197 -1.3015913 0.6796149 0.6751131 0.1357655 0.09491868 -0.10038185
00000000: b841 2abd 0c0e 533d fea0 4abf 88bf 803f
00000010: d821 0440 e040 933f d323 2b3f e6eb 0d3e
00000020: 5159 bfbf 4b7c 44be efed 8abd 8128 1d3d
00000030: f4cd 9abd d5f5 7dbd 3a1a 153e 5146 90bf
00000040: 0a2c 4ebf ce4f 533e a2b3 3a3f 742f 52be
00000050: 2a82 2cbf 5fd3 723e 8905 1b3e c7f8 013f
00000060: 9666 133f cc46 97bf 26b7 4ebf 9d4c 63bf
00000070: 60c8 45bf 1162 863f faa8 0ebf 2dab 12bf
00000080: 679b 0abe 517b c2be f019 363f 205e de3e
00000090: e677 4c3f fb58 573d 2443 c7bf c511 b43e
000000a0: b9ea 3fbf 7b4c 8e3d 60dd 4b3e 08a1 1ebf
000000b0: d631 32bf d879 99bf 9c4d eb3e 8446 0a3f
000000c0: 35b1 243d f693 db3e 84dc 4b3e 5a56 c73e
000000d0: a7b7 9e3f 57f7 66be 35ba b8be f437 dd3c
000000e0: a1fd 70be 147d dbbe 060d 59c0 8e7b c83c
000000f0: d48b d93a bc9f a83e 5929 9e3d ec18 d3be
00000100: faa8 2cbe 56d8 97be a4f7 4e3e 7ad9 5c3f
00000110: 9a8e 56c0 10a5 2b3e 45d8 df3e 1dc5 623e
00000120: cc63 893e baf1 9ebe d3b4 053f 8628 a83d
00000130: f84e 763f 08ba 873e 3beb 223e 74d6 83bf
00000140: c8b1 21bf 0481 123d 5a01 573f cf75 dfbc
00000150: 9b3f 17c0 ea88 e1be 47d0 e93e ab46 223f
00000160: 72fd c13e c4d0 6b3d fff2 0d3e 48ff fc3d
00000170: df42 a63f 75fe 76bf 52cd cc3e c213 953d
00000180: 9c2b a9be 9f2a b0bf 689a ffbe e668 013e
00000190: 4bf8 b73d c334 d3be 1d30 95be d47f a3be
000001a0: 8882 87be b0f0 3abe 0f3b acbd 04f6 fbbc
000001b0: 95bb 9e3d 2b76 80bd ffc2 2cbe b633 98be
000001c0: 98ae b5be 1bf5 eebd e71c a7bd 1eff 96be
000001d0: b5f0 1e3e 8acd 53be a3fa 68be 076a bcbb
000001e0: e8a7 ad3e 412e e23e 2206 fe3e c1b5 46bd
000001f0: 6fdf e53e d16e 99be cd43 24bf 2208 05bf
00000200: f5d2 11c0 dac1 48bf ce1c 5c3e 6d3c abbd
00000210: d532 273e 991e cbbe e476 ef3e fd4a b53d
00000220: d1a9 cdbd 7330 b6be 983a 893f 366a 113e
00000230: 8580 e43d 1121 71bd 2064 d13e 8438 283f
00000240: aa2b cfbd 1453 8bbe 944a 2e3f 8191 6abe
00000250: 7a63 85bb 72db 57bd 0a74 b2be 8ba1 03bf
00000260: 0439 023f 3812 1bbf c421 48bf 9482 2cbf
00000270: d571 56be 6f44 683e 39fa 913e 7ea4 c9bd
00000280: d8de 513f df9b 4f3f 222b c63e dc68 083f
00000290: 4016 c8be 267e 393f ab5a 693e 7940 053e
000002a0: e352 92bf 1185 70bf a07c 95bf a27b 75be
000002b0: 4a01 323e 9303 1b3f 1d91 4fbe a71b 9bbf
000002c0: d027 bfbe 3162 73be 4717 f1be eff8 0cbf
000002d0: 29ab f1bd 8b8b 9b3f 3822 acbf 07e1 2c3e
000002e0: 448f 61bf 8bbc f6be ac5e 0dbe 29ea c6be
000002f0: 6735 1b3f 744a 40bf 3a55 6ebf 02b1 59bf
00000300: 6f50 88bf 06c3 5bbf 6b5f 093f 8009 9c3e
00000310: 473a ba3f b978 babe 6bfa a33e 19c0 113f
00000320: cb3a e83d cc80 193f a9ce 12bf 4573 6abe
00000330: 4c6c 9d3d 8201 e4bf a290 c6be f191 3abe
00000340: fac9 a1bf bca9 883e 0e50 cabf 0dd5 d33d
00000350: 69eb 5a3e e101 60bf dddd 2ebf ae4a 323f
00000360: f842 133f 1a04 be3d 34db 7cbe 3362 b2bd
00000370: 2fac a53e 4b2d 70bd b909 d0bd d3f0 003f
00000380: c848 653e 0b0e d73e 1cf6 6abc 07aa 6abf
00000390: fbf5 453f 1647 843d 062d eabd 82ae 56be
000003a0: 9862 8a3e c281 223f aafe 97bf 9f0e b8be
000003b0: a896 d7be 4da4 8f3e d251 4d3e 8b3a 0dbe
000003c0: 9518 44bd 8860 3f3e 5067 9a3e 6460 64be
000003d0: ca0c a7bc 65be 833e f380 c43d f523 843f
000003e0: a94a f2bf 5cfa e73e 8b9a a6bf 3efb 2d3f
000003f0: 36d4 2c3f 1c06 0b3e ba64 c23d 0095 cdbd

bias f4 [200]
0.09857595 -0.56363654 0.09718751 0.27990827 -0.10249186 0.09985441 0.21949749 -0.1932012
0.33919644 -0.6375071 -0.5157185 -0.17094433 -0.10188889 0.1179922 0.12002012 -0.7869485
0.07881171 0.27817574 0.3733185 -0.6338015 -0.10392115 0.04588719 0.06507995 -0.19788474
-0.6251968 0.25356692 0.22988921 0.2627701 -1.0112891 -0.33860153 0.16197854 -0.26967254
0.19115324 -0.064339876 -0.0023530289 -0.2607762 0.20293732 0.60137194 -0.2848542 -0.06601546
0.07695815 -0.5602159 -0.28207675 -0.43324226 0.18124332 0.17438817 -0.9230127 -0.394688
0.095431715 0.12591986 0.09049219 -0.4676139 -0.89401734 -0.04931982 0.019257702 -0.3434876
-0.21013424 -0.09296777 0.5097473 -0.3349927 -0.65511423 0.6298971 0.32526204 -0.5599614
0.20644315 -0.14343137 -0.5012722 0.07395601 -0.29498667 -0.22977276 0.24939281 0.055815913
0.30276746 -1.3071728 -0.5972925 -0.8325759 -0.16734311 0.19691993 -0.25501534 -0.5628686
0.28903428 0.2503281 -0.07819815 0.13379143 -0.43851104 -0.25614896 -0.94496274 0.124288574
-0.55684197 -0.704812 -0.1591355 0.29984486 -0.13372655 -0.30601907 -0.62850124 -0.6087658
-0.38688833 -0.6049292 -0.8031476 0.15405712 0.04759611 -0.07462441 -0.16472888 -0.32283273
-0.23727582 -0.3797383 0.12714368 -0.37146422 -0.55678314 -0.6587503 -0.9035268 -0.8782158
-0.18287 0.20181042 -0.09425717 -0.48637307 -0.02347266 0.46870744 0.17133704 0.12240606
0.27384827 0.16908543 -0.112344354 0.39984915 -0.5375795 0.034370802 -0.19678172 -0.34649834
-0.25208253 -0.060780384 0.69257504 -0.15985839 0.0052659553 -0.2535211 0.15639257 -0.16700569
-0.26080528 -0.4227808 -0.37090904 -0.07515996 -0.046131615 -0.564683 0.41822103 -0.50228566
-0.7950012 -0.6375674 0.12958594 -0.3894005 -0.25551608 -0.67587787 0.09479451 0.028702868
-0.67366 -0.007473892 -0.7797104 0.48758087 0.033748172 0.02679405 -0.22402962 -0.10603742
-0.87964165 -0.72691166 -0.3246386 0.40010345 0.38338718 -0.32502213 0.19470394 -0.6286998
0.41773087 -0.17087816 0.3545872 0.9753981 0.59957016 -0.8386473 -0.3193554 0.50167215
-0.22316499 -0.16089416 -0.4831234 -1.0280849 -0.13922863 -0.15745278 -0.3343829 -0.14282763
-0.45726153 0.31159267 -0.16815208 -0.7896825 0.20267904 -0.8581889 -0.6961454 -0.32765174
-0.19542393 -0.028336097 0.3001416 -0.38112536 -0.5745809 -0.27769378 0.5607999 -0.43114915
00000000: 30e2 c93d 7c4a 10bf 3f0a c73d 2350 8f3e
00000010: 41e7 d1bd 7880 cc3d f3c3 603e 89d6 45be
00000020: 28ab ad3e aa33 23bf 2106 04bf 080c 2fbe
00000030: 1fab d0bd e5a5 f13d 1ccd f53d 7575 49bf
00000040: 0968 a13d 0d6d 8e3e 9a23 bf3e d140 22bf
00000050: 9dd4 d4bd 35f4 3b3d a348 853d 4ca2 4abe
00000060: e60c 20bf 86d3 813e 1468 6b3e cd89 863e
00000070: ec71 81bf 2e5d adbe b4dd 253e 8512 8abe
00000080: adbd 433e a0c4 83bd 4635 1abb 7584 85be
00000090: cdce 4f3e 83f3 193f 69d8 91be 1d33 87bd
000000a0: 3c9c 9d3d 4f6a 0fbf 5d6c 90be eed1 ddbe
000000b0: d997 393e d092 323e 8f4a 6cbf 8c14 cabe
000000c0: b471 c33d 23f1 003e f853 b93d 176b efbe
000000d0: 52de 64bf 9403 4abd 54c2 9d3c 9bdd afbe
000000e0: 6e2d 57be e365 bebd cd7e 023f 2a84 abbe
000000f0: 91b5 27bf f040 213f bf88 a63e a159 0fbf
00000100: d565 533e acdf 12be 6053 00bf 4076 973d
00000110: 7e08 97be 8d49 6bbe d460 7f3e 3a9f 643d
00000120: 5604 9b3e 7051 a7bf 29e8 18bf b223 55bf
00000130: fe5b 2bbe 61a5 493e 5f91 82be 2818 10bf
00000140: 4dfc 933e 012b 803e 5a26 a0bd 9f00 093e
00000150: 8584 e0be f525 83be 14e9 71bf 028b fe3d
00000160: 328d 0ebf 8f6e 34bf 6bf4 22be 4485 993e
00000170: 9def 08be 88ae 9cbe 75e5 20bf 13d8 1bbf
00000180: 3a16 c6be a4dc 1abf 159b 4dbf 26c1 1d3e
00000190: 23f4 423d afd4 98bd b0ae 28be 554a a5be
000001a0: 6ff8 72be 0f6d c2be f431 023e 8f30 bebe
000001b0: 5789 0ebf dca3 28bf 884d 67bf c0d2 60bf
000001c0: 4642 3bbe 64a7 4e3e e709 c1bd e405 f9be
000001d0: bc49 c0bc 6cfa ef3e fa72 2f3e 07b0 fa3d
000001e0: d735 8c3e bb24 2d3e cc14 e6bd 07b9 cc3e
000001f0: cf9e 09bf 66c8 0c3d 2681 49be 3b68 b1be
00000200: f610 81be daf4 78bd 994c 313f ebb1 23be
00000210: 098e ac3b 85cd 81be 6025 203e 8a03 2bbe
00000220: 4588 85be ba76 d8be cae7 bdbe 77ed 99bd
00000230: 81f4 3cbd 118f 10bf 1121 d63e cb95 00bf
00000240: 3385 4bbf 9e37 23bf 2db2 043e 815f c7be
00000250: 01d3 82be 5506 2dbf a023 c23d 4722 eb3c
00000260: fb74 2cbf 8de7 f4bb 1a9b 47bf 33a4 f93e
00000270: 863b 0a3d 327f db3c 0568 65be 262a d9bd
00000280: 3230 61bf e216 3abf 0837 a6be 5cda cc3e
00000290: 534b c43e 4d69 a6be 7860 473e 78f2 20bf
000002a0: d2e0 d53e affa 2ebe 748c b53e b1b3 793f
000002b0: 6e7d 193f 97b1 56bf 8d82 a3be 966d 003f
000002c0: 5d85 64be 70c1 24be f35b f7be 4998 83bf
000002d0: f391 0ebe 4d3b 21be 3c34 abbe 6841 12be
000002e0: 2f1e eabe 1389 9f3e 0f30 2cbe a228 4abf
000002f0: 188b 4f3e 45b2 5bbf 9636 32bf f8c1 a7be
00000300: 361d 48be 1a21 e8bc 29ac 993e dd22 c3be
00000310: bc17 13bf e12d 8ebe 9590 0f3f 95bf dcbe

weight f4 [200, 200]
-0.22812958 -0.17354535 0.56621 -0.2054388 0.34831294 -0.0059287297 1.1390283 0.034717876
-0.06733468 -0.22824186 -0.7910215 0.039863918 0.26125893 -0.3216672 0.049683053 -0.21690719
-0.71256304 -0.8644644 0.87407434 0.35526922 -0.005556725 0.10275925 0.1144671 -8.628423
0.28125378 0.17839204 -1.9428688 -1.0475836 0.13003333 -0.6809486 0.35881767 -0.08344733
-0.37496123 0.4519248 -1.0698639 0.044240635 -0.63230944 0.7668814 0.23220554 -0.009606461
-0.953522 -0.06750663 0.65696037 -0.4733895 0.71175134 -0.6547735 -0.23026042 0.034598663
-0.2751113 -1.4207435 -0.40692955 0.19216704 -0.82114 0.45554268 -1.1528124 -0.5281064
-0.3244747 0.1782675 0.09057797 -0.042356063 0.24037534 -0.22121117 -0.0051048086 -0.3612245
0.12234255 0.16828945 -0.65963924 -0.65932935 -0.017448856 -0.046952855 -0.7092066 0.16754115
1.8817664 0.57617444 -0.27562943 -0.79432774 -1.3764977 -1.2161863 0.20033564 0.35170648
-1.0072871 0.15149353 0.6883568 -0.084004454 -0.8114066 -0.42293653 -0.11447322 -0.1270174
0.08119166 -2.8017368 0.23568994 0.53724164 -0.8647509 -0.07047385 -0.15966251 0.16547379
0.09935678 0.030209951 -0.43674165 -0.42256764 -0.1016437 -0.66613704 0.2743654 0.22407521
-0.6182021 -0.24209058 -0.093767636 0.022556094 0.067695804 -0.92753685 -0.12257166 0.7434476
1.0672313 -2.37086 -1.1303968 1.180635 -0.21113624 -2.3944683 0.36164352 -0.056006443
0.34874305 0.4452681 0.2436633 -0.1466884 0.34334955 -1.3450178 -0.599975 -1.2879083
-1.8451562 -0.7040164 0.0048751673 0.6245398 -1.1765419 0.15224412 0.048011962 -0.008390645
-0.26047277 -0.5253976 -0.3131264 -0.35083416 -0.13430701 0.22867452 -0.27343982 0.74454373
-0.29886997 0.12050655 0.19638227 -2.1174192 -0.80413026 -2.9472442 -0.40970844 -0.21619482
-0.13322972 -1.265854 -0.09321842 -0.22450131 -1.5711807 -0.8282307 -0.62634087 -0.8326461
-2.2703383 -0.0081664 -0.20213892 -0.10342224 -3.4299684 0.1418402 -0.32063928 0.65317166
-0.2856347 -0.28207034 0.5997522 -0.8479386 0.023192003 -0.4320098 -0.18611838 -0.85965997
-0.86187756 -0.6175615 0.053933196 0.30856827 0.19416088 -0.17098805 0.056644905 0.41800967
-0.56701607 0.31797534 -0.020625427 0.2430815 0.6563705 1.0286304 0.1340939 -0.3617993
-0.15435977 -0.29406744 -0.5901228 0.12506123 0.35334194 -0.66794276 -1.0853217 0.02395152
-0.017783996 0.03473501 0.012819388 -0.0061178175 -0.00464614 -0.06455562 -0.1308666 0.0313772
0.014022285 0.041263916 -0.07058583 0.025701735 -0.022915587 -0.0019681822 -0.007325651 -0.06649258
0.0024738046 0.018472428 -0.02950079 0.043798625 -0.026338387 0.0630979 -0.07085137 -0.059630513
0.03683502 0.00885493 -0.01084815 -0.12392637 -0.08010947 -0.03656637 0.012055889 -0.055463966
0.03731068 0.016732587 0.012735074 -0.014231089 0.0208514 -0.06822578 -0.040540513 -0.028316146
-0.044490814 -0.06490431 0.030797934 -0.04139733 -0.061292633 -0.015598271 0.05224517 0.05160005
-0.05087075 -0.10630573 -0.052188016 0.00632187 0.037825514 -0.030000724 -0.05859254 -0.026652185
00000000: cd9a 69be dfb5 31be 23f3 103f 8c5e 52be
00000010: 1356 b23e ca45 c2bb aecb 913f 5534 0e3d
00000020: c4e6 89bd 3cb8 69be 6380 4abf 5948 233d
00000030: bbc3 853e 90b1 a4be 7580 4b3d eb1c 5ebe
00000040: 886a 36bf 8a4d 5dbf 56c3 5f3f d9e5 b53e
00000050: 3015 b6bb 7173 d23d ba6d ea3d 050e 0ac1
00000060: 7f00 903e 67ac 363e edaf f8bf 3817 86bf
00000070: 7527 053e a652 2ebf f3b6 b73e 6fe6 aabd
00000080: ebfa bfbe b062 e73e 4df1 88bf ab35 353d
00000090: 08df 21bf 5752 443f 4ac7 6d3e 6b64 1dbc
000000a0: 051a 74bf eb40 8abd 8e2e 283f 1c60 f2be
000000b0: 5635 363f 3c9f 27bf 63c9 6bbe 54b7 0d3d
000000c0: 63db 8cbe ecda b5bf 1259 d0be 70c7 443e
000000d0: 3b36 52bf e43c e93e 5b8f 93bf fb31 07bf
000000e0: 8c21 a6be c18b 363e f180 b93d 8d7d 2dbd
000000f0: f424 763e 2e85 62be 3d46 a7bb 6bf2 b8be
00000100: bb8e fa3d 1254 2c3e 1ede 28bf cfc9 28bf
00000110: e7f0 8ebc a351 40bd 908e 35bf e88f 2b3e
00000120: b9dd f03f 2b80 133f 4d1f 8dbe 1059 4bbf
00000130: 1431 b0bf feab 9bbf c924 4d3e df12 b43e
00000140: c9ee 80bf 1f21 1b3e 2738 303f 870a acbd
00000150: 58b8 4fbf 238b d8be f070 eabd d910 02be
00000160: d047 a63d a84f 33c0 b458 713e ab88 093f
00000170: 5160 5dbf 9854 90bd 927e 23be f671 293e
00000180: 917b cb3d dc7a f73c 9a9c dfbe c95a d8be
00000190: 922a d0bd f587 2abf 9f79 8c3e f973 653e
000001a0: 7e42 1ebf 98e6 77be 3f09 c0bd 8fc7 b83c
000001b0: 19a4 8a3d 0e73 6dbf da06 fbbd 9552 3e3f
000001c0: 099b 883f 2cbc 17c0 d8b0 90bf 0c1f 973f
000001d0: 1934 58be f83e 19c0 5729 b93e 0367 65bd
000001e0: 738e b23e 2efa e33e df82 793e 7c35 16be
000001f0: 83cb af3e 8b29 acbf f697 19bf 2eda a4bf
00000200: 142e ecbf 6b3a 34bf debf 9f3b d7e1 1f3f
00000210: ed98 96bf e2e5 1b3e 31a8 443d ea78 09bc
00000220: b05c 85be 7580 06bf 1a52 a0be 89a0 b3be
00000230: c787 09be a729 6a3e 4e00 8cbe 6b9a 3e3f
00000240: 7c05 99be 23cc f63d 6f18 493e cc83 07c0
00000250: 7bdb 4dbf a69f 3cc0 4ec5 d1be 2d62 5dbe
00000260: 5f6d 08be 8107 a2bf 4de9 bebd ace3 65be
00000270: 731c c9bf ed06 54bf e057 20bf 4b28 55bf
00000280: 394d 11c0 5dcc 05bc 81fd 4ebe 0acf d3bd
00000290: 9a84 5bc0 8f3e 113e d52a a4be 4236 273f
000002a0: b63e 92be 866b 90be 5c89 193f 8112 59bf
000002b0: 28fd bd3c 6330 ddbe d195 3ebe ad12 5cbf
000002c0: 02a4 5cbf 8318 1ebf 0ee9 5c3d a9fc 9d3e
000002d0: 1cd2 463e 7e17 2fbe 7d04 683d 5d05 d63e
000002e0: f727 11bf aacd a23e a8f6 a8bc 5bea 783e
000002f0: e607 283f 29aa 833f e94f 093e c23d b9be
00000300: 7d10 1ebe 0290 96be 4a12 17bf 0d10 003e
00000310: 3ce9 b43e 4cfe 2abf d2eb 8abf fa35 c43c
00000320: beaf 91bc 4c46 0e3d 6908 523c f977 c8bb
00000330: a63e 98bb bd35 84bd e501 06be 6185 003d
00000340: babd 653c 5a04 293d 4e8f 90bd 728c d23c
00000350: 78b9 bbbc 9efc 00bb 040c f0bb 432d 88bd
00000360: 8e1f 223b 7d53 973c a4ab f1bc 3066 333d
00000370: 9ac3 d7bc 7939 813d 861a 91bd 203f 74bd
00000380: 51e0 163d 4514 113c 70bc 31bc 1ccd fdbd
00000390: 6f10 a4bd 9ec6 15bd 1086 453c 2f2e 63bd
000003a0: 15d3 183d c712 893c c6a6 503c 8329 69bc
000003b0: 8ed0 aa3c f5b9 8bbd cf0d 26bd 43f7 e7bc
000003c0: 003c 36bd 8dec 84bd f34b fc3c 3f90 29bd
000003d0: fc0d 7bbd e48f 7fbc 08ff 553d 935a 533d
000003e0: d95d 50bd d2b6 d9bd 1ac3 55bd b027 cf3b
000003f0: edee 1a3d 14c4 f5bc bbfe 6fbd af55 dabc

bias f4 [200]
-0.5642447 -0.11817171 0.06738841 -0.5538326 -0.084420376 -0.5213445 -0.055996757 0.68175286
-0.09419257 0.7736718 -0.27424833 -0.0953191 -0.27254522 -0.34138817 -0.53987473 -0.11386063
-0.46576378 -0.044332862 1.6260587 0.03602343 -0.34203526 -0.47968376 -0.116369985 0.12536973
-0.37206832 -0.033548135 -0.09904886 -0.5677418 -0.22729418 -0.030675747 -0.304342 -0.38304666
-0.33769342 -0.03431033 0.08292846 -0.2751085 -0.04669544 -0.08749747 -0.06500117 1.1886903
-0.052136607 -0.07376306 -0.053310074 -0.46495163 -0.12391197 -0.027005587 -0.35257673 -0.00611046
-0.36367154 -0.05199728 -0.12124214 0.029574549 -0.049383614 -0.09274566 -0.6513189 -0.07848673
-0.18212676 -1.0714802 -0.038934164 -0.4548446 -0.05695639 -0.35844183 -0.24845773 -0.34293267
-0.19649436 -0.041547086 -0.04107558 -0.49287504 -0.16692184 -0.06565682 -0.13493997 -0.09028399
-0.09456361 -0.42943585 -0.18384238 -0.16573535 -0.098838754 -0.62772644 -0.031015866 -0.72484684
3.2002783e-05 -0.118700534 -0.33657458 -0.0011825131 0.1354317 -0.042783137 -0.08808011 -0.024568873
-0.0898146 -0.059584215 -0.051206775 0.28534693 -0.082745485 -0.8111356 -0.08510732 -0.46775123
-0.19617249 -0.029132728 -0.06296938 -0.052931584 -0.15776323 -0.31227797 -0.035385452 -0.6286858
-0.11102494 -0.13796254 -0.16384111 -0.33702376 -0.046376556 -0.06437234 -0.35042933 -0.10565008
-0.06924942 -0.09295279 -0.1989143 -0.45533615 -0.09671385 -0.29745921 -0.066637315 -0.24801964
-0.12092528 -0.17354059 -0.28099203 1.1155702 -0.2587203 -0.17314342 -0.0632175 0.18433136
-0.008162213 -0.55639994 -0.07371239 -0.17782229 -0.3956513 -0.42517534 -0.020477755 -0.5726596
-0.2576771 -0.014600079 -0.04083034 -0.059569314 0.09744044 -0.4476224 -0.103876844 -0.11018884
-1.3618298 -0.10706569 -0.011561543 0.0135288695 -0.11311408 -0.7342259 -0.05279524 -0.2429466
-0.36337706 -0.47048658 -0.09019458 -0.12198773 -0.009873613 -0.07380925 -0.4139338 -0.50725394
-0.057438444 -0.033251602 -0.10806854 0.005875021 0.013418493 0.27928287 -0.07006976 0.025172515
0.14227349 -0.055250954 -0.074120685 -0.09208212 0.05777369 -0.025796358 -0.051887013 -0.47685835
-0.72713643 -0.10951247 -0.12366411 -0.26319757 -0.8984891 -0.4514967 -0.036286972 -0.025932703
-0.049134765 -0.874712 -0.10054047 -0.11924294 -0.20815304 -0.08781934 -0.396112 -0.13973695
0.069891706 -0.47920096 -0.103541076 -0.2918838 -0.48777014 -0.3200257 -0.070303984 -0.4353347
00000000: 5772 10bf 0204 f2bd ef02 8a3d f9c7 0dbf
00000010: 97e4 acbd d576 05bf db5c 65bd 5b87 2e3f
00000020: 09e8 c0bd 5b0f 463f 476a 8cbe a936 c3bd
00000030: 0c8b 8bbe 6eca aebe 3b35 0abf c32f e9bd
00000040: 9778 eebe 6096 35bd b122 d03f 4e8d 133d
00000050: 3f1f afbe 1c99 f5be 6353 eebd ec60 003e
00000060: bd7f bebe c569 09bd 21da cabd 8757 11bf
00000070: cebf 68be b44b fbbc b7d2 9bbe b11e c4be
00000080: 27e6 acbe fd88 0cbd 65d6 a93d 05db 8cbe
00000090: b843 3fbd e031 b3bd 551f 85bd 0127 983f
000000a0: 328d 55bd 1611 97bd aa5b 5abd 240e eebe
000000b0: 8fc5 fdbd d23a ddbc f084 b4be 413a c8bb
000000c0: 2833 babe 1afb 54bd cd4d f8bd 5346 f23c
000000d0: 7946 4abd 70f1 bdbd d6bc 26bf a7bd a0bd
000000e0: 707f 3abe 4326 89bf 6e79 1fbd 64e1 e8be
000000f0: 1b4b 69bd b085 b7be b46b 7ebe df94 afbe
00000100: d135 49be 472d 2abd de3e 28bd 1e5a fcbe
00000110: 8fed 2abe 1577 86bd b42d 0abe d0e6 b8bd
00000120: 91aa c1bd 04df dbbe 2d41 3cbe 87b6 29be
00000130: f96b cabd aeb2 20bf fc14 febc 908f 39bf
00000140: ba3a 0638 4419 f3bd 8153 acbe 8efe 9aba
00000150: 9cae 0a3e 5f3d 2fbd 5863 b4bd a944 c9bc
00000160: b8f0 b7bd 940e 74bd 32be 51bd fe18 923e
00000170: 7776 a9bd 95a6 4fbf bf4c aebd 177d efbe
00000180: 71e1 48be c2a7 eebc 17f6 80bd cace 58bd
00000190: af8c 21be e6e2 9fbe 56f0 10bd 8df1 20bf
000001a0: 0b61 e3bd 0d46 0dbe f7c5 27be 618e acbe
000001b0: 58f5 3dbd a5d5 83bd 796b b3be 125f d8bd
000001c0: a4d2 8dbd 085e bebd 31b0 4bbe d221 e9be
000001d0: e911 c6bd 934c 98be 2579 88bd dcf8 7dbe
000001e0: aca7 f7bd a0b4 31be 30de 8fbe 01cb 8e3f
000001f0: fd76 84be 824c 31be 2d78 81bd 5cc1 3c3e
00000200: cdba 05bc 3a70 0ebf 86f6 96bd 0c17 36be
00000210: cf92 cabe 95b0 d9be f7c0 a7bc d299 12bf
00000220: 41ee 83be 2b35 6fbc b73d 27bd f4fe 73bd
00000230: da8e c73d c32e e5be 62bd d4bd b0aa e1bd
00000240: 7050 aebf 4245 dbbd a06c 3dbc 31a8 5d3c
00000250: 5ba8 e7bd 3bf6 3bbf d23f 58bd fec6 78be
00000260: 8f0c babe 9ee3 f0be f0b7 b8bd b4d4 f9bd
00000270: efc4 21bc 4e29 97bd 22ef d3be 65db 01bf
00000280: 9344 6bbd d532 08bd 0a53 ddbd 4083 c03b
00000290: 3dd9 5b3c 2afe 8e3e bc80 8fbd 9736 ce3c
000002a0: 24b0 113e d34e 62bd 96cc 97bd 8d95 bcbd
000002b0: 1ba4 6c3d e252 d3bc 7a87 54bd c726 f4be
000002c0: 9d25 3abf 1348 e0bd 9c43 fdbd d5c1 86be
000002d0: 6203 66bf 932a e7be a6a1 14bd d270 d4bc
000002e0: 8941 49bd 20ed 5fbf 29e8 cdbd a435 f4bd
000002f0: 1226 55be a0da b3bd 31cf cabe 3417 0fbe
00000300: 6223 8f3d d459 f5be 580d d4bd cb71 95be
00000310: 02bd f9be 69da a3be 89fb 8fbd 31e4 debe
