Vehicles/ModRepeat_forest_7/ModRepeat_forest_7_critic.pth (torch, 353498 bytes, 10 tensors)

weight f4 [200, 15]
00000000: e4b1 a6bd d615 d6bc 0355 e63e 4ae1 163e
00000010: 99d6 1d3d b22e 00be 5f59 96bd 19f3 953d
00000020: eb0f 713f a7d8 9fbf 3487 ad3e 8190 043d
00000030: fab0 c73d 8019 703e fed7 37bd 4141 6b3e
00000040: 1191 723f e9c5 7bbf 5ade 2cbe d749 eebe
00000050: 09ef 03bc d4c0 3bbf 3f24 00c0 db5c 12be
00000060: b30a c2be 9ad0 42be 6c2d e33e ea6f a03e
00000070: 5623 2a3f c9c9 173e 6aeb 96be 8c34 143d
00000080: 9ad9 1ebf 16ef 76bf c371 c6be 37a6 62be
00000090: 39b9 02bf 1013 44bf 969c fa3e cbc1 df3e
000000a0: eab4 9d3f 3cee db3d c719 c7bd 63ac 81bd
000000b0: e426 3dbe a346 013f 9e9e 9a3e 99e6 60bd
000000c0: afd5 bf3d ab45 eabd e2fa 0cbb 57e3 40bf
000000d0: 91fe 6e3e e75b adbd 9335 073e c785 b0bf
000000e0: bc36 aa3e 8d26 e03e f3ca 193f 1cab e83b
000000f0: c7ac bcbf c063 8ebe 9e74 27bd 94aa 783f
00000100: b7d3 0d3f ebd2 1e3f 5838 973e 1ca8 8a3d
00000110: 85db 4cbf c494 cf3d 6f57 813f 7b80 253e
00000120: 41ba b4be 469c 0bbc 8492 3dbe b13a 12be
00000130: b438 0fbe 5a32 56bd 60c3 2bbf 9bbd 673e
00000140: d7d8 963d b3dd fdbd f877 543f 47d1 79bf
00000150: c669 5c3f 9d58 31bc 38d3 7f3c 6ec0 1c3d
00000160: 8e06 b6bd e40a abbe 889a 433e aa3a 8ebf
00000170: 54ae 933f a33d 75bf 54cd 6ebd ec3d d03e
00000180: 644b 2fbd 476c 47be 38c7 97bf 5272 9f3e
00000190: 1f95 c6bd 1462 a1bb 7865 8ebe 39b5 41bf
000001a0: 5be3 03bf 549b 7bbe 95ba c5bc 3860 1a3e
000001b0: 0502 8a3c 762d 95be 94a3 7bbf b295 cd3e
000001c0: 5b2d f73e 2ab6 b5bf 10c3 a83e 76ea 51bf
000001d0: 19be b53e cf3e 3fbe f734 f5be ef4c c5be
000001e0: d301 953e e089 b1bd 1b7a 793e 138d e1be
000001f0: 4e43 c8bf cc5b 43bf 81a4 a53e a5fa 083f
00000200: 0365 50c0 8f26 f03e 7120 9dbe 9094 d9bd
00000210: 5ef1 06be b205 8fbe c113 333e 1938 a73e
00000220: f2c7 c33e 1124 95be 53ec a2be 42e0 f0bc
00000230: 5c05 68bf 463a a93e c0d8 26bd bcb5 24c0
00000240: 8a11 493e 2663 a03e 5469 ffbe 7633 9cbd
00000250: 2f54 cd3e 4085 c9be e300 893e aa8a 0bbe
00000260: ad69 f83d 0a7a b43e 5fd6 99be ff11 f5be
00000270: afc8 943e 038b 463f dc46 ca3e f051 173f
00000280: 3c60 333e e9c4 bdbd b7de ddbe 468a 1dbf
00000290: 5212 a13e 923b 843e d21b 6bbf f637 9fbf
000002a0: 2635 bb3e 9771 d5be 10a3 f9bd 4456 cdbe
000002b0: 7deb 973e 9466 9dbe 37d1 e93e b537 fcbe
000002c0: f4c7 07bf 497b e7bd df35 013f 0e34 1cbd
000002d0: a8c7 4f3d 70ca a1bd c0c9 cbbd 5885 d53d
000002e0: e6cc c8be e69d 7abe d7c8 cdbe 3472 8ebe
000002f0: aca1 8bbe f6d0 75be 26ac b8be 767f 813c
00000300: a65d bdbe 93bd a3bc f08c 2abe ec80 383c
00000310: 5a61 063f 5be6 abbe 8f70 073f 4a37 2d3f
00000320: 6479 7ebe 8e9d 5fbf 8ae6 df3e 7578 19be
00000330: 7777 11bf 8b4b e5be fea1 0d3f b297 0abf
00000340: 5a12 89bf 6c92 6b3e d121 933d b9ff adbb
00000350: 3659 3cbe 2561 043f 7e38 c53f 920a 9b3f
00000360: f694 923f 6162 143f de71 26c0 8daf 783d
00000370: 7177 16bd cdc2 00be c14b 91bd 7ace 7dbc
00000380: 45f3 f6bd e3ee 503d 8a6b 0f3e 53f3 dc3e
00000390: 485d bf3e a0dc c33e 2eeb e33e 6bb3 a8bf
000003a0: f7ba bd3e 4dab 20be 008b aabf 431e 70bf
000003b0: 7ac6 9cbf 41c4 1cbf 0f05 7fbf 6d86 87bf
000003c0: 11bf 0dbf be0b 273d d6b7 9abf aa63 d83e
000003d0: d09c 143e 8079 4fbe 4365 1dbf a94d 5dbf
000003e0: 0219 853e 430b 903d 4a88 8b3f fa7b 95be
000003f0: 0a4a 20be 93f7 03bf 0772 4e3e 5cdd 52be
-0.08139399 -0.026133459 0.44986734 0.14734378 0.038534734 -0.12517813 -0.07341265 0.07321758
0.94164914 -1.2487992 0.33892214 0.032364372 0.097505525 0.23447227 -0.04488372 0.22974111
0.94752604 -0.9834886 -0.16881695 -0.4654071 -0.008052596 -0.7334111 -2.0022123 -0.14293234
-0.37898788 -0.19024888 0.44370592 0.31335384 0.6646017 0.14823069 -0.29476482 0.036182925
-0.62050784 -0.96458566 -0.38758668 -0.22133718 -0.5106388 -0.7659159 0.4894759 0.4370254
1.2320836 0.10738799 -0.097217135 -0.06331708 -0.18471867 0.5049841 0.3019914 -0.054907415
0.09366929 -0.11439069 -0.0021511842 -0.75346893 0.23339297 -0.084647946 0.1320403 -1.3790826
0.33244884 0.43779412 0.600753 0.007100476 -1.4740227 -0.27810478 -0.0408827 0.9713528
0.55401176 0.62040585 0.29535174 0.067703456 -0.8002246 0.10135797 1.0104808 0.16162293
-0.3529835 -0.008521145 -0.18512923 -0.14280201 -0.13986474 -0.052294113 -0.67094994 0.22630922
0.07365578 -0.123958014 0.8299556 -0.97584957 0.860989 -0.01082435 0.015614323 0.038269453
-0.08887969 -0.33406746 0.19101918 -1.1111653 1.1537576 -0.95797175 -0.058301285 0.40672243
-0.042796507 -0.19474898 -1.1857672 0.31141907 -0.09696411 -0.004925022 -0.2781179 -0.7566715
-0.5151879 -0.24570972 -0.02413682 0.15075767 0.016846666 -0.29136246 -0.98296475 0.4015327
0.4827679 -1.4196217 0.3296132 -0.81998384 0.35496596 -0.18676303 -0.4789197 -0.38535258
0.29102954 -0.08668876 0.24362986 -0.44052944 -1.564554 -0.76311946 0.3235207 0.53507453
-3.2561653 0.46904418 -0.30688813 -0.10624039 -0.13178012 -0.27934033 0.17488004 0.32659987
0.38238484 -0.2912908 -0.31820926 -0.02940381 -0.9063318 0.33052272 -0.040734053 -2.5735922
0.19635597 0.31325644 -0.49885046 -0.07627003 0.4010329 -0.39359474 0.2675849 -0.13627115
0.12129531 0.35249358 -0.30046365 -0.47865292 0.2905936 0.77555865 0.39507186 0.591094
0.17517179 -0.09266073 -0.4333398 -0.61539114 0.3145929 0.258267 -0.91839325 -1.2438953
0.36563987 -0.41688225 -0.12189305 -0.40104878 0.2967185 -0.30742323 0.4566743 -0.4926125
-0.5303948 -0.11302812 0.50472826 -0.03813558 0.050727516 -0.0789994 -0.0995059 0.10425824
-0.39218825 -0.24474296 -0.4019229 -0.27821505 -0.27271783 -0.24005494 -0.3606884 0.015807848
-0.3698551 -0.019987857 -0.16655326 0.011261206 0.52492297 -0.33574185 0.52906126 0.6766249
-0.24850994 -0.87349784 0.43730575 -0.14987357 -0.56822914 -0.44784197 0.55325305 -0.5413772
-1.0708725 0.23005074 0.07184184 -0.0053100255 -0.18393406 0.5171073 1.5407865 1.2112601
1.1451709 0.57962614 -2.6007 0.060714293 -0.036735002 -0.1257431 -0.07094527 -0.015491122
-0.12058119 0.05100907 0.14005867 0.43154392 0.37375855 0.3825426 0.44515365 -1.3179754
0.37056705 -0.15690346 -1.332367 -0.93796176 -1.224807 -0.6123696 -0.99617094 -1.0587898
-0.5536967 0.040782683 -1.2087352 0.42263538 0.14512944 -0.20261192 -0.6148264 -0.86446625
0.25995642 0.07033398 1.0900967 -0.2919615 -0.15653244 -0.51549643 0.20160685 -0.20592254

bias f4 [200]
00000000: d2db 72bf 0c9e e9be 1968 0bbf 6a3e 1bbe
00000010: ddbd 123d 90ed 7bbf da64 febe 08ce 1d3f
00000020: b32f 8f3d 63cc 153e 53e6 7abf a289 b2be
00000030: 2de2 a7be 857c d23e 2c12 a2be 0e16 eabe
00000040: 895e 903e f61f 3cbe 3dcf 563e b636 61be
00000050: 3c02 3d3e 3759 dbbe 9f20 92be a833 7abf
00000060: 556f 3c3f 5dda a3be b2a0 1bbf eb4a be3e
00000070: 22f2 193f ee35 243e f2ab d4be c72b 87bf
00000080: acbd 493e bd3e a73e 6c99 25bf 03af a9be
00000090: 5375 acbe c55d 7fbf 7316 1abf 7fda d03e
000000a0: e5eb 81bd 3a2c 0e3e 5547 7a3e 3d0d 7bbe
000000b0: 48d5 74be 063d b9be 5aa0 dd3d f3bd 8cbe
000000c0: 6430 cf3d 10c8 513e d22a 36bf 2761 87be
000000d0: 2041 2fbf eac0 21bf 3b55 d23e 2919 aebd
000000e0: f002 253f 01a7 e7bd f022 1c3e 92e1 e3bd
000000f0: 895d c2be 6010 44bf 7647 b7be c2d8 163e
00000100: c582 3f3e 079f 473d c001 4d3e 369a 06bf
00000110: d9be 68bf f998 483d a514 09bf 00cc aebd
00000120: 558a f3bd 75f3 4bbe 0208 bf3e b0f5 1ebf
00000130: 0903 74bf 37c7 fe3d 0e95 8b3d 8e34 14bf
00000140: d444 92be 5db6 c4be fb87 0cbe 59e1 fabe
00000150: e5b7 333e 553f 2b3e 947c 133c 9b46 1dbe
00000160: 3ac9 ebbe 3df8 f6be d26d 8dbe e4d3 0e3e
00000170: 9061 f2be 1aa3 c53d fa7a 85be 0eb4 8bbe
00000180: 17c3 07bf c5d4 cd3d a2e6 8bbf a6d9 63be
00000190: c811 1cbf 0747 57be f7e5 cbbd a858 14be
000001a0: 41fa 99be 7c0f a73e ed4d 0e3f 70f5 69bf
000001b0: 837b a9bd 4589 37bc fde1 88be bea2 5a3e
000001c0: 8a8e 0dbf 517d 84bd b3df afbd 5dbb a53e
000001d0: 1143 d03e 7534 883e 381e 623d 8f70 e4be
000001e0: 5c40 cb3e 23db f5bd dcfa 1ebd ce92 0dbf
000001f0: ab05 09be d86f 2b3e 7974 2c3d 2589 62bf
00000200: e04b 8f3e f691 303f 1348 df3e 3ea5 f43e
00000210: 16e6 44bd efa3 81be 590e ebbd 52af 41bf
00000220: 781e b3bd 0568 70be 943d 71bf 2a2b 5a3d
00000230: 455d 8cbe c1c1 78be f4c2 133e dccf 9e3d
00000240: f511 cd3e 6556 24bf f2f5 f4be 43ae b3be
00000250: 69c1 f3be b833 0a3f cd40 143f 3cf1 a93e
00000260: c2e7 8c3e 9a72 903e 9b31 7c3e 4baf f33e
00000270: b1ca 23bf d4aa 27bf 8cdd 133d d0ca 463e
00000280: f949 a63e 01d0 c3bd c8e1 2b3f e0e5 18bf
00000290: 98f7 2bbe 21b6 aebc 6050 31bf a028 d43e
000002a0: 5d7e 223f b41f cdbe 4f37 c7bd 7526 153c
000002b0: 20ad ccbe 5630 1bbf a6c0 143e 8490 c03e
000002c0: 40eb 6abf 44f7 a4be 9169 443e 032b 42bf
000002d0: d629 14be cdef 7a3e a350 743e acbb a0bd
000002e0: c41b fd3e 3eaa 1a3d 2ccc 8a3e 267a c53d
000002f0: 81ce 0b3f d421 ad3e 2cfe 823e e869 45be
00000300: 7747 cebe fd5d 8ebe 23c3 07bf afd6 96be
00000310: f56e d53e b43c b2be 59ac ecbe 49ae 97be
-0.9486667 -0.45628393 -0.54455715 -0.15160528 0.0358256 -0.98409367 -0.4968632 0.61642504
0.0699152 0.14628749 -0.98007697 -0.3487063 -0.32789746 0.41110626 -0.3165449 -0.4571995
0.28197125 -0.18371567 0.20977493 -0.21993527 0.18457884 -0.42841503 -0.28540513 -0.9773507
0.7360738 -0.32002535 -0.60792077 0.37166533 0.6013509 0.16036198 -0.41537434 -1.0560235
0.1970126 0.32665053 -0.6468723 -0.33141336 -0.3368326 -0.99752456 -0.60190505 0.407917
-0.063438214 0.13884059 0.24441274 -0.24516769 -0.23909485 -0.3617937 0.108216 -0.2748867
0.10116652 0.20486474 -0.7115909 -0.2644131 -0.6845875 -0.6318499 0.4108065 -0.08500893
0.6445761 -0.1131115 0.15247703 -0.111270085 -0.37961987 -0.76587486 -0.35796708 0.14731124
0.18702228 0.048735645 0.20020199 -0.5257906 -0.9091621 0.04897401 -0.53547126 -0.08535004
-0.11891619 -0.1991709 0.37310797 -0.6209364 -0.9531713 0.12440341 0.06815539 -0.5789269
-0.28568137 -0.38420382 -0.13723747 -0.49000052 0.17550619 0.16723378 0.00900187 -0.15358965
-0.4605196 -0.48236266 -0.2762285 0.13948017 -0.4734006 0.0965025 -0.26070386 -0.27285808
-0.5303206 0.10050348 -1.0929759 -0.22250995 -0.6096463 -0.21023189 -0.09955972 -0.14486945
-0.3007374 0.32629 0.55587655 -0.9139013 -0.08275511 -0.011202161 -0.26734915 0.21351144
-0.5529562 -0.06469215 -0.08587589 0.3236951 0.40676168 0.26602522 0.0552046 -0.44617125
0.3969754 -0.12004688 -0.038813457 -0.5530213 -0.13381068 0.16741884 0.042103264 -0.88490516
0.27987576 0.6897272 0.43609676 0.4778232 -0.04807099 -0.25320384 -0.11477346 -0.7565814
-0.08746046 -0.2347718 -0.94234586 0.05326382 -0.2741491 -0.24292661 0.14429837 0.0775449
0.40052763 -0.6419433 -0.4784389 -0.3509389 -0.47608498 0.53985167 0.5791138 0.3319186
0.27520567 0.28212434 0.24628298 0.47594675 -0.6398116 -0.6549504 0.036099955 0.19413304
0.32478312 -0.09561158 0.6714139 -0.5972576 -0.16793668 -0.02132708 -0.6926327 0.41437244
0.63474065 -0.4006325 -0.09727346 0.009103407 -0.39975834 -0.6062063 0.14526615 0.37610257
-0.91765213 -0.322199 0.19180895 -0.7584688 -0.14469084 0.24505539 0.23858885 -0.078482956
0.49435246 0.03776001 0.27108896 0.096424386 0.54611975 0.3381487 0.25584543 -0.19278681
-0.40288898 -0.27806082 -0.5303213 -0.29460666 0.41686216 -0.34811938 -0.4622524 -0.29625157

weight f4 [200, 200]
00000000: d008 033f 5945 0d3e f5d8 a33e bb2c 8f3e
00000010: 82a4 b3bf 8051 68be 8e1a bd3e e540 5bbf
00000020: a14b c63e cee6 e93d bcee 673e f10b 083f
00000030: ecac 4dbd d70c 1f3e 4164 2d3e 2f62 df3e
00000040: 3c1f 97bf df78 58bd 661f 813e 260c 663e
00000050: e948 bfbf 8cb8 d63e 4d07 8b3c f367 d23b
00000060: 34cc a9bf 438b 49bf e30a 043d 3359 6cbf
00000070: 7bdd 6cbf 60f4 a43e 95b7 29bf ed7d 093f
00000080: 0e14 0e3e 1103 443c a10e 05bf 50b0 003f
00000090: 14ef 91be 7424 4b3f f05c d93e 6f01 3dbf
000000a0: 9ed0 a33d 2eac 19bd 8f7d 1fbf 065e 81bd
000000b0: dfd8 f03d 82b6 0dc0 3238 273f 4be9 d4be
000000c0: 88fe 0d3f d9d9 123f f042 87bf 1659 cabe
000000d0: f2de 3f3f 1bdd 97bf feec 15be 8b88 97be
000000e0: 5102 cabe 9b45 a8be 86fe 823d c613 3e3e
000000f0: fb2b 3d3d 3753 a63e 0830 b2bf 3f50 9bbf
00000100: 3e95 4e3f 3e6d cd3e 1a09 693f b487 aa3e
00000110: e0c6 0f3f fdf0 25c0 0b11 74bf 2634 3abf
00000120: e48b 36be d5b6 623c 21c2 063e ae32 17bf
00000130: 5ec2 5b3f e16f 913f 8341 83bf dee3 943c
00000140: 0a6f cfbe 1661 6b3f 684d 06be f98a 923e
00000150: 641f 95bd 4981 e93f e613 4dc0 ac69 69bf
00000160: 0040 b83f 15f6 2abf a075 76bf 5923 8e3e
00000170: c471 b63d 3eb4 84bf d70c fd3d cc88 15c0
00000180: d152 04be 65a2 523f 5a26 e93e d192 823e
00000190: 3152 e6be 9fc7 10bd f80b 053f d01c 8bbd
000001a0: 1b07 ea3f 7f99 c73e d5f0 4c3d b39a 7e3f
000001b0: b124 05c0 9e4f ebbf 4ac0 1d3f 4ebd 43be
000001c0: 1d7d 98bf 021e 1ec0 1027 75be 864a 683e
000001d0: b750 1e3f b579 d0be 69b1 ee3d 8e68 51bf
000001e0: a6cb c13e d045 f9bc d546 ca3d d104 4fbf
000001f0: 3f3b 2c3f d5a3 c4bf ef78 c3bd 2d54 1cbd
00000200: e9d4 1f3f 5a19 f7be 2428 e8bd 3c94 8f3f
00000210: 8b6b 7f3e f18b 563e 5485 c3bf 517e 89bd
00000220: 1f52 fcbf 6e7b 40bc 3a37 d6bd 8c39 f2bd
00000230: a7e9 753d 8fb5 6bbe 34b0 a83f 6c2e 26bd
00000240: 42df 333f 12aa 19bf 7bd1 f53d 2d10 55bd
00000250: e5b9 8abc fd54 623f a016 05bf 2682 d23f
00000260: babe 24bf d52a b0bf 434c edbd 2cc3 71bf
00000270: 1f6d 823d df71 f5bf 37c1 a63e 7772 d93d
00000280: d70b 383e 7c82 c8bf 5a38 a63e 5c3b 39c0
00000290: 4f72 8dbd 7bdd 45bf 53da c2bf 1650 003d
000002a0: 9ccf 15bf c2f4 a1be e697 953e 4d23 36bf
000002b0: b1d7 dabf b6a7 523e 7e55 81c0 8b91 903f
000002c0: 9056 bb3e fc23 4dbd 6cd9 123f f2dc 51bf
000002d0: 0516 5e3e 4e8a 143f 1ceb 6dbf f0f6 35be
000002e0: 8d08 b2be 4090 593d 3b1f 9dbf ed77 2cbf
000002f0: b376 7cbf 7463 dd3f e198 24bf d82d 8bbf
00000300: 1b67 d4be 9a8d 5ebe 2acd 1abf ba08 aebd
00000310: effa 863e 48e8 b2bf fb5e 80be e86e 98bf
00000320: e2f0 2bbd 8fb9 d93c 4ed5 d5bc 1484 c3bc
00000330: ea79 3a3b 6e76 893d 3df1 84bd 6052 a1bd
00000340: 4379 cc3c a418 61bd f8e0 60bd c409 1bbd
00000350: d773 703d d59f b5bd 4d55 9d3b 2242 0b3d
00000360: 0332 25bd 9bd8 8d3d 2fd3 f9bd cf8a a4bd
00000370: 6fc9 1cbd 1c7b 9bbd ea32 c0bc d342 d53c
00000380: d26d 9ebd 0958 1ebc c9ba 5cbb e493 1d3d
00000390: c4b6 75bc 667d c2bc b829 8fbd fe1f c93a
000003a0: 801a a5bd d000 d0bc 6012 f9bc 365b e0bc
000003b0: 2e3b 79bd 6153 ca3c dae2 b1bc e6d1 b1bd
000003c0: df9b 3f3c 45bf 0bbd 2448 b9bd 85e5 f3bd
000003d0: 31f1 52bd 33ec 0fbe afb5 25bd 094b 29bd
000003e0: e2f6 5fbd 1ca9 47bd 5f3c 5fbc 8193 cabd
000003f0: 0c31 9ebc 6446 223c 2e00 9abd 84aa 9abd
0.5118532 0.13795985 0.32001463 0.27963814 -1.4034579 -0.2268734 0.36934322 -0.85645896
0.38729575 0.114209756 0.22649664 0.5314322 -0.05021374 0.15532242 0.16932775 0.43629596
-1.1806407 -0.052849647 0.25219268 0.22465572 -1.4944125 0.41937673 0.016971255 0.006421083
-1.3265443 -0.7872812 0.032236945 -0.9232361 -0.9252545 0.32217693 -0.6629575 0.5370777
0.13874838 0.011963622 -0.51975447 0.5026903 -0.28502715 0.793525 0.42453718 -0.7383031
0.07998775 -0.03751772 -0.6230096 -0.06316762 0.11760115 -2.2142644 0.6532012 -0.41584238
0.5546651 0.5736366 -1.0567303 -0.39521092 0.7494956 -1.1864351 -0.14641187 -0.29596362
-0.39454892 -0.32865605 0.06396203 0.1856223 0.04618452 0.32485363 -1.3920908 -1.2133864
0.80696476 0.40122408 0.9102951 0.33306658 0.56162834 -2.5928338 -0.95338506 -0.7273582
-0.17826802 0.013837536 0.13159992 -0.59061706 0.85843456 1.1362268 -1.0254368 0.018175062
-0.40514404 0.91945016 -0.13115466 0.28621653 -0.07281378 1.824258 -3.2043395 -0.9117687
1.4394531 -0.6678174 -0.9627323 0.27761343 0.08908418 -1.0367506 0.12355965 -2.3364744
-0.12922217 0.82279044 0.45537072 0.25502637 -0.44984582 -0.035346624 0.5197139 -0.06792605
1.8283418 0.38984296 0.050034363 0.994548 -2.0803645 -1.8383672 0.61621535 -0.19115183
-1.1913182 -2.4705815 -0.23940682 0.22684678 0.6184191 -0.40717855 0.11654932 -0.8180016
0.37850684 -0.030428797 0.098767914 -0.80866724 0.672779 -1.5362498 -0.095445506 -0.038166214
0.6243425 -0.4826153 -0.11335781 1.1217113 0.24943368 0.20951821 -1.5275064 -0.06713546
-1.9712561 -0.011748178 -0.104597524 -0.118273824 0.06003728 -0.23018478 1.3178773 -0.040571615
0.7026254 -0.6002513 0.12002846 -0.05201738 -0.016934345 0.8841093 -0.5198765 1.6445968
-0.64353526 -1.3763071 -0.115868114 -0.94438434 0.063684694 -1.9175376 0.32569286 0.106175356
0.17973267 -1.5664821 0.32464868 -2.894248 -0.06906568 -0.7729108 -1.5222877 0.031326376
-0.5851991 -0.31632048 0.29217452 -0.71147615 -1.7097074 0.20571789 -4.041686 1.1294416
0.3658948 -0.050083145 0.5736301 -0.8197776 0.21688087 0.58023536 -0.92936873 -0.1776998
-0.3477215 0.053116083 -1.2275156 -0.6737049 -0.9861862 1.7295976 -0.64295775 -1.0873365
-0.41484913 -0.21733704 -0.60469306 -0.08497758 0.26363322 -1.3977137 -0.25072464 -1.1908846
-0.04197777 0.026577739 -0.026102688 -0.02386669 0.0028454014 0.06712042 -0.06491325 -0.0787704
0.024960166 -0.05495514 -0.054902047 -0.03785111 0.058704223 -0.08868376 0.0048014284 0.033998616
-0.040330898 0.0692608 -0.12198483 -0.08034288 -0.03827804 -0.075918406 -0.023461778 0.02603284
-0.0773579 -0.009664544 -0.0033680669 0.038471118 -0.014997188 -0.023741435 -0.06990379 0.0015344617
-0.08061695 -0.025391012 -0.03040427 -0.027387243 -0.060847454 0.024697961 -0.021714617 -0.08682613
0.011694877 -0.034117956 -0.09046963 -0.11909012 -0.05149955 -0.14054947 -0.04045647 -0.041331325
-0.054678805 -0.04874526 -0.013625233 -0.098914154 -0.019310497 0.009904478 -0.075195655 -0.075520545

bias f4 [200]
00000000: 55fa 14bf b888 0ebe 8bbb 07bf 069d 17bf
00000010: a6dc a6be 1729 68bd d3b7 c43e 15b9 f6bc
00000020: 9c22 dabd a34c a7be 53ec 86bd a8e5 b4bd
00000030: ab8f 9dbc 0cf6 82bf f8b8 cd3e d312 b3bd
00000040: 4a07 acbd a89d 04be 7b47 01bd 39ac 27bf
00000050: 28cf 47bf dbee 1ebf 4a28 60be 3222 30bd
00000060: 906f cdbd f184 01bf f634 95be 5b9a 1fbe
00000070: cfa1 9bbd 5e98 0fbf 34cb a6be 21e7 353d
00000080: 6594 0b3e cede 8dbd ae5e 32be 2467 9dbd
00000090: 22ba 663b 16e8 37bf 4436 843d ac5e 0cbd
000000a0: 36f6 0cbf 430c 1bbc 5685 eeba 9b3f 71bd
000000b0: 8e49 0fbf ec68 73bd 2550 04bf d196 06be
000000c0: c9a9 bcbd d654 e1bd f5e5 ca3d 255a 823c
000000d0: a033 b4be b522 0fbe af88 9cbe 17a4 bebe
000000e0: b3e2 cebd a036 fcbd a5f6 05be 8735 d6bc
000000f0: 7e00 ea3d 4889 aebc 466c 5dbd cd16 a03e
00000100: a87d 5abe 6c88 a3be 14a1 c63f 1d34 aebd
00000110: 7210 6ebd c968 66bb 18b2 75bd 54ba c3bd
00000120: b441 d0bc b8c0 13bf 2868 ccbd 97e7 6abf
00000130: d703 e0bd 763e 04be 7269 16be c491 d2be
00000140: 2f11 0ebf f643 80bd 198a 88bd 6021 e4be
00000150: d63b a3bd ed06 15bd 0eed 96be 63a5 93bd
00000160: 2e7e a7bd 1af2 08bf c0dd e4be 82a6 bebd
00000170: 6aff b8bd 54ac 47bf fd0d c1bd ad7b 84be
00000180: 8596 97be 4bda 5ebd 923e b1bd 8be5 27bf
00000190: d06e 08bd 1ae3 8ebe 6128 29bd 1f27 14bf
000001a0: 930f c8bd b1bf 95bd ef31 06bc 64e0 b1bd
000001b0: 485d 94be 3524 94bc 2613 c6be ebc9 24be
000001c0: d867 a63d 13e6 c2be 5dff 05bf 2421 edbd
000001d0: 3050 e1be 01b5 f0bc f7c7 44bf 57b3 28be
000001e0: 7344 62bf 2071 a1bd 8d67 50be 0852 d5bd
000001f0: c10d 95bd 6652 e03d df0e cabd 1986 5ebf
00000200: 697c 4ebf 25f0 c1bd 4ec9 ecbe 4098 2fbe
00000210: afcf 4ebe 3180 89bd 344b 72bf fa4b cabd
00000220: 8daf 46be 81eb cebe bb9a d1bd 6905 02be
00000230: 0043 d6be a2f0 dcbd 2274 60bd 25e7 f6bc
00000240: 0f39 10be 3e81 a4bd c61a c5bd cf3d a9bd
00000250: cccb f0bd 012e 6abd 7519 6ebc a87e 3cbf
00000260: 3a53 febe 47ad 91be a856 f7bd c386 d9be
00000270: 1706 dcbe 5feb 8ebe 8070 09be a7e6 603f
00000280: a6f1 c6be c9a4 0c3e fb8d 7cbd 9702 d4be
00000290: 63cd b4be 17fb a0be b5b4 e6bd f7dd 20bd
000002a0: 2e0f ddbd df77 21be c806 bcbd aa26 16be
000002b0: e1b8 3fbd e8fb a3bd 7061 0ebf 8f77 f8bc
000002c0: 7a12 c7bd 60aa cebd cfea 39be 8b78 06bf
000002d0: a790 aebe 9610 adbe 0a0d 1a3f 8dcc 78bd
000002e0: 6f75 12be 5427 29be 1b34 adbd f19f 19bd
000002f0: 0bbf af3c 7460 c83e c068 a9ba 6e8b 8fbe
00000300: 69cb 47bf b757 8dbe 7282 f2be ea98 c0bd
00000310: ac05 a2be 3389 71bd de67 623c 9a46 83bd
-0.58194476 -0.13919342 -0.5302054 -0.59223974 -0.32590216 -0.05667981 0.38421497 -0.03011755
-0.106511325 -0.32675657 -0.06588044 -0.08832866 -0.019233545 -1.0231338 0.40180182 -0.08743825
-0.08399828 -0.12950766 -0.03156231 -0.65497166 -0.7805047 -0.62083215 -0.21890369 -0.04300136
-0.100310445 -0.5059348 -0.29141968 -0.15586226 -0.07599222 -0.5609187 -0.32576907 0.044409875
0.13630827 -0.06927262 -0.1741893 -0.07685688 0.0035206159 -0.7183851 0.06455663 -0.034269974
-0.5506319 -0.009463373 -0.0018197696 -0.05889855 -0.5597161 -0.059426233 -0.5168479 -0.1314347
-0.092120714 -0.11002509 0.09907142 0.015912125 -0.35195637 -0.13978083 -0.3057303 -0.37234566
-0.10101833 -0.123151064 -0.13082369 -0.02614857 0.11425875 -0.021305695 -0.054058336 0.31267396
-0.21336997 -0.3194002 1.5517907 -0.085060336 -0.058121152 -0.0035157672 -0.059984297 -0.09557024
-0.025421955 -0.5771594 -0.09980804 -0.9175963 -0.109382324 -0.12914452 -0.14688662 -0.41126835
-0.5549497 -0.062629625 -0.06666965 -0.44556713 -0.07970397 -0.036383558 -0.29477733 -0.072092794
-0.08178364 -0.5349442 -0.44700432 -0.093091026 -0.09033091 -0.77997327 -0.09426496 -0.25875607
-0.29607025 -0.0544074 -0.086545125 -0.6558463 -0.033308804 -0.2790764 -0.041298274 -0.57872194
-0.097685955 -0.07311953 -0.008190616 -0.08685377 -0.28977418 -0.018083671 -0.38686484 -0.1609265
0.081252754 -0.38066158 -0.5234278 -0.11578587 -0.4400649 -0.029383184 -0.7686762 -0.16474663
-0.88385695 -0.07882905 -0.20352001 -0.10416037 -0.07278014 0.10953216 -0.09866118 -0.86923367
-0.80658585 -0.09469632 -0.46247333 -0.17147923 -0.20196413 -0.06713904 -0.94646 -0.09877773
-0.19402905 -0.4041405 -0.102345906 -0.12697376 -0.41847992 -0.107880846 -0.054798253 -0.030139515
-0.14084266 -0.080324635 -0.09624247 -0.08263742 -0.11757621 -0.05717278 -0.014532437 -0.7363076
-0.49672872 -0.28452513 -0.12077075 -0.42485628 -0.42973396 -0.2791395 -0.13421822 0.8785195
-0.38856238 0.13734736 -0.06165884 -0.41408226 -0.35312948 -0.31441566 -0.11264936 -0.039274182
-0.10793911 -0.15768383 -0.09180981 -0.14663187 -0.046807174 -0.08007032 -0.5561743 -0.030330447
-0.09720321 -0.1009109 -0.18155979 -0.52527684 -0.34094736 -0.33801717 0.60176146 -0.06074195
-0.1430261 -0.16518909 -0.08457204 -0.037506048 0.021453401 0.39136088 -0.0012924895 -0.28036064
-0.78044754 -0.27605984 -0.47365147 -0.09404166 -0.31644952 -0.058968734 0.013818709 -0.064099506

weight f4 [1, 200]
00000000: 33c1 df3d 9122 573c 0133 593e 3fde a7bf
00000010: d5cb 32bf c533 01be 6baa 363e 1506 a2bb
00000020: 4587 be3c 7395 2b3e c8fe 1f3d 5770 963c
00000030: ab06 45bc 6a33 9abe e241 d0be 0d97 7abb
00000040: e865 ddbb bb43 c838 6b28 883c 0f9e f6be
00000050: bcf7 ddbe c40b 3fbf 6b12 5e3d 797f b5be
00000060: 8fe3 2abf 3380 16bf ac7c 63be 3ba4 013d
00000070: 9ca4 e1bc 3473 e33d 6443 94be 9bf3 ffbe
00000080: ad67 803f b670 933c f45c 20bf 083f 933e
00000090: bf4b 7a3d c522 f3bd 65e1 413e 33ab 12bf
000000a0: 0f25 fd3d 1b36 76bd dee1 e3bb 4221 d5bc
000000b0: 0b7d 083d 9dd9 0d3b 5e26 c2be 835d 33bf
000000c0: 84d2 603c d238 c6ba e224 663d d6d0 25bb
000000d0: 7cc7 a0be 71ad 6ebe 0037 58be 89c3 d0be
000000e0: 3e1b df3e 5de9 ab3c 8001 c6be a828 94bc
000000f0: bf8b 693d 102d 15bb 236f bdbb 1b79 6c3d
00000100: b3c5 5c3e b5fc 993d adb3 a43d ba3b 193c
00000110: 0b7f c4bc e30b b53c b554 e9bc 52f6 c93e
00000120: 6c01 48ba 66cd 80be 2f9a 8e3e f84c a0be
00000130: 8614 c9be e9ff ac3c e1a2 24bd a799 3bbe
00000140: a2b8 33be cce7 8c3c f40f e73b 5e9c 13bf
00000150: 29f4 28bf 1c43 f93c e82d c13e 3e73 613c
00000160: d1a2 273c bba7 b63e 8719 65bd c200 253c
00000170: 18fe 7bbe 0102 a8be 9dfd 7e3b 4bee ff3e
00000180: e3e0 52bc 7c27 8a3c 828e ed3c 8e3f babe
00000190: fb1e 89bf 37c4 163f 5d7a b33c 170e ccbe
000001a0: 6cf4 abbc 4827 b53d 0551 83ba d987 3cbd
000001b0: 6008 873d 2362 1b3e 13b1 e5be 6994 26bf
000001c0: 669f 27bf cd42 ca3e 6514 3e3e 7ffe 91bb
000001d0: e20b a9be 03be 1cbf 6be6 52be 9812 993e
000001e0: ce19 91be 2c52 0e3d c1c0 abbd 77d0 a4bc
000001f0: d964 053e 8f85 3f3d fec5 d13c 0855 143e
00000200: 1120 97be 93d6 aebb 687a 92be 8f32 e33d
00000210: fd91 79be 19cc 693d 3bde 0cbf 320b 5dbc
00000220: ac82 b43e 3a2d c63d 4628 e83c c9ea efbb
00000230: 06d3 5c3e ed40 20bc cb62 253a 8119 483c
00000240: 3745 3ebc 21c6 b7be e57e 0c3c 0783 073c
00000250: 7bfe 3abc b624 c3b9 96ce 0e3e 4d3b 78be
00000260: ed53 803e f771 2c3f c770 f13c 5d31 263e
00000270: 3435 8d3d fd06 debe 4594 9e3c 9aed 4d3d
00000280: dfb8 6cbf e9bd 783d b1e8 a73c 44a8 a73e
00000290: f964 90be 5f53 40be cce8 c5bc e7c5 863e
000002a0: b87b 0bbc 5da8 053e ebfe bb3c 8c6f 773e
000002b0: a88a c7ba 6dcb b5bd 0365 ac3d 8f45 c7bc
000002c0: 602d 2a3c 23e8 683c bde3 9dbe 9329 62be
000002d0: b7c7 873e c044 9fbf 5e30 673d 1ce4 55bb
000002e0: d5ec 7a3d 66c4 c23e 5d8d f8be 0bef e9bc
000002f0: 9014 b0bc 678b 3a3d 3a0d d4be 7b74 003e
00000300: e14b 4d3e 831e 8fbf 8289 41bf aacd 2a3c
00000310: a4e7 923e 34e0 7cbc 7b89 8f3e 8e96 aabc
0.10925522 0.0131308 0.21210863 -1.3114699 -0.69842273 -0.12617405 0.17838447 -0.0049445727
0.02325786 0.16756229 0.039061338 0.018364115 -0.012025516 -0.3011735 -0.40675265 -0.0038237006
-0.006756533 9.549359e-05 0.016620835 -0.48167464 -0.4335307 -0.7462733 0.054216783 -0.35448816
-0.66753477 -0.58789366 -0.22215527 0.031650763 -0.027544312 0.111059576 -0.28957665 -0.49990544
1.0031639 0.01799808 -0.62641835 0.28759027 0.061107393 -0.11871866 0.18933637 -0.5729248
0.12360584 -0.060110193 -0.0069544157 -0.026016835 0.033322375 0.00216446 -0.37919897 -0.7006456
0.013722066 -0.0015123135 0.056187518 -0.0025301478 -0.31402194 -0.2330835 -0.21114731 -0.4077418
0.43575472 0.0209853 -0.3867302 -0.018085793 0.057018038 -0.0022762455 -0.005781071 0.057732683
0.21559791 0.07518903 0.08042083 0.009352619 -0.02398636 0.022100395 -0.028482774 0.3944574
-0.00076296064 -0.25156707 0.27852008 -0.31308722 -0.3927347 0.021118121 -0.040194396 -0.18320332
-0.175509 0.017200373 0.0070514623 -0.5766047 -0.6599756 0.030427508 0.37730336 0.013760386
0.01023169 0.35674843 -0.055932548 0.010070981 -0.24608648 -0.3281403 0.003890849 0.4998649
-0.012871 0.01686453 0.028998617 -0.36376613 -1.071258 0.5889315 0.021908933 -0.398545
-0.020990573 0.08845383 -0.0010018653 -0.046027992 0.06593394 0.15174155 -0.4486166 -0.65070206
-0.654776 0.3950409 0.18562467 -0.004455387 -0.33016878 -0.61227435 -0.2059571 0.29896998
-0.2834 0.034746334 -0.08386374 -0.020118935 0.13026752 0.04675823 0.025607105 0.14485562
-0.29516652 -0.005335638 -0.28609014 0.11093628 -0.24372096 0.05707941 -0.55026597 -0.013491439
0.35255945 0.09676595 0.028339516 -0.0073216897 0.21564874 -0.0097811045 0.0006308972 0.012213112
-0.011613182 -0.35893348 0.008575176 0.008270985 -0.011413212 -0.0003722065 0.13945994 -0.24241371
0.2506403 0.67361397 0.029472722 0.16229768 0.06894913 -0.43364707 0.01935781 0.050275423
-0.9246959 0.060727987 0.020496698 0.32745564 -0.28202036 -0.18781804 -0.024158858 0.26322863
-0.008513384 0.13052507 0.022948703 0.24163646 -0.0015223818 -0.08876691 0.08417704 -0.02432516
0.010386795 0.014215502 -0.30837813 -0.22086172 0.26519558 -1.2442856 0.05644261 -0.0032637184
0.061261017 0.38040465 -0.48545352 -0.028556367 -0.02149418 0.0455431 -0.4141634 0.12544434
0.20048477 -1.1181186 -0.75600445 0.010425011 0.28692353 -0.015434314 0.28034577 -0.020823743

weight f4 [200, 15]
00000000: e38c 89bd a868 553f 70ff c1be 0030 3d3f
00000010: 481f a93d d908 9a3e 840a d3be 580c 6abe
00000020: 1607 8bbd cd66 84c0 18e1 38bd 071f 893e
00000030: 0834 083f 4ed0 953f dbcb 893e 2200 8a3f
00000040: 155a 8c3f ce6f eabe 2f30 333f 96af 50bf
00000050: 1d5e 323c 22b5 4dbf dadd a6bd 78e1 c4bd
00000060: 8668 d3bf 59d4 363e 6798 31bf 1622 2e3e
00000070: 21b4 adbf 4d11 15be 7d03 a1bd 0a27 89be
00000080: 1c2e 623f ef6b 7cbf 76ab e93e fafe a93d
00000090: e478 363f f1e7 d33e a031 793e e29d 603e
000000a0: c158 69bf 7898 0abf 3d49 c53d 1469 b13e
000000b0: d8f8 aabf 7cdc c83e 1b78 343f 93b5 22bf
000000c0: 042d e7bd 203a a9be a062 0b3e c6d8 c9bd
000000d0: 2df4 4bbf 896d 923e e2a9 e23e dff7 91bf
000000e0: bec8 23bf 960b cabd 10ff 4abf e0b3 103f
000000f0: 982c b93f ad0a 7abf dce6 b33d 0eea ecbe
00000100: 3601 17bf bdde 8dbf 8b37 93bf 33e6 ec3e
00000110: 98a3 d4be b735 14bf 7e65 4cbf 1252 34bf
00000120: 4081 56be d70c 94bc cbae d8be 11db cbbe
00000130: 01a1 6a3e 91a8 f73f 429b 6cbb 4be3 a0be
00000140: b587 413e c970 acbe 5d48 d4be 554f 743c
00000150: 4ee8 10be 234b ef3d 77cc 90be a713 523e
00000160: 7447 97be 36da 7e3f e87c 5c3e 87ec a1bf
00000170: 7f50 45bf 03d1 c03e def3 9e3e 1e5e d73e
00000180: b40a 24bf 21dd 65bf 6fc3 fbbc d2a8 a43e
00000190: ca09 0ebe e953 373f ec4a 34bd bd33 31bd
000001a0: 087f 85bd 5e9c 6c3f 1f77 943e 5a6d d4be
000001b0: 496c b33e b444 edbe ee25 78bf a022 1cbf
000001c0: e27e 3f3e 0f4c c7bf 4701 a5be 64e2 b5bf
000001d0: b5f2 923f f802 043e 83b9 463f 92ae 433e
000001e0: 5672 be3e 66ec 41bf b546 aabe 34b5 6cbf
000001f0: 2062 9c3e 3f8f 13be 86b2 11bf 99b4 443e
00000200: 8222 acbe 65e9 a1bf 122d 453f aacf 8ebc
00000210: e847 03bf 1498 fdbd 6e15 c4be 14ef d4be
00000220: 225f 3abe 9f2d 45be 67b0 c43e 8fa9 2cbf
00000230: 4081 b7bd c521 5d3f b64f 093f 3647 8e3d
00000240: c025 4bbe 2197 f9bf 173b 5f3f 2ea5 bd3e
00000250: 3b43 c73f 0e24 21be 578b 84be 9862 263f
00000260: 7f21 88bf f4e0 143f c13e c1be 5df3 72bf
00000270: 98f8 febf c9ad acbf 6553 c53e 75cf 993e
00000280: bf32 0c3f 7cb4 d93d c7be 38bd d655 acbd
00000290: 33bc 1e3f 5bbc 89bd f6f5 e0be 9784 013e
000002a0: 4e53 423e 908c 4a3f 251d 8dbd 0d33 113e
000002b0: 50ba 2cbd 1b68 873e 38d8 87c0 db6d 18bf
000002c0: 64fa a1be 8d42 0bbf bd0f af3e fa6c f93e
000002d0: afa9 2d3d e3f6 ccbf 3956 94be 038e 84be
000002e0: 329a 4fbd df29 083f caee 17be e132 73be
000002f0: 22b2 1f3e d9ed c93e 9c53 82bf f57e 8cbf
00000300: 6330 bd3d 221b adbd 98a3 38be f571 dfbd
00000310: d2e8 adbf f732 37be 64e7 21bf f207 703e
00000320: 18e1 99be dee2 2c3f 0cc6 ba3e b58c 9ebd
00000330: a588 69be e677 f8be f3a0 89be e99b 713e
00000340: b713 6d3f ea76 9bbe d8eb 533d 04a0 1bbd
00000350: 25d7 af3f e219 35bf 9866 853e 6525 e83c
00000360: d7db 8bbe 3a06 a83e 5bd4 e5bf 4347 f23e
00000370: 78c6 18bf de9b 88be b8f8 c23c bbc2 7cbe
00000380: 4ac3 3fbe d168 09bf 7bc7 863f 2b82 0ebf
00000390: 9f2f 233f b7ee 68c0 d747 4bc0 3a5e 1ac0
000003a0: 1397 55be c9a9 e53e 6687 6f3e ee8f 08be
000003b0: 6182 753d 27ff 03bf 0b62 ca3e 78d7 efbe
000003c0: 09a1 01bf 36e3 9a3f f065 c43d 944f 013e
000003d0: f42d 07be ad28 e7bc 9840 ad3d ca9b d53d
000003e0: 61d6 ff3d 066a 46c0 dd79 70bf d79a 12bf
000003f0: 8db6 943d b485 203f 81b9 8cbf d13f e1bd
-0.06716325 0.8336282 -0.37890196 0.7390137 0.082579195 0.30084875 -0.4121896 -0.22856271
-0.06788461 -4.137549 -0.04513654 0.26781484 0.53204393 1.1704195 0.26913342 1.078129
1.0964991 -0.45788425 0.699954 -0.8151792 0.010886696 -0.8035451 -0.081477836 -0.09613317
-1.6516273 0.17854442 -0.6937317 0.1700519 -1.3570596 -0.14557381 -0.078619935 -0.26787597
0.8835161 -0.98602194 0.45638627 0.08300586 0.71278214 0.41387895 0.24335337 0.21935228
-0.9115105 -0.541389 0.0963311 0.3465048 -1.3357191 0.39230716 0.70495766 -0.6355831
-0.11287883 -0.33052158 0.13611841 -0.098557994 -0.7966946 0.28599194 0.44270235 -1.1403769
-0.63978183 -0.09865491 -0.79295444 0.5652447 1.4466734 -0.9767254 0.08784267 -0.4627232
-0.5898622 -1.1083599 -1.1501325 0.46269378 -0.41531062 -0.5789446 -0.79842365 -0.7043773
-0.20947742 -0.018072529 -0.42320856 -0.39815572 0.2291298 1.9348317 -0.0036103283 -0.3142341
0.18899424 -0.33679798 -0.4146146 0.014911492 -0.14151117 0.11684253 -0.28280994 0.2051531
-0.29546702 0.99551713 0.21532023 -1.2650307 -0.7707595 0.37659463 0.3104543 0.42063993
-0.6407883 -0.8979054 -0.030732838 0.3216005 -0.13870922 0.7161241 -0.044016764 -0.043262232
-0.0651837 0.924261 0.28997132 -0.4148968 0.35043553 -0.4634148 -0.96932876 -0.60990334
0.18700746 -1.5570086 -0.32227537 -1.4209714 1.1480318 0.12891757 0.7762682 0.19109562
0.37196606 -0.7575134 -0.3325707 -0.92463994 0.30543613 -0.14410113 -0.5691303 0.19209518
-0.33620077 -1.2649351 0.77021897 -0.017433006 -0.51281595 -0.12382522 -0.382976 -0.41588652
-0.18200353 -0.19255684 0.38415834 -0.67446226 -0.08960199 0.86379653 0.53637254 0.06947176
-0.19838619 -1.9499246 0.8719954 0.37040085 1.5567392 -0.1573641 -0.25887558 0.6499419
-1.0635222 0.5815575 -0.3774319 -0.9490259 -1.9919615 -1.3490535 0.38540187 0.3004109
0.5476493 0.10630128 -0.045103814 -0.084148094 0.6200592 -0.06725379 -0.43937653 0.12648235
0.1897709 0.7912073 -0.068903245 0.1417963 -0.04216987 0.26446614 -4.245144 -0.59542626
-0.31636345 -0.54398423 0.34191695 0.48715955 0.04239815 -1.6012844 -0.28972033 -0.25889596
-0.05068416 0.5318889 -0.14837185 -0.23749878 0.15595296 0.39439276 -1.0181766 -1.0976244
0.09237745 -0.08452441 -0.18031156 -0.109104075 -1.3586676 -0.17890535 -0.632437 0.23440531
-0.30054545 0.6753367 0.36479223 -0.077416815 -0.22806032 -0.48528975 -0.26880607 0.23594631
0.9260821 -0.30364162 0.05173859 -0.0379944 1.3737532 -0.7074262 0.26054835 0.028338144
-0.27316162 0.3281725 -1.7955431 0.47319993 -0.5967784 -0.26681417 0.023800239 -0.24683659
-0.1872684 -0.5367556 1.0529627 -0.5566737 0.6374454 -3.63957 -3.1762598 -2.4120011
-0.20858411 0.44856098 0.23391494 -0.13336155 0.059938792 -0.51561207 0.39527926 -0.46844077
-0.50636345 1.2100589 0.095897555 0.12628013 -0.13201123 -0.028217638 0.08459586 0.10430105
0.124920614 -3.1002212 -0.9393595 -0.57267517 0.07261381 0.62704015 -1.0994111 -0.109985

bias f4 [200]
00000000: bc5b bebe 0c3f c3be 99fb 05bf f605 cbbe
00000010: df36 263e 4166 4cbe 5c38 28bf 4966 5abe
00000020: a101 09bf 116e 40be f55f 09bf 145d 6c3f
00000030: 3415 62be 8ca2 a6be 518d 5dbd 74b8 65be
00000040: a2e5 17be 87d9 30bf 2d65 f0bd f4f4 92bd
00000050: 7c0d 37be de1b 4cbe 4c0f 983d 61c3 75bf
00000060: e971 c23e 7fb2 9a3d 72d0 543e 7b75 41be
00000070: e4f2 a33e 15d1 933e 699e 58be 8549 723e
00000080: ba99 d3be f336 88bf e674 0cbe 6799 7c3e
00000090: 147c 703d 0654 3cbb fbb1 55be d2ae 22be
000000a0: 55a3 84be d382 8bbe 26b0 0dbf 0dc4 d23d
000000b0: ca96 01bf 359a 323d a899 10bf dd98 593f
000000c0: 6100 de3c be10 00bf 750a 963d 90e6 e4be
000000d0: 80ad 16bf 7335 1cbf ef53 0a3e 303c 8dbe
000000e0: d291 ec3e ebcc fc3e 13c3 e3be 4e8b 93be
000000f0: 6acf 013f a093 84be e91c 3cbf f494 d73d
00000100: 072e cd3d 1ba1 fcbd 6a27 eb3e ae14 97bd
00000110: 442e f5be 01e0 1a3f 8c3c 5ebe 918c 383e
00000120: d537 113f f9a2 953e 696d 0c3d a856 a33e
00000130: 4442 d6be af31 e23d 6951 5fbe 8cfb b9bd
00000140: f0e9 3cbe cc4f d43e f899 25bf da5f c33d
00000150: 40be 58be e4a5 18bf 7b1f 5abe f720 fb3e
00000160: 7328 65be 2378 3c3d 9eb2 d53d b760 053f
00000170: ba8e 67bf 553a bd3d cd52 50bf f7cf 123f
00000180: 912f bc3c d552 7fbe caaf 383e 6914 073b
00000190: c8ac 963d da25 33bf cf37 553c f2d8 8a3c
000001a0: 4b52 e53e a96c 96be 7837 4dbc aa39 d63e
000001b0: 8af0 24bf 459f 313e 56d8 35bf 6414 e53e
000001c0: 504d 96bd dc80 24bf 1670 e8be 23c7 073f
000001d0: e2a5 d7bd fde6 50be aa09 543c 1aae 5ebd
000001e0: c586 2abe c5a6 963e 276c d0be 9869 943d
000001f0: d374 68be 6b8b a7be c7dc b53e 1609 c3be
00000200: 7ee3 1b3f 7596 8c3d e716 d3be d8d8 04bf
00000210: bb09 20be c806 37bd 2a28 6dbf 15e1 a53e
00000220: 9daf 39bf 7fc2 123f c57e 01bf 5735 ecbe
00000230: 9edd b23e deb5 993c c460 513e 9411 8b3c
00000240: 8980 8abe 5546 63bf 3720 23be 3420 7ebe
00000250: 3396 693d 3d3d b53e 1832 203d bfba 933e
00000260: aa9d f0bd 6591 ffbe 8687 663e ef24 c8be
00000270: 8dfd 7cbe b30a 333f d1e2 29bb d712 7dbf
00000280: b412 8ebf 12ae ef3e 223b 18be 2494 d43d
00000290: 1143 6abe 1ec4 1a3f 5ca2 ddbe 104c f0be
000002a0: a31f aabe 8742 4abf 358f ccbe 0e22 163e
000002b0: 2fc1 133e c32e 333f 65b2 863e d4b2 26bf
000002c0: bc28 273f a6c7 f23c f0fb a13e d365 67bf
000002d0: 706b f6bc 182c 74bf c6ba 01bf dfe6 2dbe
000002e0: 2830 613e 46f0 5abe 7aaf dbbd 4669 2d3f
000002f0: ca09 593f 1f81 92be 1509 5fbf 0d16 af39
00000300: 01ad 0cbf 108e aebc ea6a 43bf bc66 98be
00000310: 2a96 36be dc7e 92be 5858 1d3d 6fb5 07be
-0.37179363 -0.38134038 -0.5233703 -0.39652985 0.16231869 -0.19960882 -0.65711 -0.21328081
-0.5351811 -0.18791987 -0.53662044 0.92329526 -0.22078401 -0.32545888 -0.054089848 -0.22433645
-0.14833692 -0.6908192 -0.11738048 -0.07175627 -0.17876238 -0.19932505 0.07424793 -0.9600125
0.37977532 0.07553577 0.2078264 -0.18892471 0.32021248 0.28870454 -0.21154179 0.23660858
-0.41328222 -1.0641769 -0.13716468 0.24667893 0.05871208 -0.0028736605 -0.20868675 -0.15887001
-0.25905862 -0.27248248 -0.55346906 0.102913 -0.5062071 0.043604095 -0.5648446 0.84998876
0.02709979 -0.50025547 0.07326213 -0.44707155 -0.5885849 -0.6101906 0.1350858 -0.27584982
0.46205002 0.4937509 -0.44484767 -0.2881722 0.50707114 -0.2589388 -0.73481613 0.105264574
0.10018545 -0.12335416 0.45928508 -0.07376991 -0.4788686 0.6049805 -0.21702784 0.18022372
0.5672582 0.292259 0.03428403 0.3190205 -0.41847432 0.11044633 -0.218084 -0.09081182
-0.18448615 0.4146713 -0.6468806 0.095397666 -0.21166325 -0.5962813 -0.21301071 0.49048588
-0.22378711 0.04601301 0.10434459 0.521007 -0.9045216 0.092396416 -0.81376344 0.5734858
0.0229719 -0.24933942 0.18035808 0.002061153 0.07357174 -0.6997963 0.013013794 0.01694915
0.44789347 -0.29379776 -0.012525432 0.4184087 -0.64429533 0.17345913 -0.7103323 0.4474212
-0.07338965 -0.64259124 -0.45398015 0.53038234 -0.105296865 -0.20400615 0.012941757 -0.054365255
-0.16652973 0.2942411 -0.40707514 0.07246703 -0.22700815 -0.32723555 0.35520002 -0.3809287
0.60894 0.06864635 -0.4122841 -0.5189338 -0.15628712 -0.0446842 -0.9263941 0.32398286
-0.7253359 0.5732803 -0.5058406 -0.46134445 0.34934705 0.018763479 0.2044707 0.016976155
-0.2705119 -0.88779193 -0.15930258 -0.24816972 0.057028007 0.35398284 0.039110273 0.28853413
-0.11748822 -0.49915615 0.22512636 -0.39090678 -0.24706097 0.699382 -0.0025922547 -0.9885687
-1.1099458 0.46812493 -0.14866307 0.10379818 -0.22877146 0.604555 -0.43287933 -0.4693303
-0.33227262 -0.7900776 -0.39953008 0.14661428 0.14429162 0.6999323 0.2630798 -0.6511662
0.6529653 0.029636215 0.31637526 -0.90389746 -0.030080527 -0.9537978 -0.5067562 -0.16982602
0.21991026 -0.2138072 -0.10726829 0.6773876 0.8478056 -0.28614137 -0.87123233 0.0003339503
-0.54951483 -0.021307975 -0.7633501 -0.2976588 -0.1783072 -0.2861241 0.03841433 -0.13252805

weight f4 [200, 200]
00000000: 9887 5e3f bf42 f3be 9298 e6be bd6a 66be
00000010: c09d c4bf 48cc 49bc f818 fabe 1c52 10bd
00000020: 1261 66bf 602c 0ebf 97be 84be e427 c13f
00000030: 769e ffbe e94b 74bf 1455 43bf e05b 31bf
00000040: 61df 1e3f 37df 18be 25af 7cbc e728 1a3e
00000050: 5ee1 82bf 0d0b 17bf fee3 983f cdb4 b5bf
00000060: 910a 773f fd0c 9a3e dadd bdbe 28b5 533d
00000070: 72f1 3a3f 3621 783f b6c0 693e d536 023f
00000080: 92b5 3cbd ce3f 6fbe c6f0 10bf a122 0d3e
00000090: e3b0 6f3e e1d3 edbc e34d e1bb bf5e b53c
000000a0: d5da d1bf c613 09bf 042b 72bf 31dc 913d
000000b0: 1152 9abf 18b7 1a3f 8209 fdbe 281f 9cbf
000000c0: 9b31 e13d 7d00 b53e 7747 54bf f58c c53e
000000d0: f5e7 bbbf e068 9b3f d5d1 903e 4ed0 d33e
000000e0: 3483 3f3e ce55 58bf 8e63 aa3e 796e cebf
000000f0: ba90 193e 475b d13f aaea c63e 4e3d 7b3f
00000100: 14c1 d83c 1676 b63f 9966 3d3f ce9a 65bd
00000110: b286 8ebf dfe8 8a3e 85ec dbbd b42a b3bd
00000120: 8397 903c 4394 a5be fb87 cd3d 2c12 01be
00000130: ed06 a0be d9a4 abbe d36e d0be 63d0 2b3e
00000140: 45c7 07bf b5eb ce3e c157 853f 4e76 0e3e
00000150: 7b7e 91bf 9e3c c63d 55d5 6b3f b563 a0be
00000160: cf97 d5bc 565d ad3d 1a88 af3d e696 56bf
00000170: 07c3 f93e 8b59 d6bf ca2b d9bf 9ebf 8b3f
00000180: ef84 f9bf af5a d73e b559 bfbc b15b 523e
00000190: c89d 24bf 96c2 433e 59f6 ae38 1e81 06be
000001a0: 3c45 333e fdcb eebd 3dcf debf cb65 03bf
000001b0: 964e aabe d970 403f e61b b3bf 793e a2bf
000001c0: fb81 b0bf 1fbd 6c3e 597d 483e 4ac1 d0be
000001d0: 8419 5dc0 a97b 62bf 7ce8 abbe aa30 2d3f
000001e0: b8e8 1a3e a36c 33c0 bc0a ae3d b962 31be
000001f0: a9f0 523f 3d86 81bd 3fde d0be 6536 a8bd
00000200: 8db7 8fbf 510d aabf cbda 1dc0 9928 a2be
00000210: f4a2 833f dc63 68bf 1cc2 16bf 5171 813e
00000220: b20d 3bbe 6c53 b33d c8b2 f1bf ecd9 9bbf
00000230: 2b15 273e 53ac 00c0 e99c cb3e 27af 3f3f
00000240: cd0f 12bf 1d2a 763e 740a f63d 591c ffbe
00000250: 98b9 003e efe6 923f 8d02 0140 a602 8e3d
00000260: a42b 04bf 297a 32bf 3eab 4abf f362 7abe
00000270: ee7b 25bf 045d 9f3d e2b3 71bf 22bc 74bf
00000280: 805b 5bbf 9739 b8ba e33d 09bf 0798 eb3e
00000290: 7490 e4bf 60ec dcbe 20cb 973e 7baf 8bbf
000002a0: 9392 67bf 28ca a837 7977 833c c0f5 29bf
000002b0: 3d8b 0abe 3fd9 003f 4eb3 283f 155c 0abf
000002c0: 6ce5 393f 68f2 82bf a4d8 223f df0b c53f
000002d0: 1399 843f ad20 7abf 07e0 bf3c 6111 153e
000002e0: 0b40 643e f167 e33d aac8 a6be aba0 c43f
000002f0: f4da 163f dacc c63e 1430 56c0 ef5b bfbe
00000300: 1c85 333f 5aee 2ebf 2e17 05bf ab2c d4bf
00000310: 1857 bebd 75da 73bd 048f 5dbe 4f61 ccbf
00000320: 1c63 d03c 1d4d 9bbc 9154 2cbd c475 973c
00000330: 907d 1abd 5262 983b f51c 2bbc 6269 54bd
00000340: 546f 1a3d f814 90bb d3ba 3a3b 5931 d73c
00000350: 4e41 cf3b 066c a23c 602d e7bc ba44 dc3b
00000360: 7915 4bbd 6ae7 32bd 59a7 393c 0341 9abd
00000370: f8db 65bd a0f1 c43c efd8 83bd b36b e93c
00000380: 3dfa b1bd c8f8 afbd 2fb7 bebc d087 f43b
00000390: 41f2 91bd a3f2 f2bc 98b8 4bbd ad59 e5bc
000003a0: 7b44 70bc 6850 e2bc f613 2cbd f347 0e3c
000003b0: 0b13 5dbd fea4 86bd 751c 0e3d bff5 86bc
000003c0: 2b1f 95bd ac3d 2bbd 69b0 31bb dd5b 10bd
000003d0: cea5 85bd 94e3 093d 98c8 7bbd 3207 50bd
000003e0: 0a1a a43c 67e2 77bd 77b5 75bc 643a febc
000003f0: 6e5c b43c d2a6 d1bc 47ff 29bc c2da 6a3d
0.8692565 -0.4751186 -0.45038277 -0.22501655 -1.5360641 -0.012316771 -0.48847175 -0.035234556
-0.8999187 -0.5553646 -0.2592666 1.5090299 -0.49925584 -0.9542833 -0.76301694 -0.69280815
0.620596 -0.149289 -0.015422617 0.15054666 -1.0225027 -0.5900124 1.1944578 -1.4195801
0.965005 0.30088034 -0.37083322 0.051686436 0.73024666 0.96925676 0.2282742 0.5086492
-0.046071596 -0.23364183 -0.5661739 0.13782741 0.2340732 -0.029031696 -0.00687574 0.022139905
-1.6394907 -0.53545797 -0.94596887 0.07122076 -1.2056295 0.6043563 -0.49421316 -1.2197008
0.109957896 0.35351935 -0.82921547 0.38584104 -1.4680163 1.214138 0.2828509 0.4136986
0.18702394 -0.8450593 0.3327908 -1.6127464 0.14996615 1.6355981 0.3885091 0.9814042
0.026459254 1.4254787 0.73984677 -0.056055836 -1.1134856 0.27130792 -0.10738472 -0.08748379
0.017650371 -0.32339677 0.10035702 -0.12604588 -0.31255284 -0.33524206 -0.40709552 0.16778712
-0.53038436 0.40414205 1.0417405 0.13912317 -1.1366724 0.096795306 0.92122394 -0.3132607
-0.026073365 0.08465068 0.08570881 -0.83824 0.48781607 -1.6746076 -1.6966488 1.0917852
-1.9493693 0.42061374 -0.023358205 0.2054279 -0.64303255 0.19117197 8.3428524e-05 -0.13135192
0.1750688 -0.116600014 -1.7406994 -0.513272 -0.3326308 0.7517219 -1.3992889 -1.2675315
-1.3789667 0.23119019 0.19579066 -0.40772468 -3.4546824 -0.8846994 -0.3357581 0.6765238
0.15127838 -2.8035057 0.08498141 -0.17322816 0.8239847 -0.06324432 -0.4079456 -0.082135
-1.122789 -1.3285314 -2.466479 -0.316716 1.0284104 -0.90777373 -0.5888994 0.25281766
-0.18266943 0.08756146 -1.8882685 -1.217588 0.16316669 -2.0105178 0.3976815 0.74876636
-0.5705536 0.24039502 0.120137125 -0.49826315 0.12570798 1.1476725 2.0157807 0.06934099
-0.5162909 -0.6971765 -0.79167545 -0.24451809 -0.64642227 0.07781413 -0.94415104 -0.9559957
-0.8568649 -0.0014055249 -0.53610057 0.46014425 -1.7856584 -0.4314909 0.2964716 -1.0912927
-0.9045803 2.0121297e-05 0.01604818 -0.6639061 -0.13529678 0.5033149 0.658986 -0.54046756
0.72615695 -1.0230227 0.6361182 1.5394248 1.0359215 -0.9770611 0.023422254 0.14557411
0.22290055 0.111038096 -0.3257497 1.5361532 0.58927846 0.38828164 -3.3466845 -0.37374827
0.70124984 -0.68332446 -0.51988494 -1.6576132 -0.092939556 -0.05953451 -0.21636587 -1.5967196
0.025437884 -0.018957669 -0.042072836 0.018488772 -0.037717402 0.0046503926 -0.010443916 -0.051858313
0.037703827 -0.004397031 0.0028492704 0.026268648 0.0063249236 0.0198269 -0.028219879 0.00672206
-0.049581025 -0.043677725 0.011331403 -0.07531931 -0.05611798 0.024040997 -0.06437861 0.028493738
-0.08690307 -0.08592373 -0.023280708 0.007462479 -0.071262844 -0.029656714 -0.04973659 -0.027996862
-0.0146647645 -0.027626231 -0.042011224 0.008684146 -0.05397324 -0.065744385 0.034695107 -0.016474603
-0.072813354 -0.04180686 -0.0027113205 -0.035243858 -0.06525765 0.0336643 -0.061470598 -0.050788112
0.020031948 -0.06051865 -0.014996878 -0.031033702 0.02201673 -0.025592241 -0.010375804 0.05733753

bias f4 [200]
00000000: c929 0ebf a0b0 e7bd 64fe a0be 3792 3dbd
00000010: 2824 aabd 29a7 20bd 08b0 f0be 0155 76be
00000020: 80a2 acbd b2b6 02bd 70bf 45be 1628 bfbe
00000030: 25b3 efbd fb83 c3be b035 c6be 13d6 87bd
00000040: 79aa 4abe 6e41 61bf 1b09 be3d 6b2d ecbe
00000050: 0674 edbd 87d5 13bf 06d1 93be 908c 153d
00000060: 2a51 c1bd 9291 0abe 177f f0bd fbd3 bcbe
00000070: ff6a a83f 6c92 9ebd 148b eebe 7ec6 ba3d
00000080: 6d3f d1be 483c c4be 7f7d c8bc 5957 dfbe
00000090: a1e4 e4bc 5a42 26bf 7799 193e 8aed 2fbc
000000a0: 6060 f43d 9c83 a0bd 96df 1bbe 7ec4 b9be
000000b0: d4d4 83bd 2952 c9bd 6137 bcbe ef24 25be
000000c0: e57c b2bc 2cbb a9bd fb3b 4cbf 6d1b 28bd
000000d0: 2785 7dbd 6476 44bd 8bf9 01be 6c32 fbbe
000000e0: 4595 05be 9b28 adbe b8a8 eebd dfdf b3be
000000f0: 0b68 09be 7def a9bd 1b82 5c3e 0aa3 1fbf
00000100: 4f66 d3bd 9c89 e9bd 4c12 99bd 38e6 f5be
00000110: 4a95 f2be b8a9 55bf 89ac 88bd 88e2 ccbc
00000120: 74b1 72be dfaf bebd c18e ccbe 4f8c 973e
00000130: 81e2 ddbe ab3d b6bd 5c9e e3bd c14a 1dbf
00000140: 9f92 82be 19ad 9ebd 63f8 9ebe ffdc 3cbd
00000150: 22cc 49bf fea0 2ebd 0ba8 b6bd a4d0 98be
00000160: 8b43 ad3a 311d 703d be48 e03d cad3 e5be
00000170: 369e 9ebe dbf6 9bbc e457 00bf 96f0 b8be
00000180: f741 64be 3840 2abe aeba fbbd a9b9 07bf
00000190: 45df c7bc 5c9e 6ebe 6e7e 643e dd6c 21be
000001a0: d0d9 73be 03b7 ecbc 27cc 99bd 5e70 d9bd
000001b0: c807 76be 76c4 dabd 5a9f 7ebd 2c68 e3bc
000001c0: 7dc2 dfbe de49 d2bd c7f3 a3bd 8d8c ebbe
000001d0: b38a f93c 4162 6abd b9df 08bd 283b 0fbe
000001e0: 199a c1be 8d24 ebbe f3cf 0cbf 9442 04bf
000001f0: 2ca4 15bf aef5 e7be 7f33 bbbe e7e8 43bd
00000200: c4b5 81bf c77a fabd 4886 58bf 7792 e0bc
00000210: a723 1e3d fe5c d8bb 2c3a 75bf 8e05 0dbf
00000220: b61a f1bd 791f adbd cb2a aebe fdda d2bd
00000230: a5a3 1abe 85e4 2b3d 945c 00be 5c5a d93b
00000240: ec85 a4be f291 8cbe f9bc dfbd 9e87 95be
00000250: 8b31 a2bd b9ac 46be 5f39 5ebe 86e4 0fbe
00000260: 9920 88be 1e11 38bd 1a44 70be 4030 09bd
00000270: c2b1 07bf 6ae4 a4be 6351 2dbd 1fdd 27be
00000280: dffc 8dbe 6886 2cbf 12f2 e9be 8e72 28bf
00000290: c39e cf3d a7e0 08bf d4aa 373e 0193 e0bd
000002a0: 2a18 dd3e 6879 01bf 1349 e3bc 01e3 84bd
000002b0: b8e1 c7bd 8fb9 873e 0751 38bf d4bf e2bc
000002c0: 6be3 03bd e2b7 a6bd 1098 81be 06d3 6d3e
000002d0: 2d46 8cbe c7c0 99bd 6656 f6bd e314 983f
000002e0: 4024 cabd 32fd 8fbd cb93 72bd 9fbb c9bc
000002f0: d598 d0bd 39aa c7bd d025 7ebd ac1e 533c
00000300: 0b5f e2be 439e 91bd 6036 cdbd ddcb c9be
00000310: 73e2 5dbf ace9 c8bb 41c1 d4be 865a cbbe
-0.5553251 -0.113129854 -0.31444085 -0.04628202 -0.083076775 -0.039221916 -0.470093 -0.24055864
-0.08429432 -0.031912513 -0.19311309 -0.3733527 -0.11704091 -0.3818663 -0.38712835 -0.06632628
-0.19791593 -0.8799046 0.092790805 -0.461284 -0.11594395 -0.5774769 -0.2887041 0.036511004
-0.09439309 -0.13532093 -0.117429905 -0.36880478 1.3157653 -0.077427715 -0.46590483 0.09119891
-0.40868703 -0.3832724 -0.024473904 -0.43621328 -0.02794105 -0.64944994 0.14999948 -0.010737786
0.119324446 -0.078376025 -0.1522201 -0.36282724 -0.06437078 -0.09830124 -0.36761 -0.1612737
-0.02178807 -0.08287653 -0.7977902 -0.04104178 -0.061894562 -0.04796447 -0.1269285 -0.49061906
-0.13045223 -0.33820042 -0.11653274 -0.35131738 -0.13418595 -0.08297632 0.21534006 -0.6235815
-0.10322248 -0.114032 -0.07474193 -0.48027205 -0.47379524 -0.83462095 -0.066735335 -0.025010362
-0.23700505 -0.093108885 -0.39952663 0.29599234 -0.4333687 -0.08898481 -0.11114189 -0.6144219
-0.25502488 -0.077478595 -0.3104888 -0.046109196 -0.78827107 -0.042634003 -0.089187704 -0.2984668
0.0013218982 0.05862159 0.109513745 -0.44888145 -0.3098008 -0.019038608 -0.5013411 -0.36121053
-0.22290789 -0.1662606 -0.12291466 -0.5301767 -0.024398455 -0.23302597 0.22313854 -0.15764184
-0.23813558 -0.02889586 -0.07509642 -0.106171355 -0.24026406 -0.10682003 -0.06216369 -0.027759634
-0.4370307 -0.10267995 -0.08005481 -0.4600567 0.030461645 -0.05722261 -0.033416484 -0.1398741
-0.3781288 -0.45926324 -0.55004805 -0.5166409 -0.5845363 -0.45304626 -0.36562726 -0.047829535
-1.0133595 -0.12230449 -0.84579897 -0.02741359 0.03860822 -0.0066028824 -0.9579189 -0.550866
-0.11772673 -0.084532686 -0.34017023 -0.10295675 -0.15101488 0.04196598 -0.12535316 0.006633086
-0.32133424 -0.27455097 -0.109247155 -0.2920503 -0.07919606 -0.19401826 -0.21701573 -0.14052019
-0.2658737 -0.0449382 -0.23463479 -0.03349328 -0.5300561 -0.32205516 -0.042313945 -0.16392945
-0.27731988 -0.6739259 -0.45692497 -0.65799797 0.10137703 -0.5346779 0.1793626 -0.10965539
0.43182498 -0.50575876 -0.027744805 -0.0648861 -0.09759849 0.26508757 -0.7199864 -0.027679361
-0.032199305 -0.081405416 -0.25311327 0.2322503 -0.2739729 -0.075074725 -0.12028198 1.1881374
-0.098701954 -0.07030715 -0.059222978 -0.024625598 -0.101854004 -0.09749264 -0.06204778 0.012885731
-0.44213137 -0.07110264 -0.10020137 -0.39413348 -0.8667366 -0.0061313715 -0.4155369 -0.397175
