Vehicles/ModRepeat_forest_7/ModRepeat_forest_7_critic_target.pth (torch, 353496 bytes, 10 tensors)

weight f4 [200, 15]
000000 5f 01 a9 bd 66 2b f8 bc 6e 09 e4 3e 4f c3 13 3e
       -0.08252215 -0.030294131 0.44538444 0.14429973
000010 7a 52 11 3d 2a 2a 03 be 5d f2 9b bd f9 15 8b 3d
       0.035479046 -0.12809053 -0.076145865 0.067913
000020 44 10 71 3f 89 16 a0 bf ef 94 ad 3e b5 14 01 3d
       0.94165444 -1.2506877 0.3390269 0.03151389
000030 9e d1 b6 3d 9d 05 6c 3e 40 81 31 bd 19 46 61 3e
       0.089267 0.23049016 -0.043336153 0.21999396
000040 c5 db 71 3f be be 7a bf af 6c 26 be c3 7a f5 be
       0.94475967 -0.979473 -0.16252397 -0.47945222
000050 9c 49 a2 bc 48 c3 3c bf e0 58 00 c0 0e e0 1f be
       -0.01981049 -0.73735476 -2.0054245 -0.15612814
000060 62 cd c3 be b4 d3 49 be 81 84 e1 3e 15 61 9f 3e
       -0.38242632 -0.19709665 0.44046405 0.31128755
000070 4e 8f 29 3f ac 3f 0e 3e 76 8d 96 be 9d 83 15 3d
       0.6623429 0.13891476 -0.294048 0.03650247
000080 e3 58 1d bf 49 22 78 bf ec 19 c8 be 59 1a 65 be
       -0.61463755 -0.96927315 -0.39082277 -0.22373332
000090 fc 1d 03 bf 87 1c 44 bf b6 31 f6 3e 15 06 e2 3e
       -0.5121763 -0.7660603 0.480848 0.44145265
0000a0 ee 11 9e 3f 05 06 d8 3d 6b da d0 bd 07 9f 8a bd
       1.2349222 0.10548023 -0.1019791 -0.06768613
0000b0 30 01 39 be 69 a0 00 3f db 6e a3 3e f3 11 6f bd
       -0.18066859 0.50244766 0.31920514 -0.058366727
0000c0 bb d0 c4 3d ad 95 f0 bd e1 f4 36 bb 3d df 41 bf
       0.09610125 -0.117472984 -0.0027916955 -0.7573126
0000d0 e3 f2 71 3e cb da a9 bd 33 18 0b 3e 92 59 b0 bf
       0.2362781 -0.082936846 0.1358345 -1.3777335
0000e0 ae 83 a5 3e 80 32 df 3e 59 56 19 3f 84 94 18 3c
       0.32327026 0.43593216 0.5989738 0.009312753
0000f0 66 fc bc bf bc 46 8a be 16 2c 36 bd 9b 35 77 3f
       -1.4764526 -0.2700709 -0.044475637 0.9656617
000100 40 1d 0d 3f 18 27 1d 3f c2 e2 97 3e 79 fb 8f 3d
       0.55122757 0.6138778 0.2966519 0.070303865
000110 7e c6 4d bf a5 8a d1 3d ea e9 81 3f 80 b0 20 3e
       -0.80381 0.102315225 1.014951 0.1569233
000120 36 72 b7 be e3 ad 4c bc 6d 32 3b be 92 aa 10 be
       -0.35829324 -0.01249263 -0.18280955 -0.14127567
000130 3b 76 fb bd 13 58 55 bd 90 4b 2c bf a6 02 6c 3e
       -0.1227841 -0.052085947 -0.673028 0.23047885
000140 f4 82 a1 3d d0 df f7 bd 01 bf 54 3f 9a 36 7a bf
       0.078863055 -0.12103236 0.8310395 -0.97739565
000150 87 fe 5c 3f 4f 59 14 bc 1a 6a 92 3c 14 38 25 3d
       0.8632588 -0.009054496 0.017872859 0.040336683
000160 6e b5 b0 bd ab a4 ac be 2f 8b 46 3e 38 14 8f bf
       -0.08628355 -0.33719382 0.19389032 -1.1178045
000170 c4 91 92 3f 30 d4 76 bf a2 c6 55 bd 73 b4 d3 3e
       1.1450734 -0.9641752 -0.052191384 0.4134861
000180 4e a0 1c bd 85 34 46 be dc 33 98 bf 58 92 9c 3e
       -0.038238816 -0.19355972 -1.1890826 0.305804
000190 fd d7 cf bd 5c a0 d4 bb 22 b8 8d be 1f 55 40 bf
       -0.10148618 -0.006488843 -0.27679545 -0.75129884
0001a0 22 2d 05 bf 0e 6c 7f be 39 96 6a bc 8a 43 1c 3e
       -0.5202199 -0.24943563 -0.014318042 0.15260139
0001b0 56 a0 9e 3b d8 0b 93 be fb 8f 79 bf a5 56 ce 3e
       0.004840891 -0.28719974 -0.9748532 0.4030048
0001c0 c0 3d f6 3e 25 28 b6 bf 5f 68 ad 3e 10 c5 51 bf
       0.48093987 -1.4231001 0.3386869 -0.8194132
0001d0 5d 76 b3 3e 21 1a 44 be a8 e8 f6 be 7d 72 c4 be
       0.35051242 -0.19150592 -0.48224378 -0.38368598
0001e0 0a cf 99 3e 1c de a5 bd c8 81 75 3e 9e 25 e5 be
       0.3004077 -0.080990046 0.23975289 -0.44755262
0001f0 6e b0 c6 bf 8e 88 40 bf 42 43 a9 3e 65 d4 09 3f
       -1.5522592 -0.75208366 0.33059126 0.53839713
000200 fb e3 4f c0 47 23 f1 3e 16 79 99 be 9d a3 d1 bd
       -3.2482898 0.47097227 -0.29975194 -0.10236285
000210 0e 87 05 be 8c 85 8d be 8c 4f 44 3e 80 cc a6 3e
       -0.130398 -0.2764095 0.1917097 0.32577896
000220 db 4e cc 3e 4e e3 95 be c6 d9 a4 be 11 8f cd bc
       0.39903912 -0.29274982 -0.32197398 -0.025092633
000230 82 49 68 bf 9e 18 aa 3e 59 01 1d bd 95 3f 24 c0
       -0.90737164 0.33221906 -0.038331363 -2.5663807
000240 81 e7 48 3e f2 d1 9e 3e de a7 ff be 6a 37 9a bd
       0.19619562 0.3101955 -0.4993276 -0.07530101
000250 a5 5d cd 3e 8d 76 bb be 22 ae 86 3e 52 6a 14 be
       0.40110508 -0.36613885 0.26304728 -0.14493683
000260 0a c8 02 3e c3 85 b0 3e 9c 23 99 be 15 24 f5 be
       0.12771621 0.34477052 -0.2990998 -0.4787909
000270 eb d7 93 3e 4a 79 45 3f ae 72 c4 3e 09 0e 19 3f
       0.2887567 0.771382 0.38368744 0.5978704
000280 98 cc 32 3e 4d 34 ce bd 90 80 e0 be 7c 9b 1f bf
       0.17460859 -0.10068569 -0.43848085 -0.62346625
000290 cc bb a6 3e 8b a6 86 3e 45 51 6a bf 1c 2f 9f bf
       0.32565153 0.26298937 -0.9153026 -1.2436252
0002a0 17 d3 bc 3e 6c 74 d5 be 04 c5 fa bd 04 a9 cb be
       0.368798 -0.41690385 -0.12244609 -0.39777386
0002b0 7d d6 9a 3e ca 10 a2 be 04 89 eb 3e ea 27 fb be
       0.30241767 -0.31653434 0.46002972 -0.4905389
0002c0 0c e8 06 bf 2f bf e3 bd b7 a9 01 3f fe 75 09 bd
       -0.52697825 -0.1112045 0.5064959 -0.03355979
0002d0 d8 c7 4f 3d 2e cb a1 bd f8 c9 cb bd 62 85 d5 3d
       0.050727695 -0.079000816 -0.09950632 0.104258314
0002e0 59 cc c8 be 7c 9d 7a be 21 c8 cd be 0d 72 8e be
       -0.39218405 -0.24474138 -0.4019175 -0.2782139
0002f0 f5 a0 8b be 94 d0 75 be 70 ab b8 be fc 7f 81 3c
       -0.27271238 -0.24005347 -0.36068296 0.015808098
000300 00 5d bd be d7 bc a3 bc 5e 8d 2a be c4 da 2d 3b
       -0.36985016 -0.019987507 -0.1665549 0.00265281
000310 74 25 06 3f 6e 22 a6 be be 3f 09 3f 94 88 2c 3f
       0.524009 -0.32448143 0.5361289 0.673959
000320 9a bb 83 be 61 70 61 bf d1 f9 d9 3e c1 0d 10 be
       -0.25729066 -0.880621 0.42573407 -0.14067747
000330 71 cf 11 bf 3f 10 e2 be a9 ce 0d 3f e2 7f 0a bf
       -0.56957155 -0.4415302 0.55393463 -0.54101384
000340 1f aa 89 bf df c3 68 3e 91 26 95 3d 56 6f 4f bc
       -1.0755042 0.22730969 0.072827466 -0.012660822
000350 1a 51 4a be 28 95 03 3f 13 95 c4 3f 69 c0 9a 3f
       -0.197575 0.5139947 1.5357994 1.2089969
000360 29 3b 92 3f 5f 37 15 3f f8 15 26 c0 1d b3 8a 3d
       1.1424304 0.58287615 -2.5950909 0.067724444
000370 2c 36 1f bd 2e b6 0d be 79 94 a4 bd 69 f0 a9 bc
       -0.03887002 -0.13839027 -0.080361314 -0.02074452
000380 9b a4 09 be 62 df 74 3d 56 96 10 3e b1 08 de 3e
       -0.13441698 0.059783347 0.14119849 0.43366006
000390 3f 0a c1 3e 2d 74 c1 3e 52 3f e2 3e cd 9c a8 bf
       0.3770313 0.37783948 0.44188935 -1.3172852
0003a0 04 6b bb 3e 60 a7 1e be fd 1d a9 bf 9d cd 6e bf
       0.36605084 -0.15493536 -1.3212277 -0.9328249
0003b0 95 dc 9c bf 1a fc 1b bf 25 9e 7e bf ec 5c 88 bf
       -1.2254816 -0.6093155 -0.9946006 -1.0653358
0003c0 90 b4 0e bf 74 dd fe 3c a9 6b 9a bf 0d 8e d7 3e
       -0.55744267 0.031111456 -1.2064105 0.42100564
0003d0 b4 a4 16 3e 5f 4d 48 be 28 82 1c bf 00 0b 5f bf
       0.14711267 -0.19560765 -0.611361 -0.8712616
0003e0 34 ec 86 3e 73 c2 7d 3d 80 e2 8a 3f 2d 9f 99 be
       0.26352084 0.06195302 1.0850372 -0.30004254
0003f0 2c 6d 27 be 4d fe 05 bf f8 f8 43 3e ea dc 52 be
       -0.1635024 -0.5234116 0.19137943 -0.20592085

bias f4 [200]
000000 0b 0a 73 bf 0e 35 ed be 89 f7 0a bf 49 c3 1c be
       -0.949372 -0.4632954 -0.5428396 -0.1530887
000010 f4 9c 09 3d d5 6a 7a bf 85 c6 fc be f1 86 1d 3f
       0.033596948 -0.9781926 -0.49370208 0.6153403
000020 ba ba a6 3d a8 83 1a 3e b4 3f 7b bf 64 af b2 be
       0.08141084 0.15089285 -0.9814408 -0.34899437
000030 c7 e1 a7 be ba 51 d0 3e 0e 8d a3 be 09 86 e7 be
       -0.32789442 0.40687352 -0.31943554 -0.45219448
000040 09 1d 8e 3e d0 1f 3c be 53 32 4b 3e 9a a1 64 be
       0.27756527 -0.1837151 0.19843416 -0.22327271
000050 9f 7f 43 3e b5 fa db be 3e 20 92 be d5 39 79 bf
       0.19091652 -0.42964712 -0.28540224 -0.9735387
000060 c8 44 3c 3f 9a 4f a3 be 0d 8a 1d bf bf be ba 3e
       0.7354245 -0.3189667 -0.61538774 0.36473653
000070 de 39 19 3f b9 7f 19 3e 6c 06 d5 be c2 76 86 bf
       0.59853923 0.14990129 -0.41606462 -1.0504992
000080 e6 40 4e 3e 3b 0a a7 3e cd 0c 26 bf 6e f5 aa be
       0.20141944 0.32624993 -0.6486328 -0.33390373
000090 de 31 a9 be 35 52 7e bf 0a e0 18 bf a3 f3 cf 3e
       -0.33045858 -0.9934419 -0.59716856 0.40615568
0000a0 25 93 88 bd 3d ff fe 3d c2 df 79 3e 0f de 80 be
       -0.066686906 0.124510266 0.24401763 -0.25169417
0000b0 32 19 66 be 50 a6 b9 be e4 91 d7 3d b1 e4 86 be
       -0.22470549 -0.362597 0.10525873 -0.26346353
0000c0 b5 41 bc 3d 3e 8a 51 3e b3 fc 37 bf 73 e8 75 be
       0.0919222 0.20462891 -0.71869963 -0.24014454
0000d0 dd f7 2e bf c6 4f 22 bf 4c 00 d2 3e b0 67 ac bd
       -0.6834696 -0.63402975 0.41015851 -0.08418214
0000e0 85 a3 25 3f 20 0c e2 bd cb cf 13 3e 1a 3c d8 bd
       0.64702636 -0.11037469 0.14434735 -0.105583385
0000f0 07 3b c1 be 49 8f 44 bf a5 43 b9 be ef f6 1c 3e
       -0.37740347 -0.76781136 -0.3618442 0.15328573
000100 83 fb 48 3e fd 02 53 3d 31 00 43 3e 18 71 05 bf
       0.19627194 0.05151652 0.19043042 -0.5212569
000110 05 90 68 bf 8a fc 38 3d 4f ad 05 bf 5a fc bf bd
       -0.90844756 0.045162715 -0.5221757 -0.09374304
000120 ad 76 f3 bd 61 f3 4b be 91 7b bd 3e 23 2d 1d bf
       -0.1188787 -0.1991706 0.37008336 -0.61397
000130 d0 e7 70 bf f9 02 f2 3d 6d 60 82 3d d0 15 14 bf
       -0.9410372 0.11816973 0.06366048 -0.57845783
000140 b4 aa 91 be 32 95 c2 be 6e f5 05 be 48 0a 00 bf
       -0.2845055 -0.38004452 -0.13081905 -0.5001569
000150 a3 48 30 3e e0 eb 24 3e 1f 97 3b 3c 64 52 22 be
       0.17215209 0.16105604 0.011449604 -0.15851742
000160 f7 86 ea be e0 6c ef be db fd 89 be 7b f9 12 3e
       -0.45806095 -0.46762753 -0.2695149 0.14352982
000170 9d 36 f5 be 33 75 b7 3d 3e ee 81 be fd 48 90 be
       -0.4789323 0.08957901 -0.25377077 -0.28180686
000180 d5 3f 07 bf 0a f4 dc 3d 63 86 8c bf 4f 55 56 be
       -0.52831775 0.10788734 -1.0978512 -0.2093098
000190 fe 17 19 bf 00 2d 57 be 7c ce de bd 3c 87 21 be
       -0.59802234 -0.2101326 -0.108792275 -0.15774244
0001a0 52 89 9f be 5d c5 a6 3e a6 34 0c 3f 1d 4b 69 bf
       -0.31159455 0.3257245 0.54767835 -0.9113024
0001b0 cb c7 8e bd d2 f0 91 bc d2 5a 8a be 4e 46 4f 3e
       -0.06971701 -0.017815027 -0.27022415 0.20241663
0001c0 4b d9 0c bf b2 68 8e bd cd a1 b7 bd a4 67 a5 3e
       -0.5501906 -0.06953563 -0.08966408 0.32305634
0001d0 89 7d d1 3e d8 8f 87 3e f5 38 6e 3d 4d e5 da be
       0.40916088 0.26476932 0.058159787 -0.42753068
0001e0 72 1d cb 3e f7 2a fc bd eb fe d5 bc 14 06 0f bf
       0.39670902 -0.123128824 -0.02612253 -0.5586865
0001f0 46 1a 08 be bf 8c 2d 3e ff 83 2a 3d 73 07 64 bf
       -0.13291273 0.16948222 0.041629788 -0.89073867
000200 1e ed 8e 3e 2f e7 31 3f 64 91 dc 3e 32 5b f2 3e
       0.2791528 0.69493383 0.43079674 0.47335202
000210 c7 ea 36 bd c9 16 84 be f7 f4 ef bd 23 fd 3e bf
       -0.044657495 -0.25798634 -0.11716645 -0.74605006
000220 38 36 b5 bd 6c 67 70 be f9 4b 71 bf 18 8b 41 3d
       -0.08848232 -0.23476952 -0.9425655 0.04725179
000230 3d 5d 8c be 1b 5f 81 be 5f d3 17 3e 14 72 a0 3d
       -0.27414885 -0.25267872 0.14826725 0.07834259
000240 d2 11 ce 3e 5b 19 22 bf f1 43 f1 be 72 0a ad be
       0.4024797 -0.6331994 -0.47122148 -0.33797032
000250 88 da f3 be 3d 9c 0c 3f eb d9 16 3f 7d 0a ab 3e
       -0.47627664 0.549259 0.58926266 0.3340644
000260 ac 25 91 3e bf 4f 97 3e f6 9a 72 3e 1a 45 f5 3e
       0.28349054 0.2955303 0.23691925 0.47904283
000270 d3 a5 21 bf 9e 27 26 bf ee 68 06 3d d9 1b 49 3e
       -0.6314365 -0.649042 0.032814912 0.1963953
000280 cd 32 a4 3e 45 d0 ac bd c5 3b 28 3f 63 00 18 bf
       0.32070008 -0.08438162 0.657162 -0.5937559
000290 55 f1 2c be 8c 1e 60 bc d4 d5 2d bf 85 48 d3 3e
       -0.16888936 -0.013679158 -0.679044 0.41266266
0002a0 7c b7 1e 3f 49 03 cf be 35 ec ed bd 2b f8 81 3c
       0.61998725 -0.40432194 -0.116173185 0.015865406
0002b0 d4 04 c8 be 12 94 1d bf 93 e5 14 3e d5 fe bc 3e
       -0.39066184 -0.6155406 0.145407 0.3691317
0002c0 e9 72 68 bf 6c cc a3 be fd c0 49 3e b9 15 40 bf
       -0.9080034 -0.319919 0.19702525 -0.75033146
0002d0 4d f4 0a be a6 79 6d 3e d2 f6 7e 3e fb 48 95 bd
       -0.13569756 0.23190936 0.24898842 -0.072893105
0002e0 8f 22 01 3f c7 17 d7 3c ca 49 8b 3e 55 53 d3 3d
       0.5044336 0.026256455 0.27204734 0.10318629
0002f0 7c 38 0e 3f ca a0 a7 3e 3c 17 83 3e 53 0b 43 be
       0.5555494 0.3273986 0.25603664 -0.19047289
000300 1d b7 d0 be d2 b9 92 be 90 1e 08 bf 7e d6 96 be
       -0.40764704 -0.28657395 -0.53171635 -0.2946052
000310 21 ff d2 3e 9c 1d ac be 90 ba ea be 33 4f a1 be
       0.41210273 -0.3361634 -0.4584546 -0.31505737

weight f4 [200, 200]
000000 0b 17 02 3f 86 01 06 3e bb ad a2 3e 38 67 99 3e
       0.5081641 0.13086519 0.3177317 0.29961562
000010 64 89 b1 bf 6b b6 6a be aa 93 bc 3e 25 8e 5a bf
       -1.3870053 -0.2292115 0.3683141 -0.85373145
000020 2d c8 c9 3e f3 e3 eb 3d a0 5b 6a 3e 63 62 09 3f
       0.39410535 0.11518087 0.22886515 0.5366575
000030 90 ad 4d bd b7 9c 32 3e 45 6c 2a 3e 68 88 db 3e
       -0.05021435 0.17442594 0.16642864 0.42877507
000040 cf c3 95 bf a1 79 58 bd 9d cd 84 3e 58 6a 74 3e
       -1.1700381 -0.05285037 0.2593812 0.23868692
000050 da 8f bf bf 07 82 d8 3e 4d 07 8b 3c 1b c3 b8 3c
       -1.4965775 0.42286703 0.016971255 0.022553971
000060 27 df a9 bf d1 65 45 bf ff c3 10 3d 23 59 6c bf
       -1.3271226 -0.77108485 0.035343166 -0.9232351
000070 f5 d4 69 bf 08 43 ae 3e 58 69 2f bf 82 02 0d 3f
       -0.9134057 0.34035516 -0.68520117 0.5508195
000080 5d 84 1d 3e 13 04 64 3c ee 00 02 bf db c0 00 3f
       0.15382524 0.013916987 -0.5078267 0.50294274
000090 80 9e 91 be e0 4a 4e 3f f6 c5 d7 3e 17 bd 3d bf
       -0.28441238 0.80583 0.4214322 -0.74116653
0000a0 31 d1 b2 3d d5 cc c5 bc a5 ff 1d bf 9c db 80 bd
       0.08731306 -0.024145523 -0.6171821 -0.06291887
0000b0 b9 32 ec 3d 43 a6 0d c0 de 2e 29 3f a9 99 d2 be
       0.11533112 -2.2132728 0.6608714 -0.41132858
0000c0 3d 09 12 3f e4 07 13 3f c4 41 87 bf bf f5 ca be
       0.57045346 0.57433915 -1.0566945 -0.39640614
0000d0 70 48 40 3f 43 bf 97 bf f1 86 11 be 7a f6 99 be
       0.7511053 -1.1855243 -0.14211632 -0.3007086
0000e0 f9 63 c6 be 65 a8 a4 be a9 fd 80 3d 97 14 3e 3e
       -0.38748148 -0.32159725 0.06298382 0.18562542
0000f0 e9 df 3e 3d 12 d7 a7 3e ae 53 b2 bf a8 71 9b bf
       0.046600256 0.32781273 -1.3931787 -1.214406
000100 41 22 4f 3f 4e 99 cd 3e ba 78 6a 3f 6b c7 a9 3e
       0.8091164 0.40156025 0.91590464 0.33159956
000110 74 c7 0f 3f 18 8b 25 c0 dc c7 6f bf fa 3f 37 bf
       0.56163716 -2.5866146 -0.93664336 -0.71581995
000120 3a af 36 be d5 b6 62 3c dc c2 06 3e 47 0a 16 bf
       -0.17840281 0.013837536 0.1316027 -0.5860943
000130 b0 27 5a 3f 47 13 93 3f fc 41 83 bf de e3 94 3c
       0.8521681 1.1490258 -1.0254512 0.018175062
000140 7e 55 d2 be 6d ac 6b 3f e9 1b f7 bd 0a 64 98 3e
       -0.4108085 0.92059976 -0.1206587 0.29763824
000150 3f 9b 82 bd 5d 5e e9 3f b5 41 4c c0 3d 3f 69 bf
       -0.06377267 1.8231922 -3.1915104 -0.9111212
000160 61 30 b8 3f 61 13 2b bf 6c 75 76 bf ab 85 8d 3e
       1.4389764 -0.66826445 -0.9627292 0.27641043
000170 b6 16 b2 3d 25 da 84 bf d2 47 f9 3d 96 72 15 c0
       0.08695738 -1.0379072 0.12171902 -2.3351188
000180 d7 1b 04 be 18 9b 55 3f ec 70 ea 3e 17 35 82 3e
       -0.12901245 0.8343978 0.45789278 0.2543113
000190 0f 7f e0 be 30 9e 1e bd 6e 8c 07 3f 25 1c 8b bd
       -0.43846938 -0.038725078 0.52948654 -0.067924775
0001a0 99 26 ea 3f a8 82 c5 3e e8 e2 4a 3d f4 f3 7d 3f
       1.8293029 0.38576245 0.0495328 0.9920037
0001b0 05 24 05 c0 ad 09 ec bf 23 2a 1f 3f 89 da 44 be
       -2.0803235 -1.8440453 0.6217367 -0.1922399
0001c0 71 3d 98 bf db ae 1d c0 dd bb 79 be c4 d3 67 3e
       -1.189375 -2.4637973 -0.2438807 0.22639376
0001d0 46 35 1d 3f 37 33 d3 be 60 da f1 3d ab 77 4d bf
       0.61409414 -0.4125001 0.1180923 -0.80260724
0001e0 28 cc c1 3e a3 b9 82 bc e4 35 b7 3d e4 6b 4c bf
       0.3785107 -0.01595766 0.08945826 -0.7985213
0001f0 4b bb 2b 3f 81 a3 c4 bf 9f 85 b9 bd cb 70 02 bd
       0.6708266 -1.5362397 -0.09058689 -0.03184585
000200 d6 d4 1f 3f dc 40 f5 be 43 a1 e7 bd b2 5b 8f 3f
       0.62434137 -0.47901046 -0.11310055 1.1199858
000210 32 5d 80 3e 3a 8d 62 3e 7a 50 c4 bf 25 27 8c bd
       0.25071102 0.22124186 -1.533706 -0.06843404
000220 d3 f3 f8 bf 71 7b 40 bc bd 52 e0 bd 0c 39 f2 bd
       -1.9449409 -0.011748181 -0.10953281 -0.11827287
000230 94 e9 75 3d c7 a4 6d be b2 ec a7 3f be f5 37 bd
       0.06003721 -0.23207389 1.3119109 -0.044912092
000240 b7 ad 32 3f fb d8 18 bf 41 14 f4 3d 03 bb 45 bd
       0.6979632 -0.59706086 0.119179256 -0.04827405
000250 1a 73 2d bc c5 55 63 3f 21 51 04 bf 28 73 d2 3f
       -0.010586524 0.8880275 -0.5168629 1.6441393
000260 a7 be 24 bf 34 2f b0 bf 5f 79 dc bd 16 7b 70 bf
       -0.6435341 -1.3764405 -0.10765337 -0.93937814
000270 d8 2a 65 3d 81 14 f6 bf df 2b a8 3e 2d b3 f2 3d
       0.055949062 -1.9225007 0.3284597 0.11850581
000280 3b 9c 39 3e ac cc c7 bf 94 ac ab 3e 22 41 39 c0
       0.18126003 -1.5609336 0.33530104 -2.8946004
000290 51 9d 83 bd 25 e3 42 bf 6a 78 c2 bf 47 d6 0b 3d
       -0.0642649 -0.76127845 -1.5192997 0.034139898
0002a0 9d 55 13 bf 50 1b 9a be 68 32 97 3e f6 31 38 bf
       -0.5755251 -0.30098963 0.29530644 -0.71951234
0002b0 ca 54 da bf 02 a7 52 3e cc 55 81 c0 59 47 91 3f
       -1.7057126 0.20571521 -4.0417233 1.1349899
0002c0 6f e7 b8 3e 6f ab 62 bd b0 a5 12 3f a9 de 53 bf
       0.3611407 -0.055339273 0.5728407 -0.8276163
0002d0 b4 d3 60 3e bb 17 13 3f 3f b5 68 bf cc 8d 33 be
       0.21955758 0.57458085 -0.9090156 -0.1753456
0002e0 a7 e2 b1 be 89 90 59 3d 4a 4a 9c bf da ea 28 bf
       -0.34743235 0.053116355 -1.2210171 -0.65983355
0002f0 21 7a 7b bf ee a5 dc 3f 63 1c 24 bf a6 10 8b bf
       -0.9823323 1.7238138 -0.64105815 -1.0864456
000300 1d 45 d3 be 56 0f 62 be c1 a3 1c bf ff 07 ae bd
       -0.41263667 -0.22076163 -0.6118737 -0.08497619
000310 ea e4 8b 3e 69 1e b3 bf 82 59 7a be 46 69 97 bf
       0.27323085 -1.3993655 -0.24448207 -1.1829002
000320 d7 f0 2b bd f1 b9 d9 3c 12 d5 d5 bc 14 84 c3 bc
       -0.04197773 0.026577922 -0.026102576 -0.02386669
000330 f0 79 3a 3b 6e 76 89 3d 3d f1 84 bd 17 52 a1 bd
       0.0028454028 0.06712042 -0.06491325 -0.078769855
000340 c0 79 cc 3c ab 18 61 bd 6b e0 60 bd 7e 09 1b bd
       0.024960399 -0.054955166 -0.05490152 -0.03785085
000350 d7 73 70 3d c0 9f b5 bd 4d 55 9d 3b 6c 42 0b 3d
       0.058704223 -0.088683605 0.0048014284 0.03399889
000360 7f 31 25 bd 9b d8 8d 3d 24 d3 f9 bd 4f 8a a4 bd
       -0.040330406 0.0692608 -0.12198475 -0.08034193
000370 26 c9 1c bd c6 7a 9b bd ea 32 c0 bc f9 42 d5 3c
       -0.038277768 -0.075917765 -0.023461778 0.026032912
000380 76 6d 9e bd 96 57 1e bc b2 ba 5c bb 45 94 1d 3d
       -0.07735722 -0.009664437 -0.0033680615 0.03847148
000390 cc b6 75 bc b9 7c c2 bc a5 29 8f bd b8 20 c9 3a
       -0.014997195 -0.023741113 -0.06990365 0.0015344834
0003a0 0f 1a a5 bd e1 00 d0 bc 2c 12 f9 bc d3 5a e0 bc
       -0.08061611 -0.025391044 -0.030404173 -0.027387058
0003b0 cc 3a 79 bd c0 53 ca 3c b8 e2 b1 bc 88 d1 b1 bd
       -0.06084709 0.024698138 -0.021714553 -0.08682543
0003c0 ff 9b 3f 3c a5 be 0b bd b0 47 b9 bd 2c e5 f3 bd
       0.011694907 -0.03411736 -0.090468764 -0.119089454
0003d0 3a f1 52 bd 2d ec 0f be 87 b5 25 bd 09 4b 29 bd
       -0.051499583 -0.14054938 -0.04045632 -0.041331325
0003e0 d2 f6 5f bd 1c a9 47 bd 1a 3c 5f bc 09 93 ca bd
       -0.054678746 -0.04874526 -0.013625169 -0.09891326
0003f0 86 30 9e bc 9e 46 22 3c de ff 99 bd 2e aa 9a bd
       -0.019310247 0.009904532 -0.07519506 -0.075519904

bias f4 [200]
000000 16 68 12 bf b5 88 0e be 78 55 06 bf ee 9c 17 bf
       -0.5719007 -0.13919337 -0.52474165 -0.5922383
000010 0f dc a6 be db a5 6a bd 5f 4d c3 3e 9c b8 f6 bc
       -0.32589766 -0.05728708 0.38144967 -0.030117325
000020 a2 22 da bd 27 d5 a3 be 45 ec 86 bd 08 e5 b4 bd
       -0.10651137 -0.3199856 -0.065880336 -0.08832747
000030 96 8f 9d bc 7b 84 83 bf 48 7f cb 3e a0 12 b3 bd
       -0.019233506 -1.0274805 0.39745545 -0.08743787
000040 b7 06 ac bd a5 9d 04 be f5 46 01 bd e2 f9 27 bf
       -0.08399718 -0.12950762 -0.03156181 -0.65615666
000050 3f 50 48 bf 5e ee 1e bf 74 ea 58 be 1d b0 e8 bc
       -0.78247446 -0.6208247 -0.21183187 -0.02840429
000060 23 34 c3 bd fc 57 00 bf e4 f1 93 be 3e 9a 1f be
       -0.09531429 -0.50134254 -0.28895485 -0.15586182
000070 d6 a1 9b bd cd 97 0f bf df ca a6 be 23 45 10 3d
       -0.07599227 -0.56091005 -0.32576653 0.035222184
000080 bd 78 ff 3d 65 de 8d bd 59 b3 2c be 2f 9f 9d bd
       0.12474201 -0.06927184 -0.1686529 -0.076963775
000090 2c be 11 3b 20 e8 37 bf f9 d5 8c 3d 6c 7b 0a bd
       0.0022238595 -0.7183857 0.068767495 -0.03380911
0000a0 11 e8 0b bf d6 0b 1b bc 63 85 ee ba 0c 3f 71 bd
       -0.5465098 -0.009463271 -0.0018197711 -0.058898017
0000b0 e3 fb 0c bf f4 68 73 bd 82 85 02 bf 4b 77 04 be
       -0.5507185 -0.059426263 -0.50984967 -0.12936132
0000c0 50 a9 bc bd d3 54 e1 bd 17 7d cc 3d bc 5a 82 3c
       -0.09211981 -0.11002507 0.099847965 0.015912406
0000d0 cc 26 af be 9d 22 0f be d3 ff 9a be 82 98 b7 be
       -0.34209287 -0.13978048 -0.30273303 -0.35858542
0000e0 29 e2 ce bd 14 36 fc bd 2d f6 05 be 2a 35 d6 bc
       -0.101017304 -0.12315002 -0.1308219 -0.026148397
0000f0 01 ac f2 3d e7 88 ae bc 0a 6c 5d bd 13 e0 9f 3e
       0.118492134 -0.021305514 -0.054058112 0.31225643
000100 42 7d 5a be c1 3b 9d be 87 b7 c6 3f bf 33 ae bd
       -0.21336845 -0.3070965 1.5524758 -0.085059635
000110 33 10 6e bd d3 68 66 bb 1c b2 75 bd 7f 3e cd bd
       -0.058120918 -0.0035157695 -0.05998431 -0.10021686
000120 ba 41 d0 bc 3c df 14 bf 9b 91 d2 bd b3 3b 6b bf
       -0.025421966 -0.5815313 -0.10281678 -0.9188797
000130 2a 67 eb bd 55 3e 04 be 1e 69 16 be 95 4d d3 be
       -0.11494286 -0.12914403 -0.14688537 -0.41270128
000140 a0 fa 0e bf c7 43 80 bd 8d 89 88 bd 1d bf dc be
       -0.55851173 -0.062629275 -0.06666861 -0.43114558
000150 27 3b a3 bd 6e 06 15 bd c7 37 92 be 4e a5 93 bd
       -0.07970267 -0.036383085 -0.2855818 -0.07209264
000160 c7 7d a7 bd 3b 05 07 bf 83 dd e4 be e8 a5 be bd
       -0.08178287 -0.52742356 -0.4470025 -0.09308988
000170 a1 b4 b8 bd 64 a8 4a bf 89 0d c1 bd e8 90 81 be
       -0.09018827 -0.79163194 -0.0942641 -0.25305867
000180 e6 95 97 be aa d9 5e bd e0 3d b1 bd 57 21 26 bf
       -0.2960655 -0.0544068 -0.0865438 -0.6489462
000190 35 6e 08 bd 8d e2 8e be 57 28 29 bd 3a 81 11 bf
       -0.033308227 -0.2790722 -0.041298237 -0.5683781
0001a0 49 0f c8 bd 7d c5 8f bd 8d 31 06 bc 60 e0 b1 bd
       -0.097685404 -0.0702009 -0.008190525 -0.08685374
0001b0 2c b4 93 be 28 39 e1 bc d9 ab ca be 97 c9 24 be
       -0.28848398 -0.027493075 -0.39584234 -0.16092525
0001c0 9d 6c ae 3d 69 e5 c2 be 3d c7 08 bf 23 21 ed bd
       0.0851681 -0.3806565 -0.53429013 -0.11578586
0001d0 c6 95 e0 be b8 84 e9 bc c7 03 45 bf a1 45 32 be
       -0.43864268 -0.028505668 -0.7695889 -0.17409374
0001e0 59 e9 62 bf 8f 70 a1 bd 81 1d 51 be d2 51 d5 bd
       -0.8863731 -0.07882797 -0.20421411 -0.104159966
0001f0 06 86 91 bd 47 2c dd 3d 39 0e ca bd bc 55 5f bf
       -0.07105641 0.10799461 -0.09865994 -0.87240195
000200 e1 b4 4e bf 19 f0 c1 bd c7 4c ef be 3c b1 33 be
       -0.8074475 -0.09469623 -0.46738264 -0.17548078
000210 dd 59 52 be 10 ef 83 bd 95 69 70 bf f1 4b ca bd
       -0.20542093 -0.06442082 -0.93911105 -0.09877766
000220 10 ed 44 be 20 d1 cd be 42 9a d1 bd cd 04 02 be
       -0.19231057 -0.40198612 -0.102345005 -0.12697144
000230 e2 64 d7 be 9a f0 dc bd d3 73 60 bd b4 e6 f6 bc
       -0.42069155 -0.107880786 -0.05479796 -0.030139305
000240 be 38 10 be 9d a8 93 bd 41 1a c5 bd 6f 3d a9 bd
       -0.14084145 -0.07209895 -0.09624148 -0.08263671
000250 6c cb f0 bd ab 2d 6a bd 37 a7 35 bc 96 17 3c bf
       -0.1175755 -0.05717246 -0.01108723 -0.7347349
000260 35 d1 fe be 03 fd 8f be 6c 56 f7 bd 1e ef d9 be
       -0.49768987 -0.2812272 -0.120770305 -0.42565244
000270 2e aa db be a4 1d 8d be 05 70 09 be e0 63 61 3f
       -0.42903274 -0.27561677 -0.13421638 0.8804302
000280 6e c1 c6 be 07 15 0f 3e 94 8d 7c bd 30 52 d3 be
       -0.3881945 0.13972865 -0.061658457 -0.41273642
000290 b5 e1 b2 be 95 51 a3 be 9b b4 e6 bd a2 50 1b bd
       -0.34937826 -0.3189818 -0.112649165 -0.037918694
0002a0 12 0f dd bd 54 5a 1d be d0 06 bc bd 2d eb 1b be
       -0.1079389 -0.15366489 -0.09180987 -0.15226431
0002b0 e8 b8 3f bd 61 5d a9 bd 8e a6 0f bf 7c 77 f8 bc
       -0.0468072 -0.08269764 -0.5611352 -0.030330412
0002c0 29 12 c7 bd e9 a9 ce bd 76 19 39 be dd 77 06 bf
       -0.09720261 -0.100910015 -0.18076119 -0.52526647
0002d0 58 73 b0 be 57 10 ad be 80 d5 16 3f dc cb 78 bd
       -0.34463 -0.3380153 0.58919525 -0.06074129
0002e0 5c b2 10 be c7 26 29 be 7f 33 ad bd c6 9f 19 bd
       -0.14130539 -0.16518699 -0.08457088 -0.037505887
0002f0 d6 bf af 3c f0 a6 c5 3e 8e 1d 84 bc f4 19 8e be
       0.02145378 0.38603926 -0.016127374 -0.27754176
000300 14 f5 44 bf ea 83 88 be 7c 82 f2 be 59 98 c0 bd
       -0.7693646 -0.26663142 -0.47365177 -0.09404058
000310 78 26 9e be 7c 88 71 bd 1d 85 21 3d e5 45 83 bd
       -0.30888724 -0.058968052 0.039433587 -0.06409816

weight f4 [1, 200]
000000 bb 2d e2 3d e2 21 57 3c 1c e9 56 3e a6 de a7 bf
       0.11043879 0.013130637 0.20987362 -1.3114822
000010 4f cc 32 bf 50 5b f6 bd 92 7d 36 3e c7 05 a2 bb
       -0.69843 -0.12029135 0.17821339 -0.0049445364
000020 a8 86 be 3c 46 36 2b 3e 05 ff 1f 3d 26 70 96 3c
       0.023257568 0.16719922 0.039061565 0.018364023
000030 b8 06 45 bc af 77 98 be dc 2e d0 be 74 96 7a bb
       -0.012025528 -0.2977881 -0.4066075 -0.003823665
000040 ca 65 dd bb a1 43 c8 38 e5 27 88 3c 34 b5 f6 be
       -0.006756519 9.54934e-05 0.016620586 -0.48185122
000050 d0 15 d9 be 3f 0c 3f bf 15 99 80 3d eb 3b bf be
       -0.42399454 -0.7462806 0.06279198 -0.373504
000060 9f be 2c bf 88 ee 16 bf 7a 58 6d be ed a3 01 3d
       -0.67478365 -0.5895772 -0.23178282 0.031650472
000070 4a a5 e1 bc ca 73 e3 3d e5 43 94 be 8e 7e 00 bf
       -0.027544636 0.111060694 -0.2895805 -0.5019311
000080 84 98 7e 3f 2e 70 93 3c 6f 36 23 bf 3d 72 93 3e
       0.9945147 0.017997827 -0.63754934 0.28798094
000090 36 4a 91 3d 6b 23 f3 bd b0 22 41 3e 14 71 12 bf
       0.07094233 -0.1187199 0.18860888 -0.57203794
0000a0 60 70 08 3e eb 36 76 bd 2b e1 e3 bb 9a 20 d5 bc
       0.13324118 -0.060110968 -0.0069543323 -0.026016522
0000b0 18 25 18 3d b4 d9 0d 3b 43 62 c6 be 42 b4 33 bf
       0.03714475 0.0021644654 -0.38746843 -0.70196927
0000c0 5b d2 60 3c 31 38 c6 ba c8 ae 64 3d a6 d1 25 bb
       0.013722028 -0.0015122948 0.055830747 -0.0025301962
0000d0 06 44 9f be 02 ae 6e be 98 ea 5d be 7f 71 d2 be
       -0.31106585 -0.23308566 -0.21671522 -0.41102216
0000e0 11 1c df 3e ce e9 ab 3c 48 02 c6 be 8e 28 94 bc
       0.435761 0.02098551 -0.38673615 -0.018085744
0000f0 ce a3 74 3d b6 2c 15 bb f8 6e bd bb 65 78 6a 3d
       0.05972653 -0.0022762245 -0.005781051 0.057243723
000100 a2 c5 5c 3e 1a 31 94 3d 15 f6 ab 3d fe 3a 19 3c
       0.21559766 0.07235928 0.08396546 0.009352444
000110 90 7f c4 bc 50 0b b5 3c 42 55 e9 bc af b6 ca 3e
       -0.023986608 0.02210012 -0.028483037 0.39592502
000120 00 02 48 ba b7 57 7e be 78 40 90 3e 9e f3 9f be
       -0.00076296926 -0.24838148 0.28174186 -0.31240553
000130 8b ad be be b6 00 ad 3c 4e a3 24 bd c8 bd 3b be
       -0.37241778 0.021118503 -0.040194802 -0.18334115
000140 23 39 2c be 85 e7 8c 3c ca 10 e7 3b cc e4 16 bf
       -0.16818671 0.01720024 0.007051562 -0.58942866
000150 c6 f4 28 bf 63 43 f9 3c 19 ed c4 3e 4b 73 61 3c
       -0.65998495 0.03042764 0.3846214 0.013760398
000160 7f a2 27 3c b5 c4 b8 3e aa 19 65 bd 47 00 25 3c
       0.010231613 0.36087576 -0.05593268 0.010070867
000170 09 77 75 be a9 c2 a2 be 04 fd 7e 3b 58 0b ff 3e
       -0.2397119 -0.3178914 0.0038908133 0.49813342
000180 d2 e0 52 bc d5 26 8a 3c 4a 8f ed 3c 08 e3 bc be
       -0.012870984 0.01686422 0.02899899 -0.3689196
000190 8c 1f 89 bf 85 c4 16 3f c0 79 b3 3c a8 9d ce be
       -1.0712752 0.58893615 0.02190864 -0.40354657
0001a0 f7 f3 ab bc db 29 b9 3d d5 50 83 ba 7f 88 3c bd
       -0.020990355 0.090411864 -0.0010018597 -0.04602861
0001b0 29 e9 8c 3d 56 b6 0c 3e 45 07 e4 be f6 94 26 bf
       0.06880409 0.1374143 -0.44536796 -0.65071046
0001c0 a1 90 27 bf 58 43 ca 3e 88 4c 41 3e a5 fe 91 bb
       -0.6545506 0.39504504 0.1887685 -0.004455405
0001d0 a2 71 a2 be 1b c4 1e bf ae d0 51 be 8b 6a 91 3e
       -0.3172732 -0.62017983 -0.20489761 0.28401598
0001e0 ed 6e 91 be cc 52 0e 3d a9 4b af bd 9e d0 a4 bc
       -0.28404942 0.03474693 -0.08559353 -0.020119008
0001f0 69 08 04 3e e0 08 4f 3d c9 c6 d1 3c 2d 33 1a 3e
       0.12893833 0.050545573 0.025607483 0.15058585
000200 c0 7b 93 be 06 d7 ae bb 50 0c 93 be 38 d2 d0 3d
       -0.2880535 -0.0053356914 -0.2872033 0.10196346
000210 13 68 7f be ad 10 68 3d a3 58 10 bf 2a 0b 5d bc
       -0.24942045 0.05665653 -0.5638525 -0.013491431
000220 29 9b b4 3e 2f 7f b1 3d b3 27 e8 3c 6b ea ef bb
       0.35274628 0.086668365 0.028339243 -0.007321646
000230 c5 c4 5e 3e a7 40 20 bc 7e 63 25 3a 38 1a 48 3c
       0.21754749 -0.009781039 0.0006309076 0.012213282
000240 08 45 3e bc 08 02 be be d5 7e 0c 3c 0d 83 07 3c
       -0.011613138 -0.37110925 0.008575161 0.008270991
000250 bf fe 3a bc 78 25 c3 b9 a1 27 11 3e 53 b7 7b be
       -0.011413275 -0.00037221215 0.14175273 -0.24581651
000260 27 31 81 3e bd dd 2a 3f 0b 71 f1 3c 2f cc 24 3e
       0.25232813 0.66744596 0.029472848 0.16093515
000270 84 9e 8c 3d 77 27 e1 be be 93 9e 3c 5e 8c 3c 3d
       0.06866172 -0.43975422 0.019357558 0.046032302
000280 3e f2 6c bf 91 03 76 3d 07 e8 a7 3c d5 93 ab 3e
       -0.9255713 0.060061995 0.020496381 0.33511224
000290 8c c5 8c be d3 bc 32 be 81 e8 c5 bc 77 3f 84 3e
       -0.27494466 -0.17454843 -0.024158718 0.2582967
0002a0 75 7b 0b bc e9 56 0b 3e 38 fe bb 3c 05 87 6e 3e
       -0.008513321 0.13607372 0.02294837 0.23293693
0002b0 79 8a c7 ba 04 d6 be bd cd fc 92 3d b8 45 c7 bc
       -0.0015223763 -0.09318164 0.07177124 -0.024325237
0002c0 47 2d 2a 3c e3 e7 68 3c 20 6b 9e be 1a 2a 62 be
       0.0103867715 0.014215442 -0.30941105 -0.22086373
0002d0 37 6c 87 3e 15 45 9f bf ce 24 4b 3d b1 e4 55 bb
       0.2644975 -1.2442957 0.049595647 -0.0032637531
0002e0 90 7c 86 3d 98 c4 c2 3e 23 8e f8 be 2a ef e9 bc
       0.06566727 0.38040614 -0.48545942 -0.028556425
0002f0 38 14 b0 bc c9 25 3d 3d a7 b1 c7 be 97 b8 04 3e
       -0.021494016 0.046178613 -0.39002725 0.1296104
000300 69 a7 4e 3e 07 9c 90 bf c0 89 41 bf 6f cd 2a 3c
       0.2018105 -1.1297616 -0.75600815 0.010424956
000310 1e f0 94 3e 9c df 7c bc 79 a8 93 3e f7 95 aa bc
       0.29089445 -0.015434172 0.28839472 -0.020823462

weight f4 [200, 15]
000000 bb a5 97 bd 3d b4 55 3f 7d 8b be be 6c cb 3c 3f
       -0.074046575 0.83478147 -0.37215796 0.737479
000010 84 04 a6 3d cf 19 9a 3e 6b 38 d1 be ae 24 6e be
       0.0810633 0.30097815 -0.40863356 -0.2325618
000020 7e 8f 94 bd ac 7e 84 c0 3e 28 47 bd 9d 3c 8b 3e
       -0.072539315 -4.140463 -0.048622362 0.27194682
000030 07 3b 08 3f 02 f5 95 3f 18 1b 8d 3e d1 d2 88 3f
       0.5321507 1.1715395 0.27559733 1.0689336
000040 0a c5 8c 3f 05 99 e2 be 4b a4 32 3f 74 ed 4f bf
       1.0997632 -0.4425737 0.6978194 -0.812217
000050 5d 24 68 3c 3a e8 4e bf 3f 6a c9 bd e9 a7 c6 bd
       0.014168826 -0.808231 -0.09834718 -0.09699995
000060 ec a2 d3 bf f3 0c 40 3e 8b 8e 33 bf 8b 03 25 3e
       -1.6534095 0.1875494 -0.7013938 0.16114633
000070 05 4c af bf 6b 1d 03 be 05 5f a4 bd 58 93 85 be
       -1.3695074 -0.12804191 -0.08025936 -0.26088977
000080 de e1 5f 3f c9 f0 7d bf 1d 7d e9 3e c3 6b a7 3d
       0.8745402 -0.99195534 0.45603266 0.08174851
000090 9a 68 36 3f cf 1b d2 3e d4 ee 78 3e 72 8b 5c 3e
       0.7125336 0.4103684 0.24309856 0.21537569
0000a0 dd 51 69 bf ed 3f 0d bf 94 c6 ba 3d 6d cd ae 3e
       -0.9114054 -0.5517567 0.09119907 0.34141102
0000b0 b5 7d aa bf 9b 66 ca 3e da aa 33 3f 8f f6 23 bf
       -1.3319613 0.39531407 0.70182574 -0.64048094
0000c0 5f 4f e9 bd 5e 16 a7 be d2 70 10 3e 12 fc c9 bd
       -0.11392092 -0.32634252 0.14105538 -0.09862532
0000d0 02 87 4d bf cd f7 92 3e 7a 59 e2 3e f8 c4 91 bf
       -0.8028413 0.28704682 0.4420889 -1.1388235
0000e0 31 49 23 bf cb d4 c7 bd 94 36 4a bf 9d 4f 12 3f
       -0.63783556 -0.09757384 -0.7898953 0.5715273
0000f0 0c 3f b9 3f d8 c9 79 bf c3 5c e3 3d 20 a8 e5 be
       1.4472365 -0.97573614 0.11101677 -0.44854832
000100 4c 46 17 bf ec 21 8e bf db a7 94 bf da 1d e8 3e
       -0.5909164 -1.1104102 -1.1613725 0.45335275
000110 2b f5 d1 be 44 2c 12 bf b1 ba 4c bf f5 b8 33 bf
       -0.4100736 -0.57098794 -0.7997237 -0.702041
000120 d1 16 57 be cd 15 a5 bc f3 38 da be 27 72 d2 be
       -0.21004798 -0.020151997 -0.42621574 -0.41102716
000130 57 22 52 3e 87 c3 f7 3f 13 01 26 bc 96 23 a4 be
       0.20520912 1.9356545 -0.010132092 -0.320584
000140 45 0f 38 3e d5 82 b3 be 6e 7d dc be 11 30 06 bb
       0.17974575 -0.35060754 -0.43064445 -0.0020475427
000150 ed 6c 19 be 5b b4 e8 3d 2e 8b 91 be aa a3 4b 3e
       -0.14982958 0.11362525 -0.28426498 0.19886652
000160 93 ec 9a be dc 63 7d 3f d3 06 63 3e b4 74 a2 bf
       -0.30258617 0.989805 0.22170572 -1.2691865
000170 f3 64 46 bf 5c c7 c5 3e d7 82 a0 3e ee 7e dd 3e
       -0.77497786 0.38628662 0.31349823 0.43260902
000180 cb 59 21 bf 72 b8 61 bf d4 99 bb bc 55 75 a2 3e
       -0.6302764 -0.88172066 -0.0229005 0.31730142
000190 4b 0b 08 be 60 3a 38 3f 05 c4 21 bd e8 44 1b bd
       -0.13285558 0.71964073 -0.03949358 -0.03790751
0001a0 4a 94 8f bd d5 48 68 3f cc 12 95 3e 5f f3 d1 be
       -0.07010706 0.9073613 0.29115903 -0.4100599
0001b0 db 33 b5 3e 79 7b f4 be 50 ff 79 bf 53 10 21 bf
       0.35391125 -0.47750452 -0.976552 -0.62915534
0001c0 56 11 22 3e b4 14 c9 bf 9f b8 ab be df 3c b8 bf
       0.15826926 -1.5709443 -0.33539292 -1.4393576
0001d0 b8 2b 92 3f 08 aa f5 3d 95 8c 43 3f 93 8a 42 3e
       1.1419592 0.119953215 0.76386386 0.18998174
0001e0 5a 91 b8 3e c3 fb 3e bf 80 e7 b0 be 55 f5 6b bf
       0.36048394 -0.7460291 -0.3455162 -0.9217122
0001f0 6f 01 97 3e 9d ae 16 be 3e 1c 11 bf 26 39 42 3e
       0.2949328 -0.14715047 -0.5668372 0.18967113
000200 8a b7 b2 be 0b f1 a2 bf ed 67 42 3f e7 db e0 bc
       -0.34905654 -1.272981 0.7593983 -0.027448608
000210 68 e0 05 bf c0 80 06 be 89 0e c6 be 49 dc d6 be
       -0.5229554 -0.13135052 -0.38682964 -0.4196494
000220 33 fb 38 be ee 67 43 be 00 db c3 3e b1 cd 2a bf
       -0.18064575 -0.19082615 0.3825302 -0.6672011
000230 a1 b4 a1 bd 94 03 60 3f 8d d7 0c 3f be cc ac 3d
       -0.0789578 0.8750546 0.55016404 0.08437489
000240 38 c8 51 be 8a 3b f9 bf 1a 04 60 3f cb 1a bf 3e
       -0.20486534 -1.9471295 0.8750626 0.3732513
000250 2b ce c7 3f 17 d0 21 be 39 a4 7d be 93 c1 23 3f
       1.5609792 -0.15802036 -0.24769677 0.63967246
000260 a5 20 89 bf af 72 11 3f 48 cc bf be 47 96 72 bf
       -1.0713087 0.5681562 -0.37460542 -0.94760555
000270 d9 2b fe bf 00 af ab bf f8 f2 ca 3e db 25 9e 3e
       -1.9857131 -1.3412781 0.39638495 0.30888256
000280 d7 e9 0d 3f 6d c5 e4 3d 48 59 24 bd 0e 04 a0 bd
       0.55434936 0.111704685 -0.040124208 -0.07813273
000290 9a a3 22 3f 20 5d 89 bd 3c 0d e1 be 8b 55 f7 3d
       0.63530886 -0.06707215 -0.4395541 0.12076863
0002a0 7f 74 43 3e 5a e0 49 3f d6 32 93 bd a4 16 11 3e
       0.19087408 0.7885796 -0.071874306 0.14168793
0002b0 0c 18 13 bd e4 bd 8a 3e 46 fc 87 c0 13 9f 1a bf
       -0.035911605 0.27098 -4.249545 -0.6039898
0002c0 82 5b a2 be 67 47 0b bf 62 52 af 3e dd 11 f3 3e
       -0.3171044 -0.54405826 0.3424254 0.47474566
0002d0 ff d3 37 3d cc ac cc bf ae 2a 96 be 52 93 86 be
       0.04487991 -1.5990233 -0.29329437 -0.2628427
0002e0 86 a5 4c bd dc 77 08 3f ae 5b 15 be 72 3d 70 be
       -0.049962543 0.5330789 -0.14585754 -0.2346094
0002f0 c4 79 15 3e 46 e0 cc 3e 0f 0b 82 bf 92 fd 8b bf
       0.14597231 0.40014857 -1.0159625 -1.0936759
000300 23 08 c5 3d 59 eb a2 bd 56 65 39 be b5 aa e0 bd
       0.096206926 -0.07955045 -0.18105063 -0.1097006
000310 e6 09 ab bf 8d a3 40 be 35 20 22 bf 6f 0f 6a 3e
       -1.3362396 -0.1881239 -0.63330394 0.2285745
000320 25 fa 9c be cd 5c 2c 3f fd c6 b9 3e fc 62 a5 bd
       -0.30659595 0.673291 0.3628463 -0.080755204
000330 d9 c1 6d be 05 3e fa be f5 15 8d be 57 f1 6d 3e
       -0.23218478 -0.48875442 -0.27555814 0.23236595
000340 70 eb 6c 3f c2 1c 9e be 70 00 4d 3d 5f 7d 45 bd
       0.9254675 -0.30881315 0.050049245 -0.048215266
000350 60 cb b0 3f 5c 1e 31 bf 0e ce 81 3e ba f9 b2 3c
       1.3812065 -0.6918695 0.2535252 0.021847595
000360 f1 d1 8c be 54 56 a5 3e d2 69 e5 bf 17 6b f3 3e
       -0.27503923 0.32292426 -1.7922919 0.4754264
000370 5d fe 17 bf a8 c0 85 be 1c 6e d1 3c 4f e7 79 be
       -0.593725 -0.26123548 0.0255652 -0.24404643
000380 2e ed 51 be df c4 0d bf e7 42 87 3f 39 c2 09 bf
       -0.20500633 -0.55378526 1.0567292 -0.53811985
000390 97 b7 20 3f 3e e2 69 c0 34 36 4c c0 67 5b 1b c0
       0.62780136 -3.6544337 -3.1908083 -2.4274538
0003a0 ce 5d 5d be 3a ba d9 3e 43 c5 67 3e 2a 8f 12 be
       -0.21617815 0.42524892 0.22633843 -0.14312425
0003b0 fb 81 5f 3d 4b dc 05 bf 7a b0 c5 3e 00 99 ec be
       0.05456732 -0.52289265 0.38611203 -0.4621048
0003c0 ab 62 fd be 23 fc 9a 3f 4f 80 d0 3d e9 a4 0e 3e
       -0.4948934 1.2108196 0.10180723 0.13930096
0003d0 21 c5 04 be d4 8d e1 bc 76 a7 ac 3d 3d 4e b2 3d
       -0.12965824 -0.02753345 0.08430378 0.08706329
0003e0 a2 37 0b 3e f0 20 46 c0 d0 f8 6e bf d1 f3 12 bf
       0.13595441 -3.0957603 -0.9334841 -0.57403284
0003f0 69 3b 99 3d 35 10 21 3f 06 4d 8d bf 2c dd e5 bd
       0.07482035 0.62915355 -1.1039131 -0.11223826

bias f4 [200]
000000 b2 2c be be 7a 91 c4 be 3a 9d 06 bf 0f 8d c8 be
       -0.37143475 -0.3839224 -0.5258366 -0.3917012
000010 fa 07 28 3e 98 63 58 be 77 ce 26 bf 8f 41 69 be
       0.16409293 -0.21131742 -0.6515879 -0.22778915
000020 ae 29 0b bf 90 36 3a be 8c bd 06 bf da 28 6c 3f
       -0.54360473 -0.18184876 -0.52632976 0.92249835
000030 ac 87 5e be 3c 1b a8 be 7a 40 5a bd 8c ef 6f be
       -0.21731442 -0.32833278 -0.053284146 -0.23431224
000040 11 c3 0f be 33 d4 31 bf 8c 7e d4 bd b2 2d 9f bd
       -0.14039256 -0.69464415 -0.103756994 -0.077723876
000050 89 ee 32 be 38 52 48 be 64 98 bc 3d 62 fc 74 bf
       -0.17473806 -0.19562614 0.09208754 -0.95697606
000060 23 1f c1 3e b9 4e a7 3d 41 62 58 3e 71 75 41 be
       0.37719068 0.08169312 0.21131231 -0.18892457
000070 1c 29 a3 3e b8 a2 98 3e d4 03 5b be 3b 90 73 3e
       0.318673 0.29811645 -0.21388179 0.23785488
000080 ac d3 d2 be 33 59 89 bf f7 0c 0e be ea 7b 7d 3e
       -0.41177118 -1.0730346 -0.13872133 0.247543
000090 6b 56 8c 3d ee 31 18 3b ea b1 55 be c0 6b 22 be
       0.068524204 0.002322312 -0.2086865 -0.15861416
0000a0 c0 5e 7e be c4 1c 8a be df 9d 0e bf 19 b6 c3 3d
       -0.24840832 -0.2697507 -0.5570964 0.09556217
0000b0 2b 83 03 bf 2a 00 34 3d f6 67 10 bf 7d 56 58 3f
       -0.5137202 0.04394547 -0.5640863 0.8450697
0000c0 da 19 de 3c 6a 3e 00 bf cb 92 93 3d 36 bf e4 be
       0.027111936 -0.50095236 0.07205733 -0.44677132
0000d0 77 d9 13 bf 3a f1 1c bf 8b b5 11 3e 9c 98 89 be
       -0.577537 -0.6130558 0.1422941 -0.26874244
0000e0 ca d6 f3 3e 1b ef fb 3e 13 70 e1 be 5c 70 92 be
       0.4762481 0.4920586 -0.44030818 -0.28601348
0000f0 ee 15 02 3f fd 64 80 be 0a 40 39 bf 50 60 ef 3d
       0.5081471 -0.25077048 -0.7236334 0.11688292
000100 af 3d e5 3d 02 e5 f1 bd ba da e8 3e c7 63 99 bd
       0.11193406 -0.11811258 0.45479375 -0.07489734
000110 41 ac f1 be 0c 68 1c 3f f8 29 59 be c6 d5 39 3e
       -0.47201732 0.6109626 -0.21207416 0.18147954
000120 c5 dd 11 3f 93 fb 8d 3e d3 b4 ee 3c 1f ce a5 3e
       0.5697902 0.27730998 0.029138958 0.3238382
000130 06 70 d3 be b7 2a df 3d c7 49 66 be b3 0e cc bd
       -0.41296405 0.10896819 -0.22489081 -0.09963741
000140 8d 43 35 be 7b 54 d4 3e e2 f4 23 bf 61 58 d9 3d
       -0.1770155 0.41470703 -0.64045537 0.1061256
000150 2e 6b 59 be bb 2b 1b bf 34 ea 65 be 77 23 fc 3e
       -0.21232292 -0.606136 -0.22452623 0.49245808
000160 bb 27 65 be 23 d4 31 3d c4 3d e0 3d f4 cc 01 3f
       -0.22378437 0.0434152 0.10949281 0.5070336
000170 bd 95 68 bf bc 38 ad 3d e2 96 52 bf 7c b2 15 3f
       -0.9085348 0.08458087 -0.8226148 0.5847547
000180 70 bb e7 3c 0a 99 83 be fb f4 28 3e 65 be 6e bc
       0.02828762 -0.25702697 0.16499703 -0.014571761
000190 72 7d 9f 3d a1 0f 35 bf 18 e7 3e 3b 91 29 8f 3c
       0.07787599 -0.7072697 0.0029129442 0.017475875
0001a0 5c 68 e8 3e 1c 7b 96 be 8b 6a e0 bb 7f 12 d5 3e
       0.4539212 -0.293908 -0.0068486384 0.41615674
0001b0 0b 8a 26 bf 13 cf 36 3e a4 eb 34 bf 79 64 e3 3e
       -0.65054387 0.1785243 -0.7067206 0.44412592
0001c0 ba 7e 8a bd b1 20 25 bf ca bf e8 be b2 c3 07 3f
       -0.067624524 -0.6450301 -0.45458823 0.5303298
0001d0 da 7e e7 bd ff 65 51 be 5e b3 a6 3c a5 10 36 bd
       -0.11303492 -0.20449065 0.0203492 -0.044449467
0001e0 d9 e8 24 be 89 8c 99 3e 57 e5 cb be 15 54 ac 3d
       -0.1610445 0.29990032 -0.3982341 0.08414475
0001f0 09 97 64 be 0f 8b a7 be 6e 8d b5 3e 46 e7 c1 be
       -0.2232324 -0.3272328 0.35459465 -0.3787176
000200 42 66 1a 3f 53 d3 91 3d 5f 72 d4 be ef 1d 06 bf
       0.60312283 0.07120385 -0.41493508 -0.52389425
000210 c3 82 0e be 99 31 34 bd c8 3b 6e bf 7c a5 a9 3e
       -0.13917069 -0.043992613 -0.9305997 0.33134067
000220 d4 3c 35 bf 0e 6c 14 3f f0 21 00 bf 0d 9b f0 be
       -0.7079594 0.5797738 -0.50051785 -0.46993294
000230 7e c8 b4 3e 74 e3 af 3c f2 45 4c 3e 95 05 a5 3c
       0.35309213 0.021470763 0.19948557 0.020144263
000240 45 db 8e be 99 6f 61 bf e9 47 2b be b4 79 78 be
       -0.27901664 -0.8806091 -0.1672665 -0.24265176
000250 2b 68 89 3d 10 8a b3 3e 69 c6 fc 3c 61 77 95 3e
       0.067093216 0.3506627 0.030856328 0.2919264
000260 7b 80 03 be 3f c2 01 bf 0e bc 6f 3e 57 c5 c5 be
       -0.1284198 -0.5068702 0.23411581 -0.3862712
000270 a2 aa 83 be 85 03 33 3f 03 01 66 3b 06 09 7e bf
       -0.2571612 0.69927245 0.0035095818 -0.9923252
000280 d0 18 8f bf c4 29 eb 3e fd 2f 14 be fa 0e e0 3d
       -1.1179447 0.45930302 -0.14471431 0.109403566
000290 79 fd 6a be 9d 11 18 3f fe 3a d9 be 3e 5d f0 be
       -0.22948255 0.59401876 -0.4242782 -0.46946138
0002a0 a9 4e aa be 04 bf 48 bf 37 2d cd be d2 03 11 3e
       -0.33263138 -0.78416467 -0.4007356 0.14161614
0002b0 a5 f4 18 3e 53 a2 32 3f cd 77 83 3e c8 10 25 bf
       0.14937074 0.6977894 0.25677338 -0.6447873
0002c0 af 6e 26 3f 92 63 17 3d f4 4b a0 3e 52 69 68 bf
       0.6501264 0.036960192 0.31307948 -0.90785706
0002d0 b4 24 e4 bc 5c 20 71 bf 3a 79 fd be 05 f7 33 be
       -0.027849533 -0.9419 -0.4950655 -0.17574699
0002e0 e0 59 61 3e 08 f5 47 be 22 80 f5 bd d8 f6 2d 3f
       0.22006941 -0.19527066 -0.1198733 0.6795478
0002f0 13 f4 56 3f c1 fd 8e be db 36 5b bf 6e 00 c4 bb
       0.8396618 -0.27927974 -0.8563058 -0.0059814965
000300 7d a8 0b bf 0f a8 ff bb ba 55 41 bf 7e 28 9a be
       -0.5455397 -0.0078020166 -0.75521433 -0.30109018
000310 92 26 3d be e9 21 92 be e7 e1 27 3d 11 7e 00 be
       -0.18471745 -0.28541496 0.04098692 -0.1254809

weight f4 [200, 200]
000000 9e 0c 5e 3f 9d 4d f5 be 0e 6a e9 be 2d 31 55 be
       0.86738 -0.47910777 -0.45588726 -0.2081954
000010 e8 19 c5 bf f5 98 9a bc 8c 7d ec be 09 a4 a6 bc
       -1.5398531 -0.018871764 -0.46189535 -0.02034189
000020 cb cd 67 bf 40 69 0a bf 6a 1d 75 be 20 0c c1 3f
       -0.9054839 -0.5406685 -0.23937002 1.5081825
000030 e1 49 f9 be 0e 2b 72 bf 48 b9 46 bf f1 ae 2c bf
       -0.48689178 -0.94596946 -0.77626467 -0.6745444
000040 ae e9 1e 3f 1d 37 0f be 75 2a a8 bc ea 71 19 3e
       0.62075317 -0.13985868 -0.020528058 0.14984861
000050 ff 0c 83 bf 95 35 14 bf 3c 58 97 3f 5c f8 b5 bf
       -1.0238341 -0.5789426 1.1823802 -1.4216418
000060 05 01 76 3f d3 b9 99 3e fa 12 bf be 28 b5 53 3d
       0.96095306 0.30024585 -0.37319165 0.051686436
000070 71 1d 3b 3f b7 80 75 3f aa ef 71 3e e8 a1 02 3f
       0.730918 0.9589953 0.23626581 0.510283
000080 d0 e7 50 bd 6f 52 6e be f6 79 13 bf 34 a9 08 3e
       -0.051002324 -0.23273633 -0.5760797 0.13345796
000090 7a bb 81 3e b2 a7 0b bd cb 4d e1 bb a8 0b 04 3d
       0.25338346 -0.034095474 -0.0068757287 0.03223768
0000a0 32 50 d2 bf 2e 8b 08 bf 40 e3 70 bf 7e bd a7 3d
       -1.6430724 -0.5333737 -0.94096756 0.0819044
0000b0 6e 9d 96 bf d5 40 19 3f 22 19 01 bf 0e f8 9d bf
       -1.1766794 0.5986455 -0.50428975 -1.2341325
0000c0 dc e4 dc 3d b4 ac b7 3e f3 d8 56 bf 76 df c1 3e
       0.10785839 0.3587395 -0.8392479 0.378658
0000d0 25 63 ba bf 83 ff 9c 3f 4e 1a 90 3e 74 0f d0 3e
       -1.4561507 1.2265476 0.2814507 0.4063679
0000e0 92 c9 37 3e 13 71 53 bf dc 95 b5 3e 42 36 cf bf
       0.17947987 -0.8259441 0.35465896 -1.6188433
0000f0 75 2d 2d 3e 29 7f d4 3f b7 cd c6 3e b5 5f 7d 3f
       0.16911872 1.6601306 0.38828823 0.9897416
000100 ce 1b f0 3c b1 1b b5 3f 18 3b 3d 3f 84 80 9a bd
       0.029310133 1.4149076 0.73918295 -0.07544044
000110 0b e3 8e bf fb 78 91 3e 8a 1b b9 bd 06 ad aa bd
       -1.1163038 0.28412613 -0.09038456 -0.08333783
000120 1f 04 94 3c dd cd a2 be fc db e8 3d c0 94 f6 bd
       0.018068371 -0.31797686 0.11370084 -0.120400906
000130 f6 5e a2 be aa 1f aa be 95 24 c7 be 5a 27 2a 3e
       -0.31713074 -0.33227283 -0.38895097 0.16616574
000140 e5 6e 08 bf a6 d8 cc 3e 3a 2f 84 3f cb dc 0e 3e
       -0.5329421 0.4000904 1.0326912 0.13951413
000150 ba 74 90 bf 90 f2 d7 3d a3 42 6b 3f ef 12 a0 be
       -1.1285622 0.10544312 0.91898555 -0.31264445
000160 21 98 d5 bc 8b 7f a7 3d 19 29 ab 3d e3 4f 58 bf
       -0.026073517 0.08178624 0.08357448 -0.844969
000170 25 d7 02 3f c9 b8 d6 bf 8b 42 d6 bf a2 d5 8c 3f
       0.51109535 -1.6775142 -1.6739057 1.1002696
000180 d1 50 fa bf 97 80 d2 3e 99 85 98 bb 65 6a 65 3e
       -1.9555913 0.4111373 -0.004654598 0.22403868
000190 bc 0b 22 bf 4b 38 5f 3e 0e f7 ae 38 3e 18 10 be
       -0.63299155 0.21798818 8.342984e-05 -0.14071748
0001a0 1f 4d 28 3e 70 6a cf bd f3 42 df bf 7e 5d 02 bf
       0.1643567 -0.10127723 -1.7442306 -0.5092391
0001b0 b9 3c ac be f3 6e 40 3f ac 2b b2 bf 8f 13 a4 bf
       -0.33640078 0.75169295 -1.3919578 -1.2818469
0001c0 aa 3e b1 bf 32 5f 7b 3e f0 61 47 3e 3d 76 d2 be
       -1.3847249 0.24548033 0.19470954 -0.41105834
0001d0 a9 c4 5c c0 0d 17 61 bf 02 d5 a4 be 3a d2 2b 3f
       -3.4495032 -0.879258 -0.32193762 0.67117655
0001e0 9b 1f 0e 3e f1 5d 33 c0 06 58 a3 3d b4 13 3c be
       0.13879244 -2.8026087 0.079757735 -0.18366891
0001f0 12 d1 4e 3f 3d 86 81 bd 94 27 d4 be 3d 48 92 bd
       0.80787766 -0.06324432 -0.41436446 -0.071426846
000200 eb aa 8f bf 0c a6 aa bf 5d db 1d c0 46 59 a4 be
       -1.1224035 -1.3331923 -2.4665139 -0.3209936
000210 73 4b 83 3f 33 71 67 bf b7 54 1a bf 07 03 83 3e
       1.02574 -0.90407103 -0.60285515 0.25588247
000220 75 7c 40 be 73 8f ab 3d 34 ac f1 bf 07 68 9c bf
       -0.18797477 0.0837697 -1.8880677 -1.2219247
000230 4e 09 29 3e 9d 01 01 c0 7a 52 cf 3e 3d a2 3d 3f
       0.16507456 -2.0157235 0.40492612 0.7407568
000240 d6 0f 12 bf 3b fd 6d 3e a9 2f eb 3d 41 92 01 bf
       -0.57055414 0.23241131 0.114837 -0.5061379
000250 77 32 07 3e 8c df 92 3f e1 e2 00 40 cb d2 83 3d
       0.13202845 1.1474471 2.0138476 0.0643669
000260 65 75 01 bf 89 38 34 bf f1 fc 46 bf 85 8e 83 be
       -0.50569755 -0.70398766 -0.7772971 -0.2569467
000270 08 b3 22 bf 63 f4 8f 3d bc b6 72 bf 35 1e 74 bf
       -0.6355443 0.07029035 -0.9481008 -0.9535859
000280 85 ea 5b bf c7 5e cb 3c b5 68 08 bf 15 f4 e5 3e
       -0.85904723 0.024825467 -0.5328477 0.44912782
000290 82 2e e6 bf 80 b2 dd be a3 19 99 3e bf e6 8a bf
       -1.7982943 -0.43300247 0.29902372 -1.0851668
0002a0 2c d2 6b bf 59 d9 00 3d c8 a2 ec 3c d6 9c 2c bf
       -0.9211757 0.03145728 0.028886214 -0.6742681
0002b0 7e 37 f9 bd 6e 7f 01 3f 32 4e 2a 3f 59 a5 0b bf
       -0.121687874 0.5058507 0.66525567 -0.54549176
0002c0 41 6a 3e 3f c8 2f 82 bf 70 dd 22 3f dd 0f c5 3f
       0.7438088 -1.0170832 0.63619137 1.5395466
0002d0 39 80 84 3f 83 a4 79 bf 40 78 fb 3c 33 d7 11 3e
       1.035163 -0.9751665 0.030696988 0.14242248
0002e0 a1 dc 62 3e 04 45 dc 3d c1 22 9f be c5 00 c6 3f
       0.22154476 0.10755351 -0.31081203 1.5468985
0002f0 f2 d7 16 3f 53 20 c4 3e 7c cb 56 c0 a0 eb b8 be
       0.58923256 0.3830591 -3.3561697 -0.36117268
000300 d3 8c 32 3f 49 fc 30 bf dc 4c 04 bf 87 6d d4 bf
       0.6974613 -0.69134957 -0.5167978 -1.6595925
000310 ad fa e9 bd ec 79 83 bd 9c d4 61 be 1c 97 cf bf
       -0.11424766 -0.06419739 -0.2205376 -1.621799
000320 1c 63 d0 3c ae 4c 9b bc 0f 54 2c bd dd 75 97 3c
       0.025437884 -0.018957462 -0.042072352 0.018488819
000330 de 7c 1a bd 95 62 98 3b 57 1c 2b bc 02 69 54 bd
       -0.03771674 0.004650424 -0.010443768 -0.051857956
000340 95 6f 1a 3d ce 14 90 bb d3 ba 3a 3b 81 31 d7 3c
       0.03770407 -0.0043970114 0.0028492704 0.026268722
000350 78 41 cf 3b 1e 6c a2 3c eb 2c e7 bc ba 44 dc 3b
       0.006324943 0.019826945 -0.02821966 0.00672206
000360 81 15 4b bd e0 e6 32 bd c7 a7 39 3c b6 40 9a bd
       -0.049581055 -0.04367721 0.011331505 -0.07531874
000370 f8 db 65 bd 68 f2 c4 3c c5 d8 83 bd ea 6b e9 3c
       -0.05611798 0.02404137 -0.0643783 0.02849384
000380 28 fa b1 bd 17 f8 af bd 18 b7 be bc d0 87 f4 3b
       -0.08690292 -0.08592241 -0.023280665 0.007462479
000390 26 f2 91 bd 34 f2 f2 bc 98 b8 4b bd f4 58 e5 bc
       -0.07126264 -0.029656507 -0.04973659 -0.027996518
0003a0 44 44 70 bc 63 50 e2 bc ff 13 2c bd a4 48 0e 3c
       -0.014664713 -0.027626222 -0.042011257 0.008684311
0003b0 fa 12 5d bd fe a4 86 bd e4 1c 0e 3d a5 f5 86 bc
       -0.053973176 -0.065744385 0.03469552 -0.016474554
0003c0 a6 1e 95 bd 27 3d 2b bd f0 af 31 bb e6 5b 10 bd
       -0.07281236 -0.041806366 -0.0027112924 -0.03524389
0003d0 b5 a5 85 bd a4 e3 09 3d 98 c8 7b bd 22 07 50 bd
       -0.06525747 0.03366436 -0.061470598 -0.050788052
0003e0 96 1a a4 3c 44 e2 77 bd 77 b5 75 bc b4 39 fe bc
       0.020032208 -0.060518518 -0.014996878 -0.031033374
0003f0 6e 5c b4 3c c2 a6 d1 bc 2f ff 29 bc 1a db 6a 3d
       0.02201673 -0.025592212 -0.010375782 0.057337858
