Vehicles/ModForest_1/ModForest_1_critic_target.pth (torch, 353491 bytes, 10 tensors)

weight f4 [200, 15]
0	0xbd7640f5	-0.06012054
1	0x3d7c804d	0.061645795
2	0x3ddc7788	0.10764986
3	0x3ebc5aad	0.3678793
4	0x3f1febe8	0.6246934
5	0x3f299662	0.6624509
6	0x3e4d6c5a	0.20060864
7	0x3e078346	0.1323367
8	0xbf2ad9e5	-0.6673873
9	0xbc8b80cd	-0.01702919
10	0xbe8586fc	-0.26079547
11	0x3d9ad7a0	0.075606585
12	0xbdd409fa	-0.103534654
13	0xbde3f4e6	-0.11130695
14	0x3d2336bc	0.03984712
15	0x3da7fecb	0.08202895
16	0x3e44c821	0.19216968
17	0x3e8e528f	0.27797362
18	0x3e1adc19	0.15123023
19	0x3de84331	0.11340941
20	0xbe13bcb6	-0.14427456
21	0x3dea35fa	0.114360765
22	0x3e83eabd	0.2576503
23	0x3e477739	0.19479074
24	0x3e36971e	0.17831084
25	0x3d4b4a3c	0.049631342
26	0xbe27277a	-0.16323653
27	0x3e2d4d57	0.16924034
28	0x3de50bf5	0.11183921
29	0x3ea677cb	0.3251327
30	0x3e254f1b	0.16143458
31	0xbbf8f76c	-0.0075978544
32	0xbeb53bf3	-0.353973
33	0x3e6c6a34	0.23087388
34	0x3e8bf42e	0.27334732
35	0xbde8f6cc	-0.11375198
36	0xbe2625b7	-0.16225325
37	0x3c524ed1	0.012836174
38	0xbec92897	-0.3928878
39	0x3d9dc645	0.077038325
40	0x3d3f9805	0.046775836
41	0xbe7338d9	-0.23752154
42	0xbd017f5b	-0.031615596
43	0xbe83e527	-0.25760767
44	0xbe96459f	-0.29349992
45	0xbdb87ae1	-0.09007812
46	0xbea24a57	-0.31697342
47	0xbd5a0b11	-0.05323321
48	0x3e6a2a5d	0.22867723
49	0x3d752bf7	0.05985638
50	0x3cada18e	0.0211952
51	0x3e5f2e0a	0.21794906
52	0x3f0f1e2b	0.5590541
53	0x3cdd7267	0.02703209
54	0xbe886407	-0.26638815
55	0x3e314170	0.17310119
56	0x3e4cbeb6	0.19994625
57	0x3e15bd83	0.14623074
58	0x3daa550a	0.08317001
59	0x3d9707e8	0.07374555
60	0xbc85f559	-0.016352342
61	0x3e30fa1e	0.17282912
62	0xbed7b0ee	-0.42127174
63	0x3ed99470	0.4249606
64	0x3e38a984	0.18033415
65	0x3ea5d808	0.3239138
66	0x3e413ee7	0.18871652
67	0x3e49bdc5	0.19701298
68	0xbd8d4531	-0.06897963
69	0xbde85c16	-0.11345689
70	0x3e3c9390	0.18415666
71	0xbdf27a06	-0.118396804
72	0x3e228ac3	0.15873246
73	0x3bf1023b	0.007355002
74	0x3e7d742c	0.24751347
75	0x3e739db4	0.23790628
76	0xbdc5efbc	-0.09664866
77	0x3dc268d7	0.09492653
78	0x3e93b207	0.28846762
79	0x3ee16d44	0.44028676
80	0x3ce37cff	0.027769564
81	0x3e8fe626	0.28105277
82	0xb9301d28	-0.0001679553
83	0xbf5f0c8a	-0.8712851
84	0x3e64080a	0.22268692
85	0xbeb4e211	-0.35328725
86	0x3e06aecb	0.13152616
87	0xbcdb13d3	-0.026742851
88	0x3d53ec6b	0.051739138
89	0x3e671c8c	0.22569484
90	0xbf05a2ed	-0.5220173
91	0x3f250c68	0.64472055
92	0x3e7013d6	0.23445067
93	0xbe23ae60	-0.15984488
94	0x3bcd4caf	0.006265245
95	0x3dbbd45a	0.09171362
96	0xbe9c29fb	-0.3050078
97	0xbed276d2	-0.41106278
98	0x3e79af44	0.24383265
99	0xbecbb55a	-0.39786798
100	0x3e3677ca	0.17819133
101	0xbcd47ce7	-0.025938464
102	0x3dabd2e5	0.08389834
103	0xbe74ab04	-0.23893362
104	0x3c8147f8	0.015781388
105	0xbeaafd17	-0.33396217
106	0xbda35d86	-0.079768226
107	0x3e1a7f36	0.1508759
108	0xbe2f90f6	-0.17145142
109	0xbea4a0f7	-0.32154056
110	0x3dd0a041	0.10186816
111	0xbe38a530	-0.18031764
112	0x3e7f3c4b	0.24925344
113	0xbf825225	-1.0181319
114	0xbf360a00	-0.7110901
115	0xbf3551a0	-0.70827675
116	0xbe653a7b	-0.2238559
117	0xbf00bcad	-0.50287896
118	0xbeeabd6b	-0.4584764
119	0xbca1f497	-0.01976995
120	0xbea54ad2	-0.32283646
121	0x3d17d4a5	0.037068028
122	0x3dd1bdd5	0.10241286
123	0x3eb20c62	0.34775072
124	0x3eb85f1d	0.36010066
125	0x3d4aa578	0.04947421
126	0x3d8ab834	0.06773415
127	0x3c1dd4a0	0.009633213
128	0xbf368b07	-0.7130589
129	0xbd5b0227	-0.05346885
130	0xbea8344b	-0.32852396
131	0xbe3af24d	-0.18256493
132	0xbd53328e	-0.051561885
133	0x3e8ec34c	0.27883375
134	0xbdf464a6	-0.1193326
135	0xbcda98cd	-0.02668419
136	0xbcb95fcd	-0.02262869
137	0xbf8c9541	-1.0983049
138	0xbdd92f12	-0.10604681
139	0xbe968c8b	-0.294041
140	0xbb4961a6	-0.003072837
141	0x3e5fe6f0	0.2186544
142	0xbece6ba1	-0.4031649
143	0x3e14d484	0.14534193
144	0x3ecef191	0.40418676
145	0xbe4ed69f	-0.20199059
146	0xbe5f043e	-0.21778962
147	0xbd5cb1a5	-0.053880353
148	0xbdd63e32	-0.104610816
149	0xbdbf6346	-0.09345107
150	0xbe3ea71d	-0.18618436
151	0x3e359556	0.17732748
152	0xbea3bb86	-0.31979007
153	0x3e68d7db	0.22738592
154	0xbe63697a	-0.22208205
155	0x3aab3680	0.0013062507
156	0xbe6b8f8d	-0.23003979
157	0x3e231861	0.15927269
158	0x3d4a9c33	0.04946537
159	0x3e76a680	0.24086952
160	0x3ebdf694	0.37102187
161	0xbec8ff0e	-0.3925709
162	0xbf276783	-0.6539232
163	0xbe436023	-0.19079642
164	0xbdc7e1c4	-0.09759858
165	0xbe0c0baa	-0.13676324
166	0xbe2e9be8	-0.17051661
167	0x3e4995a3	0.19685988
168	0x3d601e87	0.054716613
169	0xbdd3ac46	-0.10335593
170	0x3c8e7ef6	0.017394524
171	0xbd82333f	-0.06357431
172	0x3e9dd9c2	0.308302
173	0xbea9388c	-0.33050954
174	0xbfa974d8	-1.3238783
175	0xbdb6ee4f	-0.089321725
176	0x3df728f2	0.120683566
177	0x3ebc34ed	0.3675913
178	0x3db0a39d	0.08624957
179	0x3e493321	0.1964841
180	0x3e8a25a8	0.26981854
181	0xbdcde9c9	-0.100543566
182	0x3e29aaf7	0.16569124
183	0x3d1332c3	0.035937082
184	0xbe8cdb7f	-0.27511212
185	0xbdf15753	-0.11784234
186	0xbe9b6f8d	-0.30358544
187	0xbeeaa00c	-0.4582523
188	0x3e3e9cc5	0.1861449
189	0xbeb51bb6	-0.35372704
190	0x3d6855da	0.0567225
191	0xbe28383f	-0.16427706
192	0x3dda2bf5	0.106529154
193	0x3d909ff7	0.07061761
194	0xbdd0ff0a	-0.10204895
195	0xbe69e1fe	-0.22840115
196	0xbe868ff4	-0.26281703
197	0x3e9bab66	0.30404204
198	0x3d951bcb	0.07280692
199	0x3e9db6dc	0.30803573
200	0xbe2d49c9	-0.16922678
201	0xbed147fd	-0.40875235
202	0xbeec96a5	-0.46208683
203	0x3e8b4382	0.27199942
204	0x3ee7a387	0.4524195
205	0xbeaaeaf8	-0.33382392
206	0xbea2cbb6	-0.31796044
207	0xbe70b94f	-0.2350819
208	0xbf209681	-0.6272965
209	0x3e9098ae	0.28241485
210	0xbd896c1f	-0.067100756
211	0x3ef17360	0.47158337
212	0xbf082d6e	-0.5319432
213	0x3dfa0308	0.122076094
214	0xbe875593	-0.26432475
215	0xbd92af6f	-0.071623676
216	0x3d78f74b	0.060782712
217	0xbd9c7edd	-0.07641385
218	0x3dd54987	0.10414415
219	0xbdb6906c	-0.08914265
220	0xbeaafa7f	-0.33394238
221	0x3e959d56	0.292216
222	0xbdb0fca1	-0.08641935
223	0x3daf0c94	0.08547321
224	0x3e6a2682	0.22866252
225	0xbdc28551	-0.09498084
226	0x3ea975f8	0.33097816
227	0xbe883486	-0.26602572
228	0x3e8df44a	0.2772544
229	0x3de2e556	0.110788986
230	0x3e38b535	0.18037875
231	0x3e4f4456	0.20240912
232	0x3cb4de54	0.02207867
233	0xbde3be87	-0.111203246
234	0xbeb6ec9e	-0.357274
235	0x3ed07c48	0.4071982
236	0x3dba368c	0.09092435
237	0x3e115d89	0.14195837
238	0xbe192afd	-0.14957805
239	0x3e959bc9	0.29220417
240	0xbe6ff961	-0.23434974
241	0xbd91e8bb	-0.07124468
242	0x3de4e652	0.111767426
243	0xbf23040f	-0.6367807
244	0xbf5a1cba	-0.85200083
245	0xbf34a640	-0.7056618
246	0xbeb90583	-0.36137018
247	0x3eac51c7	0.3365614
248	0xbd201cfd	-0.039090145
249	0x3e5637ff	0.20919798
250	0xbde712b0	-0.11282861
251	0xbe44a758	-0.19204462
252	0xbd9f1a38	-0.07768673
253	0xbe7fa0a9	-0.2496363
254	0xbea6c844	-0.32574666
255	0x3d901248	0.07034737

bias f4 [200]
0	0xbcf67e63	-0.030089563
1	0xbed2c7a7	-0.41167948
2	0x3c9b82a1	0.018983187
3	0xbe644a18	-0.2229389
4	0xbcc4c810	-0.024021178
5	0xbe3f9e58	-0.18712747
6	0xbdd791d9	-0.10525865
7	0xbe4a5231	-0.19757916
8	0x3e7cba90	0.24680543
9	0xbe558cd9	-0.2085451
10	0x3be2c088	0.006919924
11	0x3e3217c4	0.17391878
12	0xbde3413e	-0.11096428
13	0xbe1fe4dc	-0.15614647
14	0x3e4b083f	0.19827364
15	0xbe012365	-0.12611158
16	0x3e9fd97e	0.3122062
17	0xbd257616	-0.04039582
18	0xbc832be3	-0.016012138
19	0x3bf34ada	0.0074246945
20	0x3e84726f	0.25868556
21	0xbe3c5470	-0.18391585
22	0x3e44224b	0.19153707
23	0x3de4751e	0.11155151
24	0xbe761293	-0.24030523
25	0xbe53767c	-0.20650667
26	0xbe9ce1a2	-0.30640894
27	0xbcbe0919	-0.023197697
28	0x3e99f372	0.30068547
29	0xbdf9aeac	-0.12191519
30	0xbe17d4c1	-0.14827253
31	0xbd252557	-0.040318813
32	0x3bc8d4c2	0.0061288783
33	0xbe1c06c8	-0.15236962
34	0xbe9918c0	-0.29901695
35	0xbe438475	-0.19093497
36	0x3d678661	0.056524638
37	0x3d89ca43	0.067280315
38	0xbe01ba87	-0.12668811
39	0xbd4e6dfb	-0.050397854
40	0xbe03a0cc	-0.12854308
41	0xbe8e353e	-0.27774996
42	0x3eb8da50	0.3610406
43	0xbe58f15b	-0.2118582
44	0xbdb82b8c	-0.08992681
45	0x3d5a6db4	0.053327277
46	0xbd36933e	-0.044574015
47	0x3abcc4e5	0.0014401941
48	0x3d6ea7bd	0.058265436
49	0xbe74c7bc	-0.23904318
50	0x3ba36eb0	0.00498756
51	0xbe81e8a8	-0.25372815
52	0x3e73d0f4	0.23810178
53	0xbddd387a	-0.10801788
54	0x3dae17b4	0.08500615
55	0xbd79ed44	-0.06101729
56	0xbea6c364	-0.32570946
57	0xbcf6268e	-0.030047681
58	0xbea06323	-0.31325635
59	0xbe534af4	-0.20634061
60	0x3e9795b1	0.29606393
61	0xbe8d664d	-0.27617112
62	0xbe804058	-0.2504909
63	0xbe67d688	-0.22640431
64	0xbdde41bb	-0.10852381
65	0x3e244272	0.16040972
66	0x3d3d610e	0.046235137
67	0xbd98e3e2	-0.0746534
68	0xbdd91a6e	-0.10600744
69	0x3d5462bf	0.051851984
70	0xbdb03dd4	-0.08605543
71	0x3dae5e88	0.08514124
72	0xbe73f160	-0.23822546
73	0x3e671fc1	0.22570707
74	0x3df97358	0.12180203
75	0x3cad78d2	0.021175776
76	0xbe2a7b22	-0.16648534
77	0x3e617089	0.22015585
78	0xbe0e9604	-0.13924414
79	0xbdcc6b16	-0.099813625
80	0xbea4c3ae	-0.32180542
81	0xbdcd6dbc	-0.10030696
82	0xbdf51510	-0.11966908
83	0xbe3098f2	-0.17245844
84	0x3daa9e2b	0.083309494
85	0xbdb1911f	-0.08670258
86	0xbe2f6790	-0.1712935
87	0xbbd4d957	-0.0064956355
88	0xbe629315	-0.2212642
89	0xbea06c39	-0.31332567
90	0xbd95f071	-0.07321251
91	0x3cab3bae	0.02090248
92	0x3da7e983	0.08198836
93	0x3e444617	0.19167362
94	0x3e1f59c7	0.15561591
95	0x3aee7bf6	0.0018194902
96	0xbe1d3816	-0.15353426
97	0xbe1e8130	-0.15478969
98	0x3cd7154f	0.026255278
99	0xbea09926	-0.31366843
100	0x3caf1116	0.021370452
101	0xbb1e956c	-0.002419795
102	0x3e2cdcab	0.16881053
103	0x3d0f69f6	0.03501316
104	0x3decdf48	0.11566025
105	0xbebdd940	-0.3707981
106	0x3e3d8a7c	0.18509859
107	0x3e2d66ea	0.1693379
108	0xbdf56793	-0.11982646
109	0x3e11206d	0.14172526
110	0x3ca1496e	0.019688334
111	0x3dee52a3	0.116368555
112	0xbd94fac1	-0.0727439
113	0xbe3e1a86	-0.18564805
114	0x3e8860c4	0.26636326
115	0x3da3e6de	0.08003019
116	0xbd904c6e	-0.07045828
117	0x3de977d6	0.1139981
118	0xbde0fce9	-0.10985739
119	0x3d8afb77	0.06786244
120	0xbc921e52	-0.017836723
121	0x3d29404c	0.041321084
122	0x3da006e6	0.07813816
123	0x3dd847f6	0.105606005
124	0x3e2275f6	0.15865311
125	0xbe9a6f03	-0.3016282
126	0x3e47d13a	0.19513407
127	0xbc758980	-0.014986396
128	0x3cf66f35	0.030082325
129	0xbbebf297	-0.00720055
130	0x3e15663a	0.14589778
131	0x3da5b0a0	0.08090329
132	0x3dac678d	0.08418188
133	0xbe090633	-0.13381271
134	0x3e55fdb1	0.20897557
135	0xbe5d0742	-0.215848
136	0x3ea3d101	0.31995395
137	0xbe3bdaee	-0.18345234
138	0x3e8a3bfa	0.26998883
139	0x3dad6d18	0.084680736
140	0x3ccf5307	0.025308145
141	0xbe2688b4	-0.16263086
142	0x3e8be230	0.27321005
143	0x3dc5aa74	0.09651652
144	0xbe663a46	-0.22483167
145	0xbe0dbbc2	-0.13841155
146	0xbe77e210	-0.2420733
147	0x3dd9a1ec	0.10626587
148	0x3d6124a9	0.054966602
149	0xbdb41c40	-0.08794451
150	0xbe1365e3	-0.14394335
151	0x3e155f46	0.14587125
152	0x3a37f2d3	0.00070170796
153	0xbc799c56	-0.015235027
154	0x3c8c5654	0.017131008
155	0xbde9e9d3	-0.114215516
156	0x3d05792e	0.03258627
157	0xbe189f48	-0.14904511
158	0x3e7373f5	0.23774703
159	0x3e6cf479	0.23140134
160	0xbe9ef12e	-0.3104338
161	0xbe72478b	-0.23660104
162	0x3eb19f24	0.34691727
163	0xbe9280a0	-0.28613758
164	0xbe1a285e	-0.15054461
165	0xbd5a92c0	-0.053362608
166	0xbe48ce6d	-0.19609995
167	0x3dc7b434	0.09751168
168	0x3df1194c	0.11772403
169	0xbe537850	-0.20651364
170	0x3e5d48fc	0.21609873
171	0xbe5616bf	-0.20907114
172	0xbd38ae22	-0.04508794
173	0x3c7cd4ab	0.015431563
174	0x3e89e53c	0.26932704
175	0xbe149498	-0.14509809
176	0xbe38b238	-0.18036735
177	0xbd5163cf	-0.051120576
178	0xbd2fd243	-0.04292513
179	0x3e6a1640	0.2286005
180	0xbde8d087	-0.113678984
181	0xbdea78c3	-0.11448815
182	0x3e1c069e	0.152369
183	0x3dec792b	0.115465485
184	0x3d372aad	0.044718433
185	0xbe5f05af	-0.21779512
186	0xbe4cef34	-0.20013124
187	0xbe06a1f1	-0.13147713
188	0x3e3162ff	0.1732292
189	0xbd69be7d	-0.05706643
190	0xbe94e229	-0.29078797
191	0xbe98c7f6	-0.29840058
192	0x3cdb2dfc	0.026755325
193	0xbe9cff4d	-0.3066353
194	0xbe955b53	-0.29171237
195	0x3e8be18b	0.27320513
196	0x3e83c522	0.25736338
197	0xbe327a41	-0.17429449
198	0x3e3c6f2d	0.18401785
199	0xbde22d70	-0.11043823

weight f4 [200, 200]
0	0x3e74a3df	0.23890637
1	0x3daa19fe	0.08305739
2	0x3d852844	0.06501821
3	0x3de8d701	0.11369134
4	0xbe12243a	-0.14271632
5	0x3e8ef04f	0.27917716
6	0x3ca17ab7	0.019711835
7	0xbd577f02	-0.05261136
8	0x3e5c6361	0.21522285
9	0xbf079a50	-0.5296984
10	0x3e4e5a09	0.20151533
11	0xbf6342e4	-0.8877394
12	0xbccb8b78	-0.024846777
13	0x3e397221	0.18109943
14	0xbee92104	-0.45533
15	0xbd934a29	-0.07191879
16	0xbeeb7e7a	-0.4599493
17	0x3dec9ab0	0.11552942
18	0xbd310815	-0.0432206
19	0xbd2f6060	-0.04281652
20	0xbe9afedf	-0.30272576
21	0x3bacee2b	0.0052774153
22	0xbeaa7a54	-0.33296454
23	0x3e121a65	0.14267881
24	0x3e1738ca	0.14767757
25	0xbdb55010	-0.08853161
26	0x3dedf8b1	0.116197
27	0xbe27e8dd	-0.16397424
28	0xbde8f354	-0.11374536
29	0xbeed8820	-0.46392918
30	0x3ddb1d79	0.10698981
31	0x3e13e519	0.14442863
32	0xbe9fb690	-0.31193972
33	0xbedf2a4d	-0.4358696
34	0xbf4eb849	-0.80749947
35	0x3c10d044	0.008838717
36	0xbd3d05dc	-0.046148166
37	0xbe39f49b	-0.18159716
38	0xbee3d49e	-0.44498152
39	0x3cf247ab	0.02957519
40	0xbe12e61d	-0.14345594
41	0xbf89934a	-1.0748074
42	0x3e98511e	0.29749388
43	0xbf0eca3e	-0.5577735
44	0x3e748646	0.23879346
45	0xbe667775	-0.22506507
46	0x3f075209	0.5285955
47	0xbf1c73f8	-0.61114454
48	0xbe71ecbc	-0.23625463
49	0xbd574ba0	-0.052562356
50	0x3e16ec57	0.14738594
51	0xbf044945	-0.516743
52	0x3d6e08ec	0.058113977
53	0x3b759502	0.0037472849
54	0x3e8339dc	0.2563008
55	0x3e3b7b20	0.18308687
56	0x3c68f661	0.014218898
57	0x3d9b7edf	0.07592558
58	0xbe322908	-0.17398465
59	0xbe84736e	-0.25869316
60	0xbf4bc70b	-0.7960059
61	0xbc1386df	-0.009004324
62	0x3f0ae814	0.54260373
63	0x3ef971a6	0.4871952
64	0x3d49be81	0.049253944
65	0xbe922a2d	-0.28547803
66	0xbd2e5930	-0.042565525
67	0x3dd5dea3	0.10442855
68	0x3c20f5a0	0.009824187
69	0xbb56ad06	-0.0032756939
70	0xbebcbeb0	-0.36864233
71	0xbeb18cb2	-0.34677655
72	0xbe1ed23e	-0.15509889
73	0x3e8756e1	0.2643347
74	0x3d56e9ae	0.052468948
75	0xbddd5c63	-0.10808637
76	0xbb9478fc	-0.004531024
77	0xbfa127a9	-1.2590228
78	0xbe9764b4	-0.29569018
79	0xbda5e24b	-0.080998026
80	0xbac6f5f9	-0.0015179507
81	0xbe8d4c82	-0.27597433
82	0x3dfb23e0	0.12262702
83	0xbe5f14c2	-0.21785262
84	0xbeb2f72e	-0.34954208
85	0xbe92f64e	-0.2870354
86	0xbdd5bcf3	-0.1043643
87	0x3df51e2f	0.11968648
88	0xbdadbdc7	-0.08483463
89	0xbe20983c	-0.15683073
90	0xbf5407f6	-0.8282465
91	0xbe84cd88	-0.25938058
92	0xbe5a4309	-0.21314634
93	0x3dcf5052	0.10122742
94	0xbed4249e	-0.41434187
95	0xbe2fc86f	-0.17166303
96	0xbdfce4d2	-0.123483315
97	0x3d87ab1b	0.06624433
98	0x3e9e836c	0.30959642
99	0xbef61dbc	-0.4806956
100	0xbe552122	-0.2081342
101	0xbde4001d	-0.11132834
102	0x3db317c9	0.08744771
103	0xbd686025	-0.056732316
104	0x3ca56335	0.020188907
105	0x3e9411cd	0.2891983
106	0x3eab83b0	0.33498907
107	0xbec184e1	-0.3779669
108	0xbd77164b	-0.060323995
109	0x3e2c2f62	0.1681495
110	0x3e21cae1	0.15800048
111	0xbea66459	-0.32498434
112	0xbef83b24	-0.4848262
113	0xbd532722	-0.05155099
114	0xbc9b0f05	-0.01892806
115	0xbf072c6a	-0.52802145
116	0x3d203105	0.03910925
117	0xbf1260f3	-0.5717918
118	0x3d54ff33	0.05200119
119	0xbe8584d2	-0.26077896
120	0xbeda16f8	-0.4259565
121	0x3e50471b	0.20339625
122	0xbdf6118a	-0.12015064
123	0xbf564190	-0.8369379
124	0x3e83a60a	0.25712615
125	0x3e557772	0.20846346
126	0xbf45a8e7	-0.7721085
127	0x3e213dbc	0.15746206
128	0x3e26896c	0.1626336
129	0xbe10a470	-0.14125228
130	0x3ea3239d	0.31863108
131	0x3e506d28	0.2035414
132	0x3eaa442d	0.3325514
133	0x3e8bc60c	0.27299535
134	0x3d7bad61	0.061444644
135	0xbd10d6d3	-0.035361122
136	0x3d686687	0.056738403
137	0xbf02a50e	-0.51033103
138	0x3d0d2d95	0.0344673
139	0x3e8b8540	0.272501
140	0xbf07b619	-0.53012234
141	0x3db8fdd2	0.090327874
142	0x3bc349a5	0.005959707
143	0xbf33bb47	-0.7020764
144	0x3e0c1b4a	0.13682285
145	0x3e017def	0.12645696
146	0xbec24af7	-0.3794782
147	0xbeef6eb1	-0.46764138
148	0x3d57a779	0.05264995
149	0x3c3d874d	0.011567903
150	0xbd361914	-0.04445751
151	0x3c9c2de6	0.019064855
152	0xbdf749ac	-0.12074599
153	0xbeeffdc5	-0.46873298
154	0x3d33fc0a	0.043941535
155	0xbf2335c9	-0.63753945
156	0xbf1af069	-0.60523087
157	0xbec3e3ab	-0.38259634
158	0xbde72461	-0.112862356
159	0x3e45ce14	0.19316894
160	0x3cb49e55	0.022048155
161	0x3e2fe5ff	0.1717758
162	0xbf04d72c	-0.51890826
163	0xbfa8de38	-1.3192816
164	0xbb3cb144	-0.0028792182
165	0xbecf1392	-0.40444618
166	0xbca02475	-0.019548634
167	0xbeff1338	-0.4981935
168	0x3cd4ab03	0.025960451
169	0xbfadb535	-1.3570925
170	0xbd8752d4	-0.06607595
171	0xbe6c66be	-0.23086068
172	0x3b86b9bc	0.0041114967
173	0xbcb55bc7	-0.02213849
174	0x3d44059b	0.04785691
175	0x3d2d9b03	0.04238416
176	0xbdcedeb6	-0.101010725
177	0x3d70f2de	0.058825366
178	0xbd3192c5	-0.04335286
179	0x3d59fa66	0.053217314
180	0xbeb6767e	-0.35637277
181	0x3e9eb0b8	0.309942
182	0x3cf8fa16	0.030392688
183	0xbe292b9f	-0.16520546
184	0xbda663fd	-0.0812454
185	0x3d113835	0.035453994
186	0xbe65d4d7	-0.22444473
187	0xbef331f9	-0.47499064
188	0xbd86ee01	-0.065883644
189	0x3e724e22	0.23662618
190	0xbf94afeb	-1.1616186
191	0xbe9a405d	-0.3012723
192	0xbe806fc0	-0.25085258
193	0xbdc2b938	-0.09507984
194	0xbf0c19ed	-0.5472706
195	0xbedf24aa	-0.4358266
196	0xbde7f882	-0.11326696
197	0xbd5244d3	-0.051335167
198	0x3d522785	0.05130722
199	0xbf37b1c2	-0.7175561
200	0xbe6232b3	-0.22089653
201	0xbf6da8df	-0.928358
202	0xbd572a23	-0.05253042
203	0xbde4d8c6	-0.11174159
204	0xbdadf829	-0.084945984
205	0x3d509c59	0.050930355
206	0xbdd4ab6a	-0.10384257
207	0xbd517f8f	-0.05114704
208	0xbece3e19	-0.40281752
209	0x3d9dc29a	0.07703133
210	0xbe6e8ba3	-0.23295455
211	0x3b3a578f	0.0028433537
212	0xbf091073	-0.53540725
213	0x3ef20df5	0.47276273
214	0xbf4a5836	-0.7904085
215	0xbd426481	-0.04745913
216	0xbdc04af5	-0.09389297
217	0xbdf8feba	-0.1215796
218	0x3d9f08ee	0.07765375
219	0xbda977be	-0.08274792
220	0xbe73236c	-0.23743981
221	0x3c37f710	0.011228338
222	0x3e02bd42	0.12767509
223	0x3d99ef02	0.0751629
224	0x3c940ac2	0.018071536
225	0xbeefa0d9	-0.46802405
226	0xbe0939a2	-0.13400891
227	0x3e675d03	0.22594075
228	0xbe3b2e68	-0.18279421
229	0xbec188f9	-0.37799814
230	0xbef2d73e	-0.47429842
231	0xbe399fae	-0.18127319
232	0xbcbfb438	-0.023401365
233	0xbf110826	-0.5665306
234	0x3e534b80	0.2063427
235	0xbe937b1e	-0.28804868
236	0xbd997f20	-0.0749495
237	0x3e420c65	0.1895004
238	0xbed8a7ba	-0.42315465
239	0xbebc064e	-0.3672356
240	0xbdd65aa9	-0.10466511
241	0x3dcc57e3	0.099777006
242	0x3c9865bc	0.018603198
243	0x3c8b56bd	0.017009133
244	0xbe4e7675	-0.20162375
245	0x3ed2a9ae	0.4114508
246	0xbdb2d71a	-0.087324336
247	0xbe8b150a	-0.2716449
248	0x3f0332fc	0.5124967
249	0xbd7cabe5	-0.06168737
250	0xbe2f6e97	-0.1713203
251	0xbecba59c	-0.39774787
252	0xbced8a9b	-0.028996756
253	0x3d538dd5	0.051648933
254	0x3e83ba03	0.25727853
255	0xbf4c5d1c	-0.79829574

bias f4 [200]
0	0x3cbd1947	0.023083342
1	0xbe6f230b	-0.23353212
2	0xbc4d6b29	-0.012537756
3	0xbc8459ad	-0.016156042
4	0x3cac7700	0.021052837
5	0x3db6e4e8	0.08930379
6	0x3d4ac3d4	0.049503163
7	0xbd66a9ab	-0.05631415
8	0xbdb9a700	-0.09065056
9	0x3d88a7a1	0.06672598
10	0xbd2079af	-0.039178547
11	0x3b22273c	0.0024742624
12	0x3d2ebadc	0.04265867
13	0x3e08e0c4	0.13366991
14	0xbcdcdb00	-0.026959896
15	0xbd277f29	-0.040892754
16	0x3dfab4df	0.1224153
17	0x3d91bbbf	0.07115888
18	0xbd9d3f1e	-0.07678054
19	0x3de5c43e	0.11219071
20	0xbca774b3	-0.020441389
21	0x3cbe2ee0	0.023215711
22	0xbdd67e9a	-0.10473366
23	0xbdea3c83	-0.11437323
24	0xbdd34b16	-0.10317056
25	0x3c87c48e	0.016573217
26	0x3d8a07f2	0.06739797
27	0x3c8ca69d	0.017169291
28	0xbd488c49	-0.04896191
29	0x3c7ca1e3	0.015419456
30	0xbc2770e7	-0.010219789
31	0x3d5be99d	0.053689588
32	0xbcc91f62	-0.024551097
33	0xbdfd196e	-0.12358366
34	0x3dbd4b36	0.09242861
35	0xbe57df90	-0.21081376
36	0xbc763624	-0.015027557
37	0xbe2456cd	-0.16048737
38	0x3d39a0e5	0.045319457
39	0xbdaa09db	-0.08302661
40	0xbdc4cef9	-0.096097894
41	0xbdd8cf39	-0.105863996
42	0xbd9da0c6	-0.07696681
43	0xbe74ec74	-0.23918325
44	0x3e040e3a	0.12896052
45	0xbb0d2c87	-0.0021541433
46	0x3d8ae98f	0.06782829
47	0xbdba67f8	-0.09101862
48	0xbd574f32	-0.05256576
49	0xbb2b1167	-0.0026102902
50	0xbe05a8d5	-0.13052686
51	0xbd23a17f	-0.039948937
52	0xbdc65839	-0.09684796
53	0xbd2a4647	-0.041570928
54	0xbb8daa85	-0.004323306
55	0x3ce34cc7	0.027746571
56	0xbda96b70	-0.08272445
57	0xbd901fb6	-0.070372984
58	0xbd01fc35	-0.031734664
59	0xbd8e2005	-0.06939701
60	0x3deeeea1	0.116666086
61	0x3b42f9c0	0.0029750913
62	0xba5603f2	-0.000816404
63	0x3d2f9b62	0.042872794
64	0xbb81ff55	-0.0039672055
65	0xbc36ad48	-0.011149712
66	0x3dc55d6e	0.09636961
67	0xbd3be2e0	-0.04587066
68	0xbcb229cc	-0.021748446
69	0xbdbbf750	-0.091780305
70	0xbcb3d208	-0.021950737
71	0xbd69024f	-0.056886967
72	0xbd237b37	-0.03991243
73	0x3b82114e	0.003969348
74	0xbd81bb5d	-0.06334565
75	0x3e3eb333	0.18623047
76	0xbdb6e650	-0.089306474
77	0x39b7eccf	0.00035080916
78	0xbc3fd5d0	-0.011708692
79	0x3d45dc48	0.04830578
80	0xbcbc22f0	-0.022965878
81	0xbe1f89d9	-0.15579928
82	0x3d9e9289	0.07742793
83	0x3e1e4100	0.15454483
84	0xbc247537	-0.010037712
85	0x3d1cfb3d	0.038325537
86	0xbe551fd2	-0.2081292
87	0x3e03ab4e	0.12858316
88	0xbddd8e6a	-0.10818179
89	0x3d95c7fb	0.07313534
90	0x3d0eae15	0.034833986
91	0xbde033c3	-0.10947373
92	0x3dfbde25	0.1229823
93	0xbdddcf42	-0.10830547
94	0xbc67413b	-0.014114673
95	0xbe145bc1	-0.14488126
96	0xbcdd7c72	-0.02703688
97	0x3d8dfcf1	0.0693301
98	0xbc4ee6b6	-0.012628248
99	0xbdae5c5f	-0.08513712
100	0x3b97c922	0.004632131
101	0xbde5fe93	-0.11230197
102	0xbd81bb5d	-0.06334565
103	0xbe453345	-0.19257839
104	0x3bbd55f7	0.00577807
105	0x3d82c3a2	0.0638497
106	0xbd6109d3	-0.05494101
107	0xbd8df50d	-0.06931505
108	0xbd384455	-0.04498704
109	0xbca6697a	-0.020313967
110	0x3db0e283	0.08636954
111	0xbd67685b	-0.056496006
112	0xbd9b40f6	-0.0758075
113	0xbdd7b652	-0.10532822
114	0xbdd18987	-0.102313094
115	0x3cc4b995	0.024014274
116	0xbe76d4ba	-0.24104586
117	0xbdbdda00	-0.09270096
118	0xbc50c224	-0.012741599
119	0xbd0c1f4c	-0.034209535
120	0xbc06ef65	-0.008235787
121	0xbca33a60	-0.019925296
122	0x3e310b2b	0.17289416
123	0xbdff70e5	-0.12472705
124	0x3cf0024b	0.029297968
125	0xbd380da0	-0.04493487
126	0x3d2b84c8	0.041874677
127	0xbd36f5d5	-0.044668037
128	0x3d6f9513	0.058491778
129	0xbdef4c94	-0.11684528
130	0x3d208098	0.039185137
131	0x3de78ca2	0.113061205
132	0xbc993284	-0.018700846
133	0xbd584bc1	-0.05280662
134	0xbdfb9c2c	-0.12285647
135	0x3e082259	0.13294353
136	0xbd85bbd4	-0.06529966
137	0xbb42e631	-0.0029739256
138	0x3ca31da5	0.019911597
139	0xbcb89f30	-0.022536844
140	0x3e025dcc	0.12731093
141	0xbd55623a	-0.05209563
142	0x3d367050	0.044540703
143	0xbd671f2d	-0.056426216
144	0xbd1e4ca6	-0.038647316
145	0xbda7063f	-0.08155488
146	0x3d98d6f2	0.074628726
147	0xbdc5cc61	-0.09658123
148	0xbdcdca79	-0.10048384
149	0x3d88a71e	0.066725
150	0xbdbfe496	-0.09369771
151	0xbc979f46	-0.018508565
152	0x3e16f877	0.1474322
153	0xbc7c96f4	-0.015416849
154	0x3def0456	0.11670749
155	0xbd70ef2c	-0.058821842
156	0xbd56960a	-0.052389182
157	0x3d9a3b7a	0.075308755
158	0xbdaf1717	-0.08549326
159	0x3e0bddef	0.1365888
160	0xbe108c1f	-0.14115952
161	0xbcc133d1	-0.023584278
162	0xbd258b48	-0.040416032
163	0xbdc9f791	-0.09861673
164	0xbdd7b972	-0.10533418
165	0xbc9fba07	-0.019497884
166	0xbe53705b	-0.20648329
167	0x3c20946b	0.009801011
168	0xbe0df0f2	-0.13861445
169	0x3d3f2ee5	0.04667558
170	0xbd3b08e8	-0.04566279
171	0xbd9894a6	-0.074502274
172	0xbcf653d2	-0.030069266
173	0x3c7b88fa	0.015352482
174	0xbc932307	-0.017961038
175	0x3d678b81	0.056529526
176	0x3e340d74	0.17583257
177	0x3c4f2cf3	0.012644994
178	0xbd810875	-0.06300441
179	0x3a21b06f	0.0006167953
180	0xbcd2a31a	-0.025712539
181	0xbd29a16f	-0.04141372
182	0x3e03e262	0.12879327
183	0xbbca9e63	-0.006183432
184	0x3d91042e	0.07080875
185	0xbe5885be	-0.21144769
186	0xbd11df66	-0.03561344
187	0xbba2da70	-0.0049698874
188	0xbd3149c2	-0.04328323
189	0xbde782db	-0.113042556
190	0xbccc2764	-0.024921127
191	0xbd1c9261	-0.038225535
192	0x3e1acc25	0.15116937
193	0x3c91a004	0.017776497
194	0x3dd399a5	0.1033204
195	0xbbc511bf	-0.0060140784
196	0x3e0c5541	0.13704397
197	0x3d60651e	0.054783933
198	0x3d3bf996	0.04589232
199	0xbe89264a	-0.26787025

weight f4 [1, 200]
0	0x3f1d4016	0.6142591
1	0xbf30da0d	-0.6908272
2	0xbc490880	-0.012270093
3	0xbd5ea551	-0.054356877
4	0x3ede6b44	0.43441212
5	0x3d8f0af5	0.06984512
6	0x3e26bb62	0.16282418
7	0xbd849da4	-0.0647538
8	0x3bd44129	0.0064774943
9	0x3f493922	0.786028
10	0xbcac1656	-0.021006744
11	0xbdcaa16d	-0.09894071
12	0x3e9b037c	0.30276096
13	0xbf00f084	-0.50367
14	0xbef16a38	-0.4715135
15	0x3eb5d9dd	0.3551778
16	0xbe3dc9c3	-0.18533997
17	0x3eb35fdc	0.35034072
18	0xbe1002d5	-0.1406358
19	0xbe4afe37	-0.19823538
20	0xbd2b8a39	-0.041879866
21	0xbe74f057	-0.23919807
22	0xbc4a5168	-0.01234851
23	0xbc65712b	-0.014004032
24	0xbed88fd5	-0.42297235
25	0xbe8efbfe	-0.2792663
26	0x3e9d4f0f	0.3072438
27	0xbee3505f	-0.44397256
28	0x3c03cdd4	0.008044679
29	0xbbd16db9	-0.006391254
30	0x3e3a331d	0.1818356
31	0x3e9c47f0	0.30523634
32	0x3f13e9d6	0.5777868
33	0xbdd07619	-0.10178775
34	0x3ec21f45	0.37914482
35	0xbf177b4f	-0.5917253
36	0xbf0d1f94	-0.5512631
37	0xbea1f48b	-0.31631884
38	0x3e9bdf29	0.30443695
39	0x3e8182e3	0.2529517
40	0xbeeabe11	-0.45848134
41	0xbdf8f7bd	-0.12156627
42	0xbc051465	-0.008122538
43	0xbf2058de	-0.626356
44	0x3e9b12ec	0.30287874
45	0xbeabd62b	-0.33561835
46	0xbf024aff	-0.50895685
47	0x3bead1bb	0.007166115
48	0xbd9f9bcd	-0.077933885
49	0x3c3a4ef8	0.011371367
50	0xbcf26a43	-0.029591685
51	0xbbd60712	-0.0065316046
52	0x3bfbb39c	0.007681323
53	0xbd96db2d	-0.07366023
54	0x3f068a16	0.5255445
55	0xbe83bd21	-0.2573023
56	0xbedc1092	-0.42981392
57	0xbe2ad844	-0.16684061
58	0xbc9efd35	-0.019407848
59	0xbc72377b	-0.014783735
60	0x3dbb2d19	0.09139461
61	0x3f3853e4	0.72003007
62	0xbc89b4c5	-0.01680983
63	0x3ebb5f7b	0.36596283
64	0x3c5eb681	0.013593317
65	0xbd1a59b5	-0.037683208
66	0x3e9c612a	0.3054288
67	0xbd340727	-0.043952134
68	0xbf20308e	-0.6257409
69	0xbe5c6d0f	-0.21525978
70	0xbb11ca4e	-0.0022245827
71	0x3e16a917	0.1471294
72	0xbd58a0b1	-0.052887622
73	0x3eb41f67	0.35180208
74	0xbc3e0b38	-0.011599354
75	0x3f0b99d7	0.54531616
76	0xbc8c6f35	-0.017142871
77	0x3c27cb1f	0.010241299
78	0xbd268ace	-0.04065972
79	0xbe5454d4	-0.20735484
80	0xbc5f8012	-0.013641374
81	0xbec62354	-0.38698828
82	0x3d7250dd	0.05915915
83	0x3d928e52	0.07156052
84	0xbd00203a	-0.031280734
85	0xbe1f3a9f	-0.15549706
86	0xba76e68b	-0.0009418509
87	0x3e490404	0.19630438
88	0x3c6ed2ba	0.014576608
89	0xbf41e163	-0.7573454
90	0x3e5217d4	0.20516902
91	0x3b994395	0.004677246
92	0xbed7fa71	-0.4218326
93	0x3c1b0ef5	0.009464015
94	0x3c08ccbc	0.008349594
95	0x3f22f301	0.63652045
96	0x3c896e75	0.016776303
97	0x3e7789fc	0.2417373
98	0xbe940342	-0.28908736
99	0x3b383640	0.0028108507
100	0x3f1345da	0.5752846
101	0xbc7f8d8b	-0.015597711
102	0xbb8f0a64	-0.0043652523
103	0xbf504a57	-0.81363434
104	0xbd7581ab	-0.059938114
105	0x3ecac579	0.39603785
106	0xbd29f11e	-0.041489713
107	0xbca7a40f	-0.020463971
108	0xbf001669	-0.50034195
109	0xbe894939	-0.26813677
110	0xbde8ba16	-0.11363618
111	0xbdd5ff40	-0.10449076
112	0x3c2b154f	0.010442092
113	0x3d92f7dd	0.071761824
114	0xbe56add7	-0.20964752
115	0x3d63efa8	0.055648476
116	0xbee98056	-0.45605725
117	0xbc9c0e6d	-0.019049847
118	0x3f3e56f8	0.74351454
119	0x3edca068	0.4309113
120	0x3c42f121	0.01189831
121	0x3f367f89	0.71288353
122	0x3dc2ab1c	0.09505293
123	0xbe1b76fd	-0.15182109
124	0x3f071f45	0.5278209
125	0x3bf633cc	0.007513499
126	0x3d845c9d	0.06462977
127	0x3eb268c2	0.3484555
128	0xbe53fd48	-0.20702088
129	0xbf7a0c99	-0.9767547
130	0x3e9efbf5	0.31051603
131	0x3ec87d3e	0.39158052
132	0xbf02d6a3	-0.5110876
133	0xbf1bcf1c	-0.608629
134	0xbc2c5e36	-0.0105205085
135	0xbebf9d2d	-0.37424603
136	0xbf67c604	-0.9053652
137	0x3d427420	0.047474027
138	0x3ea749c9	0.3267348
139	0xbe954349	-0.29152897
140	0x3dedd2ec	0.11612496
141	0xbd60b252	-0.05485756
142	0xbe83e97e	-0.25764078
143	0x3dced661	0.10099483
144	0x3c72840c	0.01480199
145	0x3c1de716	0.009637615
146	0xbd910f48	-0.07082993
147	0x3b9a98fe	0.004717945
148	0xbc63edaa	-0.013911644
149	0xbe325b96	-0.1741775
150	0xbf0ca4d1	-0.5493899
151	0xbca0ce0e	-0.019629505
152	0x3dcca297	0.09991949
153	0xbdb0c4c7	-0.08631282
154	0x3e041491	0.1289847
155	0xbf4e84f8	-0.80671644
156	0xbd54c919	-0.051949594
157	0x3e90efe0	0.2830801
158	0xbd435138	-0.047684878
159	0xbf38c863	-0.72180766
160	0xbf1c7e8b	-0.6113059
161	0xbce3e44b	-0.02781882
162	0xbf32052f	-0.6953916
163	0xbd89f7f4	-0.067367464
164	0xbc72dc54	-0.014823038
165	0xbeac88e6	-0.33698195
166	0xbf048563	-0.5176603
167	0xbddaeb87	-0.106894545
168	0xbf6c77b3	-0.92370147
169	0xbecb7f6f	-0.39745662
170	0xbd81287c	-0.0630655
171	0xbe3a11d8	-0.1817087
172	0x3e056c67	0.13029633
173	0xbee82a8b	-0.45344958
174	0x3f0331c2	0.512478
175	0xbd83ed2e	-0.06441723
176	0xbf602b76	-0.87566316
177	0xbe122b18	-0.14274251
178	0x3d6189f2	0.055063196
179	0xbe94fd8e	-0.29099697
180	0xbd65550a	-0.055989303
181	0x3c5e9bf1	0.013586984
182	0xbf1a13af	-0.60186285
183	0xbe74ddda	-0.23912755
184	0xbd576bcd	-0.05259304
185	0xbf34dde4	-0.7065108
186	0xbb8a2864	-0.0042162407
187	0xbe01c482	-0.12672618
188	0xbe9837e3	-0.29730138
189	0xbbf86d53	-0.007581392
190	0x3e5cf4ec	0.21577805
191	0xbe9f114a	-0.31067878
192	0xbeb91122	-0.36145884
193	0xbca8fb4c	-0.02062764
194	0xbea50208	-0.32228112
195	0xbd980aac	-0.074239105
196	0x3f514f64	0.81761765
197	0xbeef4b54	-0.46737158
198	0xbe2a61ee	-0.1663892
199	0xbe946103	-0.28980264

weight f4 [200, 15]
0	0x3d7b7374	0.0613894
1	0x3eb5f53b	0.35538658
2	0x3da856d9	0.0821969
3	0x3e12cbcb	0.14335553
4	0xbeca7a94	-0.39546645
5	0xbec08b72	-0.37606388
6	0xbeec685d	-0.46173373
7	0x3d074063	0.03302039
8	0x3e911f85	0.2834436
9	0x3e7c53f0	0.24641395
10	0xbdd00fff	-0.10159301
11	0x3e40d80a	0.18832412
12	0xbeb2ffe4	-0.34960854
13	0xbead3b6a	-0.33834392
14	0xbde10d4d	-0.10988865
15	0xbe8835c9	-0.26603535
16	0x3eac9555	0.3370768
17	0x3c66bbfd	0.014082906
18	0x3dd0513d	0.10171745
19	0x3de3fedc	0.11132595
20	0x3ed57a8a	0.41695052
21	0xbea695da	-0.32536203
22	0x3dcd0b0d	0.100118734
23	0xbeba4eac	-0.36388147
24	0xbdc525ab	-0.09626325
25	0x3cced5a5	0.025248358
26	0xbd5e2488	-0.054234058
27	0xbefe40d5	-0.49658838
28	0x3e2b05dd	0.16701455
29	0xbe9c409f	-0.30518052
30	0xbf0f5845	-0.55994064
31	0xbda99f80	-0.08282375
32	0x3c0a9ab4	0.008459736
33	0x3edc3b7a	0.43014127
34	0xbcf7d4b2	-0.030252788
35	0x3e95ced1	0.2925935
36	0x3ee3b7f9	0.44476297
37	0x3e1b3333	0.1515625
38	0xbdf41e64	-0.11919859
39	0x3da9871f	0.082777254
40	0xbd9c4f5f	-0.07632326
41	0x3d5ea0b6	0.054352485
42	0x3e8c2839	0.27374437
43	0x3d863180	0.0655241
44	0x3e122963	0.142736
45	0x3f0f1835	0.5589631
46	0x3b4bcafc	0.003109633
47	0x3dbbe5d7	0.09174698
48	0xbe45f926	-0.19333324
49	0x3d458ce2	0.04823006
50	0x3ea2da3e	0.3180713
51	0xbded4f2f	-0.11587369
52	0xbeafad04	-0.34311688
53	0xbddd7725	-0.10813741
54	0xbd3c8d3b	-0.046033125
55	0x3e3a616d	0.18201227
56	0xbeb6dd4a	-0.35715705
57	0xbb9394d0	-0.004503824
58	0xbee457bf	-0.44598195
59	0x3e66e055	0.22546513
60	0xbe95f21a	-0.2928627
61	0x3e0e90a8	0.1392237
62	0xbe1857bb	-0.14877217
63	0x3e1e3a1b	0.15451853
64	0x3ec47224	0.38368332
65	0x3e0b9b9a	0.13633576
66	0x3db379a4	0.087634355
67	0xbd32b87e	-0.043632977
68	0x3d061a16	0.03273972
69	0x3d4fc478	0.050724477
70	0xbee338f5	-0.44379392
71	0x3edb1778	0.42791343
72	0xbe4b8e12	-0.19878414
73	0xbe5266b2	-0.20546988
74	0xbe2d4d52	-0.16924027
75	0x3ea5ae8b	0.32359728
76	0xbe434529	-0.19069351
77	0x3eab90bd	0.33508864
78	0x3d7743a9	0.06036726
79	0x3bf52fbd	0.0074824975
80	0xbe29f3f6	-0.1659697
81	0xbec429a9	-0.38313034
82	0xbedb7023	-0.4285899
83	0xbe79325d	-0.24335618
84	0x3bea4c80	0.007150233
85	0x3d4738c4	0.04863812
86	0xbe706a2c	-0.23478001
87	0xbe175c75	-0.14781363
88	0x3db2820f	0.08716213
89	0xbe1fe36f	-0.15614103
90	0xbd7f39d9	-0.062311027
91	0xbe0c0167	-0.1367241
92	0x3ea0c36a	0.3139909
93	0xbdecb705	-0.11558346
94	0x3db987d3	0.090591095
95	0x3eab3915	0.33441988
96	0x3e9fd589	0.31217602
97	0x3d3f5c83	0.046719085
98	0x3e29a90a	0.1656839
99	0xbf5647ee	-0.83703506
100	0xbf4ce1ee	-0.8003224
101	0xbb837f93	-0.0040130108
102	0xbe61946a	-0.22029272
103	0x3e887048	0.26648164
104	0xbc3b7d40	-0.011443436
105	0x3ea3e314	0.32009184
106	0xbdd4b67d	-0.103863694
107	0xbda6b528	-0.081400216
108	0xbb94920e	-0.0045340126
109	0xbf03c3d7	-0.514707
110	0x3d513d1f	0.05108368
111	0xbe6aff34	-0.22948915
112	0xbe82e0b9	-0.25562075
113	0xbe28f06d	-0.16497965
114	0x3c47ee9b	0.012202884
115	0x3db0ac82	0.08626653
116	0x3df347a4	0.11878899
117	0x3e5f59ed	0.21811648
118	0x3d525237	0.051347937
119	0x3ecb198c	0.39667928
120	0xbdab3141	-0.08359004
121	0x3eabde8e	0.33568233
122	0xbc96fb96	-0.018430512
123	0x3e1f2b66	0.15543899
124	0xbec03cd3	-0.37546405
125	0x3dd2bf51	0.10290397
126	0xbeaa43ea	-0.3325494
127	0xbef60703	-0.48052225
128	0xbf216dfd	-0.63058454
129	0x3e6304b0	0.22169757
130	0xbc94e76c	-0.018176757
131	0x3dff4901	0.12465096
132	0x3af35372	0.0018564297
133	0x3e204aec	0.1565358
134	0x3e800447	0.25003263
135	0x3eadbb1e	0.33931822
136	0xbf02f194	-0.5114987
137	0x3d69f991	0.05712277
138	0xbef7409d	-0.48291484
139	0xbe899a20	-0.268754
140	0xbe81c3a6	-0.2534458
141	0xbe5072b5	-0.20356257
142	0xbdbaca71	-0.09120644
143	0xbdb30a60	-0.08742213
144	0xbdfc8573	-0.12330141
145	0x3dfa7413	0.12229171
146	0x3d9b9761	0.075972326
147	0xbe5238a5	-0.2052942
148	0x3e0526e0	0.13003111
149	0xbdc265b7	-0.09492057
150	0xbebefe7d	-0.37303534
151	0x3d9d47fb	0.07679745
152	0x3d0e336e	0.034717016
153	0x3e04736f	0.1293466
154	0x3ef05b5a	0.46944696
155	0xbd84a7b6	-0.06477301
156	0x3c8019ae	0.015637245
157	0xbe7d4afe	-0.24735638
158	0xbf0758fa	-0.5287014
159	0x3d0542d6	0.032534443
160	0x3d35ee8e	0.044416957
161	0x3e8cb623	0.2748271
162	0xbdc07ed0	-0.093991876
163	0xbe3181fd	-0.17334743
164	0x3d86dba8	0.06584865
165	0x3eb47740	0.3524723
166	0x3d8f7acf	0.07005846
167	0xbe619203	-0.22028355
168	0xbe9e5d44	-0.3093053
169	0xbd74b8c7	-0.05974653
170	0x3e41aa55	0.18912633
171	0x3dac787e	0.084214196
172	0xbd9d6d37	-0.07686847
173	0x3e515dd3	0.20445947
174	0xbe12b7b1	-0.14327885
175	0xbdd475ae	-0.10374008
176	0x3b8e5dfe	0.004344701
177	0xbe89769f	-0.26848313
178	0xbe8e30bb	-0.27771553
179	0x3e07e7e0	0.13272047
180	0xbe18f30c	-0.14936465
181	0xbe6f7d6d	-0.2338769
182	0x3e9d56ea	0.30730373
183	0x3e110532	0.14162138
184	0x3e9de700	0.30840302
185	0xbe50419a	-0.20337525
186	0xbec5d814	-0.38641417
187	0xbf22e868	-0.63635874
188	0xbf0497bc	-0.5179403
189	0xbd9ece43	-0.07754185
190	0x3d957e4f	0.07299482
191	0x3eaba4a5	0.3352405
192	0xbcac8804	-0.021060951
193	0x3c4aab81	0.012369991
194	0x3f05c936	0.5226015
195	0x3e381352	0.1797612
196	0x3e805c9c	0.25070655
197	0xbf056542	-0.5210763
198	0xbd244b73	-0.040111016
199	0xbea7e583	-0.3279229
200	0xbdf8f5df	-0.12156271
201	0xbd9a2ea6	-0.07528429
202	0xbf0377e5	-0.5135482
203	0xbec96eeb	-0.39342436
204	0x3d748a2e	0.05970209
205	0xbd7a6593	-0.061132025
206	0x3da45923	0.08024814
207	0x3d6f500f	0.05842596
208	0x3de2832f	0.110601775
209	0xbe6576e3	-0.22408633
210	0xbe7f02e5	-0.24903448
211	0x3d4e8cb5	0.050427157
212	0x3cf00c1e	0.029302653
213	0xbe055b26	-0.13023052
214	0x3cd8e8ee	0.026478257
215	0xbe8772f1	-0.2645488
216	0xbf3a1bbe	-0.7269858
217	0x3dc2de56	0.095150635
218	0x3de5f7a8	0.11228877
219	0x3d8504f1	0.06495083
220	0xbe9ebc5a	-0.31003076
221	0xbdc27d2e	-0.094965324
222	0x3e6e4375	0.2326792
223	0xbdde163f	-0.10844087
224	0x3cdce693	0.026965415
225	0xbe560fb9	-0.20904435
226	0xbebfb593	-0.37443218
227	0xbd4708b6	-0.04859229
228	0x3e70b618	0.23506963
229	0x3d286f57	0.041121807
230	0x3eb97f42	0.36229903
231	0x3e685fe9	0.22692837
232	0xbefbb20d	-0.4915928
233	0x3e43027e	0.1904392
234	0x398f6599	0.00027350782
235	0xbd0d4edd	-0.034499038
236	0xbf10148d	-0.5628136
237	0xbe997b7e	-0.2997703
238	0x3ba6378c	0.0050725397
239	0xbcce82de	-0.025208887
240	0xbe37ec18	-0.17961156
241	0x3e49e5f6	0.1971663
242	0x3ea024aa	0.31277972
243	0x3e753ece	0.2394974
244	0x3e8fa463	0.28055105
245	0xbe80c12e	-0.25147384
246	0xbec67142	-0.38758284
247	0x3df11a8c	0.117726415
248	0x3eaa0c3d	0.33212462
249	0xbe58c897	-0.21170269
250	0xbe717173	-0.23578434
251	0x3dd17e48	0.10229164
252	0x3dae438b	0.085089765
253	0x3d9180bf	0.071046345
254	0x3f04108f	0.51587766
255	0x3ed09245	0.40736595

bias f4 [200]
0	0xbe17fff9	-0.1484374
1	0x3d605660	0.054769874
2	0xbd8020b2	-0.06256236
3	0x3cc31e10	0.023818046
4	0x3d639c1d	0.055568803
5	0xbe039777	-0.12850748
6	0x3db843b1	0.08997286
7	0x3d4d2487	0.050083663
8	0x3d0a1b74	0.033717588
9	0x3d220ba6	0.03956189
10	0x3e2a96a2	0.16659024
11	0xbdf5d444	-0.12003377
12	0xbe80093c	-0.25007045
13	0x3d644769	0.055732165
14	0x3eb13f13	0.34618434
15	0x3c1e48cd	0.009660912
16	0x3e0208a4	0.12698609
17	0x3e4c1413	0.19929533
18	0xbe50a888	-0.2037679
19	0x3da702ac	0.081548065
20	0x3e0c9163	0.13727336
21	0x3e07649e	0.13221976
22	0xbe9e365b	-0.30900845
23	0xbd420612	-0.04736907
24	0x3da7e96f	0.08198821
25	0xbeb2fe37	-0.34959576
26	0x3e099c41	0.13438512
27	0xbddb23d1	-0.10700191
28	0xbd86e53e	-0.06586693
29	0x3d13dbaa	0.03609816
30	0xbeb8e27e	-0.361103
31	0x3df9696e	0.12178312
32	0xbe67f530	-0.22652125
33	0x3e0c8389	0.13722052
34	0xbd194db9	-0.037427638
35	0xbe80f3d0	-0.25186014
36	0xbe7a3c63	-0.24437098
37	0xbe7e746f	-0.24849103
38	0xbdc79915	-0.09745995
39	0xbebcc72b	-0.36870703
40	0xbe66c837	-0.22537313
41	0xbea3b4a2	-0.3197375
42	0xbe7b6d73	-0.2455347
43	0x3e0a334b	0.13496129
44	0xbe082c06	-0.13298044
45	0x3da24e43	0.079250835
46	0xbd904c08	-0.07045752
47	0xbe84fb72	-0.25973088
48	0xbdfb6ea5	-0.12276963
49	0x3db85fec	0.09002671
50	0xbe90b1cf	-0.28260657
51	0xbd6f1122	-0.05836595
52	0xbe8439a1	-0.25825217
53	0x3c57dc7b	0.013175125
54	0x3dac43a8	0.08411342
55	0xbe492986	-0.19644746
56	0x3e2ee213	0.17078428
57	0xbded638b	-0.11591252
58	0x3d2a4be6	0.04157629
59	0xbe889536	-0.2667634
60	0x3e0dda2a	0.13852754
61	0xbe1225d7	-0.14272247
62	0xbe1f87f2	-0.15579203
63	0x3e5809b4	0.21097451
64	0x3e3d9435	0.18513568
65	0xbd9e3b00	-0.07726097
66	0x3db51d2f	0.08843457
67	0xbcaf4cd5	-0.021398941
68	0x3c5cef63	0.013484809
69	0x3ca876a1	0.02056438
70	0x3e3bf06a	0.1835343
71	0xbea2c3ed	-0.31790105
72	0xbed587b8	-0.41705108
73	0xbd911199	-0.070834346
74	0xbea7fb7d	-0.32809058
75	0x3e7aa68e	0.24477598
76	0xbe1c1050	-0.15240598
77	0xbe3cceb3	-0.18438224
78	0x3d046ee4	0.032332316
79	0x3b9a43cf	0.0047077904
80	0x3e289481	0.164629
81	0x3ebe89f3	0.37214622
82	0x3eccaf35	0.39977422
83	0x3dbca9de	0.09212087
84	0xbe458eb8	-0.19292724
85	0xbecd1bbe	-0.40060228
86	0x3ebac887	0.36481115
87	0xbd5b9503	-0.053608906
88	0x3d5a8467	0.053348925
89	0x3d872e84	0.06600669
90	0xbec8666a	-0.39140636
91	0xbc9cf66c	-0.019160472
92	0x3de3b1bf	0.11117887
93	0xbd9e4ca3	-0.07729461
94	0xbeabc5f0	-0.33549452
95	0xbeac4537	-0.33646557
96	0xbe5b470c	-0.21413821
97	0x3d0a76a0	0.033804536
98	0xbdc1ed1f	-0.094690554
99	0xbdaf7110	-0.08566487
100	0x3aa0dff9	0.001227378
101	0x3e852b66	0.26009673
102	0x3ea400bb	0.32031807
103	0x3ddb46cb	0.10706862
104	0x3e2e0aa2	0.16996244
105	0x3eb04dd8	0.3443439
106	0x3e553124	0.20819527
107	0xbdf6a09b	-0.12042352
108	0xbd2db308	-0.042407066
109	0x3e407cc1	0.1879759
110	0x3eb69900	0.35663605
111	0x3d8defed	0.06930528
112	0xbdd612d5	-0.10452811
113	0xbe2c0b22	-0.16801122
114	0xbba03f58	-0.0048903637
115	0x3edde25c	0.4333676
116	0x3e1ff282	0.15619853
117	0x3df988b4	0.12184277
118	0x3e31c79d	0.17361303
119	0xbdb24beb	-0.087058865
120	0xbdd4b774	-0.103865534
121	0xbc65039a	-0.013977909
122	0x3dbcd184	0.092196494
123	0xbe9ebbce	-0.3100266
124	0xbe07a394	-0.13245994
125	0xbe2d11e7	-0.1690136
126	0xbe69bf67	-0.2282692
127	0x3d23b35b	0.03996597
128	0x3df62304	0.120183975
129	0xbdf44a1a	-0.11928196
130	0xbd4d6ef4	-0.05015464
131	0xbd8fb646	-0.07017188
132	0x3d72a852	0.059242554
133	0xbe7e217c	-0.24817461
134	0x3e757678	0.23970973
135	0x3eb87dee	0.36033577
136	0xbe7566ad	-0.23964949
137	0x3dc9e3b5	0.09857885
138	0xbba2b935	-0.004965926
139	0xbcf6ee92	-0.030143056
140	0xbd84b866	-0.06480484
141	0x3e0ed5f6	0.13948807
142	0x3e7a677c	0.24453539
143	0x3d51aeb1	0.05119199
144	0x3e3c3f2a	0.1838347
145	0xbdadf440	-0.084938526
146	0x3e8dc19a	0.2768677
147	0x3d09a9ce	0.033609204
148	0xbeadde4f	-0.3395867
149	0xbcc46951	-0.023976
150	0xbe01fe9e	-0.12694785
151	0xbe2985c2	-0.16554931
152	0xbdd002ba	-0.1015677
153	0xbae3e9bd	-0.0017388385
154	0xbde70818	-0.11280841
155	0xbdfaf9d7	-0.122546844
156	0x3d975ab2	0.07390346
157	0xbd605d28	-0.05477634
158	0x3bce3903	0.0062934174
159	0x3de461e6	0.11151485
160	0x3e991d0b	0.2990497
161	0xbdb784ec	-0.089609
162	0xbe6166c6	-0.22011861
163	0xbc710a32	-0.014711903
164	0x3e9a274c	0.30108106
165	0x3df14333	0.11780395
166	0xbe3d4443	-0.18483071
167	0x3df38f55	0.11892573
168	0xbd8b0e83	-0.06789877
169	0xbd92ee3d	-0.071743466
170	0xbced3555	-0.028956095
171	0x3dcd7317	0.10031717
172	0xbd8ef6e5	-0.06980685
173	0xbd324fbd	-0.043533076
174	0xbe323d15	-0.17406113
175	0x3dc3499d	0.09535525
176	0x3e398a7c	0.18119234
177	0x3e602690	0.2188971
178	0xbef3e369	-0.47634438
179	0xbd9e935e	-0.07742952
180	0x3e9c7b60	0.30562878
181	0xbdff9c95	-0.124810375
182	0x3c623a0d	0.013807786
183	0x3e58d765	0.21175916
184	0x3d595503	0.05305959
185	0xbea35b19	-0.3190544
186	0xbe6bf10d	-0.23041172
187	0xbe5ce352	-0.21571091
188	0xbdf4baec	-0.11949715
189	0xbe506e2b	-0.20354526
190	0xbe3e9513	-0.18611555
191	0x3e90d73b	0.28289208
192	0xbe122855	-0.14273198
193	0x3e80015e	0.25001043
194	0x3dbcd09d	0.09219477
195	0x3dff6202	0.124698654
196	0xbe251c6d	-0.16124125
197	0x3c0c6249	0.008568355
198	0xbe83dfaa	-0.2575658
199	0x3e24b991	0.16086413

weight f4 [200, 200]
0	0x3e0e8330	0.13917232
1	0xbd20c803	-0.039253246
2	0x3bc5cb81	0.0060362224
3	0xbdc759b2	-0.09733905
4	0x3d0a3c08	0.033748657
5	0xbe99aff7	-0.30017063
6	0x3e778099	0.2417015
7	0x3c311733	0.010808754
8	0xbdb1462b	-0.086559616
9	0xbe159368	-0.14607012
10	0xbe197372	-0.14985445
11	0x3dc24796	0.0948631
12	0xbe0d208d	-0.13781948
13	0xbe821853	-0.25409183
14	0x3de23960	0.110461
15	0x3e163911	0.14670207
16	0xbcefb022	-0.029258791
17	0xbd3dc230	-0.04632777
18	0xbe769691	-0.24080874
19	0xbd1cddb8	-0.038297385
20	0xbe6a4e2c	-0.22881383
21	0xbc19dcd6	-0.00939103
22	0xbd51afef	-0.051193174
23	0x3cad0a2c	0.021123014
24	0xbc0992dc	-0.00839683
25	0xbda7d2c5	-0.08194498
26	0x3cc0ed84	0.023550756
27	0xbdd96e3a	-0.10616727
28	0x3b5bcb9f	0.0033538116
29	0xbe7960fa	-0.243534
30	0xbc51c00f	-0.012802138
31	0xbe8060f3	-0.25073966
32	0xbe34a7d4	-0.17642146
33	0xbe03788d	-0.12838955
34	0x3e11572e	0.14193413
35	0xbdcca586	-0.099925086
36	0x3d5b3428	0.053516537
37	0xbe1ba340	-0.15198994
38	0xbdc1e91c	-0.0946829
39	0xbe21b865	-0.15792997
40	0xbe2b619d	-0.16736455
41	0xbe134285	-0.14380844
42	0xbe0df053	-0.13861208
43	0xbcc2ce3c	-0.02377998
44	0xbd9a86dd	-0.075452544
45	0xbd11bd20	-0.035580754
46	0xbe0f2f75	-0.13982947
47	0xbdf3757f	-0.11887645
48	0x3d1f38f8	0.03887269
49	0xbdf5e4c9	-0.12006528
50	0xbd0e0dc3	-0.034681093
51	0xbcb90ae1	-0.022588195
52	0x3db1c604	0.086803466
53	0x3d29791d	0.04137527
54	0xbdbb3fad	-0.091430046
55	0xbe82ce5d	-0.25548068
56	0xbde671db	-0.11252185
57	0xbd1b85cc	-0.037969396
58	0xbdd1a8a3	-0.10237243
59	0xbd0e8fa2	-0.034804948
60	0xbe2afabc	-0.1669721
61	0x3d79e69b	0.06101094
62	0xbdc48fe6	-0.09597759
63	0x3da89bfe	0.08232878
64	0xbdeac652	-0.11463608
65	0xbe4fea06	-0.20304117
66	0xbce51dac	-0.02796825
67	0xbdccfbb5	-0.10008947
68	0x3afce060	0.0019292943
69	0xbe734014	-0.23754913
70	0x3cd07b18	0.02544932
71	0xbe0f973e	-0.14022538
72	0x3d999dc9	0.07500798
73	0x3cd6d624	0.026225157
74	0x3d72e7a5	0.059302945
75	0xbcfd1f50	-0.03089872
76	0xbe252acb	-0.16129605
77	0xbd50008b	-0.050781768
78	0xbd3ae642	-0.045629747
79	0xbe287ad6	-0.16453108
80	0x3da1641d	0.07880423
81	0x3c7de76c	0.01549707
82	0xbd63640b	-0.05551533
83	0x3d2f1750	0.042746842
84	0xbd341f82	-0.04397536
85	0xbc9ec081	-0.019378902
86	0x3dd79d58	0.10528058
87	0xbe62aeeb	-0.22137038
88	0x3eba7fcb	0.36425623
89	0x3d6f1a9d	0.05837499
90	0xbd4a8813	-0.049446177
91	0xbdc1e5b5	-0.09467641
92	0xbd9a40d2	-0.07531895
93	0xbe8a5a5d	-0.27022067
94	0x3e97ed66	0.29673308
95	0x3b586552	0.0033019376
96	0xbdcb89bb	-0.099383794
97	0x3dfd132b	0.123571716
98	0xbd581469	-0.05275384
99	0x3da3f603	0.080059074
100	0xbd45eae6	-0.04831972
101	0x3e0dc824	0.13845879
102	0xbdf970d0	-0.121797204
103	0xbd8a302c	-0.06747469
104	0xbd3a7a28	-0.045526654
105	0x3d45211c	0.04812728
106	0xbd9546f6	-0.07288925
107	0xbe8e680c	-0.27813756
108	0xbd69c80e	-0.057075553
109	0xbe0c38ce	-0.13693544
110	0xbda70750	-0.081556916
111	0xbe36158b	-0.17781655
112	0x3dbcc425	0.09217099
113	0xbe8b72fc	-0.27236164
114	0xbe5ce7c8	-0.21572793
115	0xbd8867a7	-0.06660395
116	0xbe133e38	-0.14379203
117	0xbdde7b0d	-0.10863314
118	0x3e3997e0	0.18124342
119	0xbdbb912d	-0.091585495
120	0xbc8b66d1	-0.0170168
121	0xbdced30b	-0.10098847
122	0xb9026c71	-0.00012438164
123	0xbd898cf4	-0.06716338
124	0xbd6dc9c3	-0.058053743
125	0x3dc405b0	0.09571397
126	0xbdd2521f	-0.102695696
127	0xbdad2b49	-0.084555216
128	0x3cb3f21a	0.021966029
129	0xbde8729c	-0.11349985
130	0xbe1df0b5	-0.15423854
131	0x3e2de72f	0.16982721
132	0xbd914bd7	-0.070945434
133	0x3cf4c94b	0.02988114
134	0xbcd640fb	-0.026154032
135	0x3df9614f	0.12176763
136	0xbe338e6c	-0.17534798
137	0xbd0e78f3	-0.034783315
138	0xbe9eeffd	-0.31042472
139	0xbe3769c8	-0.17911446
140	0xbd9f929b	-0.07791635
141	0x3dda80a9	0.10669071
142	0xbe558b7f	-0.20853995
143	0xbe434306	-0.19068536
144	0x3dbb92a8	0.09158832
145	0xbdc23271	-0.09482277
146	0x3d896ba7	0.06709986
147	0xbc9e7c58	-0.019346401
148	0xbe129636	-0.14315113
149	0xbe8f06c3	-0.27934846
150	0x3d9e12a9	0.07718403
151	0xbe089809	-0.13339247
152	0x3dabd89e	0.08390926
153	0xbe75146d	-0.23933573
154	0x3d941419	0.07230396
155	0xbd0771a5	-0.033067364
156	0x3e022763	0.12710337
157	0xbd14f0fe	-0.03636264
158	0xbd18d740	-0.037314653
159	0x3e0698a0	0.1314416
160	0xbcb3ee7c	-0.021964304
161	0x3e79117d	0.24323077
162	0xbd785b5a	-0.060633995
163	0xbc7ffc48	-0.015624113
164	0xbe70077c	-0.23440355
165	0xbd4e5f93	-0.050384115
166	0xbd080d5e	-0.033215873
167	0x3e552eda	0.20818654
168	0xbc75a014	-0.014991779
169	0xbd6fa769	-0.058509264
170	0xbc764e8e	-0.015033377
171	0xbe5b1dd9	-0.21398105
172	0xbe322cd5	-0.17399915
173	0x3db44d46	0.08803801
174	0xbd32510c	-0.043534324
175	0xbe48a954	-0.19595844
176	0xbca83942	-0.020535115
177	0xbcd26383	-0.025682217
178	0xbdc0cbbb	-0.094138585
179	0xbe559b15	-0.2085994
180	0x3c01d36f	0.007923945
181	0xbc8fd585	-0.017557869
182	0xbe6a0316	-0.2285274
183	0xbd2fe77d	-0.042945374
184	0xbcaa3fe1	-0.020782413
185	0xbe848bcc	-0.25887907
186	0xbd0a4d8c	-0.03376536
187	0x3c33f6c0	0.010984123
188	0x3d183602	0.03716088
189	0xbe2aebe1	-0.16691543
190	0xbe96b8ce	-0.2943787
191	0xbe5e8de1	-0.2173381
192	0xbe86a3fc	-0.26296985
193	0x3db292d8	0.087194145
194	0xbdaee5f0	-0.08539951
195	0xbdab4676	-0.08363049
196	0x3e1809db	0.1484751
197	0x3ecffb9e	0.40621656
198	0xbda6587e	-0.08122347
199	0x3d379816	0.044822775
200	0xbbf944f4	-0.007607097
201	0xbc98dae6	-0.018659066
202	0x3c9138fd	0.01772737
203	0xbd58121c	-0.052751645
204	0xbd1ade86	-0.03780987
205	0xbc003079	-0.007824057
206	0x3d1d0322	0.038333066
207	0xbd92f266	-0.0717514
208	0xbd212c97	-0.039349165
209	0xbc850bde	-0.01624101
210	0x3c10403b	0.008804376
211	0x3d13cc5d	0.036083568
212	0x3d1808ae	0.037117653
213	0x3ca95001	0.020668032
214	0x3c3e6e6f	0.011623009
215	0xbd1f606e	-0.038910322
216	0xbdb43f68	-0.08801156
217	0xbc082f56	-0.008312067
218	0x3c5d4279	0.013504618
219	0xbc6c8cb3	-0.014437842
220	0xbd0a7c44	-0.033809915
221	0xba8d0ed0	-0.0010761861
222	0xbd5673aa	-0.0523564
223	0xbcc857f1	-0.024455996
224	0xbcabec46	-0.020986687
225	0xbce8cee3	-0.028418964
226	0xbd0e9d05	-0.034817714
227	0xbd150286	-0.03637936
228	0xbd885dcd	-0.06658516
229	0x3d5e8c17	0.05433282
230	0xbda30c47	-0.07961326
231	0xbbe8fc76	-0.007110174
232	0xbd29b22f	-0.041429695
233	0xbc675333	-0.014118957
234	0xbcc878f2	-0.024471734
235	0xbc170b9e	-0.009219078
236	0xbd6f3c33	-0.05840702
237	0xbaeaebb8	-0.0017923033
238	0x3d21c447	0.039493825
239	0x3d4dc959	0.05024085
240	0xbd7b8be2	-0.0614127
241	0xbd6ff7b3	-0.058585834
242	0xbbddbd55	-0.006766955
243	0xbc899bc5	-0.01679791
244	0x3bf95280	0.0076087117
245	0xbc541263	-0.012943837
246	0x3c66eb4a	0.014094183
247	0xbd4854d1	-0.048909012
248	0x3c676b6a	0.014124731
249	0x3d08e74c	0.033423707
250	0x3c8ab5cc	0.01693239
251	0xbd6ec73c	-0.058295473
252	0x3d35a217	0.044344034
253	0x3d1b4f05	0.037917156
254	0x3d328537	0.043584075
255	0x3d76f156	0.06028875
