Vehicles/ModForest_1/ModForest_1_actor_target.pth (torch, 176513 bytes, 5 tensors)

weight f4 [200, 14]
00000000: 4198 76be d12c ed3e 05e3 6bbe e9df 933e
00000010: 6461 47be 3b91 79be e3c1 ec3d 5d74 4ebe
00000020: 2757 a73e 1046 8c3d 12a6 163d 3219 3dbe
00000030: 8bc2 a8bd b613 b9bd f0ae 883c 3a2e 89be
00000040: 88e3 203e d47b b83c eaa8 a1be 59b5 ddbd
00000050: 4ad6 51be 8e40 36be 79ee 85bf d435 debe
00000060: 1add 5e3d c1e9 a23c daea a93e ede0 b93d
00000070: c971 d7be 2856 04be 28d7 c9be 4a51 9d3d
00000080: ba01 f0bc dda7 303e a10b b2bd bf21 413e
00000090: 6a70 5b3e 1ada a0be 3a6b 05bc 7a69 813e
000000a0: b156 b8bd 8812 893d 8285 ddbe 425f 923e
000000b0: 0083 1fbd 6d3b 88be bd4f 513e 9b2b b43e
000000c0: 04b3 8a3c 478b 833e c6cb 5a3e 6858 b1be
000000d0: 695f 1abe 21ff ff3d 2732 f93b 1e09 083e
000000e0: a016 f9bb 5a42 e53c f873 2d3e 50a8 4bbf
000000f0: 3e9e 76bd 81ef c93e 5457 273e 629d ef3d
00000100: 6b3e e13e 0190 43bd 0b23 8fbd 5fb3 69be
00000110: fe19 17be 582f abbe 0504 95bd 9b28 ecbd
00000120: 7fe9 223e 9771 e23c c128 23be ff72 b63d
00000130: 3e4d 8abe 8326 e3be 93c6 49bf 04c0 b03d
00000140: 6a21 b0be 4ec8 9a3e f08a 5ebe 6cd7 b33c
00000150: 7fda 213e e37c f5be 8a95 7dbe 2af3 dcbd
00000160: 545d afbe 388e c8be 2f98 13be 5395 0dbe
00000170: 1999 09bf 1f70 93be f88c 0c3e 31e1 a73e
00000180: 710b aa3e 6131 283e 7339 b5bc d030 bc3e
00000190: 499c 8c3e c222 b5be 003c edbe 37d6 84bd
000001a0: c9e6 123e 2673 2c3d 0270 903d 4c9c 6ebd
000001b0: 732b f53d e1d5 a33e ed5a c5bd 31f9 063d
000001c0: a8c7 80be 470b e33e eb3f a9be 02ac e03d
000001d0: 9722 5abe f7fb 87bc 7bb2 0cbe 0b7f 30bd
000001e0: 1742 bc3d 1365 1dbf c66e 5f3e 820b e73d
000001f0: 6aaa f23d 6ed4 e6bd 569a 04bf c76a 8abe
00000200: 99f3 91be 1ed7 a63d 30ea 19be b3f1 1dbd
00000210: a75c 45bd bce6 8bbe 2778 e23c ced4 b93e
00000220: 2976 a4bc 0024 9cbe eaba b9bd 029c 133d
00000230: 51d5 88be 63a2 dcbd 6711 4b3d 0a83 b13e
00000240: ae7e 4f3d 3fae 473d 7acc a8bc 62d0 72be
00000250: 0af8 00be 5391 403e d099 753e ed0e ee3d
00000260: cc8d 933e 9ab9 7a3e 64b4 dcbd d66a 9a3e
00000270: b2bb bdbe 0c78 2b3c 4dd2 dc3d 1551 79bc
00000280: 5b56 3f3e 7b98 47bc 637f 90be 5f4d 17be
00000290: 5f5e d63e b3b3 afbd 9451 133e f6a2 d7bc
000002a0: aa37 b13d a3b2 083f 7d97 0a3d 8412 c13e
000002b0: 883d ccbd 4b88 033e 7f11 11be f7a8 973d
000002c0: 6512 71be f2b7 c2be aced 643e 4748 883e
000002d0: be66 73bd ed8f b0bc 5eab 8b3d 89f8 a2be
000002e0: 1a61 353e 5816 40be ae29 7b3e 0120 193e
000002f0: d8f8 87be 0a2f a93e 8c61 f5be dec3 38bf
00000300: eb6f a23d cb37 e13c 9764 803e 4e72 573e
00000310: da78 6a3e 2897 3b3d a1ac babd a723 91bc
00000320: b846 97be 5dd6 64be 3599 133e 9469 a73e
00000330: d0d4 24bf 9301 4e3d 2526 af3d 6239 223e
00000340: 80c6 43be 46d2 173d 5425 9ebc bd80 063f
00000350: 4cb2 2a3e cb34 e3bd bbd6 e0ba 18ff c8bd
00000360: f8aa c3bc 31f5 5f3d e4b5 2b3e fb7a e9bd
00000370: 259e afbe 8b33 893e 9fb9 7e3e c625 afbd
00000380: 20e8 17bf d70a 5c3e fb4a ebbe 5ad1 20bd
00000390: 288e 80be d32f 653d da67 983c a8aa 7abe
000003a0: d871 b2be 684b 80be f192 85bd f03d 59be
000003b0: 7275 bdbd 6184 3b3e c475 883e ada3 973e
000003c0: 7cb5 b3bd d093 83bd 3513 cfbd 3ffa 0b3e
000003d0: 21cb 873e fa93 26be b5b3 48bd ad91 5abd
000003e0: 4071 6e3e ee25 f8bd b0de 94be 46ae dcbe
000003f0: 338e 50be 33ca 1abe 5f65 b1be a4de 713e
-0.24081518 0.46323255 -0.2303582 0.28881767 -0.19470745 -0.24371807 0.115604185 -0.20161577
0.3268368 0.06849301 0.03677947 -0.18466642 -0.08240231 -0.09036963 0.01668498 -0.2679308
0.15711796 0.022519983 -0.31574184 -0.10825605 -0.20491901 -0.17798063 -1.0463401 -0.43400443
0.054410078 0.019886853 0.3318699 0.09076104 -0.42079 -0.12923491 -0.39421964 0.0768152
-0.029297698 0.17251535 -0.08693624 0.1886053 0.21429601 -0.31416398 -0.008143241 0.25275785
-0.0900091 0.06692988 -0.4326592 0.285883 -0.03894329 -0.26607838 0.20440574 0.35189518
0.016931064 0.25692198 0.21366796 -0.3463776 -0.15075459 0.12499834 0.0076048556 0.13284728
-0.007601574 0.02798574 0.1693877 -0.795537 -0.060209505 0.3944054 0.16341907 0.1169994
0.43992934 -0.047744755 -0.06989106 -0.22822331 -0.14756009 -0.33434558 -0.07276157 -0.115311824
0.15909384 0.027642054 -0.15933515 0.089086525 -0.27012056 -0.4436532 -0.78818625 0.08630374
-0.34400493 0.30230945 -0.21732688 0.021953307 0.15806006 -0.47946844 -0.24764076 -0.10788567
-0.3425089 -0.39171004 -0.14413522 -0.13826494 -0.53749233 -0.2879648 0.1372565 0.32788995
0.33211854 0.16425087 -0.02212212 0.3675599 0.27462986 -0.3537808 -0.4633484 -0.06486171
0.1434585 0.042102 0.07052614 -0.058254525 0.11971178 0.31999114 -0.09636483 0.03295249
-0.25152326 0.4434454 -0.33056578 0.10970308 -0.21302257 -0.016599638 -0.1373996 -0.043089908
0.09192293 -0.6148235 0.218196 0.11281492 0.1184891 -0.112709865 -0.51798 -0.2703459
-0.28506163 0.08146499 -0.15030742 -0.03856058 -0.048184063 -0.27324474 0.027645184 0.3629517
-0.020075874 -0.30496216 -0.09068854 0.036037453 -0.26725248 -0.1077316 0.049577143 0.34670287
0.05065792 0.04875016 -0.020605315 -0.23712304 -0.1259462 0.18805437 0.23984456 0.116239406
0.2881912 0.24484864 -0.10776594 0.30159634 -0.37057263 0.010465633 0.10782299 -0.015217085
0.18685286 -0.01218235 -0.28222188 -0.14775608 0.41868874 -0.08579197 0.14386588 -0.026322823
0.08653195 0.5339758 0.033835877 0.3770944 -0.09972674 0.1284496 -0.1416683 0.07405274
-0.23542173 -0.38030964 0.2235629 0.26617643 -0.059424154 -0.021553004 0.06819795 -0.31830242
0.17712823 -0.18758523 0.24527618 0.14953615 -0.2655704 0.330437 -0.47925985 -0.7217387
0.07931503 0.027492424 0.25076744 0.21039698 0.22897664 0.04579845 -0.091149576 -0.017717196
-0.29546142 -0.22347398 0.14413913 0.32697737 -0.64387226 0.05029447 0.08552197 0.15842202
-0.1911869 0.037065767 -0.019304909 0.5254019 0.16669577 -0.11094054 -0.0017153838 -0.0981428
-0.023885235 0.054677192 0.16768605 -0.1140041 -0.34300342 0.26797137 0.24875496 -0.085521266
-0.5933857 0.2148851 -0.45955643 -0.039262153 -0.25108457 0.05595381 0.018604208 -0.24479163
-0.3485248 -0.2505753 -0.065221675 -0.21215034 -0.092509165 0.18312217 0.26652348 0.29617062
-0.0877485 -0.06424677 -0.10111085 0.1366968 0.26522163 -0.16267386 -0.048999507 -0.053361584
0.23285389 -0.121166095 -0.29076147 -0.4310171 -0.20366745 -0.15116195 -0.34647653 0.23620087

bias f4 [200]
00000000: 38f2 093e 099a ab3d b333 973c b1e8 2cbc
00000010: 9bd4 13be 4c4b 8d3e 0d20 4c3c 932b 853d
00000020: 4eed d43d 6447 fdbd 7d9c 5dbd 613e 9e3d
00000030: 98dd 21be 853d 03be 37ff 443d 7415 e43c
00000040: 845c fb3c 8389 743c 5934 fe3d d70b 84bd
00000050: 2250 c5bd 285b 38bd 1c6b 0a3e 43ed 94be
00000060: 7493 54be 9cd3 b93d 6241 643c db00 a6be
00000070: 388e 11be f332 91bd 98e0 80bd 2e57 93be
00000080: 6e3f d93c ef26 783e 7293 873d 581b 0bbc
00000090: e129 8abe 3830 89bd 4b4c 20bc b731 dabb
000000a0: 3017 9a3b 7de3 67be cdc3 873e e61b 0f3d
000000b0: 7cf3 2cbd f698 2d3c 1a0e d03c 47df 77be
000000c0: 802d f73d 67d9 6dbe b823 9c3d e0e3 f3bb
000000d0: 77b6 153e 872f c6bd b33c 86bc e84c f63d
000000e0: b617 82bc e229 0d3d 197c 53be 98f8 bb3b
000000f0: 8ca8 42bb 11d2 3cbe 1951 8f3d 2388 2cbe
00000100: 4c08 8bbe 6628 073e c798 2e3e 5ba5 8f3e
00000110: b777 283e 1796 aa3d 52ec d2bd dbad 403e
00000120: fcc0 c7bc 3238 3abe d7d9 76bd 22c1 2fbe
00000130: 6388 cabd ec96 40be de67 25be 3290 703d
00000140: 35b7 623e c07e ecbd 5bbd 84bd a22f 2dbc
00000150: bc57 223d 9761 2dbe 37e4 b0be 8cca 33be
00000160: 7983 38be 2a0f 8dbe 8ffa bf3b 3aa4 02be
00000170: c3f6 2c3e 95c9 8bbe 4f9c 023e af7b babd
00000180: 501b 6ebe fbdd 81be 4fa6 353d 2ff2 eebc
00000190: 74d4 273e 4fe9 643e 018e 8fbe 3fd3 013d
000001a0: f212 dd3c 6697 9a3e 57e0 313e 08e7 813e
000001b0: 1963 40be 5f01 3dbd 7868 c8bd 683e 2fbe
000001c0: 2ad6 343c d58b 043e 91bd dbbd 265d cfbd
000001d0: f782 2fbe 0398 3ebd a185 b9bc 67aa 603d
000001e0: 8c05 8abd 59a1 4dbe ea1f dc3b cfaa 6a3c
000001f0: cf12 7fbe 04e6 233e 573d 603d 18a1 273d
00000200: f4a6 513e a08c 3f3e a2ca ecbd a1bf ef3d
00000210: bf5f bcbd eb31 59be fa62 823e a586 b03d
00000220: a3a1 183e 6fd9 3cbe d5b4 97be bbb9 6ebd
00000230: fb48 97bd 4353 4ebd ebd5 7f3d 9d7a 7e3e
00000240: 697f 43bd dcb9 803e c6f3 9abd 4330 2bbe
00000250: 258b b83d 6b58 d53d 6a78 24be 925b c0bd
00000260: a77f 19bd 1000 69be 4360 c8bc 258f e03d
00000270: 77f9 38bd 6667 1a3e 43bb e1bd 3b37 223e
00000280: 3c74 5dbe ea3f 31bd 7e69 5bbd b5b8 b6be
00000290: d92b d7bc 3b5d 84bd 760a 423b f893 623e
000002a0: 9445 2abc 9e8b a8bc 1322 dc3c 01ba 47be
000002b0: 04ff 5ebe d08a de3d 3cb5 c13d c15c 39bd
000002c0: 7d92 e9be 5de1 053b 219a e5bd deef 68bd
000002d0: 8786 05be ad3c acbe 3dfe ee3d 8115 84be
000002e0: 693e 49be b42a 18be a863 bdbe f80f f23d
000002f0: 7b03 3bbe 206f 2d3e 1bc3 9bbe 6d3f c1be
00000300: d59e a13d 6d6b 6e3e b600 a93d 7dc4 efbd
00000310: 48f2 68be ad64 533e 3692 75be 5a30 c7bd
0.13471305 0.08378989 0.01845727 -0.010553525 -0.14436571 0.2759651 0.012458813 0.06502452
0.10396825 -0.12367132 -0.054104317 0.077267416 -0.15807188 -0.12816437 0.048094954 0.02784226
0.030683763 0.0149253635 0.12412328 -0.06447571 -0.09634425 -0.04500881 0.13517421 -0.29087266
-0.20759374 0.090735644 0.013931604 -0.32422528 -0.14214408 -0.07089796 -0.06292838 -0.2877745
0.026519503 0.24233602 0.0661992 -0.008490406 -0.26985076 -0.0669865 -0.009783815 -0.0066587585
0.004702471 -0.22645374 0.26516572 0.034938715 -0.042224392 0.010595551 0.02539735 -0.24206267
0.12069225 -0.23227464 0.07624 -0.0074429363 0.14620386 -0.09677034 -0.016386366 0.120263875
-0.015880447 0.03446377 -0.20652808 0.005736422 -0.0029702513 -0.18439509 0.0699789 -0.16848807
-0.27154768 0.13199005 0.17050467 0.28055844 0.16451918 0.083294086 -0.10298981 0.1881632
-0.024384014 -0.181855 -0.060266342 -0.17163518 -0.09889295 -0.18807572 -0.16152903 0.058731265
0.221402 -0.11547613 -0.06481429 -0.010570439 0.03963445 -0.16931759 -0.34549114 -0.17557734
-0.18018903 -0.27550632 0.0058587263 -0.1275796 0.16891007 -0.27302232 0.1275494 -0.09105622
-0.23252606 -0.2536467 0.044348057 -0.029168217 0.16389638 0.22354625 -0.28038028 0.0316956
0.026986573 0.30193633 0.17370735 0.25371575 -0.18787803 -0.046143886 -0.09785551 -0.1711365
0.011037389 0.12943967 -0.10729516 -0.101251885 -0.17139803 -0.04653169 -0.022646727 0.05485001
-0.06739339 -0.2008108 0.0067176716 0.0143229505 -0.24909519 0.16005713 0.054746 0.040925115
0.20473844 0.18705988 -0.11562087 0.11706472 -0.091979496 -0.21210448 0.25466138 0.086194314
0.1490541 -0.1844232 -0.2963015 -0.058282595 -0.07386967 -0.050372373 0.062459867 0.24851461
-0.04772893 0.251418 -0.07566027 -0.16717629 0.09010915 0.10417255 -0.1606156 -0.09392466
-0.037475254 -0.2275393 -0.024459964 0.10964803 -0.045159783 0.15078506 -0.110220455 0.15841381
-0.21626371 -0.043273844 -0.053567402 -0.35687795 -0.026266025 -0.06463095 0.0029608286 0.22126758
-0.010392565 -0.020574387 0.026871717 -0.19504549 -0.21776968 0.1086632 0.09458396 -0.045254473
-0.45619574 0.0020428516 -0.112110384 -0.05686938 -0.130396 -0.33640042 0.11669586 -0.25797656
-0.19652714 -0.1486004 -0.36990094 0.11819452 -0.18263046 0.16936922 -0.3042229 -0.37743703
0.07891623 0.23283167 0.08252089 -0.11707399 -0.22748673 0.20643874 -0.23981556 -0.09726019

weight f4 [200, 200]
00000000: 80ae c7be c78a 12bf 75bb b0bd e18e 22be
00000010: 7f30 cb3d 2ba4 a3be 0fb1 8bbe 21ff 2cbd
00000020: 9814 cc3c 40b7 01be f9d1 0fbd 011f bb3d
00000030: 6843 9a3d 612c b2be f202 40bc 8fbe a2bd
00000040: c305 4fbe 3d4c 313e ba11 1bbd aefd 66be
00000050: c9f3 49be 8643 8a3d d539 d8bd edc0 61be
00000060: eb82 a83d 20d5 1cbe aea4 14bc f71a b63d
00000070: a456 cebe 5b05 653e 38f7 433d e3b3 66bd
00000080: deb2 88be a55d 90be 61b6 5cbe 3803 313d
00000090: 0ef4 a23e 56bc b03d 05de 023e 5a12 4b3e
000000a0: adcc 34bd 8932 973e bf14 fbbe e90f 2abf
000000b0: 1498 6fbe c35b 57bc 9706 9bbd 81d2 9f3e
000000c0: 2125 afbe ce4a 6d3e 1c66 0cbd 09ad 4cbc
000000d0: d0ea fdbd 949d a13d 4e2b 5abe 904e 90bc
000000e0: 0492 91bc 984d 84be c6e7 883d ee70 8ebe
000000f0: e80a 4fbe c71d 04be 1563 cdbd 3b55 353e
00000100: 81f3 333d 6c6f 3d3d bdd3 703d 1b05 48be
00000110: 49e5 d1be 470e 453d fb58 0fbd bb34 e43d
00000120: 0098 063e f24f 20be 960b b83e 50db 3cbe
00000130: 065f 503d 77c9 40bf ab46 07be 5406 73be
00000140: f4f6 203c c3cd 6d3d 46e4 bf3d a91a 53be
00000150: 85df 973e a83a aebd be54 2d3e 9d6f 6b3e
00000160: c501 2e3e 1f3f 7fbe 8137 f13d b703 493e
00000170: f55f 50be 6702 a1bc caaa 7dbe 3aee a93e
00000180: 2867 40be b5d9 673f f9d9 6bbe c568 773e
00000190: 4d38 8ebc eed8 d0be a5aa d73e 3d62 023e
000001a0: f296 11bf 54af 58be 8501 d2bd 8ec9 7cbe
000001b0: fb71 a93d 5576 34bf 9956 133e ca68 853e
000001c0: 3b54 c6be 3b3b 9c3d b564 fe3d 6d7a 76be
000001d0: 052b 76bd c1df 143e b4f0 05be 661d 90be
000001e0: b738 b8be 27c8 b1bd 46a8 9c3d 5218 4e3e
000001f0: 35f6 763d 30ff 4c3e fef0 753d 1417 d1be
00000200: 46e4 9dbd 0ab2 90be e73a 80be 938a c6bd
00000210: c6bc 11bc b3e7 903d f36a a53d f557 4fbe
00000220: 86bf ce3d f64b 7b3d 4c1d 0fbe a77e 453c
00000230: 49f7 adbc 7b9e 8d3e 2cbf b03d 54ea 313b
00000240: 4fbb 093e 131a c4be a466 a53e c271 f53d
00000250: 64fb 133e 3980 133e 429c f9bd 4519 aebe
00000260: 03f7 6dbc 58d0 2c3d 0d92 563d 5c82 bc3d
00000270: a3a5 593e bc17 0cbe 8878 19bf edb6 c7bd
00000280: 6540 f33d 4308 3abe b137 903e 0f2a a0bd
00000290: 5c3f d93b 9dff 8cbe 30bc 8bbd f2c5 563d
000002a0: c0bc 753e c150 46be 9f73 e7ba 44da ca3d
000002b0: 6158 e73c 79ba 92be 86a6 9abe ee62 17bd
000002c0: bf7a 25be f940 f5bd f19b f5bc ae9b b6bd
000002d0: 3bc1 96be 9738 ce3d b0a0 0bbe 0d39 16be
000002e0: 6364 08bd 7bb1 533e b6e1 8ebe e908 39be
000002f0: 630d eabe 4247 3b3f c9f4 e63e 68a3 8c3d
00000300: c677 5e3e f14b 7a3d ec8a bb3d 3d01 923d
00000310: 374c a3be 8e8e 1e3c b39b c4be c42c 22bc
00000320: 9b19 f13d 78e2 9b3e 34fd 9d3d 6b8e bf3d
00000330: fed5 a7bc 77d5 623e 37ae 85be 5106 663d
00000340: 5a7e 473e 503f ad3d 4865 8b3d f0d3 0c3e
00000350: 0774 9f3c a49f be3e 812f 473e 6114 ac3d
00000360: b62a 0b3e 7ab7 40bc 8ac6 8d3e 4100 1e3e
00000370: 14f2 173e ca8e 003e e2b6 6f3e a77d 853e
00000380: aa40 88bd ffe2 8c3e 39e0 6c3e 77fa 403e
00000390: 387f 283e 747b 3c3e 1cf1 1cbe c3f2 6e3d
000003a0: be73 8e3e 2f9c 133e f84d 923d fa97 e33d
000003b0: b107 7fbe b63b f33d 58af e23d 12ff 163e
000003c0: 7a84 413e 44db aebe 382b 1c3e 25fa 773e
000003d0: 9266 523e fe63 863e 797a b83d 9038 5cbd
000003e0: 2dc4 c33e 3db2 e93d a9da b53d 025c 25be
000003f0: ae2f 173e 9814 553e 51bf 603e 5e8e 993c
-0.3900032 -0.5724301 -0.086295046 -0.15874816 0.09921359 -0.31961188 -0.27283522 -0.042235497
0.024912164 -0.1266756 -0.035112355 0.09136773 0.07532388 -0.34799483 -0.011719452 -0.079465024
-0.20217042 0.17314239 -0.037858702 -0.22557709 -0.19721903 0.0675116 -0.105579056 -0.22046252
0.082280956 -0.15315676 -0.009072466 0.08891862 -0.40300477 0.22365324 0.047843188 -0.056323897
-0.26698965 -0.28196445 -0.21553947 0.04321596 0.31826824 0.08629672 0.12780006 0.1983122
-0.044140507 0.29530743 -0.49039266 -0.66430527 -0.23397857 -0.013144436 -0.07569616 0.3121529
-0.34208015 0.23173067 -0.034277067 -0.012492427 -0.123983026 0.07891384 -0.21305582 -0.017615587
-0.017769821 -0.2584045 0.06684832 -0.27820534 -0.20219004 -0.12901984 -0.10028664 0.17708294
0.043933395 0.04624884 0.05879568 -0.19533198 -0.40995243 0.04810932 -0.034996968 0.1114287
0.13143921 -0.15655497 0.3594634 -0.18443036 0.05087187 -0.7530741 -0.13210551 -0.23732883
0.009824503 0.058057558 0.093697116 -0.20615639 0.2966272 -0.085072815 0.16926858 0.22991796
0.16992863 -0.24926423 0.11778165 0.19630323 -0.20349105 -0.019654466 -0.24772182 0.33189565
-0.18789351 0.9056657 -0.23032369 0.2416106 -0.01736083 -0.40790504 0.4212238 0.12732787
-0.5687095 -0.21160632 -0.10254196 -0.24686262 0.08273693 -0.7049306 0.14388503 0.2605651
-0.38736138 0.07628485 0.12421552 -0.24070139 -0.06009962 0.1453848 -0.13080102 -0.2814743
-0.3598077 -0.08680754 0.07649283 0.20126465 0.060293395 0.20019221 0.06004428 -0.4083792
-0.07709555 -0.28260833 -0.2504494 -0.096944 -0.008895105 0.07075443 0.080770396 -0.20248397
0.10095124 0.06135174 -0.1397602 0.012054122 -0.021236079 0.27659974 0.08630213 0.0027147727
0.13450359 -0.38301143 0.3230487 0.11984588 0.14451367 0.14404382 -0.12188007 -0.34003654
-0.014524224 0.04219088 0.05238538 0.092045516 0.21254592 -0.13680929 -0.5994954 -0.09751687
0.11877517 -0.18167214 0.2816749 -0.07820522 0.0066298675 -0.27538767 -0.06823003 0.05243487
0.23997784 -0.19366743 -0.0017658359 0.09904912 0.028240385 -0.28657892 -0.30205172 -0.03695958
-0.16160105 -0.11975283 -0.029981585 -0.08916412 -0.29444298 0.100693874 -0.13635516 -0.146702
-0.03329886 0.20673172 -0.2790658 -0.18069805 -0.45713338 0.73155606 0.4510863 0.06867105
0.21725377 0.06110758 0.091573566 0.071291424 -0.31894085 0.009677542 -0.3840004 -0.009898368
0.11772462 0.3044622 0.0771431 0.09353336 -0.020487782 0.22151743 -0.26109478 0.056158368
0.19481793 0.084593415 0.06806427 0.13752723 0.019464506 0.3723117 0.19451715 0.084023245
0.13590512 -0.011762494 0.27690536 0.15429784 0.14838439 0.1255447 0.23409608 0.26072428
-0.06652959 0.27516934 0.23132409 0.18845545 0.1645478 0.18406469 -0.15326351 0.058336984
0.2782268 0.14415048 0.071437776 0.111129716 -0.24905278 0.11876623 0.110686004 0.14745739
0.18898192 -0.3415166 0.15250862 0.24216516 0.2054694 0.26248163 0.09007735 -0.05376488
0.38235608 0.114109494 0.08879597 -0.1614838 0.14764282 0.20808637 0.21947981 0.018744644

bias f4 [200]
00000000: cb1a edbd 14a2 0a3e 4865 12be 694c fe3c
00000010: 70a4 06be 20e3 17be 3af6 c93d 12a5 173d
00000020: f724 a8bd 1d93 0fbd 9658 293d 9e52 003d
00000030: 802f cf3c 7dc1 413d 8087 b8bd eda7 813c
00000040: bd10 86bc 8d7d 543d 5937 d23b 29e9 02be
00000050: bccc ccbd a948 53bc feed 90bd 365f 97bd
00000060: a298 d7bd de6e 5b3d 0144 853d a2a4 d13b
00000070: 17f4 70bd 37fd 583d cee0 33bd fe2a d1bd
00000080: 8469 363e 222c 8abd 82a4 bcba e41b 71bb
00000090: dbc5 e8bd b946 e33b 5e96 1cbc acb8 913d
000000a0: 7187 ccbd 992f 46bd b003 bcbd fc6c 14be
000000b0: b978 cbbc ba7b 57bd e169 cbbc fef5 97bd
000000c0: a1fa cfbd 826f 6e3c 83f9 bd3c 7d46 fd3c
000000d0: 2b54 36be 221b d5bc 4bba a4bd 8e47 13bd
000000e0: 4d24 9c3d 3dff 8abd 0678 feba 05f3 88bd
000000f0: 61e8 09bd 1b36 573d 521e 683c 369e 99bd
00000100: 4ab2 ca3c 7154 fb3c a615 efbc c5ec cabd
00000110: 3927 9ebc e11a 493d 402d 93be ded8 2cbe
00000120: 6304 423c d231 21be 3920 47bd 0507 8ebb
00000130: 802f b6bd 0896 753d f130 b93d 6411 79bd
00000140: b27e ecbc efa0 cabd cb87 de3a 2752 d63d
00000150: 3963 40bd 1a76 d0bd 9d7e 88bd a414 99bd
00000160: a81b 3fbd c5cb 2cbe 3c73 c23d c581 9bbd
00000170: 616e 44bd b733 5fbd d269 54bd 3444 76bd
00000180: 57ec 153e deac d7bc 589a 29be 425a f5bd
00000190: df53 a5bd 2b0d e5bc 6788 acbd 9418 07be
000001a0: f738 2dbd 8e9f a23d da94 8dbc 649f 72bd
000001b0: 0f3f 80bc 81ec 913d c937 ed3d 7089 10be
000001c0: 9800 39bd ee07 72bd 7f0d 3e3d 7aef 03be
000001d0: 8c97 3ebe 9dc9 88bd a70e 80bd ebcf 69bd
000001e0: 48c9 c23b 1074 483c 6396 98bd ba28 66bd
000001f0: 0ab3 9d3d 85b5 57bc 6eba 293d 065f 90bc
00000200: 2899 1fbe 58dd 4dbd 66ee 9bbd ffb6 2ebd
00000210: 52eb e33c b360 6bbd 8abb d6bc e10c 4ebd
00000220: 0246 a43d 0c84 72bd 561b a73c 1e8a e63d
00000230: 65bf 8ebd fb8f 863d 1d19 9b3a 7e72 c3bd
00000240: 8009 34bd 090f 47bd cd52 8ebd f35b 53bd
00000250: e2ac aebc 3165 4bbd d2f5 5bbd cb90 bbbd
00000260: 806e b8bd 4de6 e43c bc1a 793d cc1d f5bb
00000270: d829 c83c 75a1 8dbd 04d5 f4bc 467b 1dbd
00000280: ce73 94bd 868f c13b 3de2 e33d bcb1 e83b
00000290: f40d 2d3e 8860 afbd 09e9 c4bc b6d4 ab3b
000002a0: db5c 65bd 0291 debb 7b72 f0bb bc36 543d
000002b0: 1fcd afbd 7f12 26bc 60d3 a1ba c59b 89bd
000002c0: ff4f a2bd 6f05 2abd 6760 eabd c664 053d
000002d0: 77cf afbd 6e37 11be 4c5f 733d 79da c2bd
000002e0: 7d7b 88bd 1788 e0bd 4d4e b9bd f1ef d03c
000002f0: 0a98 743d 7529 08bd 28e8 b4bd 2239 50bd
00000300: 1429 0abc c62c fdbc d2bc bdbd 1eee 1dbd
00000310: 55a4 04be 71f6 3ebc 3549 0abd 3fd8 1f3c
-0.11577376 0.1353839 -0.14296448 0.031042295 -0.13148665 -0.14832735 0.09861417 0.037022658
-0.082101755 -0.035052408 0.041344248 0.03132879 0.025291204 0.047303665 -0.090102196 0.015827144
-0.016365403 0.051877547 0.0064152894 -0.12784256 -0.099999875 -0.0128957415 -0.070766434 -0.07391207
-0.10527159 0.053572528 0.06507111 0.0063977996 -0.058826532 0.05297586 -0.043915562 -0.10213278
0.17813689 -0.06746699 -0.0014392289 -0.0036790306 -0.11365863 0.006935921 -0.009557335 0.071153015
-0.09986771 -0.048385236 -0.09180391 -0.14494699 -0.024837838 -0.05260823 -0.02483076 -0.07419966
-0.101552255 0.014552953 0.023190266 0.0309174 -0.17805545 -0.026013914 -0.08043345 -0.03595691
0.07624111 -0.06786964 -0.0019414432 -0.06686977 -0.03366888 0.052541833 0.014167385 -0.075008795
0.024743218 0.030679913 -0.029185127 -0.099084415 -0.019305812 0.0490979 -0.2874546 -0.16879603
0.011841866 -0.15741661 -0.048614714 -0.004334333 -0.08895779 0.059957534 0.09042538 -0.0608076
-0.028869007 -0.09893977 0.0016977725 0.10464888 -0.046969626 -0.10178776 -0.066647746 -0.0747464
-0.046657234 -0.16874607 0.094946355 -0.07593111 -0.047956828 -0.05449268 -0.05185873 -0.060123637
0.14640938 -0.026327547 -0.16562784 -0.11980106 -0.08072638 -0.02796038 -0.08424454 -0.1319297
-0.042290654 0.07940589 -0.017282892 -0.059234038 -0.015655069 0.07125188 0.11582906 -0.14114928
-0.045166582 -0.059089594 0.04639959 -0.12884322 -0.18612498 -0.0667908 -0.06252795 -0.05708305
0.0059444048 0.012234703 -0.07450559 -0.056191184 0.077001646 -0.013165836 0.04143756 -0.017623436
-0.15585768 -0.050259918 -0.0761383 -0.042654987 0.02782217 -0.057465266 -0.026212472 -0.05030525
0.080211654 -0.05920796 0.020398777 0.112568125 -0.06970099 0.06570431 0.0011833046 -0.09543322
-0.043954372 -0.048598323 -0.06949387 -0.05160136 -0.021322671 -0.04965705 -0.05370123 -0.091584764
-0.09005451 0.027941847 0.06081651 -0.0074803587 0.024434015 -0.06915561 -0.02988673 -0.03844764
-0.072486505 0.005907002 0.11127136 0.0071012657 0.16899854 -0.08563334 -0.024036901 0.005243863
-0.055996757 -0.0067921886 -0.007337866 0.05181001 -0.085840456 -0.010136246 -0.001234632 -0.06719164
-0.07925414 -0.041509088 -0.114441685 0.03256681 -0.08584493 -0.14181301 0.059417054 -0.095143266
-0.066641785 -0.10963457 -0.09048138 0.025505038 0.05971531 -0.03324266 -0.08833343 -0.050835736
-0.008432645 -0.030905139 -0.0926453 -0.038557164 -0.12953313 -0.011655436 -0.033761222 0.009756147

weight f4 [1, 200]
00000000: 4915 b1be b0d3 1a3e 8980 abbe 8f52 5abe
00000010: 4abd cbbe 95ac 9fbe 89e0 3fbe 543b 88be
00000020: a8b7 babb 1172 59bd 9784 a63f cd82 1fbd
00000030: 7152 4bba 00f2 10be e0d1 42bc af45 223f
00000040: 9e70 9b3b beb9 7c3e 3b42 a23e 3fcb c6bd
00000050: 583a 93be 561a 4cbf 5c51 023d 6ee6 11bc
00000060: 67fc ba3c 8b9e d7be ca21 41be fd98 99be
00000070: f637 60bf 39b5 42be 2b6c 6a3e 8f39 c1bd
00000080: bb70 063e 53ad 313f 380d f9bf ee21 9fbb
00000090: 2e01 c13e 5043 debe 4c39 f33b f608 25bd
000000a0: 52ed 0c3e 074a 393d 5c1c 8f3c f505 54be
000000b0: eef2 2aba e1e1 d03a e8e4 403d 4a57 d5bc
000000c0: 9de7 1cbd 5c70 013d 81b1 e9be 4c0d 12bd
000000d0: 1872 54bc b057 c7b9 0cc5 753e 073d b73c
000000e0: cab0 7fbe 1e46 803c 38a8 383e 48c2 bf38
000000f0: b5dd a8bb b089 143f 7efb ad3c 7db8 1b3d
00000100: cada d33e 2dcc b7be 3870 f4bb ed9a 033f
00000110: ca69 133e 1f50 dcbd 4b20 90bf e6b2 9abe
00000120: 3e51 1dbb 9db7 973e 37c4 343d 8c43 033c
00000130: 6aa4 d1bb 9a56 41be b2e3 82be c41d 053d
00000140: 4cff 32be 8aa0 97bd c5b2 24bd babe 26bf
00000150: 9b11 7dbc 4a7f 33be 6836 423d 7f33 813e
00000160: 6c88 35bd 5ddd 8ebe a4dd 1ebe 0f15 66bc
00000170: f170 c8bc eaa4 53bd 4b44 923d 5431 023d
00000180: 0e6e 8ebf 9a04 28be ec6e 83be 1d9c a23e
00000190: 55df 17bd 34cd 0dbc cbd4 703c 59c6 25bf
000001a0: 2323 f53b db4d 8b3d 601d 723f 8b8e eabc
000001b0: f442 1cbe 7df0 9abf 31f3 33be d455 9c3d
000001c0: cde9 123d 38ca 1dbf 5551 94bf 3371 753e
000001d0: f35e 63bf 0d34 10bd 1c5e 03bc 2ab8 55bc
000001e0: 48df cf3c 992e c23c 2a4f 693e d316 e53e
000001f0: 4397 27bd eecf f3be ad0e 9dbb f702 363d
00000200: d01b 94bf 34f8 1dbe 170b 31bd 167f a63c
00000210: 5cbb 013d 9e61 2abd 084e c93c fa19 e03c
00000220: fbad 03c0 790c dc3b 3c54 013d 8148 d0bd
00000230: e6b8 a6bc b0ab c0be d875 33bc 4063 c73c
00000240: cd9f 163d 80e4 4e3c df7e 22bc 4e66 df3c
00000250: b656 2b3e 9060 c53c c39b f03c f173 e339
00000260: e7b9 aa3c e577 2bbe 63cb 8abe 84ab 87be
00000270: bc48 853c 728b 673d adb4 123b c503 1abd
00000280: cecc db3c d510 93bd 127f c7bf e38c f0be
00000290: b869 c6bf dd01 9fbc a244 653d b841 37bc
000002a0: 58aa 3d3c d899 c63b f99d 123f ae39 a3be
000002b0: 9bf8 fc3c 85eb 1c3d f29e f0bf cdc1 08bc
000002c0: 4956 513d 2f88 a83c daae 2ebf a772 823e
000002d0: 6ea0 253d 73b0 7e3e ff58 303e c0d7 cdbd
000002e0: a69a 2abd 8d8e cebf 7872 7ebf db26 eebc
000002f0: 8f0d 69bc 5b6d f53b c94c 5dbd 38ab cd3c
00000300: b7f0 a33f e4a0 97bc 6ecf cabf b89f b83c
00000310: 87ab 583e e986 17bf 4390 743c 29e5 9c3e
-0.34586552 0.15119815 -0.33496502 -0.21320556 -0.39792854 -0.31186357 -0.18737997 -0.26607764
-0.005698163 -0.053087298 1.3009213 -0.0389431 -0.000775612 -0.14154816 -0.011890858 0.6338758
0.0047436496 0.2468023 0.31691155 -0.09706735 -0.2875545 -0.79727685 0.03181587 -0.008905036
0.022825433 -0.42113146 -0.18860546 -0.29999533 -0.8758539 -0.19014443 0.22892825 -0.094348066
0.13128941 0.69405097 -1.9457159 -0.0048563397 0.37696213 -0.4341073 0.007422602 -0.04029175
0.13762406 0.045236614 0.017469577 -0.20705397 -0.00065211847 0.0015936458 0.047093302 -0.0260426
-0.03830682 0.031601295 -0.45643237 -0.035657212 -0.012966655 -0.0003802157 0.24000949 0.022367967
-0.24969783 0.015658434 0.1803292 9.1437774e-05 -0.0051533827 0.58022594 0.021238085 0.03801774
0.4137786 -0.3589796 -0.0074596666 0.51408273 0.14395824 -0.107574694 -1.1259855 -0.30214614
-0.0024004723 0.29632273 0.044132438 0.00801171 -0.0063977735 -0.18880692 -0.25564343 0.03249909
-0.174802 -0.07403667 -0.04020955 -0.65134776 -0.015446092 -0.17529026 0.047415167 0.252346
-0.044319555 -0.27903262 -0.15514237 -0.014043107 -0.024467917 -0.051670946 0.07141932 0.031785324
-1.1127336 -0.16408005 -0.25670564 0.3175973 -0.03707822 -0.008654881 0.014699171 -0.6475578
0.0074809953 0.06801959 0.9457607 -0.028632423 -0.15259916 -1.2104641 -0.17573239 0.07633558
0.0358675 -0.61636686 -1.158732 0.23968963 -0.88816756 -0.03520589 -0.008018043 -0.013044396
0.025375023 0.02370386 0.22784105 0.44743976 -0.04091574 -0.47619575 -0.0047930093 0.04443642
-1.1570988 -0.15426713 -0.043223467 0.020324271 0.03167282 -0.041597 0.024573341 0.027356137
-2.057494 0.006715354 0.031574473 -0.10170079 -0.020351838 -0.37630987 -0.010953389 0.024339318
0.03677349 0.012627721 -0.009917944 0.027270462 0.16732296 0.024093896 0.029371148 0.00043383197
0.020840598 -0.16744955 -0.27108297 -0.26498044 0.016270034 0.05652947 0.0022385523 -0.03760125
0.026831057 -0.07180945 -1.5585654 -0.46982488 -1.5501013 -0.019410068 0.055973656 -0.011185102
0.011576258 0.00606082 0.572723 -0.31879944 0.030880263 0.038310546 -1.8798506 -0.008346987
0.05110768 0.02057275 -0.6823555 0.25478098 0.0404362 0.24871998 0.1722145 -0.10050917
-0.04165139 -1.6137253 -0.99393415 -0.029071262 -0.014224424 0.007489843 -0.054028306 0.025106058
1.2807835 -0.018509336 -1.5844553 0.022537097 0.21159182 -0.5919023 0.014926973 0.30643585
