Vehicles/ModRepeat_forest_3/ModRepeat_forest_3_critic.pth (torch, 353498 bytes, 10 tensors)

weight f4 [200, 15]
1.1007183 -0.50091 -0.14886098 0.31135967 -1.0102654 -0.06434969 0.7771661 0.047410417
-0.89940995 -0.27489084 -0.6671423 0.1395275 -0.23072726 0.55551493 0.43656918 0.91156834
-0.8236086 0.32924935 -0.14910734 -0.63925755 -0.99707466 -0.99571437 0.3547043 -0.18441217
-0.59956676 -0.22293065 0.48464465 0.5507173 1.0822067 0.4536888 0.5290484 -0.3408678
-0.030180993 -0.12201846 0.26960504 0.5195314 1.0628444 0.5336401 -4.1996207 0.20219581
-0.33362946 0.121359944 0.08670589 0.18280508 -0.38120392 0.040369865 -0.73576295 -0.059382863
0.54849887 -0.17573312 0.2932054 0.45327348 -0.6895153 0.41290843 -1.6811293 0.86412543
0.13324355 -0.11128998 -1.5970184 0.8768569 -1.1670434 0.38204 1.249264 -0.4700743
-0.15549043 0.10278995 -0.7425229 -0.72628665 -0.33337408 0.41581437 -0.9262961 -0.46189427
0.11220326 -0.30986115 0.52470136 0.8624253 -0.99866295 -0.5584712 0.28673702 -0.014152984
0.4017362 1.0220491 -0.93168133 -0.42190117 -0.26607516 -0.54534805 -1.1797993 -0.62818015
-0.03232084 -0.33822003 0.06623323 0.5729586 0.22710457 -0.36299247 -0.3163217 -0.123023905
-0.038411308 0.07796601 -0.06658756 -2.003993 0.36834052 0.8448951 0.8129915 0.7680412
0.40474203 0.34605694 -0.2441971 0.2765115 0.39732024 -1.0373871 -1.0436891 -0.69203174
-0.3783648 0.80100864 0.42389554 -0.25478408 -0.05040745 -0.042288918 -0.18392408 -0.52015495
-0.028319284 -0.04807499 0.2536115 0.13923006 0.83319795 0.5204144 1.0731853 0.20408793
-1.5598572 0.30788442 -0.41709092 -0.35605654 -0.3359328 -0.32998183 0.06075323 0.35288638
-0.3461614 0.48068687 -0.25619406 -1.2036201 -1.5373486 -1.2935117 0.024016771 0.48292807
0.47132275 -0.55441666 -0.98449844 0.17473668 -0.09841766 -0.39195654 0.16043805 0.29460895
0.721177 -0.9814972 -0.78488725 -0.29426605 -0.40652856 -0.96328425 0.53504944 -0.24247496
0.007880447 0.36149523 0.44084397 1.0324987 0.09188326 0.14023969 0.36640453 0.40528005
-0.016746104 1.0220068 -0.032537952 0.43861765 -1.0295815 -1.7889806 -0.1258508 -0.6161202
1.6547668 -0.03616828 -0.5801034 -0.3975261 0.39843103 -0.52977383 0.2626108 -0.9539552
0.032926347 -0.1683918 -0.31089032 0.14107546 -2.8917904 -0.06419134 0.17965367 -0.22960624
0.15421078 0.11557967 -0.64398026 -0.18555547 -0.20035376 0.004851328 0.23822245 -0.26187184
0.18520235 1.0343249 0.83167785 -0.8830643 0.06421852 -0.8877355 0.008747656 -0.03427313
0.20542075 -0.15499432 0.7213088 -0.5190711 -0.33657786 0.20286638 -0.72216 -0.46085963
-0.5467555 0.08269525 -1.4300271 -1.9103237 0.49957797 -0.21571587 -0.028171524 1.3292652
0.3200279 -0.1771407 -0.14952253 -0.2887015 0.5078464 0.999649 1.2002242 0.5413464
0.008450474 -2.3847697 0.15493774 0.25728422 -0.031183189 0.08483625 0.19309531 0.02543788
-0.10514958 0.12814073 -0.5333683 0.5926618 2.1185732 1.0043871 0.37872797 -0.35216942
-0.6915281 -0.007264806 0.049544957 -0.10838291 -0.157363 0.0149190705 0.31020218 -0.38100967
00000000: 56e4 8c3f a33b 00bf 036f 18be 896a 9f3e
00000010: 6050 81bf c5c9 83bd 5cf4 463f 6d31 423d
00000020: bb3f 66bf 7ebe 8cbe d6c9 2abf 4ce0 0e3e
00000030: c443 6cbe 3a36 0e3f ff85 df3e 8b5c 693f
00000040: 03d8 52bf 5f93 a83e 98af 18be 62a6 23bf
00000050: 4940 7fbf 23e7 7ebf cd9b b53e 8bd6 3cbe
00000060: 357d 19bf ef47 64be 5823 f83e cffb 0c3f
00000070: c085 8a3f e649 e83e b76f 073f 3986 aebe
00000080: 213e f7bc d0e4 f9bd ac09 8a3e 0300 053f
00000090: 490b 883f a39c 083f 4b63 86c0 6b0c 4f3e
000000a0: 7bd1 aabe 908b f83d dc92 b13d 4131 3b3e
000000b0: 292d c3be df5a 253d f65a 3cbf 723b 73bd
000000c0: 6c6a 0c3f 62f3 33be 051f 963e 7613 e83e
000000d0: 1384 30bf bc68 d33e 3f2f d7bf 5337 5d3f
000000e0: ff70 083e 00ec e3bd 196b ccbf b279 603f
000000f0: ae61 95bf bf9a c33e e2e7 9f3f 94ad f0be
00000100: e238 1fbe 8a83 d23d fb15 3ebf eced 39bf
00000110: 02b0 aabe 9fe5 d43e be21 6dbf 687d ecbe
00000120: d3ca e53d 1fa6 9ebe d452 063f e8c7 5c3f
00000130: 60a8 7fbf f8f7 0ebf 32cf 923e ebe1 67bc
00000140: 5eb0 cd3e 81d2 823f ab82 6ebf 6e03 d8be
00000150: 013b 88be ee9b 0bbf aa03 97bf 6ad0 20bf
00000160: db62 04bd 2d2b adbe 4aa5 873d 6aad 123f
00000170: 1a8e 683e 26da b9be ebf4 a1be f5f3 fbbd
00000180: 2d55 1dbd a5ac 9f3d 0f5f 88bd 6c41 00c0
00000190: 2197 bc3e 0c4b 583f 3620 503f 599e 443f
000001a0: 593a cf3e 602e b13e ce0e 7abe ea92 8d3e
000001b0: 8f6d cb3e 1ac9 84bf 9b97 85bf fe28 31bf
000001c0: 08b9 c1be e70e 4d3f d608 d93e 0f73 82be
000001d0: 0b78 4ebd 2537 2dbd 9856 3cbe e028 05bf
000001e0: d8fd e7bc 48ea 44bd 5ed9 813e 5392 0e3e
000001f0: 764c 553f e139 053f 235e 893f 6dfc 503e
00000200: 67a9 c7bf 07a3 9d3e f18c d5be 0b4d b6be
00000210: 62ff abbe 61f3 a8be 61d8 783d 86ad b43e
00000220: 113c b1be 971c f63e de2b 83be 3910 9abf
00000230: d7c7 c4bf cb91 a5bf d2be c43c 5942 f73e
00000240: 3751 f13e 40ee 0dbf 1708 7cbf 2cee 323e
00000250: 338f c9bd 87ae c8be df49 243e fcd6 963e
00000260: 0e9f 383f 6743 7bbf 5fee 48bf 0aaa 96be
00000270: 8324 d0be cc99 76bf 00f9 083f 5b4b 78be
00000280: fe1c 013c e715 b93e 4db6 e13e eb28 843f
00000290: 4a2d bc3d fe9a 0f3e 6099 bb3e de80 cf3e
000002a0: 202f 89bc 1ed1 823f 8446 05bd 7e92 e03e
000002b0: 54c9 83bf 51fd e4bf 08df 00be 0eba 1dbf
000002c0: 66cf d33f 3125 14bd a881 14bf 8a88 cbbe
000002d0: 27ff cb3e 429f 07bf ec74 863e 6836 74bf
000002e0: c7dd 063d e66e 2cbe 042d 9fbe 1676 103e
000002f0: 1813 39c0 c076 83bd 22f7 373e e61d 6bbe
00000300: 6ee9 1d3e 09b5 ec3d e4db 24bf 4102 3ebe
00000310: 8929 4dbe e4f7 9e3b 96f0 733e 1114 86be
00000320: afa5 3d3e c264 843f d7e8 543f 8110 62bf
00000330: 0085 833d a242 63bf 5452 0f3c fb61 0cbd
00000340: d159 523e d5b6 1ebe b2a7 383f d8e1 04bf
00000350: ef53 acbe 34bc 4f3e 7adf 38bf cbf5 ebbe
00000360: 2bf8 0bbf 215c a93d 210b b7bf 7d85 f4bf
00000370: afc8 ff3e 9fe4 5cbe f8c7 e6bc 5d25 aa3f
00000380: b2da a33e 5f64 35be 6f1c 19be afd0 93be
00000390: 3902 023f ffe8 7f3f f2a0 993f ad95 0a3f
000003a0: db73 0a3c 11a0 18c0 00a8 1e3e c2ba 833e
000003b0: e373 ffbc a1be ad3d c7ba 453e 1a63 d03c
000003c0: aa58 d7bd 5337 033e d38a 08bf afb8 173f
000003d0: b496 0740 c28f 803f a2e8 c13e 8d4f b4be
000003e0: fc07 31bf 9c0d eebb a7ef 4a3d dcf7 ddbd
000003f0: c423 21be 1e6f 743c d2d2 9e3e b313 c3be

bias f4 [200]
-0.15251045 -0.41740957 -0.25204754 -0.27909487 0.44545007 -0.19601315 0.46194842 -0.82755923
0.15696535 -0.13903156 0.02576304 -0.21816808 0.26147828 0.31551296 0.45703274 -0.067707054
0.050993618 -0.27515754 -0.24632172 -0.62765044 0.45644665 -0.015534327 -0.38672334 -0.50298494
0.4183213 -0.1054558 -0.31097454 -0.16620784 -0.65510696 0.5253396 -0.10345953 -0.68973404
0.19749425 -0.7509884 -0.33784625 -0.23686297 -0.04163198 -0.72234106 0.2787465 0.2293892
-0.39793766 -0.10915742 -0.09328041 -0.32209492 -0.67643064 -0.4764305 0.0025926314 0.5327364
0.13309002 -0.0766681 -0.68444157 -0.60519516 0.12690632 -0.3958431 0.29318476 -0.34872296
-0.7447102 -0.25674725 0.10771597 -0.09903341 -0.11637464 -0.045667976 -0.07428725 -0.30761147
-0.4210054 -0.47412735 0.2775619 0.043660905 -0.49574345 -0.19104896 -0.13481471 -0.37291577
-0.0034946676 0.28669205 0.30821294 0.090971224 -0.75890094 -0.3238148 -0.16811419 -0.09084546
-1.128747 0.35106596 -0.10045343 0.13578017 0.17617412 -0.0759575 -0.8314871 0.013079277
-0.30440873 0.31018552 -0.674879 -0.4910102 -0.36927265 0.64573264 -0.5070338 -0.30769765
-0.46700266 0.45309275 -0.16998212 -0.26410076 -0.3162334 -0.4101603 0.28547916 0.24861725
-0.019201752 0.4856366 0.1730694 -0.2883195 -0.5314974 -0.37493056 0.2091155 -0.19275963
-0.61745423 0.054374933 0.4407596 -0.18437545 -0.30443192 -0.48929444 -0.021522064 -0.3138519
-0.4565058 -0.022930203 -0.58496565 -0.1783695 -0.59190583 -0.10113732 0.23719554 0.2998451
-0.20980725 -0.2815146 -0.24585587 -0.36087483 -0.5076565 -0.45716673 0.3787143 -0.30610162
-0.2333812 -0.11841922 -0.24523811 -0.16342509 -0.0993042 -0.37725127 0.07069487 -0.47433433
0.2880734 0.15401225 0.122943066 -0.078235134 0.026272599 0.2533985 -0.2835831 0.4645876
-0.3110833 0.17325519 -0.48906574 0.61112124 -0.41259918 -1.2313759 -0.17129721 -0.6869351
-0.08739906 0.22074702 0.92535347 -0.3760262 0.1474271 0.027490355 -0.5575322 -0.54328316
0.160437 0.7983936 -0.36500883 0.5769437 -0.3967039 -0.1570776 -0.29843324 0.74133635
-0.48147213 -0.015542595 0.08469084 0.10584116 0.23180543 -0.26810265 -0.3421753 -0.36007476
-0.2507129 0.2947985 -0.36164692 -0.5459462 -0.17180218 -1.0038841 -0.006337131 0.19186497
-0.6165997 -0.04119436 0.9323601 -0.5353765 0.17873146 0.18393381 -0.53227746 -0.1399854
00000000: b32b 1cbe b5b6 d5be 600c 81be 86e5 8ebe
00000010: 0812 e43e acb7 48be 8184 ec3e ecda 53bf
00000020: 86bb 203e 4a5e 0ebe 030d d33c 7467 5fbe
00000030: 7be0 853e ea8a a13e 3200 ea3e ffa9 8abd
00000040: afde 503d 73e1 8cbe c33b 7cbe b3ad 20bf
00000050: 60b3 e93e b183 7ebc 9a00 c6be 9fc3 00bf
00000060: 362e d63e 36f9 d7bd 0e38 9fbe 6332 2abe
00000070: 17b5 27bf a87c 063f 97e2 d3bd 6992 30bf
00000080: ef3b 4a3e c740 40bf 2ffa acbe 358c 72be
00000090: 4c86 2abd 58eb 38bf dcb7 8e3e 01e5 6a3e
000000a0: 7cbe cbbe ed8d dfbd cd09 bfbd a0e9 a4be
000000b0: 8f2a 2dbf b3ee f3be 23e9 293b 6a61 083f
000000c0: c048 083e 2a04 9dbd 9037 2fbf 12ee 1abf
000000d0: bbf3 013e f2ab cabe 501c 963e d18b b2be
000000e0: 54a5 3ebf 6074 83be 319a dc3d 07d2 cabd
000000f0: d455 eebd 580e 3bbd ea23 98bd 407f 9dbe
00000100: 058e d7be d2c0 f2be 981c 8e3e c7d5 323d
00000110: 16d2 fdbe 57a2 43be de0c 0abe d1ee bebe
00000120: cb06 65bb 4dc9 923e 16ce 9d3e 1f4f ba3d
00000130: 5547 42bf 0ecb a5be 2026 2cbe 2f0d babd
00000140: c87a 90bf ebbe b33e 87ba cdbd f509 0b3e
00000150: fd66 343e 9b8f 9bbd 57dc 54bf 774a 563c
00000160: 76db 9bbe a3d0 9e3e dfc4 2cbf b065 fbbe
00000170: 4e11 bdbe bc4e 253f f8cc 01bf 8c8a 9dbe
00000180: f91a efbe c6fb e73e cb0f 2ebe 3738 87be
00000190: 58e9 a1be 8800 d2be 532a 923e 8595 7e3e
000001a0: fe4c 9dbc 5ca5 f83e 1b39 313e 9d9e 93be
000001b0: 3710 08bf e6f6 bfbe 6022 563e c862 45be
000001c0: 7b11 1ebf 40b8 5e3d 3eab e13e ebcc 3cbe
000001d0: 80de 9bbe cd84 fabe 0a4f b0bc 32b1 a0be
000001e0: 21bb e9be 1fd8 bbbc 4fc0 15bf 7fa6 36be
000001f0: 2487 17bf 1521 cfbd 63e3 723e 4c85 993e
00000200: b6d7 56be af22 90be a4c1 7bbe 96c4 b8be
00000210: c7f5 01bf c211 eabe d7e6 c13e 5ab9 9cbe
00000220: 7bfb 6ebe c785 f2bd b31f 7bbe e858 27be
00000230: 0060 cbbd 1427 c1be 79c8 903d f3db f2be
00000240: 5b7e 933e 63b5 1d3e 93c9 fb3d be39 a0bd
00000250: a239 d73c 73bd 813e ce31 91be 6dde ed3e
00000260: 4f46 9fbe cf69 313e d366 fabe 7172 1c3f
00000270: 3340 d3be ba9d 9dbf 8968 2fbe fbda 2fbf
00000280: 47fe b2bd 820b 623e f7e3 6c3f 8286 c0be
00000290: 21f7 163e 7433 e13c 6eba 0ebf 9b14 0bbf
000002a0: 9949 243e 8663 4c3f 70e2 babe 95b2 133f
000002b0: c61c cbbe f3d8 20be 3ecc 98be 38c8 3d3f
000002c0: 8483 f6be 5ea6 7ebc 6472 ad3d 40c3 d83d
000002d0: 675e 6d3e c044 89be 9a31 afbe b85b b8be
000002e0: 715d 80be d4ef 963e c929 b9be 21c3 0bbf
000002f0: e9ec 2fbe 467f 80bf b5a7 cfbb 4078 443e
00000300: 7ad9 1dbf 6bbb 28bd 27af 6e3f 6f0e 09bf
00000310: 6105 373e 2559 3c3e 5643 08bf 5558 0fbe

weight f4 [200, 200]
-0.6563798 0.9867701 -0.26210627 0.06414375 -0.22663724 0.708922 -0.08251206 -0.95578855
-1.5063452 -0.009611161 -1.0623229 -0.9138009 0.047299307 -0.24750295 0.60071003 -0.6086956
0.20688543 -0.007853901 -0.5927941 -0.12766223 0.34118453 0.15953833 -0.42836237 -0.053390052
-1.1168014 -0.40594077 -0.53172165 0.103771456 0.107790194 -0.62708265 -1.3975453 -0.26855323
0.047736872 -0.3766427 -0.2250241 -0.0005740148 -0.2861211 -0.19552636 -0.11105991 -0.10986642
-0.12766007 0.033481456 0.24287122 -0.037496317 -0.22761069 -0.31629586 -0.32325986 -0.01319238
-0.43103096 -0.26971182 -0.7028243 0.10033522 0.17556462 -0.39092803 0.15711631 0.22992998
-0.06432849 -0.01207396 0.23824751 0.11587775 -0.051721036 -0.101355106 0.1899095 -1.6324426
-0.21335629 0.6051093 -1.0465131 -0.33174768 0.41560248 -0.30516046 0.033881065 -0.03844733
0.34693718 0.38343439 0.021441406 -0.33862507 -0.5667919 0.18754806 -0.3631706 0.43095613
-0.90879005 -0.2785777 0.0769799 -0.61716694 -0.020720707 -0.31419826 -0.6023493 -0.92167664
0.07848587 -0.45189828 0.9732745 0.07241814 -0.8019432 -0.53495437 -0.6817198 -1.579802
-0.69538975 0.44904962 -2.8567512 -0.029727766 -0.11672643 0.2999484 -0.0058641518 -1.1990407
0.3451921 -0.8530303 -0.08219893 0.19470383 -0.35209906 -0.63066363 -0.09729917 -0.1602126
-0.35165107 0.26667535 0.71888775 0.00945439 0.39270654 -0.17120522 -0.30812594 -0.0017153869
0.26096702 0.22192019 -0.30114397 -0.15047003 -0.5362629 0.49587762 -0.00946687 -0.10862347
-0.07896713 -0.1423025 -0.073643744 0.2818955 -0.5403959 -0.032497555 0.39626873 -0.30229536
0.08010146 0.36204493 -0.14226462 -0.05049713 -0.18393534 1.5902879 -0.3684367 0.11921398
-0.7483995 0.013460736 -0.28716242 -1.4202535 0.28708854 0.9559579 0.5773168 0.39809015
0.022498704 0.4267828 -0.100605376 -0.3940145 -0.60480005 -0.8019868 -0.23854706 0.1734864
-0.1694161 -0.026600745 -0.60960734 0.06412923 -0.9603776 -0.5706334 -0.8476809 0.11842337
-0.87673366 -0.31591317 -1.2460558 0.13549626 -1.8220849 -0.017153945 0.27515158 0.09306591
0.29814285 0.9106484 -0.178537 -0.14089231 -0.60711634 -0.15335564 0.043108314 0.12966007
-0.039737087 -1.4416902 -0.090659104 -0.5075344 -0.69133186 -0.27441263 -0.24190713 -0.5583322
-0.3069482 -0.74851286 0.43386856 0.24097492 0.25835684 0.09727223 -0.30553085 -0.23492724
-0.15606964 -0.20076887 0.17321774 -0.26041043 -0.66835076 -0.39887553 0.34924284 -0.79872304
-0.16892013 -1.0942336 -0.15163124 -0.76380306 -0.22621568 0.122564204 0.26056984 0.23435844
0.10907509 0.026432473 -0.50447536 -0.86644053 -0.6373823 -0.17821665 -0.33502394 -1.2707746
0.1292275 -0.20071192 -0.5927024 0.022068389 -0.26009983 -0.13482487 -0.053536516 0.6561332
-0.913132 -0.8230481 -0.8492691 0.04500706 0.11364773 -0.68972474 -0.8426286 -0.90695494
-0.14964959 -0.0023384085 0.07819777 -0.037460834 -1.6046039 -0.01204651 0.10969175 -0.82714725
-0.42606923 0.49310544 -0.77511895 -0.7653049 0.051389318 0.7121407 -0.20285234 -0.22872557
00000000: 8208 28bf f79c 7c3f cb32 86be cc5d 833d
00000010: 9813 68be ea7b 353f 15fc a8bd 8fae 74bf
00000020: ebcf c0bf 2278 1dbc 32fa 87bf dbee 69bf
00000030: ebbc 413d 6a71 7dbe 22c8 193f 7ad3 1bbf
00000040: c6d9 533e a6ad 00bc 5bc1 17bf e3b9 02be
00000050: bdaf ae3e 045e 233e 5052 dbbe 87af 5abd
00000060: 59f3 8ebf 78d7 cfbe e91e 08bf 2186 d43d
00000070: 1bc1 dc3d 7d88 20bf c4e2 b2bf cf7f 89be
00000080: bd87 433d 50d7 c0be b86c 66be 7b79 16ba
00000090: 777e 92be 1038 48be 6173 e3bd a501 e1bd
000000a0: 52b9 02be da23 093d 3cb3 783e bd95 19bd
000000b0: c712 69be 88f1 a1be 5182 a5be da24 58bc
000000c0: 17b0 dcbe ab17 8abe 4bec 33bf 8d7c cd3d
000000d0: 36c7 333e b827 c8be 19e3 203e c472 6b3e
000000e0: a8be 83bd dcd1 45bc 28f7 733e 5051 ed3d
000000f0: 70d9 53bd 4493 cfbd a377 423e e1f3 d0bf
00000100: 127a 5abe 71e8 1a3f 24f4 85bf d5da a9be
00000110: d9c9 d43e fe3d 9cbe dfc6 0a3d f37a 1dbd
00000120: c0a1 b13e 8351 c43e e3a5 af3c 4460 adbe
00000130: 4619 11bf 990c 403e 7ff1 b9be 48a6 dc3e
00000140: 77a6 68bf bca1 8ebe a3a7 9d3d a7fe 1dbf
00000150: 79be a9bc 98de a0be 9033 1abf 00f3 6bbf
00000160: 33bd a03d 365f e7be 8528 793f f64f 943d
00000170: 264c 4dbf c5f2 08bf 3085 2ebf f436 cabf
00000180: 1005 32bf d5e9 e53e 03d5 36c0 a587 f3bc
00000190: 440e efbd d692 993e 1228 c0bb 2a7a 99bf
000001a0: 05bd b03e 3260 5abf ea57 a8bd 7160 473e
000001b0: 5446 b4be 2c73 21bf ca44 c7bd c60e 24be
000001c0: 9c0b b4be ac89 883e 0709 383f 96e6 1a3c
000001d0: d510 c93e 6c50 2fbe afc2 9dbe d5d6 e0ba
000001e0: 789d 853e 0c3f 633e 8b2f 9abe d114 1abe
000001f0: 8748 09bf ace3 fd3e ee1a 1bbc fb75 debd
00000200: 85b9 a1bd bfb7 11be 88d2 96bd 9b54 903e
00000210: 6357 0abf 281c 05bd bce3 ca3e 75c6 9abe
00000220: 3c0c a43d f45d b93e d1ad 11be 14d6 4ebd
00000230: 8c59 3cbe 8e8e cb3f bca3 bcbe 7626 f43d
00000240: 1c97 3fbf 6b8a 5c3c f406 93be deca b5bf
00000250: 45fd 923e a8b9 743f 09cb 133f 79d2 cb3e
00000260: 344f b83c 4683 da3e 310a cebd 45bc c9be
00000270: 2dd4 1abf 024f 4dbf ae45 74be 6ba6 313e
00000280: 6a7b 2dbe cee9 d9bc 3a0f 1cbf 3056 833d
00000290: 4edb 75bf 0815 12bf 9e01 59bf f487 f23d
000002a0: 9e71 60bf 5fbf a1be c27e 9fbf 88bf 0a3e
000002b0: 143a e9bf 6e86 8cbc abe0 8c3e 5799 be3d
000002c0: 2ea6 983e 4120 693f 67d2 36be 1346 10be
000002d0: fa6b 1bbf 4309 1dbe 5892 303d 9cc5 043e
000002e0: 5bc3 22bd 4e89 b8bf 7bab b9bd c6ed 01bf
000002f0: 20fb 30bf d07f 8cbe 81b6 77be dcee 0ebf
00000300: 5128 9dbe 8a9e 3fbf 0524 de3e 21c2 763e
00000310: 5947 843e aa36 c73d 8a6e 9cbe c490 70be
00000320: b8d0 1fbe 5b96 4dbe fe5f 313e 8454 85be
00000330: 0919 2bbf 6a39 ccbe f5cf b23e 1d79 4cbf
00000340: 66f9 2cbe d90f 8cbf 3845 1bbe 9988 43bf
00000350: 15a5 67be f102 fb3d 6969 853e a9fb 6f3e
00000360: c362 df3d ea88 d83c 4c25 01bf 0ccf 5dbf
00000370: 7d2b 23bf 6d7e 36be 4288 abbe bea8 a2bf
00000380: 3754 043e 6d87 4dbe 58bb 17bf c4c8 b43c
00000390: ce2b 85be 880f 0abe 1b49 5bbd 58f8 273f
000003a0: 05c3 69bf 48b3 52bf b369 59bf 5359 383d
000003b0: 24c0 e83d cd91 30bf 82b6 57bf 332e 68bf
000003c0: be3d 19be fc3f 19bb 2726 a03d 8870 19bd
000003d0: a963 cdbf ba5e 45bc 11a6 e03d ecbf 53bf
000003e0: bf25 dabe 5178 fc3e 326e 46bf 06eb 43bf
000003f0: 9b7d 523d da4e 363f 86b8 4fbe 0937 6abe

bias f4 [200]
-0.83194745 -0.35516617 -0.22400817 -0.74466175 -0.13918453 -0.33308873 -0.08349115 -0.55632055
-0.040810354 -0.45567146 -0.5749515 -0.20985435 -0.06229201 -0.23076683 -0.4850946 -0.3892844
-0.73936415 -0.022834506 -0.04147031 -0.39140546 0.080106206 -0.17561248 -0.33450472 -0.3723984
-0.10187687 -0.5700096 -0.57093686 -0.077382304 -0.5710394 0.015311683 -0.27597052 -0.013032852
-0.07795246 -0.12322111 -0.038448364 -0.11508183 -0.00962617 -0.1589197 -0.035962764 -0.27791545
-0.45320436 -0.2517061 0.040489376 -0.09965379 -0.4482864 -0.02865433 -0.110969454 -0.038303968
-0.03580232 -0.0036415472 -0.097284205 -0.22244032 -0.06264588 -0.30055436 -0.031954054 -0.24504402
-0.11832697 -0.09012973 -0.066632755 -0.27084655 -0.23730536 -0.07186267 -0.12118133 -0.15461491
-0.21142404 0.6231757 -0.107398055 0.26895803 -0.033104897 -0.6837989 -0.27924386 -0.44473433
-0.22407314 -0.041665215 -0.1338214 -0.09243872 -0.051462147 -0.16814016 -0.061629415 -0.114338115
-0.06559341 -0.08943646 -0.114912964 -0.019785259 -0.11029384 -0.035019193 -0.42718104 -0.6407444
-0.017383864 0.14324316 -0.45453414 -0.042182993 -0.12306682 -0.09307242 -0.008762769 -0.2241073
-0.10444926 -0.46890467 0.503844 0.6075028 -0.17158099 -0.13392298 -0.05569117 1.4865534
-0.18723932 0.059830505 -0.54764324 0.08572798 -0.115841344 -0.12712564 -0.16618879 0.0053551267
0.099639885 -0.28588346 -0.009377147 -0.7090294 -0.024439229 -0.36033162 -0.26972327 0.49642688
-0.19744024 -0.7787755 -0.20403779 -0.054668322 -0.5382475 -0.07273449 0.053455815 -0.54606396
-0.11280817 1.0098075 -0.113932885 -0.20388772 -0.56213903 -0.32998094 -0.047377132 -0.09575695
0.06452139 -0.8264804 -0.0871891 -0.032837275 -0.2800228 0.18663882 0.93154424 -0.60253036
-0.20327531 -0.79480743 -0.5149533 0.052812736 1.0831128 0.2261438 -0.053665355 -0.10619234
-0.2271179 -0.40692836 -0.1294549 -0.086636566 -0.46485645 -0.14132905 -0.0709065 -0.41610292
-0.26327008 -0.16036244 -0.123536855 -0.5144154 -0.2425749 -0.33251607 -0.08379106 -0.10102708
-0.29553795 -0.363605 -0.18822885 -0.01656121 -0.024537748 -0.06696169 -0.07438176 -0.25609013
-0.7772203 0.0024649987 -0.041858543 -0.093387686 -0.7227137 -0.6087366 0.25780424 -0.1738892
-0.8191953 -0.3764223 -0.14599508 -0.41861793 -1.0106462 0.057905108 -0.16012515 0.14397046
-0.57665473 -0.68164295 -0.14094575 -0.18843606 -0.81909806 -0.89023155 -0.50246114 -0.012221482
00000000: 82fa 54bf 57d8 b5be 6662 65be 27a2 3ebf
00000010: 6486 0ebe 9b8a aabe 68fd aabd 066b 0ebf
00000020: c228 27bd c54d e9be 0630 13bf 0fe4 56be
00000030: e825 7fbd 244e 6cbe 525e f8be 4950 c7be
00000040: f846 3dbf 6e0f bbbc c6dc 29bd 4c66 c8be
00000050: b90e a43d c2d3 33be 3444 abbe 01ab bebe
00000060: d2a4 d0bd 26ec 11bf eb28 12bf 9d7a 9ebd
00000070: a32f 12bf dadd 7a3c 024c 8dbe be87 55bc
00000080: 8aa5 9fbd 595b fcbd 087c 1dbd 06b0 ebbd
00000090: 15b7 1dbc d9bb 22be b14d 13bd ef4a 8ebe
000000a0: 670a e8be 9fdf 80be 30d8 253d 4917 ccbd
000000b0: cc85 e5be 7cbc eabc f443 e3bd 9fe4 1cbd
000000c0: 74a5 12bd 06a7 6ebb f13c c7bd 65c7 63be
000000d0: 7c4c 80bd 43e2 99be 41e2 02bd d2ec 7abe
000000e0: 6955 f2bd f095 b8bd c176 88bd 66ac 8abe
000000f0: 2d00 73be bc2c 93bd eb2d f8bd 5f53 1ebe
00000100: 8b7f 58be 7188 1f3f 83f3 dbbd deb4 893e
00000110: 0099 07bd 720d 2fbf 0df9 8ebe 38b4 e3be
00000120: 6e73 65be 25a9 2abd 7a08 09be 8350 bdbd
00000130: f9c9 52bd ef2c 2cbe 206f 7cbd 1a2a eabd
00000140: d655 86bd 762a b7bd 7d57 ebbd b214 a2bc
00000150: bde1 e1bd 4970 0fbd 79b7 dabe d307 24bf
00000160: 9b68 8ebc 56ae 123e b3b8 e8be 13c8 2cbd
00000170: 750a fcbd c19c bebd b891 0fbc 627c 65be
00000180: 7ee9 d5bd 4614 f0be ecfb 003f 4e85 1b3f
00000190: edb2 2fbe 1b23 09be 6d1c 64bd 6247 be3f
000001a0: aabb 3fbe d510 753d 5932 0cbf 2792 af3d
000001b0: 3a3e edbd 392d 02be 652d 2abe 0f7a af3b
000001c0: ff0f cc3d 515f 92be 9ba2 19bc f382 35bf
000001d0: c734 c8bc 637d b8be 2b19 8abe aa2b fe3e
000001e0: c62d 4abe d55d 47bf 48ef 50be e4eb 5fbd
000001f0: 97ca 09bf d2f5 94bd 7cf4 5a3d d9ca 0bbf
00000200: f807 e7bd 5f41 813f a555 e9bd f1c7 50be
00000210: 58e8 0fbf 43f3 a8be 860e 42bd 381c c4bd
00000220: ca23 843d 3894 53bf 3390 b2bd 6180 06bd
00000230: 265f 8fbe 3f1e 3f3e af79 6e3f 6e3f 1abf
00000240: 6727 50be 8078 4bbf fbd3 03bf 2b52 583d
00000250: 71a3 8a3f 3e92 673e 34d0 5bbd 5f7b d9bd
00000260: 9891 68be ea58 d0be d38f 04be 836e b1bd
00000270: aa01 eebe 90b8 10be 6d37 91bd 710b d5be
00000280: 56cb 86be 0d36 24be e400 fdbd bab0 03bf
00000290: 8e65 78be 8c3f aabe a69a abbd 49e7 cebd
000002a0: c050 97be 6f2a babe 10bf 40be 60ab 87bc
000002b0: 6303 c9bc 3623 89bd 7755 98bd 3f1e 83be
000002c0: e9f7 46bf d18b 213b dd73 2bbd 0b42 bfbd
000002d0: c403 39bf 29d6 1bbf ebfe 833e 0310 32be
000002e0: c8b6 51bf 6cba c0be bc7f 15be 1755 d6be
000002f0: db5c 81bf e82d 6d3d d9f7 23be fe6c 133e
00000300: a59f 13bf 2780 2ebf 1554 10be 62f5 40be
00000310: 69b0 51bf 37e6 63bf 4ba1 00bf 9c3c 48bc

weight f4 [1, 200]
-0.4826673 -0.86807185 0.07560496 -1.1103163 0.16112682 -0.23021232 0.0028742105 -0.488663
-0.024631036 -0.34165865 -0.23413447 -0.85040987 -0.030927587 -0.14325647 -0.30781025 0.38482523
0.13781472 -0.024621012 -0.01714768 -0.34701282 -0.41657415 -1.2154477 -0.9529486 -0.8810245
0.017743023 -0.81982994 -0.30117956 -0.04396692 -0.27335694 0.25376922 -0.4324698 0.0118475435
0.021399848 0.0021388847 0.20893578 0.033446517 -0.0018049798 0.14310978 -0.06547268 0.38817972
-0.018947255 -0.26177347 -0.4369654 -0.0052761296 -0.4733088 -0.034915708 -0.012154223 0.023477752
0.010097116 0.06530518 0.026045848 -0.30396938 0.024983943 -0.278179 0.032930817 0.078719415
-0.017389754 -0.009002536 -0.007513419 -0.6983202 -0.11147868 -0.026826574 -0.039056964 -0.019729683
0.2442058 0.07030891 0.0023129608 0.07971577 0.0060084937 -0.33430943 0.17116034 -0.5012597
-0.031045398 0.0058106 0.024330793 -0.027364552 -0.00847434 0.28409633 0.012972798 0.0065392936
0.0030744264 -0.008026647 -0.04164129 0.025944876 -0.006538804 0.008692445 0.149283 -0.23228565
0.026347708 0.4779844 -0.39167988 0.01934455 0.30179846 -0.013298604 -0.0081857955 0.16661786
-0.005882928 -0.30033994 0.06862349 0.055334352 0.28423867 0.10652281 -0.38718343 0.07879804
0.13009472 0.09955546 -0.4951165 -0.7039324 -0.44771487 -0.0032740328 -0.016950523 0.2917383
0.19762902 -0.37608007 -0.008446997 -0.4384626 -0.0029894968 0.14572456 0.7120518 0.072304346
-0.30996066 -0.17618248 0.19808675 0.024279265 -0.27665505 -0.011633326 -0.120491885 -1.1902299
0.0874212 0.08968209 0.04406629 -0.311668 0.14638993 0.7456613 -0.19079114 0.006390617
0.22296375 0.13406526 0.0021427423 -0.004554793 -0.24603449 0.15627004 0.052980985 -0.018296123
-0.4237337 -0.20822777 0.36743492 -0.3291367 0.0847213 -0.449954 -0.020616338 -0.00081443734
-0.70907086 0.25665522 -0.3808089 0.0043658298 -0.13656253 -0.024939455 0.011111773 -0.5724191
-1.0660894 0.7680304 0.015687166 -0.62426215 0.1738787 -0.24986178 0.41523495 -0.6618804
0.18516067 -0.55125386 -0.41801217 0.06994214 0.024747277 0.00958829 -0.8763474 -0.45672625
0.2520344 -0.008108956 0.060902305 -0.045819134 -0.3137227 -0.2950174 0.04408542 -0.3868698
-0.32365885 0.37929425 0.15899168 -0.7131873 -0.37045294 0.6147695 -0.39245516 0.087494925
-0.44806972 -0.20957148 -0.027547376 -0.54081887 -0.6267195 -0.1920442 -0.080743365 0.003285715
00000000: 2b20 f7be f539 5ebf c6d6 9a3d d81e 8ebf
00000010: 6efe 243e c7bc 6bbe 405d 3c3b 0932 fabe
00000020: 07c7 c9bc e2ed aebe f2c0 6fbe 76b4 59bf
00000030: da5b fdbc d3b1 12be 4e99 9dbe d007 c53e
00000040: 4d1f 0d3e 01b2 c9bc 4b79 8cbc aaab b1be
00000050: 3549 d5be ca93 9bbf 70f4 73bf d28a 61bf
00000060: d159 913c 60e0 51bf 3534 9abe a816 34bd
00000070: 71f5 8bbe 0aee 813e ae6c ddbe 331c 423c
00000080: bc4e af3c 882c 0c3b 43f3 553e 37ff 083d
00000090: 1295 ecba 5f8b 123e 8a16 86bd 7ebf c63e
000000a0: 4637 9bbc 2c07 86be eeb9 dfbe 62e3 acbb
000000b0: 8855 f2be c603 0fbd 8222 47bc 6a54 c03c
000000c0: 606e 253c b9be 853d 1a5e d53c e0a1 9bbe
000000d0: 20ab cc3c 7a6d 8ebe 77e2 063d a537 a13d
000000e0: f574 8ebc 5f7f 13bc 2033 f6bb 1dc5 32bf
000000f0: ef4e e4bd 67c3 dbbc 32fa 1fbd 25a0 a1bc
00000100: 1611 7a3e 1efe 8f3d 0b95 173b 0642 a33d
00000110: e6e2 c43b 9b2a abbe a844 2f3e 8e52 00bf
00000120: eb52 febc d866 be3b 5f51 c73c a02b e0bc
00000130: f5d7 0abc 1375 913e dc8b 543c 9247 d63b
00000140: 517c 493b 3382 03bc 0f90 2abd 598a d43c
00000150: 7743 d6bb c26a 0e3c a5dd 183e 4adc 6dbe
00000160: 26d7 d73c 5fba f43e 448a c8be 7678 9e3c
00000170: 5485 9a3e 63e2 59bc b71d 06bc df9d 2a3e
00000180: 94c5 c0bb 28c6 99be 798a 8c3d 46a6 623d
00000190: bb87 913e a228 da3d e83c c6be de60 a13d
000001a0: 8d37 053e bce3 cb3d e97f fdbe ea34 34bf
000001b0: e23a e5be 2891 56bb d3db 8abc b95e 953e
000001c0: 435f 4a3e 918d c0be 4665 0abc 2b7e e0be
000001d0: 6feb 43bb d238 153e 0749 363f 4d14 943d
000001e0: 2ab3 9ebe 2e69 34be 41d7 4a3e 4fe5 c63c
000001f0: bba5 8dbe b599 3ebc 73c4 f6bd 7459 98bf
00000200: e309 b33d 3eab b73d db7e 343d f392 9fbe
00000210: 3ee7 153e a9e3 3e3f c15e 43be 6268 d13b
00000220: 9c50 643e 6748 093e 406d 0c3b 5f40 95bb
00000230: 77f0 7bbe 4105 203e 9702 593d c0e1 95bc
00000240: a0f3 d8be a939 55be 6e20 bc3e 9b84 a8be
00000250: 5c82 ad3d 5f60 e6be 98e3 a8bc f77f 55ba
00000260: ab85 35bf 5068 833e 62f9 c2be 3c0f 8f3b
00000270: 0cd7 0bbe d44d ccbc 270e 363c 0f8a 12bf
00000280: 9e75 88bf a49d 443f 5f82 803c a5cf 1fbf
00000290: 420d 323e c4db 7fbe ad99 d43e fe70 29bf
000002a0: c29a 3d3e f91e 0dbf b105 d6be d33d 8f3d
000002b0: cdba ca3c 3418 1d3c 4e58 60bf 06d8 e9be
000002c0: a70a 813e 6ddb 04bc b274 793d d8ac 3bbd
000002d0: 43a0 a0be 850c 97be ea92 343d cc13 c6be
000002e0: 9db6 a5be db32 c23e b7ce 223e 7193 36bf
000002f0: 02ac bdbe 8961 1d3f e2ef c8be 8a30 b33d
00000300: 6569 e5be e899 56be 09ab e1bc 1b73 0abf
00000310: b070 20bf 3ca7 44be c75c a5bd 2655 573b

weight f4 [200, 15]
-0.32781482 1.4330243 -0.3017795 -0.21852833 0.88074934 0.651742 0.22475955 0.3016046
-0.40375075 -0.34915242 -0.48422223 -0.13419493 -0.7498922 0.3105531 -1.0048455 -0.65869194
-0.11984044 0.7570901 0.38269266 0.4094282 -0.032549508 -0.5807659 -0.4313359 0.52597815
0.33124197 0.86750704 -0.17536727 -0.33080813 -1.2491695 -0.16473258 0.105279975 0.78235453
0.25241143 -0.47167236 -0.8268274 -0.3519927 -0.25139505 0.6363113 0.104932934 0.16989067
0.10017965 -0.3688871 -0.7756478 -0.8560126 -1.0346208 0.59517866 1.5484537 0.36462379
-0.07328749 0.8358876 0.45059058 -0.04078208 0.14519557 -1.3015345 0.60127777 0.18921705
-1.1718601 -1.1965483 -1.7334371 -0.19689977 0.002782215 -1.0135505 0.32619247 -0.31708163
-0.13385826 0.024495713 -0.433352 -1.0660594 0.14541136 -0.101417325 0.46937543 0.67006415
0.29048115 -0.11413309 0.29285303 0.1601204 -0.12215335 -0.6727917 0.026401123 0.76884943
0.32598454 0.060325257 -0.43054852 -0.40537095 0.11751579 0.15603249 -0.16460535 0.19957589
-0.2153093 -0.2813036 1.5246669 0.26939458 -0.24668059 0.051530443 -0.9532468 -1.1115468
-0.081592806 -0.03408101 -0.078801565 -1.868559 0.1416407 0.1898727 -0.4210599 0.25530457
0.13031483 -0.25006062 0.38910565 0.13162324 0.052656796 -0.124120586 -0.019796647 0.027226182
0.2500026 0.1325689 -2.078514 0.92529756 0.60715735 0.8167331 0.47303888 0.5058555
0.081064194 0.8897086 0.17567395 0.75390947 -0.02179203 0.47544625 0.35733607 0.3255414
-0.10290575 -0.07052631 0.5555368 -0.7635891 -0.04018312 0.4635497 0.9598632 0.73857653
-0.36021733 -0.15468527 0.03677721 0.42588374 0.9919589 0.4071138 -1.1309365 -0.9928635
-2.7140868 0.2783463 0.1764547 0.12038001 0.7411016 -0.25369805 -0.2287585 -0.28650966
-0.03669665 -0.71147656 -0.2832845 -0.17734034 0.6965873 -0.29496554 -0.55798244 -1.2540674
0.33467183 0.98250896 -0.3570946 -0.3238117 -0.1445752 0.53286445 1.7404294 0.056448705
0.1464793 -0.06490042 0.17488013 -0.109397836 1.2406213 -0.9171023 -1.2699577 -0.037032805
1.032209 -0.07535953 -0.14649 0.3886357 -0.23292148 0.12961125 -0.021763483 -0.0411519
-0.336701 -0.79891396 -0.6394976 -0.7636243 -0.77126443 0.14499718 -0.44117743 -0.18842754
-0.08909854 0.032564234 0.009734901 -0.017739216 -0.79859746 -0.7539842 -0.1229097 -0.47713163
-1.3717966 0.25865927 -1.4932896 0.68620455 -0.27315578 0.36253667 -0.17556016 0.20284627
0.17978819 0.317434 0.65889174 -0.29223385 -0.9860811 -0.16729397 -0.3707483 -0.4360596
-0.10657437 -0.06737314 -0.07573455 -0.52057946 0.4449984 0.050659217 0.6383727 0.33814487
-0.38104352 -1.4160386 0.2759316 -0.27581215 0.6551006 -0.593109 -1.0015166 -0.66797763
-0.116939425 -0.35549226 -1.170276 0.79014856 -0.24078052 0.107445195 0.61842483 -0.56555444
0.23011406 0.23225735 0.45757776 -0.7131818 0.14447375 -0.27726966 -0.06528972 -0.18094233
-0.6184905 0.08826964 0.21740204 -0.98530895 -1.0116624 -1.441217 0.37325293 0.129955
00000000: 58d7 a7be 576d b73f d882 9abe e4c5 5fbe
00000010: ca78 613f 90d8 263f 5e27 663e eb6b 9a3e
00000020: 6bb8 cebe 1bc4 b2be faeb f7be 656a 09be
00000030: eff8 3fbf d100 9f3e c79e 80bf 09a0 28bf
00000040: e86e f5bd a8d0 413f 4bf0 c33e 93a0 d13e
00000050: a252 05bd 13ad 14bf 0fd8 dcbe 81a6 063f
00000060: 8c98 a93e f114 5e3f 7a93 33be af5f a9be
00000070: c9e4 9fbf a8af 28be 079d d73d 6348 483f
00000080: 123c 813e 0a7f f1be f6aa 53bf 6338 b4be
00000090: dab6 80be 4ce5 223f 14e7 d63d d2f7 2d3e
000000a0: fd2a cd3d c5de bcbe db90 46bf a423 5bbf
000000b0: 746e 84bf a15d 183f bb33 c63f f8af ba3e
000000c0: c017 96bd bbfc 553f cfb3 e63e 1c0b 27bd
000000d0: 26ae 143e af98 a6bf 57ed 193f 1dc2 413e
000000e0: 83ff 95bf 7f28 99bf 44e1 ddbf 18a0 49be
000000f0: d255 363b 06bc 81bf b302 a73e 8658 a2be
00000100: 2412 09be 3cab c83c 50e0 ddbe a274 88bf
00000110: b7e6 143e e3b3 cfbd fa51 f03e 5389 2b3f
00000120: f2b9 943e 9cbe e9bd d5f0 953e 9af6 233e
00000130: 892b fabd 143c 2cbf 2b47 d83c 51d3 443f
00000140: 72e7 a63e 9e17 773d db70 dcbe c88c cfbe
00000150: 1eac f03d fbc6 1f3e 4e8e 28be 9f5d 4c3e
00000160: 0b7a 5cbe 0707 90be 4928 c33f 16ee 893e
00000170: d699 7cbe 9611 533d fb07 74bf 2a47 8ebf
00000180: 211a a7bd 8798 0bbd b762 a1bd f12c efbf
00000190: 420a 113e fd6d 423e 2a95 d7be 48b7 823e
000001a0: 4071 053e f207 80be db38 c73e 3ec8 063e
000001b0: a7ae 573d ef32 febd 942c a2bc 7109 df3c
000001c0: 5700 803e 24c0 073e 6006 05c0 4de0 6c3f
000001d0: aa6e 1b3f 6c15 513f 2732 f23e bf7f 013f
000001e0: fc04 a63d f1c3 633f dfe3 333e 3600 413f
000001f0: 3385 b2bc b16d f33e c1f4 b63e 5dad a63e
00000200: 40c0 d2bd 1970 90bd a937 0e3f 937a 43bf
00000210: 0e97 24bd 6356 ed3e 98b9 753f 5a13 3d3f
00000220: 686e b8be d165 1ebe b3a3 163d 6f0d da3e
00000230: 05f1 7d3f 3871 d03e 87c2 90bf 4d2c 7ebf
00000240: 99b3 2dc0 6883 8e3e 8ab0 343e cb89 f63d
00000250: d6b8 3d3f b6e4 81be ab3f 6abe 65b1 92be
00000260: 3a4f 16bd 5423 36bf aa0a 91be b598 35be
00000270: 8c53 323f b905 97be f0d7 0ebf 4885 a0bf
00000280: 1b5a ab3e b585 7b3f 1ad5 b6be a6ca a5be
00000290: 850b 14be ce69 083f 64c6 de3f c236 673d
000002a0: abfe 153e 83ea 84bd c713 333e f90b e0bd
000002b0: aecc 9e3f 37c7 6abf f98d a2bf b6af 17bd
000002c0: 6d1f 843f 1956 9abd 7901 16be 42fb c63e
000002d0: f882 6ebe d0b8 043e 5549 b2bc e58e 28bd
000002e0: 1364 acbe a085 4cbf 1db6 23bf e27c 43bf
000002f0: 9671 45bf 247a 143e 02e2 e1be 26f3 40be
00000300: 4c79 b6bd 1362 053d 227f 1f3c d551 91bc
00000310: e270 4cbf 1c05 41bf 15b8 fbbd 994a f4be
00000320: 0897 afbf fd6e 843e 1d24 bfbf 1aab 2f3f
00000330: 13db 8bbe 689e b93e 0bc6 33be efb6 4f3e
00000340: 651a 383e b686 a23e 21ad 283f ad9f 95be
00000350: d06f 7cbf 1c4f 2bbe b9d2 bdbe 3443 dfbe
00000360: aa43 dabd eefa 89bd b71a 9bbd b244 05bf
00000370: d5d6 e33e 0a80 4f3d 656c 233f 5321 ad3e
00000380: 2318 c3be c140 b5bf e846 8d3e 4037 8dbe
00000390: acb4 273f fed5 17bf b231 80bf 9500 2bbf
000003a0: f07d efbd 1503 b6be 9bcb 95bf 2d47 4a3f
000003b0: 2b8f 76be 3a0c dc3d 1751 1e3f 2dc8 10bf
000003c0: 05a3 6b3e dfd4 6d3e a247 ea3e 1593 36bf
000003d0: edf0 133e 4af6 8dbe 9eb6 85bd f248 39be
000003e0: 6555 1ebf b7c6 b43d a49e 5e3e 353d 7cbf
000003f0: 277e 81bf cc79 b8bf 021b bf3e ec12 053e

bias f4 [200]
0.24346921 -0.4204497 0.06726283 -0.65338653 -0.1382818 0.123102896 0.029530175 0.26540115
-0.4491443 0.18349782 0.14014289 -0.63435704 -0.2624485 -1.0165813 -0.48543233 -0.032874577
-0.24509203 0.10823768 0.20773962 -0.21038282 -0.12224549 -0.47475678 -0.24495615 -0.015123015
-0.13815416 -0.9037086 -0.2551953 0.068723984 -0.7654469 -0.40065184 -1.0139624 0.010150385
-0.017324926 -0.08851953 0.1580639 -0.024287088 -0.10263582 -0.17878176 0.09229975 -0.15422322
0.82164913 -0.381163 0.20694484 -0.13304172 -0.17942348 -0.03955164 0.071934074 0.43920007
0.3629059 -0.69547015 -0.36550024 0.23273464 -0.39551213 0.36417982 0.0644584 0.07528927
0.39258248 -0.5073309 -0.62879366 -0.5987363 0.24913044 0.16635837 -0.04919628 -0.58221406
-0.5665722 0.6859544 -0.16744533 0.24510488 0.5154546 0.13575333 -0.01582412 -1.0275999
0.20146067 0.20789704 -0.037576947 -0.63703984 0.3769626 -0.33077607 -0.26878294 0.047749884
-0.18664558 -0.6893919 0.33453804 0.034968134 -0.29635143 -0.7307129 -0.7235597 -0.18826628
0.05334974 0.2762885 -0.88714826 -0.012261659 0.11916214 -0.38718587 0.2928094 0.22662258
0.43288958 0.11556207 -0.3565601 -0.06743395 -0.8758438 0.43361974 -0.35591358 -0.36375946
0.5644013 0.2084169 -0.40020996 -0.29717842 -0.116998136 0.113094375 0.036387574 -0.26337418
-0.05648993 0.050285354 -0.27376914 -0.3300776 0.38935417 -0.27461565 -0.34947294 -0.52702
-0.38765705 -0.40268812 -0.23683752 -0.50267464 -0.49252313 0.26010388 0.3129383 -0.0021690005
0.20403886 0.3908258 0.21523292 0.13681005 0.22453733 -0.5190435 -0.74942416 -0.50414664
-0.03529164 0.44602337 0.08935594 -1.3485929 -0.7558278 -0.68170613 -0.17273189 0.18663773
-0.3221707 -0.28032064 -0.27623427 -0.13876097 0.01347199 0.08979022 -0.2593971 -0.6040939
-0.4398685 -0.5182384 -0.2032975 -0.17494382 -0.15432218 0.09560536 -0.9558852 -0.27911258
0.078886144 0.12735367 -0.471878 -0.4028396 -0.45115155 -0.6889331 -0.092435196 0.0016010643
-0.39772892 -0.3674443 -0.23579307 0.32243124 -1.1270155 0.4326759 -0.11610942 -0.17071205
0.31688145 -0.38779137 0.46303546 -0.13858613 -0.5255977 -0.37262315 -0.18563953 0.41753265
-0.3422916 -0.07105323 -0.26494968 -0.009605382 -0.4772938 -0.849737 0.16177936 0.13238332
-0.09410391 -0.5401081 0.25534236 -0.20048304 0.6468675 0.21096048 -0.17758814 -0.41540518
00000000: fe4f 793e 2f45 d7be 18c1 893d 5744 27bf
00000010: bf99 0dbe 5f1d fc3d 44e9 f13c a9e2 873e
00000020: 3ef6 e5be dae6 3b3e 9e81 0f3e 3965 22bf
00000030: a65f 86be 561f 82bf 968a f8be 7ea7 06bd
00000040: 68f9 7abe b7ab dd3d b2b9 543e 986e 57be
00000050: d85b fabd 5213 f3be c9d5 7abe 86c6 77bc
00000060: 4978 0dbe 7259 67bf f5a8 82be 29bf 8c3d
00000070: 54f4 43bf 3d22 cdbe 85c9 81bf cd4d 263c
00000080: 01ed 8dbc ba49 b5bd 81db 213e b7f5 c6bc
00000090: bb32 d2bd 9112 37be a707 bd3d b1ec 1dbe
000000a0: 9957 523f cc27 c3be 59e9 533e 173c 08be
000000b0: caba 37be e700 22bd 2c52 933d d5de e03e
000000c0: cdce b93e 550a 32bf d922 bbbe fd51 6e3e
000000d0: 9180 cabe c775 ba3e c402 843d 4331 9a3d
000000e0: 9200 c93e 70e0 01bf 9ff8 20bf c846 19bf
000000f0: 0d1c 7f3e d959 2a3e 0a82 49bd fb0b 15bf
00000100: e00a 11bf b59a 2f3f ca76 2bbe c6fc 7a3e
00000110: d5f4 033f ec02 0b3e 96a1 81bc 6588 83bf
00000120: b54b 4e3e f6e2 543e 49ea 19bd 0b15 23bf
00000130: 3e01 c13e 7b5b a9be eb9d 89be 6295 433d
00000140: 0520 3fbe fd7b 30bf 9248 ab3e bf3a 0f3d
00000150: 60bb 97be 0010 3bbf 353b 39bf e0c8 40be
00000160: 4285 5a3d b075 8d3e 261c 63bf 20e5 48bc
00000170: 480b f43d 3a3d c6be 1deb 953e c00f 683e
00000180: b4a3 dd3e ceab ec3d 0c8f b6be d01a 8abd
00000190: 4d37 60bf 6803 de3e 4e3a b6be ae3e babe
000001a0: 9b7c 103f 3d6b 553e 52e8 ccbe c527 98be
000001b0: b89c efbd 069e e73d 230b 153d fbd8 86be
000001c0: fc61 67bd 04f8 4d3d 782b 8cbe eeff a8be
000001d0: 6e59 c73e 6c9a 8cbe 1eee b2be c8ea 06bf
000001e0: fc7a c6be 232d cebe 8985 72be 49af 00bf
000001f0: fe2b fcbe 562c 853e 7339 a03e ca25 0ebb
00000200: 90ef 503e 521a c83e 0566 5c3e ef17 0c3e
00000210: 1ded 653e 09e0 04bf 43da 3fbf c10f 01bf
00000220: f78d 10bd 2d5d e43e 3f00 b73d b19e acbf
00000230: ee7d 41bf 4b84 2ebf a1e0 30be f61d 3f3e
00000240: 8ff3 a4be 3086 8fbe 946e 8dbe 5b17 0ebe
00000250: 9fb9 5c3c efe3 b73d b2cf 84be e6a5 1abf
00000260: 7236 e1be 46ab 04bf 382d 50be 7924 33be
00000270: a206 1ebe becc c33d e4b4 74bf d8e7 8ebe
00000280: 0f8f a13d 0069 023e fe99 f1be fe40 cebe
00000290: 56fd e6be eb5d 30bf aa4e bdbd ceda d13a
000002a0: 20a3 cbbe a921 bcbe bd73 71be b515 a53e
000002b0: 0b42 90bf b287 dd3e c7ca edbd 24cf 2ebe
000002c0: 493e a23e 978c c6be fc12 ed3e 86e9 0dbe
000002d0: 928d 06bf 76c8 bebe 4a18 3ebe d7c6 d53e
000002e0: d840 afbe 5b84 91bd 7ca7 87be e45f 1dbc
000002f0: da5f f4be 5d88 59bf 7da9 253e 7e8f 073e
00000300: 8db9 c0bd 8644 0abf 3cbc 823e 6d4b 4dbe
00000310: 1c99 253f 0606 583e aad9 35be fdaf d4be

weight f4 [200, 200]
0.31879368 -1.1185808 0.18978775 -1.0082945 -0.14275175 0.08763271 -0.5897001 -0.07126632
-0.38193962 -1.7283642 -1.666803 -3.6918585 -0.13259688 0.833476 -0.20218344 -0.94741166
0.378988 -1.9187012 0.42635682 -0.0066184495 0.7582275 -0.88649017 0.17057979 -0.07958836
-0.249495 -0.059665956 -0.44145554 -1.7503986 0.28223702 -0.41415042 -0.5200627 0.32714808
-1.8552659 0.40435153 -0.4138673 -0.055893816 0.35719538 -0.99833775 0.25170588 -0.86768985
-1.0321116 -0.10268095 0.11601346 0.16748728 0.30676937 -0.18577003 -0.4777278 1.4384025
-0.035846952 0.4375019 0.67802405 0.596594 0.46892217 -0.30484983 -0.17879017 0.10497034
-0.09719223 -0.1916249 -0.020663276 -1.328926 0.14358322 -0.722645 0.19151917 -1.6211157
-0.33809084 -1.1209546 -0.7246546 1.2328795 -0.12310894 -0.3329031 0.15603717 -0.49804783
-0.3120854 -0.5413752 -0.003963572 -0.61084473 -0.995933 -0.53861195 -0.8135074 0.12778135
1.1743512 -1.0485152 -0.2662529 -0.92914563 -0.0076484624 -0.37534562 -0.03544556 -0.13971816
-1.5799974 0.7491463 0.17155735 1.2212976 -0.11313467 -0.9239087 -0.4383594 -0.35991323
-1.0887771 -0.36817604 -1.8763263 -1.6078527 0.2716844 -0.7054046 -0.1454737 0.01055005
0.71009564 -0.26270196 0.10175358 -1.2023964 0.4780161 -0.030609196 -0.45414227 0.027670154
-0.12925884 -0.37494552 0.19665328 1.0574012 -1.5446942 -0.07701312 0.32595858 0.18391527
-0.38470387 0.60874325 -0.3549378 -1.1220886 -0.1511932 0.4642084 1.0553722 -0.50428855
-0.97661424 0.20853545 -0.31301615 -0.89091927 0.25726742 0.30005157 0.16521962 0.18254174
-0.6258379 1.0154604 -0.9277948 -0.6482414 -1.903412 0.043423116 -1.0428224 -0.530253
0.07017295 -0.40643328 0.5743146 -0.31770208 1.7462107 -0.057316463 -0.00900545 -0.2163594
-0.29515755 -1.5009663 1.0178001 0.6816324 0.60888195 0.713122 -0.07606353 0.07048112
-0.1959851 0.1603174 -0.52767366 -0.052535232 -0.61474276 0.47984228 -1.6632423 0.8754053
-0.22795925 0.3879393 -0.24027449 -0.28557745 -0.116055615 -1.1761075 0.62309855 -1.1805605
0.8421118 -0.278607 -0.7409854 0.0040574353 -0.11155542 -2.4705224 -0.6389607 -0.20230545
-0.20756556 -0.97491235 -0.6138148 -0.8177833 -0.18388045 -0.08437428 -0.13084245 -1.0283676
0.4838344 0.06927301 0.25833362 0.07356228 0.19086184 0.05639872 -0.3890769 -0.004156859
-0.2788352 0.4771269 -0.046683546 -0.481564 -0.08195676 0.43729988 0.15057613 -0.56058383
0.56185657 0.3418844 1.2297033 -1.4153035 -0.24926782 0.39205053 0.79527605 -0.031191751
-1.3569789 0.16403145 -0.4042773 -0.37261587 0.18353692 0.2669223 0.16033399 0.6068362
0.4983011 -0.3246448 0.09318662 1.0889648 0.9175266 -0.31518275 0.2916865 0.6570499
0.6280808 -0.4852806 -0.07719696 0.1431278 0.36162356 -0.4427048 -0.17922279 -0.48392814
0.47726712 0.39461896 -1.9437805 0.5510338 -0.3978743 -0.16787183 0.61633235 -0.25361493
-1.0720096 -0.32016706 -2.38027 -0.7510288 1.6086768 0.33837664 0.16962883 -0.7791192
00000000: ed38 a33e a82d 8fbf b857 423e cb0f 81bf
00000010: 842d 12be c778 b33d 96f6 16bf 14f4 91bd
00000020: 978d c3be 0a3b ddbf cd59 d5bf 6947 6cc0
00000030: 7ac7 07be af5e 553f 2d09 4fbe 9289 72bf
00000040: b70a c23e 0098 f5bf 714b da3e 94df d8bb
00000050: 331b 423f 05f1 62bf 78ac 2e3e 39ff a2bd
00000060: 9e7b 7fbe 4a64 74bd 7606 e2be 100d e0bf
00000070: 5f81 903e 860b d4be d422 05bf f47f a73e
00000080: 5a79 edbf 2a07 cf3e 6ae6 d3be eaf0 64bd
00000090: 50e2 b63e 1093 7fbf 98df 803e ec20 5ebf
000000a0: 3c1c 84bf 644a d2bd 7798 ed3d c981 2b3e
000000b0: e010 9d3e 803a 3ebe bd98 f4be 931d b83f
000000c0: 41d4 12bd 4000 e03e fc92 2d3f 62ba 183f
000000d0: 9116 f03e 4715 9cbe c514 37be b1fa d63d
000000e0: b80c c7bd 5139 44be 0846 a9bc 3f1a aabf
000000f0: 7b07 133e 43ff 38bf 9a1d 443e b880 cfbf
00000100: 3e1a adbe 717b 8fbf f782 39bf ffce 9d3f
00000110: 8a20 fcbd 4672 aabe 35c8 1f3e 2000 ffbe
00000120: a8c9 9fbe 9197 0abf dae0 81bb 5260 1cbf
00000130: 77f5 7ebf 79e2 09bf 0542 50bf 1dd9 023e
00000140: 2451 963f bf35 86bf 4d52 88be 7ddc 6dbf
00000150: f49f fabb 4d2d c0be 5d2f 11bd 4712 0fbe
00000160: 5b3d cabf 0dc8 3f3f bbac 2f3e 7b53 9c3f
00000170: 26b3 e7bd 4885 6cbf a570 e0be 8c46 b8be
00000180: 0c5d 8bbf 9281 bcbe 762b f0bf 1ece cdbf
00000190: 381a 8b3e 6595 34bf 0ff7 14be 1eda 2c3c
000001a0: d4c8 353f df80 86be 2e64 d03d 20e8 99bf
000001b0: 87be f43e 23c0 fabc 5685 e8be 85ac e23c
000001c0: 6e5c 04be dcf8 bfbe 7a5f 493e ec58 873f
000001d0: 8ab8 c5bf 0eb9 9dbd 0be4 a63e 4954 3c3e
000001e0: e8f7 c4be 99d6 1b3f 68ba b5be 99a0 8fbf
000001f0: 64d2 1abe b9ac ed3e 7016 873f 0e19 01bf
00000200: 6403 7abf 518a 553e a743 a0be 4913 64bf
00000210: 8eb8 833e 5ca0 993e 552f 293e 39ec 3a3e
00000220: ea36 20bf 9bfa 813f f683 6dbf 26f3 25bf
00000230: 01a3 f3bf 70dc 313d 347b 85bf a9be 07bf
00000240: d6b6 8f3d 0618 d0be 4806 133f d9a9 a2be
00000250: d583 df3f abc4 6abd 988b 13bc 528d 5dbe
00000260: e41e 97be aa1f c0bf 4647 823f 767f 2e3f
00000270: b0df 1b3f 2a8f 363f 32c7 9bbd 6858 903d
00000280: 51b0 48be 3f2a 243e 9f15 07bf 2f2f 57bd
00000290: c85f 1dbf e3ad f53e 20e5 d4bf 901a 603f
000002a0: 266e 69be fb9f c63e 840a 76be 3537 92be
000002b0: 91ae edbd b18a 96bf 6383 1f3f 9b1c 97bf
000002c0: a494 573f 94a5 8ebe 38b1 3dbf 3cf4 843b
000002d0: 2b77 e4bd 0a1d 1ec0 ee92 23bf 2929 4fbe
000002e0: 118c 54be db93 79bf f722 1dbf 3f5a 51bf
000002f0: 284b 3cbe 6ccc acbd 90fb 05be 8da1 83bf
00000300: 24b9 f73e 02df 8d3d 4e44 843e d2a7 963d
00000310: 4971 433e 5802 673d 1635 c7be 4336 88bb
00000320: 7dc3 8ebe fa49 f43e 3f37 3fbd 8e8f f6be
00000330: f2d8 a7bd c5e5 df3e a130 1a3e 6c82 0fbf
00000340: d5d5 0f3f 790b af3e eb66 9d3f aa28 b5bf
00000350: 1040 7fbe d9ba c83e 3697 4b3f d885 ffbc
00000360: 7cb1 adbf dcf7 273e 6ffd cebe 82c7 bebe
00000370: 1af1 3b3e 0aaa 883e 982e 243e 9e59 1b3f
00000380: 5221 ff3e d837 a6be a0d8 be3d 3363 8b3f
00000390: 06e3 6a3f a25f a1be ef57 953e 6c34 283f
000003a0: e7c9 203f b376 f8be 7119 9ebd 1890 123e
000003b0: b926 b93e 34aa e2be 2e86 37be 6ec5 f7be
000003c0: 5b5c f43e 7f0b ca3e cdcd f8bf 8d10 0d3f
000003d0: 2eb6 cbbe 98e6 2bbe f5c7 1d3f d1d9 81be
000003e0: 9c37 89bf f0ec a3be 5856 18c0 6c43 40bf
000003f0: 1fe9 cd3f b43f ad3e 2eb3 2d3e 5b74 47bf

bias f4 [200]
-0.017738322 -0.38484588 -0.051966615 -0.405237 0.13013007 -0.11263639 -0.356104 -0.29092774
-0.48069644 -0.5928414 -0.3656014 -0.058583073 -0.0020865465 -0.2831493 -0.05670525 -0.41198424
-0.10090372 -0.09524155 -0.29227683 -1.1468538 -0.08151194 -0.072713874 0.024448382 -0.04059784
-0.21909496 0.0032276933 -0.014013659 -0.107087545 1.4152248 -0.024830924 -0.11172499 -0.6245497
-0.81773615 -0.786258 -0.12044359 -0.20438924 -0.08342012 -0.036194876 0.32500324 -0.038709406
-0.70851076 -0.273073 -0.26783645 -0.7646611 -0.117215306 -0.0933212 -0.11350012 -0.08817897
-0.092399545 -0.09012226 -0.19671573 0.24547482 0.7450065 -0.5681563 -0.13046302 -0.263241
-0.078045525 -0.41918933 0.16396785 0.21882108 -0.10082095 -0.10655868 -0.12136108 -0.09760763
-0.08336602 -0.6758707 -0.52413243 -0.644879 -0.2046293 -0.10260593 -0.10021497 -0.61187726
-0.006158837 0.012757795 -0.18692712 -0.22007897 -0.12841691 -0.059002697 -0.034010928 -0.6931352
-0.17834467 -0.028724719 -0.4146445 -0.09607608 0.23752335 -0.080159284 -0.75275886 -0.086490475
0.009108273 0.95373636 -0.70659906 -0.7314381 -0.9838793 -0.07745698 -0.38750958 -0.23214152
-0.16896546 -0.49463156 -0.63763636 -0.026628362 -0.10728915 -0.13062 0.5733468 0.009894134
-0.09137591 -0.017774789 -0.048661 -0.5669861 -0.11555755 -0.09399605 -0.41998625 -0.11248044
-0.046435915 -0.029121254 -0.36342436 -0.07967252 -0.049505647 0.30633882 -0.057190854 -0.19917291
-0.11860837 -0.11543541 -0.090563156 -0.10855604 -0.53216267 -0.055087544 -0.36237067 -0.7264397
0.05470022 -0.6123642 -0.06589604 0.21279775 -0.02538524 0.081955284 -0.24467923 -0.28301758
-0.41756922 -0.26774547 -0.39860937 -0.49634224 -0.8511534 -0.69306934 -0.15421332 -0.037078828
-0.049769584 -0.10490264 -0.096943505 -0.11944237 -0.08627174 -0.37576827 -0.014997008 -0.021306934
-0.039377447 0.17427874 -0.058943965 -0.12181663 -0.07277292 1.2518502 -0.12574686 -0.28326756
-0.08051089 -0.32472807 -0.015214251 -0.10332677 -0.32947603 0.3312334 -0.4227887 -0.10332996
1.0182159 -0.48126566 -0.41860342 -0.14968686 0.6607954 0.028574046 -0.23912439 -0.3745193
-0.35187176 0.2605054 -0.08652856 -0.056382027 -0.26859295 0.15871322 -0.100857526 0.09509021
-0.6544757 0.117430456 -0.07908257 -0.084614776 -0.06545576 -0.054989345 -0.022450514 -0.0773919
-0.06054736 -0.49039736 -0.31582433 -0.061454948 -0.34292197 -0.057999086 -0.027819604 -0.16798495
00000000: f54f 91bc 850a c5be f2da 54bd 397b cfbe
00000010: d140 053e e8ad e6bd 4353 b6be 7bf4 94be
00000020: d81d f6be 74c4 17bf 1b30 bbbe cef4 6fbd
00000030: 71be 08bb f2f8 90be c443 68bd 99ef d2be
00000040: 9ca6 cebd 000e c3bd 4fa5 95be 1bcc 92bf
00000050: bbef a6bd 03eb 94bd f947 c83c ec49 26bd
00000060: 6e5a 60be b587 533b 8c99 65bc b750 dbbd
00000070: 1626 b53f 396a cbbc 12d0 e4bd 7de2 1fbf
00000080: 2857 51bf 3448 49bf 21ab f6bd 6a4b 51be
00000090: 2bd8 aabd 1441 14bd d366 a63e c18d 1ebd
000000a0: f660 35bf 39d0 8bbe dc21 89be d4c0 43bf
000000b0: 940e f0bd 2f1f bfbd c072 e8bd 2d97 b4bd
000000c0: f93b bdbd 0592 b8bd d96f 49be c05d 7b3e
000000d0: bfb8 3e3f b172 11bf 1998 05be 86c7 86be
000000e0: 55d6 9fbd fc9f d6be 30e7 273e a212 603e
000000f0: 377b cebd 703b dabd 288c f8bd 82e6 c7bd
00000100: cebb aabd dd05 2dbf 8b2d 06bf ca16 25bf
00000110: 588a 51be 0f23 d2bd 823d cdbd fda3 1cbf
00000120: 12d0 c9bb 1206 513c d369 3fbe 625c 61be
00000130: b97f 03be d0ac 71bd 0b4f 0bbd 4f71 31bf
00000140: fc9f 36be 1a50 ebbc 494c d4be 89c3 c4bd
00000150: 5239 733e 8d2a a4bd ceb4 40bf eb21 b1bd
00000160: de3a 153c 1128 743f ade3 34bf 873f 3bbf
00000170: 84df 7bbf c4a1 9ebd a867 c6be 82b6 6dbe
00000180: 4805 2dbe 5940 fdbe 233c 23bf b923 dabc
00000190: 6aba dbbd 40c1 05be dbc6 123f 011b 223c
000001a0: 4b23 bbbd 6f9c 91bc c250 47bd 0026 11bf
000001b0: 70a9 ecbd 0081 c0bd 7008 d7be 255c e6bd
000001c0: 9633 3ebd b28f eebc c212 babe 592b a3bd
000001d0: 6fc6 4abd 71d8 9c3e f540 6abd fcf3 4bbe
000001e0: f2e8 f2bd 6669 ecbd 2d79 b9bd a152 debd
000001f0: d03b 08bf 7aa3 61bd a688 b9be f4f7 39bf
00000200: 560d 603d e6c3 1cbf 81f4 86bd a7e7 593e
00000210: b5f4 cfbc 2cd8 a73d 318d 7abe aee7 90be
00000220: a2cb d5be ef15 89be 8716 ccbe 9220 febe
00000230: 30e5 59bf fe6c 31bf 19ea 1dbe f8df 17bd
00000240: 31db 4bbd 32d7 d6bd 518a c6bd 349e f4bd
00000250: 3daf b0bd b364 c0be 03b6 75bc e18b aebc
00000260: 3f4a 21bd 2076 323e 3a6f 71bd ff7a f9bd
00000270: f809 95bd a13c a03f c9c3 00be 7208 91be
00000280: e5e2 a4bd c242 a6be 3245 79bc fc9c d3bd
00000290: 15b1 a8be 6d97 a93e c377 d8be a89e d3bd
000002a0: e654 823f 7468 f6be 3053 d6be 8347 19be
000002b0: e329 293f 1e14 ea3c 06dd 74be fec0 bfbe
000002c0: 8928 b4be f760 853e e335 b1bd d7f0 66bd
000002d0: 0485 89be b885 223e 648e cebd a8be c23d
000002e0: b88b 27bf 617f f03d 0bf6 a1bd 834a adbd
000002f0: ab0d 86bd 823c 61bd 24ea b7bc a57f 9ebd
00000300: 8200 78bd 5d15 fbbe bab3 a1be 2fb8 7bbd
00000310: 7893 afbe 7390 6dbd f0e5 e3bc 3f04 2cbe
