Vehicles/ModRepeat_forest_3/ModRepeat_forest_3_actor.pth (torch, 176516 bytes, 5 tensors)

weight f4 [200, 14]
0	0xbf7ad3eb	-0.9797961
1	0xbeed9ad8	-0.464072
2	0xbf8b1a45	-1.0867392
3	0x3e75e6e3	0.24013858
4	0xbf2be5c7	-0.6714749
5	0xbf09f642	-0.53891385
6	0xbf009b67	-0.50237125
7	0xbd0fffac	-0.035155937
8	0x3e153322	0.14570287
9	0xbf65cfcd	-0.89770204
10	0x3dba1c7b	0.090874635
11	0x3e31485a	0.17312756
12	0x3f0ee38b	0.55815953
13	0x3e72d510	0.2371409
14	0xbef71bea	-0.48263484
15	0xbf21c410	-0.6318979
16	0xbf634107	-0.887711
17	0x3dd50699	0.10401649
18	0xbf058326	-0.5215324
19	0xbe840066	-0.25781554
20	0xbd29b3b4	-0.041431144
21	0xbe088c7e	-0.13334844
22	0x3f2eb149	0.68239266
23	0xbfbb0fb5	-1.4614168
24	0x3dfd3815	0.123642124
25	0x3ed976a3	0.42473325
26	0x3e292b31	0.16520382
27	0x3da790ef	0.08181941
28	0x3e1dea17	0.1542133
29	0xbe8f4fd9	-0.27990606
30	0xbf38ea5d	-0.7223261
31	0xbf046105	-0.5171054
32	0x3e8fe81a	0.28106767
33	0xbeee6a5a	-0.46565515
34	0xbf891c60	-1.0711784
35	0xbe6b19c9	-0.22959055
36	0x3dfb5e70	0.12273872
37	0xbfe5b65b	-1.7946275
38	0x3ef838cb	0.4848083
39	0xbe86b1b2	-0.26307446
40	0xbefcb83e	-0.49359316
41	0xbf1148ba	-0.56751597
42	0x3e8d6a9e	0.27620405
43	0xbdc9213c	-0.09820792
44	0x3d2707ba	0.040778853
45	0xbd4ddb01	-0.050257687
46	0xbe6764f3	-0.22597103
47	0xbdd74b46	-0.10512404
48	0xbea12db2	-0.31480175
49	0xbe11a859	-0.14224376
50	0x3bf900d9	0.007598978
51	0xbfb57132	-1.417517
52	0xbe5afe9d	-0.2138619
53	0x3e677a8d	0.22605343
54	0xbe0d6dc0	-0.13811398
55	0x3d1dc950	0.038522065
56	0x3f0c3b3a	0.5477787
57	0xbc599998	-0.0132812485
58	0xbec1e0cc	-0.3786682
59	0xbf23cdea	-0.63986075
60	0x3f0715fd	0.52767926
61	0xbc8215eb	-0.015879592
62	0xbef85503	-0.4850236
63	0x3ca51dc7	0.0201558
64	0xbf25c8d5	-0.6475957
65	0xbfe64b1f	-1.7991675
66	0xbf38faa3	-0.7225744
67	0x3d940a34	0.072285086
68	0xbdec7234	-0.1154522
69	0x3e85338e	0.26015896
70	0x3f0cb7e4	0.54968095
71	0xbdb263ef	-0.08710467
72	0x3e6d795c	0.23190826
73	0xbca20d1f	-0.019781647
74	0x3e0dbf7e	0.1384258
75	0xbcfcf619	-0.030879067
76	0x3e589a66	0.21152648
77	0x3d4945ce	0.049138837
78	0x3eeffefd	0.46874228
79	0x3e921042	0.2852803
80	0xbdf9dfd6	-0.122008964
81	0xbf96553e	-1.1744764
82	0xbfb23977	-1.3923787
83	0xbfaca67d	-1.3488308
84	0xbf894517	-1.072421
85	0xbe6dee23	-0.23235373
86	0xbf1baed8	-0.60813665
87	0x3f2053e9	0.62628037
88	0x3ea056ba	0.31316167
89	0x3e8c097d	0.2735099
90	0xbe32fd01	-0.17479326
91	0xbe97f71e	-0.29680723
92	0xbd8c4155	-0.068483986
93	0x3ecc7998	0.3993652
94	0xbf393ac9	-0.72355324
95	0x3eb1f877	0.34759876
96	0x3e35f46c	0.17769021
97	0x3ed3a169	0.41334084
98	0x3e15007e	0.14550969
99	0xbf3f707e	-0.74781024
100	0xbe9ddcbd	-0.30832472
101	0xbf28c41f	-0.6592426
102	0xbe0e178d	-0.13876171
103	0xbf2d9379	-0.6780315
104	0xbf5ff353	-0.8748066
105	0xbf378788	-0.7169118
106	0xbf251568	-0.6448579
107	0xbeab518f	-0.33460662
108	0x3e0d3dbc	0.13793081
109	0xbb3ea6dc	-0.0029091155
110	0xbe3c549f	-0.18391655
111	0x3e239928	0.15976393
112	0x3f943752	1.1579382
113	0xbe5dd4be	-0.21663186
114	0x3f324f10	0.6965189
115	0xbdb3b96a	-0.08775599
116	0xbe044ee6	-0.12920722
117	0xbe8e60ef	-0.2780833
118	0xbf215c4f	-0.63031477
119	0xbe92bccb	-0.28659663
120	0xbf5b3f13	-0.8564312
121	0xbfaaa2d8	-1.3330946
122	0xbf3badf4	-0.73312306
123	0x3ebc5ef7	0.36791202
124	0xbdaa3fbd	-0.08312938
125	0xbf14281c	-0.578737
126	0x3f2b23fc	0.6685178
127	0xbe028c91	-0.12748934
128	0xbecfca20	-0.40583897
129	0xbec89f98	-0.3918426
130	0xbdb4826e	-0.0881394
131	0xbe031b0c	-0.12803286
132	0x3e090e44	0.13384348
133	0x3e85db2a	0.2614377
134	0xbdf26511	-0.11835683
135	0xbf4d05dc	-0.80087066
136	0x3ece69a9	0.40314987
137	0x3eada02e	0.3391127
138	0x3e20977e	0.1568279
139	0xbd17fd57	-0.037106838
140	0x3db01f22	0.08599688
141	0xbe0a6b98	-0.13517606
142	0xbe469cf9	-0.19395818
143	0xbf227370	-0.63457394
144	0xbe82f8bd	-0.25580397
145	0xbedb29b6	-0.4280526
146	0xbf3d33ad	-0.73906976
147	0x3f0ad52c	0.54231524
148	0xbed5b3e5	-0.4173881
149	0xbe2da464	-0.16957241
150	0xbf53f4f8	-0.8279567
151	0xbf19317b	-0.59841126
152	0xbf977044	-1.1831136
153	0xbf908bd3	-1.1292671
154	0xbf7779de	-0.9667033
155	0xbef569ec	-0.47932374
156	0xbf18b39b	-0.59649056
157	0xbf6ede10	-0.9330759
158	0x3ea8251d	0.32840815
159	0xbd21e146	-0.039521478
160	0x3e3255ae	0.17415497
161	0xbf195d97	-0.5990843
162	0x3f0f7533	0.56038207
163	0x3ed65ea7	0.4186909
164	0xbe56abc0	-0.20963955
165	0x3d90bfa9	0.07067806
166	0x3b471c7c	0.0030381968
167	0xbe9dd3db	-0.30825695
168	0xbe478eef	-0.19488119
169	0xbe5e6f9c	-0.21722263
170	0xbbd17932	-0.0063926214
171	0xbdde76bb	-0.1086249
172	0x3d0645ef	0.032781538
173	0x3e940ca8	0.28915906
174	0x3e8e9dbf	0.27854726
175	0x3e8ee3b0	0.27908087
176	0xc00d3a0f	-2.2066686
177	0x3e908ada	0.28230935
178	0x3cdd2391	0.026994498
179	0x3e93d18b	0.28870806
180	0x3ee94716	0.45562047
181	0x3f00a655	0.502538
182	0xbfa4fa37	-1.288886
183	0xbf432eae	-0.762431
184	0xbf2042fa	-0.626022
185	0xbf14a888	-0.5806966
186	0x3eccc181	0.39991382
187	0x3d489fad	0.048980404
188	0xbde68162	-0.112551466
189	0xbf2606b9	-0.6485401
190	0x3ee3b8a7	0.44476816
191	0xbfa15661	-1.2604486
192	0xbe9a3782	-0.30120474
193	0xbe942a78	-0.2893865
194	0x3daf2e1f	0.08553719
195	0x3de00200	0.109378815
196	0xbb8c263f	-0.00427702
197	0xbee10f6e	-0.43957084
198	0xbe35f210	-0.17768121
199	0xbf0fbebd	-0.5615042
200	0xbeb6f3f1	-0.35732988
201	0xbf2a6ef4	-0.6657555
202	0xbe2fa19b	-0.17151491
203	0x3f276c11	0.6539927
204	0xbedee7e5	-0.43536296
205	0xbd473898	-0.048637956
206	0xbf5b0332	-0.8555175
207	0xbf2278f5	-0.63465816
208	0xbf90da9b	-1.1316713
209	0xbf85c193	-1.0449699
210	0xbf497a63	-0.7870237
211	0x3e60a59e	0.21938178
212	0xbe7b8e57	-0.24566017
213	0xbde4de69	-0.11175234
214	0xbe881df9	-0.26585367
215	0x3e8e1baf	0.27755496
216	0x3e9229f9	0.28547648
217	0x3e9306c3	0.28716096
218	0x3e06a072	0.13147143
219	0xbf529909	-0.82264763
220	0x3f5fd8b6	0.8744005
221	0x3e2a945d	0.16658159
222	0xbe3b102b	-0.18267886
223	0xbe4f6d6d	-0.20256586
224	0xbd405807	-0.04695895
225	0xbefe5f9d	-0.49682322
226	0xbf227cbb	-0.63471574
227	0x3dd465c0	0.1037097
228	0x3da5e8a4	0.08101013
229	0x3f10b00b	0.5651862
230	0x3f7f36ac	0.996928
231	0x3f0deb03	0.55436724
232	0xbe134fd5	-0.14385922
233	0xbf93fe72	-1.1562026
234	0xbe9acfdd	-0.30236712
235	0xbee90c45	-0.45517173
236	0xbf440c41	-0.765812
237	0xbf4586b7	-0.77158684
238	0x3eebb88f	0.46039245
239	0x3e184c24	0.14872795
240	0xbdff486f	-0.124649875
241	0xbf0a03b1	-0.5391188
242	0xbe913a7d	-0.28364936
243	0x3d5965a7	0.05307546
244	0x3f2a639e	0.66558254
245	0xbf70c48c	-0.94049907
246	0xbe7c6a5f	-0.24649952
247	0x3e4adb6e	0.19810268
248	0xbeb8f1e5	-0.3612205
249	0xbf3346eb	-0.7003009
250	0xbf14dcb6	-0.5814928
251	0xbe3ee4b8	-0.18641937
252	0x3f258b82	0.64666
253	0x3e507c5f	0.20359944
254	0x3f26a8da	0.651014
255	0xbeae5aa7	-0.34053537

bias f4 [200]
0	0x3de62a0b	0.11238488
1	0xbe8cf004	-0.27526867
2	0x3abd299f	0.001443196
3	0xbecf1786	-0.40447634
4	0x3e82e52f	0.25565478
5	0xbdd53cae	-0.10411964
6	0x3e9196f4	0.2843548
7	0xbde3453d	-0.110971905
8	0xbdae6589	-0.0851546
9	0xbe345a7d	-0.17612644
10	0xbea70e24	-0.32627976
11	0xbecef181	-0.40418628
12	0x3e84eb47	0.25960752
13	0xbcaecb2a	-0.02133711
14	0xbedee3f3	-0.43533286
15	0x3f0beff1	0.54662997
16	0xbe9ebe1d	-0.3100442
17	0xbe4e352b	-0.2013747
18	0x3ef2417c	0.47315586
19	0xbec156e4	-0.37761605
20	0xbe27abf5	-0.1637419
21	0xbee7d4f2	-0.45279652
22	0xbf131043	-0.5744669
23	0xbe25a800	-0.16177368
24	0x3e752d9f	0.23943184
25	0xbe8f6e5e	-0.2801389
26	0xbebe8473	-0.37210426
27	0x3edd7c51	0.43258908
28	0x3e35d5f7	0.17757402
29	0x3e43690f	0.19083045
30	0x3e85a407	0.26101705
31	0xbda826ae	-0.082105026
32	0x3e10812c	0.14111775
33	0xbf0b22dd	-0.5435007
34	0xbee482b4	-0.4463097
35	0x3f14b328	0.5808587
36	0xbe11b304	-0.14228445
37	0x3e8c2b3d	0.27376738
38	0xbeffa884	-0.49933255
39	0xbf18dc21	-0.5971089
40	0xbec9004f	-0.39258048
41	0xbe207b6a	-0.15672079
42	0x3d90e7e4	0.070754796
43	0xbea3dd41	-0.3200474
44	0xbebc9b81	-0.3683739
45	0xbe95af78	-0.29235435
46	0x3e9afc36	0.30270547
47	0xbd342458	-0.043979973
48	0xbd7a3e60	-0.06109464
49	0x3ef753b0	0.48306036
50	0x3e48cc11	0.19609095
51	0xbead8ba8	-0.33895612
52	0x3d9b92e6	0.07596378
53	0x3b46a2a4	0.0030309344
54	0x3f15ce39	0.58517796
55	0xbd66274a	-0.056189813
56	0xbe369a9d	-0.17832418
57	0xbec38c1d	-0.38192835
58	0xbe8ddbd8	-0.2770679
59	0xbe913d80	-0.28367233
60	0xbe3b51f7	-0.18292986
61	0xbe837c52	-0.25680786
62	0x3f091436	0.53546464
63	0xbe01cc81	-0.12675668
64	0xbd9ca47b	-0.0764856
65	0x3e2fec83	0.17180066
66	0xbe3d5403	-0.18489079
67	0xbd9eee01	-0.077602394
68	0xbe0c9f6f	-0.13732694
69	0xbe527a5c	-0.20554489
70	0xbdce24af	-0.100655906
71	0xbcd1d8de	-0.025616106
72	0x3cd00d66	0.025397014
73	0xbe176e54	-0.1478818
74	0x3c543438	0.012951903
75	0xbe6e1555	-0.23250325
76	0x3e92eb0a	0.28694946
77	0xbdb3ade2	-0.087734
78	0xbe8ce28f	-0.275166
79	0xbf118097	-0.5683684
80	0xbe92362a	-0.2855695
81	0x3e272605	0.16323097
82	0xbebde1ec	-0.37086427
83	0xbebc1542	-0.36734968
84	0xbd9d9be7	-0.07695752
85	0xbea2b76c	-0.31780565
86	0xbe0b6345	-0.13612087
87	0xbe943038	-0.28943038
88	0xbecc746c	-0.39932573
89	0x3c93f448	0.018060818
90	0xbf0018b6	-0.50037706
91	0xbd817643	-0.06321385
92	0x3e0bd5b3	0.13655739
93	0xbcbad7ec	-0.022808038
94	0xbe90fbe8	-0.2831719
95	0xbeb2ad4d	-0.34897843
96	0xbe92539c	-0.28579414
97	0xbe5006d6	-0.20315108
98	0xbec14eae	-0.3775534
99	0x3e8aabc3	0.2708417
100	0xbeee0e71	-0.46495393
101	0xbee9938d	-0.45620385
102	0xbd88bbc1	-0.06676436
103	0x3e1b3e3f	0.15160464
104	0xbeffdbed	-0.49972478
105	0x3ecbbc92	0.39792305
106	0xbe60ffae	-0.21972534
107	0x3e81df2e	0.25365585
108	0x3b305e24	0.002691158
109	0xbecdbeee	-0.4018473
110	0xbe1fe921	-0.15616275
111	0x3e42a4b9	0.19008149
112	0x3e710566	0.23537216
113	0xbdb71647	-0.08939796
114	0xbe964252	-0.29347473
115	0x3d9e63bd	0.07733867
116	0xbf303e29	-0.6884485
117	0xbf0eef6d	-0.55834085
118	0xbe20178c	-0.15633982
119	0xbdc353f7	-0.095374994
120	0x3e950234	0.29103243
121	0x3e765c4e	0.24058649
122	0x3dc5dc18	0.0966112
123	0xbe8647c6	-0.26226634
124	0x3d8d27a9	0.0689233
125	0xbdbac7db	-0.09120151
126	0xbdc98e01	-0.09841538
127	0x3f1d8a80	0.6153946
128	0xbec05ddb	-0.37571606
129	0xbd6ac249	-0.05731419
130	0xbe8531ae	-0.26014465
131	0xbe08eedf	-0.13372372
132	0x3c8e91a6	0.017403435
133	0xbebf7c02	-0.37399298
134	0xbe80d66d	-0.25163594
135	0xbe26e0de	-0.16296718
136	0x3e8f64be	0.28006548
137	0x3dd44bbf	0.1036601
138	0xbd51565b	-0.051107746
139	0x3d0fd751	0.03511745
140	0xbea6578f	-0.32488677
141	0x3ecbdde6	0.39817733
142	0xbc021c86	-0.007941371
143	0xbe4caf08	-0.19988644
144	0xbf1c8694	-0.6114285
145	0x3e0ad434	0.13557512
146	0xbe99a6f1	-0.3001018
147	0xbde928c7	-0.11384731
148	0xbee6eb1e	-0.45101255
149	0xbeefb0f4	-0.46814692
150	0xbe9d2e8e	-0.3069958
151	0xbea744d9	-0.32669714
152	0xbd2afc25	-0.04174437
153	0xbf1a6b15	-0.60319644
154	0xbe8c7beb	-0.27438292
155	0x3d59d4fb	0.05318163
156	0x3e92014e	0.2851662
157	0x3d4b1cd0	0.049588025
158	0xbdbb0371	-0.09131516
159	0xbf0f5299	-0.5598541
160	0xbe916787	-0.28399298
161	0xbe18e9f0	-0.1493299
162	0xbe8593d8	-0.26089358
163	0x3cf45452	0.029825363
164	0xbe8477dd	-0.25872698
165	0x3d574e71	0.052565042
166	0x3dc2f938	0.09520191
167	0x3e39fe11	0.18163325
168	0xbee5d779	-0.44890955
169	0xbf014f72	-0.5051185
170	0xbe8200b9	-0.25391176
171	0x3e5abc61	0.21360923
172	0x3e5cd299	0.21564712
173	0xbca64d89	-0.020300644
174	0xbd8d897c	-0.06910989
175	0xbe50505d	-0.20343156
176	0x3eda1f13	0.42601833
177	0x3d82f30c	0.06394014
178	0xbd9b6230	-0.07587087
179	0xbe618756	-0.22024283
180	0xbd35f940	-0.044427156
181	0xbda6b4aa	-0.08139928
182	0xbe9aa175	-0.30201307
183	0x3eb4f5e7	0.3534386
184	0xbe040832	-0.12893751
185	0xbe81f805	-0.25384536
186	0xbed07a63	-0.40718374
187	0x3eb75c08	0.35812402
188	0x3e02803e	0.12744233
189	0x3e44ceda	0.19219533
190	0xbe2a8c4c	-0.16655082
191	0xbe29addf	-0.16570233
192	0x3dd0b283	0.101902984
193	0x3e956072	0.29175144
194	0x3e7e8390	0.24854875
195	0x3e62840b	0.22120683
196	0x3cb54a04	0.02213002
197	0x3f2cfd36	0.6757387
198	0x3e2901e0	0.16504622
199	0xb97061e1	-0.00022924646

weight f4 [200, 200]
0	0x3d18801a	0.037231542
1	0xbd91a5a1	-0.07111669
2	0x3c841a11	0.01612571
3	0x3d52b36b	0.051440638
4	0xbd840aa2	-0.064473405
5	0xbb944a7f	-0.004525482
6	0xbc145601	-0.009053708
7	0x3c53b169	0.012920716
8	0xbd4bdd20	-0.049771428
9	0x3d156a4e	0.036478333
10	0xbd448d69	-0.04798642
11	0xbd2ff4f0	-0.0429582
12	0xbd64a1f9	-0.05581853
13	0x3d0eeab4	0.0348918
14	0xbcf30ea5	-0.029670069
15	0x3ca6fafb	0.020383349
16	0xbb075c4b	-0.0020654376
17	0xbd73fe18	-0.059568495
18	0xbdc80473	-0.097664736
19	0xbca9f0cb	-0.020744702
20	0xbd52e80d	-0.051490832
21	0xbd872463	-0.06598737
22	0x3c554c81	0.013018728
23	0xbd4e8916	-0.050423704
24	0x3ba92f1b	0.005163086
25	0xbd8de7b6	-0.06928961
26	0xbd7c270c	-0.061560676
27	0xbd4ebefb	-0.050475102
28	0xbd599c41	-0.05312753
29	0x3cf7d2c5	0.03025187
30	0xbc7273e3	-0.014798137
31	0xbbe0dbbd	-0.0068621323
32	0xbd8e8101	-0.06958199
33	0xbcbff675	-0.02343295
34	0x3cb9ae8b	0.022666236
35	0xbd206168	-0.039155394
36	0x3c3307d1	0.010927157
37	0x3cdb1fd6	0.026748579
38	0xbd148bbc	-0.036266074
39	0x3ca9282d	0.02064904
40	0x3bc8b969	0.0061256182
41	0xbd9f3281	-0.07773305
42	0xbd8653b4	-0.06558934
43	0x3c71906a	0.014743904
44	0x3d1f3392	0.03886754
45	0x3c47e597	0.012200735
46	0xbdb3cc92	-0.08779253
47	0xbd5f7829	-0.054557953
48	0x3d5bc3c4	0.053653494
49	0xbd8b5f37	-0.0680527
50	0xbd527437	-0.051380362
51	0xbd69df73	-0.057097863
52	0xbd4d9439	-0.050190184
53	0x3c900ccf	0.017584233
54	0x3cdc33e3	0.02688021
55	0xbd03b1c5	-0.032151956
56	0xbd481402	-0.048847206
57	0xbd6ed2eb	-0.058306616
58	0xbd47a0da	-0.048737384
59	0xbc728f88	-0.014804728
60	0xbd952332	-0.072821036
61	0x3cfdbb39	0.030973064
62	0xbd84ab3d	-0.064779736
63	0x3d4d21b5	0.050080974
64	0x3d2e5d65	0.042569537
65	0x3c04a107	0.008095033
66	0x3b0c857e	0.0021441872
67	0xbd83cebc	-0.06435916
68	0xbc0e2802	-0.008676531
69	0xbd4c1363	-0.049823176
70	0x3c1f2b38	0.009714894
71	0x3d0cec9b	0.034405332
72	0x3ccaa447	0.024736537
73	0xbd905ae8	-0.07048589
74	0x3b1ba00e	0.0023746523
75	0xbc9204cd	-0.017824555
76	0x3d0f88f0	0.035042703
77	0xbd7a1e76	-0.061064206
78	0xbe03f9cd	-0.1288826
79	0xbac18977	-0.0014765699
80	0xbcb0d5c8	-0.021586314
81	0x3c65233d	0.013985452
82	0xbd20e5ae	-0.03928154
83	0xbd24b1f1	-0.04020876
84	0xbd91026e	-0.070805416
85	0x3d31c532	0.04340095
86	0xbc9b008d	-0.018921161
87	0xbcd31cbd	-0.02577054
88	0xbdddf84e	-0.10838376
89	0xbd19ee9a	-0.037581064
90	0xbd58b126	-0.052903317
91	0xbd4e3f9b	-0.050353628
92	0xbdc52bed	-0.09627519
93	0xbd1661e3	-0.036714446
94	0x3c915cd3	0.017744457
95	0xbb90c701	-0.0044182544
96	0x3cebdaaf	0.0287908
97	0x3ce753ec	0.02823826
98	0x3b92069b	0.004456354
99	0x3ce0b486	0.02742983
100	0x3b586399	0.003301835
101	0x3c8904d7	0.01672594
102	0xbd122878	-0.035683125
103	0x3bda2ed3	0.006658414
104	0x3d5110b1	0.05104131
105	0x3c3d6cbe	0.011561571
106	0x3d13eea2	0.03611625
107	0xbca69451	-0.020334395
108	0xbdc11830	-0.094284415
109	0x3d6256ce	0.055258565
110	0xbd81bffa	-0.06335445
111	0x3d6e8c5e	0.058239333
112	0xbbb66252	-0.00556592
113	0xbcd8cba0	-0.026464283
114	0xbcabb673	-0.020961022
115	0xbd3fa71f	-0.04679024
116	0xbc876b93	-0.016530788
117	0xbc859457	-0.016306086
118	0xbc935407	-0.017984403
119	0xbdbbe594	-0.09174648
120	0x3d138861	0.036018733
121	0x3ba7e833	0.005124116
122	0xbd15f14f	-0.036607083
123	0xbd5d6c68	-0.054058462
124	0xbd81ab9b	-0.06331559
125	0x3cb5befc	0.022185795
126	0x3ce29e7f	0.027663467
127	0x3caeeec3	0.021354085
128	0xbdd525ec	-0.10407624
129	0xbd6daea0	-0.058027864
130	0xbd2242c7	-0.039614465
131	0xbb18deac	-0.0023326082
132	0xbda7135a	-0.08157988
133	0xbc276839	-0.01021772
134	0xbce61ce9	-0.028089957
135	0xbc80c89c	-0.015720658
136	0xbd0033bf	-0.03129935
137	0xbcdfd04d	-0.027321005
138	0x3d2a65a6	0.041600846
139	0xbd35a038	-0.04434225
140	0xbcccbdf9	-0.02499293
141	0xbc4fe79b	-0.012689496
142	0x3c56c62e	0.013108773
143	0xbbc92865	-0.0061388486
144	0xbc204e63	-0.009784314
145	0x3a6af6dc	0.00089631765
146	0xbd0b46ee	-0.03400319
147	0xbc3810d7	-0.011234484
148	0xbd29d6b7	-0.041464534
149	0xbd1ba4e5	-0.037999053
150	0x3cb013d1	0.021493824
151	0xbc86e271	-0.016465398
152	0xbd2deea0	-0.0424639
153	0xbd922d87	-0.0713759
154	0xbd1f567f	-0.03890085
155	0x3d70af09	0.058760677
156	0xbcb17a30	-0.021664709
157	0x3cb96f0b	0.022635957
158	0xbdc798ef	-0.09745967
159	0x3c5ef106	0.013607269
160	0xbd96e857	-0.07368534
161	0x3bfce8e6	0.0077181933
162	0xbde96595	-0.11396328
163	0x3c689002	0.01419449
164	0xbcbe5f52	-0.023238812
165	0xbc8d506b	-0.01725026
166	0x3ab0b085	0.0013480341
167	0x3ced122b	0.028939327
168	0xbd93f6b6	-0.07224791
169	0xbd605d05	-0.05477621
170	0x3cd8171b	0.026378205
171	0x3d30924c	0.04310827
172	0xbcefb387	-0.02926041
173	0xbd665c03	-0.056240093
174	0xbc06a0bd	-0.008217034
175	0x3cf609ac	0.030033909
176	0x3d52f948	0.051507264
177	0xbd66275d	-0.056189884
178	0x3c1e4ee6	0.009662366
179	0xbd51f548	-0.05125931
180	0x3b806bbd	0.0039190934
181	0x3c4920ad	0.012275857
182	0xbd4f38df	-0.050591346
183	0xbdd2c7ac	-0.10291991
184	0xbd6236d4	-0.05522807
185	0xbc1ac892	-0.009447234
186	0xbd873457	-0.0660178
187	0xbceed743	-0.02915538
188	0xbd0dfd1e	-0.03466522
189	0xbd3defd1	-0.046371285
190	0x3ace35a1	0.0015732535
191	0xbda13e64	-0.07873228
192	0xbc29e10a	-0.010368595
193	0xbd89dbd5	-0.06731383
194	0x3d519210	0.051164687
195	0x3d38e2c9	0.045138154
196	0xbd6aa50d	-0.05728631
197	0xbdb29f38	-0.08721775
198	0xbc0b1581	-0.008489014
199	0xbd9cacad	-0.07650123
200	0xbe067060	-0.13128805
201	0xbe507dc4	-0.20360476
202	0x3e3f3f25	0.18676431
203	0xbd8f5643	-0.06998875
204	0xbf21f992	-0.6327144
205	0x3f5d70f6	0.8650049
206	0xbe898e40	-0.2686634
207	0x3eab31ed	0.33436528
208	0xbeccf4bf	-0.40030476
209	0x3d0b53d9	0.03401551
210	0x3f937dad	1.1522728
211	0xbfaa24f6	-1.329253
212	0xbe34a778	-0.1764201
213	0x3c6768e5	0.01412413
214	0x3f0c6d0c	0.5485389
215	0xbf4bb06a	-0.7956606
216	0x3e11215d	0.14172883
217	0xbf192993	-0.5982906
218	0xbf1f9a85	-0.62345153
219	0xbe186f0f	-0.14886115
220	0xbd5cdd44	-0.053921953
221	0xbeaca227	-0.33717462
222	0xbfa91b2c	-1.3211417
223	0xbd950821	-0.07276941
224	0xbee632e6	-0.44960707
225	0x3e46cb58	0.19413507
226	0xbc099853	-0.008398133
227	0x3ef799d8	0.4835956
228	0x3e41dda1	0.18932201
229	0x3ebf0fc4	0.37316716
230	0x3eb49065	0.35266414
231	0x3edd6c80	0.4324684
232	0xbe331ea5	-0.17492159
233	0xbdff72ff	-0.12473106
234	0x3f079127	0.5295586
235	0x3e10f352	0.1415532
236	0xbea79410	-0.3273015
237	0xbdfc1e5c	-0.12310478
238	0xbda11046	-0.07864432
239	0xbe2fef08	-0.17181027
240	0x3cf594c8	0.029978171
241	0xbe11e359	-0.14246882
242	0xbd96317a	-0.07333656
243	0xbf0d37a2	-0.55163014
244	0xbe383fe1	-0.17993118
245	0x3e84cdc4	0.25938237
246	0x3d73e44b	0.05954389
247	0xbe1cf2fe	-0.15327069
248	0xbf0ba895	-0.5455411
249	0xbdb87c1f	-0.09008049
250	0xbdb82374	-0.08991137
251	0x3cc502fc	0.024049275
252	0xbecaaee0	-0.39586544
253	0x3ec676b4	0.38762438
254	0xbf563f8f	-0.8369073
255	0x3dae5531	0.08512343

bias f4 [200]
0	0xbdc8fd2f	-0.09813916
1	0xbda851c6	-0.08218722
2	0xbededd4d	-0.43528214
3	0xbe6a4025	-0.22876032
4	0xbe24525d	-0.16047044
5	0xbd982bf0	-0.074302554
6	0xbddcc550	-0.10779822
7	0x3d96d2aa	0.073644
8	0xbe05f3e2	-0.13081315
9	0xbed60f3a	-0.41808492
10	0x3eb7b4bf	0.35880086
11	0xbe5f9811	-0.21835352
12	0x3f056b69	0.5211702
13	0x3e64cbb0	0.22343326
14	0xbe8dbf22	-0.27684885
15	0xbce41c6a	-0.02784558
16	0x3eccab16	0.39974278
17	0xbcfceea5	-0.030875513
18	0xbe5e14fd	-0.21687694
19	0xbd6df7f3	-0.05809779
20	0xbc18a8f3	-0.009317624
21	0x3e130483	0.1435719
22	0xbc974184	-0.018463857
23	0xbeb974a4	-0.36221802
24	0xbdff7383	-0.12473204
25	0xbd8d104a	-0.068878725
26	0xbd15e1dd	-0.036592353
27	0xbec4c379	-0.38430384
28	0xbefd5c7b	-0.4948462
29	0xbf13f823	-0.578005
30	0xbd15d48b	-0.03657965
31	0x3e3da2bb	0.18519108
32	0xbe01b041	-0.12664892
33	0x3bae1713	0.0053128093
34	0xbefea212	-0.49733025
35	0xbec86f3f	-0.39147374
36	0xbd69aff4	-0.057052568
37	0xbdb89d45	-0.09014372
38	0xbe261b98	-0.16221464
39	0xbedd5d89	-0.43235424
40	0xbd0f3b7e	-0.034968846
41	0xbdb22a91	-0.08699525
42	0x3eb88d7d	0.36045447
43	0xbe21d7f2	-0.15805033
44	0xbca33afa	-0.019925583
45	0x3e932769	0.28741005
46	0xbe04a1a8	-0.12952292
47	0xbefee359	-0.49782827
48	0x3e0fa57f	0.14027975
49	0xbec6249d	-0.3869981
50	0x3efab65f	0.48967263
51	0xbde40732	-0.11134185
52	0xbcc1426f	-0.023591248
53	0xbd949f09	-0.07256896
54	0xbda2f4b4	-0.0795683
55	0x3e2b3b3c	0.16721815
56	0x3d975724	0.07389668
57	0x3e64eff0	0.22357154
58	0xbe6c7b36	-0.23093876
59	0xbd8dad5c	-0.06917831
60	0x3ec8f7d4	0.39251578
61	0x3dc03990	0.09385979
62	0xbd4afb9b	-0.049556356
63	0xbdef518e	-0.11685477
64	0xbeb7424d	-0.3579277
65	0x3e511696	0.20418772
66	0xbecafa03	-0.3964387
67	0x3d6c8310	0.05774218
68	0xbf009e44	-0.50241494
69	0xbc23a652	-0.009988384
70	0x3e189ebc	0.14904302
71	0xbe05c3f1	-0.13063027
72	0x3d289b9c	0.041164026
73	0x3e8bb988	0.27289987
74	0xbd5589c6	-0.052133344
75	0xbceb9ac3	-0.02876032
76	0x3f0e8327	0.5566887
77	0xbe098460	-0.13429403
78	0xbede8d3b	-0.43467125
79	0xbdbd2e1f	-0.092373125
80	0x3e9e252c	0.30887735
81	0xbdfb5e6f	-0.12273871
82	0xbf209f0b	-0.6274268
83	0xbdd7d55a	-0.105387405
84	0xbe6ae7df	-0.22940014
85	0xbe1db210	-0.15399957
86	0xbd4805bd	-0.048833597
87	0xbe7612e6	-0.24030647
88	0xbcbfc448	-0.023409024
89	0xbeaf8e1d	-0.3428811
90	0xbe92cc00	-0.28671265
91	0xbbf79ac4	-0.0075562913
92	0x3e9794e6	0.29605788
93	0xbd5cbbdc	-0.053890094
94	0x3e7e6b51	0.24845625
95	0xbcb4e2e3	-0.022080844
96	0x3e716f6d	0.23577662
97	0x3d4f7ada	0.05065427
98	0xbd51672b	-0.05112378
99	0xbef6840d	-0.48147622
100	0xbc795d45	-0.015219991
101	0xbd278f78	-0.040908307
102	0xbe4e1379	-0.20124616
103	0xbdcf8972	-0.101336375
104	0xbe014e51	-0.12627532
105	0x3eee3e82	0.46532065
106	0xbdb1765b	-0.08665153
107	0xbe82da22	-0.25557047
108	0xbde56e1a	-0.11202641
109	0xbddfaffd	-0.10922239
110	0xbded226e	-0.115788326
111	0xbe29af83	-0.16570859
112	0x3ebdb015	0.37048402
113	0xbcf0abba	-0.02937876
114	0x3e9186ad	0.28423062
115	0xbd42db8b	-0.047572654
116	0xbeb74dd2	-0.3580156
117	0xbd71c91a	-0.059029676
118	0xbda7a2cc	-0.08185348
119	0xbe12e378	-0.14344585
120	0xbeb3c41d	-0.3511056
121	0x3e938b53	0.28817233
122	0xbf16daf5	-0.5892785
123	0x3ebbfac8	0.36714768
124	0x3e95a2eb	0.2922586
125	0xbe0b9244	-0.13630015
126	0xbd23eacf	-0.040018853
127	0xbe47aa63	-0.19498591
128	0xbdd5a507	-0.10431867
129	0xbf40dc63	-0.75336283
130	0xbc0ad562	-0.008473726
131	0x3eaa87e6	0.33306807
132	0xbf224204	-0.6338198
133	0xbf1ddccf	-0.6166505
134	0x3d90a2bc	0.07062289
135	0x3e6cf1f0	0.23139167
136	0xbed8a398	-0.42312312
137	0xbf69c020	-0.91308784
138	0xbed7e355	-0.42165628
139	0xbdf3fcba	-0.11913438
140	0xbd24fd09	-0.040280376
141	0xbe988ccd	-0.29794922
142	0xbe0d65b0	-0.13808322
143	0xbd973158	-0.073824584
144	0xbea0df8c	-0.31420553
145	0xbef2472c	-0.47319925
146	0xbd3fc101	-0.046814922
147	0xbd21a93c	-0.039468035
148	0xbe0f88d5	-0.14017041
149	0xbeeef0a0	-0.46667957
150	0xbe1c218d	-0.15247174
151	0xbd0d3120	-0.034470677
152	0xbd76db67	-0.060267832
153	0xbd949297	-0.07254522
154	0xbddf8dd1	-0.10915721
155	0xbe06b9ce	-0.13156816
156	0x3d377e6f	0.04479831
157	0xbdbcfdd4	-0.092281014
158	0xbd8d8952	-0.069109574
159	0xbdfe010c	-0.124025434
160	0xbda86c0a	-0.08223732
161	0xbdb976f3	-0.09055891
162	0xbec7fbb9	-0.39059237
163	0xbdc08535	-0.09400407
164	0xbdaff17c	-0.08590981
165	0xbd32c510	-0.043644965
166	0xbe30a348	-0.17249787
167	0xbdb6a4d7	-0.089181595
168	0xbeceedea	-0.4041589
169	0xbe372824	-0.17886406
170	0xbdc9a57d	-0.098460175
171	0xbe9a7fef	-0.3017573
172	0x3dd60c44	0.10451558
173	0x3e61f158	0.22064722
174	0xbe2284d7	-0.15870987
175	0xbda2c659	-0.07947988
176	0xbdb34bd4	-0.087546974
177	0x3f027da6	0.50972974
178	0xbebcae45	-0.36851707
179	0xbc62ac0b	-0.013834964
180	0x3e5fbc85	0.21849258
181	0x3c12aea9	0.008952775
182	0xbda59d86	-0.08086686
183	0xbdba737d	-0.09104059
184	0xbdf6f4d6	-0.120584175
185	0xbd01e528	-0.03171268
186	0xbd7192b3	-0.058977794
187	0xbd9983f6	-0.07495873
188	0xbe46f9ec	-0.19431275
189	0xbd8a0c1f	-0.06740593
190	0xbdcd0fe6	-0.10012798
191	0x3f17e3fb	0.59332246
192	0xbe8e182e	-0.27752823
193	0xbc2b101a	-0.010440851
194	0xbd6acb36	-0.057322703
195	0xbdc1663a	-0.09443326
196	0xbe042a7c	-0.12906832
197	0xbdaa8aba	-0.08327241
198	0xbea1b2ac	-0.31581628
199	0xbe12e1cc	-0.14343947

weight f4 [1, 200]
0	0x3c8d3832	0.01723871
1	0xbeb46e83	-0.35240564
2	0xbe2d3fbc	-0.16918844
3	0xbea28f11	-0.31749776
4	0xbb842c0c	-0.004033571
5	0xbc86c3c2	-0.016450766
6	0xbb705f64	-0.003667795
7	0x3e195542	0.1497393
8	0xbc787c4a	-0.015166352
9	0xbeb7f95c	-0.35932434
10	0xbfef804e	-1.871103
11	0x3fb7eddc	1.4369464
12	0x3e91b859	0.2846096
13	0x3ed2d7dc	0.41180313
14	0x3e8183f3	0.25295982
15	0xbf51ead6	-0.81998956
16	0xbe8745ac	-0.26420343
17	0xbc86a516	-0.016436141
18	0xbf53964c	-0.8265121
19	0x3c85efdd	0.016349727
20	0x3eefb64c	0.4681877
21	0xbf4acb23	-0.7921621
22	0xbf83be6c	-1.0292487
23	0xbf810399	-1.0079223
24	0xbc9f412f	-0.019440262
25	0x3ef69b97	0.4816558
26	0x3cbf4afe	0.023351189
27	0x3f34f60f	0.70687956
28	0xbec3c158	-0.38233447
29	0x406c65da	3.6937165
30	0x3d17ba2e	0.03704279
31	0xbfc2ce69	-1.5219241
32	0x3c2dba78	0.01060354
33	0xbe3f9c48	-0.1871196
34	0x400aec57	2.170675
35	0xbff11439	-1.8834296
36	0xbf61ec74	-0.88251424
37	0x402f88a5	2.7427151
38	0xbeeaf157	-0.45887253
39	0xbd939a75	-0.07207195
40	0xbeeaab6b	-0.45833907
41	0xbf91456e	-1.1349313
42	0xbef5ad8f	-0.47983977
43	0xbcfec5db	-0.031100204
44	0x3c20c8c2	0.009813489
45	0xbe106bf2	-0.14103678
46	0x3c800ba6	0.015630554
47	0xbfd8aa91	-1.6927053
48	0x4028ad9c	2.6355963
49	0xbe078fd5	-0.13238461
50	0xc04f721d	-3.24134
51	0xbd07a39f	-0.033115026
52	0xbc273fca	-0.01020808
53	0xbc6600d4	-0.014038283
54	0x3cf4ac74	0.029867388
55	0xbe9ccc93	-0.30624828
56	0xbfb4a975	-1.4114214
57	0x405efe2d	3.4842637
58	0x3e544752	0.20730332
59	0xbca67a96	-0.020322125
60	0xc0025270	-2.0362816
61	0x40004a8c	2.00455
62	0xba7456ca	-0.0009320794
63	0xc08da81b	-4.4267707
64	0x40a1abf0	5.0522385
65	0x3edeffc4	0.4355451
66	0x3f965c72	1.1746962
67	0xbf88790e	-1.0661943
68	0x3f0d98db	0.55311364
69	0xbad960a2	-0.0016584585
70	0xbf5fe149	-0.8745313
71	0xbbe467ce	-0.0069703823
72	0x4085fe70	4.1873093
73	0xc02649fa	-2.5982652
74	0xbca3fd6b	-0.0200183
75	0x3b968138	0.004593041
76	0xbe9cff7b	-0.30663666
77	0x3ea02827	0.31280634
78	0xbe835bab	-0.25655875
79	0xbef9708c	-0.4871868
80	0x3ecd0309	0.40041378
81	0x3ba1e2e8	0.0049403794
82	0xbfa24d9a	-1.2679932
83	0x3c289eb4	0.010291744
84	0x3ea7dc31	0.3278518
85	0xbe8fb251	-0.28065732
86	0xbda47b13	-0.08031287
87	0x3e4ee497	0.20204388
88	0x3ca5abca	0.020223517
89	0xc00ff25d	-2.2491677
90	0xbe90e1ff	-0.2829742
91	0x3d0b6a59	0.034036968
92	0xbe8fff62	-0.2812453
93	0x3c4748cb	0.012163351
94	0xbf657733	-0.8963501
95	0xbcb34ec0	-0.021888137
96	0xbdf4c52b	-0.11951669
97	0x40b9daf6	5.8079786
98	0xbbd8242d	-0.0065961094
99	0xbfafbc48	-1.3729334
100	0xbc45036a	-0.01202474
101	0x3c209e5c	0.009803381
102	0xc06674fa	-3.6008897
103	0x3d268d06	0.040661834
104	0xbc7421b5	-0.0149006145
105	0xbdaf2127	-0.08551245
106	0x39c407fb	0.0003738998
107	0xc01f6dea	-2.4910836
108	0xbc4ff31c	-0.012692239
109	0x3cc6872b	0.024234375
110	0x3cb2d7ff	0.02183151
111	0xbd3731ee	-0.04472535
112	0xbf01200a	-0.5043951
113	0x3c27235d	0.010201302
114	0x3d9658fe	0.07341193
115	0x3c926a06	0.017872822
116	0xbd8f91ee	-0.07010256
117	0x40ff5498	7.9790764
118	0x408026c6	4.004733
119	0xbff26f78	-1.8940268
120	0x3f458e85	0.7717059
121	0x3e209390	0.1568129
122	0xc0570c1d	-3.3601143
123	0x3e3f63fb	0.18690483
124	0xbe455285	-0.1926976
125	0xba70c3e8	-0.0009184466
126	0xbc0f69b8	-0.008753233
127	0xbe02bf71	-0.12768342
128	0x3b6b1b8c	0.0035874574
129	0xbf4c8982	-0.7989732
130	0xbb08ec1a	-0.002089268
131	0xbff64df3	-1.9242538
132	0xc0035933	-2.0523193
133	0x3de8efe2	0.11373879
134	0xbdf554e7	-0.119790845
135	0xbe8766dc	-0.26445663
136	0x3fb0be48	1.3808069
137	0xbfebb332	-1.8414061
138	0xbf7d5df4	-0.98971486
139	0xbc0f670e	-0.0087525975
140	0xc00c45b5	-2.1917546
141	0x3fedc408	1.8575449
142	0x3e93723d	0.28798094
143	0xbbef2beb	-0.0072989366
144	0xbf519622	-0.8186971
145	0x3dc6a504	0.09699443
146	0xb9f776ed	-0.00047200118
147	0x3c130065	0.008972262
148	0x3f8068a6	1.0031936
149	0x3f006394	0.50151944
150	0xbe0514cf	-0.12996219
151	0xbfb316e8	-1.3991365
152	0x3c9c202f	0.019058315
153	0x3bea519d	0.0071508423
154	0xbc6620d2	-0.014045911
155	0x3d063579	0.03276584
156	0x3f80e3a4	1.006947
157	0xbc89eee3	-0.016837543
158	0x3c8ad2dc	0.016946249
159	0x3bac2194	0.0052530263
160	0xbc05c26b	-0.008164029
161	0xbc3844a7	-0.011246837
162	0xbc20d50a	-0.0098164175
163	0x3d4cad11	0.049969736
164	0x3c048053	0.0080872355
165	0x3f33c8a6	0.7022804
166	0x3f912601	1.1339723
167	0x3c48dbb3	0.012259412
168	0xbf0e952d	-0.55696374
169	0x3f8161f1	1.0108014
170	0x3c63c561	0.013902039
171	0xbe6bca58	-0.23026407
172	0xbed4588c	-0.41473806
173	0xc01b1a4f	-2.4234807
174	0x400445f6	2.06677
175	0x3c5e0463	0.013550851
176	0xbd1057db	-0.035240036
177	0xbed41db9	-0.41428927
178	0x3e5b6016	0.21423373
179	0x3de837b2	0.11338748
180	0x3e1282d9	0.14307727
181	0xc01b66ea	-2.4281564
182	0x3c35c5f6	0.011094561
183	0xbc7fdf31	-0.015617178
184	0xbe519394	-0.20466453
185	0xbb048f9d	-0.0020227202
186	0x3cd068a0	0.025440514
187	0xbc1157e6	-0.008871054
188	0x3abe6bee	0.0014528015
189	0xbc878171	-0.016541215
190	0xbf82365a	-1.0172837
191	0xbe06bf0b	-0.13158815
192	0xbf3be3ed	-0.7339466
193	0x3c4a75ce	0.012357188
194	0x3baab000	0.005208969
195	0xbce3e6a3	-0.027819937
196	0x3ef61f5d	0.48070803
197	0x3cd68e8d	0.02619102
198	0x3c8b2597	0.016985698
199	0xbc5325ad	-0.012887401
