Vehicles/ModRepeat_forest_0/ModRepeat_forest_0_critic.pth (torch, 353494 bytes, 10 tensors)

weight f4 [200, 15]
000000 70 20 22 bf 98 6d e4 bc 3a e1 8e 3f 25 a5 9c bf
       -0.63330746 -0.02788429 1.1162484 -1.2237898
000010 6b 83 bb 3b 32 fc 08 b9 6a ab 84 3d a2 e1 36 bf
       0.0057224534 -0.00013063921 0.06478007 -0.7143804
000020 76 7a 9c be fb 81 09 3f eb 63 76 3e 76 fe 92 bf
       -0.3056218 0.5371396 0.24061553 -1.1483905
000030 66 9a af bd 4f 00 3d be 97 c7 6e be db c8 80 3f
       -0.08574371 -0.18457149 -0.23318325 1.0061296
000040 6e f2 1d bf 2d 4d 18 3f 57 54 18 bf cb ff 10 3f
       -0.61698043 0.5949276 -0.5950369 0.5664031
000050 92 4d 09 3f 08 02 42 3f cf 55 8b bf da b6 b4 bf
       0.5363399 0.7578435 -1.0885562 -1.4118302
000060 0c 27 94 bf 0f 08 96 bf c0 7e 4e bf a9 28 8c bf
       -1.1574416 -1.1721209 -0.80662155 -1.0949908
000070 37 ea 4e bf 03 d5 24 bf 83 34 d3 be 6b 44 4a bf
       -0.80826133 -0.6438753 -0.41251 -0.7901065
000080 87 a6 63 3d b5 7c 85 3d 94 fa 57 bf 69 3d 37 bf
       0.055578735 0.065179266 -0.84366727 -0.7157808
000090 ea fb ce 3e 43 b0 1c 3f 6b 44 d8 3d 56 76 d0 ba
       0.4042657 0.61206454 0.10559925 -0.0015904407
0000a0 46 36 7b 3e 7c a3 e6 be 3d 7d ad bc 74 69 76 bc
       0.24532422 -0.45046604 -0.021177882 -0.01503979
0000b0 fb 38 45 bf 95 b0 e4 bd 42 c2 08 be 16 74 72 bf
       -0.7704007 -0.11166493 -0.13355353 -0.94708383
0000c0 b5 4b 58 3f 73 8d c3 be 70 8e 09 3d 90 6f dd 3d
       0.8449052 -0.38193855 0.033583105 0.108122945
0000d0 47 b2 cf bd 6f 24 0e be 1d 38 9e be 17 7a de bd
       -0.101414256 -0.13881086 -0.30902186 -0.108631305
0000e0 f7 8a 88 3e ee fc 60 be 95 66 9f 3c 6f 5b 28 3e
       0.26668522 -0.21971485 0.019458095 0.16441129
0000f0 bd f1 38 bf 2a 23 6e bf 8d fb 4d bf f1 0a 41 3f
       -0.72243863 -0.93022406 -0.8046196 0.7540732
000100 f7 41 bf 3d 5a f4 3d 3e a5 d2 e7 3d 2e 20 1e 3f
       0.09338754 0.18550244 0.11319474 0.6176785
000110 6b d2 0a be 88 d9 92 3e 88 86 27 3d 48 dc 9c bd
       -0.1355683 0.28681588 0.040899783 -0.07659203
000120 2b ed 62 3e b4 45 15 3f 1d 4f ab be 17 e7 f6 3e
       0.22160785 0.58309484 -0.33458796 0.48223183
000130 84 45 77 3f f5 08 b7 3d 73 a7 3f bf 7a 72 99 be
       0.9659045 0.08937255 -0.7486488 -0.2997015
000140 ad 9a 07 3f 33 b3 fa be 44 50 54 bf e3 9a 94 bf
       0.5297039 -0.48964843 -0.82934976 -1.1609768
000150 d8 a0 bb bf 72 29 f4 c0 bd 52 a7 c0 24 ba 84 c0
       -1.4658461 -7.6300592 -5.22885 -4.1477222
000160 af ed 45 c0 8b 7b 2d be 59 67 5e be 6b b0 a3 3f
       -3.092632 -0.16941659 -0.21719112 1.2788213
000170 f2 2e 79 bd c3 1a 2b bf 0d 16 fa bd fe 06 fd be
       -0.060835786 -0.6683771 -0.12211237 -0.49419397
000180 b8 29 23 bf 06 f5 ae be 9c 6b 08 3f 46 43 8b 3e
       -0.6373553 -0.34171313 0.532892 0.27199763
000190 43 89 b2 be be 8e 4a bf b6 04 e5 be 80 4a 02 3e
       -0.34870347 -0.7912406 -0.44730157 0.12723732
0001a0 30 28 00 bc c2 91 79 3e dd 72 11 3e 9d 41 b0 3d
       -0.007822081 0.24372008 0.14203973 0.08606265
0001b0 b6 e6 48 bf 76 db 44 3e c1 42 4e 3f 5e 21 5c be
       -0.78477037 0.19224343 0.8057061 -0.21497104
0001c0 e9 1e 01 3f 59 c1 16 c0 14 56 6f 3e 13 08 45 bf
       0.5043779 -2.355551 0.2337268 -0.76965445
0001d0 5a 4b 3a bf 8f 8f bf be 2a 74 2b bf e6 bb 6a 3e
       -0.7277123 -0.37414214 -0.6697413 0.2292324
0001e0 96 a4 fe 3e 5a 9e 88 3e 27 c5 5f be bf a9 46 be
       0.49734944 0.26683313 -0.21852551 -0.1940069
0001f0 a8 85 56 bf 27 d8 16 bf b6 51 f0 be a5 ac 05 3d
       -0.83797693 -0.5892357 -0.4693734 0.03263535
000200 90 7b 2f bf 2f d5 24 bf 32 41 18 be 57 c0 61 3e
       -0.68547916 -0.6438779 -0.1486862 0.22046028
000210 31 78 ba bf b1 96 1a bf 82 9e c8 be 84 ee c3 be
       -1.456793 -0.60386187 -0.39183432 -0.3826791
000220 ed af 20 3e 2c 5b ce bd b8 49 a5 3d 8f c1 e7 be
       0.1569211 -0.100759834 0.08070701 -0.4526486
000230 e9 d1 03 bf cb 1b 00 bf fe c3 e2 be 56 c6 96 be
       -0.5149217 -0.5004241 -0.44290155 -0.29448193
000240 f9 eb aa be 5f b3 25 3c 97 96 70 3b 2e 1c 0e 3e
       -0.33383158 0.010113566 0.0036710852 0.13877937
000250 8e bf 50 be 30 32 80 bd 5a f8 25 3f f4 1e f7 3e
       -0.20385572 -0.062595725 0.6483208 0.48265803
000260 e8 37 b9 bd b8 f9 8f 3e 7a 47 9e be c8 da 1c 3f
       -0.090438664 0.28120208 -0.30913907 0.61271334
000270 14 9c 66 3f b7 0a 31 3f 93 43 8b bd 54 37 94 bf
       0.90081906 0.69156975 -0.06799998 -1.1579385
000280 40 3c 03 bf 21 3b da be e6 76 a0 3e 56 e0 ed 3e
       -0.5126381 -0.42623237 0.31340712 0.46460217
000290 f3 6a 27 3d af f4 59 bd e8 1d 5d bd 7a e3 2b 3e
       0.04087348 -0.053211864 -0.0539836 0.16785994
0002a0 3f 4e 2f be 5c f9 5e 3f 28 04 5b 3d 19 b2 83 3e
       -0.17119692 0.8709924 0.05347076 0.25721815
0002b0 3b 23 76 bf 71 2e aa bd 87 cd 8f 3d 01 32 ff 3e
       -0.9614751 -0.08309639 0.07021623 0.49842837
0002c0 d9 b2 b4 3e 9b 9d ba 3d 53 2d 9a 3d cc a2 d6 be
       0.352927 0.09112092 0.07528176 -0.4192108
0002d0 da f2 71 be fb e3 53 3d cd d1 96 3d 20 45 f3 bd
       -0.23627797 0.05173109 0.07364235 -0.11878419
0002e0 df 73 68 be ec d6 53 be 70 b9 76 be df 3c 4d be
       -0.22700451 -0.20687455 -0.24094176 -0.20042752
0002f0 5a e5 0e be f0 84 2c be ab 75 27 bd 27 03 d8 bd
       -0.13954678 -0.16847587 -0.0408837 -0.10547476
000300 c3 85 70 be 67 4c 5f 3c e2 ab 97 bd 03 21 6f bf
       -0.23488526 0.013629056 -0.07405831 -0.93409747
000310 41 24 83 3e e2 5f b9 be 61 d7 e5 be d2 3a 93 be
       0.25613597 -0.36205965 -0.44890884 -0.28755814
000320 f2 66 4d bd 46 01 84 be 15 8d 96 be 26 5d 4b c0
       -0.050147004 -0.25782222 -0.29404512 -3.1775603
000330 06 c8 30 3f 2e a1 34 3f aa 0a 09 3f 19 fe 9e 3d
       0.6905521 0.7055844 0.535319 0.07763309
000340 cd 1a 99 3d 97 50 9c 3b e9 f1 52 be 9d ae 5d 3d
       0.07475815 0.0047703492 -0.20600094 0.054121602
000350 fb 6c 55 bf 01 5e 06 3f 3c f5 a0 be 22 81 81 3e
       -0.83369416 0.5248719 -0.314371 0.25293833
000360 49 b1 57 bf ee 8e 55 bc 0d 3d 15 3f a3 94 ff 3d
       -0.8425489 -0.013034565 0.5829628 0.12479522
000370 0e 3b bc 3d 75 6d 9b be 9c 45 79 3e 40 ce de be
       0.09190951 -0.30356947 0.2434296 -0.4351673
000380 99 40 13 3f 97 ef 94 3d 06 2d 95 be b0 58 83 bf
       0.57520443 0.07272261 -0.29135913 -1.026144
000390 39 fa 8d 3f 94 d7 0d 3e f6 74 d5 3e 14 e3 16 3f
       1.1091987 0.13851768 0.41690797 0.58940244
0003a0 11 28 50 3e 96 82 57 bf 2e b9 b4 3e 6f 77 9c bd
       0.20327784 -0.84183633 0.3529753 -0.07639968
0003b0 5e 1a d1 3d 15 15 36 be b2 05 33 3e 11 fb 06 3f
       0.10210107 -0.1778148 0.17482641 0.52726847
0003c0 69 69 7c 3d 0f b0 cc bc 4a 03 31 3f 55 e6 92 3e
       0.061623964 -0.024986295 0.69145644 0.28691354
0003d0 8a e8 ea 3c 5a 24 41 bd 93 60 0e 3e 1c 16 88 3f
       0.028675336 -0.04715381 0.13904028 1.0631747
0003e0 ad c7 e3 3e ab 6a 2d 3e ca 85 05 be dd 2d c0 3e
       0.44488278 0.16935222 -0.13039318 0.3753499
0003f0 46 97 b9 3e 1f 7c f8 3d 22 e4 87 bd e5 f9 77 be
       0.36248225 0.12133049 -0.0663531 -0.24216421

bias f4 [200]
000000 0d cc 0d be 80 c8 c8 3d af ae 45 be f3 e7 5a 3f
       -0.1384737 0.09803867 -0.19304918 0.85510176
000010 e3 44 03 bf fa f6 a8 3e 5a 46 79 be 0d e3 83 be
       -0.5127699 0.33000928 -0.24343243 -0.25759163
000020 1f 01 49 bf cf 6c 0f be f2 8b 0f bf c7 9c 4b be
       -0.78517336 -0.14006351 -0.56072915 -0.19884025
000030 27 e1 2b be 60 05 88 3e b7 1b a1 be c2 2f 7f be
       -0.16785108 0.265666 -0.31466457 -0.24920562
000040 6c 48 96 bf a2 d6 87 be 5b 8e 88 be ec 03 2b be
       -1.1740851 -0.2653094 -0.2667111 -0.16700715
000050 8d eb 8e be da 33 04 3f bb 79 a2 be 9e 02 40 3f
       -0.27914086 0.5164162 -0.31733498 0.75003994
000060 41 41 47 be 59 a7 44 bd 44 c9 c6 be f9 78 7b bf
       -0.19458486 -0.048011158 -0.38825428 -0.98231465
000070 e7 92 b9 bd 58 ba 04 3f 68 3b c7 3e c1 d0 5a bf
       -0.090612225 0.5184684 0.3891251 -0.85474783
000080 a1 58 15 3f 6f 26 80 be a4 24 b9 bd 38 30 0e 3e
       0.5833836 -0.25029323 -0.09040192 0.13885581
000090 4a 0e 3c bf 5e a8 10 bf f0 08 e0 3d 0c ad 51 3e
       -0.73459303 -0.5650691 0.10939205 0.20476168
0000a0 16 8c be be 7f 51 be 3d e1 1d ba be 32 34 47 3f
       -0.37216252 0.09292888 -0.3635092 0.7781402
0000b0 c9 50 75 bd 76 f7 3c bf 77 95 d8 be 56 ea 83 be
       -0.059891496 -0.73815095 -0.42301533 -0.25764722
0000c0 1e db e7 bd 81 7f ed 3e 94 2f 83 be 9b 5d 94 be
       -0.1132109 0.4638634 -0.25622237 -0.28977665
0000d0 91 69 fe 3e 19 17 5d 3e a1 d3 52 bf c2 10 f6 3d
       0.49689916 0.21590842 -0.8235417 0.12014915
0000e0 70 23 75 be 37 09 2e bf e6 0f d6 3d 42 27 4a 3e
       -0.239393 -0.6798281 0.10452251 0.19741538
0000f0 1d b1 b0 be a4 d2 04 3e a2 3f 6f be 58 67 ec 3e
       -0.34510127 0.12970978 -0.23364118 0.46172595
000100 e2 ff 97 bd f6 24 7c be 97 f1 cc 3e 54 40 e1 3e
       -0.07421853 -0.24623474 0.40028068 0.4399439
000110 bb c3 80 bd e6 a3 5d bf 44 35 6a 3e 27 8a f1 bd
       -0.062873326 -0.86578214 0.22871882 -0.117939286
000120 01 2c c2 3d 3b 28 97 be 07 4f e2 3e 3b eb a8 3e
       0.09481049 -0.2952288 0.44200918 0.32991967
000130 fd 08 54 be 6a 2b 15 bf 18 24 05 bf 14 3d d4 be
       -0.20706554 -0.5826937 -0.520082 -0.4145285
000140 1b 09 cb be a1 be 48 3f 8d 2b 36 bc 5a 9b 70 be
       -0.39655384 0.78415877 -0.011118782 -0.23496762
000150 a4 de 16 3e 47 9e 8b be a8 2e a9 be 84 eb 87 3e
       0.14733368 -0.27269194 -0.33043408 0.26546872
000160 cf de 01 bf 89 99 b1 3d 41 1c 01 3d 13 e2 8e 3e
       -0.50730604 0.08671863 0.031521086 0.27906856
000170 de 89 b6 be b5 42 b0 be 55 00 35 bf ed 50 0c bf
       -0.3565206 -0.34425893 -0.7070363 -0.5481098
000180 b1 90 44 be 6a f0 39 3e 98 a5 d3 3d 82 9a 28 bd
       -0.1919582 0.18158117 0.10334319 -0.041162975
000190 e1 aa 95 3e 03 92 c3 be c2 14 84 bf 44 6e 57 be
       0.29231933 -0.38197336 -1.0318835 -0.21038157
0001a0 78 00 5c bf 0d 87 31 bf ee d6 04 3f 71 a3 76 3d
       -0.85938215 -0.69346696 0.51890457 0.060214464
0001b0 a2 97 2e 3f 4e 47 b2 3e 2e 4a c3 be 92 78 ed be
       0.68200123 0.34820026 -0.38142532 -0.4638105
0001c0 cf 25 49 3e e5 88 af 3e b9 ff 59 3e 50 21 db bd
       0.19643329 0.3428413 0.21288957 -0.10699713
0001d0 3a 8c 10 bf 52 b6 43 3e db a1 5c bf 03 81 00 3f
       -0.5646397 0.19112518 -0.8618447 0.50196856
0001e0 c2 79 ee 3e 64 79 ec be 97 d4 a6 3e 6f 3f 37 bf
       0.4657727 -0.46186364 0.32584068 -0.71581167
0001f0 28 58 41 be 71 ab 8e be 03 65 9f 3e fa ef 6d 3e
       -0.18881285 -0.27865174 0.31131753 0.23236075
000200 2c 79 a2 3d b4 ec 0d ba a4 73 b0 be 59 13 9a be
       0.07933268 -0.00054139947 -0.34463227 -0.30092886
000210 19 34 82 bd 18 2e 2e bf 22 fd 01 bf 6a 74 db be
       -0.06357593 -0.68039083 -0.50776875 -0.42862254
000220 61 db 31 bf cc 92 6b bf 15 f9 d5 be 97 60 c0 be
       -0.6947537 -0.9202087 -0.41791597 -0.37573692
000230 db 6e 08 3e a9 fb b6 bd e2 75 48 bf a0 84 1e bf
       0.13323538 -0.08934719 -0.78304875 -0.6192112
000240 df 08 0e bf 97 a6 f8 3d 3d f5 b0 be ec c1 5c 3e
       -0.55482286 0.121411495 -0.34562102 0.2155835
000250 86 c1 9b 3e 77 ad 81 be 75 de dd 3e 48 a8 ed ba
       0.30421084 -0.25327656 0.43333784 -0.0018131817
000260 05 9c c4 3d cc a3 c7 3d e8 45 2d bf 8f 87 02 be
       0.09600071 0.09748039 -0.67684793 -0.12747024
000270 2d bc c3 be 6d 68 96 be ba 7f 7a 3d 5f fb bd be
       -0.38229504 -0.29376546 0.061156966 -0.37105843
000280 ae 7c a6 3c 9f 58 c1 be b7 75 9e 3e bf f8 5b bd
       0.020323124 -0.37762925 0.30949184 -0.05370402
000290 71 d6 bf 3e 80 54 9c be 66 36 4e 3e e1 e7 d9 3e
       0.37468293 -0.30533218 0.20137939 0.42559722
0002a0 35 07 d6 be 47 e9 76 3e c7 e3 19 3f 4c 86 95 bf
       -0.41802374 0.24112426 0.60113186 -1.1681609
0002b0 fe 68 79 3e 04 4d cb 3d ee 9d 97 be 5a d0 33 3f
       0.24356458 0.09926799 -0.29612678 0.70239794
0002c0 68 b1 19 bf 98 e1 84 bf ea 44 e2 be 9a 30 c4 3d
       -0.60036325 -1.0381346 -0.44193202 0.095795825
0002d0 d0 46 23 bf b3 96 5c 3f e9 9d 20 3d d6 63 09 3e
       -0.63779926 0.8616745 0.039213095 0.1341699
0002e0 28 7c 08 3f e4 36 62 bf f9 81 31 be 4c e0 10 be
       0.5331445 -0.88365006 -0.17334737 -0.14148062
0002f0 18 14 df be fb 2d 3a bf 59 6b f9 bd 7d d5 b1 be
       -0.43570018 -0.7272641 -0.12178678 -0.3473319
000300 fa 6e af 3e 02 78 78 3e e0 bb d3 3d a1 af 0a 3e
       0.34264356 0.2426453 0.10338569 0.1354356
000310 ff 87 89 bf cd df fe be 45 e3 37 bf 71 3d 52 be
       -1.0744628 -0.4978012 -0.7183116 -0.2053125

weight f4 [200, 200]
000000 cc 83 e5 bd 73 a0 8b 3d 3a e3 db bd 87 67 ca bc
       -0.11206779 0.06817713 -0.107366994 -0.024707569
000010 95 f1 55 bd a6 c2 04 bd 54 86 ee bd 61 df cd bd
       -0.052232344 -0.032412194 -0.11646715 -0.10052372
000020 64 6c b2 bd 2b 10 6b 3c 80 d4 8d 3c 20 01 1a bd
       -0.0871208 0.014347116 0.017313242 -0.03759873
000030 4a 71 20 bb bd a2 44 3d 33 f0 dd bc bc 34 73 bd
       -0.0024481588 0.04800676 -0.027092075 -0.059376463
000040 bf 7b b9 bc 9e db 38 3c 45 c5 25 ba 90 8c 58 bd
       -0.022642015 0.01128283 -0.0006323646 -0.052868426
000050 cb 4a e5 bc d4 a5 87 bd cf 56 26 bc 79 1d 48 3d
       -0.027989766 -0.06623426 -0.010152533 0.048856232
000060 c7 43 9d bc b7 d6 54 bd 3d c2 e8 bd 5d 60 25 3b
       -0.019197358 -0.05196258 -0.11365173 0.002523444
000070 41 90 78 bd 23 38 46 3d a4 9d 8a 3d 22 11 81 bd
       -0.060684446 0.04839338 0.06768349 -0.06302096
000080 15 c0 6c bd c3 5c dd bc 3a 90 1c 3d 65 27 ca bd
       -0.05780037 -0.027021771 0.038223483 -0.09870795
000090 fc 32 2b bd 69 03 94 bd 2e 7a 10 be 90 87 dd 3c
       -0.04179667 -0.07227213 -0.14109108 0.02704218
0000a0 2e fc e9 bc 02 de 72 bc 3d 77 d8 bc f3 56 9a bd
       -0.028562631 -0.014823439 -0.026424045 -0.075361155
0000b0 8f 31 16 be ce 07 29 be 59 83 39 bb c1 d5 3d bd
       -0.14667343 -0.16506884 -0.002830705 -0.04634643
0000c0 c0 72 d1 bd 0a 8b 5c 3d 1c ba a0 3d 80 76 40 bd
       -0.10226965 0.053843535 0.078479975 -0.04698801
0000d0 bd 14 a0 bd 62 9f 79 bd 86 1b a8 bd 7a 01 28 bd
       -0.078164555 -0.060943015 -0.08208375 -0.041017033
0000e0 d5 4a 8e 3d f0 fa 9c bd 35 02 64 3b 3f 35 a3 3b
       0.06947867 -0.0766505 0.0034791355 0.0049807127
0000f0 a7 bb 31 bd 6c c0 27 bc ca fc 00 bd 0e ae dc bc
       -0.04339185 -0.010238748 -0.03149108 -0.026938464
000100 00 a7 9d bd 85 7a 80 bd 91 ac c3 3d f4 22 92 bd
       -0.07697868 -0.06273369 0.09554399 -0.07135573
000110 0d a4 b6 bd c8 4c f9 bd fb 58 44 bb e6 ed 79 3c
       -0.08918009 -0.12172848 -0.0029960263 0.015254473
000120 93 aa 07 bd 0d c1 68 bd 3a d1 41 bc 24 1a 8e bd
       -0.033121657 -0.056824733 -0.011829669 -0.0693858
000130 99 17 72 bd c4 39 16 be 71 68 89 bc 06 e3 06 bc
       -0.059104536 -0.14670473 -0.016773434 -0.008232838
000140 bb 99 ad bd 16 eb 81 bd 7a 63 d4 bd 27 de f4 3b
       -0.084765874 -0.06343667 -0.10370536 0.0074727717
000150 37 ce 92 bd 05 2e 4f ba 57 73 e8 bd 3d 39 94 bd
       -0.071682386 -0.0007903281 -0.11350124 -0.0723748
000160 9d b5 75 bd cc 57 81 3c ec f4 3d bb af 0a b8 bd
       -0.059987653 0.015788935 -0.0028985096 -0.08986413
000170 48 52 c0 bc ce 25 bc bd 03 ba 14 bb 3e cc 2c bd
       -0.023476735 -0.09186898 -0.002269388 -0.042186968
000180 60 35 bc 3c 0b 9f 98 bc 59 6f 80 bc 71 39 64 bd
       0.02297467 -0.018630525 -0.015678095 -0.055718843
000190 37 de 4a bd 1c b1 89 bd fa b7 38 3d dc bb a0 bc
       -0.049528327 -0.06723234 0.04509733 -0.019620828
0001a0 74 41 a4 bd b1 d9 45 bd 8e 72 76 bd 97 dc 7e 3b
       -0.08020297 -0.04830331 -0.06016784 0.0038888806
0001b0 f1 97 03 be fa 2d 81 bd 57 30 2b 3c 85 59 3c 3c
       -0.1285093 -0.063075975 0.010448537 0.0114959525
0001c0 ab 00 10 ba c3 81 16 3d b0 79 be bc 8a 39 4a bd
       -0.00054932636 0.036744844 -0.023251384 -0.04937128
0001d0 a7 0f 5f bd 74 19 aa 3c 96 f7 0d 3d e5 4a b2 3c
       -0.054458287 0.02076409 0.034659944 0.021764228
0001e0 f2 92 14 bd 53 73 9d 3b e6 97 87 3c 9b 1c 12 3d
       -0.03627295 0.0048050075 0.016551923 0.03567181
0001f0 ee e8 bd 38 2c f6 87 3c 0a 45 bf bd 27 6f 48 bd
       9.055609e-05 0.016596876 -0.0933934 -0.048934128
000200 98 70 84 bc 68 08 23 3d 77 2b 9c 3c 61 1c f1 3c
       -0.01616697 0.03980294 0.019063694 0.029432477
000210 75 7e 28 bd c6 99 2d bb 1f a8 0f be 80 88 86 bc
       -0.041136224 -0.0026489361 -0.14028977 -0.01642251
000220 10 7e 9b 3b 6c 3d af bd af 10 a4 bd db 7b af 3c
       0.0047452524 -0.08556637 -0.08010995 0.021421364
000230 ea 2b 12 3a 22 b0 29 3d 60 1a d8 bd 08 86 95 bd
       0.0005576002 0.04142774 -0.10551906 -0.07300955
000240 9a 09 aa bd f3 e4 31 bc 09 e8 6d bd be 6e 8e 3b
       -0.083026126 -0.010857808 -0.058082614 0.0043466976
000250 be e7 23 3c e8 2b a5 bd 0c 2e 83 bc a5 7c 82 bc
       0.010003982 -0.08065015 -0.016013168 -0.015928576
000260 7f 81 ad b9 d5 d4 54 bd c9 26 58 ba 46 bb 08 3d
       -0.00033093613 -0.051960785 -0.00082455255 0.033381723
000270 14 06 9a 3c 3e 74 a4 bd 81 9b ce bd 7f 26 b6 3c
       0.018801726 -0.08029984 -0.10088254 0.022235153
000280 f2 01 9c bd 5a 5b 6f bc be b5 cd bc 5c 51 1a bd
       -0.076175585 -0.014609182 -0.025111075 -0.037675247
000290 07 0d a8 bd e6 0d 44 bc 34 de 23 bd d0 54 96 bc
       -0.0820561 -0.011966204 -0.04000683 -0.018350989
0002a0 44 39 85 3b 3b 1b 71 bc d4 1f bb bd f6 0f 8f bc
       0.0040656645 -0.014715965 -0.0913693 -0.017463665
0002b0 37 36 31 bd d0 ca 89 3c 53 66 10 bc 0a 01 cc bd
       -0.043264594 0.016820341 -0.0088134585 -0.09961136
0002c0 f6 7d 62 3c 4e ec f9 bd 30 d9 6e bd dc 94 12 3d
       0.013823977 -0.12203275 -0.058312595 0.035786495
0002d0 81 22 0d bd 1e 38 86 bc ff 88 c7 bc 89 87 74 3d
       -0.034456734 -0.01638418 -0.024357317 0.05969957
0002e0 01 ff ec bc c4 fb 8a bd f0 83 3d 3c 7c c9 f8 bc
       -0.02893019 -0.06786302 0.011567101 -0.030369513
0002f0 e5 c9 66 bd ad 12 9d bd 3c b1 ba bd 1f 6e b0 bd
       -0.056344885 -0.07669578 -0.09115836 -0.08614754
000300 56 d4 79 bd da 69 b3 bc 45 3a 00 be 8e 23 d2 bd
       -0.060993515 -0.02190106 -0.12522228 -0.10260688
000310 10 c6 6f bd e9 e0 84 bc b0 82 a8 bd 1a 99 b0 bd
       -0.058538496 -0.016220527 -0.08228052 -0.08622952
000320 71 b5 0e c0 6b 8f f3 be 5d f6 1b 3f fb f7 06 be
       -2.2298243 -0.47570357 0.60922796 -0.13180535
000330 df 30 f9 be 6f 18 c1 bf 66 43 f3 3e a2 ff c7 bf
       -0.48670098 -1.5085582 0.47512358 -1.5624888
000340 18 78 29 3e 9e cf 50 be bd 51 db 3d bf 89 16 be
       0.16549718 -0.203917 0.1070895 -0.14700983
000350 b8 95 db bb bd d9 50 3d 29 60 a6 3d b0 85 d8 bd
       -0.0067011975 0.0509889 0.0812381 -0.10572374
000360 3d 44 ad bd 71 2e d6 3c 68 12 ad 3e 24 a4 17 bd
       -0.08460281 0.026145192 0.33803105 -0.03702177
000370 63 e7 e6 3d d5 1e a1 be 7d dd 2b 3b 8a bb 0d be
       0.11274602 -0.31468835 0.0026224547 -0.13841072
000380 22 b0 b6 3e f9 ad 15 3e c8 84 2a bf f7 2b 9a 3e
       0.35681254 0.14617147 -0.6660886 0.30111668
000390 af d9 59 bf de 76 ab be 47 d9 c5 3f c0 03 c9 bd
       -0.85097784 -0.33489126 1.5456933 -0.098151684
0003a0 cf 0f a4 bd f4 df 5e c0 96 ad eb 3e d3 84 75 bd
       -0.08010828 -3.482419 0.46030873 -0.059941124
0003b0 6c ce b0 3d 14 45 8b 3e 0b f0 47 3f 7e db 34 be
       0.08633122 0.2720114 0.7810065 -0.17661855
0003c0 68 22 f7 3d 3e 21 81 3f c8 67 79 3c e8 99 02 bf
       0.12067109 1.008827 0.015222497 -0.5101609
0003d0 12 5a 74 3e d8 af c5 bf 08 ff d5 bd f1 bf 5a 3d
       0.23862484 -1.5444288 -0.10449034 0.053405706
0003e0 bd 96 94 3e dc e5 2a 3e 23 3d e3 bd ac fe c0 3c
       0.29021254 0.16689247 -0.11095645 0.023558937
0003f0 25 8e 63 bf 08 32 30 3e 30 d3 09 3f 4f 8a 72 3f
       -0.8888877 0.17206585 0.5383787 0.9474229

bias f4 [200]
000000 44 ae 6b bd 30 2b 19 bf dc f7 30 bf da 32 a1 be
       -0.05753924 -0.59831524 -0.69128203 -0.3148411
000010 c4 5e e8 bd de 74 96 be 1f 3c 91 be b5 72 0d be
       -0.113462 -0.29386038 -0.2836618 -0.13813289
000020 14 06 04 be 19 e0 bc be 71 5b d4 be 20 96 8e bd
       -0.12892944 -0.36889723 -0.41476014 -0.06962228
000030 18 51 b4 be d0 07 78 bd 5d 7e e4 bd ae d8 ec be
       -0.3521812 -0.060554326 -0.111569144 -0.46259063
000040 21 25 a1 be bf 4d ff bd 79 3d e8 3c 3a c4 ad bf
       -0.3147364 -0.12466001 0.028349625 -1.3575509
000050 ba b5 c2 bd 08 f5 e8 bd ba c5 78 3d ff 3f 0e bf
       -0.09507318 -0.11374861 0.06073544 -0.555664
000060 6c e8 f1 be 23 04 5b be de 8f a6 be 9f ad e1 bd
       -0.47247636 -0.21388297 -0.32531637 -0.11019444
000070 57 73 9f 3e 21 8d 93 bd 24 78 ea be 14 ca 4b bf
       0.31142685 -0.072046526 -0.45794785 -0.7960522
000080 2b 98 dd bc 17 bf 92 bd 81 24 e0 bd 15 05 dd bc
       -0.027050098 -0.07165354 -0.109444626 -0.026979962
000090 b4 88 51 bd b7 3e bf bd f1 e4 10 bf 44 7d 95 bd
       -0.05115576 -0.09338134 -0.56599337 -0.07299283
0000a0 b3 27 81 bf 40 fe 92 bd 92 b3 09 be fd d6 a7 bc
       -1.009024 -0.071774006 -0.13447407 -0.020488257
0000b0 77 4b a6 bc 7b 07 e2 bc bc 2e cb bd a3 1c b9 be
       -0.020299656 -0.027591458 -0.09921023 -0.3615466
0000c0 03 51 ef be ba ca ce be 65 07 38 be 66 af 9f 3e
       -0.46741495 -0.40389043 -0.17971571 0.31188506
0000d0 eb 7c af be eb ca 89 bd 70 63 d1 bd f9 da fb be
       -0.34274992 -0.06728157 -0.10224044 -0.491905
0000e0 71 4f 98 3e 45 c9 c1 be 1e 44 bc bd dc 79 08 be
       0.2974811 -0.3784887 -0.0919268 -0.13327736
0000f0 a8 21 1c 3c 21 94 ce bd d8 65 da bd 10 5f 90 bd
       0.009529509 -0.10086847 -0.106639564 -0.07049382
000100 73 0f 67 bf 84 bf 91 bd 15 42 72 bf 26 93 a3 3c
       -0.9025795 -0.07116607 -0.94632083 0.019967627
000110 85 9e 23 be 4d 66 c4 bd 8c 6f 36 bc ff 7c 4d bf
       -0.15978439 -0.09589825 -0.011134993 -0.80268854
000120 25 1a b8 bd b9 8b d8 be 1c 17 ef bd 83 6e 07 bf
       -0.08989362 -0.422941 -0.1167433 -0.52903
000130 e9 61 1b be d1 ad 77 bf b7 7f 0d bc 21 54 e5 be
       -0.15174069 -0.967496 -0.008636407 -0.44790748
000140 1d 85 d6 bd df a2 4c bf 86 18 f2 be b5 95 bd 3d
       -0.10474608 -0.7993602 -0.47284335 0.0925707
000150 af 11 3d be 7c 06 ed be c2 5e ba be 2e 41 03 bd
       -0.18463777 -0.4629401 -0.3640042 -0.032044582
000160 6e 95 96 bd be c3 47 3f d0 e9 06 be a0 31 c6 bd
       -0.0735272 0.78033054 -0.1317513 -0.09677434
000170 f5 57 c3 bd 3a a7 7a be 8c f4 08 be b7 ec 87 3d
       -0.09538261 -0.24477854 -0.13374537 0.06636947
000180 ac 11 2b bd 4c 86 03 be 0d 31 f5 be b6 01 0f bf
       -0.0417649 -0.12844199 -0.47888985 -0.55861986
000190 39 e4 05 be 58 69 37 3e 5a 7d db bd c0 e4 5b bf
       -0.13075341 0.17911279 -0.10717268 -0.8589592
0001a0 ce 14 d9 bd 23 01 86 bd 14 74 23 bd e2 2d c0 3e
       -0.10599671 -0.065431856 -0.039905623 0.37535006
0001b0 27 ff 0c be 58 16 10 bf 97 67 92 be ab 13 b4 be
       -0.13769208 -0.56284094 -0.28594658 -0.35171255
0001c0 5a 08 ce be c0 0c af 3d f5 ce c6 bd 6e a1 7d bd
       -0.40240747 0.08547354 -0.09707443 -0.06192153
0001d0 a1 3f d8 be 02 97 9a bd a4 0c e6 bd 41 1e af bc
       -0.42236045 -0.07548334 -0.1123288 -0.02137673
0001e0 20 2b 0f 3d 4c c2 1a bf 77 5f d4 bd b2 9b 82 3d
       0.034953237 -0.60452724 -0.10369771 0.06377353
0001f0 7b 86 03 be 71 d4 90 bd 4e 8e af be cf 9e b9 bd
       -0.12844269 -0.0707177 -0.34288257 -0.090634935
000200 00 c9 88 bd d0 e2 8d 3e a4 57 18 bd 27 c7 c0 bd
       -0.06678963 0.27712107 -0.037192956 -0.09412985
000210 aa 99 09 be a3 a4 87 3c 2a 64 58 be 31 bd 8d bc
       -0.13437524 0.016557997 -0.2113196 -0.017302128
000220 55 57 b4 bd f3 af 15 bf a4 4a 88 be 19 ea 9f bd
       -0.0880572 -0.584716 -0.26619446 -0.078083225
000230 ca 79 77 be fa c1 c5 bd c7 04 65 bd 54 a8 f9 bd
       -0.24167553 -0.09656139 -0.05591276 -0.12190309
000240 fd f2 14 bf 53 90 7c 3e 8e be 8b 3d 87 31 c8 be
       -0.5818327 0.2466443 0.06823455 -0.39100286
000250 5b 4a 81 be 80 58 30 bf 66 44 17 bf c3 ba ea bd
       -0.2525204 -0.6888504 -0.5908874 -0.11461403
000260 10 a6 e2 be 16 66 b2 be 5d 80 1b bf 73 e7 23 be
       -0.4426732 -0.3484351 -0.6074274 -0.1600626
000270 cd ff f2 3c 43 d8 ae bd 61 08 93 be fa f8 cb 3e
       0.029662991 -0.085373424 -0.2871733 0.39838392
000280 7b 15 e7 bc e6 fe 10 bf 2c 08 aa be aa cc 02 3e
       -0.028208485 -0.56638944 -0.3320936 0.12773386
000290 41 c6 f7 3c 8b 16 ec bc c6 25 4c bd 5f 70 2e 3d
       0.030245902 -0.028819343 -0.04984071 0.042587634
0002a0 57 ac 94 bd 06 1d 70 be 71 1e 42 3d 98 f1 6f be
       -0.07259434 -0.23448572 0.047392312 -0.23432004
0002b0 28 99 da be 17 a9 c9 be 6d 06 e1 bd a4 27 1f be
       -0.42694974 -0.39386818 -0.10987554 -0.15542465
0002c0 d3 6c a9 3d 1d 30 50 bc 16 97 90 bc a3 b6 df be
       0.0827271 -0.012706784 -0.017650168 -0.43694028
0002d0 1e f8 43 be 92 e0 04 bd 07 d1 be bc 95 71 8f bd
       -0.19137618 -0.03244073 -0.023293031 -0.07004086
0002e0 4a a7 56 bf 6f 76 aa be 7e 35 d3 bd 5b 2a 8d be
       -0.8384901 -0.33293483 -0.10312937 -0.27571377
0002f0 ac 9a 52 be 55 aa 5d bd b4 7d fd bc 55 f0 1d bf
       -0.20566815 -0.05411752 -0.030943729 -0.6169484
000300 d5 e7 b8 be 33 97 89 be 3b f3 fd bd aa b9 ad bc
       -0.36114374 -0.26873168 -0.12399908 -0.021206696
000310 29 02 0c be b9 68 14 be 0d 4c 08 bf 46 9b ea bc
       -0.13672699 -0.14493074 -0.53241044 -0.028638493

weight f4 [1, 200]
000000 51 8b 3b 3c 7b d6 9b bd 74 24 43 3e 74 4f ce be
       0.01144679 -0.07609268 0.19056875 -0.40294993
000010 61 9c dc bc 8b c4 50 3d 1b 6f 05 3f 18 1a 83 be
       -0.026930036 0.050968688 0.5212266 -0.25605845
000020 92 b0 20 bc 21 29 ea be ca 28 0f 3f 1b 6d 69 ba
       -0.009807723 -0.45734504 0.55921614 -0.00089045026
000030 9d 0b 62 3f a9 a3 91 3b 98 ea ca 3e 83 e9 b4 be
       0.8829897 0.0044445586 0.39632106 -0.35334405
000040 19 37 2e bf e3 51 bf 3c d4 3f 9d 3d 6d 0b 4e be
       -0.6805282 0.023354476 0.0767819 -0.20121546
000050 e2 ae e5 bc dd ba bc 3a 06 f7 07 3e e0 1c f0 be
       -0.028037492 0.0014398951 0.13277826 -0.4689703
000060 e2 df 78 3d 8c 93 fc be a1 8e f5 be f6 88 b1 bc
       0.060760386 -0.4933132 -0.4796038 -0.021671753
000070 f8 91 80 be 4b 0f ca bb a3 7a a5 bd 5c 85 d8 be
       -0.25111365 -0.006166374 -0.08080032 -0.42289245
000080 a3 6b 0b 3e cb c2 b6 3c 6a 8d 06 bd 18 b6 40 3c
       0.13615279 0.022309681 -0.032849707 0.0117621645
000090 42 01 83 bc 53 2b f6 ba ff cb c3 bf a8 99 e8 bc
       -0.01599181 -0.0018781222 -1.529663 -0.028393582
0000a0 45 3f 10 bf 05 e3 6f bc d0 15 07 bf 87 8b 39 3d
       -0.5634654 -0.014641528 -0.5276766 0.04529908
0000b0 a0 35 b5 3d 15 83 11 ba 15 05 43 bb 5a 66 98 bf
       0.08848119 -0.0005550844 -0.0029757668 -1.1906235
0000c0 93 d7 14 bf 43 0d ba be 2c c4 6d 3d ef 84 ad bf
       -0.5814144 -0.36338243 0.058048412 -1.3556193
0000d0 05 20 33 3e e3 f3 b0 3c a0 fc 1f ba 4c bb 57 3e
       0.17492683 0.02160067 -0.0006103013 0.21067542
0000e0 6a d8 2a c0 75 66 81 3e 34 81 41 3c a0 c0 c6 bc
       -2.6694589 0.2527348 0.01181059 -0.024261773
0000f0 32 da bc 3b 93 6d bb ba 1f 82 e1 3b f3 b4 b3 3a
       0.0057633156 -0.0014299623 0.0068819667 0.0013710543
000100 65 2d c7 be f7 9e 93 bf bd fb 50 be 04 60 3b 3e
       -0.3890182 -1.1532887 -0.2040853 0.18298346
000110 bb 55 a1 3e 22 e4 d3 3e 3e d3 ae be bf 6f 9c be
       0.3151072 0.4138499 -0.3414554 -0.30554006
000120 8f a4 d1 be 5d 2c 97 3e 4e 9e 96 bc b8 c3 bb be
       -0.4094586 0.29526034 -0.018386032 -0.3667276
000130 26 22 ae bb 6b 89 ff 3d 45 a3 94 3d 35 e0 80 bf
       -0.0053141294 0.12477382 0.07257704 -1.0068423
000140 2b 8e 25 3e 5a f5 a2 be 0e 50 3f bf ab da 99 3e
       0.16167514 -0.31827813 -0.7473153 0.30049643
000150 99 a2 68 3e 0d 24 39 be 65 13 0e 3f 4f 5d cc 3c
       0.22718276 -0.18080159 0.55498344 0.024946837
000160 73 52 83 3e fc c5 61 3d af d0 18 3a 7b b8 27 be
       0.2564884 0.055120453 0.0005829436 -0.16378967
000170 34 df 0f bc 4e ae 4f 3e 21 c2 af bd 95 46 34 3e
       -0.008781243 0.20281336 -0.08581949 0.1760505
000180 98 5c 91 bf 47 a6 09 3d bf 47 44 3f 3f 0c 78 be
       -1.1356382 0.03360584 0.76671976 -0.24223422
000190 39 04 94 bc f8 23 a2 3e 74 56 19 3f ab 3b cf be
       -0.01806842 0.31668067 0.5989754 -0.4047521
0001a0 5c 16 ec 3c 9c 89 d9 3d 29 6e 5a 37 9e 8a b1 3d
       0.028819256 0.1062195 1.3019461e-05 0.08669017
0001b0 be ba 10 3c c3 62 57 3e b4 2d 87 be 64 01 86 be
       0.008833585 0.21033768 -0.26402056 -0.26172936
0001c0 c9 61 80 be 88 c4 1a 3e 2f 4e a8 3b 8c c7 ad be
       -0.25074604 0.15114033 0.0051362733 -0.33941305
0001d0 f6 14 21 be c7 6e a2 bc 09 37 ba 3e f7 21 e9 bd
       -0.15730652 -0.019828213 0.36370113 -0.113834314
0001e0 3b 05 af be 63 0d 8f be 8d 70 d9 3c 32 74 8c 3e
       -0.34183678 -0.279399 0.026542926 0.274324
0001f0 86 6f 0d 3c d2 a2 13 bc a4 28 dc be 90 eb 33 bf
       0.008632546 -0.009010987 -0.42999756 -0.70281315
000200 58 44 2e bb cd b0 3c 3d 52 ae 64 b8 c2 ed 78 bc
       -0.002659103 0.046067048 -5.4521784e-05 -0.015193405
000210 da fe 43 3c 30 50 85 be de 32 03 be c2 59 78 3c
       0.011962617 -0.2603774 -0.12812373 0.015158119
000220 42 20 1f bc 0b 99 00 bf e4 c6 73 bf b7 3f 51 3d
       -0.009712281 -0.50233525 -0.9522536 0.051086154
000230 49 80 bb 3e 98 d9 b4 3c 1d c6 82 bd 9a 27 04 3c
       0.3662131 0.022076413 -0.06385443 0.008066082
000240 94 06 13 bf 49 6c 29 be 27 37 c1 3d e3 11 e4 3d
       -0.5743191 -0.16545214 0.094343476 0.11136224
000250 03 0b 84 be 87 54 dd 3d 7b 8e fa 3d 8a f6 20 3e
       -0.2578965 0.10807138 0.12234207 0.15719047
000260 23 9c 18 3f 4e 59 bb be 63 3b 8d 3d 84 da 24 bb
       0.59613246 -0.36591572 0.06896093 -0.002515466
000270 53 d5 3f 3e eb 6d b7 bb cf 51 13 3e 96 02 b9 bd
       0.1873372 -0.00559782 0.14386676 -0.09033696
000280 8e e5 a3 3c 27 39 3f be c6 59 c3 3e c7 63 94 3e
       0.020006921 -0.18674146 0.3815443 0.28982374
000290 ec 9c 3b 3e 16 99 de 3c 31 bd 8b 3b 72 8c ec 3d
       0.1832158 0.027172606 0.0042644967 0.11550225
0002a0 e8 3c e0 38 b3 da d9 3d e7 34 55 3d ee 06 f1 be
       0.00010692497 0.10637417 0.052052405 -0.470756
0002b0 b9 e5 4f 3e 62 0f 0d 3e 47 ed da bc cd 3c d7 3d
       0.20302476 0.137754 -0.02672447 0.10509644
0002c0 c8 17 fd bd ed 3b 3b bf 0f 8f 4c 3c 3a 8a 90 3e
       -0.123580515 -0.73138314 0.01248528 0.28230458
0002d0 73 5e 8f bd 98 e8 08 bb ac d0 72 3d 9a 31 71 ba
       -0.07000437 -0.002089059 0.059281036 -0.00092008116
0002e0 82 0a 38 be 19 88 46 3d 2e 7f 08 bc 06 30 0b bf
       -0.17972758 0.048469637 -0.008331103 -0.5437015
0002f0 94 59 4b be 16 27 7b 3c e3 f1 36 3b b8 02 e4 3d
       -0.1985839 0.015329143 0.0027915172 0.11133331
000300 5a ea 54 bc ac 36 4c bf 4b d7 0f 3d b3 2d cb 3c
       -0.012995327 -0.7977092 0.03511743 0.024802065
000310 00 f9 52 3d 1e 26 4f 3a 22 65 17 bf d1 17 b4 3d
       0.051506996 0.0007902103 -0.5913869 0.08793605

weight f4 [200, 15]
000000 af cd 9b bf 2f 27 70 3f 17 f3 ea 3e c6 37 e2 3e
       -1.2172145 0.9380979 0.45888588 0.44183177
000010 1c a0 b4 3e d6 70 1e 3e 06 25 c7 bd 3b c4 57 3e
       0.35278404 0.15472731 -0.097238585 0.2107095
000020 06 a4 4a bb e3 23 75 bf 30 a1 85 c0 08 24 fc bf
       -0.003092052 -0.95757884 -4.175926 -1.9698496
000030 21 9d 51 3f db 7c 52 3d be 80 a0 bf 7f d8 cf be
       0.81880385 0.051388603 -1.2539289 -0.4059486
000040 69 1a a1 bf c9 b0 a3 3e 5c 2a 8e 3e 71 5e 07 bf
       -1.2586185 0.31970814 0.27766693 -0.5287848
000050 f2 29 33 bd e4 68 9b be c8 65 04 be f1 bc ca 3e
       -0.043741174 -0.30353463 -0.12929451 0.39597276
000060 38 39 c3 bf a0 95 f8 be 01 c0 4e be 36 55 e3 3e
       -1.5251837 -0.48551655 -0.20190431 0.44400948
000070 e8 31 7b 3d a5 16 66 be 3f 0a 95 bc af be dd bb
       0.06132689 -0.22469576 -0.018193362 -0.006767116
000080 9a 69 a5 bf 55 e2 6b 3c 26 3c 9e 3f eb 9f 9d 3f
       -1.2922852 0.0143972235 1.2362106 1.2314428
000090 92 ee 66 3f d1 98 df 3c 51 8c 6e bf 18 04 17 bd
       0.9020778 0.027294548 -0.93182856 -0.03686914
0000a0 6a 51 8d 3f 05 47 82 3c 62 5e 08 bb a7 f9 af bc
       1.1040471 0.015903005 -0.002080821 -0.021481348
0000b0 90 50 c2 bb 02 dd 32 be be ec b3 bf 14 ff 27 3f
       -0.005930014 -0.1746712 -1.4056623 0.65623593
0000c0 db f9 a5 be 9c e4 8b 3e 08 53 88 3f 28 f3 92 bd
       -0.32417187 0.27322853 1.0650339 -0.071752846
0000d0 d3 60 72 bf 31 4a e3 bf e4 1e e4 3d fe 3f 07 bf
       -0.9467899 -1.7757016 0.111387044 -0.5283202
0000e0 fc b4 c8 be 48 01 cc 3d 26 43 c6 be 0e 5d c7 be
       -0.3920058 0.09961182 -0.38723105 -0.38938183
0000f0 c3 c3 89 be 50 2b 97 be 7b e2 11 3f da 24 fa 3b
       -0.26907167 -0.29525232 0.56986207 0.0076337876
000100 64 02 3a bf 04 12 b9 bd 27 54 f3 bd 79 ca 97 3f
       -0.726599 -0.09036639 -0.11881285 1.1858665
000110 d6 b4 02 3f a7 92 77 3e e8 64 59 bf fb a7 00 bf
       0.51057184 0.24177037 -0.84919596 -0.5025632
000120 ca fd 35 bf 07 18 50 bf 9c 83 72 bf 5c 99 bf 3d
       -0.71090376 -0.8128666 -0.9473207 0.09355423
000130 4a 1c 87 bd e8 a7 4a 3c 71 9c d8 3e e9 8c fe bd
       -0.065971926 0.0123691335 0.42306855 -0.1242922
000140 b4 92 cf bd 62 3b cd 3d fd 29 06 3e d8 9b 1c 3d
       -0.10135403 0.10021092 0.13101955 0.03823456
000150 57 bf b2 bf 25 05 dc bd 52 0e f7 3e 02 ba 60 3f
       -1.3964642 -0.10743169 0.48253113 0.87783825
000160 94 28 8a 3f ce 83 9f bc 02 25 35 3e e0 d3 e7 be
       1.0793633 -0.019472029 0.17689899 -0.45278835
000170 46 86 e1 3c b6 43 1e bf 53 0d 52 3f 62 34 e1 3e
       0.027529847 -0.6182207 0.8205158 0.43985277
000180 a9 dd 5b bf a4 1a 3a be 99 5a 02 c0 6c 2a 1e 3e
       -0.858851 -0.18174225 -2.0367796 0.1544587
000190 55 48 a3 3e 70 6a d5 be fc 06 bf 3b 99 ba 8e 3d
       0.31891122 -0.41682768 0.00582969 0.069691844
0001a0 22 5e a6 bf 13 fc b4 be 5f a0 84 be d0 9c d4 be
       -1.2997477 -0.35348567 -0.25903603 -0.41525888
0001b0 57 35 90 bf 4b 6f 9a bf 11 b8 b0 bf 47 3c 71 bf
       -1.1266278 -1.2065214 -1.3806173 -0.942326
0001c0 8b 1e c3 be 49 63 70 3e 1a e0 ad 3e f4 1b a0 3f
       -0.3810924 0.23475374 0.33960038 1.2508531
0001d0 3b ca 25 be c0 40 24 bd b7 69 fd be d8 2e c4 be
       -0.16190426 -0.040100813 -0.49494717 -0.3831699
0001e0 8a f8 01 bf 79 6f b8 bd d0 b9 88 be 84 5b 8a 3d
       -0.50769866 -0.09005637 -0.26704264 0.067557365
0001f0 73 51 51 3f be cb 8f 3e fe 1c 9c 3c 53 84 f1 bf
       0.81764907 0.2808513 0.019056793 -1.8868507
000200 4b a3 af c0 4c 0b 27 3d 5e 1e 37 3c 7c 6c 84 3e
       -5.488683 0.040782258 0.011176674 0.25864017
000210 5d ab 36 3f 22 5f 17 3f 66 a0 3e be dc df 60 be
       0.7135523 0.59129536 -0.18615875 -0.21960396
000220 96 08 3c 3f 0b 6f 30 3e 80 37 3e 3f 2e 69 74 bd
       0.734506 0.1722986 0.74303436 -0.05967062
000230 c4 fe 08 3e 63 54 55 be 90 00 a1 3c 01 23 6f 3f
       0.13378435 -0.20832972 0.019653589 0.93412787
000240 b8 10 9f bf 6d 78 56 bf 91 02 d3 3e 93 b0 d6 3a
       -1.2426977 -0.83777505 0.41212896 0.0016379528
000250 12 b2 d3 3d 65 c5 bc 3e 98 1a ed 3e 3b cd 2a bf
       0.103366986 0.3686935 0.46309352 -0.66719407
000260 21 c4 31 3f 9f fb cf 3e dc d6 9a bd 70 16 13 bf
       0.69439894 0.4062166 -0.075605124 -0.5745611
000270 d2 4c 33 bf 04 6d 61 bf b7 eb ce bd ec c3 7e 3e
       -0.70039093 -0.8805697 -0.10103553 0.24879426
000280 f1 22 2b 3f 1e f6 ed 3e d4 b6 92 bd a1 40 2f be
       0.6685019 0.46476835 -0.07163778 -0.17114498
000290 c2 ff 00 3e b1 96 5b bd dc f5 02 bd 36 fc 22 c0
       0.12597564 -0.053610507 -0.03197275 -2.5466437
0002a0 9a 73 30 be ba e0 0b be 9c 27 12 3e 1b 26 d3 bd
       -0.17231598 -0.13659945 0.14272922 -0.103100024
0002b0 10 06 e9 be b9 33 84 be ab 06 1f 3f d5 22 af 3d
       -0.45512438 -0.2582071 0.6211955 0.085515656
0002c0 db d2 43 3d 9d 78 0f bb 06 b3 74 bd 3d 59 2c bc
       0.04780851 -0.002189196 -0.059741043 -0.010519323
0002d0 ca 19 71 bf 60 87 c9 bd 6f 8d 47 3e 37 62 8b 3f
       -0.94179976 -0.09840274 0.19487546 1.0889348
0002e0 63 a8 51 3d be c1 e0 be 21 7b ad be 14 06 34 bf
       0.051185977 -0.43897814 -0.33883002 -0.70321774
0002f0 b9 75 3c be 6a 10 f7 be 05 bc b3 3d 71 b5 8b c0
       -0.18404283 -0.4825471 0.08776096 -4.3658986
000300 f6 09 c9 bf e1 07 38 bf aa cf 27 bf 0c 63 a1 bf
       -1.5706165 -0.7188702 -0.65551245 -1.2608352
000310 51 6f f8 bc 1c d3 4b 3f bd f6 35 bf 5f e0 fb bd
       -0.030326517 0.79619 -0.7107962 -0.12298655
000320 9a bc 66 3e 8b f6 05 3f 4d 98 ad be 41 ef 88 3e
       0.22532883 0.5232932 -0.3390526 0.26745036
000330 03 9a 08 3f d5 f4 e1 3e b6 80 d3 3d 34 e6 94 3e
       0.53360003 0.44132105 0.10327284 0.2908188
000340 73 15 fd 3d 76 b4 9c be 0d 08 2a be 49 be 86 bf
       0.12357607 -0.3060643 -0.16604634 -1.052682
000350 4d 3b 8a bf 0c b4 d7 3e 09 4e b3 bd 99 b4 81 bf
       -1.0799347 0.42129552 -0.087551184 -1.0133239
000360 56 88 a4 bf 5a c9 a4 bf cd e5 81 3e 3d 7e 11 be
       -1.2854106 -1.2873948 0.25370637 -0.14208312
000370 e3 28 4e 3f 0b 54 ce bd 6a 54 0f bf d0 91 47 bf
       0.8053114 -0.10074624 -0.5598818 -0.7795687
000380 eb 22 6d 3e 48 d4 a5 bf ea 39 fe 3e 12 d5 73 be
       0.23157851 -1.2955408 0.4965356 -0.23811749
000390 ba 4b 97 3f 44 36 14 3d 6c fa 1b 3e 5d 31 46 3e
       1.1819985 0.036184564 0.15232247 0.19354768
0003a0 ab 2f 85 bf 01 64 97 3e 5e 33 f6 be 84 97 eb bf
       -1.0405172 0.29568484 -0.48086065 -1.8405614
0003b0 8b 4a df 3e c4 7a 1c 3f 8d 58 c1 bd 1e d0 0e 3e
       0.4361156 0.61124825 -0.09440718 0.13946578
0003c0 5d 0c 95 3e a2 da 4c 3f 29 10 2d bf fc 48 00 3f
       0.29110995 0.8002111 -0.67602783 0.50111365
0003d0 f6 f5 20 bf cf e2 a1 bf 25 3b fd bd 24 e9 7b bf
       -0.62875307 -1.2647341 -0.123647965 -0.9840262
0003e0 cb ed a2 3e 6e e9 f7 3e 93 df 9d 3e 2e 82 82 bd
       0.31822047 0.4842028 0.30834636 -0.06372486
0003f0 c0 a7 56 be e6 4b 2e 3d 34 c5 71 3f a7 5b 76 bd
       -0.20962429 0.04255285 0.94441533 -0.060146

bias f4 [200]
000000 8d 63 ad bd a5 e7 f6 be e6 78 11 be fc 5c 3a ba
       -0.084662534 -0.48223606 -0.14206275 -0.00071091927
000010 27 17 fb be 9b 73 2c 3f 34 82 4c bd 56 0e 35 3e
       -0.490411 0.673639 -0.04992886 0.1768125
000020 03 b9 eb 3e e0 47 0a bf 84 dd 77 bf 0b 69 10 be
       0.4603959 -0.5401592 -0.9682238 -0.1410257
000030 ec d6 2a 3e 49 b5 c0 be 5e 2b 79 3e 00 c3 36 3e
       0.16683549 -0.3763831 0.2433295 0.17847824
000040 a4 4e de be 80 fc 5e be ce e5 b6 be 5d 17 3d 3f
       -0.43419373 -0.21776009 -0.35722202 0.73863775
000050 c1 93 27 be 2c ec 11 bf ca e3 a2 3d b3 58 91 be
       -0.16364957 -0.57000995 0.079536036 -0.28387985
000060 62 f1 28 3f 60 56 94 be 43 c3 78 bd 12 10 58 3f
       0.6599332 -0.2897215 -0.06073309 0.8439952
000070 94 be a5 3d 8b 3e 8a 3d 11 e9 7a be 12 0d d1 be
       0.080929905 0.067502104 -0.2450297 -0.40830284
000080 6a a2 5f 3d 41 05 6a 3e 85 d4 ff be a5 81 70 bf
       0.05459825 0.22853567 -0.49966827 -0.9394782
000090 ea 72 fa 3e b0 88 8c bd 73 7c aa be 31 bd bc 3e
       0.48915797 -0.068620086 -0.33298072 0.36863092
0000a0 3f 6f 0a 3f a7 1d 1a be 58 71 bb 3e a0 68 26 bf
       0.54076 -0.15050374 0.36609912 -0.65003395
0000b0 da 37 8d be 29 b0 b7 be 9d 50 6d 3d 1b f2 85 bf
       -0.27581674 -0.35876587 0.057938207 -1.046451
0000c0 07 61 35 3f 1d e2 2e 3e fc 86 6d bf 08 26 0e 3f
       0.70851177 0.17078443 -0.92784095 0.5552678
0000d0 9c 43 55 be c9 0a 04 3e 0c e4 e6 be fa f2 fd be
       -0.20826572 0.12894739 -0.4509586 -0.4959944
0000e0 38 43 81 3e 9c d3 fb be 2d 99 f4 3e a5 de 83 bf
       0.25246596 -0.49184883 0.47773114 -1.0302321
0000f0 02 1b 70 bf 2c c7 91 be 99 31 e1 3e 9b 38 0f bf
       -0.9379121 -0.2847227 0.43983153 -0.5594575
000100 8e 05 cf be 6f 43 46 bd e4 54 ec 3b e8 76 aa 3d
       -0.40433925 -0.048404153 0.007212268 0.08323461
000110 5f 8b 7e 3e e9 28 f0 3d 80 90 62 ba 70 a8 57 bf
       0.24857853 0.11726553 -0.0008642748 -0.8424139
000120 b6 31 8c be cd 2e 5f bf 2f 47 46 3f 6e f2 ba 3e
       -0.27381676 -0.8718079 0.7745237 0.36513084
000130 9d 67 1e 3e f9 1e d0 bd ad d8 78 3e 23 2f 9e 3e
       0.15469213 -0.101621576 0.24301405 0.30895337
000140 5d a6 78 3e 06 2c 46 be c8 f4 1f 3e 2f a2 f5 3e
       0.24282213 -0.19352731 0.1562072 0.479753
000150 fc 4c 7d be 58 c9 77 be 67 18 b2 3e 34 63 d5 3e
       -0.24736398 -0.241979 0.34784243 0.41677248
000160 2e 07 0e 3c 7b d7 ff bd 7f 7e 9f 3e 93 11 c0 3c
       0.008668704 -0.124922715 0.31151196 0.02344588
000170 31 71 3c be 12 96 9a 3d da ca 42 bf c0 88 95 be
       -0.18402554 0.07548155 -0.76090777 -0.29205894
000180 2f 6a e7 3e 52 18 2d 3e 99 7e 3b bf ee 03 18 bf
       0.451982 0.16903809 -0.7324005 -0.59380996
000190 9b f8 c3 be 05 ca 0c bd 1d d2 07 be cc 00 a6 bd
       -0.38275608 -0.03437235 -0.13263746 -0.08105621
0001a0 93 ed 00 3d bc 5b 27 3f 45 c3 c2 3c 32 24 99 3e
       0.03147657 0.6537435 0.023774752 0.29910427
0001b0 8a 6c 3c be f9 a7 2f 3e 91 99 8e be 2b da a0 bf
       -0.1840078 0.1715392 -0.27851537 -1.256658
0001c0 51 a6 b9 3e ba 53 cc be 54 7b 5a bf 7d fb 32 bf
       0.36259702 -0.39907628 -0.85344434 -0.6991499
0001d0 64 6a ef 3e a0 51 6d be 03 e0 ec 3e 57 01 35 3f
       0.46760857 -0.23175669 0.46264657 0.7070517
0001e0 4e 25 45 be f1 02 1c 3e e3 4d 9f bd 27 d2 17 3f
       -0.19252512 0.15235497 -0.077785276 0.5930504
0001f0 e6 cb 05 be e0 7d 86 bf ee 03 c5 3d dd c0 64 3f
       -0.13066062 -1.0507164 0.0961989 0.89356786
000200 e6 be 0e bb f7 2c 5f 3f 96 4b ba be ba 15 9b be
       -0.0021781265 0.87177986 -0.36385792 -0.30290014
000210 28 53 94 be b0 69 e6 be bc da 45 3e 80 39 7f bf
       -0.28969693 -0.45002508 0.19321722 -0.99697113
000220 0b a7 b6 bd 48 b8 ce 3d ee 94 88 be 8b 10 03 be
       -0.0891858 0.100937426 -0.26676124 -0.1279928
000230 6b de 9b be 51 83 c2 3e ba 22 1e bf e2 ac 98 bd
       -0.3044313 0.3799081 -0.6177174 -0.0745485
000240 f9 88 03 bf 4e 26 36 bf d6 c5 c8 3a 7a 75 a7 be
       -0.5138088 -0.711522 0.0015317749 -0.32706815
000250 b6 fa 37 be 36 79 f1 3e ab 75 02 bf fd a2 43 bf
       -0.17966732 0.4716279 -0.509608 -0.76420575
000260 6c 89 8b bd c3 38 e9 be ad fc 07 bf 5b c7 6a be
       -0.068133205 -0.45551118 -0.5311993 -0.2292761
000270 f4 b0 70 3e fd 61 39 bf dc be 6c 3e 2a 2d 99 3e
       0.23505002 -0.72415143 0.23119682 0.2991727
000280 de 90 b0 be a8 11 97 3c e6 27 22 bd 52 d6 0a bf
       -0.34485525 0.018441036 -0.03958883 -0.54233277
000290 a3 17 08 bf 9e af 9b 3e e5 da 64 bf 55 81 e8 3e
       -0.53161067 0.30407423 -0.89396507 0.45411173
0002a0 47 4e d1 3e 87 4f cd be 48 60 3c 3e f6 ef 61 be
       0.40880033 -0.40099737 0.18396103 -0.22064194
0002b0 e0 56 46 bf d5 bd 42 3f 01 1b 7d be cd 4a 77 3e
       -0.7747631 0.7607091 -0.24717332 0.24149628
0002c0 19 86 ac be 87 b4 08 bf 31 b5 f3 be d3 d4 74 be
       -0.33696058 -0.5340046 -0.47599176 -0.23909311
0002d0 52 b6 b3 be 55 2c 2d 3f e9 21 31 be f1 e1 ed be
       -0.35100037 0.6764577 -0.17298092 -0.46461442
0002e0 d6 58 31 3c 99 ea 93 be 51 bf 52 3f fb d8 d6 3e
       0.010824403 -0.2888992 0.82323176 0.41962418
0002f0 75 fa cf be 94 3c a9 3d d0 bd 49 3e 98 22 a0 3e
       -0.4062077 0.082635075 0.19701314 0.31276393
000300 93 82 8f be ec 16 4b be a3 14 1e bf b4 60 1d 3e
       -0.28029308 -0.19832963 -0.6175024 0.1536892
000310 23 e3 14 be 4d 1b c7 3e bc 51 56 bc 12 e4 34 be
       -0.14539771 0.38888016 -0.01308101 -0.17665127

weight f4 [200, 200]
000000 19 1f 19 bf 59 33 47 3c c4 98 a7 3e ca e4 82 bf
       -0.59813076 0.012158238 0.32733738 -1.0226071
000010 a6 47 de bf 01 72 cd 3d 55 d5 6a 3f 87 cb 1d c0
       -1.7365615 0.1003151 0.9173177 -2.4655473
000020 0d d7 76 3f 01 d4 aa bf c9 84 0f 3e 50 f7 96 bb
       0.9642189 -1.3345948 0.14015497 -0.0046071187
000030 e4 63 9a 3e 1e 6e be bf 2f 60 28 3e dd ba 41 3f
       0.30154335 -1.4877355 0.16442941 0.75675756
000040 65 05 1b c0 b5 9d 2d be 82 3e 0e bf b5 0e 4b 3e
       -2.4222043 -0.16954692 -0.5556413 0.19829829
000050 61 2c 8f bf a5 75 cf bf 7f 41 cd be 20 53 58 bf
       -1.1185418 -1.6207777 -0.40089032 -0.8450184
000060 93 8f 8e 3e e4 85 40 3f e4 7e b1 3e f4 1d 99 be
       0.27843913 0.752043 0.34667122 -0.29905665
000070 57 8c 2d bf 1b 7d 2b bf 0a a2 a9 bd 33 7a f6 be
       -0.67792267 -0.6698777 -0.082828596 -0.48140106
000080 6f de a0 bf d3 2d 1b bf 1e 8e 35 bc ff 14 8b 3f
       -1.2567881 -0.606168 -0.011081247 1.0865782
000090 49 2b 72 3e 56 ab 41 c0 1e d6 97 bf 75 06 71 3f
       0.23649324 -3.0260825 -1.1862218 0.9415048
0000a0 e9 17 22 bf e2 ae 38 3e 1a 4f 8d 3d cf 13 ed 3e
       -0.63317734 0.18035462 0.06899853 0.46304175
0000b0 08 f7 02 c0 f6 e7 6e be 32 0c 90 bf b4 a3 28 be
       -2.0463276 -0.23330674 -1.1253722 -0.16468698
0000c0 81 44 a8 bf b7 20 95 be 8f 19 84 3f 61 25 02 bf
       -1.3145906 -0.29126522 1.03203 -0.50838286
0000d0 30 c0 1e be 7d fb be bf a5 9a 74 bf b4 06 9f 3f
       -0.15503001 -1.4920498 -0.9554847 1.2423921
0000e0 86 59 da be c6 2e b9 3c e6 49 81 be 9c 68 83 bf
       -0.42646426 0.022605311 -0.25251693 -1.0266299
0000f0 5d 63 99 be 35 57 ea 3a 44 c5 06 c0 13 8e 5f 3e
       -0.2995862 0.0017878773 -2.1057901 0.21831541
000100 6d dd 9f bf 12 73 4f 3f 07 7b cf bf 3e 20 14 3e
       -1.2489449 0.8103496 -1.620942 0.14465424
000110 9b 17 ca bf ac 5a 1f bc 5c de 5c bf ff 25 04 3f
       -1.5788454 -0.009726208 -0.86276793 0.5162048
000120 f7 82 8e bf 6f 34 9b bf ec 5d 21 3f 46 db 16 bd
       -1.1133717 -1.2125376 0.6303394 -0.03683021
000130 bc 12 09 be 36 d1 25 bf fc 18 ac be fe 46 e7 bd
       -0.13386053 -0.64772356 -0.33612812 -0.112928376
000140 a8 6c bd bf 35 84 1b 3e d7 e5 0a bf 34 a4 98 bf
       -1.4798784 0.15187152 -0.5425696 -1.1925111
000150 a1 42 44 3f 2f da d1 bd 3a 67 dd be 61 b2 c1 be
       0.7666417 -0.10246693 -0.43242818 -0.37831405
000160 4a 81 e3 bf 48 f3 12 c0 a5 3c 8a be cc a4 a3 be
       -1.7773831 -2.2960987 -0.26999393 -0.31961668
000170 40 f6 24 be 76 9b b5 b9 ca c3 73 bd 1a ba d8 bc
       -0.16109562 -0.00034638838 -0.05951289 -0.026455928
000180 9f bd a8 3e 06 69 1b be 0d 03 44 bd b3 af 4f be
       0.3295717 -0.15176782 -0.047854472 -0.20281868
000190 b9 14 7d 3e 2f ef da bf cc bc 2a be f6 38 46 3f
       0.24714936 -1.7104243 -0.16673583 0.77430665
0001a0 70 5d 87 be b3 fd 5a bb b1 c0 d7 bc 61 cd d5 bd
       -0.26438475 -0.0033415377 -0.026337 -0.104395635
0001b0 6a 60 a8 be dd 54 f0 bf f8 9e 6f bf 61 78 ba bf
       -0.32886058 -1.8775898 -0.9360194 -1.4567987
0001c0 75 ea 33 c0 97 21 5f 3d b7 76 05 c0 ca 0a 73 3f
       -2.8111851 0.054475393 -2.0853708 0.9493834
0001d0 a0 00 6a bf a6 00 ae bf a5 7f e2 3e d5 73 8c bf
       -0.91407204 -1.3593948 0.4423801 -1.0972849
0001e0 28 8f 7d bf 8b ea b8 bf 6d 40 64 be 0f a8 e6 be
       -0.99046564 -1.4446577 -0.22290201 -0.45050094
0001f0 3a b9 6a be ab 64 81 bd 04 06 0e 3e 3e 75 97 be
       -0.22922221 -0.06318029 0.13869482 -0.29581636
000200 d6 06 29 c0 bb a5 06 bf 68 fd 55 3f 1b c7 a2 3d
       -2.6410422 -0.52596635 0.8358979 0.079481326
000210 cf a3 c8 3e a4 48 e0 bf 6c eb 15 c0 bf 92 5b 3d
       0.39187476 -1.7522168 -2.342494 0.053606745
000220 1d d2 60 be 17 ff 3f 3f 86 60 cd be 31 cd 38 bf
       -0.21955152 0.7499861 -0.40112704 -0.721881
000230 35 8e 65 3f 92 b0 7d be fd 59 85 be 61 1d 6b bf
       0.89670116 -0.24774387 -0.26045218 -0.91841704
000240 2d 19 a2 be 66 9f 8a be 28 cf 0b 3e 5b 02 6b bc
       -0.31659833 -0.27074736 0.13653243 -0.014343823
000250 10 74 17 bd 11 8f 91 3e bb 53 86 bf 8b dc 47 bf
       -0.03697592 0.28429464 -1.0494303 -0.78070897
000260 fd da 9e 3e 63 33 13 bf 2d 74 9b bd 4e 4b c1 be
       0.3102645 -0.57500285 -0.07590518 -0.37752765
000270 89 1a cf bd ae ab 5b bf 93 69 02 c0 40 cf 8d bd
       -0.10112483 -0.8580884 -2.0376937 -0.069242954
000280 c6 45 a9 bf af 81 26 3d 90 63 20 c0 04 2c 94 3e
       -1.3224418 0.04065102 -2.5060768 0.2893983
000290 b3 74 ae be 4b 8a f0 3f 60 76 eb 3e b8 18 27 c0
       -0.3407341 1.8792204 0.4598875 -2.6108837
0002a0 88 b9 e1 bf 70 56 7f bf 93 3f ea 3e bd 0a 51 bf
       -1.7634745 -0.9974127 0.45751628 -0.8165701
0002b0 25 fe 27 bf 03 08 9a be 35 8d 26 c0 ed c3 75 3e
       -0.6562217 -0.30084237 -2.6023686 0.24000521
0002c0 fa 4a 12 3f 48 f5 82 3f 14 25 02 3f 2d b0 4a c0
       0.57145655 1.0231104 0.50837827 -3.167003
0002d0 36 99 20 bf 57 18 b7 bf f4 98 44 3e 55 2c 61 c0
       -0.6273378 -1.4304303 0.19198972 -3.5183308
0002e0 58 ff 4a 3d c0 1d e7 3e 63 2b 0c bf 26 48 b3 be
       0.04955992 0.45139885 -0.547537 -0.35015982
0002f0 9b e6 63 be 91 3a 4e 3f 4f 3a 8b bf 63 09 7b bf
       -0.22255938 0.80558115 -1.0877169 -0.980612
000300 7c fb ba bd b7 64 8f bf 02 50 a7 bb 38 93 2f bf
       -0.09129998 -1.1202611 -0.005105973 -0.68584013
000310 6f 2f 8d 3e d9 c8 13 3f 98 a5 86 bb 27 88 63 bd
       0.2757525 0.57728344 -0.004109096 -0.055549767
000320 59 19 4c be d6 35 71 bf 9f 99 86 c0 ff 85 02 bd
       -0.19931544 -0.9422277 -4.2062526 -0.03186607
000330 7c 56 65 3e 67 52 31 be c7 95 ad be 21 6d 13 bf
       0.22396272 -0.1731659 -0.33903334 -0.5758839
000340 97 c9 c6 3e 22 df cb be a8 f5 ba be ea d8 54 c0
       0.38825676 -0.39818674 -0.36515546 -3.3257394
000350 73 63 5d bf 76 29 85 be 60 09 f7 be ca 91 78 3f
       -0.8647987 -0.26008195 -0.4824934 0.97097456
000360 5c 03 33 be d4 b0 8c 3f f1 94 aa 3f 81 bf 9d bf
       -0.1748175 1.0991464 1.3326703 -1.2324067
000370 b8 62 70 be a4 51 68 be 12 56 28 c0 6b b1 5a 3f
       -0.23475158 -0.22687393 -2.6302533 0.8542697
000380 16 cf c8 bc 35 8c ed 3e 6d 0e 44 3f 09 18 35 3f
       -0.024512809 0.46396032 0.7658451 0.707398
000390 c5 a0 59 bf 54 99 38 3f 87 62 fb 3c e6 7b a9 bd
       -0.8501094 0.7210896 0.03068663 -0.08275585
0003a0 ab 4b c8 bd d3 0f f1 be ab 2f 46 3e 7b cf 0e bf
       -0.097800575 -0.47082385 0.19354121 -0.5578534
0003b0 e6 4b 45 3f f8 8a 87 3e df ec 61 bf 2e 95 5e be
       0.77068937 0.26473212 -0.8825206 -0.21736595
0003c0 3f 87 b7 be 6e 28 b0 bf 5e cb 7e be 0f b5 c3 be
       -0.35845372 -1.3762338 -0.24882266 -0.38224074
0003d0 ac db 83 3d 83 fb db be 14 44 cf 3e 87 c8 37 c0
       0.064383835 -0.42965326 0.40481627 -2.8716142
0003e0 06 33 f7 bd f7 7e 29 40 31 98 69 3e a0 9d 67 3f
       -0.12070279 2.6483743 0.22811963 0.9047489
0003f0 3a fa 9d bf f6 e6 dc 3f e0 aa 58 3f 37 93 5c 3f
       -1.2341988 1.7257984 0.84635735 0.8616213
