Vehicles/ModRepeat_forest_0/ModRepeat_forest_0_actor_target.pth (torch, 176514 bytes, 5 tensors)

weight f4 [200, 14]
0	0x3e8b3206	0.27186602
1	0xbeb78a9c	-0.35847938
2	0xbf26c21a	-0.65139925
3	0x3ea178b5	0.31537405
4	0xbf1742f8	-0.5908656
5	0xbede1d31	-0.43381646
6	0x3dffa321	0.12482286
7	0xbf2453ff	-0.6419067
8	0xbf264e18	-0.6496291
9	0xbe95d4dd	-0.29263964
10	0xbf1bf0e7	-0.6091446
11	0x3e5a53bd	0.21321006
12	0x3f0bcaae	0.5460614
13	0x3e18048c	0.14845484
14	0xbf270012	-0.6523448
15	0xbf8417ae	-1.0319726
16	0xbd9503cd	-0.072761156
17	0xbe125f08	-0.14294064
18	0x3e9f2058	0.31079364
19	0x3f1d9e98	0.6157012
20	0xbf2327f1	-0.6373282
21	0xbf94a31b	-1.1612276
22	0xbfcea39b	-1.6143678
23	0x3e5b1ee6	0.21398506
24	0xbf5dfc62	-0.8671323
25	0xbe2b949b	-0.16755907
26	0x3ecc93e5	0.39956585
27	0x3ebe7058	0.37195086
28	0x3d1951a5	0.037431378
29	0xbe878c6d	-0.26474324
30	0xbd9351b6	-0.071933195
31	0x3e4ae9c0	0.19815731
32	0xbe5f7071	-0.21820237
33	0x3d8e12bd	0.06937168
34	0xbe7e168c	-0.24813288
35	0xbe77f694	-0.24215156
36	0xbe45c6e9	-0.1931416
37	0xbd944575	-0.072398104
38	0xbdfca11c	-0.12335417
39	0xbe819ce5	-0.25315014
40	0xbe85026c	-0.2597841
41	0x3bcf83e1	0.00633286
42	0xbf2f371f	-0.68443483
43	0x3d6a58a2	0.057213433
44	0x3db0a587	0.08625322
45	0xbeb91fd8	-0.36157107
46	0xbf324460	-0.6963558
47	0xbf0b985d	-0.5452936
48	0xbf0af065	-0.5427306
49	0xbfb5ae98	-1.4193907
50	0xbf840ac5	-1.0315787
51	0xbf331a70	-0.69962215
52	0xbf06f735	-0.5272096
53	0x3e934b75	0.28768507
54	0x3eaf7666	0.34270018
55	0x3dff1ab3	0.12456264
56	0xbf2e0f23	-0.67991847
57	0xbdbf887e	-0.09352206
58	0xbf0f0bc7	-0.55877346
59	0x3ef4e4a3	0.47830686
60	0x3ed370f5	0.41297117
61	0xbebc036e	-0.36721367
62	0xbe12252a	-0.1427199
63	0xbf205eac	-0.6264446
64	0xbeb70f31	-0.35753778
65	0x3f01f4a2	0.50763905
66	0x3f85e5ef	1.0460795
67	0x3ea10977	0.31452534
68	0x3e2af72a	0.16695848
69	0x3e37103d	0.17877288
70	0x3f116f6f	0.5681066
71	0x3f7b59e5	0.98184043
72	0xbe615102	-0.22003558
73	0x3e7cb9b9	0.24680223
74	0x3e12d911	0.14340617
75	0x3f201835	0.62536937
76	0xbe0aee2c	-0.13567418
77	0xbdf55eb9	-0.119809575
78	0xbebc3eed	-0.3676676
79	0xbff2c77e	-1.896713
80	0xbe9e1290	-0.30873537
81	0xbf2ecfb2	-0.6828567
82	0xbf80bfea	-1.0058568
83	0xbf1ee9a7	-0.62075275
84	0x3dc234f2	0.09482755
85	0xbf5e5536	-0.8684877
86	0x3deeb7b9	0.11656136
87	0xbf5db0a8	-0.8659768
88	0x3e01d2d9	0.12678088
89	0x3e7b4809	0.24539198
90	0x3eea3830	0.45745993
91	0xbf61a582	-0.8814317
92	0xbe914044	-0.28369343
93	0xbe9a6f99	-0.30163267
94	0x3e70715b	0.23480742
95	0x3f4968fe	0.7867583
96	0x3e765c7d	0.24058719
97	0xbeea0d21	-0.45713142
98	0x3d0524a3	0.032505643
99	0xbf0acddb	-0.5422036
100	0xbe311fa9	-0.17297234
101	0x3e97a984	0.29621518
102	0xbe1bbcc1	-0.15208723
103	0x3da017a0	0.07817006
104	0xbe3c287d	-0.1837482
105	0xbe25b481	-0.16182138
106	0xbee5aa72	-0.44856602
107	0xbed2a594	-0.4114195
108	0x3ee26d72	0.44224125
109	0xbf7435bc	-0.9539449
110	0xbea537b6	-0.32269067
111	0xbf142a13	-0.578767
112	0xbf6a7ecf	-0.91599745
113	0xbf3b3eb0	-0.7314253
114	0xbe9487f8	-0.29009986
115	0xbdee2714	-0.11628547
116	0xbe2d5aa0	-0.16929102
117	0x3f15fbaf	0.58587164
118	0xbf217555	-0.6306966
119	0xbf253b29	-0.64543396
120	0x3bd85f21	0.006603137
121	0xbf163f43	-0.5869028
122	0xbedb172f	-0.42791125
123	0xbf333e57	-0.70017
124	0xbf1f9259	-0.62332684
125	0xbeeee623	-0.46659955
126	0xbecbe230	-0.39821005
127	0xbe279fa1	-0.16369487
128	0xbd1830d4	-0.03715594
129	0xbef95878	-0.4870031
130	0x3e3e473b	0.1858186
131	0x3f56c554	0.8389485
132	0x3f0d70c2	0.5525018
133	0xbc818f58	-0.015815422
134	0xbdf1f34d	-0.11813984
135	0xc0310fb0	-2.7665825
136	0xbf989894	-1.1921563
137	0x3e6837ed	0.22677584
138	0xbd9f9c70	-0.0779351
139	0xbecb3dc3	-0.39695558
140	0x3f24de8e	0.6440209
141	0xbf19773c	-0.5994756
142	0xbdb2d81d	-0.087326266
143	0x3db26655	0.087109245
144	0x3d3138a8	0.043266922
145	0xbea25765	-0.31707302
146	0xbe55718c	-0.20844096
147	0x3e959829	0.2921765
148	0xbe4665fa	-0.19374838
149	0xbe6abccb	-0.22923581
150	0xbefbe850	-0.49200678
151	0x3edfc3a0	0.43703938
152	0x3f531ecd	0.82468873
153	0x3f57f476	0.8435739
154	0x3e56b0ed	0.2096593
155	0xbc58d4df	-0.013234346
156	0x3fafb094	1.3725762
157	0x3d6ca40f	0.057773646
158	0xbe5ccc3c	-0.21562284
159	0xbdc15b24	-0.09441212
160	0xbd19bf3c	-0.03753589
161	0xbed83e60	-0.42235088
162	0x3f64dcd7	0.89399475
163	0x3dd59049	0.10427911
164	0x3da20c64	0.079125196
165	0xbea1d6d8	-0.31609225
166	0x3c16a8c2	0.009195508
167	0xbe8d3cc6	-0.2758543
168	0x3e99e9f6	0.3006131
169	0x3e05c20c	0.13062304
170	0xbf401a44	-0.7504008
171	0xbecf459a	-0.4048279
172	0xbd79fb1e	-0.0610305
173	0xbe838285	-0.25685516
174	0xbed9ee74	-0.42564738
175	0x3b59b838	0.0033221375
176	0xbcb23519	-0.021753835
177	0xbfd745c9	-1.6818172
178	0xbf63c32f	-0.889697
179	0xbf4fe496	-0.8120817
180	0xbecef357	-0.4042003
181	0x3b5880ae	0.0033035683
182	0xbe21f1de	-0.15814921
183	0x3ee562cb	0.44801936
184	0xbfa28635	-1.2697207
185	0x3eedf32f	0.46474597
186	0xbefbd8f4	-0.4918896
187	0xbeab3bc7	-0.33444044
188	0xbedd8226	-0.43263358
189	0xbf00291a	-0.50062716
190	0x3d32e9e3	0.043680083
191	0x3eb4a4a8	0.35281873
192	0x3ec3d09f	0.38245103
193	0xbe3b1d70	-0.18272948
194	0xbe519364	-0.20466381
195	0xbea8c6ee	-0.3296427
196	0xbe75139d	-0.23933263
197	0xbef775f8	-0.4833219
198	0x3fbe2440	1.4854813
199	0xbdc560fb	-0.09637638
200	0x3ed0455d	0.4067792
201	0xbd98040a	-0.074226454
202	0x3e814c43	0.25253496
203	0xbd8254de	-0.063638434
204	0x3e03a16d	0.12854548
205	0xbeabd7a4	-0.33562958
206	0xbe276631	-0.16347577
207	0xbd9f4c82	-0.077782646
208	0x3e6636a6	0.22481784
209	0x3e2b4600	0.16725922
210	0x3ec2c20e	0.38038677
211	0xbf368efc	-0.71311927
212	0x3ecf2600	0.4045868
213	0x3df1828b	0.11792477
214	0x3eac4f1b	0.33654103
215	0x3e7e385d	0.24826188
216	0xbefbb9ff	-0.4916534
217	0xbf25b6b5	-0.64731914
218	0xbf97f341	-1.187111
219	0x3e0d719c	0.1381287
220	0xbef57319	-0.47939375
221	0xbea1254b	-0.31473765
222	0xbe8ae2a0	-0.27126026
223	0xbe4ff072	-0.20306566
224	0xbf46867d	-0.7754896
225	0xbeba5eb1	-0.3640037
226	0x3f06dc2d	0.5267971
227	0x3ec7530e	0.38930553
228	0x3ef7f3ef	0.48428294
229	0x3e4732ae	0.19452927
230	0x3cfe9a5a	0.03107946
231	0xbb163077	-0.002291707
232	0xbf2d32af	-0.6765546
233	0xbdac41be	-0.08410977
234	0xbf4aa1cc	-0.7915313
235	0x3cb59513	0.02216581
236	0xbcffc905	-0.031223783
237	0xbe0d4c7d	-0.13798709
238	0xbf417df9	-0.75582844
239	0xbd4a3caf	-0.04937428
240	0xbf5afdf1	-0.85543734
241	0x3d2d197d	0.042260636
242	0x3f0fd640	0.56186295
243	0x3e6d59ac	0.23178738
244	0x3e2115db	0.15730993
245	0xbc1adc14	-0.009451885
246	0x3e2eb850	0.17062497
247	0xbf514deb	-0.8175952
248	0xbe35af15	-0.1774257
249	0xbf13c8ed	-0.57728463
250	0xbfab7032	-1.3393614
251	0xbf90bfd3	-1.130854
252	0x3ebe9833	0.37225494
253	0xbd96d5cd	-0.07364998
254	0x3ea00020	0.31250095
255	0x3ed873b8	0.42275786

bias f4 [200]
0	0x3c11d707	0.008901364
1	0xbdcc7205	-0.09982685
2	0xbe8e9215	-0.27845827
3	0xbebae1d8	-0.3650043
4	0x3ccf0e60	0.02527541
5	0x3d818bfd	0.06325529
6	0xbd90d1c1	-0.070712574
7	0xbea34fec	-0.31896913
8	0xbe7b0efa	-0.24517432
9	0x3eb29bb5	0.3488442
10	0xbe810e80	-0.25206375
11	0xbf618071	-0.8808661
12	0x3d789d24	0.060696736
13	0x3eef4db8	0.46738982
14	0x3e92534f	0.28579184
15	0x3ebb9f18	0.36644816
16	0xbec70c44	-0.38876545
17	0xbf004e5c	-0.50119567
18	0xbefd0f90	-0.49425936
19	0xbd8f79f5	-0.07005683
20	0x3f112cd0	0.56709003
21	0xbe460a94	-0.19339973
22	0xbe88d89e	-0.26727766
23	0x3ea117af	0.31463382
24	0x3e32a3c7	0.17445289
25	0xbe17c7a5	-0.14822252
26	0x3dd980b8	0.10620254
27	0x3d18c19d	0.03729402
28	0x3ed3423d	0.41261473
29	0xbe611b24	-0.2198301
30	0xbe09a9de	-0.13443705
31	0x3e45ad88	0.19304478
32	0x3d67cdc6	0.056592725
33	0xbee14f59	-0.4400585
34	0x3e955af2	0.29170948
35	0xbeb9cf2e	-0.36290878
36	0xbf15ac69	-0.584662
37	0x3aebf819	0.0018003016
38	0xbf2fc8e2	-0.686659
39	0x3d9303bb	0.07178446
40	0x3f1b429e	0.60648525
41	0xbdfd4e83	-0.123684905
42	0xbe866bc5	-0.26254097
43	0xbe95ab32	-0.29232174
44	0xbefafe0a	-0.4902194
45	0x3f2793f5	0.6546014
46	0xbe743079	-0.23846616
47	0x3ef7121c	0.48256004
48	0xbef5b730	-0.47991323
49	0x3e82f190	0.25574923
50	0xbf0a2397	-0.53960556
51	0x3d17116b	0.036881845
52	0x3deaf198	0.114718616
53	0xbe569794	-0.2095626
54	0xbe37d062	-0.17950585
55	0x3e919315	0.28432527
56	0xbde41c30	-0.11138189
57	0xbecfe111	-0.406014
58	0x3e92b8d2	0.28656632
59	0xbed91dce	-0.42405552
60	0x3e073d6e	0.13207027
61	0x3af01af5	0.0018318581
62	0x3d04ff51	0.03247005
63	0xbe46b858	-0.19406259
64	0x3e8d7fba	0.2763651
65	0x3e715781	0.23568536
66	0xbea8c39f	-0.32961747
67	0xbe7b9710	-0.24569345
68	0x3dcdb517	0.10044306
69	0xbe3073c4	-0.17231661
70	0x3df6661c	0.120311946
71	0xbec640b4	-0.3872124
72	0x3e398628	0.18117583
73	0x3e2941bf	0.16528986
74	0xbe901e2e	-0.28148025
75	0x3ec22579	0.37919214
76	0xbe5062f2	-0.20350245
77	0xbe89f7f5	-0.2694699
78	0x3d8b026c	0.06787571
79	0x3dae95af	0.08524644
80	0xbf1b77e2	-0.607298
81	0x3d9af30a	0.07565887
82	0x3c9051af	0.017617075
83	0xbe14c185	-0.14526947
84	0x3e00b8fe	0.12570569
85	0x3c32bd20	0.010909349
86	0x3e350819	0.1767887
87	0xbebb1114	-0.36536467
88	0xbeee1230	-0.4649825
89	0xbd9214be	-0.071328625
90	0xbe6c10d0	-0.23053288
91	0x3ddecfe4	0.10879496
92	0x3ea8d29c	0.32973182
93	0xbef14531	-0.471231
94	0xbea00745	-0.31255546
95	0x3ebe4747	0.37163755
96	0xbe10ad6a	-0.14128652
97	0xbe08ad99	-0.13347472
98	0x3db8fd24	0.09032658
99	0x3db4ee06	0.08834462
100	0xbe82dba5	-0.255582
101	0xbe36be06	-0.17845926
102	0x3e3fd23b	0.1873254
103	0xbe96e3c6	-0.29470652
104	0xbf17604e	-0.59131324
105	0xbedd3942	-0.43207747
106	0xbd908252	-0.070561066
107	0xbe8b0c13	-0.2715765
108	0x3e881187	0.26575872
109	0xbe3ed92c	-0.18637532
110	0x3e09bb0b	0.13450257
111	0xbe89c510	-0.2690816
112	0x3efbb2a7	0.49159738
113	0xbeb52846	-0.3538229
114	0xbed1abce	-0.4095139
115	0xbda96f0e	-0.08273135
116	0xbed7bb00	-0.42134857
117	0x3d42fe83	0.047606003
118	0xbf12f0f7	-0.57398933
119	0x3ea4d711	0.32195333
120	0xbe07c646	-0.13259229
121	0xbf187e8a	-0.59568083
122	0xbf079f4a	-0.5297743
123	0xbdef0f55	-0.11672846
124	0xbecb1fb5	-0.39672628
125	0x3e1978fd	0.1498756
126	0xbecc9c7d	-0.3996314
127	0x3d508bb9	0.0509145
128	0x3de38b32	0.11110534
129	0x3d681794	0.05666311
130	0x3e5a3776	0.21310219
131	0x3d813a29	0.06309921
132	0x3f04c167	0.5185761
133	0x3ef24bae	0.47323364
134	0xbdf3f255	-0.119114555
135	0xbe0d8b53	-0.13822679
136	0xbecd5c5c	-0.40109527
137	0xbead9d89	-0.33909252
138	0xbe80b7c2	-0.25140196
139	0xbe36fc4e	-0.17869684
140	0x3edcbb46	0.43111628
141	0xbec35b10	-0.38155413
142	0xbdbebaaf	-0.09312951
143	0xbe0948c2	-0.13406661
144	0xbdab8427	-0.083748154
145	0xbe3025a9	-0.17201866
146	0xbd72ac9a	-0.059246637
147	0xbdc39d7b	-0.095515214
148	0xbe5e020a	-0.21680465
149	0xbdcf627f	-0.101262085
150	0xbea61052	-0.32434326
151	0xbed1cabc	-0.40974987
152	0xbec27736	-0.37981576
153	0x3eaf83b4	0.3428017
154	0x3d6e5b05	0.05819227
155	0xbec1791d	-0.37787715
156	0xbefb2482	-0.4905129
157	0xbed6c97a	-0.4195059
158	0x3ca162ca	0.019700427
159	0x3e39394e	0.18088266
160	0xbeb0ccfd	-0.34531394
161	0x3ea79d4b	0.32737193
162	0xbec99df2	-0.39378315
163	0x3de0a576	0.10969059
164	0xbe5040f2	-0.20337275
165	0x3ca5b192	0.020226274
166	0xbe8f3d2d	-0.2797636
167	0xbe5b4c7b	-0.21415894
168	0x3ead8d08	0.3389666
169	0xbe27801c	-0.16357464
170	0xbe14e0b1	-0.14538838
171	0x3e0aec65	0.1356674
172	0x3c0f92ce	0.008763028
173	0x3bff98e2	0.0078002075
174	0xbeb70298	-0.35744166
175	0xbf02c9c7	-0.5108914
176	0x3ecd245c	0.40066803
177	0xbd6d8671	-0.05798954
178	0xbe1eb6e6	-0.15499458
179	0x3caec740	0.021335244
180	0xbdd7cb96	-0.10536878
181	0xbdb9585c	-0.09050056
182	0xbd8cd3ab	-0.0687631
183	0x3e804983	0.25056085
184	0x3d4d4c1e	0.05012142
185	0xbcd20d5b	-0.025641134
186	0x3e0f3560	0.13985205
187	0x3e5b1910	0.2139628
188	0x3ec7553a	0.3893221
189	0xbb3d5f30	-0.0028895847
190	0xbf352319	-0.7075668
191	0xbe93ee8e	-0.2889294
192	0xbe076ddf	-0.13225506
193	0xba953805	-0.0011384493
194	0xbeb4edfd	-0.3533782
195	0xbd405d12	-0.04696376
196	0xbeb79e26	-0.35862845
197	0x3ebd2fbc	0.3695048
198	0x3eca49aa	0.39509326
199	0x3f180c49	0.59393746

weight f4 [200, 200]
0	0xbe51532a	-0.20441881
1	0xbe8041d2	-0.25050217
2	0x3d7dd796	0.061973177
3	0xbe080afc	-0.1328544
4	0xbd8690ad	-0.065705635
5	0xbf601a21	-0.8753987
6	0xbdf73b53	-0.12071862
7	0x3f357180	0.7087631
8	0xbee2fe9b	-0.44334874
9	0xbfaf597c	-1.3699183
10	0xbf3a9d11	-0.72895914
11	0xbec82587	-0.3909113
12	0xbf733394	-0.95000577
13	0xbe2dada6	-0.16960773
14	0x3ec141f9	0.37745646
15	0xbbde1a2f	-0.0067780237
16	0xbe45de58	-0.19323099
17	0xbe7cece3	-0.2469974
18	0x3e53b231	0.20673443
19	0x3e7c70c0	0.24652386
20	0xbf21f6a6	-0.6326698
21	0x3ee64d76	0.44980973
22	0x3e2c4df0	0.16826606
23	0x3e9bcb95	0.30428758
24	0xbe3c11c0	-0.18366146
25	0xbf15878e	-0.58409965
26	0x3f02c9cb	0.5108916
27	0x3f0fe947	0.5621533
28	0xbe37dac2	-0.17954543
29	0x3f43a0e3	0.7641737
30	0xbe6af2b3	-0.22944145
31	0xbfba4b5a	-1.4554245
32	0xbf071d7d	-0.5277937
33	0x3dc67822	0.09690882
34	0xbf237920	-0.638567
35	0xbf88f175	-1.0698687
36	0x3f12f9fc	0.57412696
37	0x3de1a153	0.11017098
38	0xbf024604	-0.50888085
39	0x3f32c8a9	0.69837433
40	0xbf5df7e2	-0.86706364
41	0xbefd7b1b	-0.49507985
42	0x3e8bdf74	0.2731892
43	0x3e201d87	0.15636264
44	0xbf1470c5	-0.5798457
45	0xbf20def6	-0.6284021
46	0xbe938417	-0.28811714
47	0x3d641728	0.055686146
48	0x3d99c22c	0.075077385
49	0xbe9f94ac	-0.31168115
50	0x3d499458	0.049213737
51	0x3d8f6268	0.070011914
52	0xbfdf7b8c	-1.7459579
53	0xbeaf09ce	-0.34187168
54	0xbead9151	-0.3389993
55	0xbbb5815b	-0.005539102
56	0xbcdc833b	-0.026918044
57	0x3f8970cc	1.0737548
58	0x3e27658f	0.16347335
59	0xbee5266e	-0.44755882
60	0x3f10b391	0.56523997
61	0x3f2f2027	0.68408436
62	0xbf5e7168	-0.86891794
63	0x3eb789f8	0.3584745
64	0xbd885370	-0.066565394
65	0x3e8fa0f2	0.2805248
66	0xbca5cd08	-0.020239368
67	0xbf007747	-0.50182
68	0x3eec9048	0.46203828
69	0xbf8f63ea	-1.1202366
70	0xbda54e05	-0.08071522
71	0xbf4652f1	-0.7747031
72	0x3e15a1f8	0.14612567
73	0x3e264fd8	0.16241395
74	0x3d083793	0.033256125
75	0x3f719ea0	0.9438267
76	0xbfa96ecb	-1.3236936
77	0x3f3352b0	0.70048046
78	0x3f2d8d92	0.67794144
79	0xbe912ff8	-0.2835691
80	0xbebfa901	-0.37433627
81	0xbfb110ec	-1.3833289
82	0x3e7d4fed	0.2473752
83	0xbf849e6c	-1.0360847
84	0xbccf45cb	-0.025301835
85	0xbf6106f0	-0.8790121
86	0xbf0cf789	-0.5506521
87	0x3f82402c	1.0175834
88	0xbe219d00	-0.15782547
89	0x3e216ba4	0.15763718
90	0xbf1cc249	-0.61233956
91	0x3de054fb	0.10953709
92	0xbf402eb7	-0.7507128
93	0x3f0ab5cd	0.54183656
94	0x3f9efe41	1.2421342
95	0xbf0c2697	-0.54746383
96	0xbec40081	-0.38281634
97	0xbdc8eb59	-0.09810514
98	0xbf005f1f	-0.50145143
99	0xbf7aa87d	-0.9791334
100	0x3c8147fa	0.015781391
101	0xbe727128	-0.23675978
102	0x3ee1b742	0.44085127
103	0x3d158ccc	0.036511227
104	0x3f50290b	0.81312627
105	0xbe9dd6ae	-0.3082785
106	0xbe40a63f	-0.18813418
107	0xbe6cd39a	-0.23127595
108	0xbe98e561	-0.29862502
109	0xbf1b3277	-0.6062388
110	0x3df60f8f	0.12014686
111	0xbf33b896	-0.7020353
112	0xbf3407f4	-0.70324636
113	0xbece1321	-0.4024897
114	0x3f0fb839	0.56140476
115	0x3ec294f0	0.38004255
116	0x3effa2a3	0.4992877
117	0xbf946f96	-1.1596553
118	0x3e5b7698	0.21431959
119	0x3f7631b2	0.9616958
120	0x3ea1b1ad	0.31580868
121	0xbfaae813	-1.3352073
122	0xbf8835f2	-1.0641463
123	0x3e1f5645	0.15560253
124	0x3e6fdbab	0.2342364
125	0x3de65505	0.11246685
126	0xbfe84739	-1.8146735
127	0x3e205855	0.15658696
128	0x3e98027d	0.29689398
129	0x3f5920a6	0.8481544
130	0x3fbade4d	1.4599091
131	0xbec27998	-0.37983394
132	0xbee35401	-0.44400027
133	0xbe0ac3e5	-0.1355129
134	0xbf272e83	-0.65305346
135	0xbfb1d810	-1.3894062
136	0xbf2e3686	-0.68051946
137	0x3eae8679	0.3408697
138	0xbee3ccd0	-0.44492197
139	0xbfd67b95	-1.6756464
140	0x3e19950d	0.14998265
141	0xbcdf9b6a	-0.027295787
142	0x3f9c630a	1.2217724
143	0xbf41a964	-0.75649095
144	0xbe9de575	-0.30839124
145	0xbe9731bc	-0.29530132
146	0xbf4cb458	-0.7996268
147	0xbe209820	-0.15683031
148	0x3d5f09c1	0.05445266
149	0xbf58b492	-0.8465053
150	0xbd120a5e	-0.03565442
151	0x3cc85bf1	0.024457904
152	0xbf77307f	-0.96558374
153	0xbfc482ee	-1.5352457
154	0x3ed77935	0.4208466
155	0x3e13c91b	0.14432184
156	0x3db72ab8	0.08943695
157	0x3e97be58	0.29637408
158	0xbf647ea7	-0.89255756
159	0x3e67b732	0.22628477
160	0xbf04c17d	-0.5185774
161	0xbf89c994	-1.0764642
162	0x3fdb80a2	1.7148631
163	0xbd5a495d	-0.05329262
164	0x3b468651	0.003029246
165	0x3db54e7f	0.088528626
166	0xbf2597d6	-0.6468481
167	0xbf10d04d	-0.5656784
168	0x3efea5ce	0.49735874
169	0x3ea44a81	0.32088092
170	0xbe0ea639	-0.13930596
171	0x3e9124e3	0.28348455
172	0xbecc9068	-0.39953923
173	0x3f0f9d1d	0.5609911
174	0x3e1039b8	0.14084518
175	0xbee85ff3	-0.45385703
176	0x3e0b990b	0.136326
177	0xbe5d5d36	-0.21617588
178	0xbf4633a7	-0.77422565
179	0xbeeb58c6	-0.45966166
180	0xbf58e891	-0.8472987
181	0x3e2c62bf	0.16834544
182	0xbf013c5e	-0.5048274
183	0xbd57c813	-0.05268104
184	0xbf526663	-0.8218748
185	0xbd4819a9	-0.048852596
186	0x3f86df30	1.0536861
187	0xbf0ccf07	-0.550034
188	0x3ea32898	0.31866908
189	0x3f176c6f	0.5914983
190	0xbf35f6eb	-0.7107989
191	0x3ddec7b6	0.108779356
192	0x3e8bd1c7	0.27308485
193	0xbea46215	-0.3210608
194	0x3ecd39f8	0.4008329
195	0x3fd20d7a	1.6410363
196	0xbf0c5c75	-0.5482858
197	0xbdfd3e56	-0.12365405
198	0x3e1f0a43	0.15531258
199	0xbddf1916	-0.10893457
200	0xbf17d786	-0.5931324
201	0x3ed3af11	0.41344503
202	0x3d1b11aa	0.037858643
203	0x3c4ddf90	0.0125655085
204	0xbe2b36e6	-0.16720161
205	0xbdb850cf	-0.08999788
206	0xbd29dfef	-0.041473325
207	0x3d9fa39d	0.07794879
208	0xbe9aff56	-0.3027293
209	0x3efdb41b	0.49551472
210	0x3d7786dc	0.060431346
211	0xbe246b0f	-0.16056465
212	0xbd010a04	-0.031503692
213	0xbdf97a14	-0.12181488
214	0xbd8a8d2d	-0.067652084
215	0x3e0568c4	0.13028246
216	0x3e7a0523	0.24416022
217	0x3e6f8b1a	0.23392907
218	0xbe8dd055	-0.27698007
219	0xbc9de0d6	-0.01927225
220	0xbe4d4e41	-0.20049383
221	0xbd0006d7	-0.031256523
222	0x3c7034a3	0.014660987
223	0xbe8c5e05	-0.2741548
224	0x3e83a3a4	0.25710785
225	0xbe6a0da2	-0.22856763
226	0xbf12aa86	-0.5729145
227	0xbcb19c68	-0.021681026
228	0x3d8dad2c	0.069177955
229	0xbe94224e	-0.28932422
230	0xbe73bee4	-0.23803288
231	0x3d0bed84	0.03416206
232	0x3d83ec4c	0.064415544
233	0xbd5993aa	-0.05311934
234	0xbde657a2	-0.112471834
235	0xbed7a6b1	-0.42119363
236	0xbe04329c	-0.12909931
237	0xbe02fa1d	-0.12790723
238	0xbe3245f0	-0.17409492
239	0xbe8616fd	-0.26189414
240	0x3ec4cdb0	0.38438177
241	0xbea9d756	-0.331721
242	0x3d610202	0.054933555
243	0xbf0d1ca5	-0.55121833
244	0x3e6fbd1a	0.2341198
245	0xbd770463	-0.060306918
246	0xbb373c40	-0.0027959496
247	0x3ea1d61e	0.3160867
248	0x3f0d447c	0.55182624
249	0xbdc86c41	-0.09786273
250	0x3bd22c59	0.006413978
251	0xbdb44cb0	-0.088036895
252	0xbe1b3b7e	-0.15159413
253	0x3d68688a	0.05674032
254	0xbec0e420	-0.37674046
255	0xbf402329	-0.7505365

bias f4 [200]
0	0x3e0dc106	0.13843164
1	0xbec153d9	-0.37759283
2	0xbd4aa2a9	-0.04947153
3	0xbe1747f3	-0.1477354
4	0xbe6c6fcb	-0.2308952
5	0x3e16bec6	0.14721212
6	0xbd95c37e	-0.07312678
7	0xbe2561ef	-0.1615064
8	0x3ecb90bd	0.39758864
9	0xbebeedc8	-0.37290788
10	0xbe0a94fd	-0.13533397
11	0xbee7fe3a	-0.45311147
12	0xbda65357	-0.081213646
13	0xbd9089fe	-0.0705757
14	0xbc76805c	-0.015045252
15	0x3db55bce	0.08855401
16	0xbda326d7	-0.079663925
17	0xbd1192d6	-0.035540424
18	0xbe34e1e8	-0.17664301
19	0xbb4a39f9	-0.0030857308
20	0x3e27f924	0.16403633
21	0xbed5e6e4	-0.41777718
22	0x3f081359	0.5315452
23	0xbd1784ab	-0.036991756
24	0x3aceec50	0.0015786979
25	0xbd5a68f2	-0.05332274
26	0xbef22db8	-0.47300506
27	0xbed45f26	-0.41478842
28	0xbef8b831	-0.48578027
29	0xbb62512b	-0.0034533243
30	0xbe80b1f2	-0.25135761
31	0x3dc761b2	0.09735431
32	0x3d3ef96c	0.046624586
33	0xbd8974b5	-0.06711713
34	0xbe044e3b	-0.12920468
35	0xbdbd96d0	-0.09257281
36	0x3d7c5fc6	0.061614774
37	0x3c12b79d	0.00895491
38	0xbe18cb23	-0.1492124
39	0x3e0c91cb	0.1372749
40	0xbd3701c0	-0.044679403
41	0xbeb64735	-0.35601202
42	0xbc87aae5	-0.016560981
43	0x3e3090d5	0.17242749
44	0x3f168bf9	0.5880733
45	0xbe929636	-0.28630227
46	0xbe09018c	-0.13379496
47	0xbdd67c42	-0.10472919
48	0x3efa6664	0.48906243
49	0x3f069e4e	0.52585304
50	0xbe8f0e55	-0.27940622
51	0xbd8e9855	-0.06962649
52	0xbe13d456	-0.14436468
53	0xbd7efb74	-0.062251523
54	0xbe0b2715	-0.13589127
55	0xbeef894d	-0.4678444
56	0xbc662d73	-0.014048922
57	0xbdd7e77a	-0.105421975
58	0xbdc67779	-0.09690756
59	0xbea3dd03	-0.32004556
60	0xbe21ce4f	-0.15801357
61	0xbc97ceee	-0.018531289
62	0xbdce3329	-0.10068352
63	0xbdf35bac	-0.118827194
64	0xbdbe3248	-0.09286934
65	0xbc933406	-0.017969143
66	0xbdddc772	-0.10829057
67	0xbe7bf055	-0.24603398
68	0xbd80574f	-0.06266653
69	0xbe8f4c05	-0.27987686
70	0x3da00271	0.07812966
71	0xbd434d51	-0.047681157
72	0xbdf79d84	-0.120905906
73	0xbf41ffe4	-0.75781083
74	0xbdce21f9	-0.100650735
75	0xbf1afe82	-0.605446
76	0xbc82e9b5	-0.01598058
77	0xbd9d11ce	-0.076694116
78	0x3f28bc46	0.6591228
79	0xbf031cb5	-0.5121568
80	0xbd6b6dfb	-0.057477932
81	0xbf0d9773	-0.5530922
82	0xbd5948aa	-0.053047813
83	0x3dc0e48c	0.09418592
84	0xbe4dba11	-0.2009051
85	0xbef1e76a	-0.47246867
86	0xbedb29a1	-0.42805198
87	0x3e11b207	0.14228068
88	0xbd7fd24c	-0.062456414
89	0x3e0131e0	0.12616682
90	0xbf3a20c3	-0.7270624
91	0xbdaa984f	-0.08329832
92	0x3e2ec876	0.17068657
93	0x3e7fa21e	0.24964187
94	0xbd9b0c9e	-0.07570766
95	0xbeb6d2c8	-0.35707688
96	0xbd1eecce	-0.038800053
97	0xbdfea0d4	-0.12433019
98	0xbd8552e5	-0.065099515
99	0xbd57e532	-0.052708812
100	0xbd1e59ee	-0.038659982
101	0xbecb8921	-0.3975306
102	0xbda36042	-0.07977344
103	0xbd9881d6	-0.07446639
104	0xbda3693f	-0.079790585
105	0x3ea6c168	0.32569432
106	0xbd539c52	-0.05166275
107	0xbdf02504	-0.1172581
108	0x3e8435ec	0.2582239
109	0xbddeb812	-0.108749524
110	0xbdb1faf0	-0.08690441
111	0xbd003cbf	-0.031307932
112	0xbd78312c	-0.06059377
113	0xbede8fc2	-0.43469054
114	0x3e86da10	0.26338243
115	0xbebd9ea0	-0.37035084
116	0xbdb870d8	-0.09005898
117	0xbd9e99fe	-0.077442154
118	0xbc17856a	-0.009248117
119	0xbd34ca78	-0.0441384
120	0xbe29e0b7	-0.16589628
121	0xbdf588b4	-0.11988965
122	0xbd5ca7f2	-0.053871103
123	0xbf4b36e8	-0.79380655
124	0xbd3984a0	-0.045292497
125	0xbedfb401	-0.4369202
126	0xbf17839e	-0.59185207
127	0xbd5e8ac2	-0.05433155
128	0x3e215eb3	0.15758781
129	0x3eabfe22	0.33592325
130	0xbe0806d9	-0.13283862
131	0xbd9f54b6	-0.07779829
132	0xbdeb6fad	-0.1149591
133	0xbdb2aba2	-0.087241426
134	0xbe0da6ed	-0.13833208
135	0x3eaf57d6	0.342467
136	0xbde690ab	-0.11258062
137	0x3e35d507	0.17757045
138	0xbe889276	-0.2667424
139	0xbdd5b762	-0.10435368
140	0xbd852fbd	-0.06503246
141	0xbd904b7e	-0.07045649
142	0xbd1dae0e	-0.03849607
143	0x3e93af63	0.28844747
144	0xbdfe40bb	-0.1241469
145	0x3f0dce84	0.5539324
146	0xbe35f1c8	-0.17768013
147	0xbf217ef4	-0.6308434
148	0xbe6d5e13	-0.23180418
149	0xbd412819	-0.04715738
150	0xbd63836b	-0.05554525
151	0xbdec9de3	-0.11553552
152	0x3d08d6ac	0.033407852
153	0xbd706e74	-0.058699086
154	0x3ee44339	0.44582537
155	0xbc558f8a	-0.013034711
156	0xbe2ffbfe	-0.17185971
157	0xbdf2e80c	-0.11860666
158	0xbe17a32e	-0.14808342
159	0xbd83a085	-0.06427101
160	0xbdc1a5e1	-0.09455467
161	0xbe0ffd5d	-0.14061494
162	0x3ee1cbb7	0.44100735
163	0xbc97f5fe	-0.018549915
164	0xbddd1069	-0.107941456
165	0x3e662e2d	0.22478552
166	0xbe66f4ab	-0.22554271
167	0xbd37df88	-0.04489091
168	0xbe8c78de	-0.27435964
169	0xbe7d34b6	-0.24727139
170	0xbdb91740	-0.09037638
171	0xbda78a47	-0.08180671
172	0xbda20fef	-0.07913195
173	0x3f221a50	0.633214
174	0x3dd8cade	0.10585569
175	0xbdcbd8d1	-0.09953464
176	0xbd978006	-0.073974654
177	0xbea1b617	-0.31584236
178	0xbecf5d88	-0.40501046
179	0xbf13aa18	-0.5768142
180	0xbd1b4a56	-0.03791269
181	0xbe2d49b6	-0.1692265
182	0xbcc4ae71	-0.024008961
183	0xbc459fd9	-0.012062036
184	0x3e07fc52	0.13279846
185	0xbea5a1ff	-0.32350156
186	0x3d65a21b	0.0560628
187	0xbe81adb5	-0.2532784
188	0xbd979136	-0.07400744
189	0xbe618f89	-0.2202741
190	0xbda7b927	-0.08189612
191	0xbe52a52a	-0.20570818
192	0xbd443d29	-0.04790989
193	0xbcd2a51a	-0.025713492
194	0xbd8ad5d5	-0.067790665
195	0x3e4c3a35	0.19944079
196	0x3f1a1e26	0.6020225
197	0x3e7aa8ac	0.24478406
198	0xbecd964f	-0.4015374
199	0x3ec35b96	0.38155812

weight f4 [1, 200]
0	0x400dad64	2.213708
1	0x3f3d025f	0.73831743
2	0xbb88a73c	-0.0041703265
3	0x3f21314b	0.6296584
4	0x3fbcf6a7	1.4762772
5	0xc028fab4	-2.6403017
6	0xbc21cf17	-0.009876034
7	0xbc37058f	-0.011170759
8	0x3ddd2a01	0.10799027
9	0x3d420f58	0.047377914
10	0x3d5486b2	0.051886268
11	0x3e5fab75	0.2184275
12	0xbccb46b9	-0.024813997
13	0x3d5cd861	0.053917293
14	0xbd2fc86e	-0.042915754
15	0xc075d7f7	-3.8413064
16	0x3cb26dc7	0.021780862
17	0xbcfc7ad3	-0.030820286
18	0x3caf8ab7	0.02142845
19	0xbc959dfd	-0.018263811
20	0x40b8d1b7	5.7756
21	0x3e95669b	0.29179844
22	0xbe8a9baa	-0.27071887
23	0x404e57b6	3.2241035
24	0xbcc039d0	-0.023465067
25	0xbcbc8627	-0.023013188
26	0x3e2d983f	0.16952609
27	0xbda43d02	-0.08019449
28	0x40aa139e	5.3148947
29	0xbbcf8701	-0.0063332324
30	0x3df855e0	0.12125754
31	0xbf24d0e5	-0.6438125
32	0xc028f764	-2.6400995
33	0xbc41c390	-0.011826411
34	0xbe63bc44	-0.22239786
35	0x3c89e5fd	0.0168333
36	0xbefe8989	-0.49714306
37	0x3f0824c0	0.53181076
38	0xbded8689	-0.11597926
39	0x3f89f56f	1.0778025
40	0x3e897e9d	0.2685441
41	0xbf4d39cd	-0.8016632
42	0x3c854b14	0.016271152
43	0x400e51b9	2.223738
44	0xbe343ee4	-0.17602116
45	0x4042eba8	3.0456333
46	0x3e768e89	0.2407781
47	0xbc70bd5c	-0.014693584
48	0x3f14c598	0.58114004
49	0x3e18ad7c	0.14909929
50	0x3fb97ad5	1.449061
51	0x3c13a09d	0.009010461
52	0xbe59b989	-0.21262182
53	0x3c10ba6d	0.00883351
54	0xbbdd89ba	-0.006760803
55	0xbffb5459	-1.9635116
56	0xbc4a81d9	-0.01236006
57	0x3f695554	0.91145825
58	0x3c45fe61	0.012084574
59	0x3e1f6266	0.1556488
60	0x404238c0	3.0347137
61	0xbc88da05	-0.016705522
62	0x3c9f4ce5	0.019445846
63	0xbbd9bc49	-0.00664476
64	0xbccf52a9	-0.02530797
65	0xbcd20869	-0.025638776
66	0x3cbd2e20	0.023093283
67	0x3e1695e2	0.14705613
68	0xbc59ad71	-0.013285981
69	0x400ece3c	2.2313375
70	0x3d9dee49	0.07711465
71	0xbbd5ee12	-0.0065286243
72	0xbc8dcc6d	-0.017309392
73	0x3ea652b1	0.32484964
74	0x3c031254	0.007999975
75	0xbe123153	-0.14276628
76	0x3c3182a0	0.010834366
77	0x3bd8a3d1	0.0066113253
78	0x408239e6	4.0695677
79	0xbe57eddb	-0.21086828
80	0xbcf3d0db	-0.029762676
81	0x3e6ddf38	0.23229682
82	0xbb78632c	-0.0037900908
83	0x40a33677	5.1003985
84	0x3f1aeb05	0.6051486
85	0x3da8e6b6	0.082471296
86	0xbee5f5c7	-0.44914076
87	0xbd7f04b4	-0.062260345
88	0x3b237366	0.002494061
89	0xc0121445	-2.2824872
90	0xbf36c1c5	-0.7138942
91	0x3c6ff3cb	0.014645527
92	0xbf1871de	-0.5954875
93	0xbece59fa	-0.40303022
94	0x3c234937	0.009966186
95	0x3ea557c6	0.32293528
96	0x3cb82ce0	0.022482336
97	0x3bec5153	0.007211843
98	0x3cae4746	0.02127422
99	0xbd26bcce	-0.040707402
100	0x3c8711c5	0.016487965
101	0x3f170c08	0.59002733
102	0x3ec3a9c0	0.38215446
103	0x3bd87d8a	0.0066067623
104	0xbc6a726b	-0.014309506
105	0x3ded9739	0.11601109
106	0x3c8a0155	0.016846338
107	0x3c5e2532	0.013558673
108	0xbf2e73e8	-0.6814561
109	0x3ca91e2f	0.020644275
110	0xbd1d95d4	-0.038472965
111	0xbabe5a20	-0.0014522709
112	0xbce6dd3a	-0.02818166
113	0x3ecea70a	0.40361816
114	0x404e3086	3.2217116
115	0x3f06db14	0.52678037
116	0x3c9d487e	0.019199606
117	0xbc4cc4c1	-0.012498082
118	0x3f6cd79d	0.925165
119	0x3c800e43	0.0156318
120	0x3d9df2cd	0.07712326
121	0x3c2ee5de	0.010674922
122	0xbc84c7d5	-0.016208569
123	0xbfcfebf9	-1.6243888
124	0x3bd30eea	0.006440987
125	0x3f530e9e	0.8244418
126	0xbfa67d80	-1.300705
127	0xbc82114d	-0.01587739
128	0xc0447b44	-3.0700235
129	0x3f2fd175	0.6867898
130	0x3f8fc518	1.1232023
131	0x3cc56541	0.024096133
132	0xbe9bbf9a	-0.30419618
133	0x3fbc7012	1.4721701
134	0x3f83d02c	1.0297904
135	0xc012ce79	-2.293852
136	0x3bb5c2e8	0.0055469163
137	0x4066bf97	3.6054437
138	0xbe6978e2	-0.2280002
139	0xbc4ba2e8	-0.012428977
140	0xbcd7b71a	-0.026332427
141	0xbcc47ec8	-0.023986235
142	0xbcb5f357	-0.02221076
143	0x3e8e1931	0.27753595
144	0xbf40e8d1	-0.7535525
145	0xbf266760	-0.6500149
146	0xbe1fb595	-0.15596612
147	0x3e74f275	0.23920615
148	0x3fb0569f	1.3776435
149	0x3cc79889	0.024364727
150	0xbc914646	-0.017733704
151	0x3bf15f13	0.00736607
152	0xbe2995e3	-0.16561083
153	0xbcd6fb99	-0.026243018
154	0x404363dc	3.05297
155	0xbcaa0187	-0.020752681
156	0x3efb0ba4	0.4903232
157	0x3a8c1df5	0.001069008
158	0xbaead4da	-0.0017916218
159	0xbc4e6141	-0.012596429
160	0xbbb51a28	-0.0055267997
161	0x3f20d5de	0.62826335
162	0x4008d0a4	2.1377344
163	0xbb7ae494	-0.0038283216
164	0x3de877ff	0.113510124
165	0xbe211b85	-0.15733154
166	0x3f88258d	1.063646
167	0xbbeb31d3	-0.0071775704
168	0xbfbe0f2d	-1.4848381
169	0x3f07e987	0.5309071
170	0xbc5b5671	-0.013387308
171	0xbd083464	-0.03325309
172	0xbaf1454c	-0.0018407493
173	0x3de72b7e	0.11287592
174	0x3e3a3463	0.18184046
175	0x3c817f35	0.015807727
176	0xbd07d8fc	-0.033165917
177	0x3f31c2af	0.6943769
178	0x4004770a	2.0697656
179	0xbe43918f	-0.19098495
180	0x3e4ef8d0	0.20212102
181	0xbf2ad250	-0.6672716
182	0xbcdc7399	-0.02691059
183	0xbc16c86d	-0.009203059
184	0x3fc7713d	1.5581433
185	0x401d8ae5	2.4616024
186	0x3fb57f8e	1.4179552
187	0x3dff9b33	0.12480774
188	0x3c3545e7	0.011064029
189	0x3e4c939b	0.19978182
190	0xbd196915	-0.03745373
191	0x3e07b233	0.13251571
192	0x3c71c4a4	0.014756355
193	0xbeb60752	-0.3555246
194	0xbad3dad2	-0.0016163236
195	0x3e3354fb	0.17512886
196	0x4092f2d4	4.592142
197	0xbee862ba	-0.45387822
198	0x3e28aee2	0.16472962
199	0x3e1c5a89	0.15268911
