Vehicles/ModRepeat_forest_1/ModRepeat_forest_1_critic_target.pth (torch, 353496 bytes, 10 tensors)

weight f4 [200, 15]
0	0xbf41e066	-0.7573303
1	0x3eb62d43	0.35581407
2	0xbf29aeda	-0.6628243
3	0x3f5c66c2	0.86094296
4	0x3efac73c	0.4898013
5	0x3f15aefe	0.5847014
6	0xbf2595cc	-0.64681697
7	0xbe9c773d	-0.30559722
8	0xbec573de	-0.38564962
9	0x3e63f6c1	0.22262098
10	0xbdd1b793	-0.10240092
11	0xbe9b5ced	-0.30344334
12	0x3eb5ebad	0.3553137
13	0x3e17db0f	0.14829658
14	0x3e7bd964	0.24594647
15	0x3f987533	1.1910766
16	0x3f421101	0.75807196
17	0x3ee9ac6b	0.45639357
18	0xbe705b7b	-0.23472397
19	0xbe3615ff	-0.17781828
20	0x3cb77244	0.022393353
21	0x3e9a718f	0.30164763
22	0xbd77e5d6	-0.060521923
23	0xbfe3edaf	-1.780691
24	0xbe9d9f08	-0.30785394
25	0x3dfa0ae7	0.12209111
26	0xbf1df1bf	-0.61697
27	0x3ec1b45f	0.37832925
28	0xbf0d3388	-0.55156755
29	0xbd1729b6	-0.036905013
30	0xbbf5689c	-0.007489277
31	0x3c8e8834	0.017398931
32	0xbb201c90	-0.0024431087
33	0x3e097650	0.13424039
34	0x3f8e462d	1.1115166
35	0x3f2bb5ca	0.67074263
36	0x3ef34e43	0.47520646
37	0x3e32272c	0.17397755
38	0xbfbee2e9	-1.4912997
39	0x3ab9f6ef	0.0014187972
40	0xbf860ecf	-1.0473269
41	0xbcc32db0	-0.023825496
42	0xbc94cfcc	-0.018165492
43	0xbc2df6bb	-0.010617907
44	0x3c46864c	0.01211698
45	0x3f0dea27	0.55435413
46	0xbef22c4f	-0.4729943
47	0x3eb0e3fb	0.34548935
48	0x3f162a67	0.5865845
49	0xbfff1dfe	-1.9931028
50	0xc01629d2	-2.3463025
51	0xbffd3270	-1.9781017
52	0xbffeb656	-1.9899395
53	0x3e97c3e3	0.29641637
54	0xbebc0150	-0.3671975
55	0x3f0da2eb	0.5532672
56	0xbf03a1d6	-0.5141882
57	0x3df0a0b0	0.11749399
58	0x3e8e984d	0.2785057
59	0xbed2ff8b	-0.4121059
60	0xbec15179	-0.3775747
61	0x3f8f2ab1	1.1184903
62	0xbf598c2e	-0.8497952
63	0xbe97f16f	-0.29676387
64	0xbd9aa445	-0.07550863
65	0xbda6b6a2	-0.08140303
66	0xbe29df0e	-0.16588995
67	0xbfa1ff39	-1.2656013
68	0x3f259e70	0.6469488
69	0xc021c414	-2.5275927
70	0xbfdaf4d4	-1.7105966
71	0xbf83ee30	-1.0307064
72	0xbf38d683	-0.7220232
73	0xbf50d506	-0.8157505
74	0x3ee99a9b	0.45625767
75	0xbfd70265	-1.6797606
76	0x3da7a349	0.08185441
77	0xbe8da3d4	-0.27664053
78	0xbe8acb6b	-0.2710832
79	0x3f792c6e	0.9733342
80	0x3ebe0d4b	0.37119517
81	0x3efe6816	0.49688786
82	0x3e37c3c4	0.17945772
83	0xc06178a7	-3.522989
84	0xbe7ecea3	-0.24883513
85	0x3ee4da8f	0.44697997
86	0x3f3e5a21	0.74356276
87	0x3f46d761	0.7767239
88	0x3f01b85a	0.50671923
89	0xbe81304e	-0.25232166
90	0xbd05ae8b	-0.03263716
91	0x3e964ebe	0.2935695
92	0xbf80298f	-1.0012683
93	0xbb0a41a9	-0.0021096265
94	0xbf125f33	-0.5717651
95	0xbe7313cf	-0.23738025
96	0x3e23cc4d	0.15995903
97	0x3c86343f	0.016382335
98	0x3eab86f0	0.33501387
99	0x3f8abe73	1.083937
100	0x3f11d6c1	0.56968313
101	0xbf49a357	-0.7876486
102	0xbf6aab6c	-0.9166782
103	0xbfb0100b	-1.3754896
104	0x3e88e353	0.26735935
105	0xbeb304d9	-0.34964636
106	0x3fc316a3	1.5241283
107	0xbe7e820f	-0.24854301
108	0x3d69b6f5	0.057059247
109	0x3e2d9f89	0.16955389
110	0x3e70e03f	0.23523043
111	0xbd858566	-0.06519584
112	0xbe3d07de	-0.18460032
113	0xbfcfd677	-1.6237324
114	0xbf6fb83e	-0.93640506
115	0x3eae0dc2	0.3399487
116	0xbeb30ea0	-0.34972095
117	0x3d48256c	0.048863813
118	0x3f633528	0.88752985
119	0xbf269914	-0.6507733
120	0xbe2b6a4d	-0.1673977
121	0x3d8b8463	0.0681236
122	0xbef1bd54	-0.47214758
123	0xbe9215f8	-0.28532386
124	0xbde097bb	-0.1096644
125	0x3e8d1357	0.27553818
126	0x3ebb7982	0.3661614
127	0x3e52f50f	0.20601295
128	0xc09167a1	-4.5439
129	0xbe99a7a5	-0.30010715
130	0x3ea97485	0.3309671
131	0x3e2cefd5	0.16888364
132	0x3e0ec9fa	0.13944235
133	0x3e254250	0.16138577
134	0x3f3a5041	0.7277871
135	0xbe859f75	-0.2609822
136	0xbd75dabb	-0.06002305
137	0x3e0bb225	0.13642175
138	0x3d81bf45	0.0633531
139	0x3e5f9399	0.21833648
140	0xbe852e2d	-0.26011792
141	0xbe69114b	-0.22760503
142	0x3e4abec8	0.1979934
143	0x3bf64f23	0.007516758
144	0xbe9ef62e	-0.31047195
145	0xbe9d9da6	-0.3078434
146	0xbe673ee3	-0.22582583
147	0xbe82cd95	-0.25547472
148	0xbe1565be	-0.14589593
149	0xbd1443e5	-0.03619756
150	0xbe66060f	-0.22463249
151	0x3e9d5538	0.3072908
152	0xbf2eceb8	-0.6828418
153	0xbf8bd3c1	-1.0923997
154	0xbdfd096c	-0.12355313
155	0x3e4c8d79	0.19975843
156	0xbeb1dc47	-0.3473837
157	0x3ec9ee1f	0.39439484
158	0x3f4579be	0.7713889
159	0x3e2f3901	0.17111589
160	0xbee7fe71	-0.4531131
161	0xbec6bd74	-0.38816416
162	0x3e039f78	0.12853801
163	0xbdddcda9	-0.10830242
164	0x3e4e94d4	0.20173961
165	0x3e186610	0.14882684
166	0xbea7f23e	-0.32802004
167	0xbf50931c	-0.8147447
168	0x3ed9f2de	0.42568105
169	0x3f59f41f	0.85138124
170	0x3edd618c	0.43238485
171	0x3e707789	0.23483099
172	0x3ea91e4a	0.3303092
173	0xbe769bf6	-0.24082932
174	0x3eb97d12	0.36228234
175	0xbfca8da8	-1.582448
176	0xbe134a3d	-0.14383788
177	0x3e275045	0.16339214
178	0xbd4df04e	-0.050278
179	0xbe007b42	-0.12547019
180	0xbe200bfe	-0.15629575
181	0x3e8cb985	0.2748529
182	0x3ed5b9e5	0.4174339
183	0xbf64c798	-0.89367056
184	0x3d1d2349	0.03836373
185	0x3e9be4dc	0.30448043
186	0xbf014136	-0.5049013
187	0x3f1918d4	0.5980351
188	0xbf6606f8	-0.89854383
189	0x3c1e8db8	0.009677343
190	0xbdd4449b	-0.10364648
191	0x3f1d8e6e	0.61545455
192	0xbdc68e10	-0.09695065
193	0xbdc218c0	-0.09477377
194	0xbf1f9056	-0.62329614
195	0x3ee85384	0.45376217
196	0xbf983485	-1.1891028
197	0xbf3f5988	-0.7474599
198	0xbef08bec	-0.46981752
199	0x3ddd0f19	0.10793895
200	0xbeb407b6	-0.35162133
201	0xbe81216a	-0.25220805
202	0x3e971883	0.29510888
203	0x3eab5834	0.3346573
204	0x3ebd1a7f	0.36934277
205	0xbf1a5f96	-0.603021
206	0xbedefb9b	-0.43551335
207	0xbdd53c5b	-0.104119025
208	0xbeb9681c	-0.36212242
209	0xbf07bf0a	-0.5302588
210	0x3f26f5fd	0.652191
211	0xbf1ee7d4	-0.6207249
212	0x3c73d3e2	0.01488206
213	0x3f4431d1	0.76638514
214	0x3dacd1ee	0.084384784
215	0x3e20b5a5	0.15694292
216	0xbe097d78	-0.13426769
217	0x3f479c53	0.77972907
218	0x3c82db80	0.015973806
219	0xbe87eade	-0.26546377
220	0xbf2318d2	-0.6370975
221	0x3ed5ed57	0.41782638
222	0xbf1421b8	-0.5786395
223	0xbf93c1e4	-1.1543546
224	0x3f2eac8b	0.6823203
225	0x3e8452cf	0.25844428
226	0xbf14b5bd	-0.5808981
227	0xbe28b7ee	-0.16476414
228	0xbf4680b4	-0.77540135
229	0x3fb7449c	1.4317813
230	0xbdf1b46a	-0.118019894
231	0xbf1ec757	-0.6202292
232	0xbfc0a04a	-1.5048916
233	0xbe638239	-0.22217645
234	0xbd8498f0	-0.06474483
235	0x3e826f7f	0.2547569
236	0xbdeaf972	-0.11473359
237	0xbdf2684e	-0.11836301
238	0xbe5a87cf	-0.2134087
239	0xbf01c4b5	-0.50690776
240	0xbe76e074	-0.2410906
241	0xbda6a0ae	-0.08136116
242	0x3e1eb0a5	0.15497072
243	0xbd453409	-0.048145328
244	0xbd0cb8a5	-0.03435578
245	0xbe830e6d	-0.25596943
246	0xbe9ccab6	-0.30623406
247	0xbda16d6f	-0.07882201
248	0xbe86b65e	-0.2631101
249	0xbe9afb6e	-0.3026995
250	0xbcc03b61	-0.023465814
251	0xbe6b2a03	-0.22965245
252	0xbd6a5afb	-0.057215672
253	0x3da49e9e	0.08038066
254	0x3deb40aa	0.11486943
255	0x3f081c78	0.5316844

bias f4 [200]
0	0x3f0f7123	0.5603201
1	0x3e074cfd	0.13212962
2	0x3f5c2935	0.86000377
3	0xbebc8821	-0.36822608
4	0x3e92b0ea	0.286506
5	0x3e1cc32d	0.15308829
6	0xbf359fb5	-0.7094682
7	0x3d6baeff	0.057539936
8	0x3ecd55a0	0.4010439
9	0xbea7afc7	-0.32751295
10	0xbef766ab	-0.48320517
11	0xbe4e2558	-0.20131433
12	0x3e82b98a	0.2553218
13	0xbeebd789	-0.46062878
14	0xbde37fbe	-0.11108349
15	0x3ebedfb2	0.3728004
16	0xbeaae417	-0.33377144
17	0xbe9a002e	-0.30078262
18	0x3f3de4e3	0.7417738
19	0xbf05feab	-0.5234172
20	0xbd60a53a	-0.054845072
21	0xbc5a3742	-0.013318839
22	0x3ea7af61	0.3275099
23	0xbe1bdba6	-0.15220508
24	0xbf66f265	-0.90213615
25	0x3cca23f9	0.024675356
26	0xbec9b9be	-0.39399523
27	0x3f02d599	0.51107174
28	0x3d0e9a32	0.03481502
29	0x3ee76702	0.45195776
30	0xbf1f1678	-0.6214366
31	0xbf24c7da	-0.6436745
32	0xbe89cc03	-0.2691346
33	0x3ed507c0	0.41607475
34	0x3dfdbdac	0.12389693
35	0x3f073361	0.52812773
36	0x3ee0be2d	0.43895093
37	0x3daef518	0.08542842
38	0x3de08665	0.10963134
39	0x3e89590a	0.26825744
40	0xbe83304f	-0.25622794
41	0xbb818c21	-0.0039534722
42	0x3cabb544	0.020960458
43	0x3cb653fe	0.022256847
44	0x3f226b93	0.63445395
45	0xbd7f2cb2	-0.062298484
46	0xbf4109bc	-0.7540548
47	0xbe88c851	-0.2671533
48	0xbf2443f6	-0.641662
49	0x3d909fb7	0.07061713
50	0xbf5ce701	-0.86289984
51	0xbce000ae	-0.027344074
52	0xbf444e0e	-0.766816
53	0xbf18b6dd	-0.5965403
54	0xbeacc7c8	-0.3374617
55	0x3e5013ff	0.20320128
56	0x3c42cc3e	0.011889515
57	0x3efac291	0.48976567
58	0x3e7077c6	0.2348319
59	0xbe710021	-0.23535205
60	0x3f76a9af	0.96352667
61	0xbe8c7be1	-0.27438262
62	0xbe356779	-0.17715253
63	0x3ef4026f	0.47658107
64	0xbef5d724	-0.48015702
65	0xbed41da0	-0.41428852
66	0xbda219d6	-0.07915084
67	0xbf1b5ce4	-0.60688615
68	0xbda8e4bd	-0.08246753
69	0xbe84eb3e	-0.25960726
70	0xbf1dd75e	-0.6165675
71	0x3e5683f1	0.20948769
72	0xbdecf64f	-0.11570417
73	0xbeb073fa	-0.34463483
74	0xbeefbbff	-0.46823117
75	0xbf166501	-0.5874787
76	0xbd2c8ffb	-0.042129498
77	0x3e1f0335	0.15528567
78	0x3eb7635a	0.35817987
79	0xbf48da5e	-0.784582
80	0xbd7b2ff6	-0.061325036
81	0x3b977bef	0.0046229283
82	0x3eb79566	0.3585617
83	0xbebf6ac8	-0.37386155
84	0xbe96b55c	-0.2943524
85	0x3d032def	0.032026228
86	0x3f062cb3	0.52411956
87	0x3dc71023	0.09719875
88	0xbf180b4a	-0.59392226
89	0xbe37e0a1	-0.17956783
90	0xbf23c863	-0.6397764
91	0x3d0070d1	0.03135759
92	0xbe064c1d	-0.13114972
93	0x3f0dae79	0.5534435
94	0x3e88ccf4	0.26718867
95	0x3e6e3ae3	0.23264651
96	0xbe9de9fc	-0.30842578
97	0x3e7caa52	0.24674347
98	0xbdede9c3	-0.11616852
99	0xbe92dfa6	-0.28686255
100	0xbc51ccc6	-0.012805169
101	0xbeca99e4	-0.39570534
102	0xbf344c2e	-0.7042874
103	0xbed08ec1	-0.40733913
104	0xbf38e308	-0.7222142
105	0xbdc77fb3	-0.097411536
106	0xbed5d930	-0.41767263
107	0xbe66f559	-0.2255453
108	0x3e77ea3a	0.24210444
109	0x3ead0037	0.33789226
110	0xbe7dc4e9	-0.24782147
111	0x3eba8741	0.36431316
112	0x3e82906e	0.25500816
113	0xbf30ecb7	-0.691112
114	0x3e4dfcd4	0.20115978
115	0x3e8402c5	0.25783363
116	0xbe2153f7	-0.15754686
117	0x3f4e6ac7	0.8063168
118	0x3f086ba0	0.5328922
119	0xbf0a5b08	-0.5404515
120	0xbdf5d3a9	-0.120032616
121	0x3db7946b	0.08963855
122	0xbef4ff67	-0.47851107
123	0xbe0ef2a9	-0.13959755
124	0xbdec5b11	-0.11540807
125	0x3e0ef5b6	0.13960919
126	0x3d9bda00	0.076099396
127	0x3db2c7aa	0.08729489
128	0xbf8496ca	-1.0358517
129	0xbe6e73dd	-0.23286386
130	0x3eed744d	0.46377793
131	0xbebdf912	-0.37104088
132	0x3e5c534c	0.2151615
133	0x3ab41e04	0.0013741856
134	0xbeae5633	-0.3405014
135	0xbf4035c8	-0.75082064
136	0xbe83eefa	-0.25768262
137	0xbd3f5dc1	-0.04672027
138	0xbf74bfdf	-0.9560527
139	0xbc9f47b4	-0.01944337
140	0xbe291742	-0.16512778
141	0xbee80f16	-0.4532401
142	0xbe4bcafc	-0.19901651
143	0xbea98c34	-0.3311478
144	0xbdf799d2	-0.12089886
145	0xbf02f93c	-0.5116155
146	0xbf0f1101	-0.5588532
147	0xbe1ab15b	-0.15106718
148	0x3ebb65d9	0.3660114
149	0xbe643ad3	-0.22288065
150	0x3db338b9	0.08751053
151	0x3e0a9aa6	0.13535556
152	0xbe557bf2	-0.20848063
153	0xbe6da4ed	-0.23207445
154	0x3e1fffab	0.15624873
155	0xbf3a87e0	-0.7286358
156	0x3e469988	0.19394505
157	0xbe9e3c3e	-0.30905336
158	0xbe4b1364	-0.19831616
159	0xbf089b57	-0.5336203
160	0xbe5b55d2	-0.21419457
161	0x3eb99779	0.36248377
162	0x3f494ebd	0.7863577
163	0xbe7318e3	-0.23739962
164	0x3eccdc78	0.40011954
165	0x3e2d58e9	0.16928448
166	0x3ecf74aa	0.40518695
167	0xbe0e3253	-0.13886385
168	0x3d042755	0.032264072
169	0xbe9bebd8	-0.30453372
170	0xbf0493a2	-0.5178777
171	0x3e54a6d9	0.20766772
172	0x3e15679f	0.1459031
173	0xbddc4b0f	-0.10756504
174	0xbe9c5d32	-0.30539852
175	0xbeb61af4	-0.3556744
176	0xbebace01	-0.36485294
177	0x3ea95442	0.33072096
178	0xbe89c3a5	-0.26907077
179	0xbdfb345e	-0.122658476
180	0xbc3326c1	-0.010934533
181	0xbe427c4a	-0.18992725
182	0xbf122b3b	-0.57097214
183	0x3d1d467d	0.0383973
184	0x3eddc09f	0.4331102
185	0xbe68043c	-0.22657865
186	0xbf71bbfa	-0.94427454
187	0xbf221905	-0.63319427
188	0x3eb458a8	0.3522389
189	0xbe40f172	-0.18842104
190	0xbe42b45d	-0.19014116
191	0xbf5fd458	-0.87433386
192	0xbab46f78	-0.001376613
193	0x3e3ef48b	0.18647973
194	0x3bb0f71b	0.005400551
195	0xbe42c5a8	-0.19020712
196	0xbeb30655	-0.34965768
197	0xbf824fd9	-1.0180618
198	0xbe95490c	-0.29157293
199	0x3ea51c37	0.3224809

weight f4 [200, 200]
0	0xbd402fa9	-0.046920452
1	0xbd043045	-0.032272596
2	0xbe034e7d	-0.1282291
3	0xbd9ff66e	-0.078106746
4	0xbd0166ee	-0.031592302
5	0xbccc9978	-0.024975523
6	0xbd2415e7	-0.04005995
7	0xbc798e53	-0.015231687
8	0x3d08190c	0.03322701
9	0xbcd37521	-0.025812687
10	0x3d487fc9	0.04894999
11	0xbcce22c1	-0.025163056
12	0xbe00267b	-0.12514679
13	0x3d4baab8	0.049723357
14	0xbe07335d	-0.13203187
15	0xbdb19d30	-0.08672559
16	0x3d66e0b5	0.05636664
17	0xbd0d74ed	-0.034535337
18	0x3cfa1eeb	0.030532321
19	0xbdb04e08	-0.08608633
20	0xbcb7a680	-0.02241826
21	0x3cab0bee	0.020879712
22	0xbd760cbc	-0.06007074
23	0xbbbebaed	-0.005820623
24	0xbcaced2f	-0.021109192
25	0xbddad3fa	-0.106849626
26	0xbdf559d4	-0.11980024
27	0x3d21d55f	0.039510127
28	0xbd860c0d	-0.06545267
29	0x3e94fd0d	0.29099312
30	0xbc8a887d	-0.016910786
31	0x3c0e707c	0.008693811
32	0xbd1fff06	-0.03906157
33	0xbdf7dccc	-0.121026605
34	0xbe1378c6	-0.1440154
35	0xbc9d180e	-0.01917651
36	0xbd115db6	-0.03548976
37	0xbe3d1070	-0.18463302
38	0xbd8102fd	-0.06299398
39	0x3c93d42d	0.01804551
40	0x3d0d7bf4	0.03454204
41	0xbd5c112a	-0.053727306
42	0xbd3e6830	-0.04648608
43	0xbcff794d	-0.03118577
44	0x3c69786a	0.0142499
45	0xbe22a5ef	-0.15883611
46	0xbd1f7afe	-0.038935654
47	0x3d96c936	0.07362597
48	0xbdeaf1c3	-0.11471894
49	0xbdf200cc	-0.11816558
50	0xba0bbabd	-0.00053302554
51	0xbe428871	-0.18997361
52	0xbdc4d329	-0.09610588
53	0x3c38f8c7	0.011289782
54	0x3cb9f06f	0.022697655
55	0xbda3fa8f	-0.08006775
56	0x3b80335e	0.0039123734
57	0xbde8c8a3	-0.113663934
58	0xbe11c72e	-0.14236137
59	0x3d100145	0.03515746
60	0xbd4eb4d9	-0.05046544
61	0xbd9e80fe	-0.07739447
62	0x3cde8c51	0.027166517
63	0xbd08a73d	-0.033362616
64	0xbd5b5f09	-0.05355743
65	0x3bc695f0	0.0060603544
66	0xbd83f8cd	-0.06443939
67	0xbdedc14b	-0.11609133
68	0xbd8ad5d5	-0.067790665
69	0xbc073bf5	-0.008254041
70	0xbd38d0f0	-0.045121133
71	0xbddf182a	-0.10893281
72	0xbdd0fbaa	-0.10204251
73	0x3c8499bc	0.016186588
74	0xbd94cef6	-0.07266037
75	0xbdeb9f33	-0.11504974
76	0xbd0bebf5	-0.034160573
77	0xbbc50dc1	-0.0060136025
78	0xbe099715	-0.1343654
79	0xbdc64af1	-0.09682263
80	0x3bba6347	0.0056881043
81	0x3dbaa678	0.09113783
82	0xbcb269e0	-0.021779
83	0xbd376cf5	-0.044781644
84	0xbdb88b68	-0.09010965
85	0xbda2b658	-0.079449356
86	0x3cee7c02	0.029111866
87	0xbe01dcf5	-0.12681945
88	0x3cd777d2	0.026302252
89	0xbd36a320	-0.044589162
90	0xbde1798b	-0.110095106
91	0x3d23ebb6	0.040019713
92	0xbdb5b988	-0.08873278
93	0x3d107356	0.035266243
94	0x3d25989f	0.040428754
95	0xbd1b88d6	-0.037972294
96	0xbdf8ed74	-0.121546656
97	0xbe0703b5	-0.13185008
98	0x3d74ea1c	0.059793577
99	0xbc81452f	-0.01578006
100	0x3c68174a	0.014165709
101	0x3c03ffd4	0.0080566
102	0xbdf59e94	-0.11993137
103	0x3d595dc1	0.053067926
104	0xbca9e30f	-0.020738153
105	0x3d94bcfe	0.0726261
106	0x3d424dd8	0.04743752
107	0x3d808a7b	0.06276413
108	0xbcdf3b52	-0.027249966
109	0xbdb477a8	-0.08811885
110	0xbe06d0ed	-0.13165636
111	0xbce04d8b	-0.027380725
112	0x3d6860bb	0.056732874
113	0xbe00b0f5	-0.12567504
114	0xbd2f439f	-0.042789098
115	0x3d0aa3d4	0.033847645
116	0xbd3e29b0	-0.046426475
117	0x3d2c8cde	0.04212653
118	0x3d2aa407	0.041660335
119	0xbd880265	-0.06641082
120	0xbd74221c	-0.05960284
121	0x3c6bc192	0.0143894125
122	0xbcd26f8a	-0.025687952
123	0xbc9c1ed6	-0.019057672
124	0x3ce67872	0.028133605
125	0x3c16902d	0.009189648
126	0xbdfdd03c	-0.12393233
127	0xbdb06a28	-0.08613998
128	0xbd523d8a	-0.05132822
129	0xbd127c6e	-0.035763197
130	0x3d05a67c	0.032629475
131	0xbe1086de	-0.14113948
132	0xbda881ef	-0.08227908
133	0xbb489f09	-0.003061237
134	0x3c0187cc	0.007905912
135	0xbd5822ea	-0.05276767
136	0xbc924046	-0.017852914
137	0x3d131ce1	0.035916213
138	0xbda08f8f	-0.07839882
139	0xbd0b9f65	-0.034087557
140	0x3c5e1271	0.013554201
141	0xbd655ffb	-0.055999737
142	0x3c21271f	0.009835987
143	0x3e014884	0.12625319
144	0xbd8409fd	-0.064472176
145	0xbcf44f6c	-0.029823028
146	0xbe1fdefe	-0.15612409
147	0xbdd33532	-0.103128806
148	0x3cde6d11	0.027151616
149	0xbcb2f428	-0.021844938
150	0xbd3b5af0	-0.04574102
151	0xbe186bf6	-0.14884934
152	0xbc24e03f	-0.01006323
153	0x3d771a43	0.06032778
154	0x3be59fc5	0.0070075714
155	0xbc5f0952	-0.013613062
156	0xbd84662d	-0.06464801
157	0x3b16d2b8	0.0023013782
158	0xbda21adf	-0.079152815
159	0xbe21c5b7	-0.15798078
160	0xbd0358ce	-0.032067113
161	0xbdb60d20	-0.08889222
162	0xbdf770fc	-0.12082097
163	0xbe09eb75	-0.13468726
164	0x3d7a2c33	0.061077308
165	0x3d8c0cc4	0.06838372
166	0xbe2c78c7	-0.16842948
167	0xbd80015f	-0.062502615
168	0x3cf9f0d3	0.030510342
169	0xbd6d2da3	-0.05790485
170	0xbd51c859	-0.051216457
171	0xbdf0d724	-0.11759785
172	0xbdba67f8	-0.09101862
173	0xbd3f98e0	-0.046776652
174	0xbe2e8117	-0.17041431
175	0xbdf8cb14	-0.12148109
176	0xbd7adcc4	-0.061245695
177	0x3d15d895	0.0365835
178	0xbe16f4f6	-0.14741883
179	0xbc40bc49	-0.011763641
180	0xbdce78b1	-0.10081614
181	0xbe6e1f0b	-0.2325403
182	0x3cecc8a0	0.02890426
183	0x3cdcfea9	0.0269769
184	0xbccf8e09	-0.025336282
185	0x3d1ee115	0.038788874
186	0xbd4f8189	-0.050660644
187	0xbe03da55	-0.12876256
188	0xbd282687	-0.041052368
189	0xbda7063f	-0.08155488
190	0xbd9a87ce	-0.07545434
191	0xbd62ed6c	-0.055402204
192	0xbd7f61cc	-0.062349126
193	0xbd890515	-0.066904224
194	0xbd5decf2	-0.054181047
195	0x3d3234bf	0.043507334
196	0xbe08226d	-0.13294382
197	0xbcf3ac24	-0.029745169
198	0xbe06dd6d	-0.13170405
199	0xbd33ef70	-0.043929517
200	0xbefca28c	-0.49342763
201	0x3e619e43	0.22033028
202	0xc046b530	-3.1048088
203	0xbf7cb72d	-0.98717004
204	0xbf07b4b7	-0.53010124
205	0xbd89e3d0	-0.06732905
206	0x3f362e49	0.71164376
207	0xbf5c3e7b	-0.8603284
208	0xbd2989ff	-0.04139137
209	0xbd8aa859	-0.06770391
210	0x3ddc10b7	0.107453756
211	0xbf895553	-1.0729164
212	0xc00ace04	-2.1688242
213	0x3e8b860b	0.27250704
214	0x3e4d875b	0.20071165
215	0x3f034000	0.5126953
216	0x3df6481c	0.120254725
217	0xbfc4691a	-1.5344574
218	0xbeea9e24	-0.45823777
219	0xbe43a661	-0.19106437
220	0x3ea8eda9	0.3299382
221	0xbf176f9e	-0.5915469
222	0xbd041e77	-0.032255616
223	0xbd3ca19d	-0.046052564
224	0xbe86a421	-0.26297095
225	0xbfc5d056	-1.5454204
226	0xbd079870	-0.03310436
227	0x3d79cfef	0.060989317
228	0xbda0bca8	-0.07848483
229	0x3da18a12	0.07887663
230	0x3f8cc80c	1.099855
231	0x3eb0ad11	0.3450704
232	0x3cddf832	0.027095888
233	0x3e834b4e	0.2564339
234	0x3dda2924	0.10652378
235	0xc0163655	-2.3470662
236	0x3d61a163	0.05508555
237	0xbfa7d227	-1.3111008
238	0xbf11d2c7	-0.56962246
239	0x3d9bddae	0.076106414
240	0xbea2cd36	-0.3179719
241	0xbf8633b1	-1.0484525
242	0x3ba6f05f	0.0050945724
243	0xbff7854c	-1.9337554
244	0xbf81cb09	-1.0140086
245	0x3e2c7a53	0.16843538
246	0xbf90b361	-1.1304742
247	0x3f46da16	0.7767652
248	0xbec42810	-0.38311815
249	0xbfe938b8	-1.8220434
250	0xbfa33a51	-1.2752172
251	0x3ec0c0f8	0.37647223
252	0xbf508927	-0.8145928
253	0x3e236f7f	0.15960501
254	0x3f00bea0	0.5029087
255	0xbf5b9b60	-0.8578396

bias f4 [200]
0	0xbcbb8c28	-0.02289398
1	0xbec411dc	-0.38294876
2	0xbd30df58	-0.043181747
3	0xbe84bd2d	-0.2592558
4	0xbdf0eb74	-0.11763659
5	0xbf66373e	-0.8992804
6	0xbf8318ca	-1.024194
7	0x3dc27618	0.09495181
8	0xbbaed4af	-0.0053354125
9	0xbd0a4485	-0.03375675
10	0xbf643fd8	-0.8915992
11	0xbe5edefb	-0.21764748
12	0xbced61fb	-0.028977385
13	0x3e61e50c	0.2206003
14	0xbe15a056	-0.14611945
15	0xbdd14e7a	-0.10220046
16	0xbe9e8b1c	-0.30965507
17	0xbd0e4afd	-0.034739483
18	0xbdc128a6	-0.09431581
19	0xbf19fd03	-0.6015169
20	0xbf1d9ace	-0.6156434
21	0xbe771ef4	-0.24132901
22	0xbd82e825	-0.06391934
23	0xbe8998a5	-0.2687427
24	0xbe943135	-0.28943792
25	0xbe1250ae	-0.1428859
26	0xbe2f1655	-0.17098363
27	0xbdd1325a	-0.10214682
28	0xbe0989cd	-0.13431473
29	0xbf53255c	-0.8247888
30	0xbf060971	-0.52358156
31	0xbd4c5788	-0.049888164
32	0xbca6d827	-0.020366741
33	0xbf14a9af	-0.58071417
34	0xbeb9a0c0	-0.36255455
35	0xbe892d9d	-0.26792613
36	0xbea663bf	-0.32497975
37	0xbcd98982	-0.026554827
38	0xbdece04b	-0.11566218
39	0xbde4ef7b	-0.1117849
40	0xbef2db60	-0.47432995
41	0xbeb08662	-0.34477526
42	0xbe8e9238	-0.2784593
43	0xbda2a7cc	-0.07942161
44	0xbc05954d	-0.008153272
45	0xbdb95a70	-0.09050453
46	0xbdb1410c	-0.08654985
47	0xbdcbf69f	-0.099591486
48	0xbe9378c8	-0.28803086
49	0xbdb79230	-0.0896343
50	0xbe8528ce	-0.26007694
51	0xbf2e7e68	-0.6816163
52	0xbe11be32	-0.1423271
53	0xbd65456b	-0.055974405
54	0xbeabcb8c	-0.3355373
55	0xbe25eff2	-0.16204813
56	0xbcfa0af9	-0.03052281
57	0x3e27908c	0.16363734
58	0xbf2de1b7	-0.6792254
59	0xbe6f6c16	-0.23381075
60	0xbe834fd0	-0.2564683
61	0xbd43dc49	-0.047817502
62	0xbf294189	-0.66115624
63	0x3f59cc5e	0.85077465
64	0xbcf7cad4	-0.030248083
65	0xbdd6659a	-0.10468598
66	0xbcef1f4b	-0.029189726
67	0xbe9c21f6	-0.3049466
68	0xbda4746f	-0.080300204
69	0x3d9070df	0.070527785
70	0xbe09d7ed	-0.13461275
71	0xbda37cc7	-0.07982784
72	0xbceb487b	-0.028721085
73	0xbe87e0cd	-0.26538697
74	0xbe0241bd	-0.1272039
75	0xbc42e61c	-0.011895683
76	0xbedb9d8a	-0.4289363
77	0xbd4d0a49	-0.050058637
78	0xbed12f00	-0.4085617
79	0xbd885c44	-0.06658223
80	0xbedf95f2	-0.43669087
81	0xbda11dbf	-0.07867002
82	0xbe7ce5f9	-0.24697103
83	0xbb041d85	-0.0020159197
84	0xbf7f0014	-0.99609494
85	0xbdae44ef	-0.08509242
86	0xbe901abf	-0.28145406
87	0x3e753607	0.23946391
88	0xbe05ef5c	-0.1307959
89	0xbe397500	-0.18111038
90	0xbf1674b9	-0.58771855
91	0xbdabcdaf	-0.083888404
92	0xbdfae944	-0.12251523
93	0xbd1b6e46	-0.03794696
94	0x3c66abde	0.014079062
95	0xbf691d04	-0.910599
96	0xbd8f3625	-0.06992749
97	0xbe77d4fc	-0.24202341
98	0xbe009d9f	-0.12560128
99	0xbcc86e83	-0.024466759
100	0xbe07cf9d	-0.13262792
101	0xbf50f5ee	-0.8162526
102	0xbe6140bc	-0.2199735
103	0xbddf06fa	-0.108900025
104	0xbdfa1a3c	-0.12212035
105	0xbe0247fd	-0.12722774
106	0xbf22055a	-0.63289416
107	0xbe870865	-0.26373592
108	0xbefc8c04	-0.49325573
109	0xbe342b24	-0.17594582
110	0xbdee3731	-0.11631621
111	0x3ef5cb7a	0.48006803
112	0xbebc3000	-0.3675537
113	0xbd1ea4ee	-0.038731508
114	0x3df0d2f9	0.1175899
115	0xbd4eda59	-0.0505012
116	0xbe03f8b5	-0.12887843
117	0xbe4d4cb9	-0.20048799
118	0xbcb74e1e	-0.022376116
119	0xbf43886c	-0.7638004
120	0xbdd1dbe2	-0.102470174
121	0xbf6e623b	-0.9311864
122	0xbdfad29c	-0.12247202
123	0xbdc2db41	-0.095144756
124	0xbd20e967	-0.03928509
125	0xbdc96709	-0.098341055
126	0xbed2504b	-0.41076884
127	0x3f709738	0.9398074
128	0xbf263d77	-0.6493754
129	0xbed1dd21	-0.4098902
130	0xbdac0847	-0.08400016
131	0x3e317150	0.17328382
132	0xbd9c5586	-0.076335
133	0xbd610844	-0.054939523
134	0xbe11ef06	-0.14251336
135	0xbe75a1a1	-0.23987438
136	0xbf345228	-0.7043786
137	0xbf6e7da9	-0.9316049
138	0xbe776152	-0.24158219
139	0xbd8f323d	-0.06992004
140	0xbd5e43aa	-0.05426375
141	0x3f2ebd43	0.6825754
142	0x3e64955d	0.22322603
143	0xbd84f2c8	-0.06491619
144	0xbddd42a2	-0.10803725
145	0xbd3ebee8	-0.04656878
146	0xbdce86c1	-0.10084296
147	0xbdadd5ff	-0.08488082
148	0xbe15b55e	-0.14619967
149	0xbd4b3f22	-0.049620755
150	0xbe71a11d	-0.23596616
151	0xbe8a2ac3	-0.2698575
152	0xbd86a84d	-0.065750696
153	0xbe5d2ad0	-0.21598363
154	0xbf49e546	-0.7886547
155	0xbe9815a7	-0.2970402
156	0xbcc26869	-0.023731427
157	0xbcb04a37	-0.021519763
158	0xbe98d24e	-0.2984795
159	0xbe8b227a	-0.2717474
160	0xbddc1f3a	-0.107481435
161	0x3e2e8062	0.17041162
162	0xbe93ade6	-0.2884361
163	0xbf101df5	-0.5629571
164	0xbc867d55	-0.016417185
165	0xbedc866a	-0.430713
166	0xbdc344b9	-0.09534592
167	0xbf32a187	-0.6977772
168	0xbd3c6940	-0.04599881
169	0xbf22f7a6	-0.6365913
170	0xbe792e23	-0.24334006
171	0x3e92323b	0.28553948
172	0xbeb3c0d8	-0.35108066
173	0xbf0d5d7d	-0.55220777
174	0xbf213e8f	-0.6298608
175	0xbdaf407f	-0.085572235
176	0xbe078c6d	-0.13237162
177	0xbdb9b448	-0.09067589
178	0xbf52014d	-0.82033235
179	0xbe807705	-0.25090805
180	0xbf1fcc92	-0.62421525
181	0xbf42d888	-0.7611165
182	0x3f3bdb18	0.73381186
183	0xbc96df1e	-0.018416937
184	0xbd7f07f4	-0.062263444
185	0xbcfeddd0	-0.031111628
186	0xbe6a3af3	-0.2287405
187	0xbe3c95c8	-0.18416512
188	0x3f0d144d	0.551091
189	0xbeadb6bf	-0.33928487
190	0xbf61c17b	-0.8818585
191	0xbe132470	-0.14369369
192	0xbe963a3e	-0.2934131
193	0xbf4beca0	-0.79657936
194	0xbea72edf	-0.32652947
195	0xbe8c85dd	-0.2744588
196	0xbea84d95	-0.3287169
197	0xbd73e84c	-0.059547707
198	0xbd95c82e	-0.07313572
199	0xbf004958	-0.50111914

weight f4 [1, 200]
0	0xbddd3c61	-0.10802532
1	0x3e6b8d3c	0.23003095
2	0xbc568fca	-0.013095805
3	0x3e7c97ba	0.24667254
4	0xbdeec18a	-0.116580084
5	0xbea1b858	-0.31585956
6	0x3e353ee4	0.17699772
7	0x3d90d7a1	0.07072378
8	0xbc1a417d	-0.009415028
9	0xbc420788	-0.011842616
10	0xbec687d1	-0.38775495
11	0xbe2e7287	-0.17035876
12	0xbc34c5c7	-0.011033482
13	0x3da727cc	0.081618875
14	0xbd8c7c7c	-0.06859681
15	0xbb9ded56	-0.0048195524
16	0x3de5ed74	0.11226931
17	0x3bfa860c	0.007645374
18	0xbf4a685b	-0.79065484
19	0xbf0f91c3	-0.5608179
20	0xbeb81e76	-0.3596074
21	0xbf32d5af	-0.69857305
22	0x3bc6c340	0.006065756
23	0x3efe217b	0.4963492
24	0x3d9f51c3	0.07779267
25	0xbdd35e99	-0.103207774
26	0xbed11d63	-0.40842733
27	0x3d2ded6f	0.042462762
28	0xbcb849c8	-0.02249612
29	0xbedef6cb	-0.43547663
30	0xbf6e9731	-0.9319945
31	0x3e6eaa22	0.23307088
32	0x3cd182d2	0.025575075
33	0xbebe018a	-0.3711055
34	0xbebf8b97	-0.37411186
35	0xbf7fdecb	-0.9994933
36	0xbf3bd277	-0.7336802
37	0x3b975e6d	0.0046194107
38	0x3c6921b3	0.014229226
39	0xbbebae0a	-0.007192378
40	0xbea66bb6	-0.32504052
41	0x3eebf5c7	0.4608595
42	0xbdadf0cf	-0.08493196
43	0x3e3c7bff	0.18406676
44	0xbd141ff5	-0.03616329
45	0xbd226e76	-0.039656125
46	0xbf0c4d2b	-0.5480525
47	0xbef583cf	-0.47952124
48	0x3e667176	0.2250422
49	0x3c8f17ad	0.017467344
50	0xbeb80d66	-0.35947722
51	0x3e9f1587	0.31071112
52	0x3e75e5bd	0.2401342
53	0xbbc1ecf9	-0.005918142
54	0x3e1f30e3	0.15545993
55	0x3d801015	0.062530674
56	0x3f75bb1b	0.95988625
57	0x3e0cf1b8	0.13764083
58	0xbe51d029	-0.20489563
59	0xbf044b8e	-0.5167779
60	0xbf551cd0	-0.8324709
61	0xbbf90d7b	-0.007600484
62	0xbe91ddb9	-0.28489473
63	0x3d4c7dc0	0.049924612
64	0x3cbb3baf	0.022855608
65	0xbb89ffc5	-0.0042113983
66	0xbbf633cc	-0.007513499
67	0x3e201036	0.15631184
68	0xbcedf1bb	-0.02904593
69	0xbf4501cd	-0.7695587
70	0x3cdc3132	0.026878927
71	0xbcd0993a	-0.02546369
72	0x3d0e8b0c	0.034800574
73	0xbf13171d	-0.57457143
74	0xbb115db6	-0.00221811
75	0x3e4a4677	0.19753443
76	0xbf803bf6	-1.0018299
77	0xb9884595	-0.00025991784
78	0xbf718f21	-0.9435902
79	0xbf121718	-0.5706649
80	0xbf864064	-1.04884
81	0x3cca01b8	0.024659023
82	0x3e9c41c0	0.30518913
83	0xbca31fcf	-0.019912628
84	0xbf2f2584	-0.6841662
85	0x3d20c707	0.039252307
86	0xbe6bdf1c	-0.23034328
87	0xbe63910e	-0.22223303
88	0xbecd76b3	-0.40129623
89	0x3ac26931	0.0014832375
90	0xbf5cbffb	-0.8623044
91	0xbc9d0c56	-0.019170921
92	0x3c67f293	0.014156955
93	0x3b3cb697	0.0028795355
94	0x3e16022e	0.14649269
95	0xbeace899	-0.33771208
96	0xb927c417	-0.0001599941
97	0xbeec79f2	-0.46186787
98	0xbba03b2e	-0.0048898673
99	0x3e99edea	0.30064327
100	0xbd499520	-0.049214482
101	0xbecea95d	-0.4036359
102	0xbf02727b	-0.50955933
103	0xbc4d5868	-0.012533285
104	0x3bb525e0	0.0055281967
105	0xbc7c115c	-0.015384998
106	0xbdda569c	-0.10661051
107	0xbf9d75cd	-1.2301575
108	0x3ee24c7a	0.44198972
109	0xbec20822	-0.3789683
110	0x3e845b7b	0.25851044
111	0x3d7220d8	0.059113353
112	0xbeb75e01	-0.35813907
113	0x3bf6dd54	0.0075337086
114	0xbf12c61c	-0.5733354
115	0xbce726ab	-0.02821668
116	0x3f062295	0.5239652
117	0xbe13f710	-0.14449716
118	0x3da453da	0.08023806
119	0xbfcc90e6	-1.598172
120	0x3cc99390	0.024606496
121	0xbcbb6f3f	-0.022880195
122	0x3aaf0c27	0.0013355062
123	0xbab2a607	-0.0013629802
124	0xbc59efda	-0.013301814
125	0x3b918336	0.0044406904
126	0x3e5097e3	0.2037044
127	0x3d955e59	0.07293386
128	0xbf543251	-0.82889277
129	0xbf500307	-0.8125462
130	0x3b56898a	0.0032735788
131	0x3db26edb	0.0871255
132	0xbc795df3	-0.015220153
133	0xbc13220d	-0.008980286
134	0xbdaf8ab6	-0.08571379
135	0x3f01c452	0.50690186
136	0xbdb2d73f	-0.08732461
137	0x3e18d9c9	0.14926828
138	0x3e7736ab	0.24141948
139	0xbc808cd3	-0.01569215
140	0x3c2be6af	0.010492011
141	0x3d4be68e	0.04978042
142	0x3d7bfe37	0.061521735
143	0x3ee18f72	0.44054753
144	0xbcda1559	-0.026621507
145	0xbb34ea7f	-0.002760559
146	0x3cbe1497	0.023203177
147	0xbc4a6cc1	-0.0123550305
148	0x3e7beade	0.24601313
149	0x3ea39377	0.31948444
150	0xbefd2f24	-0.49450028
151	0x3e18bfea	0.1491696
152	0x3c6924d3	0.014229971
153	0xbe13ad5e	-0.14421603
154	0xbe83eb5a	-0.25765496
155	0x3e3f7ce2	0.18699983
156	0xbbfca75c	-0.0077103805
157	0x3e562192	0.20911244
158	0xbf9043ad	-1.1270653
159	0xbef178c7	-0.47162458
160	0x3c3b4fff	0.011432647
161	0x3e05384b	0.13009755
162	0xbeee092a	-0.46491367
163	0xbec07759	-0.37591055
164	0x3c674c2b	0.014117281
165	0x3e8d0f33	0.2755066
166	0x3d04b1f4	0.03239627
167	0xbe9e08b7	-0.30866024
168	0x3ca371d7	0.019951744
169	0xbefcc12c	-0.49366128
170	0xbe4bc240	-0.19898319
171	0x3da1c39f	0.0789864
172	0xbd95ce6d	-0.07314763
173	0xbf8b6b0c	-1.0892043
174	0xbf1ce095	-0.61280185
175	0x3c760b2c	0.015017312
176	0x3b1706ee	0.0023044902
177	0xbeaf6536	-0.34256905
178	0xbf4343d0	-0.7627535
179	0xbede370a	-0.43401366
180	0x3e5273b5	0.20551951
181	0x3ec05349	0.37563542
182	0x3d6517d6	0.055930935
183	0x3e363e2c	0.17797154
184	0x3c0c2435	0.008553554
185	0x3e8d8bb2	0.27645642
186	0xbf5eceb9	-0.87034184
187	0xbdc40740	-0.09571695
188	0x3d8c24cf	0.06842958
189	0x3d4de8f0	0.050270975
190	0xbecf1ff2	-0.4045406
191	0xbe195d67	-0.14977036
192	0xbe312b1f	-0.17301606
193	0xbec44a8d	-0.38338128
194	0xbf07f5e4	-0.53109574
195	0xbf7ffbb3	-0.9999344
196	0x3ec70b83	0.3887597
197	0x3cd648b2	0.02615771
198	0x3c80a85d	0.015705282
199	0xbf03d128	-0.5149102

weight f4 [200, 15]
0	0x3d14fad8	0.036372036
1	0x3d066349	0.03280953
2	0xbfa58cf7	-1.2933644
3	0x3e00ff9c	0.12597507
4	0x3ec31660	0.38103008
5	0x3e5c9317	0.21540485
6	0xbc912a95	-0.0177205
7	0x3eb5c77b	0.35503754
8	0xbf441dbd	-0.76607877
9	0x3e3921b1	0.18079259
10	0x3f7754b7	0.9661364
11	0x3e4ff9b6	0.20310101
12	0xbda81c07	-0.08208471
13	0x3dcef07e	0.10104464
14	0x3c5e99fc	0.013586517
15	0x3f0c82fe	0.5488738
16	0xbda049f4	-0.078266054
17	0x3ede5991	0.4342771
18	0x3eecf7e2	0.4628287
19	0x3f0aadd6	0.541715
20	0xbf180ab4	-0.5939133
21	0xbea70b17	-0.32625648
22	0xbe36ecae	-0.17863724
23	0x3f0cb076	0.5495676
24	0xbe85b7e5	-0.26116863
25	0xbefeb388	-0.49746346
26	0x3e7cfb58	0.24705255
27	0xbf370f4e	-0.7150773
28	0xbf94ed18	-1.1634855
29	0x3f7f0b53	0.99626654
30	0x3e8292f1	0.25502732
31	0x3f4f3699	0.80942684
32	0x3f69a24f	0.9126329
33	0xbf238a97	-0.63883346
34	0x3e94690a	0.28986388
35	0x3e3c85c6	0.18410406
36	0x3e78f1c1	0.24310972
37	0xbfae6ceb	-1.3626989
38	0x3eee74ac	0.4657339
39	0xbdf2d5b5	-0.11857168
40	0xbdc42d49	-0.0957895
41	0xbdedf40e	-0.11618815
42	0xbecfef93	-0.40612468
43	0xbf3e8fdc	-0.7443826
44	0xbecea9b2	-0.40363842
45	0xbf0ff8fe	-0.56239307
46	0xbd0c6a48	-0.034281045
47	0x3ec31d79	0.38108423
48	0x3f570da0	0.84005165
49	0xbf868aff	-1.0511168
50	0xbf9d7958	-1.2302656
51	0xbfbe0542	-1.4845355
52	0xbfc0ca26	-1.5061691
53	0x3e4d50dd	0.20050378
54	0xbec3c788	-0.38238168
55	0x3f52b466	0.82306516
56	0xbe552fc7	-0.20819007
57	0xbd80e4c0	-0.062936306
58	0x3e790ba1	0.24320842
59	0xbe24c64e	-0.16091272
60	0x3f15e3a6	0.5855049
61	0xbef18d62	-0.4717818
62	0x3ed41e9e	0.4142961
63	0xbf5240c3	-0.8213007
64	0xbd6e986c	-0.05825083
65	0xbf192114	-0.598161
66	0x3f16524a	0.58719313
67	0x3f1c4dec	0.610564
68	0xbe085dc1	-0.13317014
69	0xbf35ef50	-0.71068287
70	0xbe66583b	-0.22494595
71	0xbf3099e8	-0.6898484
72	0xbee5050d	-0.44730416
73	0xbf3b0ad0	-0.73063374
74	0xbedf232a	-0.43581516
75	0xbc6bf852	-0.014402466
76	0x3d727503	0.059193622
77	0xbf653ac6	-0.89542806
78	0x3e81805a	0.25293237
79	0x3fd0b8f4	1.6306443
80	0x3fccc872	1.5998671
81	0x3f6a42df	0.9150829
82	0x3e093335	0.1339844
83	0xbfbf2562	-1.4933283
84	0xbdd09716	-0.10185067
85	0xbd28dd5f	-0.04122674
86	0xbd48868d	-0.048956443
87	0x38ef31b8	0.00011405669
88	0xbca9e9c7	-0.020741357
89	0x3dc0b9fc	0.09410474
90	0xbf72cc67	-0.94843143
91	0xbd8d45f1	-0.06898106
92	0xbe5fa2a3	-0.21839385
93	0x3e1461bb	0.14490406
94	0x3f6d4ef2	0.92698586
95	0x3e9c5dfb	0.3054045
96	0x3f9e927b	1.2388452
97	0xbfa0a82f	-1.2551326
98	0x3d3c528d	0.045977164
99	0xbc90d354	-0.017678894
100	0x3f8722dd	1.0557514
101	0x3e49f8e0	0.19723845
102	0x3ead70e4	0.3387519
103	0xbe5002e3	-0.20313601
104	0xbdee4910	-0.11635029
105	0xbee5efe7	-0.44909593
106	0x3f847053	1.0346779
107	0x3ea9ef9e	0.33190626
108	0xbf5562ea	-0.83354056
109	0x3f59ad42	0.85029995
110	0xbf326fe0	-0.6970196
111	0xbf54f69d	-0.831888
112	0xbffb7c52	-1.9647315
113	0x3f87c6a7	1.0607499
114	0x3e68ccfb	0.22734444
115	0xbfd0c925	-1.6311384
116	0x3eb17e1d	0.3466653
117	0x3e6864f3	0.22694759
118	0x3d4b7a70	0.049677312
119	0xbeb33920	-0.3500452
120	0x3eb2f027	0.34948847
121	0xbfda94bb	-1.7076639
122	0xbe8b5e6f	-0.27220485
123	0x3f0ed808	0.5579839
124	0xbee750cc	-0.4517883
125	0xbd67b510	-0.05656916
126	0x3e80e974	0.2517811
127	0xbed83fed	-0.42236272
128	0xbfd38f23	-1.6528057
129	0xbefe0bfc	-0.49618518
130	0x3e67f27b	0.22651093
131	0xbd77f4f5	-0.060536344
132	0xbe248b61	-0.16068794
133	0x3ea84e7d	0.32872382
134	0xbe8970b4	-0.26843798
135	0x3f53778a	0.8260428
136	0x3f4b36fb	0.7938077
137	0x3ee9e313	0.45681056
138	0x3d1edee2	0.038786776
139	0xbefc288a	-0.4924968
140	0xbf2ccd28	-0.67500544
141	0xbe8c0926	-0.2735073
142	0x3f44693d	0.7672308
143	0x3e82c369	0.2553971
144	0xbea4f8ae	-0.32220978
145	0xbf0e8e48	-0.55685854
146	0xbff6de24	-1.9286542
147	0xbf438533	-0.7637512
148	0x3f4495de	0.7679118
149	0x3d6f817f	0.058473106
150	0xbf38ded3	-0.72215
151	0xbe77e42b	-0.24208133
152	0xbed028da	-0.40656167
153	0x3ed62da8	0.41831708
154	0xbe1a93a7	-0.15095387
155	0x3ea96197	0.33082268
156	0xbe7e1590	-0.24812913
157	0x3ee5eb0f	0.44905898
158	0xbe9cf2eb	-0.30654082
159	0xc036437b	-2.8478687
160	0x3f443f36	0.7665895
161	0x3eef7a7e	0.46773142
162	0x3f31b6ce	0.6941956
163	0x3e93d1f0	0.28871107
164	0x3e9aa12b	0.30201086
165	0xbdf2e99c	-0.11860964
166	0x3cd7644a	0.026292939
167	0xbd2dcb0e	-0.042429976
168	0x3d3626e8	0.044470698
169	0x3cff5483	0.031168228
170	0xbea3cd3f	-0.31992528
171	0xbde7fd82	-0.1132765
172	0xbe0f24f5	-0.13978942
173	0xbec4c9c9	-0.384352
174	0xbe92348e	-0.2855572
175	0xbd05634d	-0.032565404
176	0xbe9188ad	-0.28424588
177	0xbeac621f	-0.3366861
178	0xbc83cdd5	-0.01608936
179	0x3da0448e	0.07825576
180	0xbfa5a305	-1.2940375
181	0x3f1aa86c	0.6041324
182	0xbf1c5a4a	-0.6107527
183	0xbf45eca8	-0.77314234
184	0x3f13041c	0.57428145
185	0xbec9cdce	-0.3941483
186	0xbd266371	-0.04062218
187	0xbdf0e4ab	-0.11762365
188	0x3f739ecb	0.95164174
189	0x3e514d59	0.20439662
190	0xbf9fa87b	-1.2473291
191	0xbf454ec7	-0.7707333
192	0x3e187050	0.14886594
193	0x3eb95e05	0.36204544
194	0x3f8226aa	1.0168049
195	0xbf596846	-0.84924734
196	0x3ead5a47	0.3385794
197	0x3ee22dfb	0.44175705
198	0xbfb1674a	-1.3859646
199	0xbee70bb6	-0.45126122
200	0x3e4700ad	0.19433852
201	0x3ea852f0	0.32875776
202	0xbfc133ba	-1.5093911
203	0x3f822829	1.0168506
204	0x3d17ac95	0.03702982
205	0x3f28482c	0.65735126
206	0xbd1e9c27	-0.038723137
207	0xbf13de3c	-0.5776098
208	0xbed7fea9	-0.42186478
209	0xbf35ceb4	-0.7101853
210	0xbe0e2614	-0.13881713
211	0xbfb5f301	-1.4214784
212	0xbf492d71	-0.78584963
213	0xbebf94e0	-0.3741827
214	0x3cfff5dd	0.031245166
215	0x3ec66d97	0.38755485
216	0x3df7ba9b	0.12096139
217	0x3f53dd2a	0.82759345
218	0x3f47c1f8	0.7803035
219	0xbe09fd81	-0.1347561
220	0xbf32e9a1	-0.6988774
221	0xbf8e8b36	-1.1136234
222	0xbf61763a	-0.88071024
223	0xbf707544	-0.93928933
224	0x3e489dcf	0.19591449
225	0x3e20b0af	0.156924
226	0xbfcd3ec2	-1.6034777
227	0xbf7025f2	-0.938079
228	0xbe9b3bd4	-0.30319083
229	0x3edd8fd9	0.4327381
230	0xbfbcb762	-1.4743464
231	0xbf83e21d	-1.0303379
232	0xbedf76a8	-0.43645215
233	0xbf27114b	-0.6526076
234	0xbe25e275	-0.16199668
235	0x3dd5605c	0.1041877
236	0xbee0586b	-0.43817458
237	0xbe8bd094	-0.2730757
238	0x3d3b08ae	0.045662574
239	0xbf194f3c	-0.5988653
240	0xbe1ca044	-0.15295511
241	0x3d44260d	0.04788785
242	0xbf1ad179	-0.6047588
243	0x3ebe23e8	0.3713677
244	0xbef80338	-0.48439956
245	0xbf3533d2	-0.70782197
246	0xbda9c038	-0.08288616
247	0xbea0189e	-0.3126878
248	0xbda92749	-0.08259446
249	0xbeca7487	-0.39542028
250	0x3fbb911f	1.4653662
251	0x3e27c4bd	0.16383643
252	0xbb837d08	-0.0040127076
253	0x3ddf77ea	0.10911544
254	0x3ef08874	0.46979105
255	0x3f8c2acc	1.095056

bias f4 [200]
0	0xbe904841	-0.28180125
1	0xbd7dffb8	-0.06201145
2	0xbe4824cc	-0.19545287
3	0x3e1ee842	0.15518287
4	0xbde23c70	-0.11046684
5	0x3f18555f	0.59505266
6	0xbe6801e5	-0.22656973
7	0xbe6593ff	-0.22419737
8	0x3e4f230f	0.20228218
9	0xbdf0de16	-0.117611095
10	0x3f1fb20d	0.6238106
11	0xbdc69781	-0.09696866
12	0xbed2fd67	-0.41208956
13	0xbea5117d	-0.32239905
14	0xbf0bb04e	-0.54565895
15	0x3edce227	0.4314129
16	0x3d001343	0.03126837
17	0xbf39a92d	-0.72523767
18	0xbde7840d	-0.113044836
19	0xbe8c3220	-0.27381992
20	0xbeac5eab	-0.33665976
21	0x3e892ccb	0.26791987
22	0xbd9a1f10	-0.07525456
23	0x3e377ee2	0.17919496
24	0xbf02ecab	-0.51142377
25	0xbf6ae932	-0.9176208
26	0xbf36313d	-0.7116888
27	0x3d6e2829	0.05814377
28	0xbd0958fe	-0.033532135
29	0xbeccb2eb	-0.39980254
30	0xbecd0a67	-0.40047
31	0x3ee15289	0.44008282
32	0xbe178014	-0.14794952
33	0x3e8ac6be	0.27104753
34	0x3ea50a63	0.32234487
35	0x3e1f025b	0.15528242
36	0x3ef4711a	0.4774254
37	0xbdb2cd45	-0.08730558
38	0x3db86a72	0.09004678
39	0x3e37785d	0.17917009
40	0x3e7efbbf	0.24900721
41	0xbe4f9a73	-0.20273761
42	0x3f48bcf4	0.7841332
43	0x3d39faa9	0.045405064
44	0x3eea02a8	0.45705152
45	0xbe8321a0	-0.2561159
46	0xbe6b963c	-0.23006529
47	0xbee3e52b	-0.4451078
48	0xbf108971	-0.5645972
49	0x3edfd084	0.43713772
50	0x3e442cc5	0.19157703
51	0xbf23ea5a	-0.6402947
52	0x3f0eb319	0.5574203
53	0xbe8fe8e2	-0.28107363
54	0xbea6b757	-0.32561752
55	0xbe76952b	-0.2408034
56	0xbf26e52d	-0.65193444
57	0xbf0f56d2	-0.5599185
58	0x3edba84e	0.42901844
59	0xbf1a2748	-0.6021619
60	0x3e2af77e	0.16695973
61	0xbeb97c10	-0.36227465
62	0xbf3377c2	-0.7010461
63	0x3ece920e	0.40345806
64	0xbeb37427	-0.35049555
65	0xbc3964cf	-0.011315539
66	0x3e0712d9	0.13190784
67	0xbe8bff00	-0.27342987
68	0xbe56a2a7	-0.20960484
69	0xbf4bdc7b	-0.796333
70	0xbb7a5918	-0.0038200077
71	0x3ea3e4a4	0.32010376
72	0xbf2eed91	-0.6833125
73	0x3cbba23c	0.022904508
74	0xbf8688d9	-1.0510513
75	0xbd85e75a	-0.065382674
76	0xbddbe23c	-0.1073651
77	0x3ea7f8bf	0.32806966
78	0xbeffe8f9	-0.49982432
79	0xbd2f03ba	-0.042728163
80	0xbf54ba89	-0.8309713
81	0xbe7b6de1	-0.24553634
82	0x3f370616	0.7149366
83	0xbe8a294a	-0.26984626
84	0x3f20c91c	0.6280687
85	0x3f76f567	0.96468204
86	0x3e291aa8	0.16514075
87	0xbe9344ac	-0.2876333
88	0x3df7ee3d	0.12105987
89	0xbf2201a9	-0.63283783
90	0xbe4536b9	-0.19259156
91	0x3ede42be	0.43410295
92	0x3edaab4d	0.42708817
93	0xbdfec213	-0.124393605
94	0xbf2f56ac	-0.68491626
95	0x3e53efba	0.20696917
96	0xbe07461d	-0.1321034
97	0x3e1613a0	0.14655924
98	0x3cf9938f	0.03046587
99	0xbf48eef6	-0.78489625
100	0xbf10e700	-0.5660248
101	0xbeeb1d43	-0.45920762
102	0xbf2b2054	-0.66846204
103	0xbeea9b31	-0.45821527
104	0xbe08d97d	-0.13364215
105	0x3eeb072c	0.4590391
106	0x3e95565e	0.29167455
107	0x3f24ce69	0.64377457
108	0xbf05dfb5	-0.52294475
109	0xbe4103d0	-0.1884911
110	0x3eb49386	0.352688
111	0x3e932d04	0.28745282
112	0xbf6373c9	-0.8884855
113	0xbeb3a0d0	-0.35083628
114	0xbcbaa106	-0.02278186
115	0xbf0bad39	-0.5456119
116	0xbe36d0a3	-0.17853026
117	0xbd8bee03	-0.068325065
118	0xbd72520d	-0.05916028
119	0xbe156cae	-0.1459224
120	0x3ef5a35b	0.47976193
121	0xbe899316	-0.2687003
122	0xbe3448c7	-0.17605887
123	0x3d5b720e	0.053575568
124	0x3ec05bf8	0.37570167
125	0xbef7d814	-0.48407042
126	0x3f2072e5	0.62675315
127	0xbd393fdd	-0.04522692
128	0xbf2d358a	-0.6765982
129	0xbea7483a	-0.32672292
130	0xbefa9971	-0.48945192
131	0xbe002913	-0.12515669
132	0xbc6a22a8	-0.014290489
133	0xbcb83ff5	-0.022491435
134	0x3df1ee04	0.11812976
135	0x3e666e0b	0.22502916
136	0x3db29d1c	0.087213725
137	0x3c0eed35	0.008723547
138	0x3e102407	0.14076243
139	0x3e521d87	0.20519076
140	0xbe2580ad	-0.16162367
141	0xbef8ae5f	-0.48570535
142	0xbeade4f6	-0.33963746
143	0xbd60deeb	-0.05490009
144	0xbec1b74f	-0.37835166
145	0xbea95a69	-0.3307679
146	0xbdae6815	-0.08515946
147	0xbf464621	-0.7745076
148	0x3e9f54d1	0.31119397
149	0x3e43d983	0.19125943
150	0xbec0277c	-0.37530124
151	0xbf68df3d	-0.90965635
152	0xbf42480f	-0.758912
153	0x3e7e7e35	0.24852832
154	0x3eb1ad7f	0.3470268
155	0xbe29927a	-0.16559783
156	0xbe0c4900	-0.13699722
157	0x3ca10f90	0.019660741
158	0xbe2f7b23	-0.17136817
159	0xbe2d4257	-0.16919838
160	0xbe40f6ba	-0.18844119
161	0xbedb620d	-0.42848244
162	0x3f02536b	0.50908536
163	0xbe0f9059	-0.14019908
164	0xbeb7a51d	-0.3586816
165	0x3d40b95e	0.04705178
166	0xbf601d1c	-0.8754442
167	0x3c856942	0.016285542
168	0xbf38ea08	-0.72232103
169	0x3e1e9ada	0.15488759
170	0xbebfe84c	-0.37481916
171	0xbce976c4	-0.028499015
172	0xbeeb4fab	-0.4595922
173	0xbcbea565	-0.023272226
174	0x3e18d14c	0.1492359
175	0x3e764488	0.2404958
176	0xbf18111a	-0.59401095
177	0xbe8cae7d	-0.27476874
178	0xbc83e60f	-0.016100911
179	0x3e93f605	0.28898636
180	0x3e9f92b1	0.31166604
181	0xbf003852	-0.5008594
182	0x3d885506	0.06656842
183	0x3e4822e2	0.19544557
184	0xbe04aa4d	-0.1295559
185	0xbe68e4c3	-0.22743516
186	0xbe51e78f	-0.20498489
187	0xbeb22c28	-0.34799314
188	0xbecf179a	-0.40447694
189	0xbccd3783	-0.025050884
190	0xbeae755f	-0.34073922
191	0xbe8175ea	-0.25285274
192	0xbdefcff2	-0.11709584
193	0x3e9b8940	0.3037815
194	0xbe464734	-0.193631
195	0xbe16f283	-0.14740948
196	0xbd57c3bb	-0.052676897
197	0x3ef4b351	0.47793058
198	0xbebb0bab	-0.3653234
199	0xbe8690b2	-0.2628227

weight f4 [200, 200]
0	0xba1e3dce	-0.00060364313
1	0x3b4c2ad8	0.0031153467
2	0xbc2f4c37	-0.010699323
3	0x3cf85e7b	0.03031849
4	0xbc56ddea	-0.013114432
5	0xbcfdaabc	-0.030965202
6	0xbd0bd2f5	-0.03413673
7	0x3d5ecad2	0.054392643
8	0xbc8cbfad	-0.017181242
9	0xbc96740e	-0.018365886
10	0x3cc7d898	0.024395272
11	0x3d71b51f	0.05901062
12	0xbc5a6e38	-0.013331942
13	0xbc80d035	-0.01572428
14	0x3c9f9015	0.019477883
15	0xbd627ceb	-0.055294912
16	0xbd97ba9e	-0.07408641
17	0x3c06764c	0.008206915
18	0xbdb052b8	-0.08609527
19	0xbd7aac88	-0.061199695
20	0x3d2634de	0.04057776
21	0x3ca91f3b	0.020644775
22	0x3d109cbd	0.035305727
23	0xbd80e485	-0.06293587
24	0xbd752964	-0.059853926
25	0xbd9b1c3e	-0.07573746
26	0x3d245b6e	0.040126257
27	0xbdb01cd0	-0.085992455
28	0x3cd543c1	0.026033284
29	0xbd308e18	-0.04310426
30	0xbd5e74e2	-0.054310687
31	0xbcac75a7	-0.021052195
32	0xbd3d6ca0	-0.04624617
33	0xbc54845a	-0.012971008
34	0x3d1e2d65	0.03861751
35	0xbd32fcc0	-0.043698072
36	0xbd311d10	-0.043240607
37	0xbb43f4b4	-0.0029900493
38	0xbdc0f231	-0.09421194
39	0xbd19fcbe	-0.03759455
40	0xbd2161b7	-0.03939983
41	0x3caa6c8e	0.020803716
42	0xbd6b14eb	-0.057392996
43	0xbcaeb4a7	-0.021326376
44	0xbd91632e	-0.07098995
45	0xbd755461	-0.059894923
46	0x3d6cb94a	0.057793893
47	0x3d4a7df0	0.04943651
48	0xbd986bf6	-0.07442467
49	0xbd6a3c83	-0.057186615
50	0xbd668f1b	-0.05628882
51	0x3ae70832	0.0017626344
52	0xbd974186	-0.073855445
53	0x3ca8d32e	0.02060851
54	0x3c7a3fbb	0.015273984
55	0x3850b559	4.9759958e-05
56	0xbda14bd7	-0.078757934
57	0x3cb73c3f	0.022367595
58	0xbc6781ce	-0.014130069
59	0x3cb75d9b	0.022383502
60	0x3d3e1e79	0.04641578
61	0xbd1637e6	-0.036674403
62	0xbd5f3ce2	-0.05450142
63	0xbc01be7d	-0.007918951
64	0xbd8333ed	-0.064063884
65	0xbc12348e	-0.008923663
66	0x3d054024	0.032531872
67	0x3ca5411e	0.020172652
68	0xbdb19560	-0.08671069
69	0xbb21acb7	-0.0024669596
70	0x3cfaad1a	0.03060012
71	0xbda12d5f	-0.07869982
72	0xbcd6d2fa	-0.026223648
73	0xbd90197e	-0.07036112
74	0xbd99d996	-0.07512204
75	0x3d28724e	0.041124634
76	0xbce7959b	-0.02826958
77	0x3d30b9d7	0.04314598
78	0xbdb68ed0	-0.08913958
79	0x3c299fde	0.010353057
80	0xbd23e897	-0.040016737
81	0xbd70612c	-0.05868642
82	0xbdcdf891	-0.10057176
83	0xbd8fa053	-0.07013001
84	0xbdc55029	-0.0963443
85	0xbbed61fb	-0.007244346
86	0xbda7f487	-0.08200937
87	0x3cbd377f	0.023097752
88	0x3d3f95bf	0.04677367
89	0xbc92b0c6	-0.017906558
90	0x3d3ef7ef	0.046623167
91	0xbccce0e1	-0.025009574
92	0xbcef7c43	-0.029234057
93	0xbd9d293e	-0.07673882
94	0xbdbfce00	-0.09365463
95	0xbc707fa4	-0.014678869
96	0x3d5de895	0.054176886
97	0xbc2c31af	-0.010509892
98	0xbd7c5d24	-0.061612263
99	0x3d13798d	0.03600459
100	0x3d1f8525	0.038945336
101	0xbd0fb4b5	-0.035084445
102	0x3c8b4eec	0.017005406
103	0xbc3d03f0	-0.011536583
104	0x3d46fd10	0.048581183
105	0x3ccc8190	0.024964124
106	0x3d44cf1c	0.048049077
107	0xbaba9930	-0.0014236327
108	0xbd6ae10d	-0.05734353
109	0xbc0ed79d	-0.008718398
110	0xbc9feab6	-0.019521099
111	0xbc964f56	-0.018348377
112	0x3d574da1	0.052564267
113	0xbcdacda5	-0.026709387
114	0xbd9e59ee	-0.077319965
115	0x3b8aebb4	0.004239524
116	0x3d15804d	0.03649931
117	0x3d2f691e	0.042824857
118	0xbd764114	-0.060120657
119	0xbd6bf45b	-0.057606082
120	0xbcc0e4e9	-0.023546653
121	0xbc6eced3	-0.014575678
122	0x3d1ddc25	0.038540024
123	0xbdad256f	-0.084544055
124	0xbce00a5b	-0.027348688
125	0xbdbde9a0	-0.09273076
126	0x3b264f6e	0.0025376934
127	0x3c5db321	0.013531477
128	0x3c9d4ebd	0.019202584
129	0xbd20a6ff	-0.03922176
130	0xbc0e1385	-0.008671646
131	0x3cd5c251	0.026093634
132	0xbd52bf3a	-0.0514519
133	0xbd504d72	-0.050855108
134	0xb9a1bf77	-0.00030850965
135	0xbc8b200d	-0.016983056
136	0xbc29cc67	-0.010363675
137	0x3d13c93d	0.036080588
138	0x3d88c3d2	0.06677975
139	0xbd82bccd	-0.06383667
140	0x3d1de3f5	0.038547475
141	0xbce61153	-0.028084433
142	0xbd325978	-0.043542355
143	0x3d06f5a4	0.032949105
144	0xbcf2e744	-0.029651292
145	0xbcf12864	-0.029438205
146	0xbcdfc59a	-0.027315903
147	0x3cf83f3b	0.030303588
148	0xbc66748b	-0.014065872
149	0xbce48ef8	-0.027900204
150	0x3d32ae9f	0.043623563
151	0xbd8b3205	-0.0679665
152	0xbcb40ef8	-0.021979794
153	0x3cb4a367	0.022050573
154	0xbbd37f6a	-0.006454398
155	0xbc166d06	-0.009181267
156	0xbd62fab3	-0.055414867
157	0xbce5f9e3	-0.028073257
158	0x3d54bef1	0.05193991
159	0xbd52ed52	-0.051495858
160	0xbdb5fb28	-0.08885795
161	0xbb365f28	-0.0027827714
162	0xbd075685	-0.033041496
163	0xbd70004c	-0.058594033
164	0x3b5a4c09	0.003330948
165	0xbd421661	-0.047384623
166	0xbd34e8f0	-0.04416746
167	0x3d49a1a0	0.049226403
168	0xbd56ed8a	-0.05247263
169	0xbd42b8e1	-0.047539596
170	0xbd63fc11	-0.05566031
171	0x3cc32ed8	0.023826048
172	0xbdada337	-0.084783964
173	0x39a2f4d6	0.00031081465
174	0x3d107b25	0.03527369
175	0xbcd43470	-0.02590391
176	0xbd2f196f	-0.042748865
177	0xbce6334a	-0.028100628
178	0xbd09cbc1	-0.03364158
179	0x3d0da494	0.034580782
180	0xbdafc9ff	-0.085834496
181	0xbd5c1f9d	-0.053741086
182	0xbdb0f218	-0.08639926
183	0x3d294ab6	0.041331016
184	0xbd6eb69b	-0.058279615
185	0xbd8b997b	-0.068163835
186	0xbd492e01	-0.04911614
187	0x3d448320	0.047976613
188	0xbc3e1178	-0.011600845
189	0x3c4b5978	0.012411468
190	0x3cc7ec20	0.024404585
191	0xbcbdf620	-0.02318865
192	0xbc38ff08	-0.011291273
193	0x3b120f0d	0.0022286803
194	0x3d168155	0.036744434
195	0xbc0b67ed	-0.008508665
196	0x3c6e542a	0.014546433
197	0x3d6f226a	0.05838243
198	0xbd304ed0	-0.04304391
199	0x3d3da287	0.046297576
200	0x3cafed26	0.021475386
201	0x3ca6910e	0.02033284
202	0xbb962846	-0.0045824377
203	0xbda0f137	-0.07858508
204	0xbd3dc0ff	-0.046326634
205	0xbe105f05	-0.14098747
206	0xbe229587	-0.15877353
207	0xbdc7d4b0	-0.09757364
208	0x3cc1c070	0.023651332
209	0xbdbe28e8	-0.09285146
210	0xbda1401f	-0.07873558
211	0x3d118401	0.03552628
212	0x3cd9e291	0.026597293
213	0xbdc5e561	-0.09662891
214	0xbdad9e87	-0.08477502
215	0xbda9d437	-0.0829243
216	0xbdc76111	-0.09735311
217	0xbdbac427	-0.09119444
218	0xbde2913b	-0.11062857
219	0x3c8f6cd4	0.017507948
220	0xbda87baf	-0.08226716
221	0x3dd9665a	0.10615225
222	0xbd418832	-0.047249027
223	0xbe1492ce	-0.14509127
224	0xbdc83018	-0.09774798
225	0xbcf88e23	-0.030341214
226	0xbc6a005b	-0.014282311
227	0xbc7a6b7c	-0.015284415
228	0xbd01c265	-0.03167953
229	0xbbb282df	-0.00544773
230	0xbd939036	-0.072052404
231	0x3dc1ae78	0.094571054
232	0xbe294e9f	-0.16533898
233	0xbe1d1fde	-0.15344188
234	0x3d6e9503	0.058247577
235	0x3d42cf89	0.047561202
236	0xbcf9d324	-0.030496188
237	0x3d3dbf70	0.046325147
238	0xbe036524	-0.12831551
239	0xbe1c1d46	-0.15245542
240	0xbdd7c782	-0.105361
241	0xbc7bcc9b	-0.015368606
242	0xbdb666f8	-0.089063585
243	0xbca44a3f	-0.020054935
244	0xbe08d48c	-0.1336233
245	0xbda3f837	-0.080063276
246	0xbcce78d1	-0.025204094
247	0xbdcddae1	-0.100515135
248	0xbd18d636	-0.037313662
249	0xbe3e09a8	-0.18558371
250	0xbd611e22	-0.054960378
251	0xbd395110	-0.045243323
252	0xbe13973e	-0.14413163
253	0xbe0ac7c5	-0.13552769
254	0xbdc86859	-0.09785528
255	0xbc2dce2f	-0.01060824
