Vehicles/ModRepeat_forest_1/ModRepeat_forest_1_actor_target.pth (torch, 176518 bytes, 5 tensors)

weight f4 [200, 14]
-0.1703563 0.8618 0.6172656 0.3376088 -0.02480129 0.21501346 0.28243333 0.4224141
-0.17885305 0.42254615 -1.2938324 -0.093412705 0.014584949 0.18340376 -0.3783558 0.77633876
0.40875602 0.44334814 -0.1968398 -0.6422312 -0.6568734 -0.002738967 0.10991651 -0.47942984
-0.07464559 -0.25780022 -0.8737235 -0.46959764 0.012969993 -0.47891352 0.8193575 -0.85857797
-0.1374653 0.2642075 0.7928094 0.60525465 -0.13680992 -0.6669809 -0.583661 -0.67097753
-0.61789376 -0.22441386 0.50175345 0.4828323 0.5710833 0.16040637 -0.10429384 -0.42013654
-0.7562232 -1.0999228 0.38053662 -0.08025878 0.039053753 -0.9235688 -0.46744016 0.13154978
-0.25600478 -0.7652863 -0.25811952 -0.61907876 -0.24985708 -0.24737269 -0.28211015 -1.1632472
-1.7086798 0.12202697 -0.23570205 -0.22409692 0.19421104 -0.025067342 0.4712105 -0.21867125
-0.6846026 0.050422054 -0.8802957 -0.4570778 0.3322875 -0.17380388 -1.4267172 -1.6705226
0.24144539 0.27834123 0.45371047 0.30622524 -0.100441046 0.010384926 -0.4019665 0.41691336
0.75589365 0.26703012 -0.3195752 0.24897237 -2.662437 -0.15662459 0.13346218 0.31121457
0.19405383 0.18242244 0.36474913 0.097876936 -0.51559293 0.011390232 -0.947346 -1.3959107
-2.239349 -1.2016722 -0.4311505 -1.3622205 -0.3081298 -0.59756047 -0.6944969 -0.34600472
0.17432554 -0.71814996 -0.037854288 0.47281134 0.21831127 0.15954289 -0.13660312 0.08713436
0.09187484 -1.6492823 -0.3373505 0.062696226 0.29613838 0.16532677 -0.21466485 -0.008877283
0.0021111006 0.2984616 -0.27238452 -0.2902481 -0.5441611 -0.4309807 0.1121604 -0.043290526
-0.10229135 -0.08616382 -0.076688156 -0.11380996 -0.42753398 -0.40323284 -0.079484314 -1.3053259
0.40270287 0.4191032 0.12474612 0.13534997 0.09507658 0.23514804 -0.6176922 -0.6736785
-0.39362967 -0.6111034 -0.10223534 -1.3281726 0.13527991 -0.094133645 0.011132038 0.0282166
0.04893055 -0.19181103 -0.41966754 -0.21878709 0.08548277 -0.892089 -0.06688582 -0.41643897
-0.6586118 0.0496516 0.032582022 0.36211473 -0.47238305 -0.7471338 -0.3425235 -0.4093638
0.18171008 -1.368342 0.43629825 0.2865555 0.42790538 0.009648633 -0.24641621 0.7399184
-0.49018955 0.83130884 -0.86981523 -1.0320479 -0.9514531 -0.2135693 0.0021105905 0.5417202
-0.3982533 -0.21751176 -0.06575833 -0.0046884436 -0.34884998 1.1426611 0.9793684 -0.3355271
-0.049250312 -0.048379924 -0.47993183 0.59663504 0.34415808 -0.18078163 -0.06580179 0.23198397
0.24357496 -0.091961734 0.32234877 0.26557747 0.38840503 0.83316004 -0.58726656 -0.6091038
-0.53953755 -0.8427172 0.26108864 0.07691382 0.12831475 0.22205111 -0.32184038 -0.31272045
-1.3207374 0.028779807 0.374683 -0.4045821 0.10356422 0.06269203 -0.15069996 0.7384162
-0.42862442 -0.45140898 0.30162063 0.67813957 -0.056206293 -0.37909505 -0.23504935 0.11346036
-1.123242 -0.17149848 0.014020416 -0.047928836 0.21833932 -0.7695694 0.8074716 0.23016143
-0.658128 -0.8256794 -0.59854436 -0.32948607 -0.023135766 -0.35421026 -0.06927235 -0.34558937
00000000: e271 2ebe ed9e 5c3f 1e05 1e3f 10db ac3e
00000010: 132c cbbc 7d2c 5c3e 1a9b 903e a946 d83e
00000020: 4125 37be f857 d83e 4d9c a5bf 294f bfbd
00000030: b6f5 6e3c 32ce 3b3e dab7 c1be 23be 463f
00000040: 7848 d13e 87fe e23e 5f90 49be 4469 24bf
00000050: db28 28bf 3e80 33bb e81b e13d d477 f5be
00000060: c9df 98bd 64fe 83be 58ac 5fbf 1a6f f0be
00000070: 1880 543c 2734 f5be 6ac1 513f c4cb 5bbf
00000080: b4c3 0cbe 3546 873e 8ff5 4a3f f8f1 1a3f
00000090: e617 0cbe 43bf 2abf cf6a 15bf 2fc5 2bbf
000000a0: 492e 1ebf bfcc 65be ea72 003f cc35 f73e
000000b0: 8432 123f 9141 243e 0298 d5bd 231c d7be
000000c0: d897 41bf 45ca 8cbf b2d5 c23e b75e a4bd
000000d0: d4f6 1f3d 016f 6cbf 5154 efbe fcb4 063e
000000e0: 0f13 83be cee9 43bf 3e28 84be f27b 1ebf
000000f0: 89da 7fbe 444f 7dbe be70 90be 49e5 94bf
00000100: 05b6 dabf 47e9 f93d e15b 71be aa79 65be
00000110: 42df 463e 075a cdbc 8142 f13e 5beb 5fbe
00000120: 1e42 2fbf 5b87 4e3d 0f5b 61bf 1a06 eabe
00000130: 9621 aa3e a5f9 31be ab9e b6bf afd3 d5bf
00000140: 763d 773e be82 8e3e bd4c e83e 8ec9 9c3e
00000150: 09b4 cdbd 8925 2a3c 8ece cdbe ab75 d53e
00000160: 3f82 413f 2cb8 883e 5c9f a3be 9df2 7e3e
00000170: 5e65 2ac0 3262 20be 4faa 083e 8457 9f3e
00000180: 0cb6 463e f3cc 3a3e 66c0 ba3e b473 c83d
00000190: e6fd 03bf 189e 3a3c 4485 72bf 34ad b2bf
000001a0: 7e51 0fc0 65d0 99bf c2bf dcbe 3e5d aebf
000001b0: 30c3 9dbe b9f9 18bf 8dca 31bf 8827 b1be
000001c0: 6582 323e add8 37bf 190d 1bbd 5414 f23e
000001d0: fd8c 5f3e 365f 233e b0e1 0bbe 8073 b23d
000001e0: e028 bc3d af1b d3bf 34b9 acbe e166 803d
000001f0: 739f 973e 6c4b 293e 1ad1 5bbe 0672 11bc
00000200: 645a 0a3b f5cf 983e fc75 8bbe 669b 94be
00000210: 244e 0bbf 81a9 dcbe 5ab4 e53d 6851 31bd
00000220: 217e d1bd a876 b0bd ae0e 9dbd 3215 e9bd
00000230: bce5 dabe 8974 cebe acc8 a2bd eb14 a7bf
00000240: 122f ce3e b294 d63e e57a ff3d 2f99 0a3e
00000250: 83b7 c23d a6ca 703e 1321 1ebf 3276 2cbf
00000260: d489 c9be 4671 1cbf c360 d1bd 8f01 aabf
00000270: d186 0a3e 24c9 c0bd 2763 363c 8026 e73c
00000280: 676b 483d 1c6a 44be aade d6be b909 60be
00000290: 9711 af3d f25f 64bf 6ffb 88bd 7d37 d5be
000002a0: c89a 28bf 7a5f 4b3d ba74 053d 1a67 b93e
000002b0: 31dc f1be 2944 3fbf 3d5f afbe 2298 d1be
000002c0: 3512 3a3e d525 afbf 7c62 df3e 67b7 923e
000002d0: 6a16 db3e 4d15 1e3c 8854 7cbe 4b6b 3d3f
000002e0: 20fa fabe a8d0 543f 36ac 5ebf 251a 84bf
000002f0: 6e92 73bf e9b1 5abe d551 0a3b 2dae 0a3f
00000300: dbe7 cbbe 67bb 5ebe 4eac 86bd 84a1 99bb
00000310: 779c b2be b842 923f e3b7 7a3f 35ca abbe
00000320: b2ba 49bd 072a 46bd a0b9 f5be 13bd 183f
00000330: 7d35 b03e d21e 39be 17c3 86bd 358d 6d3e
00000340: b76b 793e 6f56 bcbd e60a a53e c5f9 873e
00000350: 06dd c63e fa49 553f 1a57 16bf 3aee 1bbf
00000360: 221f 0abf 50bc 57bf 69ad 853e fe84 9d3d
00000370: f164 033e 5e61 633e 43c8 a4be e51c a0be
00000380: ec0d a9bf a1c3 eb3c 73d6 bf3e 6325 cfbe
00000390: 7a19 d43d ae64 803d 1751 1abe d808 3d3f
000003a0: a974 dbbe 141f e7be 056e 9a3e 8e9a 2d3f
000003b0: 9238 66bd bf18 c2be c7b0 70be e85d e83d
000003c0: 65c6 8fbf 4c9d 2fbe e3b5 653c 0751 44bd
000003d0: 5894 5f3e 8002 45bf 75b6 4e3f 70af 6b3e
000003e0: 147b 28bf ba5f 53bf 343a 19bf 66b2 a8be
000003f0: 3887 bdbc 0c5b b5be a9de 8dbd 17f1 b0be

bias f4 [200]
-0.16563514 -0.069739 0.030830136 0.13110718 0.19427618 0.33159256 0.34724346 0.107608326
0.04030716 -0.27883977 -0.48721778 0.12086363 -0.020510243 -0.57358706 -0.23442988 -0.5778551
0.25592238 -0.38604227 0.3691847 -0.3358654 0.13245808 -0.25660545 -0.11592357 -0.2331967
0.05787304 -0.1550985 0.37969548 0.112074986 0.091778494 -0.33963057 -0.42267835 -0.021760533
-0.43257612 0.39499933 -0.05905871 -0.42116633 0.21476558 -0.12167893 -0.2417522 0.01646942
-0.3746542 -0.2523496 0.23391375 -0.12578706 -0.16015069 -0.40939978 -0.29593006 0.51399994
0.4111892 -0.071967974 -0.18461458 -0.2671155 -0.2590613 -0.003701303 -0.32494718 -0.45668307
0.081873834 -0.24948865 -0.27965036 -0.5410631 0.28059953 -0.15653239 -0.41621423 -0.21310952
-0.056684345 -0.049042884 -0.020974947 0.18961526 0.04717878 0.09897703 -0.14135419 -0.10486777
-0.35520682 -0.13313955 -0.5054777 0.07612661 -0.22948508 0.003642753 -0.530336 -0.45297784
0.06755355 0.40031102 -0.71516824 -0.214793 0.11883765 -0.21413411 0.09368073 -0.27877802
-0.07609742 -0.008630393 -0.072291724 0.17476372 0.22484145 0.04124877 0.14087655 -0.23425095
0.013305948 -0.11027486 -0.41572037 -0.058040712 -0.17196235 -0.23823255 0.17396528 -0.5853526
-0.3606044 0.10359995 -0.36783567 -0.111129336 0.20240298 0.061091483 -0.060572412 -0.7471948
0.314905 -0.3962591 0.12457357 0.106233224 0.06230096 -0.2829432 0.30240837 0.10208644
0.05307723 0.6199694 0.58363926 0.09326977 -0.14116596 -0.46003285 -0.43595773 -0.4460096
0.07668063 0.06163478 0.32888836 0.04475764 -0.22320803 0.020401021 0.369613 -0.040421695
0.5401897 0.19806448 0.014409903 -0.28100017 0.024495903 -0.35181975 0.26430655 -0.02689516
0.23792402 -0.03456353 0.045481596 0.00022916782 -0.17519511 0.17519192 0.1873387 0.09211
0.10026995 0.069616176 -0.055681095 -0.2612222 0.086737 0.2490955 -0.1552438 -0.30935138
-0.29675934 -0.5094275 0.15811741 -0.33464137 -0.5181227 0.20067973 0.10930607 -0.069860816
-0.36076015 -0.13332902 -0.39304382 0.12548622 -0.37593058 -0.14168279 -0.15855408 0.16884102
-0.23015611 0.30934238 -0.10412472 -0.124494106 -0.09450245 -0.45361266 -0.06356386 0.24927017
-0.14827044 0.02456586 0.01815333 0.06405343 -0.20676255 -0.21860594 0.080750324 -0.060266025
-0.15818344 0.025503352 0.29450563 -0.07317848 -0.40153027 -0.5091967 -0.52403206 0.3409732
00000000: 429c 29be 52d3 8ebd 7b8f fc3c f640 063e
00000010: 56f0 463e 80c6 a93e e5c9 b13e c161 dc3d
00000020: 1f19 253d 16c4 8ebe 9c74 f9be 5a87 f73d
00000030: 1905 a8bc 9ad6 12bf 630e 70be 50ee 13bf
00000040: 4208 833e 55a7 c5be c705 bd3e 8df6 abbe
00000050: 17a3 073e ca61 83be 5669 edbd 1ecb 6ebe
00000060: 480c 6d3d 24d2 1ebe 7267 c23e 9287 e53d
00000070: 5df6 bb3d 0fe4 adbe 4c69 d8be 2543 b2bc
00000080: 9e7a ddbe 5a3d ca3e 8ce7 71bd 1da3 d7be
00000090: 82eb 5b3e ce32 f9bd e48d 77be e1ea 863c
000000a0: add2 bfbe f733 81be 1687 6f3e 53ce 00be
000000b0: 8bfe 23be d99c d1be 2584 97be 8095 033f
000000c0: 6487 d23e f263 93bd 9b0b 3dbe 5dc3 88be
000000d0: afa3 84be 8f91 72bb 7a5f a6be 5dd2 e9be
000000e0: 78ad a73d f479 7fbe 552e 8fbe 1c83 0abf
000000f0: beaa 8f3e 074a 20be 081a d5be 6239 5abe
00000100: d82d 68bd 31e1 48bd a7d3 abbc 812a 423e
00000110: 893e 413d 78b4 ca3d 27bf 10be eac4 d6bd
00000120: abdd b5be bc55 08be fd66 01bf 45e8 9b3d
00000130: 23fe 6abe 41bb 6e3b 1ac4 07bf b6ec e7be
00000140: 8459 8a3d 91f5 cc3e 4415 37bf b2f2 5bbe
00000150: 2761 f33d f945 5bbe afdb bf3d febb 8ebe
00000160: f7d8 9bbd 7e66 0dbc af0d 94bd 43f5 323e
00000170: d63c 663e 78f4 283d f141 103e 7bdf 6fbe
00000180: 3101 5a3c c9d7 e1bd 4dd9 d4be 19bc 6dbd
00000190: e616 30be 3cf3 73be f423 323e abd9 15bf
000001a0: 24a1 b8be 362c d43d f554 bcbe c797 e3bd
000001b0: ba42 4f3e 103b 7a3d c71a 78bd 2948 3fbf
000001c0: 3a3b a13e 79e2 cabe 6e20 ff3d ce90 d93d
000001d0: 4b2f 7f3d eedd 90be 45d5 9a3e b212 d13d
000001e0: 8267 593d 51b6 1e3f 6269 153f 3904 bf3d
000001f0: cf8d 10be 6d89 ebbe da35 dfbe 5f5b e4be
00000200: bc0a 9d3d c074 7c3d 0e64 a83e ca53 373d
00000210: a590 64be 0b20 a73c ea3d bd3e 3891 25bd
00000220: df49 0a3f 6ad1 4a3e 8417 6c3c 41df 8fbe
00000230: a2ab c83c b821 b4be 3053 873e 3d53 dcbc
00000240: 5ba2 733e 7d92 0dbd e94a 3a3d c54c 7039
00000250: 5966 33be 8365 333e b7d5 3f3e 2ba4 bc3d
00000260: 555a cd3d ed92 8e3d dc11 64bd ebbe 85be
00000270: 2ba3 b13d e412 7f3e 3bf8 1ebe 4e63 9ebe
00000280: d7f0 97be d769 02bf 88e9 213e 1d56 abbe
00000290: b0a3 04bf fd7e 4d3e dcdb df3d 3013 8fbd
000002a0: 8eb5 b8be 6787 08be 0a3d c9be 767f 003e
000002b0: f979 c0be 4b15 11be 005c 22be a9e4 2c3e
000002c0: 0bae 6bbe 2062 9e3e 573f d5bd c4f6 febd
000002d0: 808a c1bd eb3f e8be c52d 82bd ae40 7f3e
000002e0: 35d4 17be 583e c93c 4bb6 943c 722e 833d
000002f0: 90b9 53be 3cda 5fbe 6d60 a53d 82d9 76bd
00000300: d7fa 21be 68ec d03c 71c9 963e 99de 95bd
00000310: 6095 cdbe b75a 02bf f726 06bf 0a94 ae3e

weight f4 [200, 200]
-0.026614252 0.060788225 -0.004076543 -0.09031379 0.05733589 0.015743501 0.016663542 -0.01825301
-0.0042893104 -0.04566577 -0.02315326 -0.082733564 -0.032458115 -0.06408063 -0.06172107 0.02881049
-0.047752682 0.02953208 -0.023676153 -0.030708157 -0.057925712 0.039708074 -0.058620855 -0.059163257
-0.044402897 -0.06936423 -0.024453016 -0.02272746 -0.014313976 0.0276482 0.06349317 0.04571142
0.045843467 -0.087281406 -0.06961122 -0.018980378 -0.0822612 -0.061298594 -0.013396722 -0.037334405
-0.036730282 -0.036573075 0.015974246 0.036780123 0.046850774 -0.02955816 -0.04339719 -0.007114799
-0.03415886 -0.040404912 -0.029449867 -0.07290624 0.05668562 -0.06618581 -0.026404697 -0.086868644
0.036955286 -0.052858304 -0.04399767 0.04855973 -0.034063827 -0.008611436 -0.047253095 0.042665415
-0.02762585 -0.043139663 0.054965593 -0.058815718 0.02337675 -0.07924222 -0.006860201 -0.046318926
0.0020095787 -0.0069275103 0.048315667 -0.017587813 -0.023957925 -0.0076595303 -0.056935623 0.043116692
-0.041620847 -0.0265552 -0.05793838 0.04634787 -0.048999164 0.010810151 -0.010274214 -0.038427416
-0.07031045 0.00043023942 0.032743752 -0.0349737 -0.059288427 -0.06853572 0.03508626 -0.016211094
0.02571887 -0.025901938 -0.0643971 -0.008293126 0.025578106 0.050477356 -0.07214777 -0.038098823
-0.030173419 0.008005563 0.02488701 0.037691403 -0.044399172 0.0120295705 -0.040211197 -0.042904582
-0.013331244 -0.06471113 -0.052015163 -0.06566511 0.021529777 -0.052812375 0.0030846596 -0.009310907
0.02184829 0.025598915 -0.019958077 0.03543418 -0.09263092 -0.0694894 -0.0038344217 0.06617903
-0.006618683 -0.026829753 -0.036584996 0.02460819 -0.047699917 -0.010217012 -0.06251558 0.025812425
-0.04064035 -0.063168325 -0.04944869 0.051775474 -0.07319979 0.026580544 0.020439755 0.009909561
0.031508908 0.012522402 -0.067474276 -0.02312746 -0.08588367 0.02544208 -0.035888944 0.06368034
-0.077308044 -0.068708576 -0.042828586 0.059333872 -0.051670402 -0.014670301 -0.06641827 -0.06620369
-0.021643495 -0.018681532 -0.018209796 -0.069613256 -0.061462507 -0.10092194 -0.021328961 0.051557694
-0.034333162 -0.053129025 -0.034177918 -0.049333695 -0.025767673 0.011965923 -0.04217815 -0.050983258
0.03131204 -0.055227857 0.020981412 -0.029271359 -0.060977474 -0.0543018 0.019137368 -0.019914119
0.029215802 0.035670135 0.045467872 -0.042275753 -0.005111895 -0.044846952 -0.014613303 0.0008389769
-0.0046833414 0.006299611 -0.061154902 0.0428487 0.00055095204 -0.06610236 -0.056732874 -0.03963161
-0.37395838 -0.03848042 -0.40117276 -1.7914166 0.025342569 0.5890238 -1.4603539 -0.32348964
0.08044372 -1.1464964 -0.27295643 -0.23065737 -0.7053562 -0.15503332 0.1459935 0.2906807
-0.39219967 -0.96487415 0.21717384 0.056715738 -0.44790322 -0.2636958 -0.39438576 0.4725067
-0.88258946 -0.06140416 -0.29702887 -0.6587621 -0.015889164 0.46795356 1.0714183 0.46322384
-0.20715272 -1.3086764 0.053479947 -0.049584534 -0.42614082 -0.8422159 0.31883448 0.21620359
-0.06348273 0.40861085 0.110394716 -1.0704949 0.5834971 -0.24388307 0.57450086 -0.15309314
-0.641928 -0.6764685 -1.3895128 -0.06942532 -0.10246156 -0.18464789 -0.10640628 -1.3291699
00000000: 2206 dabc 13fd 783d 8594 85bb 70f6 b8bd
00000010: 0ad9 6a3d 84f8 803c fb81 883c 5687 95bc
00000020: 588d 8cbb 080c 3bbd e8ab bdbc 3770 a9bd
00000030: cdf2 04bd b53c 83bd 3ccf 7cbd fa03 ec3c
00000040: 5198 43bd 43ed f13c 7ef4 c1bc ac8f fbbc
00000050: 8343 6dbd efa4 223d 6c1c 70bd 2c55 72bd
00000060: d0df 35bd d50e 8ebd b151 c8bc f02e babc
00000070: 2b85 6abc 7a7e e23c b508 823d e63b 3b3d
00000080: 5cc6 3b3d 98c0 b2bd 5490 8ebd bd7c 9bbc
00000090: 8f78 a8bd 3c14 7bbd ed7d 5bbc f6eb 18bd
000000a0: 7e72 16bd a6cd 15bd 6cdc 823c c1a6 163d
000000b0: 99e6 3f3d f423 f2bc 40c1 31bd 4323 e9bb
000000c0: 29ea 0bbd 9f7f 25bd d940 f1bc de4f 95bd
000000d0: 2e2f 683d 6d8c 87bd aa4e d8bc 30e8 b1bd
000000e0: 6d5e 173d f381 58bd e736 34bd 91e6 463d
000000f0: 8386 0bbd fb16 0dbc 768c 41bd eec1 2e3d
00000100: 9b4f e2bc 37b3 30bd 9a23 613d c0e8 70bd
00000110: 9980 bf3c bf49 a2bd 89cb e0bb eab8 3dbd
00000120: 23b3 033b 2b00 e3bb a6e6 453d 5114 90bc
00000130: 6943 c4bc ccfc fabb 5435 69bd 219b 303d
00000140: 9f7a 2abd 4a8a d9bc cb50 6dbd 44d7 3d3d
00000150: 59b3 48bd 0f1d 313c 2d55 28bc 1166 1dbd
00000160: edfe 8fbd c291 e139 501e 063d 9540 0fbd
00000170: 6cd8 72bd 755c 8cbd 9cb6 0f3d 21cd 84bc
00000180: 61b0 d23c 4d30 d4bc a0e2 83bd e4df 07bc
00000190: 2d89 d13c 58c1 4e3d 36c2 93bd 830d 1cbd
000001a0: 3f2e f7bc c429 033c d8df cb3c 4d62 1a3d
000001b0: e8db 35bd ad17 453c 7fb4 24bd b7bc 2fbd
000001c0: 4a6b 5abc 4587 84bd da0d 55bd 6e7b 86bd
000001d0: 375f b03c ca51 58bd 0028 4a3b c68c 18bc
000001e0: 2ffb b23c d1b4 d13c 1f7f a3bc 6e23 113d
000001f0: 48b5 bdbd 7550 8ebd ec4a 7bbb df88 873d
00000200: 8ae1 d8bb 12ca dbbc 26da 15bd 1d97 c93c
00000210: fd60 43bd 4165 27bc 2b08 80bd 9474 d33c
00000220: 7f76 26bd 655e 81bd b68a 4abd 8512 543d
00000230: c6e9 95bd 71bf d93c 4671 a73c b65b 223c
00000240: 7c0f 013d c32a 4d3c f42f 8abd cd75 bdbc
00000250: c7e3 afbd e96b d03c 4900 13bd d76a 823d
00000260: ae53 9ebd 15b7 8cbd 076d 2fbd 1308 733d
00000270: 58a4 53bd b45b 70bc 4d06 88bd cd95 87bd
00000280: b34d b1bc 030a 99bc b62c 95bc 6591 8ebd
00000290: 1cc0 7bbd 29b0 cebd 13ba aebc 292e 533d
000002a0: eea0 0cbd d29d 59bd 25fe 0bbd 2112 4abd
000002b0: ba16 d3bc b80c 443c ffc2 2cbd d2d3 50bd
000002c0: 0e41 003d 9b36 62bd 36e1 ab3c 7dca efbc
000002d0: 84c3 79bd 906b 5ebd f8c5 9c3c ef22 a3bc
000002e0: fa55 ef3c d91a 123d 853c 3a3d 5729 2dbd
000002f0: af81 a7bb 70b1 37bd a36c 6fbc c9ee 5b3a
00000300: b776 99bb f86c ce3b 907d 7abd 1e82 2f3d
00000310: c46d 103a ad60 87bd bb60 68bd c154 22bd
00000320: 7977 bfbe a59d 1dbd 8466 cdbe 244d e5bf
00000330: 389b cf3c 44ca 163f e0ec babf 6fa0 a5be
00000340: adbf a43d 65c0 92bf f2c0 8bbe 7231 6cbe
00000350: 3992 34bf 0ec1 1ebe 527f 153e 1ad4 943e
00000360: 65ce c8be fe01 77bf d262 5e3e c34e 683d
00000370: 9253 e5be 2303 87be eeec c9be 66ec f13e
00000380: 62f1 61bf ee82 7bbd 2b14 98be a2a4 28bf
00000390: fe29 82bc 9c97 ef3e 3c24 893f ad2b ed3e
000003a0: d81f 54be b582 a7bf ca0d 5b3d 2719 4bbd
000003b0: 212f dabe 769b 57bf 463e a33e 7964 5d3e
000003c0: 3c03 82bd 7135 d13e a016 e23d fa05 89bf
000003d0: 1160 153f 7cbc 79be 7d12 133f 73c4 1cbe
000003e0: 6555 24bf 0a2d 2dbf 8edb b1bf dd2e 8ebd
000003f0: 5ed7 d1bd 5614 3dbe 89eb d9bd 3d22 aabf

bias f4 [200]
-0.03709089 -0.28525499 -0.19203593 -0.051691677 0.40948957 -0.13372242 -0.17243195 -0.51395285
0.29345217 -0.045893013 0.019092688 -0.010133572 -0.12667044 -0.07400446 -0.07251881 -0.07139824
-0.10957625 -0.06802312 -0.07448278 -0.047835384 -0.44053286 -0.09507621 -0.38135985 -0.11822221
-0.03678914 -0.04957435 0.0126692075 -0.19736785 0.51625633 -0.23245779 -0.46330437 -0.033076514
-0.053532846 -0.11835781 -0.049787436 0.4043593 -0.10589445 0.4452268 -0.080578856 0.099703215
-0.06413541 0.020587591 0.18156886 0.041153867 -0.0038475068 -0.097560234 -0.17615679 0.25116542
0.014071645 -0.022983015 0.24714626 -0.20784733 -0.0446741 0.3778893 0.25244063 -0.07619791
-0.10119314 -0.29992384 -0.061382785 -0.051872857 -0.06867084 -0.012155354 -0.052393652 -0.1052903
0.17616469 -0.037785284 -0.39625412 -0.050687466 -0.104137614 -0.08670324 -0.06619326 -0.62795556
-0.078246824 -0.15716511 -0.7959791 -0.30706772 -0.036985092 -0.31290013 -0.06499372 -0.061474428
-0.015098982 -0.3414779 -0.3205392 0.1388507 0.0025528676 -0.12432423 -0.044595897 -0.14727919
-0.066111304 -0.09499426 -0.07381968 -0.07857316 -0.6394214 -0.38088897 -0.29874468 -0.9754218
-0.047415916 0.3726181 -0.041530695 -0.7944532 -0.3045633 -0.055633914 -0.041524734 -0.025554214
-0.1250008 -0.27710524 -0.40992743 -0.10495646 -0.041630533 0.15217406 -0.15174828 -0.1295404
-0.069723345 0.3675675 -0.24913126 -0.030908205 -0.024137111 -0.66125274 0.59306234 -0.015214007
-0.12845857 -0.45772004 0.3600588 -0.1058438 -0.09649182 0.27804908 -0.7594113 0.23247369
-0.050315242 -0.4371037 -0.08820379 0.58294874 -0.102738395 -0.01808686 0.21028396 -0.5116194
-0.11286374 -0.42448515 0.16237105 -0.18696861 -0.50280344 -0.15468912 -0.47251043 -0.16458498
0.104538225 -0.07225953 -0.012909541 -0.31769606 -0.3161225 -0.055002104 -0.06711713 -0.063551284
-0.10965701 -0.5051828 -0.25855684 -0.0250472 -0.088807285 -0.12108265 -0.09007388 -0.27730235
0.12919468 -0.07360293 -0.031624705 0.19023243 -0.11912082 0.19440717 -0.037683956 0.6929983
-0.34745073 -0.14386922 -0.31956452 -0.7429309 -0.05590735 -0.6957707 -0.2072221 -0.06546459
-0.48041093 -0.0032424831 -0.10616566 -0.32233554 -0.12455967 -0.10626997 -0.1032048 0.18921283
-0.04925174 -0.1282887 -0.112015866 -0.08405976 -0.1479046 -0.08755112 -0.03193583 -0.39479432
-0.31399816 -0.16611384 -0.29135573 -0.15137658 -0.05682228 -0.31501982 -0.11942473 0.022660011
00000000: 9eec 17bd f10c 92be 11a5 44be a7ba 53bd
00000010: 9ea8 d13e 88ee 08be 0092 30be 6a92 03bf
00000020: 5d3f 963e 50fa 3bbd 4568 9c3c 4807 26bc
00000030: e5b5 01be a68f 97bd be84 94bd 3e39 92bd
00000040: 8369 e0bd b54f 8bbd 6e8a 98bd 09ef 43bd
00000050: 868d e1be 51b7 c2bd 9941 c3be 7c1e f2bd
00000060: 36b0 16bd 790e 4bbd 8292 4f3c cc1a 4abe
00000070: 6029 043f 6a09 6ebe 3b36 edbe 3d7b 07bd
00000080: 4245 5bbd 9465 f2bd e9ed 4bbd 2f08 cf3e
00000090: 30df d8bd c4f4 e33e 8706 a5bd 3331 cc3d
000000a0: 6d59 83bd 4fa7 a83c 30ed 393e f590 283d
000000b0: 7426 7cbb a9cd c7bd 7262 34be c198 803e
000000c0: c28c 663c e046 bcbc e913 7d3e eed5 54be
000000d0: 30fc 36bd b57a c13e e63f 813e a60d 9cbd
000000e0: 593e cfbd 9e8f 99be 846c 7bbd a278 54bd
000000f0: 4ca3 8cbd 4027 47bc ba9a 56bd 71a2 d7bd
00000100: 8464 343e bec4 1abd d2e1 cabe a99d 4fbd
00000110: 1a46 d5bd 7891 b1bd 5590 87bd b2c1 20bf
00000120: df3f a0bd e4ef 20be 49c5 4bbf fb37 9dbe
00000130: ae7d 17bd 7234 a0be 6d1b 85bd 9ccc 7bbd
00000140: b861 77bc 31d6 aebe b71d a4be e12e 0e3e
00000150: 034e 273b b49d febd 30aa 36bd 5bd0 16be
00000160: 5d65 87bd 5a8c c2bd c62e 97bd f7ea a0bd
00000170: 1fb1 23bf e103 c3be 10f5 98be 3eb5 79bf
00000180: 3137 42bd cdc7 be3e 171c 2abd 4961 4bbf
00000190: b9ef 9bbe 63e0 63bd d715 2abd 1257 d1bc
000001a0: 3600 00be bde0 8dbe 02e2 d1be 6af3 d6bd
000001b0: c784 2abd 84d3 1b3e e763 1bbe 3da6 04be
000001c0: 1dcb 8ebd cf31 bc3e 441c 7fbe 3433 fdbc
000001d0: 31bb c5bc dc47 29bf efd2 173f 2c44 79bc
000001e0: a58a 03be 485a eabe a159 b83e a2c4 d8bd
000001f0: 819d c5bd 735c 8e3e c768 42bf 950d 6e3e
00000200: 5b17 4ebd 0ecc dfbe 30a4 b4bd 213c 153f
00000210: 8268 d2bd e52a 94bc ae54 573e 7df9 02bf
00000220: 1b25 e7bd 1e56 d9be 9944 263e b374 3fbe
00000230: bab7 00bf d366 1ebe e3ec f1be f788 28be
00000240: 2318 d63d cefc 93bd 8a82 53bc 0fa9 a2be
00000250: cfda a1be e349 61bd b574 89bd 2d27 82bd
00000260: db93 e0bd a953 01bf 9061 84be c92f cdbc
00000270: 98e0 b5bd 2efa f7bd a878 b8bd 93fa 8dbe
00000280: 9c4b 043e 22bd 96bd e888 01bd 4acc 423e
00000290: 9ef5 f3bd ac12 473e 7e5a 1abd 5668 313f
000002a0: 10e5 b1be 7452 13be f69d a3be b830 3ebf
000002b0: 1bff 64bd 071e 32bf 0832 54be 4d12 86bd
000002c0: 6cf8 f5be d77f 54bb 626d d9bd 2a09 a5be
000002d0: 2419 ffbd 12a4 d9bd 0a5d d3bd 02c1 413e
000002e0: 31bc 49bd 1d5e 03be 9368 e5bd 8627 acbd
000002f0: 4e74 17be 004e b3bd 25cf 02bd 7b22 cabe
00000300: 5ec4 a0be bf19 2abe 942c 95be 7602 1bbe
00000310: 7bbe 68bd 474a a1be f494 f4bd 7da1 b93c

weight f4 [1, 200]
-0.0039929096 0.15859134 -2.4189255 -0.9449626 0.27152413 0.6704226 -0.009283152 0.876396
-0.8392462 0.006378122 -2.0645876 -2.1027021 0.023966493 -0.029326444 0.0056260787 0.0059705754
-3.361079 0.03941547 0.016335974 0.0035813346 -0.65003204 -0.0012727351 1.1710297 0.0033165128
-0.020064246 0.0135845635 -0.3103165 0.4208205 0.107219845 2.1597908 1.8854517 -0.02578928
-0.009252233 0.016694345 -0.01973456 0.11682747 -5.3316193 -3.1269138 0.002325957 -1.4283776
0.002612758 -0.112411246 0.16443722 -0.21863876 -0.030632531 -0.008792719 -0.39387822 -3.9169972
0.9186932 0.022549389 0.3056573 0.35916543 -0.00338096 -0.15703058 0.48404285 0.011592648
-0.00021697654 -0.3796287 0.010483443 0.017707627 -0.160963 -0.0032011685 -0.011165731 1.222192
0.39873952 -0.02746566 -2.0306525 -0.027494345 -0.01847243 -0.0017682456 0.0416648 -1.3418789
0.002919443 0.7953449 0.8672305 4.0424995 -0.0022657937 -0.6803651 0.0005963322 0.017721409
-0.10197421 -0.5434011 -0.23743981 0.40069616 -0.14119346 0.116217986 -3.2032783 -0.89655334
-0.042316727 0.030960357 0.04505482 0.0052948995 -1.473154 0.64716995 0.22800903 0.17910142
-0.008060512 0.22748198 0.017458403 -0.42839983 -0.3067253 -0.012990379 -0.022619799 -0.013001555
0.20788415 1.6321318 0.397765 -1.9427748 0.014636586 0.88114965 -1.7452917 0.010832503
0.013627963 -0.63194877 -0.7234401 0.0066019194 0.027315158 1.6641363 -1.0010353 -0.0074417866
0.0033944645 3.727657 -3.0081048 -0.0073953136 -0.00027017985 -0.14534251 -0.3581034 -4.61335
-6.0552897 -0.08109083 -0.04525301 -0.092513755 -0.044904318 -0.007403323 -0.5327101 -2.245054
0.020230396 -0.1466957 -0.704136 -0.51856154 -0.5134589 -0.09134666 0.13118528 0.009238449
0.28616446 -0.016128847 -0.0027349943 0.21568109 -0.44189197 -0.024245515 -0.0039974735 -0.01016046
0.032724842 0.7808459 0.2316205 -0.0069405483 -2.1002073 0.2578685 -0.031077331 0.1755348
-5.06854 2.5673168 0.29860213 0.19285093 -0.051161192 -0.10319822 0.019446593 -1.5979339
0.8680411 -0.1815437 0.24106479 -1.0846744 0.037832964 -0.11287812 -3.5176823 0.013487333
2.1050234 -1.2680267 -0.014615352 0.09515753 0.025577309 0.008339349 -0.015861372 -1.2179995
-0.021255968 0.02626649 0.018014217 1.4088048 0.0326712 -0.009027039 -0.023330957 0.30025604
-3.481937 -0.0448544 0.2589534 -0.3217551 -0.0058580707 -0.08584939 -0.009682132 0.32753724
00000000: f4d6 82bb c565 223e adcf 1ac0 12e9 71bf
00000010: 3605 8b3e d1a0 2b3f 5d18 18bc 7d5b 603f
00000020: d7d8 56bf 91ff d03b 3422 04c0 ac92 06c0
00000030: 6155 c43c 033e f0bc f85a b83b d1a4 c33b
00000040: eb1b 57c0 1e72 213d 05d3 853c d3b4 6a3b
00000050: 8068 26bf e7d1 a6ba 4de4 953f da59 593b
00000060: c65d a4bc ca91 5e3c cee1 9ebe c975 d73e
00000070: 1496 db3d 033a 0a40 7b56 f13f 0a44 d3bc
00000080: ae96 17bc 94c2 883c 5faa a1bc 3e43 ef3d
00000090: a09c aac0 5b1f 48c0 156f 183b 14d5 b6bf
000000a0: ce3a 2b3b de37 e6bd 3b62 283e d7e2 5fbe
000000b0: 13f1 fabc 560f 10bc 68aa c9be 15b0 7ac0
000000c0: 7a2f 6b3f 7fb9 b83c 1d7f 9c3e 88e4 b73e
000000d0: 1993 5dbb a0cc 20be 77d4 f73e 17ef 3d3c
000000e0: 3284 63b9 b15e c2be bfc2 2b3c 960f 913c
000000f0: 7cd3 24be b2ca 51bb 78f0 36bc ca70 9c3f
00000100: 9627 cc3e aaff e0bc 36f6 01c0 d23b e1bc
00000110: 7e53 97bc 7ac4 e7ba b6a8 2a3d b0c2 abbf
00000120: 2054 3f3b b99b 4b3f d102 5e3f 285c 8140
00000130: b67d 14bb 682c 2ebf 2d53 1c3a 7d2c 913c
00000140: dbd7 d0bd 561c 0bbf 6c23 73be 0c28 cd3e
00000150: 0595 10be b203 ee3d 8302 4dc0 8584 65bf
00000160: 4e54 2dbd 93a0 fd3c 678b 383d d680 ad3b
00000170: 4f90 bcbf eeac 253f 337b 693e 5d66 373e
00000180: 3d10 04bc 09f1 683e ed04 8f3c 3957 dbbe
00000190: 190b 9dbe 99d5 54bc 284d b9bc 7904 55bc
000001a0: 95df 543e b2e9 d03f dba7 cb3e d8ac f8bf
000001b0: 4bce 6f3c 0693 613f b865 dfbf d07a 313c
000001c0: d247 5f3c 65c7 21bf 5f33 39bf ea54 d83b
000001d0: 0ac4 df3c 6b02 d53f ed21 80bf 3bda f3bb
000001e0: aa75 5e3b ef91 6e40 ca84 40c0 6354 f2bb
000001f0: eda6 8db9 abd4 14be 5459 b7be 90a0 93c0
00000200: efc4 c1c0 f312 a6bd 385b 39bd da77 bdbd
00000210: 97ed 37bd 9397 f2bb b05f 08bf f7ae 0fc0
00000220: 37ba a53c 6637 16be 4242 34bf 73c0 04bf
00000230: 0b72 03bf f513 bbbd 6f55 063e dd5c 173c
00000240: 2684 923e a520 84bc 973d 33bb 81db 5c3e
00000250: aa3f e2be 889e c6bc 3dfd 82bb 0f78 26bc
00000260: 7c0a 063d 84e5 473f ed2d 6d3e 8a6d e3bb
00000270: cc69 06c0 5707 843e e395 febc 65bf 333e
00000280: 7b31 a2c0 eb4e 2440 61e2 983e b77a 453e
00000290: 668e 51bd 9759 d3bd 764e 9f3c 1989 ccbf
000002a0: f137 5e3f 97e6 39be b0d9 763e 9cd6 8abf
000002b0: bdf6 1a3d a52c e7bd b521 61c0 faf9 5c3c
000002c0: b4b8 0640 b34e a2bf 3b75 6fbc f3e1 c23d
000002d0: 8187 d13c c4a1 083c b5ef 81bc 68e7 9bbf
000002e0: ff20 aebc d22c d73c 8d92 933c b753 b43f
000002f0: 3cd2 053d 25e6 13bc 9020 bfbc 29bb 993e
00000300: 0ed8 5ec0 3fb9 37bd 8a95 843e 16bd a4be
00000310: 0ff5 bfbb ced1 afbd cea1 1ebc f6b2 a73e
