Vehicles/ModRepeat_forest_6/ModRepeat_forest_6_critic_target.pth (torch, 353496 bytes, 10 tensors)

weight f4 [200, 15]
000000 1f 2c a8 be 74 0e 9a be 68 13 13 3f 01 0d b9 3d
       -0.32846162 -0.30089152 0.57451487 0.090356834
000010 ef 88 d0 bc 38 ec cb bd 0d 41 42 bf e7 e3 14 3f
       -0.02545592 -0.099571645 -0.7588051 0.5816025
000020 5b 35 2c bd af 21 bc bc 50 b1 be bf a1 f4 92 3f
       -0.04204307 -0.02296528 -1.4897861 1.1480905
000030 7e 67 b3 3f 17 7c 0c 3f 2f bc 4c 3f 91 58 e2 3e
       1.4015958 0.54876846 0.79974645 0.44208196
000040 2a fb 09 40 35 0a 46 3f 77 8a 46 bf 33 c5 96 be
       2.1559548 0.77359325 -0.7755503 -0.29447326
000050 77 ac 14 bf 76 f6 17 bf c9 f3 92 bd 31 e2 5a bd
       -0.5807566 -0.59360445 -0.071754046 -0.05343837
000060 a0 47 f7 3e 9f d5 4f bf cc f1 99 bf d4 fe cd be
       0.48296833 -0.81185335 -1.2026916 -0.4023348
000070 c4 8a b0 bf 79 41 03 bf 50 8d 41 bf 1e f7 50 be
       -1.3792348 -0.5127178 -0.7560625 -0.20406768
000080 6b 91 da bd f7 72 d2 3e 29 8d 4b bf 5c 1a 44 3e
       -0.106722675 0.41103336 -0.7951227 0.1915068
000090 45 64 89 3f c3 e8 42 bf 8a 9d 86 be 73 a3 a9 be
       1.0733725 -0.76136416 -0.26292068 -0.33132514
0000a0 a2 c6 e6 be 7a da 32 be 85 e5 a7 3f e5 d3 51 3f
       -0.4507342 -0.17466155 1.3116919 0.8196395
0000b0 f2 39 fd 3c e2 b9 a0 3e 3d 8b 85 bf 93 6b 52 bf
       0.03091142 0.31391817 -1.0433117 -0.82195395
0000c0 af c7 1d bf 26 6a 3a bf 1b b5 64 be 86 60 21 c0
       -0.6163282 -0.7281822 -0.22334711 -2.5215163
0000d0 0d e3 7a c0 0e 44 7c c0 aa 23 27 bd a2 e7 5c 3e
       -3.920108 -3.9416537 -0.040805496 0.21572736
0000e0 02 7a 15 3d 91 a7 4a 3c f7 c5 58 3d 62 b9 6c bd
       0.03649331 0.0123690525 0.05292317 -0.057793982
0000f0 3c b7 75 be c3 5d 8f bd 32 98 a5 3e bd e8 39 bf
       -0.2399568 -0.070003055 0.32342678 -0.72620755
000100 24 a9 83 3d 8b 4b e1 bd 82 47 2f 3d 5b 9e 95 3f
       0.064287454 -0.11000737 0.042792805 1.1688951
000110 a4 28 2a bd 3a 6b 17 bd 73 c3 cc bc af 27 ad bf
       -0.041542664 -0.036967494 -0.024995541 -1.3527735
000120 a0 ff e1 be 14 9a f3 3e 2c d4 83 bf 76 3d c0 bd
       -0.4414034 0.4757849 -1.0299125 -0.09386723
000130 36 b5 ed 39 f7 99 14 3f 69 c3 9d 3e cd 7d 0f 3e
       0.00045339175 0.5804743 0.3081315 0.14012833
000140 dc 76 47 bd 4e a7 b6 bd be 08 69 3d db 2f 69 3f
       -0.048697338 -0.089186296 0.056893103 0.91088647
000150 3e f3 b2 bf 95 34 9d 3e 0c c9 46 3f d3 0f c7 bd
       -1.3980482 0.3070418 0.77650523 -0.09719815
000160 e8 c5 a8 3e 39 b2 e5 3d 12 4f 60 bf 7d e5 72 bf
       0.3296349 0.11215634 -0.8762065 -0.9488142
000170 c2 81 c6 3c 80 f8 0f bf f5 f8 0e be 15 eb 35 bf
       0.024231795 -0.56238556 -0.13962157 -0.7106183
000180 21 15 36 bf 18 ee 05 3f d0 64 a4 3e 65 22 08 3f
       -0.7112599 0.5231643 0.32108164 0.5317748
000190 f2 31 0d bf 3b d6 31 bf d5 d9 03 3f 18 2d 1b 3f
       -0.55154335 -0.69467515 0.5150426 0.6061568
0001a0 ee e2 76 bf b2 4a 03 bf ae 25 56 bf 88 1f ac 3e
       -0.9644002 -0.5128585 -0.83651245 0.33617806
0001b0 c4 86 ce bd 05 be f7 3c 47 5c 49 be 00 9f 73 be
       -0.10084298 0.030241976 -0.19664107 -0.23791122
0001c0 28 e6 65 bf 69 a6 9b bf b3 ed 06 be fe 3a d8 3f
       -0.89804316 -1.2160159 -0.13176613 1.6893003
0001d0 e6 83 d5 3e e8 40 ce 3e e7 30 0a 3d 7a ec 18 bf
       0.41702193 0.40283895 0.033738043 -0.59735835
0001e0 fc 49 b0 3e 20 f6 90 3e 34 40 84 3e d2 fe a7 be
       0.34431446 0.28312778 0.25830233 -0.328116
0001f0 9e a8 2c 3e fa 8d ab be 21 82 54 3e 38 ef ab be
       0.16861197 -0.33506757 0.20752765 -0.33580947
000200 a8 3a 85 be 45 00 58 bf ee ae 9d be 0c e5 b5 be
       -0.26021314 -0.8437541 -0.30797523 -0.3552631
000210 6c 94 2a 3f 97 6e 72 bd f1 a0 67 bf 14 0e b2 bd
       0.66632724 -0.059187498 -0.9047995 -0.086940914
000220 ae 61 82 3e 80 ca f6 be 00 1b 98 be a0 26 21 bf
       0.2546515 -0.4820137 -0.297081 -0.6294956
000230 3b 6a 31 3e 40 4a 14 be fe 54 c3 bd 04 d6 36 3e
       0.1732568 -0.14481449 -0.09537695 0.17855078
000240 ef 4a 74 3f 4f 11 88 bf 96 d5 65 bf 1d 9d 36 bf
       0.9542684 -1.0630282 -0.8977903 -0.71333486
000250 e5 f3 97 bf b4 7b 1c 3f 51 1c 05 3f 0c 91 f5 be
       -1.1871306 0.61126256 0.5199633 -0.47962224
000260 9a fc d2 3e c7 4a d8 be 8b 9d 8f be 77 a0 2f be
       0.41208345 -0.4224455 -0.28049883 -0.17151056
000270 e9 7a 38 3f 15 c6 11 3f 63 1e d4 3e ab 8c 41 bf
       0.72062546 0.56942874 0.41429433 -0.7560527
000280 16 03 c8 be c3 d9 f3 3c 62 91 ea 3e 8d 8f 98 3e
       -0.39064854 0.029766923 0.45814043 0.2979702
000290 90 13 de be c3 76 4d be 2f 48 71 bf b1 d2 3e be
       -0.433743 -0.20064835 -0.9425077 -0.1863506
0002a0 19 38 3b 3f ad cd b1 be 99 ac 54 3f 20 83 d3 3e
       0.73132473 -0.3472723 0.83075863 0.41310978
0002b0 c5 5f 62 3e f5 6b 9c bf 0e 64 90 c0 de af df be
       0.22106846 -1.2220446 -4.5122137 -0.43688864
0002c0 6e 7b c3 bf 45 f5 51 3e 6d f9 85 3e ff 2d a5 bf
       -1.5272043 0.20503719 0.2616686 -1.2904662
0002d0 35 f2 8b bc c0 84 46 bd 77 ad bd 3d b3 d0 e9 bd
       -0.017083267 -0.048466444 0.092616014 -0.11416759
0002e0 c6 4c 2b 3e ce fa 24 3e 20 f3 31 be 45 d3 86 be
       0.16728505 0.161113 -0.17377901 -0.2633306
0002f0 13 49 64 be 46 5a 2f 3d ad 65 82 be bf c6 22 be
       -0.222935 0.0428107 -0.25468197 -0.15896128
000300 3d c0 08 be 9e 08 a4 3d b3 0d 64 bd 8f 90 51 bf
       -0.13354583 0.08009456 -0.055677127 -0.81861204
000310 63 3a 3d be 0c 18 c1 3e d6 37 48 bf 13 25 7e 3f
       -0.18479304 0.3771366 -0.782102 0.9927532
000320 86 0a 18 3f 24 c1 2c 3f 11 dd c3 bd 00 7b c7 bf
       0.5939106 0.6748221 -0.095636494 -1.5584412
000330 25 1f cd bd ae 1c 22 bf ba a2 1c 3e 3d 0a e5 be
       -0.10015706 -0.6332501 0.1529645 -0.44734374
000340 b1 c3 00 3e 17 90 eb bd 75 10 bb bf cb 0c ac 3e
       0.1257465 -0.11502092 -1.4614397 0.3360351
000350 86 72 4c be b0 ac 2d 3f ec 4f 1b 3f 27 2e 98 3e
       -0.19965562 0.67841625 0.60668826 0.2972271
000360 1c 73 1e 3e af 2f 9a 3e c4 f3 fb 3d 36 3d f0 3e
       0.15473598 0.30114505 0.12302354 0.469217
000370 29 e1 08 3f 83 90 18 3f 38 64 d1 bd cf 2f 5b bd
       0.5346857 0.5959551 -0.10224193 -0.05351239
000380 ef cd 51 bd 81 62 b9 bf cb d8 3d 3f a4 3d 65 be
       -0.051221784 -1.4483186 0.74158925 -0.22386795
000390 22 69 1c bf 66 59 11 3e 62 5a 70 3f 79 e1 cc 3e
       -0.6109792 0.14194259 0.93887913 0.40015772
0003a0 46 83 14 c0 e6 4a 48 c0 df ad 8f 3b 8d bd 15 be
       -2.3205123 -3.1295714 0.0043847407 -0.14623089
0003b0 49 81 a4 3e b0 37 8c be ae 89 ec 3d e3 bf 65 3e
       0.32129887 -0.27386236 0.11549698 0.2243648
0003c0 2b d6 20 3f e7 82 70 3f fc 53 0e bf ff 83 00 bf
       0.62826794 0.9394974 -0.555969 -0.5020141
0003d0 ed bd 4c bf 7f f8 a7 bf 34 f6 18 be ce e2 db bd
       -0.79977304 -1.312271 -0.14937669 -0.10736619
0003e0 17 31 09 c0 1b 69 89 3e e0 3b 13 be b6 c8 68 3e
       -2.1436212 0.26838002 -0.14378309 0.22732815
0003f0 dc dd 8f bc 4a 64 7d be 15 11 70 be fa 6f 2b be
       -0.017561845 -0.24745288 -0.23444016 -0.16741934

bias f4 [200]
000000 5b f5 c6 be a1 67 a3 be 73 b1 a5 3e de 34 d7 3d
       -0.38859066 -0.31915 0.32361946 0.105081305
000010 62 aa ca 3d af 1f 64 bf 0c 8a 1d 3e 2b 85 e4 be
       0.09895779 -0.89110845 0.15384692 -0.4463285
000020 22 53 3e 3d fc 26 ca be f8 26 84 bf ef b8 2c 3e
       0.046466 -0.39482868 -1.0324392 0.16867422
000030 7d f1 85 be f7 8e 20 3e 16 57 df bd 06 34 03 be
       -0.26160803 0.15679537 -0.10905282 -0.12812814
000040 ad da b5 3e 9b 31 a1 bd 60 fb f0 bc 65 3d 38 be
       0.355184 -0.078707896 -0.02941674 -0.1799217
000050 40 09 87 be d6 f9 9c be 4d ed c0 bd 5e d0 93 bc
       -0.26374245 -0.3065936 -0.094202615 -0.018043693
000060 70 9f f4 be b9 a9 ee bd cc a4 05 bf 75 42 00 be
       -0.4777789 -0.11653466 -0.52204585 -0.12525351
000070 3d 87 e5 3d 1e 18 09 be a2 2c 90 3d 5c 3b 6c be
       0.11207435 -0.13388106 0.07039763 -0.23069519
000080 83 5a 3a 3e 8c 8e ce 3e 61 45 8d be 60 f3 ad bf
       0.1819859 0.4034313 -0.27591994 -1.3589897
000090 17 6b a1 be 92 4e 74 3e 6f 79 25 be f6 5d 93 bd
       -0.31527016 0.23858097 -0.16159604 -0.07195656
0000a0 66 c0 0b bf 61 f8 47 3f 38 c9 35 bf ec 1c e0 bd
       -0.5459045 0.7811337 -0.7101016 -0.109430164
0000b0 4b fb 7e be 29 fc ab be 9b b6 22 3e ad 80 76 be
       -0.24900548 -0.3359082 0.15889971 -0.24072523
0000c0 14 62 4d be fe c2 ac be 70 46 45 3e be ea 93 bf
       -0.20056945 -0.33742517 0.19265151 -1.1556013
0000d0 76 78 18 3e f0 d9 cb 3e 51 ee 9f be 4c 32 be 3e
       0.14889702 0.3981471 -0.31236508 0.37147748
0000e0 08 96 10 bf f3 c1 05 be 28 f3 57 be 44 4f 6c 3e
       -0.5647893 -0.13062267 -0.2108885 0.23077112
0000f0 33 bd 4d bf 8a bf 58 3e be 67 c7 be 08 3d 11 3d
       -0.8036682 0.21166816 -0.38946337 0.035458595
000100 fd fd 27 be a0 d8 c4 3e 01 66 82 bd b9 77 a1 be
       -0.16405483 0.38446522 -0.06367112 -0.31536654
000110 e4 52 bd 3e 7d d8 04 be 80 8e 94 3e fe bc e9 3d
       0.36977303 -0.12973209 0.2901497 0.114130005
000120 76 29 68 be 98 11 39 3f 39 62 2d 3e e4 8d 89 be
       -0.22672066 0.7229247 0.16932 -0.26866066
000130 de 9b 73 be 91 f3 9d 3c 39 57 23 bf d6 f4 af be
       -0.23789927 0.01928118 -0.63804966 -0.34366482
000140 c0 d3 cf be db f5 2f be 5e 6d 5d bd 53 39 e8 be
       -0.4059124 -0.1718363 -0.05405938 -0.45356235
000150 cb 1b 9f 3e 0a 8d 0d 3e 31 96 e3 be 93 05 ae be
       0.31075892 0.13823333 -0.44450524 -0.33988628
000160 6a 25 66 be 00 91 87 bf e8 c4 b8 be 4f 25 b5 be
       -0.2247521 -1.0591125 -0.36087728 -0.35380027
000170 97 21 06 3e 1f b6 fb be 0f 27 e8 be 92 71 85 be
       0.13098751 -0.49162385 -0.453423 -0.2606321
000180 3d f2 02 bf 1a d0 e3 be b0 0f 00 bf d7 10 ca 3e
       -0.51150876 -0.44494706 -0.5002394 0.39465973
000190 7e 08 83 3e 3e 8d 8d 3d 50 cb 91 3e 45 c9 06 bf
       0.25592417 0.069117054 0.28475428 -0.5265086
0001a0 4a 58 ba 3e a4 55 8f 3d ae 22 28 3f dc 6a 32 3f
       0.36395484 0.069987565 0.65677917 0.69694304
0001b0 a7 6d b1 be 22 97 3b be 3a 22 4c be 9b 9b 8e be
       -0.3465397 -0.18319371 -0.19934931 -0.27853093
0001c0 c5 51 96 be 26 6e 62 be ae d9 49 be 91 2b 80 3e
       -0.2935926 -0.22112331 -0.19711944 0.2503324
0001d0 f2 0e 82 3e f2 c1 29 3e fb 90 c5 be 30 74 0f 3b
       0.25402027 0.1657789 -0.38587174 0.0021889322
0001e0 2e bf a8 be 12 ac f6 bd 92 2b ca be ca ac 1d 3e
       -0.3295836 -0.120445386 -0.39486367 0.15397945
0001f0 60 ea 81 bf 00 29 4f 3d d2 e1 e7 bd 89 22 96 be
       -1.014965 0.05057621 -0.11322369 -0.29323223
000200 bc 7b 03 bf 79 9d 83 3e 84 b9 b1 3e de e1 e7 be
       -0.5136068 0.2570608 0.3471185 -0.4528951
000210 b7 10 1c 3f df 27 36 3e 07 49 80 3e 95 40 dc be
       0.60963005 0.17788647 0.25055715 -0.43018022
000220 b3 19 ad bd 4d ff cb be bb ba ef 3d e0 6d 00 3e
       -0.08452167 -0.39843217 0.11705538 0.12541914
000230 02 48 0c 3d 57 76 cd 3d 15 48 02 3f f4 1f a7 3e
       0.03424836 0.10032337 0.5089124 0.32641566
000240 51 d8 56 be 18 40 8f 3e 2b b5 89 bd 9a 39 65 bd
       -0.20980956 0.27978587 -0.06724008 -0.055963136
000250 9d f8 0e bf 77 54 c3 be 28 7b 64 bf 85 09 0b bf
       -0.55848104 -0.3815038 -0.8925042 -0.543114
000260 77 cb 9e be ad 67 16 3e 13 2f 11 3e 8b a5 5e bf
       -0.31014606 0.14687987 0.14178114 -0.8697135
000270 f1 e9 aa 3e 6e 86 db 3e f0 11 a9 3d a5 c9 85 be
       0.33381608 0.42876 0.082553744 -0.26130405
000280 eb 3f fd be 8f ab 1f bf bb 19 3f 3c 25 59 87 bf
       -0.49462828 -0.6237115 0.011663849 -1.057408
000290 94 8c 05 bf 76 4a 37 bf 17 ce 56 bd a8 d6 0c bf
       -0.5216763 -0.71597993 -0.052442636 -0.5501504
0002a0 5c 0c 06 bf 10 fa a1 be d0 9a fb bc 85 33 fb 3e
       -0.5236261 -0.31636095 -0.030713469 0.49062744
0002b0 b3 ac 22 bf 2c ab f3 bc e7 81 0e 3d 59 66 e4 3e
       -0.6354477 -0.029744707 0.034791853 0.44609335
0002c0 93 6a 55 bf e5 9c 02 3f a4 d0 66 be e7 36 5e be
       -0.83365744 0.5102065 -0.22540528 -0.21700631
0002d0 26 c4 bd bd 3e 94 af bd 8c ba 94 3e 5d 36 71 bf
       -0.09265928 -0.08573197 0.29048574 -0.94223577
0002e0 99 2f 14 be f1 6c d3 bd f7 54 7d 3e c2 e2 50 3e
       -0.14471282 -0.10323513 0.24739443 0.20399001
0002f0 d4 af 7f 3d b8 62 80 bf e5 24 63 be 48 d2 23 3e
       0.062423542 -1.0030127 -0.22182043 0.15998185
000300 6b 61 52 be ad 5c 4e bf 95 69 82 be 0c 83 68 3d
       -0.20544975 -0.8061016 -0.25471178 0.0567656
000310 c7 83 a6 be 22 0e d2 3d c2 10 b1 be 43 d3 95 3a
       -0.32522413 0.10256602 -0.34583098 0.0011430759

weight f4 [200, 200]
000000 3f e1 a8 bc 12 35 df bc 13 06 6b 3c aa 84 eb 3c
       -0.020615218 -0.027246986 0.01434471 0.028749783
000010 cc 20 0e 3c 3b ef 63 3d a6 5e 02 bd 14 ce 8a 3d
       0.008674812 0.05564807 -0.031828545 0.067775875
000020 bd 4b 11 3d 8d 8e 83 bc bc 62 70 bc f6 f4 16 3d
       0.03547262 -0.016059184 -0.014671978 0.036854707
000030 57 89 8f bd c3 5c 6e bd 6e b6 80 bd 85 03 09 3d
       -0.07008617 -0.058193933 -0.06284796 0.033450622
000040 c4 0b 88 bd 78 60 ce 3c 1a e2 54 bd 07 36 34 3b
       -0.06642869 0.025192484 -0.05197344 0.0027498023
000050 52 b5 d3 bc 27 a7 aa 3d 23 e7 65 bd fd 24 0c bd
       -0.025843296 0.08332663 -0.056128632 -0.034214962
000060 5f 52 b8 3c 42 e2 5e bd 89 fa e6 3b 3f a3 aa bb
       0.022500215 -0.054414995 0.007048909 -0.0052074487
000070 02 0f 63 3c c3 92 96 3c ef 18 2d bc 0d 42 16 3c
       0.013858559 0.018380528 -0.010565027 0.009171021
000080 b9 14 cb bd ed 28 89 bc d2 9f 9c 3c 87 2d ab bc
       -0.09916062 -0.016743148 0.019119177 -0.020895733
000090 2e 73 ed bc 78 10 4a bc 0a e9 5d bd 61 a4 d4 bc
       -0.028985586 -0.012333028 -0.05417732 -0.025957288
0000a0 39 ca cc bd 2e db af 3c a1 a8 cc bd 9e 61 2a 3c
       -0.099995084 0.021466818 -0.09993101 0.01039925
0000b0 89 65 3d bc bf ce a9 bd 36 64 92 bd 21 3c 43 bd
       -0.011559852 -0.08291387 -0.0714802 -0.047664765
0000c0 ff d6 39 bd 53 2b 6a bd a4 3e 7f bd 3b 8d 6b bd
       -0.045371052 -0.057170223 -0.062315598 -0.057507735
0000d0 48 5b 33 bd de 9d a1 3c 95 79 10 3d f6 59 9b bd
       -0.043788224 0.019728597 0.0352722 -0.07585518
0000e0 37 f9 a7 bd de c7 1a bd 10 3b 45 3b 9a 3a 42 bd
       -0.08201831 -0.037788264 0.0030095018 -0.047419168
0000f0 8a 20 5b bd c3 75 6e bb dd 02 0d bd fd e5 89 bc
       -0.05349783 -0.003638611 -0.03442656 -0.0168333
000100 88 7a 33 bd df 91 23 bd 54 8b 29 3d d6 b5 55 3d
       -0.043818027 -0.039934035 0.04139264 0.052175365
000110 05 da 08 bd 60 6d c0 3b f9 14 a4 bb 77 9c ab bd
       -0.033411045 0.0058724135 -0.005007383 -0.08379453
000120 a5 a6 0f bd 66 0f 23 3c e0 b5 36 bc 56 19 9f bd
       -0.035071034 0.009952402 -0.011151761 -0.07768504
000130 da 99 5f 3d 4a 7f df bc 18 35 c3 3c 70 8c 39 bd
       0.054590084 -0.027282376 0.023829028 -0.045299947
000140 08 80 6d bd 10 f6 c3 3c 53 56 67 bc 29 eb c0 bc
       -0.05798343 0.023921043 -0.014119702 -0.023549633
000150 ce ac 98 bd ef 1a 35 3b d1 6b c0 bc 72 42 d6 3c
       -0.07454835 0.0027634462 -0.02348891 0.02615473
000160 fa dd 18 bc 3d 99 82 ba 55 f9 02 bb e1 d8 45 bc
       -0.009330267 -0.0009963881 -0.001998504 -0.012075634
000170 ed e0 14 38 2e 14 9a bd 48 08 c5 3c f5 c0 0e bd
       3.5495428e-05 -0.0752338 0.0240518 -0.034851987
000180 e1 c5 c4 bc d2 5d 6c 3b f3 05 77 3b dd 67 91 3c
       -0.024020137 0.0036066663 0.0037692755 0.017749721
000190 0e ce 20 3d 92 95 18 3c aa b6 e8 3b ef 59 b7 3c
       0.03925901 0.009313004 0.0071018534 0.02238175
0001a0 22 0b 60 3d 3d 87 05 bc df f7 ab bc 3e f5 94 bd
       0.054698117 -0.008149919 -0.020992218 -0.07273339
0001b0 e2 8a eb 3b c5 cd 89 bd 30 8b 34 bc 9a 1c de bc
       0.007188187 -0.067287005 -0.011019513 -0.027113248
0001c0 35 6f 7d bd 00 f2 b9 bc 0a 32 56 bd 20 b3 3d 3d
       -0.061873633 -0.022698402 -0.052293815 0.046313405
0001d0 40 43 ba bd 14 f8 7d bd 4f c7 37 3c 9e f7 91 bb
       -0.09094858 -0.062004164 0.011216952 -0.004454567
0001e0 fb 6c 67 bd 95 d9 99 3c 77 fa 2c bd 8e 99 96 bc
       -0.056500416 0.018780509 -0.04223105 -0.018383767
0001f0 fa b9 ef 3c 6c a9 fe bc 0d 21 8f bd 13 8a ee bc
       0.029263485 -0.031086646 -0.06988726 -0.029118573
000200 90 61 49 3d d9 ce 6d bd 8e f8 9b bd bf 7a 37 3c
       0.04916531 -0.058058593 -0.076157674 0.011198699
000210 a0 b7 bd bc 7d 54 02 bd 6d e3 85 bd 74 10 88 3d
       -0.023158848 -0.031818856 -0.06537519 0.06643763
000220 78 1b b4 bd d6 4d 90 bd 18 62 b7 bb 7b c4 67 bc
       -0.08794302 -0.07046096 -0.0055964105 -0.014145966
000230 1e b5 9a bd 88 09 b1 bc 7f ae 25 bd ff bf 39 3d
       -0.075540766 -0.02161099 -0.040449616 0.045349117
000240 c1 5d 59 3c 02 f3 d6 b9 84 32 f4 bc b2 4e ee 3b
       0.013266982 -0.00040998316 -0.029809244 0.007272565
000250 ef 80 a4 bd 07 25 a2 bd e6 77 9c bc 0d 18 1d 3d
       -0.08032405 -0.07917219 -0.01910014 0.038353015
000260 ea 0c e4 3c 3e 42 07 bd 8e 5b 98 bd c3 35 34 3d
       0.02783819 -0.033022158 -0.07439338 0.043996584
000270 f0 33 35 bd 1e 9c 9a bc dc fc 05 3d b8 4f 8d bd
       -0.044238985 -0.01887327 0.03271185 -0.06899971
000280 1c ca 0a 3d ee ec 2b 3d e4 b6 85 3c 2f d9 27 b9
       0.033884153 0.041974 0.01632256 -0.00016007268
000290 e6 88 15 bd 2f 0a 3d 3d 4a 75 67 3d b4 71 fd bc
       -0.03650751 0.04615229 0.05650834 -0.030938007
0002a0 c3 2d 09 3d 03 08 56 bd d2 6e 70 3c e7 8c a5 bd
       0.033490907 -0.052253734 0.014674859 -0.080835156
0002b0 d0 10 4b 3d de 7a 92 bc 8d b9 80 bc 7a db 5f bc
       0.04957658 -0.017880853 -0.015713478 -0.013663167
0002c0 08 ac b1 bd e8 7e b8 bd af 58 69 3d 95 95 83 bd
       -0.086753905 -0.090085804 0.05696934 -0.06425015
0002d0 6a ca 46 3d d7 41 d7 bc ba 30 57 bc df 5f 3c bd
       0.04853288 -0.026276512 -0.013134176 -0.045989867
0002e0 7d 73 81 3d 01 a4 46 bd f6 8b 9b bd 75 06 46 3d
       0.06320856 -0.04849625 -0.07595055 0.048346
0002f0 be e4 9d bd 13 f6 f5 3c 51 5a 45 bd ff ae a7 bd
       -0.07709645 0.030024564 -0.048181836 -0.08187675
000300 cb 1d 7e 3d f6 f4 af bc 66 2f 67 3d a5 a3 83 bd
       0.06204013 -0.021479111 0.056441687 -0.06427697
000310 47 5a d3 3c 6d a9 17 3d 49 b6 41 bd b3 84 65 bd
       0.025799884 0.03702681 -0.04729298 -0.056034755
000320 55 e0 9d 3e cb 5c 50 3e 60 ad 02 bf 7b ab 4c bf
       0.30835214 0.20347898 -0.510458 -0.7994916
000330 19 14 84 bc 5d 8e 50 bf c7 9e 49 be e8 c0 97 bd
       -0.016122865 -0.8146723 -0.19689475 -0.07409841
000340 60 d3 5b bf a5 52 40 3f 97 fd 1c 3f 70 7a 00 40
       -0.8586941 0.75126106 0.6132445 2.007473
000350 bd a3 93 3c 5b 35 9f be 7d 9a 0d 3e 61 fe 7f 3f
       0.018022412 -0.31095394 0.13828464 0.99997526
000360 35 17 cc 3f aa 03 93 be e7 ed c9 be fc 53 1f bf
       1.5944582 -0.28713733 -0.39439318 -0.62237525
000370 a7 a4 1e bd 7b a7 28 3e bf ea af 3e 78 d0 8d 3d
       -0.038731243 0.16470139 0.34358785 0.06924528
000380 bf 82 2b c0 ba b3 83 bd e9 67 29 bf c9 52 9b 3e
       -2.679855 -0.064307645 -0.6617418 0.30336598
000390 a2 7d 20 3e 71 b7 2c 3f 8c 46 8d bf a1 bc d4 3e
       0.15672925 0.6746741 -1.1037154 0.41550162
0003a0 4e 9f 73 3f b0 41 82 bf 63 0e 1e c0 0b d4 29 be
       0.95164955 -1.0176296 -2.469628 -0.16584794
0003b0 12 df e4 bc 4d ce 08 3e 73 74 55 bf 43 c5 2e bf
       -0.0279384 0.13359948 -0.8338081 -0.6826975
0003c0 4f 99 59 bf 92 04 da bf 4a cf a5 3e d1 a3 5a 3f
       -0.84999555 -1.7032645 0.32384712 0.85406214
0003d0 b6 8a 4f 3e 2f 44 4b 3e 69 f0 db bb e8 f6 a5 bd
       0.20267758 0.19850229 -0.0067120087 -0.08103734
0003e0 c1 8e 6d 3f 05 aa 6e bf f6 de 9b 3e 3c e9 02 bf
       0.9279595 -0.9322818 0.30443543 -0.5113714
0003f0 a1 c7 40 bf fb 61 c6 3f d4 5c 74 3e a8 73 89 be
       -0.7530461 1.5498651 0.23863536 -0.2684605

bias f4 [200]
000000 6f a0 a5 bd d0 e2 fd bb 61 4a f8 be 31 46 cc bd
       -0.08087241 -0.0077479854 -0.48494247 -0.099743254
000010 3e c3 14 bf 9f a9 3b bf 90 26 be bd 82 de 0f bf
       -0.58110416 -0.73305696 -0.09284699 -0.56198895
000020 63 e6 e2 bd 95 e1 d1 be a7 7d 63 be 67 a1 04 be
       -0.11079099 -0.40992418 -0.22215901 -0.12952195
000030 87 e8 77 bd 30 12 31 be 07 31 a0 bd a6 f5 19 bb
       -0.06052449 -0.17292094 -0.07821851 -0.0023492365
000040 64 77 be 3b 36 1c 9e be e5 77 03 be 80 d9 6c be
       0.0058125723 -0.30880898 -0.12838705 -0.23129845
000050 b1 da ac 3e c7 69 22 bc cf 21 7d 3d 8c 0d f3 bc
       0.33760598 -0.009912915 0.06179982 -0.029669546
000060 50 aa 4e bf 2c f2 4c 3e f8 b0 6f be 82 af db bc
       -0.80728626 0.20014256 -0.23407352 -0.026817087
000070 c1 7e d3 bd 61 26 b3 be 49 ab c7 bd 33 ec 31 bf
       -0.10326911 -0.34990218 -0.09749467 -0.69501036
000080 03 3f b7 be 8e 60 92 be ed ff 58 bf 07 06 a3 bd
       -0.35790262 -0.2858929 -0.8476551 -0.07960134
000090 44 58 75 bd 3e 4d 17 bf 65 7f b8 bd 1f b7 fc bd
       -0.05989863 -0.5910224 -0.090086736 -0.12339615
0000a0 d7 5e a2 be 10 b0 a5 3d 53 99 80 be 94 6d 79 bd
       -0.31712982 0.08090222 -0.25116977 -0.060895517
0000b0 16 d1 90 bd 0a d0 5d bb e9 80 c0 be e2 2c d1 bd
       -0.0707113 -0.0033845925 -0.3759835 -0.10213639
0000c0 b3 e4 ee bd 5e 8b ce be de ea 10 bd 43 b0 56 bf
       -0.11664715 -0.40340704 -0.035380237 -0.83862704
0000d0 eb 8a 68 be 5e ba 96 bd 3c 47 6e bf 4a 23 84 be
       -0.22709243 -0.073597655 -0.93077445 -0.25808173
0000e0 9b 19 e4 be 4c 4e fc bd 33 d4 ce be 82 cc d2 be
       -0.44550785 -0.123196214 -0.4039627 -0.41171652
0000f0 c1 13 c4 bd f6 d7 c2 be ec 86 ef be a5 69 bd be
       -0.0957408 -0.3805539 -0.46782625 -0.36994663
000100 3e 67 70 3d b3 c8 62 be 5f cb 63 bd 88 44 bc bd
       0.05869221 -0.22146873 -0.05561387 -0.09192759
000110 79 a1 19 bf 92 cd 78 3d 6a 6e 69 be bc ef 10 bf
       -0.6001201 0.060742922 -0.22796026 -0.56615806
000120 f5 73 86 bd 65 52 03 be 48 66 bf bd a6 f9 22 bf
       -0.06565086 -0.128244 -0.093456805 -0.63662183
000130 ab 00 65 be 3d 4f 06 bd cc 32 72 bd 53 05 e8 be
       -0.22363536 -0.03279041 -0.059130475 -0.45316562
000140 98 9f 06 3e 78 34 1c 3f ef 26 bc be 01 93 7d be
       0.13146818 0.6101756 -0.36748454 -0.24763109
000150 e3 3d 63 be d6 d7 00 bf 90 bd 93 3d ef bf a6 bd
       -0.22191577 -0.5032934 0.072138906 -0.08142077
000160 5e ac 10 be 03 82 6d bd 0e 7b 1a 3d d7 45 cf be
       -0.14128253 -0.057985317 0.03771501 -0.4048297
000170 2d 29 0a bc d8 85 49 bd 88 8c 03 bf 43 ac e7 bd
       -0.008432669 -0.04919991 -0.5138631 -0.11312153
000180 de 4e 11 bd d6 89 9f bd 23 af 66 bd 72 24 db bd
       -0.035475604 -0.07789962 -0.056319367 -0.10700311
000190 2f 56 a8 bd 41 1a 45 bf 3c c2 f7 bd 9a bb d3 bd
       -0.08219563 -0.76993185 -0.12097594 -0.103385165
0001a0 c0 d3 bd bd 27 56 ab bc f6 4e 23 3f e4 d9 7b bd
       -0.09268904 -0.020915104 0.6379236 -0.061487094
0001b0 af b9 a6 bd 51 02 fd be ba 2a 58 bd 63 a8 e4 bc
       -0.08140885 -0.4941583 -0.052775122 -0.027912324
0001c0 b3 9c e1 bc d7 38 d3 be 99 ad 3a be 2b 7b dd be
       -0.02754054 -0.41254303 -0.18230285 -0.43258032
0001d0 7e f0 1a bf e8 b0 38 bd 52 f4 55 bd fa d2 56 be
       -0.6052321 -0.045090586 -0.052234955 -0.20978919
0001e0 05 84 0e be 71 14 cd be ac b2 f1 bd 01 f7 cd bd
       -0.13917549 -0.40054658 -0.11801657 -0.10056878
0001f0 af 10 a5 bd 94 73 f8 be ee 85 61 be 64 3e 57 be
       -0.08059823 -0.4852568 -0.22023746 -0.21019894
000200 80 79 b2 bd 5f 3b 1e 3e f4 83 fb be f8 5a 01 bf
       -0.087145805 0.15452336 -0.4912411 -0.5052943
000210 a7 80 f0 3d 78 73 36 be 87 41 83 be 1c ba 9b bd
       0.117432885 -0.17817485 -0.2563593 -0.07603857
000220 10 d2 cc be 53 f7 e1 bd 4e 82 d6 bd c2 fa dc bd
       -0.40004015 -0.110335015 -0.104740724 -0.10790016
000230 a7 cf 89 3e 89 3f 41 bd 4d e5 00 be 8f 91 a8 be
       0.2691624 -0.047179732 -0.12587471 -0.32923552
000240 a6 45 d9 bd dc a9 6e bf b2 47 07 bf 7d f1 85 bf
       -0.106089875 -0.93227935 -0.52843773 -1.0464321
000250 16 67 2a be 3c 5d 73 bd 42 8a 38 bf bb 26 e2 bd
       -0.16640887 -0.059415087 -0.72085965 -0.110425435
000260 f3 fe 37 be 5e cf 9f bd 77 ef 0a bb d4 53 f6 bb
       -0.17968349 -0.07803224 -0.002119986 -0.0075173173
000270 0c ee aa be 50 69 cf 3b 25 b2 ca be 90 c5 b0 bd
       -0.3338474 0.006329693 -0.39589038 -0.08631432
000280 1b 64 c7 bd 4b 2c 8d 3e 6f 52 b7 be c7 11 9e be
       -0.097358905 0.27572855 -0.3580508 -0.30872938
000290 f7 b9 30 bf 56 b8 11 bf 37 9a da be 81 39 00 bf
       -0.6903376 -0.569219 -0.42695782 -0.50087744
0002a0 3d 5a 47 3d 20 a1 dc bd c8 ab cd be 30 59 ab 3f
       0.048670042 -0.1077292 -0.4017012 1.3386593
0002b0 20 fc bc bd 5f 2d 01 be e9 ee cf be af 41 a1 bd
       -0.092277765 -0.12614964 -0.4061196 -0.07873856
0002c0 43 b4 d2 3e 25 30 9b be 2f 70 ac be e0 90 b8 bc
       0.41153154 -0.3031017 -0.3367934 -0.02253002
0002d0 c5 ad 06 bf 48 8f ed be 19 50 cb be 8c 91 1d bf
       -0.526089 -0.46398377 -0.39709547 -0.6155021
0002e0 06 67 86 3c 0e 36 18 bd 3f 0b 22 bf 3e ac b1 be
       0.016406547 -0.037160926 -0.6329841 -0.34701723
0002f0 89 ce 14 bf 03 ed ad bd 65 ed ca be bd 47 18 3f
       -0.5812765 -0.08492472 -0.39634243 0.59484464
000300 4f 85 6b 3d aa 11 de bd 60 ff b0 bd f0 7b 87 be
       0.05750018 -0.10843213 -0.08642459 -0.26461744
000310 bb 9d fd be f6 12 12 be 35 86 84 bd 7e 68 65 bd
       -0.495344 -0.14265046 -0.064709105 -0.056007855

weight f4 [1, 200]
000000 b4 49 f3 3c df b0 18 3e 15 be 61 3e 0c d1 fa 3b
       0.02969823 0.14911221 0.22045167 0.007654315
000010 6b 35 f0 bd 94 4d 23 3e 00 69 bb 3c 98 2d 82 3d
       -0.11728939 0.15947562 0.022877216 0.063563526
000020 88 bc c1 3c 6d 9a 3d be b2 32 31 be 8d ff 5c 3e
       0.023649469 -0.1851594 -0.17304495 0.2158186
000030 23 f6 4b be 52 e5 79 3e 0d e1 88 bc 83 3a b0 be
       -0.19918112 0.24403885 -0.016708875 -0.3441964
000040 42 de 69 be 0f f8 b2 be c6 b6 91 3c 93 6e 87 3d
       -0.22838691 -0.3495488 0.017787348 0.06612887
000050 0c 39 2a be 85 ad 85 bc 7c 87 1c bf ec 55 75 3c
       -0.16623324 -0.016318092 -0.6114423 0.014974099
000060 d8 ef cb be 9d b1 de 3e 7b fb e6 3d 2b aa 68 bc
       -0.39831424 0.43494883 0.11278435 -0.014200727
000070 b6 c4 9d 3e 5d 1b 3a bf 70 f7 bc bc 72 48 04 3e
       0.3081414 -0.72698003 -0.023067206 0.1291826
000080 ab 2b 57 bf b0 4b 22 3e eb 7b 7f be 73 50 f5 3a
       -0.8405101 0.15849185 -0.24949615 0.0018715992
000090 7e d5 12 bb 5a 9d 6d bd e1 99 a6 3e af 16 94 3d
       -0.0022405083 -0.05801139 0.32539275 0.07230889
0000a0 32 ab d0 bc dd a3 f8 be 20 18 49 3f 20 b2 c0 bb
       -0.025472257 -0.48562518 0.78552437 -0.005880609
0000b0 04 b3 02 3d 8e 19 23 bc 36 11 a4 bf 1b 96 69 3b
       0.031909004 -0.009954823 -1.2817752 0.0035642448
0000c0 98 4c bd bc 54 ef d2 3d d1 5b cb bb b4 a1 f6 be
       -0.023107812 0.102995545 -0.0062060137 -0.48170245
0000d0 b7 62 3e bd 6b 76 fa bf 5c 4d 98 be ff e2 5b bd
       -0.04648086 -1.9567388 -0.2974652 -0.053683277
0000e0 96 96 63 be e5 25 99 bd 8d 00 39 be 97 84 54 bf
       -0.22225413 -0.07477931 -0.18066616 -0.83014816
0000f0 3a e4 d0 3c af b4 ce 3e 73 46 d9 3e 9b 66 c6 be
       0.025499452 0.40372226 0.4243656 -0.38750157
000100 2f 0a 16 3e 05 16 98 be 9c 08 89 3d ef 7e 35 3c
       0.14652322 -0.297043 0.06691095 0.011077627
000110 88 4e 23 3e 2f 4f 8d 3d 7d 9a 23 bf a1 26 f3 3d
       0.15947926 0.06899869 -0.63907605 0.11872602
000120 78 5a b6 ba 26 57 96 bc 03 7b aa 3e 54 3f 53 be
       -0.001391246 -0.018352102 0.33296975 -0.20629627
000130 7e 1d 80 bf d6 17 99 bb 7c 03 83 bc 7c b5 8f bf
       -1.0009 -0.004672031 -0.015992872 -1.122726
000140 a7 62 cf be 98 c5 21 3d b9 c8 9c 3e 48 46 3a bf
       -0.40504953 0.03949508 0.3062189 -0.7276349
000150 8a 28 62 bf ca 9f 42 bf 3a 23 1d be 5a 59 57 bc
       -0.8834311 -0.7602507 -0.15345469 -0.013143862
000160 b2 30 5a 3b 68 a8 48 3d 30 2c 3d 3d de 50 47 bf
       0.0033293185 0.04898873 0.04618472 -0.7785777
000170 24 d5 81 bc 3d 4e cb 3e 3a e9 e7 be a2 59 55 3c
       -0.015848704 0.3970813 -0.45295125 0.013021858
000180 fd 6d 1d bd 1f 02 23 3c 6a 7b dc bc 57 74 2d 3c
       -0.03843497 0.009949236 -0.026914317 0.01058682
000190 53 cb e0 bb af bf be be c5 de 02 bc d8 64 8a bf
       -0.0068601756 -0.37255618 -0.007987683 -1.0812025
0001a0 f0 44 c7 3c 6d 3d 90 3b 4b b3 7b 3d 41 a6 4f 3c
       0.024324864 0.004401854 0.061450284 0.012673915
0001b0 1b df 61 3a e3 13 bb be bc 25 8f 3b 30 92 b7 3c
       0.0008616314 -0.3653861 0.004368512 0.022408575
0001c0 4a 30 68 3c 64 4b ac be 99 fa 8e 3e 47 97 3d be
       0.014171669 -0.33651268 0.27925566 -0.18514739
0001d0 09 34 de bd 73 7a ee bb 27 74 a6 bb a6 7b ab bf
       -0.10849769 -0.0072777807 -0.0050797644 -1.339711
0001e0 c7 57 be bd 55 09 11 bd 92 1b dd 3c 06 ae a0 bb
       -0.09294086 -0.03540929 0.026990686 -0.0049035577
0001f0 45 f1 1a bc c7 7a 34 bf 58 6a 7f be 4d 00 96 3e
       -0.009456937 -0.70499843 -0.2494291 0.29297104
000200 0b 4c 73 3c 31 44 e2 3d 8b 46 76 be 82 8e b1 be
       0.014849673 0.11048163 -0.24050348 -0.34679037
000210 79 ce 1b be 25 84 1b be 50 02 1b 3e 5a 18 de 3d
       -0.15215482 -0.15187128 0.15137601 0.108444884
000220 ee ca 04 bf 00 cd 3b 3c 81 ca 16 be d9 b6 56 bc
       -0.51872146 0.01146245 -0.14725687 -0.013105118
000230 2e dd ea 3d 92 a4 5b 3c 92 f4 d6 bc 98 ff 4d 3e
       0.11467968 0.013405936 -0.026239667 0.20117033
000240 74 b9 3a 3e 23 49 b6 3e 9a 35 ea be ce ee a6 be
       0.18234807 0.35602674 -0.4574402 -0.3260407
000250 45 22 17 bf 9f 2b b3 3c 7a c2 d8 3e 3b df 67 3e
       -0.59036666 0.021871386 0.42335874 0.2264375
000260 ac 52 81 bf 45 55 1b ba 87 93 97 3d 13 a1 ff 3c
       -1.0103354 -0.0005925487 0.074011855 0.031204736
000270 4c 0e 23 bf 15 6e 94 bc b6 56 68 3d 08 ad b5 3c
       -0.6369369 -0.018118897 0.05672332 0.022177234
000280 03 77 8a be 93 46 94 3d 67 81 83 be fb d6 c8 3e
       -0.27043924 0.072400235 -0.25684664 0.39226517
000290 61 df 02 bf 56 65 83 be 92 e6 ff be 5b 7b 04 be
       -0.511221 -0.2566325 -0.499806 -0.12937681
0002a0 e0 1d b7 3d 51 76 36 3e cb af a9 be 7d 7e 6f 3d
       0.08941245 0.17818572 -0.33141932 0.058470238
0002b0 01 5c 52 bd 7e 4f 36 3e 9d 44 9a bc bf 98 32 bc
       -0.051357273 0.17803761 -0.018831545 -0.010900675
0002c0 e3 c2 a9 3d 56 fe 3f 3e 08 60 46 be d1 44 d3 bd
       0.08289125 0.18749365 -0.1937257 -0.1031586
0002d0 a4 bd 07 bf 83 9c ad be fc 6f 0c bf 1f c8 eb 3d
       -0.53023744 -0.3390847 -0.54858375 0.115127794
0002e0 4a 3c be be 1d d8 90 bd a2 57 66 3e b1 02 c1 3d
       -0.37155372 -0.0707247 0.22494367 0.094243415
0002f0 a3 87 9a 3e cc a4 bd 3e d8 29 14 3e 76 63 6b 3d
       0.30181608 0.37039793 0.14469087 0.0574679
000300 8e 6a 90 3d 09 1d cd bc 92 cd 50 3c f0 58 50 bf
       0.07051574 -0.02503826 0.012744324 -0.8138571
000310 a2 02 69 3d f0 d5 cc 3e 14 6a 04 bd f1 4e f5 bf
       0.056887276 0.4000697 -0.032327726 -1.9164716

weight f4 [200, 15]
000000 aa 38 c1 3d 93 bb f5 3e 61 8d e0 3f ff 41 3d bf
       0.09434636 0.4799467 1.7543145 -0.7392883
000010 82 e4 b5 3e 49 d9 8a 3e ee d7 48 3e 39 73 fc 3e
       0.355259 0.271189 0.1961362 0.49306658
000020 74 4f cd be 91 69 19 bd a3 a7 25 bf 4d a5 b8 be
       -0.4009968 -0.03745419 -0.6470892 -0.36063614
000030 95 42 85 be 96 4a 9f be 39 14 32 be 94 d4 dc bc
       -0.2602736 -0.31111592 -0.17390527 -0.026956834
000040 35 9a 48 3c 28 7a 93 3f fb 12 cb 3e f8 94 81 3d
       0.012243797 1.1521654 0.39662918 0.06327242
000050 cb c0 f2 bb a1 3c 13 3d 1a 69 a4 3f d8 a0 fa 3d
       -0.0074082366 0.035946492 1.2844574 0.1223771
000060 a0 5f 13 bf f1 02 d7 3d ab b3 9e 3d 62 20 0b bd
       -0.5756779 0.10498608 0.07749113 -0.03396643
000070 5d b7 32 be c0 e1 02 3b 6c 10 47 3f b4 b8 d2 3e
       -0.1745276 0.0019970983 0.7775943 0.41156542
000080 01 17 16 3f f7 fe 1b 3e ac 5c 1a 3f 05 50 2f 3f
       0.5862885 0.1523398 0.60297656 0.68481475
000090 b3 4e 7b 3f 40 62 21 3e fa 7e bb 3c 35 13 d6 be
       0.9816696 0.15760136 0.022887696 -0.4181153
0000a0 88 45 ba 3e 89 8a 07 be 7b 97 7f bf 25 00 ec bf
       0.36381173 -0.1323644 -0.99840516 -1.8437544
0000b0 09 15 3d bf b9 6d 8f 3e 7c 05 50 3f 2c 0d b5 3f
       -0.7386022 0.280134 0.8125837 1.4144645
0000c0 b1 c5 19 bf 07 75 ae 3e 3d e7 59 3f 3b d9 1a be
       -0.6006728 0.3407366 0.85118467 -0.1512193
0000d0 30 a8 b5 bf 76 02 c9 3e 93 5f 77 bd 03 71 eb be
       -1.4191952 0.3925969 -0.06039388 -0.4598466
0000e0 ee 75 14 bd 81 1c 56 bf da 6a 47 be cc 61 2c be
       -0.03624528 -0.83637244 -0.19474354 -0.16834182
0000f0 80 d9 3b bf 70 6e 7a 3f 00 1d 50 be 91 7a 05 bf
       -0.73378754 0.97824764 -0.20323563 -0.52140146
000100 2f f7 3e 3d 2f fa 27 3e 56 3e 3f be d2 3b 6d 3e
       0.04662245 0.16404031 -0.18676123 0.23167351
000110 7b fa 1b 3f b6 39 28 3e 11 e7 12 bf c7 7c 19 bf
       0.6092908 0.16428265 -0.5738383 -0.5995602
000120 2f d9 13 bf 68 30 80 be db 95 10 3f 88 c2 b9 3e
       -0.5775327 -0.2503693 0.5647866 0.36281228
000130 ed 44 d2 3d 74 d9 62 3e 15 31 27 bf d1 1e e0 bd
       0.10267053 0.22153264 -0.6530927 -0.10943378
000140 27 f9 29 be 50 78 35 3d fd 3d 9a 3e e9 a6 2f c0
       -0.1659895 0.044304192 0.30125418 -2.7445624
000150 83 97 b1 3e 69 b6 49 3e 0c 3a 5c 3c ee 47 83 3e
       0.34685907 0.1969849 0.013441574 0.25640815
000160 da ef f8 3d 7c 87 24 3e fb 7a 42 bf b2 e6 34 3f
       0.12155123 0.16067308 -0.75968903 0.70664513
000170 b4 bc be 3f 7c 21 8f be 50 70 54 be a7 85 df 3d
       1.4901338 -0.27955234 -0.20745969 0.10914164
000180 ab b9 73 be d0 6d 57 3f dc 89 0e 3e 6c 01 78 3c
       -0.23801295 0.84151936 0.13919777 0.015137058
000190 3d 11 b8 bf 64 89 63 3f ad fd 1e 3f 0d 59 89 3f
       -1.4380261 0.88881516 0.6210583 1.0730301
0001a0 2f 4e aa 3e 87 a3 28 be cb 9d f5 3d 31 66 cf 3c
       0.33262774 -0.1646863 0.11992987 0.025317283
0001b0 e9 17 de bb d9 14 d8 3d d0 fe cd 3d 9b 23 fa 3c
       -0.0067777527 0.105508514 0.10058367 0.030534556
0001c0 23 ca ee bc 55 4e 12 3c 7e 60 99 be ca d7 63 3d
       -0.02914912 0.008929809 -0.2995643 0.055625714
0001d0 cd 8d 99 3d ee c0 91 be d2 0e 5c be 7d 65 14 3e
       0.074977495 -0.28467506 -0.21490029 0.1449184
0001e0 27 f5 92 be dd 10 d7 be 92 ff bd 3f 3c 55 be 3d
       -0.2870266 -0.42005053 1.4843619 0.09293601
0001f0 68 af 82 3f ac 92 57 3f 32 6c ab be 12 75 88 be
       1.020978 0.8420818 -0.33480984 -0.26651818
000200 3b cb 0e 3f 92 c3 2f 3e f6 ae 26 3e 72 b3 ad be
       0.55778855 0.17164448 0.1627768 -0.33925968
000210 88 81 f7 bd 3c d0 31 bf 2e 22 88 be e2 90 3e bd
       -0.12085253 -0.69458365 -0.26588577 -0.04652489
000220 f6 be eb bd 24 95 b1 3f 7b 2b dc 3e 3c 9c 4d be
       -0.11511032 1.3873639 0.43001923 -0.2007913
000230 3c 00 ae be b9 1b 96 be 31 22 61 3d 99 e9 8d 3f
       -0.33984554 -0.29318026 0.054964248 1.1086913
000240 4c 50 4e 3e 24 97 6d bf 1f 13 5d be 13 3b d0 be
       0.20147818 -0.9280875 -0.21589325 -0.4067007
000250 5d 37 34 3d cd 23 94 bd 57 79 49 3f df 05 7a 3f
       0.04399811 -0.07233391 0.78700775 0.9766521
000260 cf a5 33 3f 84 4c 69 be b5 04 4e be 1f 95 f0 3e
       0.7017488 -0.22783095 -0.20118983 0.4698877
000270 4a 09 42 3f af 7e 04 3f cd 20 aa be db 39 46 bf
       0.75795424 0.51755804 -0.3322815 -0.7743203
000280 14 38 ac 3e 8a 35 56 bf 17 62 79 3e 9f 70 68 bd
       0.33636534 -0.83675444 0.24353825 -0.05674803
000290 ba 51 46 be 43 8d 53 3f 9c 5e c4 bd 96 68 67 3f
       -0.19367114 0.82637423 -0.09588358 0.9039396
0002a0 5f ab 7e be e2 9a 61 bf 54 76 06 bf 75 f1 af bf
       -0.2487006 -0.8812696 -0.52524304 -1.3745562
0002b0 92 22 c6 bf 5f df 0d 3b 2a a4 86 3e d2 f4 89 be
       -1.54793 0.0021648032 0.26297122 -0.26944596
0002c0 ca 74 93 3e 20 56 7a 3e 00 42 81 3e 17 f3 0a 3f
       0.2880004 0.24446917 0.25245667 0.54277176
0002d0 1b c1 c5 3e 9a 65 19 bf bd be 67 bc b9 c4 b3 3e
       0.3862389 -0.59920657 -0.014144597 0.35111025
0002e0 f0 1c f2 bd 5a f8 ce 3e 0f b0 ce be 94 58 db be
       -0.11821926 0.40423852 -0.40368697 -0.42841017
0002f0 6c ee 1e c0 88 2e fb be b6 a4 fc be 02 a0 a7 3f
       -2.483302 -0.49058938 -0.49344414 1.3095706
000300 da fa 5f 3f ae 1b 87 3f c2 ef 64 be 7b 83 32 3e
       0.87492144 1.0555322 -0.22357085 0.17432968
000310 12 6b 9c 3f 79 6a 1d 3f 0e 08 dc 3e 95 af 09 3f
       1.2220175 0.6149059 0.42974895 0.5378354
000320 bc 18 d4 bd 7b 9d f9 3e 6a ca 1b bf df 63 ff be
       -0.1035628 0.4875296 -0.60855734 -0.49880883
000330 c6 33 a1 3e 35 f4 80 3f aa 39 a5 be 03 42 60 bd
       0.31484812 1.0074526 -0.32270557 -0.054750454
000340 04 1c 61 bd 0a bd 83 3e e8 d5 01 3f 50 8b 5c bf
       -0.05495836 0.25730163 0.5071702 -0.86150074
000350 9b 12 df 3e cd 04 4c 3e 5a 7a e6 3e 0f 16 a7 be
       0.43568882 0.19923706 0.45015222 -0.32634017
000360 6b ac b3 be dd b1 4e 3f c9 cc a7 be b5 81 84 bf
       -0.35092482 0.8074015 -0.32773426 -1.0352083
000370 5e 50 60 3f e9 17 15 bf 02 7a 68 bf 52 e6 03 bd
       0.8762263 -0.5823961 -0.9081117 -0.032202072
000380 ce 66 46 3f 18 9b 74 bf 3c d5 b5 bf 47 6a c2 3e
       0.7750062 -0.95549154 -1.4205699 0.37971708
000390 32 aa 7b 3e 0e 21 56 3e 29 29 99 be 47 be a9 3d
       0.24576643 0.20911047 -0.29914215 0.08288246
0003a0 49 94 68 3f 10 87 29 bf 69 79 fd 3d 90 85 8e bf
       0.90851265 -0.66221714 0.12376673 -1.113451
0003b0 0c 4e f0 be ee e1 3e be 41 0e 0e be 13 2a 51 3f
       -0.46934545 -0.18640873 -0.13872625 0.81704825
0003c0 c6 dd 9c bf e0 66 17 bf 67 bc 01 bf 22 af 87 3e
       -1.225518 -0.5914135 -0.50678104 0.26500803
0003d0 df fc 80 bf 49 e8 6c bf 1c bb 42 bf fe dd 02 3e
       -1.007717 -0.9254194 -0.76066756 0.12779996
0003e0 b8 1f 4d 3d aa 37 3a 3e 24 be 26 3f e0 6a 07 be
       0.050079077 0.18185297 0.6513388 -0.13224363
0003f0 71 d4 95 3d 6a 70 90 3d 0b fa 5d 3e 7c af f4 be
       0.073159106 0.07052691 0.21677415 -0.47790134

bias f4 [200]
000000 ea 7e 5f be eb d9 a7 3d 42 57 3f bf 44 32 3d be
       -0.21825758 0.081958614 -0.7474252 -0.18476206
000010 a4 2f fa be 1e 3e 1a 3e 4d 27 12 be d7 58 a3 be
       -0.48864472 0.15062758 -0.14272805 -0.31903717
000020 07 ed ff be a8 f7 16 bf c6 d8 1e bf 6d 1b be be
       -0.49985525 -0.58971643 -0.6204952 -0.371303
000030 96 9c 1c be 91 42 b5 bd 4e 90 ea be 62 99 c0 bd
       -0.15294108 -0.08850587 -0.4581322 -0.094042554
000040 cf 6c 02 3f 4b 77 28 3e 88 6f 23 3d 21 36 53 be
       0.5094728 0.16451757 0.039901286 -0.20626117
000050 64 2d 4a 3e 1a 7a 65 3d 03 36 2e bf 3c c7 a8 bc
       0.19743878 0.05602465 -0.68051165 -0.020602815
000060 13 43 80 3e e0 79 7e 3e 9e 85 46 be 3a cc 45 3c
       0.25051174 0.24851179 -0.19386908 0.012072617
000070 62 66 17 be 1e 1e c9 be 24 fb b5 be 30 91 d3 bd
       -0.1478515 -0.3928079 -0.35543168 -0.10330427
000080 9c 55 fc 3d d8 5c b3 be bd 27 25 3f 7f 0b bc be
       0.12321016 -0.35031772 0.6451376 -0.3672752
000090 9a 54 20 bf 77 b2 37 bf b0 c3 ef 3e 5e 9d f3 bd
       -0.6262909 -0.7175669 0.46828985 -0.1189525
0000a0 50 b3 c8 be 9f 92 a6 3e 91 36 78 3e d5 90 e6 3d
       -0.39199305 0.32533738 0.24239565 0.11258093
0000b0 90 c2 c8 3d b7 d0 53 3f 53 42 d0 bd 02 bf 9e be
       0.09802735 0.8274035 -0.101689 -0.31005102
0000c0 8f 97 6f bf 2c 13 54 3d 86 7d 02 3f f8 1a 6d bf
       -0.93590635 0.051776096 0.50972784 -0.92619276
0000d0 94 b0 4b be dd 15 88 be 8a cc aa bd ee fa 33 bc
       -0.19891578 -0.2657918 -0.08339794 -0.010985119
0000e0 48 ad 73 3e 1f e1 e1 3e da 9a 9e 3e 01 59 90 3e
       0.2379657 0.44117066 0.30977517 0.28192905
0000f0 2c b0 ca 3e 59 2e 29 3e 2a 23 12 bd 56 90 50 be
       0.39587533 0.16521586 -0.035678066 -0.2036756
000100 35 00 44 3e 03 6a 16 bf d5 08 10 bf 1f 8d 42 3e
       0.19140704 -0.5875551 -0.56263477 0.18999146
000110 70 74 de 3e 98 e2 db 3e c5 42 85 be ed 8f 46 bf
       0.4344821 0.42946315 -0.26027504 -0.77563363
000120 ce e7 02 bf d5 02 40 bc 7a 46 19 bf 04 e2 8c be
       -0.51134956 -0.011719425 -0.59873164 -0.27516186
000130 68 cd 8b 3e b7 af bf be d3 3f 06 3f 12 f6 95 3e
       0.2730515 -0.37438747 0.5244114 0.292893
000140 9b eb 0b bf ff 2d b0 3e 75 98 9c be e2 f0 e1 bc
       -0.5465638 0.34410092 -0.30585065 -0.027580682
000150 b5 d7 1c be 4d 2e 1d bf 54 11 6b bf 88 de 56 be
       -0.1531666 -0.61398774 -0.91823316 -0.20983326
000160 55 56 c4 be be c8 f4 3e d6 2f 95 be a7 3b 40 be
       -0.38347116 0.47809404 -0.29138058 -0.18772756
000170 28 62 0c be a3 16 92 be 1c 62 2c bd 60 ee b5 3e
       -0.13709319 -0.28532895 -0.042085752 0.35533428
000180 fa 79 c9 bd bc de 14 3f bd 9d 80 bf 3f f4 bd 3e
       -0.09837718 0.58152366 -1.0048138 0.37100407
000190 eb 26 27 3e 45 4f ed bd 4c 8b 88 3e fb 98 99 3e
       0.1632344 -0.11587385 0.26668775 0.29999527
0001a0 6c c8 34 3f c3 05 86 be 2b 9d 24 3e dd 73 92 bf
       0.7061832 -0.2617627 0.1607558 -1.1441609
0001b0 2f cc 11 bf ec 56 29 3e c8 df 13 be f4 17 f4 be
       -0.56952184 0.16537064 -0.14440835 -0.47674525
0001c0 09 4f 4a 3f 44 9e 0a 3f 6c dd ea 3e 77 a2 f5 be
       0.7902685 0.54147744 0.45872056 -0.47975513
0001d0 af 49 06 3f 7d 8c 44 bf 34 59 0c be 99 0d 3a bf
       0.5245618 -0.7677687 -0.13705903 -0.72677
0001e0 2d 1b 84 be 89 75 9a 3e 28 b8 e3 3d cb 4e 3e be
       -0.25801983 0.30167797 0.111191094 -0.18584745
0001f0 4c 21 17 be cd ee 84 3f 68 75 04 bf fd 4f 9b be
       -0.14758795 1.0385376 -0.5174165 -0.30334464
000200 03 72 eb 3e e7 31 db 3e 2d cb 8f be 77 48 7b be
       0.45985422 0.4281151 -0.28084698 -0.24539362
000210 bf 4b d0 bd 65 54 a0 3e da f8 9e be 39 c6 bb 3c
       -0.101706974 0.31314388 -0.31049234 0.022921668
000220 fa f9 04 bd 47 a2 ef 3d 34 31 0f be fe 37 09 bf
       -0.03246496 0.11700874 -0.13983613 -0.5360106
000230 b9 07 5c be ff 7f 4d be 50 e9 66 bd 65 a3 c5 bd
       -0.21487321 -0.20068358 -0.056374848 -0.09650306
000240 0d 08 39 be e0 cb 4e bf 47 a3 a2 be cc 90 21 bf
       -0.18069477 -0.8077984 -0.31765196 -0.6311157
000250 e0 72 ae bd 8f 06 1c bf a7 d2 81 bd 5d 9c bc be
       -0.085180044 -0.6094751 -0.06339007 -0.36838046
000260 5b bd 28 bd 61 89 96 3e e4 11 c6 be 18 d5 06 be
       -0.04119621 0.29401687 -0.38685524 -0.13167226
000270 ca 1a ac be 04 f7 a2 3d 07 90 1d bf 7c 72 19 bf
       -0.33614188 0.07957271 -0.61547893 -0.59940314
000280 c9 56 a2 bd 00 3f 23 bc f4 a3 0c 3e 3d 99 32 bf
       -0.07926709 -0.009963751 0.13734418 -0.69765073
000290 ff 36 e5 3e e0 86 37 be d4 bc c4 3d d1 26 4b be
       0.4476852 -0.17922544 0.096063286 -0.19839026
0002a0 bf e7 d3 be 6d 78 90 bf aa 15 ae be 5f 15 12 3d
       -0.41387746 -1.1286751 -0.34000903 0.035664912
0002b0 02 fb 60 3d cb b0 12 3e 10 33 be 3e e2 db 57 be
       0.05492688 0.14325254 0.37148333 -0.21079972
0002c0 a5 e2 52 3e 0d ce d6 3e fa 2a 65 3f 42 3b ac 3e
       0.2059427 0.4195408 0.895187 0.3363896
0002d0 6d 27 ec be 3e af 8a bf 09 b1 ad be b5 36 32 be
       -0.4612383 -1.083473 -0.3392413 -0.17403682
0002e0 43 58 a5 bb b0 26 91 bd 08 9f 44 3d 1c 04 93 3d
       -0.005045922 -0.07087457 0.048003227 0.07178518
0002f0 27 26 2b bf c6 f6 ad bc 1d 5c a7 3e 03 f7 06 bd
       -0.6685509 -0.021235835 0.32687464 -0.032950412
000300 6c af 7d be 20 fe 56 3e 7d ce ae 3c b7 ad 4f 3e
       -0.2477395 0.20995378 0.021338696 0.2028111
000310 c4 bb 73 be 0a ae 38 bf e9 1f d2 be 2e 78 d9 be
       -0.23802096 -0.7214056 -0.4103997 -0.42474502

weight f4 [200, 200]
000000 ea 7f 55 bc 76 19 2c 3d 3d ea 81 bc af 03 23 bd
       -0.013030985 0.04201647 -0.015858764 -0.039798435
000010 4a e4 e3 3c c6 ae 23 3c bd 56 0b bc 96 23 42 bd
       0.027818818 0.0099904 -0.008504567 -0.04739722
000020 25 3a 33 bd f7 5e 6f bd e0 17 48 3d b1 33 4d bd
       -0.043756623 -0.058440175 0.048850894 -0.050098125
000030 73 44 77 3d f9 c7 61 3c c8 ed be bd a7 3c a9 bd
       0.060368013 0.013780587 -0.09322697 -0.08263522
000040 bd 99 84 bd 1a 97 d4 bd 49 40 44 bc 4d f3 9f 3c
       -0.06474636 -0.10380383 -0.011978217 0.019525195
000050 9b ff 60 bd c5 05 89 bb 60 bd 35 bd fc 7a 78 3d
       -0.054931264 -0.004181596 -0.044370055 0.060664162
000060 52 38 53 bd e6 10 29 3d 73 a4 e7 3a 7a b8 3f bd
       -0.051567383 0.04127588 0.0017672911 -0.04680679
000070 b5 ec 8e bd 3b 81 6d bd c2 77 5d bc 30 d1 ef 3c
       -0.06978742 -0.057984572 -0.013517322 0.029274553
000080 ed d0 86 bc bb e5 00 3d 1e 97 9f bb ee e1 98 bd
       -0.016457045 0.031469088 -0.0048703095 -0.07464968
000090 7c f3 0c 3c 51 88 4e bd cf 62 35 3d 10 7e cb 3c
       0.008602973 -0.05042297 0.044283684 0.024840385
0000a0 9c c9 3f bd bc 6a 77 bd b4 f4 7c bd ac 83 7d bd
       -0.04682313 -0.060404524 -0.061756805 -0.06189315
0000b0 b9 5d 43 bc e1 80 c3 bd 41 af 65 3c a7 17 19 3d
       -0.011924201 -0.09546066 0.014018835 0.037376072
0000c0 65 6e 8f bc c9 21 c7 bd 0e 35 94 bd b3 e2 e6 ba
       -0.017508695 -0.09723241 -0.07236682 -0.0017615169
0000d0 66 09 7f bc 67 b8 24 bd 42 d3 d4 bc 76 16 00 3c
       -0.015566206 -0.040214922 -0.025979642 0.007817855
0000e0 07 4d ac bc 3d 74 78 bd a1 c7 cb bc f0 07 4d 3b
       -0.021032823 -0.06065773 -0.024875464 0.0031285249
0000f0 55 59 8c bc 7d 8e 89 bc 39 06 dc 3c 45 0d cc bc
       -0.01713244 -0.016791577 0.026858436 -0.024908671
000100 6a 84 e7 3c f1 24 5d 3c b1 11 c2 bc df ac 2b bd
       0.028261382 0.013497577 -0.023690077 -0.04191291
000110 7f 72 af bd c7 bc a9 bd 9e ac 91 bd 1d 3c 11 3b
       -0.0856676 -0.082879595 -0.07113002 0.0022161074
000120 f8 4c 32 3d b3 1f e1 bd 07 a3 a6 ba 0d f3 ac 3c
       0.043530434 -0.10992374 -0.0012713381 0.02111199
000130 a0 9e bd bd 91 1a 40 3d 51 d3 ce ba 19 1c 5c 3c
       -0.09258771 0.046900336 -0.001577953 0.013434433
000140 5e 9d 9f 3c f4 2c 7d bd dc 8b ed bc 97 a9 a1 bd
       0.019484218 -0.06181045 -0.028997354 -0.07893675
000150 52 c5 e1 3c 21 fc d5 3b 14 4b 90 bd 7d 82 0b bd
       0.02755991 0.0065303002 -0.0704557 -0.03405999
000160 92 c5 b3 3c 35 80 62 3c c7 35 77 bb 69 7c c7 bd
       0.021944795 0.013824512 -0.0037721263 -0.09740526
000170 0e d7 12 bd 0d e6 83 bd fd e3 1a 3d c2 55 8a 3d
       -0.035849623 -0.06440363 0.037815083 0.06754638
000180 5c d1 f5 bc 14 34 74 bd cc d5 2a 3d 69 df dc 3c
       -0.030007057 -0.059619978 0.0417078 0.026961999
000190 bb 23 ee bb 45 bd 92 3c 1d e8 85 bd f6 97 19 bd
       -0.007267443 0.017912516 -0.06538413 -0.037498437
0001a0 5f 2d a1 bd 3c 58 78 bd b0 e5 c0 3c f4 a6 71 bb
       -0.07869982 -0.06063102 0.023547024 -0.0036873193
0001b0 30 33 cb 3c 65 03 0c be 2a bb ca bc bd 76 da bc
       0.024804682 -0.1367317 -0.02474745 -0.026667947
0001c0 6d 15 1f 3c d8 a1 b4 bd 75 35 86 bd 33 4e 15 bd
       0.009709698 -0.08819932 -0.06553165 -0.03645153
0001d0 a9 cd c7 bd 79 da 42 bd 0f 81 b1 3c ce 48 98 bc
       -0.097560234 -0.047571633 0.021667985 -0.018589403
0001e0 e9 66 c1 3b 4c 6c 77 bc 00 ad 38 bc ef d6 4c bd
       0.0059021604 -0.015101504 -0.011271715 -0.050009664
0001f0 1a 0e 68 3d e6 fb 9f bd d7 86 ac bd 76 57 91 bd
       0.056654073 -0.07811718 -0.08424156 -0.0709676
000200 b9 10 54 3c c7 3a ae bd e7 72 21 bd ad 7a 0b bc
       0.01294344 -0.08507305 -0.03941622 -0.008513135
000210 6b e0 4c bd af d8 83 bc 00 a3 42 3d dc 2e 0e 3d
       -0.05001871 -0.016094534 0.04751873 0.034712657
000220 62 52 d1 bd 61 16 c6 bc 38 af 44 3d c7 a4 2d bd
       -0.102207914 -0.024180593 0.048018664 -0.042393472
000230 42 5b 68 3c 1d 61 0f bd 19 9c 4f bd ab 90 7f 3c
       0.014181914 -0.035004724 -0.050685976 0.015598456
000240 dd 00 05 bd 0b 7f 55 bd 98 52 3c bd 8b 9a 68 bc
       -0.032471526 -0.05212311 -0.045977205 -0.014197002
000250 66 d9 12 bd b2 c6 5a 3b 9a 7e d6 bd ee e0 94 bd
       -0.03585186 0.0033382592 -0.10473366 -0.072694644
000260 2d 28 86 bc f2 76 8a 3d 6e 9c 95 bd c2 c8 dc bd
       -0.01637658 0.06760968 -0.07305227 -0.10780479
000270 75 3a 04 bd 62 91 53 bd 21 43 5f 38 e0 e1 37 bd
       -0.03228231 -0.05165232 5.322986e-05 -0.044893146
000280 8e bd 10 bd ba 8c d0 bd 96 21 27 3d b7 fc 35 3d
       -0.035337023 -0.101830915 0.040803514 0.04443046
000290 06 d6 91 bc bd a7 8a bd 66 df 91 bd 00 04 9d bc
       -0.01780225 -0.06770275 -0.07122688 -0.019166946
0002a0 df 02 a4 3c 2c 58 d1 bc e5 d4 00 bd 8b 30 69 bd
       0.0200209 -0.025554739 -0.031453032 -0.05693106
0002b0 0f e3 a9 bd 2b ed e1 bc fe 0a 21 3c 5c dd 8c 3c
       -0.08295261 -0.02757891 0.009829281 0.017195396
0002c0 ff 01 06 3a 3e 8d 9d bd e8 fa b4 bd cf e1 a4 bd
       0.0005111992 -0.076929554 -0.08836919 -0.08050882
0002d0 ba a8 78 3c 28 01 88 bd 2c 6f f6 bc 6a 3f 47 bd
       0.015176946 -0.066408455 -0.030082308 -0.04864446
0002e0 e4 23 9d 3c cb 26 62 bc 9f 87 7b bc 8f 3f a5 bd
       0.019182153 -0.013803194 -0.015352159 -0.080687635
0002f0 b5 0a 8a bd 95 e3 8f bd f4 fe 8c 3c e5 72 08 bd
       -0.067403235 -0.0702583 0.017211415 -0.033312697
000300 83 42 70 bd 7a 18 5a bc ea 35 d9 bc bd 4d ce 3c
       -0.05865718 -0.0133115 -0.026514966 0.025183553
000310 36 6a e8 bc b8 6d 38 bc 5f f8 ad bd 06 3a 9b bc
       -0.028370958 -0.011256628 -0.08494639 -0.018948566
000320 cd 75 1d 3c c4 13 0f 3b 8e fc ab bd 89 a5 c9 bd
       0.009610605 0.002183185 -0.0839778 -0.098460265
000330 49 c3 43 bd cb 21 0c bd 37 3e a9 bd 4e 99 15 bd
       -0.04779366 -0.034211915 -0.0826382 -0.036523156
000340 ce 92 14 bd f4 41 06 3c 47 8d 7c bd cf 46 a9 bb
       -0.036272816 0.008194435 -0.06165817 -0.0051659117
000350 65 45 01 bd 6a 09 d6 bc 8d c1 67 bc 6a f0 d5 bb
       -0.03156032 -0.026127536 -0.014145267 -0.0065289037
000360 d2 6a 55 bd e8 aa 39 bb 66 fa 99 bd 0c 58 71 bd
       -0.052103825 -0.0028330628 -0.07518463 -0.05892186
000370 3e cf 66 bd ae 70 95 bb ad 25 15 3d f2 98 52 bc
       -0.056349985 -0.0045605516 0.036412884 -0.012853848
000380 4b a4 76 3c be fd 9d bd 22 1c 59 bc 18 b5 4f 3c
       0.015053819 -0.07714413 -0.013251336 0.012677453
000390 0f d9 76 3d 16 78 86 3d fd 60 1b bc 3b 20 80 bd
       0.060265597 0.06565873 -0.009483573 -0.062561475
0003a0 87 4a 22 bc 73 7d 50 3d 05 a1 1e 3d 5c af 03 3d
       -0.009905464 0.050900888 0.03872778 0.032149658
0003b0 07 51 a3 bd 63 15 70 bd cb 1b 40 bd 53 a2 eb bc
       -0.07974439 -0.058614146 -0.046901505 -0.028763926
0003c0 32 e3 68 bd f8 45 c8 3c 47 e6 b9 3c 3d 48 b1 bb
       -0.056857295 0.024447426 0.022692813 -0.005410223
0003d0 79 77 df 3c d8 77 bb bc fa e8 53 bd 87 56 20 3d
       0.027278649 -0.022884294 -0.051735856 0.03914502
0003e0 66 e6 94 bd 7c 30 08 3c de 1e 85 bd 22 9f 58 bd
       -0.072705075 0.008312341 -0.06500028 -0.052886136
0003f0 70 5e b0 bc 06 0a 9a bd 32 d7 6a 3b 87 4b a6 bd
       -0.021529406 -0.07521443 0.0035833833 -0.081198744
