Vehicles/ModRepeat_forest_6/ModRepeat_forest_6_critic.pth (torch, 353495 bytes, 10 tensors)

weight f4 [200, 15]
00000000: 8955 a8be da8e 9cbe bc4e 0f3f e678 b53d
00000010: 95bb 03bd 50f1 d2bd f663 42bf 3a40 173f
00000020: cd97 f4bc 2cfe 1fbd e334 bfbf 38da 923f
00000030: 6d7a b33f 40d7 0c3f 12c7 4c3f f6f3 dc3e
00000040: ed6e 0940 7623 463f cb40 47bf d1dc 95be
00000050: 8b1b 14bf 2e58 17bf 8613 8fbd 8536 62bd
00000060: a0bc f83e ab3b 51bf 5fd7 9abf 2693 d3be
00000070: 0aa6 b2bf e3e5 01bf 1a2a 44bf 9f17 4bbe
00000080: 6c5c f3bd c407 cc3e ed05 4fbf d42f 3c3e
00000090: 9cfe 883f 5076 44bf 5121 84be 828a adbe
000000a0: 6c4e ecbe 5a0c 3dbe 49b5 a63f bd0c 4f3f
000000b0: 11f5 093d ae8d 9f3e 8635 84bf afe4 50bf
000000c0: a8b0 1cbf 8b4a 3bbf 3530 6cbe 48d8 21c0
000000d0: 94a6 7bc0 46c2 7dc0 aa51 55bd e831 513e
000000e0: 89eb f03c 4dd7 983b 4f47 3a3d b0d7 7bbd
000000f0: 02e4 73be d40a 7bbd f8b6 a53e 6b80 39bf
00000100: 95be 873d 29e8 dcbd c882 3a3d 2fdf 953f
00000110: 54d5 29bd 055a 1bbd 56d9 9fbc a033 adbf
00000120: a6ea e0be 9d2a f53e e21f 84bf ff0c c2bd
00000130: 6071 273c 8e1d 153f 7e53 9b3e b758 103e
00000140: 733c 4cbd b629 b1bd 33e5 633d 233e 693f
00000150: df26 b3bf b0ca 983e 70dc 453f d6bf cebd
00000160: 59e9 a73e 75fe e23d 8f85 60bf 8dc6 74bf
00000170: e4a5 7a3c 8d8a 10bf a515 0cbe 8ab2 35bf
00000180: f79c 35bf 20aa 053f 33ab a53e 5090 093f
00000190: 7e8d 0ebf 9cee 31bf cd4c 043f 56e3 1b3f
000001a0: dc96 76bf efbf 01bf 9f92 5abf b05f ad3e
000001b0: b806 c7bd 836a 053d 6f4b 46be f3ed 6fbe
000001c0: 1700 65bf 47fc 9abf fa64 16be 9466 d83f
000001d0: 1389 d73e 9bbc cf3e 366a 143d c4f4 1abf
000001e0: 3038 b43e 2455 8b3e 24e3 843e f7d8 a3be
000001f0: ec3f 323e f5cb a7be 9b8b 563e a239 a9be
00000200: 1242 83be 5fa7 56bf 7502 99be 6e91 b1be
00000210: c7c8 2c3f c37d 55bd af3a 6abf e7e4 c0bd
00000220: 87e4 793e 419c f4be d66c 95be 68ff 22bf
00000230: e57c 2a3e 9944 18be ab1d cfbd a1d9 303e
00000240: 762b 723f 0b80 88bf 1c93 66bf 3c0e 37bf
00000250: be4a 98bf 60ac 1b3f 5db4 043f 4831 f6be
00000260: c0da d53e e3f0 d6be f63f 8ebe 1bbc 2fbe
00000270: bcf7 393f b179 123f bc03 d33e 26c8 3fbf
00000280: 9bb9 c4be 28e1 113d bf32 ed3e 4639 9a3e
00000290: 733d e1be 67da 51be aa55 77bf 3734 43be
000002a0: 418b 383f 727e afbe dd0d 563f 3a72 d63e
000002b0: 2edd 603e 90fc 9cbf 3e76 90c0 3e76 ddbe
000002c0: 0dab c3bf cf6f 4f3e 4c25 843e 4eb8 a4bf
000002d0: eef2 8bbc ad84 46bd d2ac bd3d 14d1 e9bd
000002e0: b54c 2b3e 16fa 243e 3bf3 31be cbd3 86be
000002f0: 8349 64be 7759 2f3d ea65 82be 3ec7 22be
00000300: 4ac0 08be 1108 a43d 080e 64bd 46e8 53bf
00000310: 27d1 3ebe c03e c33e 9c4e 45bf 3e17 7b3f
00000320: 8076 163f a480 2a3f a8ce d2bd 5eb0 c9bf
00000330: 9338 e8bd 53af 22bf cc77 193e 0da8 e7be
00000340: 0a14 f83d aada 07be 6501 bdbf a6bc b53e
00000350: 371c 4bbe 1134 2b3f 2d57 1a3f 8085 953e
00000360: 28b7 1c3e 9d87 943e 6777 fd3d cf62 ef3e
00000370: 6d11 073f 65ea 163f 5838 e4bd 8e08 80bd
00000380: 3982 36bd 6dff b9bf efd1 3c3f 204c 63be
00000390: c6f7 1abf 1c99 043e 0272 6e3f 09b0 c93e
000003a0: d260 15c0 e258 49c0 977a b3ba ef77 20be
000003b0: 2121 a13e beee 8ebe 42d4 e23d ea36 5d3e
000003c0: 05b9 1f3f 6082 6f3f 2c07 0ebf 20e4 00bf
000003d0: 6d0b 4ebf d683 a8bf 84bb 1cbe 0ee0 e6bd
000003e0: 9890 09c0 708b 883e dc2d 18be 144d 613e
000003f0: 9570 c3bc 2c93 7fbe da74 6cbe 5897 36be
-0.32877758 -0.30577737 0.55979514 0.0886095 -0.032161314 -0.10299933 -0.7593378 0.59082377
-0.02985754 -0.039060757 -1.4938015 1.1472845 1.4021736 0.55015945 0.7999126 0.43154877
2.1473954 0.7739786 -0.7783324 -0.29270032 -0.5785453 -0.59118927 -0.06986146 -0.055227775
0.4858141 -0.8173167 -1.2096976 -0.41323203 -1.3956921 -0.50741404 -0.7662674 -0.1983323
-0.118828624 0.39849675 -0.8086842 0.1837762 1.0702701 -0.7674303 -0.25806668 -0.33894736
-0.4615358 -0.18461743 1.3024074 0.8087881 0.03368098 0.3116278 -1.0328834 -0.81598943
-0.61207056 -0.7316062 -0.23065265 -2.5288258 -3.9320421 -3.9649825 -0.052079834 0.20429194
0.029409187 0.0046643377 0.04547816 -0.061484993 -0.23817447 -0.061289623 0.32366157 -0.72461575
0.066281475 -0.107864685 0.04553488 1.1708735 -0.04146321 -0.037927646 -0.019512814 -1.353138
-0.43929023 0.47884074 -1.032223 -0.09475135 0.010219902 0.5824822 0.30337137 0.14096342
-0.049862336 -0.08650534 0.055638503 0.9111044 -1.3996238 0.29842138 0.77289486 -0.100951836
0.32795218 0.1108369 -0.87703794 -0.95615464 0.0152983405 -0.5646141 -0.13680132 -0.70975554
-0.70942634 0.52212715 0.32357177 0.5373583 -0.5568465 -0.69504714 0.5167969 0.6089376
-0.96323943 -0.5068349 -0.85379976 0.33862066 -0.097180784 0.03257228 -0.19364713 -0.23430614
-0.8945326 -1.2108239 -0.14686957 1.6906304 0.42096767 0.40573582 0.036234103 -0.6052973
0.35199118 0.27213395 0.25954545 -0.3200147 0.17407197 -0.32772794 0.20951693 -0.33051783
-0.25636345 -0.8384914 -0.29884687 -0.34681267 0.6749386 -0.05212189 -0.91495794 -0.0941866
0.24403583 -0.47775462 -0.29184598 -0.6367097 0.16649206 -0.14869918 -0.101130806 0.17270519
0.94597566 -1.0664076 -0.9006822 -0.71506095 -1.189781 0.608099 0.5183771 -0.48084474
0.41768456 -0.41980657 -0.27783173 -0.171616 0.7264364 0.57216936 0.41213787 -0.7491478
-0.38422856 0.035615116 0.4632778 0.3012182 -0.43992195 -0.2049347 -0.9661509 -0.19062887
0.72087485 -0.34276158 0.83614904 0.41884023 0.21959373 -1.2264576 -4.514434 -0.43254274
-1.5286576 0.20257495 0.25809705 -1.2868745 -0.017083611 -0.048466373 0.092614785 -0.114168316
0.1672848 0.16111025 -0.17377941 -0.2633346 -0.22293667 0.04280993 -0.2546838 -0.15896317
-0.13354602 0.08009351 -0.055677444 -0.82776296 -0.18634473 0.38133812 -0.77073073 0.9808234
0.58774567 0.6660254 -0.10293323 -1.5756948 -0.11338916 -0.63548774 0.14987105 -0.452454
0.12113197 -0.13267007 -1.476605 0.3549549 -0.19834982 0.6687632 0.6028927 0.29203415
0.15304244 0.29009715 0.1237629 0.46755072 0.52760965 0.5895141 -0.11143559 -0.06251632
-0.044557784 -1.4531075 0.73757833 -0.22197008 -0.6053432 0.12949032 0.9314271 0.39392117
-2.3340344 -3.14605 -0.0013693151 -0.15670751 0.31470588 -0.2791652 0.11075641 0.2160298
0.6239169 0.9355831 -0.55479693 -0.5034809 -0.80486184 -1.3165233 -0.15305907 -0.11273204
-2.1494503 0.26668882 -0.14861244 0.22002059 -0.023857394 -0.24958485 -0.2309145 -0.1783117

bias f4 [200]
00000000: 0e65 c7be 8a14 a6be 56ed a03e 765b ca3d
00000010: 62f7 cd3d 63a8 64bf 0144 1e3e cdc2 e2be
00000020: 5671 5e3d 3b27 ccbe 66ec 83bf c444 2c3e
00000030: d8f1 85be 76e1 163e 0766 f1bd 23ec 09be
00000040: 57ba b33e 933f aabd e48b d4bc 2c21 3abe
00000050: 0952 84be 96e4 9cbe 7985 c1bd 2fdd acbb
00000060: 09ff f3be 3214 f8bd bb7a 04bf 9576 06be
00000070: cb06 e83d e720 06be 2c48 943d 2ea6 63be
00000080: bff1 453e 2d69 c93e 603c 90be 31f5 aebf
00000090: 916b a1be d2b1 803e 31a2 26be e995 92bd
000000a0: f8ff 0bbf 7827 473f fa1e 36bf 797e e0bd
000000b0: bcd1 7ebe 290e abbe fcb1 233e 33fe 75be
000000c0: bdd8 56be 10ba aabe 15cc 413e e9ea 93bf
000000d0: 58b0 153e 8de9 c43e cda7 a0be 0a32 be3e
000000e0: 0df6 0fbf 0c15 04be 367c 56be 6a69 653e
000000f0: 908f 4cbf f82b 583e f5a6 ccbe 282c f53c
00000100: dcaf 1ebe eaa6 c53e 27e3 8dbd 1c78 a1be
00000110: 5a78 bb3e f502 07be f328 913e d8cb e73d
00000120: 17be 60be 412c 393f db8c 2b3e f0ee 85be
00000130: de9b 73be 0943 863c 3ca3 23bf 1446 b6be
00000140: 7b99 ccbe e69e 35be 24f0 60bd a16d ecbe
00000150: 6e8d 9e3e ec3f 123e a440 e0be 5792 acbe
00000160: 8fbe 5cbe f4d2 87bf 5ba4 b5be 7f5b b2be
00000170: fc02 f33d 7d4a fdbe 9d08 ebbe 5d97 88be
00000180: 2a56 febe 38d8 dcbe 9d09 f9be 9e40 cc3e
00000190: 548a 8a3e c836 a03d 0117 8e3e 38d5 06bf
000001a0: 66d6 b83e 60c6 963d 5fbb 2a3f 7eb7 323f
000001b0: 0ec9 b4be e3ba 3ebe 8f87 3cbe 56f9 89be
000001c0: 3b3c 97be a72b 67be e6d2 50be 7e5b 813e
000001d0: a9d4 803e e5bd 2a3e e986 c5be 3494 5abc
000001e0: 8df5 a8be fb9b eebd 7020 cbbe 5a1c 183e
000001f0: 239e 81bf f971 3a3d f5d3 ebbd a6c8 96be
00000200: d84b 01bf 52e6 813e a225 b13e a1ab e6be
00000210: 9b9f 1e3f c788 2f3e af1d 7b3e 1781 d4be
00000220: 7193 b4bd 27ed cabe 6d78 e73d 1e3b ff3d
00000230: e9b3 0d3d 41c6 cb3d e422 023f 3c85 a53e
00000240: 81a0 59be f096 8f3e c03e 91bd ebc9 6dbd
00000250: e738 10bf 788d c1be 6029 64bf 87f1 08bf
00000260: 9976 a3be ac16 1b3e 7f0c 133e b414 5fbf
00000270: 0d5d aa3e 79bd db3e c380 ad3d 5cca 85be
00000280: bb8c ffbe d3cb 21bf a25b d83b 9b7a 88bf
00000290: d52a 06bf 0ff8 34bf 0d69 85bd ff67 0abf
000002a0: 2d4d 08bf 7a27 9dbe aea8 27bd 2799 f83e
000002b0: 1173 23bf 7847 bcbc 2212 f53c 22e1 e13e
000002c0: e68c 58bf b3e3 fa3e a10b 6dbe 7c4a 64be
000002d0: 68af afbd 1dcf b1bd 6d2e 963e 8a70 6fbf
000002e0: 3cce 1dbe f1d7 d3bd 531e 823e 7170 5f3e
000002f0: 32be 8d3d cc20 80bf 1110 5dbe 70fe 253e
00000300: bec7 54be 082c 4ebf 4e6a 82be de3e 5a3d
00000310: fa83 a6be 7946 e23d 68f6 aebe da56 84bb
-0.38944286 -0.32437545 0.31431073 0.09880726 0.1005695 -0.8931944 0.15455629 -0.44289246
0.054307304 -0.3987368 -1.0306518 0.16823107 -0.26161075 0.14734444 -0.11787038 -0.13468985
0.35103104 -0.08312907 -0.025945611 -0.18176717 -0.25843838 -0.30643147 -0.09449286 -0.0052753906
-0.47655514 -0.12113227 -0.5174977 -0.13131173 0.11329421 -0.13098489 0.07240328 -0.22231361
0.193305 0.39338055 -0.28171062 -1.3668576 -0.3152738 0.25135666 -0.16272809 -0.07157499
-0.5468745 0.777946 -0.71141016 -0.10961623 -0.24884695 -0.3340924 0.15985864 -0.2402275
-0.20981117 -0.3334508 0.18925507 -1.1556064 0.14618051 0.38459435 -0.31378022 0.37147552
-0.5623482 -0.12898654 -0.2094582 0.22403494 -0.7990656 0.21110523 -0.39971128 0.029928282
-0.15496773 0.38603908 -0.069280915 -0.3153695 0.36615258 -0.13184722 0.28351554 0.11318177
-0.21947514 0.7233315 0.16752951 -0.26158857 -0.23789927 0.016389387 -0.6392095 -0.3560034
-0.39960846 -0.17736396 -0.054916516 -0.4617739 0.30967277 0.14282197 -0.43799317 -0.33705398
-0.21557067 -1.0611253 -0.35476956 -0.3483543 0.118658036 -0.49470893 -0.4590501 -0.2667798
-0.49675113 -0.43133712 -0.48640147 0.3989305 0.2705866 0.07822949 0.27751926 -0.52669096
0.36101073 0.07362056 0.66692156 0.69811237 -0.35309643 -0.18625979 -0.18411086 -0.2694804
-0.2953814 -0.22575246 -0.20392951 0.25265115 0.25162247 0.16674002 -0.3857949 -0.013340998
-0.3299984 -0.11650845 -0.39673185 0.14854565 -1.0126384 0.04551885 -0.11515037 -0.29449958
-0.50506353 0.25371033 0.34599024 -0.45052817 0.6196229 0.1714202 0.24523042 -0.41504738
-0.08817185 -0.39634058 0.11302266 0.124624476 0.034595404 0.09949923 0.5083449 0.32328212
-0.21252634 0.28044844 -0.07092047 -0.058053892 -0.56336826 -0.37803245 -0.89125633 -0.5349354
-0.3192642 0.15145367 0.14360236 -0.87140965 0.33274117 0.42917994 0.08471825 -0.2613095
-0.49912056 -0.63201636 0.0066027204 -1.0662416 -0.52409106 -0.7069101 -0.065141775 -0.54064935
-0.5324276 -0.3069418 -0.04093235 0.48554346 -0.6384745 -0.022983298 0.029915873 0.44117075
-0.84589994 0.49001846 -0.23148967 -0.22294039 -0.08578378 -0.08682082 0.29332295 -0.93531096
-0.15410703 -0.10343922 0.2541376 0.21820237 0.069210425 -1.0010009 -0.2158816 0.16210341
-0.2077932 -0.80535936 -0.2547173 0.05328261 -0.32522565 0.11048598 -0.34172368 -0.004038674

weight f4 [200, 200]
00000000: e4e1 a8bc 2735 dfbc 2f06 6b3c aa84 eb3c
00000010: 0c20 0e3c 7cef 633d 645f 02bd 14ce 8a3d
00000020: 4f4b 113d 238f 83bc d562 70bc eff4 163d
00000030: 5789 8fbd c05c 6ebd 2cb7 80bd 8503 093d
00000040: 440b 88bd 5960 ce3c 11e2 54bd 8e35 343b
00000050: f2b5 d3bc b0a7 aa3d 90e7 65bd a625 0cbd
00000060: a751 b83c dbe2 5ebd 89fa e63b 9da3 aabb
00000070: 6b0e 633c c392 963c 6019 2dbc fe41 163c
00000080: 5d15 cbbd 1a29 89bc d29f 9c3c ed2d abbc
00000090: 2e73 edbc 7810 4abc 77e9 5dbd 98a3 d4bc
000000a0: d7ca ccbd 93da af3c 2da9 ccbd 2461 2a3c
000000b0: 8965 3dbc dace a9bd 5564 92bd 813c 43bd
000000c0: ffd6 39bd a02b 6abd 163f 7fbd b88d 6bbd
000000d0: e25b 33bd 7a9d a13c 5c79 103d a75a 9bbd
000000e0: d9f9 a7bd 8dc8 1abd 983a 453b 9a3a 42bd
000000f0: ed20 5bbd 2b76 6ebb 0303 0dbd 94e6 89bc
00000100: c37a 33bd 0892 23bd 548b 293d d6b5 553d
00000110: 68da 08bd d26c c03b f914 a4bb 209d abbd
00000120: f2a6 0fbd 450f 233c 4eb6 36bc fe19 9fbd
00000130: cf99 5f3d 5c7f dfbc eb34 c33c 1f8d 39bd
00000140: 0880 6dbd 70f5 c33c 7a56 67bc 64eb c0bc
00000150: 00ad 98bd 491a 353b 5b6c c0bc cf42 d63c
00000160: fadd 18bc e299 82ba 4ff9 02bb e3d8 45bc
00000170: 66e0 1438 8914 9abd 8107 c53c 1ec1 0ebd
00000180: 19c6 c4bc 665d 6c3b 9905 773b c067 913c
00000190: dbcd 203d 9295 183c 3fb6 e83b a559 b73c
000001a0: 090b 603d 6287 05bc 59f8 abbc 55f5 94bd
000001b0: a88a eb3b 20ce 89bd 358b 34bc 131d debc
000001c0: 356f 7dbd 36f2 b9bc 2532 56bd 20b3 3d3d
000001d0: 7643 babd 87f8 7dbd 1cc7 373c 4af8 91bb
000001e0: a66d 67bd e2d8 993c 7efa 2cbd 1d9a 96bc
000001f0: e9b9 ef3c 1baa febc 7621 8fbd 488a eebc
00000200: 4861 493d d9ce 6dbd 37f9 9bbd 8b7a 373c
00000210: 38b8 bdbc e454 02bd b8e3 85bd 5810 883d
00000220: cc1b b4bd 384e 90bd 1862 b7bb 79c4 67bc
00000230: 81b5 9abd 1b0a b1bc 13af 25bd eebf 393d
00000240: 7c5d 593c baf3 d6b9 c132 f4bc 754e ee3b
00000250: f480 a4bd 5725 a2bd f677 9cbc fd17 1d3d
00000260: c30c e43c 3e42 07bd cf5b 98bd c335 343d
00000270: fd33 35bd b29c 9abc dcfc 053d b84f 8dbd
00000280: ddc9 0a3d aeec 2b3d 24b6 853c 73d9 27b9
00000290: e488 15bd 9809 3d3d 4a75 673d 4272 fdbc
000002a0: c32d 093d 0308 56bd d26e 703c 878d a5bd
000002b0: 4310 4b3d f27a 92bc f5b9 80bc b9db 5fbc
000002c0: 0fac b1bd 5d7f b8bd af58 693d c895 83bd
000002d0: 6aca 463d d741 d7bc f330 57bc 3e5f 3cbd
000002e0: 2a74 813d 98a4 46bd 9e8c 9bbd 7506 463d
000002f0: 66e5 9dbd b5f5 f53c 025b 45bd 05af a7bd
00000300: cb1d 7e3d 95f4 afbc 662f 673d 18a4 83bd
00000310: 475a d33c a7a8 173d 86b6 41bd 2d85 65bd
00000320: 0a45 973e b9bc 443e 1842 00bf fff4 47bf
00000330: 305c 3bbc e6c4 48bf 1546 42be a0c3 b2bd
00000340: 5f9c 59bf d057 3e3f 5b86 203f 7433 0140
00000350: 97a3 933c 208f 9ebe 8c86 0e3e d489 823f
00000360: 2949 cb3f b733 9bbe e92f ccbe 2733 1cbf
00000370: 6945 17bd 66af 273e e753 b43e 31ad 973d
00000380: c024 2cc0 5343 89bd ffdd 28bf 1a8e 9b3e
00000390: 6fa4 103e eb82 323f 285a 8bbf cdb7 d53e
000003a0: bb17 773f beea 81bf 56d5 1dc0 a256 14be
000003b0: bade e4bc 81ce 083e 04b4 51bf bbbb 28bf
000003c0: 90c8 5bbf b02c d9bf f72c ab3e a734 583f
000003d0: d31b 543e 77ca 4b3e 56ed fcbb 15d6 94bd
000003e0: c243 6e3f 44bf 70bf cf4a a03e f155 03bf
000003f0: f232 40bf d7e2 c83f b9ed 733e 2a3e 88be
-0.020615526 -0.027247025 0.014344736 0.028749783 0.008674633 0.055648312 -0.031829253 0.067775875
0.03547221 -0.016059464 -0.014672001 0.03685468 -0.07008617 -0.058193922 -0.06284937 0.033450622
-0.06642774 0.025192427 -0.051973406 0.0027497741 -0.025843594 0.08332765 -0.05612904 -0.03421559
0.022499872 -0.054415565 0.007048909 -0.0052074925 0.013858418 0.018380528 -0.010565132 0.009171007
-0.09916184 -0.016743232 0.019119177 -0.020895923 -0.028985586 -0.012333028 -0.054177728 -0.025956914
-0.09999626 0.021466529 -0.09993205 0.010399137 -0.011559852 -0.08291407 -0.07148043 -0.047665123
-0.045371052 -0.05717051 -0.062316023 -0.0575082 -0.0437888 0.019728411 0.035271987 -0.0758565
-0.082019515 -0.037788916 0.003009474 -0.047419168 -0.053498197 -0.0036386352 -0.0344267 -0.016833581
-0.043818247 -0.039934188 0.04139264 0.052175365 -0.033411413 0.0058723474 -0.005007383 -0.083795786
-0.03507132 0.009952371 -0.011151863 -0.077686295 0.054590043 -0.02728241 0.023828944 -0.0453006
-0.05798343 0.023920745 -0.014119739 -0.023549743 -0.07454872 0.0027634075 -0.023489168 0.026154904
-0.009330267 -0.0009964074 -0.0019985025 -0.012075636 3.5494937e-05 -0.07523448 0.02405143 -0.03485214
-0.024020242 0.0036066412 0.0037692545 0.017749667 0.03925882 0.009313004 0.0071018036 0.022381613
0.054698024 -0.008149954 -0.020992445 -0.07273356 0.00718816 -0.06728768 -0.011019518 -0.027113473
-0.061873633 -0.022698503 -0.052293915 0.046313405 -0.090948984 -0.062004592 0.011216905 -0.004454647
-0.056501053 0.018780176 -0.042231075 -0.018384034 0.029263454 -0.031086972 -0.06988804 -0.029118672
0.04916504 -0.058058593 -0.07615893 0.01119865 -0.023159131 -0.03181924 -0.065375745 0.06643742
-0.08794364 -0.07046169 -0.0055964105 -0.014145964 -0.075541504 -0.021611264 -0.040450167 0.045349054
0.013266917 -0.0004099885 -0.029809358 0.0072725364 -0.08032408 -0.07917278 -0.01910017 0.038352955
0.027838117 -0.033022158 -0.07439386 0.043996584 -0.044239033 -0.018873546 0.03271185 -0.06899971
0.033883918 0.041973762 0.016322203 -0.00016007367 -0.036507502 0.046151727 0.05650834 -0.030938271
0.033490907 -0.052253734 0.014674859 -0.08083635 0.049576055 -0.01788089 -0.015713671 -0.013663226
-0.08675396 -0.090086676 0.05696934 -0.06425053 0.04853288 -0.026276512 -0.013134229 -0.045989268
0.06320985 -0.048496813 -0.0759518 0.048346 -0.0770977 0.030024389 -0.048182495 -0.08187679
0.06204013 -0.02147893 0.056441687 -0.06427783 0.025799884 0.037026074 -0.04729321 -0.05603521
0.2954486 0.19212617 -0.5010085 -0.7810821 -0.011435553 -0.78425443 -0.18972047 -0.08728719
-0.8500423 0.7435274 0.6270501 2.0187654 0.018022342 -0.3096857 0.13918513 1.0198312
1.5881702 -0.30312893 -0.39880303 -0.6101555 -0.03693143 0.16375503 0.35220262 0.074060805
-2.689743 -0.06702294 -0.6596374 0.30381852 0.14125226 0.69731015 -1.0886889 0.4174179
0.96520585 -1.0149763 -2.466146 -0.14486173 -0.027938236 0.13360025 -0.8191531 -0.65911454
-0.8585291 -1.6966763 0.33432743 0.8445534 0.20713739 0.19901453 -0.0077187223 -0.072673954
0.9307214 -0.9404185 0.31307074 -0.5130301 -0.75077736 1.5694226 0.23821153 -0.26609927

bias f4 [200]
00000000: f9a0 a5bd 3e1f 9fba 2c75 febe 3b46 ccbd
00000010: 89c3 14bf 8589 3bbf 9b26 bebd e8cd 0ebf
00000020: ace6 e2bd 3ca0 d7be 7775 60be 5043 fbbd
00000030: 0984 45bd c67e 2ebe 6c31 a0bd b4a5 2abc
00000040: 8245 983b 471c 9ebe 4478 03be 444c 76be
00000050: af6b ac3e cd69 22bc 54dc 953d 370e f3bc
00000060: f66b 4fbf 6217 3c3e db37 69be b0af dbbc
00000070: 0642 d6bd a3a4 b6be 84ab c7bd b278 32bf
00000080: c1ce b9be ec4e 95be e679 59bf 3206 a3bd
00000090: c758 75bd 8e4d 17bf c5b5 bfbd 2d8e 03be
000000a0: ec5e a2be e3c7 943d d499 80be 106e 79bd
000000b0: 84d1 90bd 60d0 5dbb 0c81 c0be e52c d1bd
000000c0: c5e4 eebd f4e3 c8be 35eb 10bd d3b8 56bf
000000d0: ee8a 68be ebba 96bd abab 6ebf 338f 87be
000000e0: d331 e9be e44e fcbd fe8c d3be 0a61 d3be
000000f0: 1414 c4bd 7908 c1be cf0c efbe 53b8 b8be
00000100: 974c 823d 44c9 62be ded9 77bd aa44 bcbd
00000110: 8ff7 18bf 473f 783d a731 75be 44ab 0ebf
00000120: 5b74 86bd 7652 03be 8acc b6bd 8732 24bf
00000130: d300 65be 3b4f 06bd ee32 72bd 7205 e8be
00000140: 78e9 043e 1845 1b3f e2cf b8be 9c7b 7bbe
00000150: 563e 63be 7395 fdbe edec a83d a6c0 a6bd
00000160: d7ac 10be 6c82 6dbd 5c2f e23c 3a88 d1be
00000170: 8629 0abc 5d79 80bd 49d2 05bf 57ac e7bd
00000180: 534f 11bd 6e8a 9fbd 89af 66bd a724 dbbd
00000190: 3256 a8bd f61a 45bf a1c2 f7bd dd3f ccbd
000001a0: 30d4 bdbd 5556 abbc b2cc 203f e2d9 7bbd
000001b0: d9b9 a6bd ad51 f6be e42a 58bd 1aa9 e4bc
000001c0: 4f9d e1bc 01fa d3be b987 3dbe 2c85 e0be
000001d0: 3bf1 1abf 34b1 38bd 4df4 55bd 1ad3 56be
000001e0: 8084 0ebe 0115 cdbe 54b3 f1bd fff6 cdbd
000001f0: 1511 a5bd 3c74 f8be 6ddc 62be ff3b 4bbe
00000200: c079 b2bd c6c4 193e 2884 fbbe 684e 00bf
00000210: fea4 f93d a973 36be 4b70 87be 45d3 a6bd
00000220: 1868 d1be edf7 e1bd 14c3 d1bd c3fa dcbd
00000230: 39ea 883e d23f 41bd f4e5 00be fa91 a8be
00000240: f8bd e3bd 406c 6ebf c8ce 03bf 82f1 85bf
00000250: bb66 2abe 7d5d 73bd af2f 32bf 54ab f0bd
00000260: 35bd 34be c7cf 9fbd 2277 af3a 8854 f6bb
00000270: 720d aabe fb68 cf3b a5a0 c9be 02c6 b0bd
00000280: 0741 eabd fa41 8f3e da09 b8be 7f19 a1be
00000290: 55b8 2fbf a1b8 11bf f28f e0be 42ea 01bf
000002a0: c346 3d3d 9017 e1bd 72b7 d4be aa95 ab3f
000002b0: c6fc bcbd ce76 f0bd f0ee cfbe 5842 a1bd
000002c0: 3533 d23e c58b 98be e970 acbe fd90 b8bc
000002d0: efad 06bf 8e74 f2be 9950 cbbe 0f3f 1cbf
000002e0: 46d6 5d3b 2436 18bd b00b 22bf 8785 b1be
000002f0: d0f5 12bf 02d7 a3bd 1e4d cebe 7441 173f
00000300: fd6a 8a3d 4d12 debd 1100 b1bd 737f 87be
00000310: 0f28 febe 4213 12be 9e86 84bd 1a6a 64bd
-0.08087344 -0.0012140048 -0.4969877 -0.09974333 -0.5811086 -0.73256713 -0.09284707 -0.5578294
-0.110791534 -0.42114437 -0.2191981 -0.12268698 -0.04822162 -0.17040548 -0.078219265 -0.010415483
0.004646958 -0.3088095 -0.12838846 -0.2405253 0.33675906 -0.00991292 0.07317415 -0.029669864
-0.8102411 0.18368295 -0.22775213 -0.026817173 -0.10461812 -0.35672483 -0.09749511 -0.69715416
-0.36290553 -0.29161775 -0.8495163 -0.07960166 -0.059899118 -0.59102714 -0.09360842 -0.12847205
-0.31713045 0.07264688 -0.25117362 -0.06089598 -0.07071212 -0.0033846125 -0.37598455 -0.10213641
-0.11664728 -0.39236414 -0.03538056 -0.8387577 -0.22709247 -0.073598705 -0.93230695 -0.2647644
-0.45545825 -0.12319735 -0.41318506 -0.41284972 -0.09574142 -0.37701777 -0.4668946 -0.36078128
0.063622646 -0.22147089 -0.06051051 -0.09192784 -0.59752744 0.06060722 -0.23944722 -0.5573008
-0.06565162 -0.12824425 -0.089257315 -0.641396 -0.22363596 -0.032790404 -0.0591306 -0.45316654
0.12979686 0.60652304 -0.36096102 -0.24558872 -0.22191748 -0.49528083 0.08248315 -0.081422135
-0.14128433 -0.057985708 0.027610473 -0.40924245 -0.0084327515 -0.06273148 -0.52273995 -0.11312168
-0.03547604 -0.07790075 -0.056319747 -0.1070035 -0.082195655 -0.76994264 -0.120976694 -0.099731185
-0.09268987 -0.02091519 0.6281234 -0.061487086 -0.081409164 -0.4810919 -0.05277528 -0.027912665
-0.02754083 -0.41401675 -0.18508805 -0.43851602 -0.6052434 -0.04509087 -0.052234937 -0.20978966
-0.13917732 -0.40055087 -0.11801782 -0.100568764 -0.08059899 -0.4852618 -0.22154398 -0.19847105
-0.08714628 0.1501647 -0.49124265 -0.5011964 0.12189673 -0.17817558 -0.2645286 -0.08145765
-0.4089973 -0.11033616 -0.10242286 -0.107900165 0.26741198 -0.047180004 -0.1258772 -0.3292387
-0.11120218 -0.93133926 -0.514874 -1.0464327 -0.16640751 -0.05941533 -0.6960401 -0.11751428
-0.17650302 -0.07803302 0.0013386945 -0.007517401 -0.33213383 0.0063296533 -0.39380375 -0.08631517
-0.11438184 0.27980024 -0.35945016 -0.31464764 -0.68640643 -0.56922346 -0.43859822 -0.50748074
0.04621006 -0.10990822 -0.41546208 1.3405049 -0.092279 -0.1174141 -0.40611982 -0.07873982
0.41054693 -0.29794136 -0.33679894 -0.022530073 -0.5260915 -0.4735455 -0.3970993 -0.6103372
0.003384964 -0.037161008 -0.63299084 -0.34672186 -0.5740633 -0.07999994 -0.4029321 0.5908425
0.06758688 -0.10843334 -0.08642591 -0.26464424 -0.49639937 -0.14265159 -0.06470989 -0.05576525

weight f4 [1, 200]
00000000: c849 f33c a458 1b3e 5f3c 543e 8bd1 fa3b
00000010: 3435 f0bd 5fa4 323e 1169 bb3c 9346 793d
00000020: dfbb c13c d1aa 3abe b8b7 24be 1348 5f3e
00000030: 20ad 55be 2206 783e 53e1 88bc a120 acbe
00000040: da75 67be 86f7 b2be c7b6 913c 13c6 7e3d
00000050: 5e67 27be afad 85bc 3107 1dbf 5b56 753c
00000060: 581c c7be c1fc d63e 95b9 ef3d c0aa 68bc
00000070: c10e 9d3e 62f0 37bf 69f7 bcbc bf52 ef3d
00000080: bf24 56bf b6b6 193e 9c6f 80be f44f f53a
00000090: ded5 12bb d99c 6dbd d2c9 a13e ca2e 9f3d
000000a0: e0ab d0bc 67bf f5be 9717 493f 85b1 c0bb
000000b0: ceb2 023d 0f19 23bc e710 a4bf 1b96 693b
000000c0: fc4c bdbc f010 d23d 005c cbbb 568d f3be
000000d0: f661 3ebd 4376 fabf ea81 90be 87c7 3dbd
000000e0: b8e9 53be 8c25 99bd 2be0 32be 8392 54bf
000000f0: 85e4 d03c 3cbb cd3e dc0b d73e a197 c4be
00000100: 5e13 1a3e d715 98be 89e1 7d3d 267e 353c
00000110: 914f 223e 7a84 953d 14b2 22bf 3c51 043e
00000120: 965a b6ba c357 96bc 2f7e ab3e e26f 4dbe
00000130: ec1c 80bf 2518 99bb 3c03 83bc 60b5 8fbf
00000140: 3c94 cbbe c456 243d 2987 a73e 6bfc 3bbf
00000150: 6328 62bf f463 43bf 1aee 20be c359 57bc
00000160: e730 5a3b 19a8 483d 7c82 173d 116e 44bf
00000170: a0d4 81bc 89f9 c93e 5c76 e7be c959 553c
00000180: 526d 1dbd 1e02 233c 5e7b dcbc a174 2d3c
00000190: b7cb e0bb e6be bebe 03df 02bc a5e1 8cbf
000001a0: 9a44 c73c 343d 903b 3dee 6b3d 59a6 4f3c
000001b0: 7adf 613a 5755 bbbe 6f25 8f3b af92 b73c
000001c0: d92f 683c 3822 acbe a3c5 933e 2409 3cbe
000001d0: 8c33 debd 2a7b eebb 5874 a6bb 127b abbf
000001e0: 0657 bebd df08 11bd 421c dd3c 59ad a0bb
000001f0: 20f1 1abc 147a 34bf 57df 7bbe c53f 9a3e
00000200: 954b 733c 7b77 da3d 4246 76be 890a b4be
00000210: c8ad 1dbe f383 1bbe 1026 1a3e 7190 cd3d
00000220: ef63 05bf 6ecd 3b3c 95c6 14be 0fb6 56bc
00000230: 7af3 fe3d 16a5 5b3c 00f5 d6bc f4fe 4d3e
00000240: 236f 383e a060 b43e bdf9 eebe adee a6be
00000250: e621 17bf 872b b33c 70a0 e13e ba3a 673e
00000260: 875d 81bf 3755 1bba c6e9 a13d b3a0 ff3c
00000270: 2f9b 24bf ba6d 94bc 6d00 463d 0cad b53c
00000280: 68f4 86be 1d22 793d 771b 87be 356c cb3e
00000290: 8c35 03bf f964 83be e492 00bf 5e0f 0bbe
000002a0: e86b bc3d 8d8a 353e 5c47 aabe a2e4 6e3d
000002b0: 3c5b 52bd dc10 353e 7944 9abc 0d98 32bc
000002c0: 9567 a03d 15b5 3b3e 445f 46be 3a44 d3bd
000002d0: ecbc 07bf e25d adbe e46f 0cbf bcfa f33d
000002e0: 01eb babe c4d7 90bd 3d57 663e 5443 ba3d
000002f0: 61bd 9f3e b961 b23e 0c9d 0c3e 147b 623d
00000300: 6820 893d 311d cdbc 05ce 503c 6b56 50bf
00000310: f0d1 5f3d c5d5 cc3e 5769 04bd 3c53 f5bf
0.029698268 0.15170532 0.20726155 0.007654374 -0.11728898 0.17445515 0.022877248 0.06085832
0.023649154 -0.18229224 -0.16085708 0.21804838 -0.20866823 0.2422109 -0.016709005 -0.33618644
-0.2260355 -0.3495447 0.01778735 0.062200617 -0.16348025 -0.01631817 -0.613391 0.014974202
-0.38888812 0.4198971 0.11705319 -0.014200866 0.3067532 -0.7185117 -0.023067193 0.116857044
-0.8364982 0.15011105 -0.2508515 0.0018715844 -0.0022405307 -0.05801091 0.3159929 0.07772596
-0.025472581 -0.4799759 0.7855162 -0.005880537 0.031908803 -0.009954705 -1.2817658 0.0035642448
-0.023107998 0.10257137 -0.0062060356 -0.47568768 -0.04648014 -1.9567341 -0.28224117 -0.046332862
-0.20694625 -0.074778646 -0.17468326 -0.8303606 0.025499592 0.4018191 0.42001235 -0.38396934
0.1504645 -0.29704162 0.061982665 0.011077439 0.15850665 0.073006585 -0.63552976 0.12921613
-0.0013912495 -0.018352395 0.33494708 -0.20062211 -1.0008826 -0.0046720677 -0.015992753 -1.1227226
-0.3976153 0.04012181 0.32720307 -0.73432034 -0.88342875 -0.7632439 -0.15715829 -0.013143959
0.0033293308 0.048988435 0.036989674 -0.7673045 -0.015848458 0.39448193 -0.4520749 0.013021895
-0.038434334 0.009949235 -0.026914295 0.0105868885 -0.006860222 -0.3725502 -0.00798774 -1.1006361
0.024324704 0.004401827 0.05760025 0.012673938 0.00086163695 -0.36588547 0.004368476 0.022408811
0.014171564 -0.33619857 0.28861722 -0.18362862 -0.108496755 -0.007277866 -0.005079787 -1.3396933
-0.09293942 -0.03540885 0.026991013 -0.004903477 -0.009456903 -0.70498776 -0.24596916 0.30126777
0.014849563 0.1066732 -0.24050239 -0.35164288 -0.15398324 -0.15187053 0.15053582 0.10037316
-0.5210561 0.0114625525 -0.14528878 -0.01310493 0.12448783 0.013406059 -0.026239872 0.20116788
0.18011145 0.3522997 -0.4667491 -0.3260397 -0.590361 0.021871341 0.44067717 0.22580996
-1.0106667 -0.0005925479 0.07905917 0.031204557 -0.6429929 -0.018118728 0.04834025 0.022177242
-0.26358342 0.06082355 -0.26388142 0.39730993 -0.5125358 -0.25662974 -0.5022414 -0.13580081
0.09200269 0.17728634 -0.33257568 0.05832351 -0.05135654 0.17682213 -0.018831478 -0.01090051
0.07832257 0.18330796 -0.19372278 -0.103157476 -0.53022647 -0.3386069 -0.5485823 0.11913058
-0.3650742 -0.07072404 0.22494216 0.09094873 0.31199172 0.3484018 0.13731784 0.055293158
0.06695634 -0.025038334 0.012744431 -0.81381863 0.05464357 0.40006843 -0.032327022 -1.9166026

weight f4 [200, 15]
00000000: eb0c a93d d717 f83e b068 e13f 14a6 3abf
00000010: 470f b13e 19bf 853e a0a3 3d3e 1fe1 f63e
00000020: 47e6 d1be 12f9 34bd 87d8 27bf 193e bebe
00000030: 430d 8bbe 877d a4be 72f5 3bbe 8714 cebc
00000040: 0f58 303c f833 933f 794c cb3e 66a9 803d
00000050: 94bf fdbb cfb8 1b3d bfb4 a43f 5d71 f93d
00000060: e9fd 12bf f3e6 df3d 3339 a43d c6dd febc
00000070: b0f3 30be add9 8639 38b8 463f d766 d33e
00000080: d620 163f d43d 1f3e 6576 183f 258d 2d3f
00000090: 2c72 793f 1664 1b3e 047f b43c 2f0d d8be
000000a0: ddce b83e 921f 03be f2ca 7ebf 7068 ebbf
000000b0: 6f44 3ebf 6bdb 8c3e 5ad5 523f 013a b53f
000000c0: 8855 16bf b299 ab3e 09ac 583f c94a 1bbe
000000d0: 61ec b5bf e5cf c93e aabc a0bd 53f8 ecbe
000000e0: 43c4 2abd 201c 56bf ee6f 46be 6237 39be
000000f0: 0a4f 3cbf 24ac 773f ef5b 50be 1e1f 05bf
00000100: 8449 373d 8f20 243e 7476 44be 2e2b 693e
00000110: 6d8e 1d3f 1df5 2c3e e077 12bf dc46 19bf
00000120: abc8 13bf 5bfc 7fbe b411 103f 4d0c b53e
00000130: 22d4 e13d efe3 603e 9712 26bf 9820 eabd
00000140: bee0 2dbe 85d3 383d 75e2 993e 910e 30c0
00000150: 45af ae3e e3d2 483e 730c 243c 19ae 823e
00000160: 15e8 f43d 800e 1b3e 91df 43bf ebf0 313f
00000170: a331 be3f 1ee0 92be cc45 55be adc8 de3d
00000180: 023d 74be ea82 573f 10ea 173e e87e 6f3c
00000190: 5dad b8bf 7813 623f b172 1d3f 8ebe 883f
000001a0: 4b56 ad3e 89a3 28be b49d f53d 2b66 cf3c
000001b0: 1e17 debb 5b14 d83d 15fe cd3d e222 fa3c
000001c0: 71ca eebc d54d 123c 8d60 99be a7d7 633d
000001d0: 7f8d 993d 06c1 91be 8a0f 5cbe 4465 143e
000001e0: 72d5 92be 05c7 d3be f749 be3f 3a26 bb3d
000001f0: 33f8 823f d3f2 573f 3463 aabe da65 86be
00000200: abe1 0e3f 4fc4 2e3e 02a0 273e bcca aebe
00000210: 0497 fdbd b747 32bf 2de2 87be 4396 46bd
00000220: d6a7 e5bd f46d b13f 5d37 dd3e 7d6e 4ebe
00000230: 83cc afbe 6f5d 97be 19ec 593d cb15 8e3f
00000240: ef66 4a3e e4b3 6ebf 1056 5cbe d32a cfbe
00000250: 2b1d 323d 7205 98bd 5c87 4a3f 652e 7c3f
00000260: 1007 353f 4270 67be 985c 4cbe 59b0 f13e
00000270: cffd 413f 4fc2 023f 7ce5 a6be 3239 46bf
00000280: 4804 a93e 7304 58bf f3a0 763e e76b 6fbd
00000290: b87f 39be 400b 553f 4721 d0bd 3b5f 633f
000002a0: ab3d 8cbe b872 61bf 3c7b 06bf c658 afbf
000002b0: 7173 c6bf c155 5d3b 0922 8a3e 77ac 8bbe
000002c0: 1ea7 8d3e 111c 713e 65cd 7e3e 89b3 0c3f
000002d0: 6454 c43e 7803 1cbf e94d 72bc cd34 b13e
000002e0: b7a5 dcbd 352a d63e bc2c ccbe 07cf d9be
000002f0: aaba 1ec0 a955 f8be 356f ffbe f38d a73f
00000300: bbf4 5f3f 8905 873f 05d5 6ebe a345 3f3e
00000310: 7826 9c3f 26fb 1e3f 7e80 e53e a62e 0b3f
00000320: d042 c8bd b09b fb3e be98 19bf f68e f8be
00000330: 669f a13e cfe1 813f 0e71 9fbe 7d84 36bd
00000340: acea 2dbd 66b5 793e e2b2 023f 774d 5cbf
00000350: 0145 e03e de6e 3c3e ada0 eb3e ca88 a1be
00000360: 9cf1 afbe 5db5 513f 382f a3be 1d9a 83bf
00000370: 44b2 623f 1ebd 14bf 0116 68bf 68f1 ffbc
00000380: 3113 463f fefd 75bf 0bdc b5bf 1568 bb3e
00000390: 3da8 703e 95f7 583e 85b8 99be 8236 b33d
000003a0: dd8a 6a3f 411e 28bf df0b f43d 8f18 8fbf
000003b0: d8f9 f2be 422f 42be 33ed 0ebe c3c3 4f3f
000003c0: 3d36 9cbf 7278 13bf 806e 03bf f341 863e
000003d0: 0984 80bf 9c90 6cbf 74ed 42bf 40a1 f53d
000003e0: 59da 363d 741d 473e 3f0f 293f ae60 00be
000003f0: d7ab a63d 9cfb 9f3d 45d5 6c3e 90b8 fbbe
0.08254417 0.48455688 1.7610073 -0.72909665 0.34581968 0.26122358 0.18519449 0.4821863
-0.40996 -0.044182844 -0.6556477 -0.37156752 -0.27158555 -0.3212702 -0.18355349 -0.025156273
0.010763182 1.1500235 0.39706782 0.0628231 -0.007743785 0.038018044 1.2867659 0.121798255
-0.57418686 0.10932722 0.080187224 -0.03111161 -0.1728046 0.00025720653 0.77624846 0.41289398
0.58643854 0.1555093 0.59555656 0.67793494 0.9743984 0.15174899 0.022033222 -0.42197558
0.36095324 -0.12805012 -0.9952842 -1.8391247 -0.7432317 0.27511153 0.823568 1.4158326
-0.5872426 0.33515698 0.84637505 -0.15165247 -1.4212762 0.39416423 -0.07848485 -0.46283206
-0.041691076 -0.83636665 -0.19378635 -0.18087533 -0.73558104 0.9674704 -0.2034757 -0.52000606
0.044747844 0.16028045 -0.19185811 0.22770378 0.6154545 0.16890378 -0.57214165 -0.5987375
-0.5772807 -0.2499861 0.5627701 0.35360947 0.11026789 0.2196195 -0.64872116 -0.11431998
-0.16980264 0.045123596 0.30055586 -2.750889 0.34118095 0.19611697 0.010012734 0.2552345
0.11958329 0.1514225 -0.7651301 0.69508237 1.4858898 -0.28686613 -0.20827407 0.108781196
-0.23851398 0.84184134 0.14835382 0.014617659 -1.4427906 0.88310957 0.6150313 1.0683153
0.338549 -0.16468634 0.1199297 0.025317272 -0.006777658 0.105507575 0.10058228 0.030534212
-0.029149266 0.008929689 -0.29956475 0.055625584 0.07497691 -0.28467578 -0.21490303 0.14491755
-0.2867847 -0.41362777 1.4866322 0.091381505 1.0231994 0.84354895 -0.3327881 -0.26249582
0.5581309 0.17067073 0.16369632 -0.3413905 -0.123823196 -0.6964068 -0.26539746 -0.048483144
-0.11213653 1.386168 0.432063 -0.20159335 -0.34335718 -0.29563472 0.053203676 1.1100401
0.19765829 -0.9324324 -0.21517205 -0.4046236 0.043484848 -0.074229136 0.7911279 0.9850829
0.707139 -0.22601417 -0.19957197 0.47204855 0.75777906 0.5107774 -0.32596958 -0.77431023
0.3301108 -0.8438179 0.24084835 -0.058452513 -0.18115127 0.8322029 -0.10162597 0.88817185
-0.273908 -0.8806567 -0.5253179 -1.3698967 -1.550398 0.0033773037 0.26979092 -0.27280018
0.27666563 0.23545863 0.2488304 0.5496145 0.38345635 -0.6094279 -0.014789083 0.34610596
-0.10773795 0.41829076 -0.3987788 -0.42540762 -2.480143 -0.48502854 -0.49889532 1.3090194
0.87482804 1.0548564 -0.23323448 0.18678908 1.219924 0.6210197 0.44824594 0.54368055
-0.097783685 0.49142218 -0.5999869 -0.4854657 0.31566924 1.0147036 -0.3114094 -0.044559944
-0.04246013 0.24385604 0.51054204 -0.860557 0.43802646 0.18401667 0.46021023 -0.31549674
-0.3436402 0.81917363 -0.31871963 -1.0281407 0.8855326 -0.5810107 -0.90658575 -0.031243041
0.77373034 -0.96090686 -1.4207777 0.36602846 0.23501678 0.21188195 -0.3002359 0.08750631
0.9161814 -0.65671164 0.11916327 -1.117937 -0.4745624 -0.1896334 -0.13957672 0.81158084
-1.2204052 -0.5760566 -0.51340485 0.2622219 -1.0040294 -0.92408156 -0.76143575 0.119936466
0.044641826 0.19444829 0.6603889 -0.1253688 0.081382446 0.078116626 0.23128231 -0.49164248

bias f4 [200]
00000000: bd42 6abe 1917 a83d 412d 40bf eae3 40be
00000010: 5f14 fbbe ee9a 153e 7091 16be 4e59 a3be
00000020: 3322 00bf ab11 17bf 126f 1ebf 747a bfbe
00000030: 547e 18be 8786 9bbd 8955 e8be fa62 c7bd
00000040: d54c 043f 73f0 193e 8924 1a3d 49ea 4cbe
00000050: 88a0 463e 6b08 573d c430 2ebf abf6 e3bc
00000060: 63be 7b3e a02b 823e 3274 47be 3f1f 323c
00000070: b524 0dbe ba52 c9be 7845 b8be 339b c3bd
00000080: 4e0d 043e 3b5d b3be fee5 233f 90ca c0be
00000090: 9508 20bf 5279 37bf 63d3 f23e 0772 ebbd
000000a0: 06e9 cbbe a971 a93e 97ed 753e f21d ee3d
000000b0: b75a c63d 3751 543f cfad dabd b2cf 9bbe
000000c0: 52b0 6fbf a977 563d 9a15 023f bcbc 6bbf
000000d0: 7357 4dbe 5f1a 89be 8fb0 a4bd 2965 8dbc
000000e0: 826e 6e3e 3c17 dd3e 4c3d 9b3e cd70 933e
000000f0: 8823 ca3e 3d24 283e 1517 22bd 5f5a 53be
00000100: 6374 393e 9135 18bf 38b6 0dbf 59c8 3a3e
00000110: 2037 e13e 5761 d83e 5b52 82be c17a 48bf
00000120: 623d 04bf e362 5abc e587 1abf 9cf2 8abe
00000130: 5530 8e3e 49ea c4be 5c21 053f 7ecb 973e
00000140: 1c50 0bbf 03f1 ae3e 118a 9bbe cfc6 08bd
00000150: 2ce7 17be 49ac 1dbf f3cd 6cbf 8891 5cbe
00000160: 8ab7 c6be ee41 f03e 4230 95be 8f88 44be
00000170: 8905 18be 5b5b 94be cbab 21bd 1e8b ba3e
00000180: f228 e0bd 9701 143f 3019 81bf f9ca c23e
00000190: 3a9a 263e 4cd6 f0bd a9a6 873e 2de7 933e
000001a0: 7396 353f cd7d 89be f23a 243e bec3 92bf
000001b0: dbc8 12bf bba5 1f3e fd3a 11be e792 efbe
000001c0: 1766 493f 358f 0a3f 7237 e63e 18f9 f2be
000001d0: 6e8c 073f 8b10 4abf 6963 07be 5fa9 3dbf
000001e0: 461b 84be 7708 933e 8857 da3d 2c8a 3ebe
000001f0: 941d 21be 0be4 853f 5a43 05bf aa3e 99be
00000200: 422b f33e 23c2 d83e 1ecc 95be c2bb 77be
00000210: 5d72 cdbd 234e 9e3e c056 9fbe 863d 163d
00000220: 8b0b 15bd c4da ef3d 76a9 0fbe 3928 0bbf
00000230: 2f7c 56be 99ef 52be df31 2fbd 6ba5 c3bd
00000240: cbe6 41be 513d 4fbf 46a1 9dbe f1a7 1fbf
00000250: 5fe7 bebd 32fe 1abf 23f0 7dbd 6dce b7be
00000260: e30d 3dbd 09b9 8f3e 3bbe cbbe 1926 f9bd
00000270: 43ee a9be b115 9f3d 0a64 1dbf 4185 18bf
00000280: 7644 96bd 1a9d d53b 8ecc 0d3e 4492 31bf
00000290: 1f10 df3e 4cb4 33be 44f5 ca3d ab31 54be
000002a0: d09c d7be f1c9 90bf e88e b0be 1b90 023d
000002b0: 7457 563d cc1e 173e fec5 c13e 33f9 54be
000002c0: b690 453e 5002 d53e 0629 643f b730 b03e
000002d0: db15 eabe 5b09 8bbf d930 b3be 487e 31be
000002e0: d37c 43bc 19cb 7abd d000 493d c128 943d
000002f0: 459f 2dbf 49d0 51bc 41b1 a73e 47bb 2dbd
00000300: b6af 7dbe cced 5f3e 73ea de3c 0710 4e3e
00000310: e5bb 73be 27c0 37bf 110a cfbe b757 ddbe
-0.22877021 0.082075305 -0.7506905 -0.18836942 -0.4903898 0.14609882 -0.14703918 -0.31904072
-0.50052184 -0.59011334 -0.6188823 -0.37398112 -0.1489194 -0.075940184 -0.45377758 -0.09735675
0.51679736 0.1503313 0.0376325 -0.20011248 0.19397175 0.052498262 -0.6804316 -0.027827581
0.24584346 0.25423908 -0.19477919 0.010871707 -0.13783534 -0.39320928 -0.359905 -0.09551086
0.128957 -0.35032067 0.64022815 -0.37654543 -0.62513095 -0.71669495 0.474269 -0.11496358
-0.3982622 0.33094528 0.24016415 0.11626805 0.09685271 0.82936424 -0.106776826 -0.30431896
-0.9362842 0.05236021 0.5081421 -0.9208486 -0.2005289 -0.26777932 -0.080414884 -0.017260151
0.23284343 0.4318179 0.30320203 0.28796998 0.39480233 0.16420074 -0.039572794 -0.20639943
0.18110804 -0.59456736 -0.5535617 0.18240489 0.4398737 0.42261764 -0.25453457 -0.7831231
-0.5165616 -0.0133292405 -0.6036361 -0.2713822 0.2777125 -0.38459995 0.5200403 0.2964744
-0.5441911 0.34168252 -0.30378774 -0.033392724 -0.14834279 -0.6159101 -0.92501754 -0.21539891
-0.38811904 0.469253 -0.2913838 -0.19192718 -0.14845861 -0.2897595 -0.039470475 0.36434263
-0.1094531 0.57814926 -1.0085812 0.3804548 0.1626977 -0.11759624 0.2649434 0.2888731
0.7093269 -0.2685379 0.16038111 -1.1465986 -0.5733773 0.15590565 -0.14182658 -0.46791765
0.786714 0.54124767 0.44964176 -0.47455668 0.52948654 -0.7893149 -0.13221516 -0.74086565
-0.25802058 0.28717396 0.106612265 -0.18607396 -0.1573394 1.0460218 -0.52055895 -0.2993062
0.4749394 0.42335615 -0.29257292 -0.24192718 -0.10031579 0.3091899 -0.31120872 0.036679767
-0.03638796 0.11711648 -0.14029488 -0.5435825 -0.2094581 -0.20599212 -0.04277217 -0.09553035
-0.18935697 -0.80952936 -0.30787104 -0.62365633 -0.09321474 -0.6054412 -0.06199659 -0.35899678
-0.04615582 0.28070858 -0.39793572 -0.1216547 -0.33189592 0.07767809 -0.6148077 -0.5957833
-0.07337277 0.006518972 0.13847563 -0.6936381 0.43566987 -0.17549247 0.09910062 -0.20722072
-0.42111826 -1.1311628 -0.3448403 0.03187571 0.052329496 0.14757842 0.3784637 -0.20798187
0.19293484 0.41603327 0.89125097 0.34412166 -0.457198 -1.086223 -0.34998205 -0.17333329
-0.011931616 -0.061228845 0.04907304 0.07234336 -0.6782115 -0.012806007 0.32752421 -0.04241493
-0.2477406 0.21868056 0.027211403 0.20123301 -0.23802145 -0.71777576 -0.40437368 -0.43230984

weight f4 [200, 200]
00000000: 6580 55bc c318 2c3d 9bea 81bc aa03 23bd
00000010: 04e4 e33c 34ae 233c 0657 0bbc 9623 42bd
00000020: 253a 33bd f75e 6fbd 1317 483d b133 4dbd
00000030: c143 773d f9c7 613c 14ee bebd cf3c a9bd
00000040: 209a 84bd 8097 d4bd 6840 44bc 16f3 9f3c
00000050: 9bff 60bd 6906 89bb 60bd 35bd fc7a 783d
00000060: 6638 53bd 7e10 293d c5a4 e73a 7ab8 3fbd
00000070: b7ec 8ebd 3081 6dbd 4778 5dbc 30d1 ef3c
00000080: 50d1 86bc bbe5 003d bf97 9fbb 35e2 98bd
00000090: 7cf3 0c3c 0789 4ebd 6662 353d 107e cb3c
000000a0: 9cc9 3fbd 086b 77bd baf4 7cbd 0b84 7dbd
000000b0: b65d 43bc 9681 c3bd 41af 653c a717 193d
000000c0: 726e 8fbc 0522 c7bd 9135 94bd cde2 e6ba
000000d0: 6609 7fbc 86b8 24bd 74d3 d4bc e115 003c
000000e0: 934d acbc 3d74 78bd 37c8 cbbc 8f07 4d3b
000000f0: 8459 8cbc 138f 89bc b805 dc3c 450d ccbc
00000100: 4a84 e73c dc24 5d3c e711 c2bc 07ad 2bbd
00000110: 0e73 afbd 83bd a9bd cfac 91bd e53b 113b
00000120: f24c 323d 1120 e1bd 8da3 a6ba 0df3 ac3c
00000130: b19e bdbd 451b 403d ead3 ceba 8c1b 5c3c
00000140: 5a9d 9f3c 772d 7dbd dc8b edbc baa9 a1bd
00000150: fac4 e13c a5fb d53b 144b 90bd 1483 0bbd
00000160: 92c5 b33c 3580 623c c735 77bb a77c c7bd
00000170: 98d7 12bd 92e6 83bd 76e3 1a3d c255 8a3d
00000180: eed1 f5bc a134 74bd ccd5 2a3d d6de dc3c
00000190: e423 eebb 16bd 923c d5e8 85bd 5f98 19bd
000001a0: 9c2d a1bd 4658 78bd 14e5 c03c 90a7 71bb
000001b0: ce32 cb3c 7203 0cbe 2abb cabc bd76 dabc
000001c0: 1b15 1f3c 06a2 b4bd ec35 86bd 334e 15bd
000001d0: cfcd c7bd b9da 42bd 8580 b13c c948 98bc
000001e0: e966 c13b 026d 77bc 19ad 38bc efd6 4cbd
000001f0: 1a0e 683d 31fc 9fbd 6a87 acbd a057 91bd
00000200: 7110 543c e43a aebd fd72 21bd 337b 0bbc
00000210: 6be0 4cbd afd8 83bc 8aa2 423d 1a2e 0e3d
00000220: d852 d1bd 6116 c6bc 78ae 443d 7da5 2dbd
00000230: e85a 683c 2361 0fbd cb9c 4fbd 4190 7f3c
00000240: 7701 05bd 0b7f 55bd 9252 3cbd 3b9b 68bc
00000250: dad9 12bd aec6 5a3b 8f7e d6bd 87e1 94bd
00000260: 5528 86bc f276 8a3d 949c 95bd 35c9 dcbd
00000270: 753a 04bd fc91 53bd 6942 5f38 5fe2 37bd
00000280: c8bd 10bd e78c d0bd 6621 273d 8bfc 353d
00000290: 5cd6 91bc 2aa8 8abd fddf 91bd 0004 9dbc
000002a0: df02 a43c 2c58 d1bc 02d5 00bd db30 69bd
000002b0: 46e3 a9bd 26ed e1bc 570a 213c 49dd 8c3c
000002c0: ff01 063a ee8d 9dbd 53fb b4bd 50e2 a4bd
000002d0: baa8 783c 2801 88bd c56f f6bc 6a3f 47bd
000002e0: e423 9d3c cb26 62bc 9f87 7bbc c13f a5bd
000002f0: db0a 8abd cbe3 8fbd 92fe 8c3c e672 08bd
00000300: 8342 70bd da18 5abc e935 d9bc bd4d ce3c
00000310: 366a e8bc ee6d 38bc e7f8 adbd 063a 9bbc
00000320: 0675 1d3c 8d13 0f3b 1ffc abbd 3fa6 c9bd
00000330: 5ac3 43bd cb21 0cbd 6e3e a9bd 9899 15bd
00000340: 2193 14bd b041 063c 478d 7cbd 6b47 a9bb
00000350: f145 01bd e009 d6bc 8dc1 67bc e9f0 d5bb
00000360: 2c6b 55bd 6dab 39bb e0fa 99bd 0858 71bd
00000370: 3ecf 66bd a670 95bb 7d25 153d 1999 52bc
00000380: ada3 763c f1fd 9dbd 2e1c 59bc e4b4 4f3c
00000390: 0fd9 763d 1678 863d e860 1bbc 7220 80bd
000003a0: 324b 22bc 737d 503d f5a0 1e3d 05af 033d
000003b0: 6351 a3bd 9814 70bd cb1b 40bd c6a2 ebbc
000003c0: 88e2 68bd a545 c83c b1e5 b93c 3d48 b1bb
000003d0: 2b77 df3c 3578 bbbc fae8 53bd aa56 203d
000003e0: b2e6 94bd e72f 083c de1e 85bd a09f 58bd
000003f0: f35e b0bc 0f0a 9abd f6d6 6a3b 824b a6bd
-0.0130311 0.042015802 -0.015858939 -0.039798416 0.027818687 0.009990264 -0.008504635 -0.04739722
-0.043756623 -0.058440175 0.04885013 -0.050098125 0.06036735 0.013780587 -0.093227535 -0.082635514
-0.064747095 -0.10380459 -0.011978246 0.019525092 -0.054931264 -0.0041816724 -0.044370055 0.060664162
-0.051567458 0.041275494 0.0017673007 -0.04680679 -0.069787435 -0.05798453 -0.013517446 0.029274553
-0.01645723 0.031469088 -0.0048703845 -0.074650206 0.008602973 -0.05042365 0.044283293 0.024840385
-0.04682313 -0.060404807 -0.061756827 -0.061893504 -0.011924198 -0.09546201 0.014018835 0.037376072
-0.01750872 -0.097232856 -0.072367795 -0.0017615199 -0.015566206 -0.040215038 -0.025979735 0.007817716
-0.021033084 -0.06065773 -0.024875743 0.0031285023 -0.017132528 -0.016791856 0.026858196 -0.024908671
0.028261323 0.0134975575 -0.023690177 -0.04191306 -0.08566867 -0.082880996 -0.07113039 0.0022160944
0.043530412 -0.10992444 -0.0012713537 0.02111199 -0.092587836 0.046901006 -0.0015779708 0.013434302
0.01948421 -0.061810937 -0.028997354 -0.07893701 0.027559746 0.0065302425 -0.0704557 -0.034060553
0.021944795 0.013824512 -0.0037721263 -0.097405724 -0.035850137 -0.06440462 0.03781458 0.06754638
-0.030007329 -0.059620503 0.0417078 0.026961725 -0.007267462 0.017912429 -0.0653855 -0.037498828
-0.078700274 -0.06063106 0.023546733 -0.0036873557 0.024804499 -0.1367319 -0.02474745 -0.026667947
0.009709622 -0.08819966 -0.065532535 -0.03645153 -0.09756052 -0.04757187 0.021667728 -0.018589394
0.0059021604 -0.015101673 -0.011271738 -0.050009664 0.056654073 -0.078117736 -0.08424266 -0.07096791
0.012943373 -0.08507326 -0.039416302 -0.00851326 -0.05001871 -0.016094534 0.04751829 0.034711935
-0.10220879 -0.024180593 0.04801795 -0.04239415 0.01418183 -0.035004746 -0.05068664 0.015598358
-0.0324721 -0.05212311 -0.045977183 -0.014197166 -0.03585229 0.0033382582 -0.10473358 -0.072695784
-0.016376654 0.06760968 -0.073052555 -0.10780565 -0.03228231 -0.051652893 5.3229192e-05 -0.04489362
-0.03533724 -0.10183125 0.040803336 0.044430297 -0.01780241 -0.06770356 -0.071228005 -0.019166946
0.0200209 -0.025554739 -0.03145314 -0.056931358 -0.08295302 -0.027578901 0.009829125 0.01719536
0.0005111992 -0.076930866 -0.08836999 -0.08050978 0.015176946 -0.066408455 -0.030082593 -0.04864446
0.019182153 -0.013803194 -0.015352159 -0.08068801 -0.06740352 -0.0702587 0.017211232 -0.0333127
-0.05865718 -0.013311589 -0.026514964 0.025183553 -0.028370958 -0.011256678 -0.0849474 -0.018948566
0.00961042 0.0021831722 -0.08397698 -0.09846162 -0.047793724 -0.034211915 -0.08263861 -0.03652343
-0.036273126 0.008194372 -0.06165817 -0.0051659844 -0.031560842 -0.026127756 -0.014145267 -0.006528963
-0.05210416 -0.0028330937 -0.07518554 -0.058921844 -0.056349985 -0.004560548 0.036412705 -0.012853884
0.015053672 -0.07714451 -0.0132513475 0.012677405 0.060265597 0.06565873 -0.0094835535 -0.062561885
-0.009905623 0.050900888 0.03872772 0.032149334 -0.07974508 -0.05861339 -0.046901505 -0.02876414
-0.056856662 0.024447272 0.022692533 -0.005410223 0.027278503 -0.022884468 -0.051735856 0.03914515
-0.07270564 0.008312202 -0.06500028 -0.052886605 -0.02152965 -0.0752145 0.0035833693 -0.08119871

bias f4 [200]
00000000: d3d2 95bd cd86 d6bd 9fd9 92be 1e78 c3bd
00000010: 1d58 a6be 05b2 3abf 304e 3abb ee4d c4bd
00000020: 0dfe c43b 4fb1 a8bc a642 87be 0a97 14bf
00000030: 8040 dc3e 48c5 23be d5f0 84bd cf1d f6be
00000040: f581 5cbd 6681 80bd b128 03be c6be bb3e
00000050: fa15 7abe c3c3 93be 4a77 e8bd 8326 69bd
00000060: ce0c 88bd aab5 3f3e b80e 82be 1e43 5bbf
00000070: 0602 61bf a72e 23be 6905 5abf 7e9e 79bd
00000080: b356 98bd 2a4f 27bf 8ee4 3dbe adc1 dbbd
00000090: edcf 99be 4f54 9dbe dd36 cdbe b6e9 f7bd
000000a0: 995b 21bc 6f6e aebe 72cb 0bbe 2637 d0be
000000b0: 234d 003e bb25 0abe 1276 debe fec8 7d3e
000000c0: 2f87 27be 07da 03be 5e91 12be df61 2ebf
000000d0: db39 eabe 234d 27bd b0c0 b9be 0390 c9bd
000000e0: 64ef 8dbe 67be a3bd 2b9c 43bd c783 c6bd
000000f0: ce00 c6bd c2b1 44bd 8684 adbe 64f7 a4be
00000100: 03f5 0abf 2c0c 16be bfa1 42bf 36ca cebc
00000110: ead8 81be 8447 45bd 90af 34bd 3225 62be
00000120: f3c2 053f cc84 f3be 9cc8 f3bd 35ad 2dbe
00000130: c683 1bbe b602 06be 7355 1ebc 1abd dabe
00000140: ef2c b6be c312 d9bd d325 0f3d c973 0cbe
00000150: ce1a a5be 563d 943d 76d5 21bf f100 a3bd
00000160: 59e8 fcbe 48ee b6bd 34dc 0cbf 8886 52be
00000170: 59fe 3fbd a9b9 b6be bedf a3bd 4a13 4fbd
00000180: f095 fcbe 614e bcbe 5c63 3cbf 28cd edbd
00000190: 7858 d9bd 8ad9 64bd e5fc 67bd 6657 74be
000001a0: 20ad b1bd d966 4ebd 4ed2 97bd f981 2fbf
000001b0: e1a2 b7bb 8daf 63bd ae36 f1be 782c bc3c
000001c0: 1835 6dbf ed57 30bc 6c48 cdbe 88b6 5ebc
000001d0: c834 89bd 76b2 523f 2b0f 8abd 0759 fdbc
000001e0: 1919 3fbd 7e15 3fbf dcaa 09bf 8b36 ad3e
000001f0: 663c dbbd 65dd 43be cd96 4fbe e68a 01be
00000200: c762 58be 12c4 29be a42d efbe 4300 98bd
00000210: 9d6a 8bbd 1808 cb3e 2a4c b4bd f020 443e
00000220: 9e12 08bf 76cb d4bd cf3a 0fbf 451b 413d
00000230: aeae aebe aae4 5abf fa24 bcbd ae1c 8c3d
00000240: 574d 2bbe ca32 b7be b1fb b7bd 5a1a b1bd
00000250: d4f6 afbd 307e a8bc 53b7 bbbe d4f4 4fbf
00000260: 8c1d cebe 351c 643f eee3 833f 3d64 d6bd
00000270: e4f7 dabe 94ba 05bf 38c7 1bbf d710 0a3e
00000280: 0b79 80bc 83a9 c0bd 803b eebe 32a5 cabd
00000290: 8351 69bd 9595 90bd d208 07bd 9392 80be
000002a0: bc7a dabc c7a5 95bd 4cf6 48bf c3fd 5abd
000002b0: 3028 10bf 4d3d 613e 055b b0bd fb61 e1be
000002c0: 7124 a8bd b37b b1bc 5217 72be 3629 87bd
000002d0: 2ad2 00be 051f b8be 9d38 21be 3b3f 9fbe
000002e0: 1166 e83e 3ec1 fabd 2241 03bf 0bb6 d8bc
000002f0: 95fb 95be 966e 70be 703e cdbd 08c0 c8be
00000300: 0c86 86be 89bc 82bd b8a3 21be 83b1 afbe
00000310: 10a4 44bd 1543 51be d991 bbbe 631b aabd
-0.07315602 -0.1047493 -0.28681657 -0.09544395 -0.324891 -0.72927886 -0.002842795 -0.095851764
0.0060117305 -0.02059236 -0.26418036 -0.5804297 0.4301796 -0.15993226 -0.064912476 -0.48069617
-0.053834874 -0.06274681 -0.12808491 0.36668986 -0.24422446 -0.28860292 -0.113508776 -0.056921493
-0.06643067 0.18721643 -0.25401855 -0.8564929 -0.8789371 -0.15935765 -0.85164505 -0.060942166
-0.074384116 -0.6535517 -0.18544218 -0.107303 -0.30041447 -0.30728385 -0.4008092 -0.12105124
-0.009848499 -0.3406863 -0.13651827 -0.40667075 0.12529425 -0.13490956 -0.43449455 0.24783704
-0.16360162 -0.1287614 -0.14313266 -0.6811809 -0.45747265 -0.040845048 -0.3627982 -0.09841921
-0.27721703 -0.07995301 -0.047756355 -0.09693103 -0.09668122 -0.048021086 -0.3389017 -0.32219994
-0.5428011 -0.1465308 -0.76028055 -0.025242906 -0.25360805 -0.048163906 -0.044112742 -0.22084501
0.52250594 -0.47562253 -0.119034976 -0.16960604 -0.15186986 -0.13086972 -0.009663927 -0.42722398
-0.35581157 -0.10599282 0.03494818 -0.13716044 -0.32247013 0.072382614 -0.6321634 -0.07959164
-0.49396017 -0.08932167 -0.55023503 -0.20559132 -0.046873424 -0.35688522 -0.0800166 -0.050555505
-0.49333143 -0.36778548 -0.7358911 -0.11611396 -0.10612577 -0.055871524 -0.056637663 -0.23861465
-0.08675599 -0.050391052 -0.07413159 -0.685577 -0.0056041335 -0.05558734 -0.4711203 0.022970423
-0.9265914 -0.010763151 -0.40094316 -0.0135933235 -0.0669952 0.8230356 -0.06741174 -0.03092624
-0.046654794 -0.7464217 -0.53776336 0.33830675 -0.107048795 -0.19127424 -0.2027237 -0.12650642
-0.2113143 -0.16578701 -0.4671451 -0.07421925 -0.06807444 0.39654613 -0.0880359 0.1915319
-0.5315341 -0.103903696 -0.5594911 0.047145147 -0.34117645 -0.85505164 -0.0918674 0.06841408
-0.16728722 -0.35780936 -0.08983553 -0.08647604 -0.085920006 -0.020567983 -0.36663303 -0.81232953
-0.40256917 0.8910554 1.0303934 -0.10468338 -0.4276725 -0.5223782 -0.6085086 0.13482986
-0.015682718 -0.09407332 -0.4652977 -0.0989479 -0.0569625 -0.070597805 -0.032967396 -0.25111827
-0.026669852 -0.0730701 -0.7850082 -0.053464662 -0.5631132 0.2199604 -0.086111106 -0.44020066
-0.08210076 -0.02166543 -0.23641708 -0.06599657 -0.12580171 -0.35961166 -0.15744253 -0.3110293
0.4539037 -0.12243889 -0.5127126 -0.026453992 -0.29293504 -0.23479685 -0.10021675 -0.39209008
-0.26274145 -0.063836165 -0.1578511 -0.34315118 -0.048008025 -0.20435746 -0.3663471 -0.08306005
