Vehicles/ModRepeat_forest_6/ModRepeat_forest_6_actor_target.pth (torch, 176514 bytes, 5 tensors)

weight f4 [200, 14]
000000 af 3e 23 bd 43 5f 91 3f 61 5f e0 3e f4 5e cf 3d
       -0.0398547 1.1357197 0.43822768 0.10125533
000010 7f 88 78 3e a7 a1 d4 bd 42 4b 07 3f 27 8b c7 3e
       0.24270819 -0.10382395 0.5284921 0.38973352
000020 9f 43 96 3e 8a 76 c7 be af b5 c0 bf c4 04 93 bf
       0.29348466 -0.38957626 -1.5055445 -1.1485829
000030 f5 c3 72 bf b2 bd 0f be 47 a4 0c 3e cf 00 37 3f
       -0.94830257 -0.14037207 0.13734542 0.7148561
000040 36 fa 94 3f 4c 92 76 bd 32 9c 7c 3e 74 e3 ca 3e
       1.1638858 -0.060198113 0.24668959 0.39626658
000050 c8 78 a8 3d ec b5 09 be 4a 75 bd 3e 63 f7 f0 bd
       0.08226162 -0.13448304 0.37003547 -0.11765935
000060 7a 57 ca 3d 3c ce 8c be b7 0b 7f be fd 7a 00 be
       0.09879966 -0.27501094 -0.24906813 -0.12546916
000070 1a 4c ad 3e 5d b2 dd be 02 22 53 be df 6b ad 3e
       0.33847123 -0.43300143 -0.20618442 0.33871362
000080 10 ec 4a 3f aa 7e 26 3f 9f 0c 59 bf c4 41 34 3e
       0.7926645 0.65037024 -0.84784883 0.17603213
000090 a4 ed a1 bd 13 b3 2a 3f ab 1c be bf 36 76 00 3e
       -0.079066545 0.66679496 -1.4852499 0.12545094
0000a0 2a d0 50 3b cc 41 d0 3d 46 22 0f 3f d5 cc 59 bf
       0.0031862357 0.101688 0.5591167 -0.85078174
0000b0 02 bb 09 bf 95 a2 a1 3d 55 16 8a be 49 10 4c be
       -0.53800976 0.07892338 -0.26970163 -0.19928087
0000c0 19 ca 9f 3e 83 89 a0 bd 9a 1a 7e 3e d5 eb 0c 3f
       0.31208876 -0.07838728 0.24814835 0.5504735
0000d0 5b 5d 45 bf 83 8d c4 bf d2 a7 db bf 04 39 84 bf
       -0.77095574 -1.5355686 -1.716059 -1.03299
0000e0 e6 e6 f0 3e 99 e6 eb 3e 92 2d 19 be 11 42 16 3f
       0.47051162 0.4607437 -0.1495879 0.5869456
0000f0 d0 12 46 bd 1e 95 ca bd cb c3 43 bd bf 8f f5 be
       -0.048357785 -0.09891723 -0.047794145 -0.47961232
000100 64 91 b0 bf 1b 83 19 be f1 6a 29 3f b5 45 25 3e
       -1.379437 -0.14991419 0.66178805 0.16139872
000110 5e a9 1b be cf c6 e0 3e 3a 2b 5a bf c9 27 c6 bd
       -0.15201327 0.4390168 -0.8522221 -0.09675557
000120 9c b1 8c be 94 72 74 3e fe ca 1a be c6 04 9e be
       -0.27479255 0.23871833 -0.15116498 -0.30863017
000130 3b 04 ed be 74 0a f0 be 07 fc 2c bf b3 96 62 bf
       -0.4629229 -0.46882975 -0.67572063 -0.885112
000140 a2 19 e8 3e 88 e4 b2 be 34 2e 82 3e ff 0a 3a 3f
       0.45332056 -0.3493998 0.25425875 0.7267303
000150 ef 2a 10 3f bf b4 1c 3f a8 af 85 be d7 80 4a 3f
       0.5631551 0.61213297 -0.26110578 0.79102844
000160 33 a0 57 bf 7f b0 e4 be 8f d0 08 be de f2 2f 3e
       -0.8422882 -0.44665906 -0.13360809 0.1718249
000170 a9 68 14 3d 6f d8 29 bd 03 85 66 be a3 65 12 3e
       0.036232624 -0.041466173 -0.22511677 0.14296584
000180 4e 9f 08 3f 00 cb c0 3d 30 49 37 bd 39 1e a8 be
       0.5336808 0.09413719 -0.04474753 -0.32835558
000190 35 91 e3 3e db 10 0a 3f 44 a9 4d bf 0e c6 5b bf
       0.44446722 0.5393197 -0.80336404 -0.8584908
0001a0 57 f4 49 bf 6b 0c 4d bf ab 6f 10 c0 c0 5f cf be
       -0.7888846 -0.80097073 -2.2568157 -0.4050274
0001b0 86 f4 07 3f 42 98 ff 3e 09 0d a2 bd 6c f3 3c be
       0.5310749 0.4992085 -0.079126425 -0.18452233
0001c0 87 5a e0 3e 06 cc 5b bf a6 c4 9a bc e7 20 3e 3e
       0.43819067 -0.8585819 -0.018892597 0.18567239
0001d0 36 b1 c2 3e 26 4f ac 3d f5 63 2f 3f 8a 16 50 bf
       0.38025826 0.08413534 0.685119 -0.8128439
0001e0 03 12 8f be bb ef b4 bd 4c 0f bb 3e 9b 02 80 bd
       -0.2794343 -0.088347875 0.36535108 -0.06250497
0001f0 ee 75 35 bf 8a 2a 19 3d 5c 58 30 3e 6b d3 7e bf
       -0.7088307 0.037394084 0.17221206 -0.9954135
000200 a3 78 b1 3e b0 d3 d4 be 07 14 40 3e 88 ff 9e 3e
       0.3466235 -0.41567755 0.1875764 0.3105433
000210 a1 97 e3 3e 8d 41 22 be d5 df 6f 3e 52 bd 91 3e
       0.4445162 -0.15845318 0.23425229 0.28464752
000220 15 a3 09 bf 49 25 8f be da 45 69 be 6f f7 15 be
       -0.5376447 -0.27958134 -0.22780553 -0.1464517
000230 29 d1 4a bf 78 37 53 be ed d2 ec be 7b 4f 7b be
       -0.79225403 -0.20626628 -0.46254674 -0.24542038
000240 57 cb 01 3f c0 e6 25 3e 21 9b 3e 3d bd 39 45 bf
       0.50700897 0.16201305 0.04653466 -0.77041227
000250 d9 05 80 bf 5d 08 c3 bf c8 47 c7 bf 7c 0d e9 bb
       -1.0001785 -1.5236927 -1.5568781 -0.007112203
000260 53 79 c4 3e 2c 84 ef 3e 2f 1c 78 3d 05 a4 d9 bd
       0.38373813 0.46780527 0.060573753 -0.10626987
000270 95 41 b5 be 74 ad 44 3f 67 44 3b 3d 32 da 1d 3f
       -0.35401598 0.7682717 0.04571953 0.61661065
000280 9a a5 2c 3e c8 d8 b6 be 59 2d ee bf cf 66 c3 be
       0.16860047 -0.35712266 -1.8607589 -0.38164374
000290 81 1c 63 be cf 3e fc 3d ea 1d a8 bc 3c f1 66 3e
       -0.22178842 0.12316667 -0.020522077 0.22552961
0002a0 e2 c0 b0 3d 5a 5f ac be 17 51 6a 3f aa bd ec be
       0.086305395 -0.33666497 0.91529983 -0.46238452
0002b0 10 81 bd be 2c f8 06 be 99 32 f7 3d 54 8e e9 3d
       -0.3701253 -0.13180608 0.120701976 0.114041
0002c0 f1 f1 08 c0 10 5b 30 3e ec dd b8 3a e7 92 95 3e
       -2.139767 0.17222238 0.0014104224 0.2921364
0002d0 c1 3b 68 be 0b 61 62 be 60 df 50 3e 34 1d 98 bf
       -0.22679044 -0.22107331 0.20397711 -1.1883912
0002e0 78 ee 14 bf f6 ee 3f 3b 1b 9c 7c be 9c 5f a9 bd
       -0.58176374 0.002928672 -0.24668925 -0.08270189
0002f0 aa d4 98 bc 62 68 40 3e 28 7e 83 3d aa 59 45 bf
       -0.018656094 0.18789819 0.06420547 -0.7708994
000300 ff a9 c4 3e 6e fc 8b 3e 1c 03 e7 3e 1a ac 80 3d
       0.38410947 0.27341026 0.4511956 0.06282826
000310 4e 97 1e bf a1 6e 96 bc eb 93 b7 be c0 af 0e bf
       -0.6194962 -0.018363299 -0.3585504 -0.55736923
000320 4a 50 51 bd 5e cf e2 bd a9 f4 dc be cb 0f 6e bd
       -0.05110196 -0.110747084 -0.4315541 -0.05812053
000330 cc 10 a9 be ea 86 b2 be be 72 c9 be 1d df a9 bd
       -0.33020627 -0.34868556 -0.39345354 -0.082945086
000340 44 28 bb 3e 21 b5 ad 3e 0a 56 09 bf 5f f0 95 3e
       0.36554158 0.33927253 -0.5364691 0.2928495
000350 76 72 b5 be 07 0f 1f 3f 05 9e be 3e 39 51 af 3d
       -0.3543889 0.62132305 0.37229934 0.08560414
000360 18 59 3c 3e 6d e5 1d bf 2d 50 b8 bc 8c 54 42 3f
       0.18393362 -0.616782 -0.022499168 0.7591026
000370 5c 08 b9 3e 3b 48 36 3f 41 13 a9 3e 3b 13 6c 3e
       0.3613919 0.71203965 0.33022502 0.23054211
000380 fd 20 01 bf 00 50 e8 3e 74 20 d9 3b 9b 14 9f be
       -0.5044096 0.45373535 0.006626183 -0.31070408
000390 8f 17 f1 3d 37 09 71 be df d5 a1 3e 41 6a 14 3f
       0.117720716 -0.23538671 0.31608483 0.5797463
0003a0 0b 2d fe 3d 86 da 15 3f ea 95 58 bf 38 bc d9 bf
       0.12410935 0.58536565 -0.8460375 -1.7010565
0003b0 cb 67 05 c0 8e d7 9f bf c6 2e 81 3d 16 d5 eb be
       -2.08446 -1.2487657 0.063077495 -0.4606101
0003c0 50 0d ff 3d 47 03 3f bf da 3f f6 3e a2 3d dd 3d
       0.12453711 -0.74614376 0.4809559 0.10802771
0003d0 28 b2 a4 3e e8 fa ae be ce 5d bb be 2c 9a 17 bd
       0.32167172 -0.341758 -0.36595005 -0.037012264
0003e0 f3 f8 b4 3c 0f 33 85 be 32 b7 03 bf 7d f5 04 bf
       0.022091364 -0.26015517 -0.5145141 -0.51937085
0003f0 da 6a 65 3e 12 19 25 3f 57 78 a7 3e e1 fb 05 3f
       0.22404042 0.6449138 0.32709 0.5233746

bias f4 [200]
000000 8f b7 33 3e f0 80 01 be 86 81 0a bf 73 f3 e4 be
       0.17550491 -0.12646842 -0.5410389 -0.44716987
000010 1b bb 92 3e 1e f8 13 bf 1e b2 dc be 73 cb 20 3e
       0.28658375 -0.5780047 -0.43104643 0.1570261
000020 b1 98 cd 3d f0 2a b0 be a5 79 84 3e 30 56 fc 3d
       0.10038889 -0.3440776 0.25874057 0.123211265
000030 ca 98 7b 3e 99 36 06 3e 46 28 29 3e 4e 80 2e be
       0.24570003 0.13106765 0.1651927 -0.17041132
000040 85 b3 98 3e 70 94 bc be 10 25 99 be 6d 27 6b be
       0.29824463 -0.36832 -0.2991109 -0.22964258
000050 52 d3 f6 bc 0a f4 3e 3e fd 4a 0f bf 09 d7 62 be
       -0.030130062 0.18647781 -0.559738 -0.22152342
000060 1a ff f4 bc 51 7e f5 3c c4 27 30 3e 08 4b 32 be
       -0.029906798 0.029967459 0.1720267 -0.17411435
000070 f2 c8 9b 3e b1 92 33 3e 81 49 ca bb e9 6b 84 3e
       0.30426747 0.17536427 -0.006173313 0.2586358
000080 07 12 8c 3c cd 4b 19 3d 18 00 89 be 63 2d da be
       0.01709844 0.037425805 -0.26757884 -0.42612752
000090 a6 a6 1f 3e 49 a2 49 3e b9 e1 d3 be ed 05 0d bf
       0.15590915 0.19690813 -0.4138315 -0.5508717
0000a0 0d 21 bb 3e 22 66 fd 3d 9f aa 22 bf 30 3b 9f 39
       0.36548653 0.12372996 -0.635416 0.0003037094
0000b0 c8 b4 45 3d 49 95 1f be 1d 22 34 3d db 17 bd be
       0.04826811 -0.15584292 0.043977845 -0.36932263
0000c0 e7 5d 6f 3e d5 5e a3 3e ab 88 da 3c 17 dc f3 3d
       0.23375665 0.3190829 0.026676496 0.11907213
0000d0 79 d2 4d 3e 90 25 89 3d 03 44 94 be 6d 1e 3a be
       0.2009982 0.066966176 -0.2895814 -0.18175669
0000e0 69 dc b1 be 13 6d 1c be a0 17 bf bd e8 bb 0f 3e
       -0.34738472 -0.15275984 -0.09330678 0.14036524
0000f0 d2 f6 be be 7e a4 8d be 59 1a db be 24 1f d5 be
       -0.37297684 -0.2766456 -0.4279354 -0.4162532
000100 66 e9 8a bd 4e 4a f6 be 16 b7 3d 3d 08 32 3d bf
       -0.067827985 -0.48103565 0.046317182 -0.73904467
000110 e6 92 e9 3c 58 13 84 be 66 fa 14 3e ed e5 97 be
       0.02851243 -0.25796008 0.14548644 -0.29667607
000120 d7 5f 0b 3e 69 eb 90 bc 63 8c e5 3d cf ee 37 3c
       0.13610779 -0.017690377 0.11208417 0.01122637
000130 42 d6 d2 3e 82 93 80 3e 2f ca 4c bf 5a 3d 83 be
       0.4117909 0.2511254 -0.7999601 -0.25632745
000140 58 b0 83 3e ef 28 2a be bf 9b 04 be 32 b3 35 3e
       0.25720477 -0.16617177 -0.12950037 0.17744139
000150 6a 10 e6 3d e5 2d 5d 3e 84 2a 9e be bd 97 79 3e
       0.112335995 0.21599539 -0.30891812 0.2437429
000160 e4 9a 3e 3e f0 98 55 3e 4c 46 4a 3e c5 f4 98 bc
       0.18613774 0.20859122 0.19753379 -0.018671403
000170 e8 2e 24 3c 46 7b 65 3e 85 bd 83 3e a4 e9 e7 3d
       0.010020949 0.22410306 0.2573053 0.1132386
000180 43 d4 a1 be fb 74 fd bc 69 30 75 be 13 1d e1 bc
       -0.31607255 -0.03093957 -0.23944248 -0.027479684
000190 02 f9 a5 be 6d 64 81 be 8c af 9e 3e ba e1 9e 3e
       -0.3241654 -0.2527193 0.30993307 0.3103159
0001a0 0c 9c a6 bd aa 2a 69 bd d0 37 23 3e 31 01 55 3d
       -0.08135232 -0.056925453 0.1593926 0.05200309
0001b0 e0 a2 2b be 30 4e 7c 3e c8 a8 87 be 4c 74 0c 3e
       -0.1676135 0.24639201 -0.26495957 0.13716239
0001c0 46 bb c2 be 57 3a 6b bd f6 f9 33 be 82 43 5e 3d
       -0.38033503 -0.057428684 -0.17575821 0.0542636
0001d0 69 77 53 3e 1c ef b2 3e 3d 7d 2a be 91 f2 1d 3e
       0.2065102 0.3494805 -0.16649337 0.15424563
0001e0 78 67 1b 3e ff 0e bd 3e e4 6f ec be 96 ab 93 bd
       0.15176189 0.36925504 -0.46179116 -0.07210462
0001f0 b1 86 ee be 60 6f 74 3e bf e5 9d 3e 71 cc 5c be
       -0.46587136 0.23870611 0.30839345 -0.21562363
000200 7c 43 dc bd 54 b0 58 3d 1d f0 8c be 77 38 8e be
       -0.10755059 0.052902535 -0.27526942 -0.27777454
000210 7d f0 87 3e a9 65 ac bd ae c2 7a bd c6 e0 ce 3e
       0.26550665 -0.08417828 -0.061220817 0.40405864
000220 26 26 09 be c9 ff bf 3e b4 d2 9b be 9c ef f1 be
       -0.13393459 0.37499836 -0.3043419 -0.4725312
000230 bf 51 b9 3e a9 32 1d 3f 0d b0 c5 3e 27 84 93 be
       0.3619518 0.61405426 0.3861088 -0.28811762
000240 86 72 65 3e 41 d5 2f 3e dc e9 10 3e ec 2d b8 be
       0.22406968 0.17171194 0.1415171 -0.35972536
000250 5a a6 d2 bd ad a1 53 be cf 7f 05 be e9 3d c5 be
       -0.10285635 -0.20667143 -0.13037036 -0.38523796
000260 9f 57 db 3e 48 fc 5a 3e a9 0d 1b bf ed 8a a5 be
       0.42840287 0.213853 -0.6056772 -0.32332554
000270 14 d4 b9 be 75 61 cc 3d 3d 22 83 be 4a d6 a6 be
       -0.36294615 0.09979526 -0.2561206 -0.32585365
000280 09 ac 03 3f 95 42 7a be af 1a cf 3e ba b9 df 3e
       0.5143438 -0.24439462 0.40450045 0.43696386
000290 52 94 7b 3e 9c df ca be 38 0f 80 3d fa a5 51 be
       0.24568298 -0.39623725 0.06252903 -0.20473471
0002a0 38 4b 13 bd 26 88 ce be 19 99 2c 3e f7 2a e2 be
       -0.035960406 -0.40338248 0.16855277 -0.44173405
0002b0 fb c0 4a be f5 58 a8 3d 56 f9 0c be 09 57 f7 bd
       -0.19800179 0.08220092 -0.13766989 -0.120771475
0002c0 19 85 01 be 6e ad a1 be 05 5c 1d be 3e aa fc 3d
       -0.12648429 -0.3157763 -0.15367134 0.123371586
0002d0 2f e6 b6 3e e4 93 f6 be 48 07 5f 3d 95 6b 6c 3e
       0.3572249 -0.48159707 0.054450303 0.23087914
0002e0 55 8c b6 bd 82 28 a7 bd 7d 72 15 bf cf 14 38 be
       -0.08913485 -0.08162023 -0.5837782 -0.17976688
0002f0 9b c3 e9 be 84 5e 19 3d 18 94 f6 be 0b 07 5c bc
       -0.45657048 0.037443653 -0.48159862 -0.013429414
000300 65 65 83 3e 03 df db b9 91 27 f9 bd fd 96 3c be
       0.25663295 -0.00041937092 -0.1216575 -0.18416972
000310 28 79 99 be 34 50 8c be ec 19 08 3e d3 2d bf 3e
       -0.29975247 -0.2740494 0.13291138 0.3733965

weight f4 [200, 200]
000000 05 b3 a8 3e 5d 05 c7 bb a2 ad 4d be cf 30 ad 3e
       0.3294908 -0.0060736374 -0.20085767 0.338263
000010 cf bf f0 be ea 9c e5 be 34 f5 c7 be 6a 0b de bd
       -0.47021338 -0.44846278 -0.39054263 -0.10842021
000020 62 51 48 bf 21 01 d9 be a4 3a 88 bb ea 78 d2 bb
       -0.7824918 -0.42383674 -0.004157381 -0.0064231055
000030 bb 64 5a be 4c cf aa 3d 3e 3e aa be f4 f6 ad 3d
       -0.21327488 0.0834032 -0.33250612 0.08494368
000040 33 66 8b 3e 4f ac 2f bf e0 58 39 bf 5f ef 7a bd
       0.2722641 -0.686223 -0.7240124 -0.06126344
000050 03 2d f2 3b 8a fe 27 bf 7e 71 c8 be a7 35 a6 bf
       0.0073906197 -0.6562277 -0.39149088 -1.2985123
000060 18 19 af bb 6c 81 74 be 93 e7 1c 3e 15 fb 6e be
       -0.0053435676 -0.23877496 0.15322714 -0.23337968
000070 6a 1c da be eb a1 00 be 96 2e 90 be 31 6a df bc
       -0.42599803 -0.12561767 -0.28160542 -0.027272316
000080 59 76 4e 3e f9 a0 5b be 44 72 43 3e 32 b3 88 be
       0.20162334 -0.21448125 0.19086558 -0.26699215
000090 d6 62 4c bd 60 14 3a be ce 3e d2 3e 25 32 98 3e
       -0.049898945 -0.18171835 0.4106354 0.29725757
0000a0 aa 12 fa 3e 34 0b 1b bd 43 d7 e4 bd 55 02 8e 3e
       0.48842365 -0.03785248 -0.111738704 0.27736154
0000b0 7d 8e 09 bf 60 b8 a2 bd f4 4f 89 be 6a 9b df be
       -0.53733045 -0.07945323 -0.26818812 -0.4367326
0000c0 e5 13 83 3c 26 08 e1 be 79 3f 47 3e c2 91 b5 3f
       0.016000697 -0.4395153 0.19457807 1.4185107
0000d0 d4 c4 13 bf 9d 1b a3 3e 3f f9 3d 3d b1 16 56 bd
       -0.5772221 0.31857005 0.046380278 -0.052267734
0000e0 3a a9 5f be 28 3c 4a bf 2d 65 99 bd db 91 71 be
       -0.21841899 -0.7899804 -0.07490001 -0.23590796
0000f0 ff e5 f8 bd ef dd 3a bf 0b 82 98 bd d1 14 b7 be
       -0.12153243 -0.72994894 -0.07446679 -0.3575807
000100 61 74 14 be e3 7b fc 3d f5 b1 1d 3f 5c ef f0 3d
       -0.1449752 0.12328317 0.61599666 0.11764404
000110 ba b7 8d 3e 1c 6c c6 be 45 53 61 bf 71 3f a5 be
       0.27679235 -0.38754356 -0.88017684 -0.32274964
000120 99 82 48 be 1d 01 0d 3f 7a 52 a8 3e 4c a5 19 3e
       -0.19581069 0.55079824 0.32875425 0.15004462
000130 34 90 fa be 10 44 84 bf 9b 74 dd 3e 07 1d a0 3e
       -0.48938143 -1.0333271 0.43253025 0.31272146
000140 26 bd 36 bf 8c 64 ae 3e 86 3a 00 be 48 c7 ba bf
       -0.7138237 0.34061086 -0.12522325 -1.4592066
000150 7d 82 52 ba 22 f9 06 be 56 0a 58 be b2 60 67 3e
       -0.00080303085 -0.13180974 -0.21097693 0.2259548
000160 1a 35 80 3f 3f 64 52 3f 24 00 5a bf c9 35 42 be
       1.0016205 0.82184213 -0.85156465 -0.1896583
000170 ae cb 5c be ef 9b 10 3e b6 2d 19 3f 49 9d 8c 3f
       -0.21562073 0.14121984 0.59835374 1.09855
000180 ac a3 7b 3e 56 2d f4 be 6c c3 91 bf 03 fb 57 3e
       0.24574155 -0.4769084 -1.1387763 0.21091847
000190 ef 7f ba bf 9a 4f e2 be cf 14 52 bf 82 bf 0f bf
       -1.4570292 -0.44201356 -0.82063 -0.5615159
0001a0 8d 65 be 3e f4 cf 12 bf 56 ea 12 3e cf fb 1a bf
       0.37186852 -0.5734856 0.14347205 -0.6054048
0001b0 11 d3 00 3d f5 64 b9 be 77 f2 25 bf a7 bf 5b 3d
       0.03145129 -0.36209837 -0.64823097 0.05364957
0001c0 ff 30 6c 3d fe e3 2f bf 62 43 4a 3f 54 03 f9 be
       0.057663914 -0.68707263 0.7900907 -0.48635352
0001d0 a8 1c 05 bf 78 3d 11 bf b3 40 49 3e 8a 66 e0 be
       -0.5199685 -0.5673442 0.19653587 -0.4382823
0001e0 4e 61 be 3d fb bf ee be 00 2f 34 bf 80 18 be be
       0.09295903 -0.46630844 -0.70384216 -0.37128067
0001f0 1e d6 21 bf b0 ec 43 be 69 2f 58 bf c1 b5 b7 be
       -0.6321734 -0.19133258 -0.8444734 -0.35880855
000200 47 2b 14 bf 8c cc 47 3d 6d d4 cc bb bb 7f df 3e
       -0.57878536 0.048779055 -0.006250909 0.43652138
000210 35 2b df be 0f 6c 28 3d df b1 a6 3d 8b 8d 1b bf
       -0.43587652 0.041118678 0.08139395 -0.6076285
000220 9e b7 c9 be ae ce 68 3f 54 fd 24 bf c9 e0 55 bf
       -0.393979 0.9094037 -0.6444905 -0.8354612
000230 1a 33 ed be 75 28 bc bf 48 73 2e be a4 bf 76 bf
       -0.4632805 -1.4699847 -0.17036164 -0.9638617
000240 40 e4 34 bf 52 73 d4 be 78 42 26 3f 30 4e a6 bf
       -0.7066078 -0.41494232 0.64945173 -1.2992611
000250 d6 a7 59 3f 6b 6f 77 3e 87 49 95 3e ed c6 a0 bd
       0.8502172 0.24163596 0.2915766 -0.07850442
000260 79 25 dc be de e5 16 bf c2 83 db be 8c 26 02 bf
       -0.4299734 -0.589445 -0.4287396 -0.5084007
000270 38 2c dd bb 4e 11 ec be d9 de 39 bf 8e 37 7e bf
       -0.006749656 -0.46106952 -0.72605664 -0.9930352
000280 10 06 b9 be 56 02 98 3e 8a 49 92 bd 5a a8 e7 3e
       -0.36137438 0.29689282 -0.07142933 0.4524563
000290 cf d7 2e 3e 07 be ae be 3a 16 8c be 31 aa d0 bc
       0.17074512 -0.34129354 -0.27360708 -0.025471779
0002a0 c3 83 18 3e 8f 13 7e bf e3 c6 61 bf 83 be 97 be
       0.14894013 -0.99248594 -0.881941 -0.29637536
0002b0 25 7b 6e be 0f 4b 8b 3f a8 e8 36 3f 2e 68 db 3c
       -0.23289163 1.0882281 0.71448755 0.026783075
0002c0 9a d3 2a bf d7 bb 36 be 87 ab 07 bf 6d 92 9f 3d
       -0.6672913 -0.17845093 -0.52996105 0.077916004
0002d0 ab 60 6e be fc f2 72 be 22 22 70 bc 27 b0 b5 be
       -0.23279063 -0.23725504 -0.014656575 -0.35485956
0002e0 5a 26 0b bf 6a 8b 9a 3e 4b 15 80 bd e8 c5 06 bf
       -0.54355395 0.3018449 -0.06254061 -0.5264573
0002f0 ac 9c 55 bc d4 e7 64 bf d3 d0 36 be 2b 40 43 bc
       -0.013037842 -0.8941624 -0.17853098 -0.011917154
000300 e0 a7 22 bf ae d2 46 3e 88 a9 38 bf 3b ba 08 3d
       -0.63537407 0.19416305 -0.72133684 0.03338073
000310 fe c9 2f bf 7e df b7 be de 4e aa be 1e e4 14 bf
       -0.6866759 -0.35912699 -0.33263296 -0.5816058
000320 cf 98 ac be 2e de 22 3e 73 b7 68 3e b6 0d af bd
       -0.33710334 0.15905067 0.2272623 -0.08547537
000330 77 22 b7 3b 3e 13 10 3f c7 75 a0 bd 26 81 28 c0
       0.0055888253 0.5627936 -0.07834964 -2.6328826
000340 cd c6 03 be ff b1 b3 be 2d 89 13 be 92 bb d3 be
       -0.12868805 -0.35096738 -0.14407797 -0.41354042
000350 d2 a6 14 bf 3b 73 67 be e7 aa a0 3e bb 24 f2 3c
       -0.5806705 -0.2260255 0.31380388 0.02955853
000360 37 43 24 bf 29 c0 dc bd 02 36 50 bf 79 91 d6 3a
       -0.6416506 -0.10778839 -0.8133241 0.0016370259
000370 e6 49 93 bf aa 61 d9 3d d4 14 0d 3f cc af 8b 3d
       -1.1506927 0.10614331 0.55109906 0.0682064
000380 96 71 a2 3d 39 3e db 3c f2 21 ea be 4c 2a 02 3e
       0.07931821 0.026763069 -0.45729023 0.12711447
000390 44 5e 0d bf 26 08 9f be 86 ef 13 be e1 a8 4d bf
       -0.5522196 -0.31060904 -0.1444684 -0.80335814
0003a0 88 1e ba 3d f1 f9 46 bf ba bf d4 3c 1a f4 51 bf
       0.090878546 -0.7772513 0.025970329 -0.82013094
0003b0 1d a6 10 3f 6d 09 88 be 91 2c d6 3e ba aa e4 3e
       0.5650347 -0.2656969 0.41830876 0.44661504
0003c0 ef ad a9 be d4 b2 fb bc 95 44 9d bc ec 50 fa be
       -0.33140513 -0.03072492 -0.019197742 -0.48889863
0003d0 95 01 8b be 26 7c 2d bd be 5d 27 3e cd 23 81 bc
       -0.27149644 -0.042354725 0.16344354 -0.015764141
0003e0 fc e4 85 bd 42 b3 51 bf 38 1d 3b 3e 57 ca a7 bd
       -0.06537816 -0.8191415 0.18272865 -0.0819289
0003f0 d5 45 89 bf 1a bf 5e bf eb 1f e5 bc f0 d7 bb bb
       -1.0724436 -0.8701035 -0.027969321 -0.005732529

bias f4 [200]
000000 5d cf 6e 3e f9 5b d5 3d 9e 58 9f bc d4 7a b1 bd
       0.2332129 0.10417933 -0.019451436 -0.08666006
000010 87 9d a9 bd 4a 15 60 be 7b 1e 8b 3e 25 5b 8d bd
       -0.08281999 -0.21883121 0.27171692 -0.0690215
000020 13 93 00 bd 51 27 c1 bd 95 5d 84 bd 36 c0 96 be
       -0.03139026 -0.09431327 -0.06463162 -0.2944352
000030 b1 72 4f be 00 81 37 bd 1a 8d 5e bd 56 44 9c bd
       -0.20258595 -0.04480076 -0.054333784 -0.076302215
000040 79 1f af bd bb 2d e4 bd a1 cb c2 bd 93 6f e8 bd
       -0.08550925 -0.11141535 -0.095114954 -0.11349406
000050 39 d3 b2 3e d6 2c e5 bd cf c4 e9 be 1b 66 ac 3e
       0.34926775 -0.111901924 -0.45657966 0.3367165
000060 cf 70 a2 be e1 4f 0b be 10 a0 93 be 56 81 b6 bd
       -0.3172669 -0.1360469 -0.28833055 -0.089113876
000070 cf 7c 80 bc a1 1d 46 bd 9a 38 ce be 66 2a bd be
       -0.015684513 -0.0483681 -0.4027756 -0.3694641
000080 b9 14 cd bd d0 7d bd bc 5a 14 d6 bd 08 88 37 be
       -0.10013718 -0.023131281 -0.104531005 -0.17922986
000090 dd 3d e6 be fe fb 16 bd a5 2c 82 bd b6 a3 20 bf
       -0.44969073 -0.036861412 -0.063561715 -0.62749803
0000a0 5a 64 f0 3d a3 20 6b bc b7 3c a3 be 0a c1 53 bd
       0.117378905 -0.014351043 -0.3188226 -0.05169777
0000b0 93 59 f4 be b3 5b e6 3e 13 a1 96 3e 55 38 05 be
       -0.4772459 0.44991836 0.29419765 -0.1300977
0000c0 cc 6d 71 be 98 7c b5 bd ea 7a da be d5 c1 85 bc
       -0.2357704 -0.08861655 -0.426719 -0.016327778
0000d0 bc bc fa bd 25 aa 04 bd 26 0c 16 be a7 be 24 bd
       -0.122430295 -0.032388825 -0.14653072 -0.040220883
0000e0 4d 24 83 bd 08 97 ae be 7c 72 fd be 9d f4 74 bc
       -0.06403408 -0.34099603 -0.49501407 -0.0149508985
0000f0 02 fe d0 be 2d 2c 96 be f3 60 14 3f 72 fd d4 bd
       -0.40818793 -0.29330578 0.5796043 -0.10399903
000100 8f b5 e4 3e 20 1d f8 be b7 e4 a0 bd ca 5f de bd
       0.44669768 -0.4845972 -0.07856124 -0.10858114
000110 89 fe cf bb ef d6 97 3d 4b 73 e1 be ab 58 e7 bd
       -0.0063474816 0.07414042 -0.44033274 -0.11296209
000120 b0 0d b2 be e8 8e 6a be 28 4e 3d bd f1 ee 48 be
       -0.34776068 -0.22906077 -0.046217114 -0.19622399
000130 e5 6c 09 bd ff f1 20 be c9 6d 73 3e af bb ae bd
       -0.033551116 -0.15717314 0.23772348 -0.085318916
000140 4e 16 96 bd 29 7e ce bc 06 f8 1c be e5 d4 a5 3c
       -0.07328473 -0.025206642 -0.15328988 0.020243118
000150 75 82 8e be f7 9b a9 bd bb bf ec be b7 48 a1 bd
       -0.27833906 -0.08281701 -0.4624003 -0.078751974
000160 a3 af 68 be b1 ff c4 bd fb 0e 66 3e bd e6 0c be
       -0.2272325 -0.09619082 0.22466652 -0.13759895
000170 69 90 06 be f8 f8 3f be 9d 89 c5 bd c4 c8 75 bd
       -0.13141026 -0.18747318 -0.09645388 -0.06000592
000180 a0 08 bd bd 73 a5 6b bd 55 ff 01 be cc fa f2 bd
       -0.09230161 -0.05753083 -0.12695058 -0.11864242
000190 50 cd 36 be 40 0d 20 bf 5d 16 1b be b0 2c 31 bd
       -0.17851758 -0.6252022 -0.1514525 -0.043255508
0001a0 46 d7 9c 3d 83 b8 e6 bd d2 15 5f bd 0d ef 0c be
       0.07658248 -0.112656616 -0.05446417 -0.13763066
0001b0 28 73 3b be 12 39 d6 be 98 d9 32 bc 8d 10 4b bd
       -0.18305647 -0.41840416 -0.010916136 -0.04957633
0001c0 2c e0 f8 bc 87 76 a3 bd 5e de 90 be 43 e3 03 bb
       -0.030380331 -0.07981592 -0.28294653 -0.0020124472
0001d0 ef f0 bb 3c 9d ab 8d bd ce 51 23 3c 4d 7e c1 be
       0.022942035 -0.06917498 0.009968234 -0.37791672
0001e0 23 88 65 3d 5e 22 bf be c2 a5 66 3d b5 f2 55 be
       0.056038033 -0.37330908 0.056310423 -0.20893367
0001f0 28 90 b2 bc 3d d7 05 be b2 91 a7 be 0d da e8 be
       -0.021797255 -0.13070388 -0.32728344 -0.4547886
000200 41 41 cb bc 1e 69 16 be 54 28 24 bf 76 7d e6 bd
       -0.024811389 -0.14688537 -0.64124036 -0.112543985
000210 1b 91 ee be 5c 39 04 3e 98 45 15 be 4a d6 91 3d
       -0.46595082 0.12912506 -0.14577329 0.071209505
000220 b0 d3 83 bd 05 6a 0a be de 5e 1f bc 4d 2e de bd
       -0.064368606 -0.13517006 -0.009727208 -0.10848675
000230 d2 ad 21 bf 8d d2 00 bf b3 34 ea bd 37 13 ac bd
       -0.63155854 -0.50321275 -0.11435833 -0.084021024
000240 7d a0 e2 be fb 7f e8 bd a6 c8 e4 3d f7 70 ac bd
       -0.44263068 -0.11352535 0.11171083 -0.08419984
000250 42 2c db bc 50 8d 30 be fa 6e 56 bd aa 1a 14 3e
       -0.026754502 -0.17241406 -0.05235193 0.14463297
000260 3d 1c 82 bd a5 3a 08 be 0b 85 c0 3c 88 0b 7c be
       -0.06353042 -0.13303621 0.02350094 -0.24613774
000270 f8 97 32 be fd e1 4d 3e 1a 51 21 be 43 0b ed bd
       -0.17440784 0.20105739 -0.15753594 -0.115744136
000280 9d 65 41 be fd 63 0e bb 62 cf 51 bd d4 8b 75 be
       -0.18886419 -0.0021727078 -0.051223166 -0.23979121
000290 11 3b c5 bd 75 1d 8a bd 38 af 4d bf 07 f6 ad bd
       -0.09630407 -0.067439 -0.8034549 -0.084941916
0002a0 5d a3 05 be 2c 71 7e be a1 9b ca bd e8 97 63 3e
       -0.130506 -0.24847859 -0.09892965 0.22225916
0002b0 a0 55 e9 be 77 05 27 be 3e ea 9a bd 5b 52 ed bd
       -0.4557314 -0.16310678 -0.075642094 -0.11587974
0002c0 a3 c1 78 be 9f 1b c2 3e 44 9f 1c 3e 64 25 fe be
       -0.24292617 0.37911698 0.1529513 -0.49637902
0002d0 ce a6 c0 3e 75 9e 13 3f 19 9b cb bd 15 55 ff 3e
       0.37627262 0.5766366 -0.09941692 0.498696
0002e0 86 8c a2 be 62 55 dd bd 33 7d e0 be 10 1a be bd
       -0.31747836 -0.10807301 -0.4384552 -0.09282315
0002f0 48 37 39 bc 62 9e d5 bd 5c 21 0a bf 48 dc 14 be
       -0.011304684 -0.104306 -0.5395715 -0.14537156
000300 24 12 dd 3d ac 3d f8 bb 9e a6 12 be 1a fa d0 be
       0.10794476 -0.0075757112 -0.14321372 -0.40815812
000310 97 ea 69 3d c3 54 98 be b2 db fe 3d ca ed d7 be
       0.057108488 -0.29752168 0.12444247 -0.42173606

weight f4 [1, 200]
000000 85 4e 4d bf 28 2b 47 3f 6d cf 99 bd 4c 34 4b 3f
       -0.80197936 0.77800226 -0.075102665 0.79376674
000010 95 0c 85 bc 0f 3c b0 40 fe 88 0f be ff 9a a2 3b
       -0.016241351 5.5073314 -0.14017102 0.0049623246
000020 24 40 85 bc aa c4 6e 3d a7 3e 31 3d 33 f7 65 bf
       -0.016265936 0.058293022 0.04327264 -0.8983032
000030 aa 8c 6f 3e df 6b a1 3c e5 33 1f bd 7d 47 99 3d
       0.23393503 0.019704757 -0.03886785 0.074843384
000040 d5 93 8a be f1 d5 4c 3c 1d c4 0b 3d 59 a4 d7 3f
       -0.27065912 0.0125021795 0.034122575 1.684703
000050 ac 71 dc 40 8a e0 a0 3e 61 61 83 c0 41 81 82 3e
       6.888876 0.3142131 -4.105637 0.25489238
000060 25 ca 87 3f 8c bc af 3f 73 08 7a 3f 6d 01 2e 3e
       1.0608565 1.3729415 0.9766914 0.16992731
000070 a8 b4 c7 bb 33 44 f6 3c 13 35 8f 40 86 4b 16 bf
       -0.006094534 0.030061817 4.475229 -0.5870899
000080 6d 17 16 3d b8 0e 33 3c 1f 2d b9 3b 02 1b e1 3e
       0.036643434 0.010928802 0.005651131 0.43965918
000090 64 42 5b be a5 0d 1c bb 2e 64 2e 3d 16 bd ce 3e
       -0.21412045 -0.0023811844 0.042576008 0.40378636
0000a0 e2 58 f2 3e 2f 30 a6 bb be 19 aa 3f 42 94 52 3c
       0.47333437 -0.005071662 1.3289106 0.01285273
0000b0 51 8b c0 3f bf 6b 16 bf a4 5a 56 bf cb 01 76 40
       1.5042516 -0.5875816 -0.83732057 3.8438594
0000c0 a1 df 0d c0 03 13 f3 3c 4e 1f a1 bf 46 9b 80 bc
       -2.2167742 0.029672151 -1.2587678 -0.01569904
0000d0 59 32 d1 3e 7f 8c b3 bb 04 57 70 bc 1b 42 77 3c
       0.40858725 -0.005479395 -0.014669184 0.015091444
0000e0 e8 61 41 3c 61 00 d9 bf 69 9e d2 3e 69 ef 91 be
       0.011803128 -1.6953241 0.41136482 -0.28502968
0000f0 08 8e cf 3f 09 79 46 3f 23 c5 a9 be f8 88 41 bb
       1.621522 0.77528435 -0.33158216 -0.0029531103
000100 49 69 1f 3f ed 90 84 be b6 b5 ac bd 3a ec d7 3c
       0.6227003 -0.2589182 -0.08433096 0.026357759
000110 54 36 fd bb 82 bf b6 3e 5d b4 17 be 57 ca 27 3c
       -0.0077274237 0.35692984 -0.14814897 0.010241113
000120 79 de d2 bf ea 09 82 3f 1e 14 80 bb 5d 20 11 40
       -1.6474143 1.0159276 -0.003908648 2.2676003
000130 01 c3 5e bd 0e 25 9f 3c f9 12 c2 bf 30 21 ce bc
       -0.05438519 0.019426849 -1.516204 -0.02516231
000140 1f 35 27 3c b0 e3 38 3c fe 9c 2a bd 12 b0 89 3f
       0.010205536 0.011284754 -0.041653626 1.0756857
000150 12 ee 6e 3f 42 7c 56 3b 0a 75 15 40 5d 1e 97 bd
       0.93332016 0.0032727872 2.3352685 -0.07378838
000160 a7 76 b0 be ff 7c a7 3c a0 ca 3f 3e 9c 0f 8e 40
       -0.34465525 0.020445345 0.18729639 4.4394054
000170 74 81 e8 3d 56 72 a5 be d3 d5 31 be 7e db 2a 3b
       0.11352816 -0.32313794 -0.17366724 0.002607077
000180 22 27 d3 3c f6 38 2d bd 9d f1 92 3c 94 a7 00 bb
       0.025775496 -0.04229065 0.017937476 -0.0019631134
000190 fb ff f4 be dc 0c 0d 3f 00 c3 18 3e 01 b1 c8 3c
       -0.47851548 0.55097747 0.14918137 0.024498465
0001a0 dc 26 bd 3d fb 3f e2 3c 35 ab 82 3c 69 7f 1e c0
       0.092359275 0.027618399 0.015950778 -2.4765265
0001b0 c0 f3 c0 3e ee 6f 2b c0 44 ad 84 3f be 6e 2e 3e
       0.37685966 -2.6787066 1.0365376 0.17034432
0001c0 0e 97 a5 bc 0a 75 e8 bc fe da a8 3f f4 fa 99 bd
       -0.02021363 -0.028376121 1.3191831 -0.07518569
0001d0 d8 96 ba 3a 0d 89 1f bd 1a b9 df bc 38 1e ce 3f
       0.0014235629 -0.03894906 -0.027309943 1.6102972
0001e0 f0 02 28 3e ba ae 07 c0 64 28 0a 40 d9 29 ee be
       0.1640737 -2.1200395 2.1587152 -0.46516302
0001f0 37 e0 a7 3c d8 6f ef 3f 2f a9 b9 be 1b 8a 17 be
       0.020492656 1.8706007 -0.3626189 -0.14798777
000200 bb 59 7e 3c 23 a2 7d be 86 57 e9 be 07 7a 3d bd
       0.015524323 -0.24768881 -0.45574588 -0.046258952
000210 e8 ad c5 3f 73 66 24 3e d8 6e cf 3f a1 5c ce bf
       1.5443697 0.16054706 1.6205702 -1.6122018
000220 7b 0c 03 3e 67 85 a0 bc 66 da 2f bc 2b 20 c1 3d
       0.1279773 -0.019594861 -0.010733223 0.09429964
000230 74 9e 82 3f 78 20 c8 3f bd 92 81 3c fa 8f 5d bc
       1.0204606 1.5634909 0.01581704 -0.013523096
000240 b9 09 67 3e 53 1d e4 3c 79 7d 41 40 6f 41 20 bc
       0.22562303 0.027846014 3.0232832 -0.009781226
000250 75 a8 10 40 a9 0e 52 be 80 dd 32 3b d7 af 4d be
       2.2602818 -0.20513405 0.0027292669 -0.20086609
000260 aa 3b d7 3c a6 ef a0 be e7 6f 03 40 9e b5 ec 3f
       0.026273567 -0.31432837 2.053705 1.8492925
000270 c1 4a 58 3c 4a 4d 99 3e bb 88 aa c0 cf f2 36 be
       0.0132014165 0.2994178 -5.3291907 -0.17866062
000280 64 fe 54 be 3c 49 07 bd b7 35 39 bc 00 35 4c bf
       -0.20800167 -0.033028826 -0.0113043105 -0.7976837
000290 76 cd 27 bd 7a 99 6a 3b 55 2a e2 bf 43 2c 74 bc
       -0.040967427 0.0035797046 -1.7669169 -0.014903131
0002a0 58 f5 3d bc 95 60 10 bf a0 8e c8 be d6 3b 63 bf
       -0.011594139 -0.5639737 -0.39171314 -0.8876318
0002b0 ed fd 2f be b6 7b 25 bd 7e 48 9d 3c 4f 20 be 3b
       -0.17186709 -0.040401183 0.019199606 0.0058021913
0002c0 f1 bf c0 3f 97 be 85 3f 13 91 bd be 87 96 3f bf
       1.5058576 1.0448788 -0.37024745 -0.7483906
0002d0 4d de 40 3e c7 df 94 40 39 d7 ce 3c 7f 64 3c be
       0.18834801 4.6523166 0.02524911 -0.18397711
0002e0 cf c9 43 be 7c 25 0e bd ee f6 a1 3f d0 e5 cd bb
       -0.19119953 -0.034703717 1.2653482 -0.0062834993
0002f0 f9 02 cf 3c 75 48 87 bb 56 2f 93 3f be 19 90 be
       0.025269972 -0.0041285106 1.1498821 -0.2814464
000300 a9 bc 1d 3f 6e 3c 25 bd 97 70 37 be 7a b9 ed 3f
       0.61616 -0.040340833 -0.17914043 1.8572228
000310 70 df 15 3f d0 ad 96 40 cc 00 43 c0 48 ac 4b 3d
       0.58544064 4.7087173 -3.0469236 0.049724847
