Vehicles/ModRepeat_forest_9/ModRepeat_forest_9_critic.pth (torch, 353498 bytes, 10 tensors)

weight f4 [200, 15]
-0.23371518 0.08792223 -0.07608321 -0.075339444 -0.18844943 -0.19433261 -0.22230725 0.07515024
-0.14370084 -0.24110979 0.19217882 -0.23961028 -0.20891763 0.015691958 -0.07035124 -0.07414707
-0.007446114 0.014694885 0.058594193 -0.19121578 -0.19404653 0.10490604 0.13029961 0.028153868
-0.1091442 -0.2000147 0.07446568 -0.15468718 -0.14498359 0.08487058 0.027264927 -0.94099957
0.2273791 -0.36260888 -0.1280923 -0.15362036 0.31127045 -1.0222243 -0.13410605 -0.13446714
-0.33864844 1.0397329 0.6361279 0.7231927 0.46071136 0.6779509 -0.35552216 -1.0236982
0.54852134 0.26265123 0.1479967 -0.6991104 -0.35909304 -0.8293211 0.2863058 -0.038699493
-0.23028064 -0.032438364 -0.5053723 -0.4279101 0.3284835 0.31739053 -0.17387016 0.7791191
-0.06676521 -0.4608556 -0.07159999 -0.3112445 0.0970327 -2.8003411 -0.46079388 -0.16454294
1.1584017 0.5192871 0.4929705 0.037418593 -0.07618378 0.46618652 -0.61300033 0.19219828
0.1996444 0.49475837 0.34584126 0.45534715 -2.545096 0.57651997 -0.14363208 0.2393464
-0.01831098 0.09580341 -0.7486954 0.55609643 -0.005913787 0.30451393 0.105812795 0.7030721
0.14662306 -0.08940697 -0.33552888 0.26377633 -0.4810277 0.7910339 -0.74305016 -0.90590405
-0.50254095 -0.4214417 -0.06575824 0.1305991 -0.6036601 -0.16038324 -0.010277879 -0.052340098
-0.3181216 0.11572046 -1.9643152 0.9384879 1.2988299 0.5848283 0.5086933 0.22171961
0.47518685 -0.8752298 -0.024284165 -0.8906022 -0.46861133 0.11877994 0.26328972 0.21726559
-4.18289 0.009180747 0.82430625 0.58336437 -0.43311858 0.4220426 0.14859469 0.05922239
0.6299209 -0.3571383 0.6880848 -0.8804152 -0.20854455 0.1045303 -0.7610648 0.10965236
0.06790561 0.49017462 -0.49087474 -0.5286009 -0.21353239 1.0821135 0.19415927 -0.66374546
-0.28104964 -0.9809293 0.26334217 -0.21852592 -0.667128 -0.4282363 0.55240184 -0.6224357
-0.040310144 0.08393997 -0.18259257 -0.63012004 -0.13193 -0.009629377 -0.015987974 -0.521765
-0.63577944 -0.15510896 0.39639708 0.722184 0.12752166 -0.86277837 0.3897999 0.8288852
-0.08683535 0.008368567 0.093820415 -0.11324573 0.56163275 2.1707635 0.2694362 0.3110062
-0.8283314 -0.4638608 -0.77657473 -0.73375505 0.37599123 -0.678527 -1.5765072 0.03207822
0.5805044 0.5551606 0.2792615 0.028157867 0.74466836 -0.9598413 1.0169451 -1.2415435
-0.632146 -0.3660171 0.6952619 -0.028723033 -0.0003753069 -1.2969922 0.8902129 0.29692364
0.18192036 0.0060597556 -0.5743651 -0.5752942 0.85249674 -1.4781791 0.57960695 0.63046384
-0.77568775 -1.6203839 -0.63414544 -0.47781244 0.70389116 -0.20923051 -1.3325853 -2.028623
-0.35256565 0.9304276 0.48677635 0.4829937 -0.5976505 0.87409824 -0.2756746 0.42641076
-1.4746553 0.068745576 -0.91224986 0.31654322 -0.8715387 -0.5606356 0.13443775 -0.3460972
-0.21234293 -0.075372465 -0.069779485 0.16394122 -0.05955289 0.018919839 -0.20707169 -0.24905953
-0.12424061 -0.11264756 -0.023717862 0.13402766 -0.11041419 -0.18928811 0.09774356 -1.0744258
00000000: 0853 6fbe 9210 b43d 84d1 9bbd 914b 9abd
00000010: e3f8 40be 21ff 46be 83a4 63be 5ee8 993d
00000020: 5026 13be 7ce5 76be 86ca 443e 665c 75be
00000030: 81ee 55be 6c8c 803c 5014 90bd 6bda 97bd
00000040: 88fe f3bb d1c2 703c 7700 703d 12ce 43be
00000050: 22b4 46be fad8 d63d 436d 053e f1a2 e63c
00000060: ff86 dfbd a7d0 4cbe 7681 983d 5166 1ebe
00000070: 9476 14be a0d0 ad3d b25a df3c 59e5 70bf
00000080: 11d6 683e dfa7 b9be a12a 03be a84e 1dbe
00000090: d75e 9f3e 3fd8 82bf 1953 09be c1b1 09be
000000a0: 5463 adbe f815 853f 47d9 223f 2823 393f
000000b0: 5ce2 eb3e 318e 2d3f 0007 b6be 8b08 83bf
000000c0: e56b 0c3f 397a 863e 728c 173e e6f8 32bf
000000d0: 0bdb b7be 634e 54bf ac96 923e 5c83 1ebd
000000e0: b0ce 6bbe 17de 04bd 1460 01bf 0817 dbbe
000000f0: fd2e a83e 0381 a23e 050b 32be 5974 473f
00000100: 33bc 88bd 44f5 ebbe 04a3 92bd 705b 9fbe
00000110: 15b9 c63d ca38 33c0 2ded ebbe f27d 28be
00000120: 8246 943f 00f0 043f a166 fc3e 3d44 193d
00000130: 3e06 9cbd 00b0 ee3e 97ed 1cbf a0cf 443e
00000140: 956f 4c3e f850 fd3e 1b12 b13e 4323 e93e
00000150: dae2 22c0 d096 133f 4a14 13be 3917 753e
00000160: e900 96bc 9434 c43d 80aa 3fbf 565c 0e3f
00000170: 71c8 c1bb 40e9 9b3e 61b4 d83d 88fc 333f
00000180: 5b24 163e 001b b7bd 71ca abbe b10d 873e
00000190: 4349 f6be 3381 4a3f 8938 3ebf 54e9 67bf
000001a0: 86a6 00bf 35c7 d7be 42ac 86bd c5bb 053e
000001b0: 7889 1abf 813b 24be 8d64 28bc 9262 56bd
000001c0: d6e0 a2be d9fe ec3d ae6e fbbf be40 703f
000001d0: 0f40 a63f 4fb7 153f b939 023f 770a 633e
000001e0: b14b f33e 0f0f 60bf 96ef c6bc 81fe 63bf
000001f0: d3ed efbe e642 f33d e9cd 863e df7a 5e3e
00000200: 3cda 85c0 d86a 163c bc05 533f 5e57 153f
00000210: b8c1 ddbe f815 d83e 3529 183e 2d93 723d
00000220: 7f42 213f d5da b6be 5326 303f e462 61bf
00000230: b48c 55be fb13 d63d 25d5 42bf 6b91 e03d
00000240: 1912 8b3d 2bf8 fa3e ef53 fbbe 6352 07bf
00000250: 3ca8 5abe b282 8a3f b0d1 463e 39eb 29bf
00000260: bde5 8fbe 2f1e 7bbf c9d4 863e 42c5 5fbe
00000270: e7c8 2abf ca41 dbbe 356a 0d3f f257 1fbf
00000280: 401c 25bd b8e8 ab3d 8cf9 3abe 8c4f 21bf
00000290: a818 07be 89c4 1dbc 36f9 82bc 6492 05bf
000002a0: 71c2 22bf e2d4 1ebe 8ff4 ca3e 0de1 383f
000002b0: 0a95 023e 0bdf 5cbf da93 c73e d231 543f
000002c0: bbd6 b1bd 501c 093c eb24 c03d 61ed e7bd
000002d0: 2ac7 0f3f caed 0a40 8bf3 893e 343c 9f3e
000002e0: 870d 54bf 2a7f edbe 9acd 46bf 5fd7 3bbf
000002f0: ec81 c03e f2b3 2dbf fdca c9bf 7464 033d
00000300: f09b 143f 011f 0e3f 5dfb 8e3e 54ab e63c
00000310: 96a2 3e3f 29b8 75bf 422b 823f e6ea 9ebf
00000320: 52d4 21bf 9866 bbbe affc 313f 914c ebbc
00000330: d7c4 c4b9 d703 a6bf fee4 633f 6006 983e
00000340: 5549 3a3e ea90 c63b 9709 13bf 7b46 13bf
00000350: 3a3d 5a3f f934 bdbf 1f61 143f 1466 213f
00000360: 7993 46bf bd68 cfbf 5b57 22bf d5a3 f4be
00000370: 3632 343f 8640 56be 2892 aabf f6d4 01c0
00000380: 7c83 b4be 8130 6e3f c03a f93e f34a f73e
00000390: a0ff 18bf e7c4 5f3f 3925 8dbe 8352 da3e
000003a0: 81c1 bcbf 7bca 8c3d 3589 69bf f411 a23e
000003b0: 291d 5fbf d185 0fbf 0daa 093e a733 b1be
000003c0: 6d70 59be e15c 9abd 8ce8 8ebd 35e0 273e
000003d0: bbed 73bd c7fd 9a3c 9a0a 54be 7609 7fbe
000003e0: dc71 febd c4b3 e6bd f64b c2bc 8c3e 093e
000003f0: d620 e2bd bed4 41be c72d c83d c986 89bf

bias f4 [200]
-0.21551771 -0.22134496 -0.13932268 -0.072302185 -0.16391757 0.066022456 0.04976509 -0.02414597
-0.4464024 0.6815318 -0.03557953 -0.29281077 -0.12215341 -0.4424163 0.33109537 0.11355897
-0.27023658 -0.3629503 -0.20265096 0.3140816 -0.39292735 -0.7865329 0.36464134 -0.28481638
-0.17462839 0.23864774 -0.30340272 0.117646046 0.12873358 -0.014978747 0.22348672 -0.16189528
-0.16248065 0.29181704 -0.33079627 0.550004 0.15565898 -0.15932299 -0.28404716 0.157478
0.626279 0.2805688 -0.5091232 0.16171378 -0.75943804 0.16249435 0.39919353 0.12382733
0.12650827 0.1315946 -0.58498853 -0.28992814 -0.343821 -0.20878185 -0.4632897 -0.5079768
0.13762932 -0.57792825 -0.5121458 0.18838495 0.010580988 0.00071452523 0.66191983 0.72064793
0.54891473 -0.14088 -0.19535111 0.39873382 0.82238734 0.42928898 -0.6719761 -0.3714202
-1.0816404 -0.09212191 -0.6323447 0.42562377 -0.2534174 0.0250265 -0.49425167 -0.22540979
0.07786911 -0.26611337 0.61964756 0.60659444 -0.3071431 0.19596364 -0.29589567 0.368176
0.19363686 0.29410186 -0.113221094 -0.54518104 0.5374589 -1.087241 -0.30127883 0.07643097
-0.44212517 -0.5154579 0.08969034 -0.6255491 0.27812782 -0.55985445 -0.57194734 -0.24606201
-0.02619272 0.27719072 0.18392399 0.5423123 0.26892993 -0.13823986 -0.22551799 -0.3445091
-0.25945276 -0.30895248 0.73768795 0.040783614 -0.038808715 0.3873451 0.47513092 0.01580807
0.37516674 0.090674475 -0.46295667 -0.068386644 -0.455699 -0.46472186 0.101294555 0.32472825
0.003681567 -0.24722509 -0.6322984 0.53306043 -0.47389364 0.029300978 0.10713867 -0.3917262
0.377152 -0.011659741 -0.5829464 -0.15053812 -0.13342543 0.26417366 -0.05585797 -0.32126874
-0.35717463 -0.29156464 0.47916734 -0.3066255 -0.5491975 -0.015600818 -0.5505966 -0.6014213
0.48298675 -0.3819226 -0.769948 -0.5075989 -0.71955794 -0.57480115 -0.034823593 -0.031148862
-0.16087069 -0.2741429 -0.3830381 0.4070719 -0.40025902 0.040866517 -0.4462547 -0.66824126
0.4075358 -0.49490935 -0.41047424 -0.9535579 0.056217328 -0.20841883 0.4606466 -0.29032323
0.0927686 -0.36400953 -0.9407877 -0.026341157 -0.3370988 0.0036391956 -0.06661783 0.22799918
-0.29914856 -0.48632538 -0.16226168 -0.4038093 0.19708143 -0.10421219 -0.40735045 0.62947446
-0.23030286 -0.8648785 -0.65757376 0.057447467 -0.8789238 0.24375741 -0.31764525 0.029457394
00000000: adb0 5cbe 41a8 62be 9baa 0ebe 2b13 94bd
00000010: 02da 27be c836 873d 7bd6 4b3d c5cd c5bc
00000020: db8e e4be de78 2e3f d7bb 11bd 4beb 95be
00000030: 912b fabd 6484 e2be 5585 a93e 9b91 e83d
00000040: 735c 8abe 9fd4 b9be bc83 4fbe 4ecf a03e
00000050: c62d c9be 385a 49bf 45b2 ba3e 74d3 91be
00000060: c9d1 32be 1360 743e 9a57 9bbe 69f0 f03d
00000070: bcd2 033e 6b69 75bc b4d9 643e e0c7 25be
00000080: 5461 26be 0b69 953e 215e a9be 10cd 0c3f
00000090: 1165 1f3e 9125 23be a16e 91be ea41 213e
000000a0: d253 203f b7a6 8f3e e655 02bf 4c98 253e
000000b0: 886a 42bf eb64 263e 1863 cc3e 2f99 fd3d
000000c0: 628b 013e bcc0 063e cfc1 15bf 7671 94be
000000d0: 4e09 b0be e9ca 55be 4f34 edbe c40a 02bf
000000e0: b3ee 0c3e 1bf3 13bf fd1b 03bf fce7 403e
000000f0: e15b 2d3c fa4e 3b3a 9473 293f 627c 383f
00000100: ad85 0c3f d942 10be 1f0a 48be d726 cc3e
00000110: fa87 523f c4cb db3e a006 2cbf ca2a bebe
00000120: 3173 8abf 69aa bcbd 58e1 21bf 5ceb d93e
00000130: edbf 81be 6004 cd3c 8e0e fdbe d3d1 66be
00000140: d779 9f3d 0340 88be 39a1 1e3f c649 1b3f
00000150: dc41 9dbe b1aa 483e a37f 97be 9181 bc3e
00000160: be48 463e 8594 963e 76e0 e7bd fc90 0bbf
00000170: e896 093f b72a 8bbf 3841 9abe d787 9c3d
00000180: 3b5e e2be 0df5 03bf 92af b73d fc23 20bf
00000190: c566 8e3e 9f52 0fbf 246b 12bf aef7 7bbe
000001a0: 1d92 d6bc f1eb 8d3e 9256 3c3e fbd4 0a3f
000001b0: 2fb1 893e c08e 0dbe 30ee 66be 7f63 b0be
000001c0: fed6 84be 052f 9ebe 1ed9 3c3f b80c 273d
000001d0: e3f5 1ebd 1952 c63e 5c44 f33e ed7f 813c
000001e0: db15 c03e 8ab3 b93d a808 edbe 4c0e 8cbd
000001f0: 6151 e9be 06f0 edbe 8573 cf3d c842 a63e
00000200: 7246 713b 9328 7dbe 4fde 21bf a676 083f
00000210: 30a2 f2be 9b08 f03c 856b db3d 5690 c8be
00000220: 111a c13e 8008 3fbc fa3b 15bf aa26 1abe
00000230: ada0 08be c541 873e 54cb 64bd 567d a4be
00000240: 98df b6be f647 95be 6c55 f53e 04fe 9cbe
00000250: 3598 0cbf 939a 7fbc e6f3 0cbf bff6 19bf
00000260: 0a4a f73e 5c8b c3be 501b 45bf 00f2 01bf
00000270: f334 38bf 2b26 13bf 2fa3 0ebd e62b ffbc
00000280: 49bb 24be 755c 8cbe 921d c4be ba6b d03e
00000290: c0ee ccbe a663 273d 7f7b e4be dc11 2bbf
000002a0: 88a8 d03e c264 fdbe ae29 d2be 5f1c 74bf
000002b0: 2444 663d bf6b 55be dfd9 eb3e 3fa5 94be
000002c0: 77fd bd3d 755f babe 76d7 70bf 69c9 d7bc
000002d0: 3798 acbe 927f 6e3b ee6e 88bd 9e78 693e
000002e0: 002a 99be a4ff f8be ed27 26be 18c0 cebe
000002f0: b7cf 493e 336d d5bd 3d90 d0be 3d25 213f
00000300: 83d4 6bbe ad68 5dbf c156 28bf 094e 6b3d
00000310: 2601 61bf 8b9b 793e 66a2 a2be a250 f13c

weight f4 [200, 200]
0.019318726 -0.010632217 -0.026433066 -0.028527562 0.09633826 0.03457104 -0.04301024 -0.043774452
0.046007644 -0.07309001 -0.038770054 -0.18073149 -0.16239777 -0.08225752 -0.07980617 0.006775173
0.013080258 -0.009743957 -0.014550624 -0.12149647 -0.12527296 -0.10546052 -0.115290284 -0.025824657
-0.021525336 -0.08088388 -0.0070478073 -0.023567846 -0.05018473 0.059744827 -0.058864657 -0.07692882
0.032806493 -0.07814784 -0.10890231 -0.058993787 0.013218002 -0.09221273 0.035744056 -0.022330385
-0.012670675 0.12565304 -0.06857022 -0.009241725 0.008931425 3.932427e-05 -0.0785964 -0.011451905
0.0024992656 0.074029915 -0.14034528 -0.05598453 -0.23601952 -0.13186792 -0.011467326 0.03179889
-0.11567207 -0.21614711 -0.024533113 -0.011167498 -0.13684788 -0.03821627 0.013941434 -0.024802921
0.0098771835 -0.055583134 -0.1585403 -0.08302487 -0.08199932 0.05237923 -0.028251031 -0.07392071
-0.069057874 0.12817901 -0.0004592911 -0.04454012 -0.004847428 -0.051372785 0.0056041097 -0.062481806
-0.13000982 -0.05746802 -0.048425987 -0.06914852 -0.06024965 -0.042064667 -0.026877388 -0.022417532
-0.0023268058 0.040538553 -0.10486692 -0.016299121 0.011798898 -0.21190387 0.02891346 0.0678206
0.022457916 -0.045611456 -0.04558336 -0.07478643 -0.042346325 -0.08055964 -0.06809482 -0.036168396
0.013331361 -0.08545315 -0.01493118 -0.009119442 -0.13051876 -0.074158154 -0.05511009 0.049343947
-0.11637747 0.013691351 -0.03011804 0.029634917 -0.07741461 -0.014499118 0.05585384 -0.12666723
0.04943135 -0.045543987 0.052872654 -0.005450975 -0.14669582 -0.13226229 -0.06570749 -0.013003912
0.09341644 -0.079158574 -0.07107503 -0.079005435 -0.08868443 -0.0021657434 -0.17110504 0.075407416
0.049311064 0.037802603 -0.045456305 -0.03002797 0.023699977 -0.05407848 0.016163193 0.035425615
-0.025054542 -0.025377125 -0.03252999 -0.06533457 -0.13944475 -0.022837901 0.046129327 -0.008141177
-0.036570754 -0.0028219908 -0.059370957 -0.06965761 -0.023570076 0.054572895 -0.19575779 -0.056010827
-0.06608027 0.035624836 -0.040989295 0.06593598 -0.06856571 -0.040536728 -0.03663532 -0.15100656
-0.04864507 -0.08961073 0.00547383 -0.06826769 -0.073925726 -0.04476822 -0.010858988 -0.04028342
-0.035231855 0.026690748 -0.018672641 0.027396698 0.0118950885 -0.042194802 -0.0168641 0.17365737
-0.047215756 -0.0721709 -0.0606231 -0.027147384 -0.012603935 0.046773545 0.0015725243 -0.0840405
0.04855508 -0.14356232 -0.10615867 -0.010169344 -0.113283984 -0.04287816 -0.06970331 -0.10081313
0.039016508 0.027088497 -0.7906651 0.112569734 0.39077783 0.29878902 0.24501549 0.5418516
-0.5132202 -0.28583455 -1.072493 0.038448695 -0.25090778 -2.677217 -0.27930063 -0.39909703
-0.008352806 -0.40571687 -0.15148039 -0.058708843 -1.717749 0.6338742 0.27009764 -0.2931886
0.02274011 0.4646284 -1.5285075 0.03529441 0.65464 -0.12450165 -0.35484824 0.9530466
-0.010362087 -0.9056335 -0.6421358 -0.98325264 -1.0059326 0.26889667 0.16406731 -0.6318737
0.14998907 -0.48565724 -1.026261 0.027253544 -1.4651988 -0.45670584 -0.073620245 0.46168688
-0.14566861 -1.0684785 -0.32386813 -2.5053701 0.24050452 -0.5895634 -0.97026026 0.08173816
00000000: 4e42 9e3c c032 2ebc 288a d8bc a2b2 e9bc
00000010: fe4c c53d 5d9a 0d3d 812b 30bd d74c 33bd
00000020: 8372 3c3d 37b0 95bd 59cd 1ebd ad11 39be
00000030: 9a4b 26be a176 a8bd 6b71 a3bd 4502 de3b
00000040: 944e 563c 1ea5 1fbc be65 6ebc 24d3 f8bd
00000050: 8e47 00be affb d7bd 501d ecbd 3b8e d3bc
00000060: e755 b0bc 73a6 a5bd 4bf1 e6bb 5b11 c1bc
00000070: 818e 4dbd feb6 743d 111c 71bd db8c 9dbd
00000080: 1a60 063d fa0b a0bd 2d08 dfbd 78a3 71bd
00000090: 5290 583c 07da bcbd 5c68 123d 36ee b6bc
000000a0: aa98 4fbc 31ab 003e 8b6e 8cbd 9b6a 17bc
000000b0: 1d55 123c 1df0 2438 26f7 a0bd c5a0 3bbc
000000c0: b8ca 233b ff9c 973d acb6 0fbe 0950 65bd
000000d0: 1aaf 71be 6208 07be 74e1 3bbc 8e3f 023d
000000e0: 7ae5 ecbd ab55 5dbe abf9 c8bc e2f7 36bc
000000f0: da21 0cbe aa88 1cbd 9d6a 643c 7f2f cbbc
00000100: e9d3 213c 24ab 63bd 6358 22be f108 aabd
00000110: 42ef a7bd 9a8b 563d b56e e7bc be63 97bd
00000120: 376e 8dbd 5c41 033e 02cd f0b9 b36f 36bd
00000130: 2cd7 9ebb 456c 52bd aea2 b73b ecec 7fbd
00000140: 4b21 05be 9663 6bbd 545a 46bd bd9d 8dbd
00000150: 56c8 76bd 004c 2cbd f82d dcbc f9a4 b7bc
00000160: 537d 18bb c10b 263d 78c4 d6bd bc85 85bc
00000170: 2a50 413c 54fd 58be ecdb ec3c 87e5 8a3d
00000180: aaf9 b73c 14d3 3abd 9eb5 3abd a129 99bd
00000190: 5773 2dbd 74fc a4bd 4c75 8bbd 5025 14bd
000001a0: c86b 5a3c 1002 afbd e8a1 74bc b669 15bc
000001b0: b6a6 05be 3be0 97bd 1ebb 61bd e11c 4a3d
000001c0: 5057 eebd b051 603c 1cba f6bc edc4 f23c
000001d0: 8d8b 9ebd b58d 6dbc ffc6 643d 0eb5 01be
000001e0: 8778 4a3d 558c 3abd ff90 583d 189e b2bb
000001f0: 6e37 16be c46f 07be a691 86bd 5c0e 55bc
00000200: 1e51 bf3d e41d a2bd c98f 91bd 9acd a1bd
00000210: 2fa0 b5bd 25ef 0dbb 2936 2fbe 346f 9a3d
00000220: 66fa 493d e7d6 1a3d 6430 3abd 38fd f5bc
00000230: 7426 c23c 6581 5dbd ac68 843c 731a 113d
00000240: 2f3f cdbc b0e3 cfbc 2b3e 05bd 22ce 85bd
00000250: 9bca 0ebe 8d16 bbbc 1bf2 3c3d 9262 05bc
00000260: 37cb 15bd 26f1 38bb f62e 73bd a6a8 8ebd
00000270: 0816 c1bc d487 5f3d bb74 48be 9c6b 65bd
00000280: 1855 87bd 59eb 113d 64e4 27bd 7109 873d
00000290: 2e6c 8cbd d709 26bd eb0e 16bd 77a1 1abe
000002a0: 0e40 47bd d585 b7bd d05d b33b eecf 8bbd
000002b0: 5f66 97bd e25e 37bd e6e9 31bc 3a00 25bd
000002c0: 474f 10bd 8ea6 da3c 5ef7 98bc 0a6f e03c
000002d0: 9ee3 423c 75d4 2cbd 9526 8abc 3dd3 313e
000002e0: 4f65 41bd 56ce 93bd ed4f 78bd 3164 debc
000002f0: bc80 4ebc 9e95 3f3d 291d ce3a 6d1d acbd
00000300: b1e1 463d 0002 13be b769 d9bd 529d 26bc
00000310: 6f01 e8bd 02a1 2fbd 9cc0 8ebd 1d77 cebd
00000320: c6cf 1f3d b2e8 dd3c 0769 4abf f68a e63d
00000330: 0814 c83e e0fa 983e 57e5 7a3e c9b6 0a3f
00000340: 6662 03bf e858 92be 7347 89bf 617c 1d3d
00000350: fc76 80be 8657 2bc0 7e00 8fbe 7256 ccbe
00000360: 35da 08bc 1fba cfbe ad1d 1bbe af78 70bd
00000370: 33df dbbf 9445 223f 3d4a 8a3e d11c 96be
00000380: 7849 ba3c c6e3 ed3e 22a6 c3bf df90 103d
00000390: 7d96 273f b9fa febd abae b5be ddfa 733f
000003a0: bec5 29bc 99d7 67bf 0363 24bf 72b6 7bbf
000003b0: 66c2 80bf d3ac 893e 4301 283e 7ac2 21bf
000003c0: bc96 193e 11a8 f8be 855c 83bf d342 df3c
000003d0: a28b bbbf 59d5 e9be 36c6 96bd 3962 ec3e
000003e0: 272a 15be e7c3 88bf 0bd2 a5be fc57 20c0
000003f0: d146 763e a1ed 16bf fa62 78bf 5666 a73d

bias f4 [200]
-0.077668004 -0.46528164 -0.28247145 -0.014606023 -0.06421956 -0.007777732 -0.85648304 -1.0207051
-0.023583999 -1.0305592 0.48218054 -0.27389315 -0.9535586 0.23463616 -0.5368102 -0.062635176
-0.22508177 -0.093536295 -0.103241175 -0.091717266 0.05103455 -0.13409778 -0.088791326 -0.124755315
-0.007465362 -0.13787933 -0.1547318 -0.048029352 -0.34125823 -0.07630421 -0.5769798 -0.19320649
-0.13309588 0.5337758 -0.30257478 -0.10289116 -0.15771836 -0.20704615 -0.07202018 -0.21138683
-0.08816081 -0.050315104 -0.38128465 -0.6587071 -0.16316406 -0.1063324 -0.10065643 -0.048122834
-0.013885946 -0.43960834 0.5409659 -1.0345178 -0.01563185 0.24258317 -0.09119838 -0.33511227
-0.2849126 -0.071734585 -0.4674634 -0.20028658 -0.08011921 -0.10872961 -0.08740036 -0.059821587
-0.007951341 -0.15599917 -0.08272862 -0.058214296 -0.39229286 -0.32970235 -0.065647356 -0.030649982
-0.33009806 0.040676292 -0.03818931 -0.09999757 -0.15742196 -0.04480872 -0.14836255 0.15515763
-0.03726122 -0.08856351 -0.26237646 0.61422914 -0.2659269 0.02795517 -0.09397646 0.26824445
-0.4526989 -0.39689818 -0.75946856 -0.07908734 -0.056248084 -0.08016377 -0.08164759 -0.40285236
-0.11327742 -0.09413301 -0.22663434 0.00087429816 -0.12431229 -0.1182382 -0.10607224 0.06847774
-0.46095333 -0.038003895 -0.056036614 -0.032881532 -0.404722 -0.6317201 -0.03000858 -0.60713977
0.008446058 -0.16890174 -0.21130395 0.017631903 -0.37342602 -0.05893705 -0.09984521 -0.06619254
-0.09039717 -0.043860354 -0.08175558 -0.63988966 -0.090295255 -0.08827352 -0.4298921 -0.10427708
-0.4266935 -0.64744925 -0.046739355 0.274623 -0.06328585 -0.14249115 -0.3342006 -0.17928386
-0.97789615 -0.058818124 -0.28173986 0.81682193 -0.32711175 -0.04733469 -0.042700462 -0.3944663
-0.20521155 -0.037216328 0.26824015 -0.17035212 -0.43312448 -0.0790326 -0.35739294 -0.053853903
-0.5969772 -0.08974663 -0.057602245 -0.10197755 -0.05883526 -0.39444965 -0.11678667 -0.43613482
-0.7711414 -0.091994606 -0.46857327 -0.04025382 -0.092224404 -0.17249982 -0.12757173 -0.07290281
-0.05574314 -0.5291353 -0.17692597 0.06082095 -0.3855097 0.1151541 -0.100778855 -0.07627432
0.019202515 -0.021355338 -0.117795706 -0.1408901 -0.2993873 -0.12644432 -0.6540708 0.18268012
-0.07654388 -0.20475762 -0.64638114 -0.110042505 0.10902575 -0.93396944 -0.1510292 -0.111412376
-0.054269876 0.032036837 -0.12747204 0.3734601 -0.30273935 -0.34501994 -0.8747738 -0.074115776
00000000: 6710 9fbd 6539 eebe 19a0 90be 1a4e 6fbc
00000010: 8b85 83bd 58dc febb 7942 5bbf 77a6 82bf
00000020: 3b33 c1bc 5de9 83bf 5ee0 f63e b93b 8cbe
00000030: 6b1c 74bf 7644 703e 656c 09bf df46 80bd
00000040: d67b 66be f58f bfbd 1c70 d3bd 43d6 bbbd
00000050: 9b09 513d ee50 09be 3ad8 b5bd b77f ffbd
00000060: ff9f f4bb 3d30 0dbe 0372 1ebe 6dba 44bd
00000070: 66b9 aebe 6245 9cbd f3b4 13bf ecd7 45be
00000080: 494a 08be 88a5 083f 15eb 9abe 9ab8 d2bd
00000090: ec80 21be e803 54be 517f 93bd ca75 58be
000000a0: a88d b4bd 3617 4ebd be37 c3be 07a1 28bf
000000b0: 7b14 27be cdc4 d9bd f524 cebd 731c 45bd
000000c0: e181 63bc 5814 e1be be7c 0a3f 146b 84bf
000000d0: 5e0e 80bc b967 783e 37c6 babd d693 abbe
000000e0: 10e0 91be 95e9 92bd 5d57 efbe ed17 4dbe
000000f0: 8a15 a4bd a1ad debd f6fe b2bd 7b07 75bd
00000100: 5746 02bc 3fbe 1fbe 9f6d a9bd 1d72 6ebd
00000110: 9cda c8be bfce a8be 1f72 86bd ac15 fbbc
00000120: 9d02 a9be 2f9c 263d 656c 1cbd 87cb ccbd
00000130: 3933 21be 5989 37bd 5aec 17be a4e1 1e3e
00000140: 399f 18bd c960 b5bd 3556 86be 1f3e 1d3f
00000150: 9227 88be 3e02 e53c bb76 c0bd 5657 893e
00000160: 26c8 e7be 3d36 cbbe 886c 42bf 8bf8 a1bd
00000170: 6464 66bd e72c a4bd da36 a7bd aa42 cebe
00000180: fefd e7bd cfc8 c0bd d512 68be 2831 653a
00000190: 7197 febd df26 f2bd 673c d9bd 0f3e 8c3d
000001a0: 1302 ecbe f9a9 1bbd a686 65bd c9ae 06bd
000001b0: b937 cfbe 69b8 21bf 8ed4 f5bc 836d 1bbf
000001c0: 5661 0a3c 94f4 2cbe 1060 58be c870 903c
000001d0: b231 bfbe fa67 71bd a57b ccbd f48f 87bd
000001e0: 2722 b9bd eaa6 33bd 786f a7bd cfcf 23bf
000001f0: b8ec b8bd bfc8 b4bd d11a dcbe 398f d5bd
00000200: 9277 dabe 3cbf 25bf c471 3fbd 639b 8c3e
00000210: 039c 81bd 33e9 11be 571c abbe 3096 37be
00000220: 6757 7abf 46eb 70bd 3540 90be 3e1b 513f
00000230: 317b a7be 05e2 41bd aee6 2ebd 7df7 c9be
00000240: fa22 52be 2670 18bd c656 893e c970 2ebe
00000250: 7ec2 ddbe d8db a1bd 35fc b6be e995 5cbd
00000260: 7fd3 18bf 15cd b7bd 55f0 6bbd 9bd9 d0bd
00000270: 3efd 70bd 4ef5 c9be da2d efbd 104d dfbe
00000280: 8669 45bf ab67 bcbd d6e8 efbe 31e1 24bd
00000290: 26e0 bcbd cba3 30be 2aa2 02be 124e 95bd
000002a0: eb52 64bd 6975 07bf 152c 35be 631f 793d
000002b0: 8761 c5be ead5 eb3d 2565 cebd b635 9cbd
000002c0: 984e 9d3c 64f1 aebc e03e f1bd 7f45 10be
000002d0: 4b49 99be 9f7a 01be 2f71 27bf 7f10 3b3e
000002e0: 0ac3 9cbd fbab 51be 3c79 25bf f75d e1bd
000002f0: e448 df3d 9f18 6fbf 66a7 1abe 2c2c e4bd
00000300: 174a 5ebd 0f39 033d 0888 02be 2a36 bf3e
00000310: a700 9bbe 74a6 b0be 2df1 5fbf 03ca 97bd

weight f4 [1, 200]
-0.055984564 -1.0870554 -0.33208972 -0.07288728 0.018525317 0.009519527 -0.5701543 -0.3272085
0.019266913 -0.1682437 0.05032923 0.5770828 -0.20582525 0.20897539 -0.25831962 -0.0040372964
0.048244253 0.004397395 0.0100607565 0.017658975 -0.43261203 0.035631068 -0.06573986 -0.0011881331
-0.35701126 -0.012807373 -0.028581388 0.006113345 0.17282481 -0.005927566 -0.49542874 -0.34849888
0.019836215 0.09455905 -0.23902334 -0.02046512 -0.9633797 0.1815486 0.013295712 0.15950936
-0.046130043 -0.01871266 0.3658652 0.35710064 -0.114127934 0.0071764137 -0.04016971 -0.017241288
-0.15232402 0.5436988 0.058900937 -0.23175332 -0.014386364 -0.27674267 0.016576163 -0.42377043
-0.24656837 -0.009651346 0.44275844 0.3292057 -0.022061493 -0.021748682 0.57414275 -0.008876037
0.0050804364 -0.012247724 0.0183045 -0.0022730106 -0.5925037 -0.30286136 0.021597017 -0.34539685
-0.43984196 0.1509834 -0.017895205 -0.0011181133 -0.19699569 0.0060439724 0.55294466 0.282571
0.02023419 -0.016232165 0.7226815 0.04576036 0.25519112 -0.30956373 0.00063953246 -0.6883895
0.28577876 0.20334132 -0.1940035 0.011694115 0.45050257 -0.0026623018 0.01188321 -0.28029794
0.031725395 -0.09719808 -0.4345017 -0.035218567 -0.0039847554 0.54818666 -0.011446466 0.12056024
0.115640596 -0.004571049 0.02602553 0.00043369964 0.47803465 0.042260915 -0.034861095 0.12526928
0.33301327 -0.02035235 -1.4655969 0.03280624 0.30129048 -0.011911605 -0.018570056 -0.003962382
-0.019819226 0.0017414829 -0.034984797 -0.8192048 0.022816375 -0.0004094059 0.1656798 -0.0044360375
0.10869503 -0.30487013 -0.063680366 -0.549941 0.018007023 0.3138436 -0.6259324 -0.6700364
-0.34647617 0.024994597 -0.8010386 0.07484406 0.56075674 0.042788707 -0.015536639 0.29567286
0.18846437 0.025189761 0.036552772 -0.13831756 0.17990188 -0.002394951 0.44223788 0.015558781
0.6974331 0.003824166 0.02389336 -0.02810923 0.21420981 -1.5029496 -0.035692766 0.41346043
-0.25424597 -0.027159989 -1.2445745 0.21569246 0.019112993 0.32792312 0.028241161 -0.017160075
-0.023543386 0.21034142 -0.33333373 0.47883636 0.16658828 -0.42532733 -0.09308242 0.010463567
-0.6226463 -0.027820837 0.0066778497 0.1494431 -0.4116715 0.027248135 -0.31196162 0.054518297
0.018621244 -0.47510785 -0.41150048 -0.018952144 0.36816236 -0.41866285 -0.41016734 0.005826086
-0.018793762 0.22633342 -0.578995 0.58623195 0.15430623 0.27131227 -0.229402 0.13935997
00000000: 1250 65bd a224 8bbf aa07 aabe ed45 95bd
00000010: 68c2 973c caf7 1b3c a2f5 11bf df87 a7be
00000020: a5d5 9d3c 1448 2cbe 0626 4e3d b3bb 133f
00000030: dbc3 52be a5fd 553e 7842 84be 4c4b 84bb
00000040: c49b 453d 0618 903b dfd5 243c 8ea9 903c
00000050: 537f ddbe e2f1 113d 9fa2 86bd 22bb 9bba
00000060: 2eca b6be 04d6 51bc 8423 eabc 7452 c83b
00000070: fdf8 303e 073c c2bb d6a8 fdbe 726e b2be
00000080: 8f7f a23c 2da8 c13d 89c2 74be 78a6 a7bc
00000090: 0da0 76bf e0e7 393e 42d6 593c 6c56 233e
000000a0: dbf2 3cbd 4b4b 99bc af52 bb3e e5d5 b63e
000000b0: e8bb e9bd 1f28 eb3b fe88 24bd 9a3d 8dbc
000000c0: d4fa 1bbe d82f 0b3f 1c42 713d be50 6dbe
000000d0: c9b4 6bbc 37b1 8dbe bcca 873c 70f8 d8be
000000e0: 6b7c 7cbe ae20 1ebc 3cb1 e23e a68d a83e
000000f0: 4eba b4bc 4b2a b2bc 05fb 123f cc6c 11bc
00000100: ca79 a63b aeaa 48bc 52f3 953c caf6 14bb
00000110: 53ae 17bf a510 9bbe 3aec b03c dbd7 b0be
00000120: f732 e1be 649b 1a3e f798 92bc a88d 92ba
00000130: 3db9 49be 840c c63b c88d 0d3f 25ad 903e
00000140: 2cc2 a53c 51f9 84bc a801 393f 376f 3b3d
00000150: 69a8 823e 237f 9ebe 4ca6 273a 4b3a 30bf
00000160: 9851 923e b538 503e daa8 46be ac98 3f3c
00000170: 46a8 e63e 037a 2ebb ccb1 423c 3683 8fbe
00000180: 7df2 013d c90f c7bd 0277 debe 5841 10bd
00000190: 8d92 82bb f655 0c3f f589 3bbc 49e8 f63d
000001a0: fad4 ec3d bdc8 95bb 7e33 d53c 2e62 e339
000001b0: f5c0 f43e c819 2d3d 82ca 0ebd 9746 003e
000001c0: b780 aa3e f9b9 a6bc ae98 bbbf d65f 063d
000001d0: bf42 9a3e e428 43bc 3b20 98bc dfd6 81bb
000001e0: ee5b a2bc 7842 e43a 384c 0fbd 68b7 51bf
000001f0: 68e9 ba3c 88a5 d6b9 f7a7 293e 2e5c 91bb
00000200: 809b de3d f017 9cbe da6a 82bd efc8 0cbf
00000210: 7783 933c 1cb0 a03e 1b3d 20bf 8187 2bbf
00000220: 5365 b1be 78c1 cc3c de10 4dbf d847 993d
00000230: c18d 0f3f 3643 2f3d 638d 7ebc 6f62 973e
00000240: cefc 403e c25a ce3c 5cb8 153d 1ea3 0dbe
00000250: 3338 383e 9cf4 1cbb 016d e23e 42ea 7e3c
00000260: fa8a 323f dc9e 7a3b 02bc c33c 5445 e6bc
00000270: d159 5b3e a760 c0bf 9432 12bd 16b1 d33e
00000280: 872c 82be a07e debc 384e 9fbf 7cde 5c3e
00000290: da92 9c3c 8ae5 a73e 025a e73c 4993 8cbc
000002a0: 0fde c0bc be63 573e b8aa aabe 0a2a f53e
000002b0: 1e96 2a3e 81c4 d9be ffa1 bebd 626f 2b3c
000002c0: bf65 1fbf 86e8 e3bc ddd1 da3b 9d07 193e
000002d0: 9bc6 d2be 7b37 df3c 6fb9 9fbe 944e 5f3d
000002e0: 948b 983c 5641 f3be 31b0 d2be 8741 9bbc
000002f0: c77f bc3e fa5a d6be 7401 d2be c0e8 be3b
00000300: 60f5 99bc f3c3 673e 0439 14bf 4c13 163f
00000310: 7402 1e3e 71e9 8a3e 5ce8 6abe 61b4 0e3e

weight f4 [200, 15]
-0.2094317 -0.276618 0.7427758 0.60926926 -0.29986554 0.054744184 -0.21796848 0.18872075
-0.078573346 0.8936074 0.5384805 -0.018670686 -0.10892506 -0.2032926 0.43199524 0.37170866
0.4182706 -0.060663193 -0.81915027 -0.46368518 -0.57186913 -0.33407995 0.58672655 -0.82879096
0.6514543 0.5334686 -0.30401593 -0.18747832 -0.058043953 0.44886887 -0.065709785 -0.21157636
-0.09339356 -0.0266726 -0.4910931 -0.28836185 0.66559154 -0.94827956 -0.57418793 -0.67272717
-0.79673094 -0.4412631 -0.78744274 -0.7328419 -0.18232518 0.26756826 -0.47297505 0.3293063
-0.8321796 -0.48945984 -0.633069 -1.4712765 -1.0532434 0.69018996 0.0006717709 -0.39239633
-0.7321239 -0.7562772 -0.9482644 1.16648 0.08458982 0.08489376 -0.12877364 0.08178666
-0.8736618 -1.9661673 -1.200741 1.0881976 0.4495304 0.2523502 0.98473364 -0.38971463
-0.2928591 0.19566593 0.26786005 -0.18413381 -1.1665685 0.09706645 0.40726882 -0.388413
-0.29383266 -0.8083668 1.2171526 -0.06379333 -1.140038 -1.0075617 -0.041737452 0.15726994
-0.5072496 0.2239038 0.88165444 -0.013141345 -0.49412286 -0.7278734 -1.0997775 -2.2218795
-0.97551596 0.635841 0.13861069 0.58550936 -0.3363356 -1.1853603 -1.1747262 -0.9641191
0.16951756 0.82801205 -0.74980396 -0.13868555 -0.72947955 -0.20652847 0.607208 0.4933705
-0.6510872 -0.13006203 0.07977338 -0.8824177 -0.6503974 -0.7051994 -0.6867322 -0.2681601
1.1972258 -1.4177986 -0.13721545 -0.5447398 -0.024440633 -0.6736658 -0.49009445 -1.5631281
-0.2853332 -0.29190668 -0.2215902 0.089930125 -0.56976247 0.14245985 -0.33834174 -0.5261721
-0.32216573 0.2725146 1.1622645 0.010470407 -0.005655984 -0.06210445 0.22185385 0.8089493
-2.8883026 -0.30122465 -0.597451 -0.29446316 0.5488931 1.3648728 0.14957726 0.7217337
0.6927497 0.24506189 -0.8126114 -0.5725676 -0.49484578 0.75277275 0.3803742 0.45456356
-0.5869747 -0.34644428 -0.35771507 -0.14729494 -0.047647297 0.1337931 -0.0631972 0.23613736
0.67720205 0.51392466 0.34464493 0.4449962 -0.2885568 0.33816934 -3.0853813 0.5224905
0.3665542 -0.06173443 -1.10121 0.3838738 0.36049283 0.50466436 0.06775099 -0.3093569
0.6372612 0.58518404 -0.60985076 -0.8945214 -0.74384254 -0.37498087 -0.7867504 0.4883367
0.58068776 0.19649878 -0.65673923 0.0071331877 -0.012254318 -1.7911634 -0.016443962 1.0304419
1.1137261 0.43219134 0.47855797 -1.1715479 0.04922394 -0.23476471 0.15340114 0.060671728
0.032640744 -0.12522489 0.24719326 0.4603827 0.16855307 -0.7633288 0.9184435 0.7199354
0.62924695 -1.0396172 -0.06459451 0.6581874 -1.2321686 -2.803458 -0.2529028 -1.8385465
-0.5716285 -0.0021505842 -0.010893448 -1.3524817 -0.07735603 1.2081375 0.97307116 0.6916641
0.01632383 -1.0897158 0.02410406 0.899596 0.059797235 -0.026591748 -0.044937342 -0.016455775
0.38895246 -0.7180087 0.5434997 -0.2888235 0.27385408 -0.2366822 0.2210016 -0.46960747
0.2940987 0.33796602 -0.08982893 0.7619932 -0.23003292 -0.59715337 -0.68950385 1.1227261
00000000: 4375 56be e0a0 8dbe 8e26 3e3f 12f9 1b3f
00000010: fa87 99be 703b 603d 2133 5fbe 0340 413e
00000020: 10eb a0bd 74c3 643f dcd9 093f 44f3 98bc
00000030: 1a14 dfbd ef2b 50be 7b2e dd3e 9950 be3e
00000040: 9027 d63e f879 78bd d5b3 51bf 2568 edbe
00000050: 0466 12bf 870c abbe b633 163f a52b 54bf
00000060: b6c5 263f 6691 083f faa7 9bbe 51fa 3fbe
00000070: 7fbf 6dbd 24d2 e53e da92 86bd 79a7 58be
00000080: 1f45 bfbd 7f80 dabc 8e70 fbbe 2aa4 93be
00000090: 3564 2a3f 73c2 72bf fbfd 12bf d937 2cbf
000000a0: 8ff6 4bbf 3ded e1be d995 49bf 879b 3bbf
000000b0: 74b3 3abe b5fe 883e c929 f2be d69a a83e
000000c0: b909 55bf 7b9a fabe cf10 22bf ca52 bcbf
000000d0: aed0 86bf 4ab0 303f c819 303a 2ce8 c8be
000000e0: 796c 3bbf 629b 41bf 75c1 72bf 374f 953f
000000f0: 6d3d ad3d c8dc ad3d 3ddd 03be c47f a73d
00000100: 4da8 5fbf 5fab fbbf e2b1 99bf 0f4a 8b3f
00000110: d928 e63e 0c34 813e 8117 7c3f ad88 c7be
00000120: a1f1 95be a65c 483e f424 893e 938d 3cbe
00000130: 1e52 95bf c6ca c63d 8a85 d03e 12de c6be
00000140: 3c71 96be 20f1 4ebf a8cb 9b3f 14a6 82bd
00000150: c4ec 91bf c8f7 80bf e4f4 2abd 5f0b 213e
00000160: 1cdb 01bf 0a47 653e 1bb4 613f cc4e 57bc
00000170: acfd fcbe e955 3abf 82c5 8cbf 4633 0ec0
00000180: 6abb 79bf 7ac6 223f f6ef 0d3e f1e3 153f
00000190: 2e34 acbe e3b9 97bf 6e5d 96bf 82d0 76bf
000001a0: 0396 2d3e 99f8 533f 27f3 3fbf 9603 0ebe
000001b0: 2cbf 3abf 337c 53be fc71 1b3f 0f9b fc3e
000001c0: a7ad 26bf fb2e 05be 3a60 a33d 20e6 61bf
000001d0: 7280 26bf f387 34bf aecd 2fbf 484c 89be
000001e0: b23e 993f 6d7a b5bf 3582 0cbe 1174 0bbf
000001f0: b937 c8bc 5d75 2cbf a9ed fabe 9514 c8bf
00000200: 3117 92be cb74 95be 8be8 62be 492d b83d
00000210: f4db 11bf ffe0 113e 213b adbe 37b3 06bf
00000220: e8f2 a4be 0987 8b3e 15c5 943f 128c 2b3c
00000230: d555 b9bb 3c61 7ebd a82d 633e 4d17 4f3f
00000240: f3d9 38c0 1e3a 9abe 8cf2 18bf e0c3 96be
00000250: 4284 0c3f 27b4 ae3f c82a 193e 8ac3 383f
00000260: 0b58 313f 81f1 7a3e 4d07 50bf ca93 12bf
00000270: 6d5c fdbe b7b5 403f 68c0 c23e 8ebc e83e
00000280: f943 16bf 2561 b1be 6e26 b7be 7cd4 16be
00000290: d029 43bd 0f01 093e 896d 81bd fecd 713e
000002a0: 1d5d 2d3f 9190 033f 4d75 b03e 8bd6 e33e
000002b0: b8bd 93be 8824 ad3e e376 45c0 f0c1 053f
000002c0: feac bb3e 3edd 7cbd 73f4 8cbf 1b8b c43e
000002d0: 8492 b83e af31 013f 08c1 8a3d 0764 9ebe
000002e0: 8d23 233f 9fce 153f 2e1f 1cbf 5bff 64bf
000002f0: 776c 3ebf 7efd bfbe 7968 49bf 4507 fa3e
00000300: f4a7 143f fa36 493e 1020 28bf 84bd e93b
00000310: 56c6 48bc d844 e5bf 7db5 86bc 85e5 833f
00000320: 948e 8e3f 2f48 dd3e 8d05 f53e 48f5 95bf
00000330: 0b9f 493d 2966 70be 3015 1d3e eb82 783d
00000340: 4db2 053d f43a 00be 3b20 7d3e 48b7 eb3e
00000350: 2d99 2c3e 8469 43bf 1d1f 6b3f b04d 383f
00000360: 5416 213f 2d12 85bf 204a 84bd f87e 283f
00000370: b3b7 9dbf db6b 33c0 7a7c 81be 7e55 ebbf
00000380: 3f56 12bf d1f0 0cbb 6f7a 32bc 1f1e adbf
00000390: d76c 9ebd 40a4 9a3f 311b 793f e610 313f
000003a0: 8db9 853c cf7b 8bbf e175 c53c ec4b 663f
000003b0: f2ed 743d f0d6 d9bc 3810 38bd 43ce 86bc
000003c0: c724 c73e 6bcf 37bf cc22 0b3f ace0 93be
000003d0: 9a36 8c3e d25c 72be 3e4e 623e 6470 f0be
000003e0: 1b94 963e e209 ad3e 3bf8 b7bd fd11 433f
000003f0: c08d 6bbe 0bdf 18bf 5383 30bf 7db5 8f3f

bias f4 [200]
-0.38437334 -0.27784207 -0.06690235 -0.044309765 -1.0046723 0.01777035 -0.30811268 -0.22783174
0.22215307 0.0057413997 -0.5220996 -0.38496208 0.18472102 0.6133567 0.0735201 0.1270975
-0.9930616 -0.2762087 -0.056329 0.2478748 0.39044678 -0.7428336 -0.75431806 -0.27158722
0.08433307 -0.19909574 -0.13280056 0.3209646 -0.17790239 -0.37971705 -0.39881068 0.29406446
0.59160846 0.064023 -0.068411164 -0.18133911 0.2794651 -0.7580034 -0.6031006 0.3190359
-0.5548514 -0.04747719 -0.047470033 -0.8937658 -0.15848772 0.6604961 -0.082918175 0.25127614
-0.09103955 0.24183469 -0.014316901 -0.7777284 0.3745923 -0.43687558 0.23220842 -0.18165576
-0.7121717 0.6330092 0.00783477 -0.16408402 -0.45812592 -0.28096384 0.22607324 0.39522377
0.59036976 -0.89982694 -0.32887423 -0.8723501 0.3366767 0.19773245 -0.03173929 0.11730622
0.212572 0.1286349 -0.25501162 0.29840317 0.12165152 0.40538147 0.31701714 -0.345457
-0.4732968 -0.23103179 0.32824033 -0.30268118 -0.50861365 -0.16797866 0.3850994 0.12677854
0.12193969 0.14257061 -0.33927006 -0.52882236 0.39897412 -0.23257685 -0.46596846 0.23142764
-0.036138736 -0.007242271 -0.15486585 -0.043522105 0.32181838 -0.078843094 -0.26793075 0.17627907
-0.223553 -0.42151678 -0.09209072 -0.54346055 -0.47839573 0.046396527 -0.2858468 0.30891046
-0.13128103 -0.07347371 -0.38066822 0.06606019 0.304766 -0.28479293 0.35068074 -0.7345315
0.011195686 -0.012677098 0.026390824 -0.6159444 -0.16032633 -0.3102419 0.23647262 0.36644995
0.42046365 0.5906096 -0.37508556 -0.76777554 0.33927777 0.20338766 0.2917323 -0.30563146
-0.5102313 0.21880156 -0.11634158 0.051029764 0.2566173 -0.25844923 -0.49282762 -0.2570346
-0.22913806 0.22274905 0.23436591 -0.24950674 0.01997418 -0.22270934 -0.33940053 0.057048813
-0.69329077 -0.06732693 0.47971633 -0.16866785 -0.41594744 -0.17465523 0.237726 -0.84855527
1.0495013 0.054239042 0.849089 -0.6073686 -0.49032536 0.35086125 -0.4302595 -0.21115233
-0.1928264 -0.22784126 0.4357663 -0.038035933 0.121095344 0.4021243 -0.5342655 -0.066849925
0.011654666 0.32285535 -0.3225932 0.51243335 0.08729287 -0.35539907 -0.27551448 -0.23119618
-0.21857941 -0.47744644 -0.25811544 -0.01038718 -0.8075378 0.2318469 -0.54508966 -0.59991956
-0.43700498 -0.54468846 0.030519452 0.053680077 -0.36370462 -0.571773 0.3429319 0.36604926
00000000: 95cc c4be 5141 8ebe 1904 89bd 287e 35bd
00000010: 1a99 80bf 2093 913c f2c0 9dbe b94c 69be
00000020: 187c 633e 5a22 bc3b 52a8 05bf c019 c5be
00000030: 8227 3d3e f204 1d3f b591 963d d925 023e
00000040: 4939 7ebf 3a6b 8dbe 3db9 66bd e4d2 7d3e
00000050: a4e8 c73e 582a 3ebf fd1a 41bf 7b0d 8bbe
00000060: d1b6 ac3d c1df 4bbe dffc 07be 7955 a43e
00000070: 0b2c 36be 466a c2be ea30 ccbe 9e8f 963e
00000080: a773 173f 7e1e 833d 271b 8cbd f6b0 39be
00000090: 0d16 8f3e 830c 42bf cd64 1abf ac58 a33e
000000a0: be0a 0ebf 7177 42bd f06f 42bd d6cd 64bf
000000b0: 9b4a 22be 4616 293f 01d1 a9bd 44a7 803e
000000c0: f272 babd 83a3 773e 6f91 6abc 3519 47bf
000000d0: 90ca bf3e 28ae dfbe 0bc8 6d3e f803 3abe
000000e0: e250 36bf e40c 223f 685d 003c a405 28be
000000f0: 7b8f eabe 7eda 8fbe be7f 673e c55a ca3e
00000100: 7922 173f 0f5b 66bf 3462 a8be 5652 5fbf
00000110: e360 ac3e 607a 4a3e 0f01 02bd 3e3e f03d
00000120: 79ac 593e deb8 033e e290 82be 4dc8 983e
00000130: 6f24 f93d 298e cf3e 1250 a23e bddf b0be
00000140: f553 f2be 9993 6cbe 1e0f a83e 07f9 9abe
00000150: 8134 02bf 9902 2cbe c02b c53e 3cd2 013e
00000160: 84bb f93d 08fe 113e ceb4 adbe e760 07bf
00000170: 5646 cc3e a028 6ebe 6b93 eebe 5efb 6c3e
00000180: 3606 14bd 9350 edbb 2795 1ebe 3c44 32bd
00000190: 61c5 a43e 7d78 a1bd 382e 89be 8082 343e
000001a0: 14eb 64be 0cd1 d7be 0f9a bcbd 3b20 0bbf
000001b0: 49f0 f4be 490a 3e3d 835a 92be 8329 9e3e
000001c0: 896e 06be 6279 96bd f2e6 c2be 914a 873d
000001d0: 4a0a 9c3e 61d0 91be 6d8c b33e 420a 3cbf
000001e0: 1c6e 373c 9ab3 4fbc 9231 d83c 88ae 1dbf
000001f0: 962c 24be 07d8 9ebe e125 723e 549f bb3e
00000200: 0347 d73e 3132 173f 370b c0be f08c 44bf
00000210: d1b5 ad3e db44 503e f05d 953e ba7b 9cbe
00000220: 859e 02bf 840d 603e 7f44 eebd 9604 513d
00000230: 5863 833e 7553 84be e753 fcbe 0a9a 83be
00000240: 2ba3 6abe 5418 643e 9efd 6f3e b27e 7fbe
00000250: e4a0 a33c eb0d 64be e8c5 adbe 04ac 693d
00000260: 817b 31bf b4e2 89bd 619d f53e 44b7 2cbe
00000270: 10f7 d4be d2d8 32be 726e 733e eb3a 59bf
00000280: 0f56 863f c229 5e3d e65d 593f 827c 1bbf
00000290: ed0b fbbe 16a4 b33e f94a dcbe 5138 58be
000002a0: 4974 45be 384f 69be c31c df3e 91cb 1bbd
000002b0: d600 f83d 3ce3 cd3e a0c5 08bf 9de8 88bd
000002c0: 36f3 3e3c 4c4d a53e f02a a5be d52e 033f
000002d0: 9bc6 b23d def6 b5be 3c10 8dbe b1be 6cbe
000002e0: 48d3 5fbe dc73 f4be b527 84be fe2e 2abc
000002f0: ccba 4ebf 4669 6d3e ff8a 0bbf 5494 19bf
00000300: 1ebf dfbe b470 0bbf ee03 fa3c a4df 5b3d
00000310: 7e37 babe b75f 12bf c594 af3e cf6a bb3e

weight f4 [200, 200]
-0.026693199 -0.053328414 0.061002836 -0.047460828 -0.03518452 0.06737515 0.05421926 -0.05702565
-0.0037881173 0.017717164 0.020428082 0.023959642 -0.026236048 -0.03817456 0.0322883 0.034283105
-0.05716582 -0.037670046 -0.026588745 0.02920494 -0.006485796 -0.034575194 -0.03325979 0.06021927
-0.061190918 0.034528133 -0.040011924 -0.046882503 0.052692734 0.028861472 0.047762092 -0.06669105
-0.051652826 0.039418403 0.0411142 0.062307443 -0.018398654 0.053679857 -0.011667546 -0.04582928
0.05622012 -0.085858844 -0.035058785 0.034601275 0.005348621 -0.093230605 0.006174422 -0.09130059
-0.010374447 -0.029983709 -0.012714582 0.019659305 0.028195394 0.00012286649 -0.0061887847 0.053026333
-0.09443503 -0.094958134 0.027251378 -0.024397952 -0.019538546 0.041029833 -0.027077759 -0.04544432
-0.076390974 -0.04690168 -0.04478841 0.009594743 0.017298317 -0.046120573 0.03236148 0.053853672
-0.090228215 -0.046366442 -0.0025668612 -0.060940262 -0.02128683 -0.08485714 -0.051615976 -0.03969785
-0.041072503 -0.07815948 0.041217376 -0.0040023155 0.011115456 -0.052968357 -0.0845588 -0.053618092
-0.05956805 0.050987273 -0.019795617 -0.048873655 -0.07926075 -0.036583338 0.00095498865 -0.08632902
0.028955262 -0.069960274 -0.08307475 -0.019348329 -0.008549884 0.05657972 0.02316529 -0.07905774
0.017412575 -0.034942225 -0.029117025 0.0002452674 -0.051550798 0.0061908276 -0.048751626 0.017249793
0.0066093425 0.020895243 0.0256785 -0.06790654 -0.01661347 0.036730863 -0.023088727 -0.04019694
-0.060249142 -0.033757545 -0.032384608 0.0010673605 0.04471465 0.02421929 -0.09881288 -0.061700907
0.010119316 -0.014498769 0.053314433 -0.058277477 0.0110015 -0.07609471 0.02075668 -0.06854117
-0.013821267 -0.093133666 -0.085770525 -0.01757599 0.0013944706 -0.052525505 -0.042324416 -0.04286976
0.017174141 -0.064766 -0.059131365 0.015374173 -0.047051303 -0.007101064 -0.021675384 0.017515855
0.0009846968 -0.016803958 -0.0016271381 -0.0042180317 -0.03513793 -0.054236345 0.023183003 0.01122893
-0.06701666 -0.04907522 -0.024586888 -0.019232973 -0.02152256 -0.0144610545 -0.105242476 0.0039538043
0.059900545 0.05301937 -0.007998695 -0.05221292 -0.08715567 -0.015793996 0.04761871 0.027104715
-0.110185996 0.03336558 -0.055299677 -0.051861577 0.043701902 0.035178054 -0.020240242 -0.04382556
-0.05374305 -0.070038624 -0.009696356 -0.0139447795 0.023660121 -0.03355116 -0.02839464 0.013517717
-0.063485235 0.038748153 -0.021064717 -0.04765467 -0.009436233 -0.08197699 0.0007840645 -0.016889352
0.16139694 0.016485233 0.05167552 0.26254034 -1.7216909 0.04213397 -0.32789344 -0.886395
-0.47032428 1.3633828 -1.1535834 -0.083615005 -3.3419683 0.56275654 -0.58467513 -0.06273348
0.6936425 -0.08720868 -0.604387 0.23950516 -1.5077473 -0.041132204 -1.6490256 -0.042093474
-1.4806032 -0.0027541702 0.15927887 -0.7003576 0.03677688 -0.29724956 -1.5179882 -2.3589866
-0.76648754 0.26352417 1.2875761 -0.07014986 -2.7474244 -2.501736 -0.2988033 -0.4591127
-5.5752645 -1.2745591 0.44792685 -0.85166717 -0.020738611 -0.8509242 0.1427707 -2.1234775
-0.5227689 -0.23222427 -0.21418281 -0.95914054 -0.28023645 -1.138556 0.5120525 -1.6792704
00000000: b2ab dabc e56e 5abd 1cde 793d 4966 42bd
00000010: a51d 10bd fcfb 893d 0415 5e3d ba93 69bd
00000020: 1042 78bb 9623 913c cb58 a73c 0347 c43c
00000030: fbec d6bc ed5c 1cbd bd40 043d 716c 0c3d
00000040: b526 6abd e84b 1abd a4d0 d9bc 333f ef3c
00000050: cd86 d4bb b89e 0dbd 6b3b 08bd 7ba8 763d
00000060: 54a3 7abd 5f6d 0d3d 8be3 23bd de07 40bd
00000070: 56d4 573d e56e ec3c 2fa2 433d 5195 88bd
00000080: ea91 53bd 3175 213d 5d67 283d 1736 7f3d
00000090: c6b8 96bc 69df 5b3d 3c29 3fbc 7cb7 3bbd
000000a0: 1247 663d c3d6 afbd cd99 0fbd 11ba 0d3d
000000b0: 7c43 af3b b0ef bebd ce52 ca3b cefb babd
000000c0: 96f9 29bc 65a0 f5bc d250 50bc 8d0c a13c
000000d0: 07fa e63c b9d5 0039 4acb cabb 2432 593d
000000e0: 2767 c1bd 6979 c2bd 483e df3c 37de c7bc
000000f0: 4d0f a0bc e60e 283d 2dd2 ddbc d323 3abd
00000100: df72 9cbd fa1b 40bd 0d74 37bd 4533 1d3c
00000110: 33b5 8d3c ede8 3cbd 798d 043d ab95 5c3d
00000120: 92c9 b8bd bdea 3dbd c938 28bb 7f9c 79bd
00000130: b861 aebc 95c9 adbd 466b 53bd 369a 22bd
00000140: a43b 28bd 1412 a0bd 8dd3 283d db25 83bb
00000150: 9a1d 363c 59f5 58bd 2a2d adbd a59e 5bbd
00000160: a1fd 73bd 08d8 503d 6b2a a2bc be2f 48bd
00000170: 7653 a2bd 69d8 15bd 3458 7a3a 45cd b0bd
00000180: 9633 ed3c 5547 8fbd 1823 aabd 6380 9ebc
00000190: d014 0cbc 23c0 673d 22c5 bd3c 06e9 a1bd
000001a0: d1a4 8e3c 941f 0fbd d486 eebc 3c97 8039
000001b0: ee26 53bd 6ddc ca3b c9af 47bd 704f 8d3c
000001c0: 2f93 d83b 802c ab3c b85b d23c 9612 8bbd
000001d0: f918 88bc 1a73 163d 9224 bdbc 8ca5 24bd
000001e0: cec7 76bd 5a45 0abd b9a5 04bd ade6 8b3a
000001f0: b526 373d 8867 c63c 685e cabd 17ba 7cbd
00000200: 7dcb 253c 3f8c 6dbc 3c60 5a3d 5db4 6ebd
00000210: a33f 343c 8bd7 9bbd ea09 aa3c 505f 8cbd
00000220: 9872 62bc ddbc bebd 75a8 afbd 86fb 8fbc
00000230: abc6 b63a fc24 57bd 5e5c 2dbd 3498 2fbd
00000240: c9b0 8c3c 09a4 84bd bb33 72bd f5e3 7b3c
00000250: deb8 40bd 0bb0 e8bb 9390 b1bc 697d 8f3c
00000260: f110 813a 74a8 89bc b245 d5ba 6a37 8abb
00000270: caec 0fbd ee26 5ebd 48ea bd3c 8cf9 373c
00000280: 0840 89bd 1903 49bd 716a c9bc 788e 9dbc
00000290: 1450 b0bc 0fee 6cbc 5e89 d7bd ea8e 813b
000002a0: 465a 753d d72a 593d f50c 03bc 37dd 55bd
000002b0: ac7e b2bd 6962 81bc d60b 433d b50a de3c
000002c0: 32a9 e1bd 59aa 083d ea81 62bd ce6c 54bd
000002d0: c400 333d dd16 103d ddce a5bc 6e82 33bd
000002e0: ac21 5cbd 6970 8fbd 77dd 1ebc a578 64bc
000002f0: dfd2 c13c f16c 09bd e09b e8bc 6a79 5d3c
00000300: 8c04 82bd 62b6 1e3d ea8f acbc 8b31 43bd
00000310: 6e9a 1abc 8de3 a7bd ae89 4d3a 8a5b 8abc
00000320: 3d45 253e 0a0c 873c b6a9 533d b06b 863e
00000330: 5e60 dcbf ab94 2c3d a6e1 a7be c8ea 62bf
00000340: 58ce f0be 5483 ae3f 9fa8 93bf 583e abbd
00000350: cfe2 55c0 d010 103f 45ad 15bf 697a 80bd
00000360: 8e92 313f 779a b2bd 1bb9 1abf d740 753e
00000370: ddfd c0bf 3e7a 28bd 4513 d3bf 356a 2cbd
00000380: 6884 bdbf 4f7f 34bb 001a 233e a34a 33bf
00000390: 5ba3 163d 1831 98be 704d c2bf a3f9 16c0
000003a0: 8738 44bf a4ec 863e 4bcf a43f bbaa 8fbd
000003b0: cdd5 2fc0 711c 20c0 bffc 98be d210 ebbe
000003c0: 9168 b2c0 c124 a3bf ab56 e53e dc06 5abf
000003d0: 05e4 a9bc 2bd6 59bf 7b32 123e 0ee7 07c0
000003e0: 2fd4 05bf 33cc 6dbe bd52 5bbe 3c8a 75bf
000003f0: 277b 8fbe 34bc 91bf df15 033f 55f2 d6bf

bias f4 [200]
-0.11251582 -0.03849705 -0.07849426 -0.5280498 0.34831005 -0.7401976 0.04029838 -0.051128365
-0.895004 -0.057468276 -0.09292052 -0.4115596 -0.02742641 -0.112231396 -0.08515028 -0.020224337
-0.46939293 -0.18550307 0.7057574 -0.14304444 -0.054824248 -0.008619555 -0.22857364 -0.15925981
-0.316463 -0.3041571 -0.35843256 0.1805962 -0.456234 0.4738252 -0.095073745 -0.14529946
-0.2916446 -0.1627464 -0.068586856 -0.28220677 -0.033146355 -0.5259255 -0.32414702 -0.82485306
0.12737034 -0.04096192 -0.037689045 -0.028538441 -0.10669456 0.025042774 -0.07868713 -0.2592541
0.067589216 -0.8081963 -0.26802066 -0.034403034 -0.1215645 0.048610322 -0.2409497 0.25611022
-0.09599612 0.009528245 -0.043565683 -0.42851815 -0.0769676 -0.08903946 -0.2617788 0.31651485
-0.039811336 0.3571038 -0.023636112 -0.10900621 -0.11244151 -0.091551885 -0.039276518 0.30469352
-0.1299985 -0.094566636 -0.4387263 -0.10996158 -0.07230896 -0.06890304 -0.05325967 -0.118221976
-0.12599094 -0.10282216 -0.29595995 -0.3069467 -0.037304156 -0.21222246 -0.8456491 -0.09282579
0.072696485 -0.24754089 -0.8667294 -0.008675379 -0.49280852 -0.046916373 -0.27662662 -0.57622015
-0.0653779 0.11940064 0.18463613 0.046988383 -0.35141718 -0.04377603 -0.14203206 -0.071810015
-0.094378054 -0.38693464 -0.3894292 -0.19693273 -0.2737561 -0.025902916 -0.7208912 -0.6993835
-0.09979203 0.8451912 -0.05846701 -0.09959231 -0.04883547 -0.117954575 -0.47285032 -0.28977168
-0.21070196 -0.71387047 -0.10428316 -0.119752064 -0.060630627 -0.54836065 -0.07889278 -0.68241024
-0.09438781 -0.074395575 -0.289895 -0.048624 -0.08468964 -0.37301672 -0.19362374 0.046240218
-0.46606794 -0.5048612 -0.18895003 -0.21118383 -0.34694624 -0.8049017 0.22473644 -0.3031111
-0.5853903 -0.21889426 -0.07131403 -0.044540644 -0.3074988 -0.07978274 0.053769477 0.11289014
-0.09214501 -0.47213987 -0.08966531 -0.29211366 0.010321074 -0.09382404 -0.039307185 -0.17504492
-0.064545825 -0.33295366 -0.08494074 -0.10868198 -0.07163526 -0.075937666 -0.0930575 -0.033728443
-0.1360885 -0.026582468 -0.324747 -0.15264557 -0.4755224 0.060691673 -0.10543271 -0.0104751
-0.40824825 -0.036606543 0.6448309 -0.31431502 -0.18816993 -0.5576165 -0.07937892 -0.029202608
0.015101815 0.14022912 -0.025053678 -0.064902805 -0.06605693 -0.35393143 -0.10425425 -0.7215019
-0.08669123 -0.116385534 -0.1214571 -0.134542 -0.07935539 -0.64158994 -0.08426678 -0.49917346
00000000: b26e e6bd 15af 1dbd 99c1 a0bd 462e 07bf
00000010: b255 b23e 977d 3dbf ea0f 253d fa6b 51bd
00000020: fb1e 65bf db63 6bbd 1d4d bebd f1b7 d2be
00000030: 5aad e0bc 93d9 e5bd 4563 aebd 82ad a5bc
00000040: 4554 f0be 84f4 3dbe 84ac 343f 3e7a 12be
00000050: 648f 60bd 0939 0dbc 350f 6abe 0115 23be
00000060: 7007 a2be 7bba 9bbe 7984 b7be 36ee 383e
00000070: 8197 e9be 3799 f23e 06b6 c2bd 62c9 14be
00000080: 7152 95be fea6 26be 4477 8cbd 687d 90be
00000090: 79c4 07bd 0ea3 06bf 99f6 a5be 9229 53bf
000000a0: 5f6d 023e b0c7 27bd d45f 1abd 73c9 e9bc
000000b0: ad82 dabd 8126 cd3c b826 a1bd f4bc 84be
000000c0: 376c 8a3d f4e5 4ebf 013a 89be 32ea 0cbd
000000d0: cff6 f8bd 9e1b 473d 85bb 76be e120 833e
000000e0: 9d99 c4bd 5b1c 1c3c ee71 32bd bb66 dbbe
000000f0: 30a1 9dbd 525a b6bd df07 86be 3c0e a23e
00000100: 3611 23bd 4fd6 b63e 85a0 c1bc a63e dfbd
00000110: bc47 e6bd 8e7f bbbd 6ae0 20bd ca00 9c3e
00000120: 541e 05be 27ac c1bd bca0 e0be 8933 e1bd
00000130: b816 94bd 091d 8dbd d026 5abd 5d1e f2bd
00000140: c503 01be 6d94 d2bd 1088 97be 1e28 9dbe
00000150: 3ecc 18bd d850 59be 767c 58bf 731b bebd
00000160: e5e1 943d 5c7b 7dbe fae1 5dbf 2d23 0ebc
00000170: 6651 fcbe 622b 40bd 01a2 8dbe 2a83 13bf
00000180: d9e4 85bd 5388 f43d 4111 3d3e e476 403d
00000190: f4ec b3be 7f4e 33bd da70 11be 2111 93bd
000001a0: 4849 c1bd 4c1c c6be 4463 c7be bca8 49be
000001b0: c229 8cbe 5a32 d4bc 538c 38bf cc0a 33bf
000001c0: c45f ccbd 735e 583f 1a7b 6fbd 0ef7 cbbd
000001d0: b407 48bd 2b92 f1bd 7019 f2be f45c 94be
000001e0: 41c2 57be 37c0 36bf 6992 d5bd 9240 f5bd
000001f0: d257 78bd 5d61 0cbf 8a92 a1bd 70b2 2ebf
00000200: 654e c1bd b55c 98bd 1e6d 94be f629 47bd
00000210: c371 adbd 0cfc bebe 4d45 46be 6266 3d3d
00000220: 75a0 eebe 953e 01bf 1e7c 41be 9340 58be
00000230: f0a2 b1be 0a0e 4ebf 4f21 663e 6131 9bbe
00000240: 24dc 15bf d125 60be 170d 92bd 4070 36bd
00000250: 7c70 9dbe 2265 a3bd 623d 5c3d f232 e73d
00000260: 86b6 bcbd 51bc f1be 72a2 b7bd ec8f 95be
00000270: b919 293c d126 c0bd 9200 21bd fa3e 33be
00000280: 9a30 84bd e778 aabe 69f5 adbd a894 debd
00000290: 82b5 92bd 3585 9bbd ee94 bebd d626 0abd
000002a0: c95a 0bbe 7ac3 d9bc 3d45 a6be 1f4f 1cbe
000002b0: ac77 f3be d597 783d 1bed d7bd c19f 2bbc
000002c0: ea05 d1be bef0 15bd a313 253f e6ed a0be
000002d0: 9eaf 40be f4bf 0ebf 6a91 a2bd 4f3a efbc
000002e0: 9a6d 773c 3998 0f3e 5f3d cdbc c3eb 84bd
000002f0: db48 87bd 8036 b5be 4183 d5bd 59b4 38bf
00000300: 2c8b b1bd 8a5b eebd 80be f8bd 61c5 09be
00000310: 1485 a2bd 3d3f 24bf 1094 acbd aa93 ffbe
