Vehicles/ModRepeat_forest_9/ModRepeat_forest_9_critic_target.pth (torch, 353497 bytes, 10 tensors)

weight f4 [200, 15]
000000 db 52 6f be 4f 11 b4 3d 7e d1 9b bd de 4a 9a bd
       -0.2337145 0.08792364 -0.07608317 -0.07533811
000010 71 f8 40 be a1 fe 46 be 3b a4 63 be 6d e8 99 3d
       -0.18844773 -0.1943307 -0.22230618 0.07515035
000020 f6 25 13 be 24 e5 76 be 58 cb 44 3e 2c 5c 75 be
       -0.1436995 -0.24110848 0.19218194 -0.23960942
000030 12 ee 55 be d2 8c 80 3c cd 14 90 bd de d9 97 bd
       -0.20891598 0.015692148 -0.070352174 -0.07414602
000040 2c fe f3 bb d4 c2 70 3c 13 01 70 3d 71 cd 43 be
       -0.007446071 0.014694888 0.058594774 -0.19121338
000050 a1 b3 46 be 39 d9 d6 3d 74 6d 05 3e 6a a3 e6 3c
       -0.1940446 0.10490651 0.13030034 0.028154094
000060 52 86 df bd 79 d0 4c be d5 81 98 3d a6 65 1e be
       -0.109142914 -0.20001401 0.074466385 -0.15468463
000070 e6 75 14 be 4e d1 ad 3d 5b 0b 05 3d 8c 6f 74 bf
       -0.144981 0.08487187 0.032481533 -0.9548271
000080 fa cf 72 3e a7 8b b8 be 2c 9f f4 bd 4a f3 18 be
       0.2371215 -0.36044046 -0.11944422 -0.14936557
000090 18 59 9e 3e 18 59 81 bf c5 79 f6 bd 92 38 f7 bd
       0.30927348 -1.0105314 -0.120349444 -0.12071337
0000a0 ed ce ab be c1 30 86 3f 9e 76 24 3f 65 6d 39 3f
       -0.3355631 1.0483629 0.64243495 0.7243255
0000b0 eb 8d e5 3e 7d 68 2c 3f 62 7a b9 be 83 da 83 bf
       0.44834837 0.67346936 -0.36226183 -1.030106
0000c0 df 7f 09 3f 5b 29 87 3e 22 55 18 3e 04 07 33 bf
       0.5371074 0.2639874 0.14876226 -0.6993258
0000d0 3a 13 b9 be 77 4b 57 bf 4e ab 95 3e 63 4b 2a bd
       -0.3614748 -0.84099525 0.29232258 -0.0415758
0000e0 4e 78 6f be 3e f3 11 bd 88 74 02 bf 9e 36 d5 be
       -0.23385736 -0.035632364 -0.5095906 -0.41643232
0000f0 72 96 a4 3e f6 7c a2 3e e3 f1 30 be ee 2e 46 3f
       0.3214603 0.31735963 -0.17279772 0.7741536
000100 48 7c 89 bd 8c 56 ec be 21 5f 90 bd f3 56 a0 be
       -0.06713158 -0.4615978 -0.070493944 -0.31316337
000110 cc dc e3 3d f8 3b 34 c0 d0 c1 f1 be 28 87 38 be
       0.11126098 -2.8161602 -0.4721818 -0.18020308
000120 f0 a2 93 3f 76 52 04 3f aa 82 fd 3e b4 a2 b4 3c
       1.15341 0.51688325 0.4951375 0.02205024
000130 df ec 9a bd f9 5e f1 3e 71 ed 1c bf 4b ed 3b 3e
       -0.07564711 0.4714277 -0.61299807 0.18352239
000140 d1 f6 45 3e 88 b2 f8 3e a0 e3 aa 3e ec 6d e4 3e
       0.19332434 0.4857371 0.3337679 0.44615114
000150 cb 5b 23 c0 7b a1 12 3f 78 72 1f be bb 4f 6f 3e
       -2.5524776 0.5727765 -0.1557101 0.23370259
000160 ee b0 c4 bc 82 ca d8 3d 14 6c 40 bf f2 7e 17 3f
       -0.024010148 0.105855 -0.75164914 0.5917808
000170 9d 12 82 bc 4e f5 94 3e 98 8e cd 3d 7c 17 32 3f
       -0.015878016 0.29093403 0.10036963 0.69567084
000180 87 bd 19 3e c7 bd bb bd 3c cc af be 18 d8 86 3e
       0.15013705 -0.091670565 -0.34335506 0.2633674
000190 b5 0a f6 be 57 f8 49 3f 84 df 3d bf 2b e8 68 bf
       -0.48055044 0.7889456 -0.7416918 -0.9097926
0001a0 2d a7 fa be c5 71 d7 be 3f 67 8d bd 8e ed f4 3d
       -0.4895567 -0.42078987 -0.06904458 0.119593725
0001b0 37 89 1b bf ba f3 20 be f5 b5 bd bb ce e3 4c bd
       -0.6075625 -0.15717974 -0.0057895132 -0.05002194
0001c0 5e 04 a2 be 16 1b ec 3d 69 62 fb bf b2 2b 71 3f
       -0.31643957 0.11528604 -1.9639407 0.942073
0001d0 76 43 a5 3f cc 93 14 3f 17 a1 02 3f 37 76 60 3e
       1.2911212 0.5803802 0.51027054 0.21920095
0001e0 ca a4 f4 3e 57 c1 5f bf b2 60 fc bc 88 ac 64 bf
       0.47781974 -0.8740439 -0.030807827 -0.8932576
0001f0 b8 47 ee be c3 46 fc 3d b5 54 8a 3e 8e b9 57 3e
       -0.46539092 0.12318184 0.2701775 0.21066877
000200 6f c4 85 c0 df 29 d9 3a 07 7a 51 3f 05 9c 14 3f
       -4.1802287 0.0016568265 0.81826824 0.58050567
000210 30 95 dd be 26 4a d8 3e 45 16 19 3e ee 00 44 3d
       -0.43277884 0.4224407 0.14949901 0.04785245
000220 58 42 1f 3f e6 b4 b4 be d2 55 2e 3f 63 e6 63 bf
       0.6221061 -0.35294265 0.680997 -0.8902342
000230 d4 bd 5f be 8c d3 c5 3d 45 ce 43 bf 12 4b be 3d
       -0.21849757 0.0965949 -0.7648662 0.09291662
000240 80 91 6a 3d 50 61 f5 3e 43 41 00 bf bf be 09 bf
       0.057267666 0.47925806 -0.5009958 -0.5380668
000250 4d 32 65 be 3f 92 8b 3f 54 40 43 3e 0c 88 29 bf
       -0.2238247 1.0904006 0.19067508 -0.66223216
000260 25 7a 8b be d7 d1 77 bf 59 c3 82 3e 52 6b 6c be
       -0.27241626 -0.96804565 0.25539663 -0.23087814
000270 be fc 2d bf 15 b6 e0 be 90 e4 0c 3f 0f f7 20 bf
       -0.6796378 -0.43888918 0.5503626 -0.6287698
000280 78 95 23 bd 83 00 a7 3d 9d e6 3e be e9 8e 22 bf
       -0.039937466 0.081543945 -0.1864266 -0.63499314
000290 ec 7f 09 be 19 f7 33 bc 94 4c 71 bb e8 da 04 bf
       -0.13427705 -0.010984206 -0.0036819326 -0.51896524
0002a0 49 91 21 bf df f8 1d be a8 e1 cb 3e 0a 1c 39 3f
       -0.6311231 -0.15426968 0.398206 0.7230841
0002b0 41 44 f9 3d c3 3f 5c bf 18 c1 c8 3e a2 56 54 3f
       0.121712215 -0.8603479 0.3920982 0.8294469
0002c0 c0 af ba bd 9b b1 02 3c f4 8e c2 3d 53 c0 fb bd
       -0.09115553 0.007976915 0.094999224 -0.12292542
0002d0 c4 ea 11 3f ba 05 0b 40 61 06 84 3e 5d 77 a3 3e
       0.5699885 2.1722245 0.25786117 0.31927004
0002e0 b9 e8 51 bf c3 2b eb be 13 88 45 bf 98 74 39 bf
       -0.8199573 -0.45931825 -0.7716076 -0.7244353
0002f0 92 b8 c7 3e 9b 5a 29 bf a5 07 c8 bf 32 d5 0c 3d
       0.39008003 -0.6615388 -1.5627333 0.034383006
000300 63 31 16 3f c1 f8 0f 3f 0d 5d 8b 3e 32 61 0c 3d
       0.5866911 0.56238943 0.2721943 0.03427238
000310 0b 7c 3c 3f f9 11 7a bf 77 a8 81 3f 0e 5e 9e bf
       0.73626775 -0.97683674 1.0129536 -1.2372453
000320 95 b4 20 bf 20 a2 b8 be 47 85 34 3f 59 9a 94 bc
       -0.62775546 -0.36061192 0.70515865 -0.018140005
000330 57 25 77 3b 8a 53 a5 bf 20 1f 64 3f de c9 99 3e
       0.0037711465 -1.2916119 0.89109993 0.30036825
000340 b2 32 3c 3e 7a 9d d0 3b 97 f7 13 bf 2e f6 13 bf
       0.18378714 0.006366429 -0.5779967 -0.57797515
000350 6c 1c 5a 3f 8f 57 bc bf b7 be 14 3f 5d 28 21 3f
       0.8519962 -1.4714221 0.5810351 0.62952214
000360 a1 93 48 bf 38 88 d0 bf 09 17 20 bf 34 af ff be
       -0.78350264 -1.6291571 -0.6253515 -0.49938357
000370 01 55 34 3f 47 ef 50 be 69 e9 a9 bf f2 56 01 c0
       0.70442206 -0.20403777 -1.3274356 -2.0209317
000380 58 53 b5 be f5 c7 6e 3f 9f 87 f4 3e 58 23 f4 3e
       -0.3541515 0.9327386 0.4775972 0.47683215
000390 8a 42 18 bf 9a 4a 5f 3f f8 ec 8c be 3e 15 db 3e
       -0.5947653 0.8722321 -0.27524543 0.42789644
0003a0 14 c4 bc bf 49 03 91 3d e5 21 67 bf 72 f8 a3 3e
       -1.4747338 0.07080705 -0.90286094 0.32025486
0003b0 74 18 5e bf 15 05 0f bf e6 24 0b 3e fe 52 b4 be
       -0.8675606 -0.5586713 0.13588294 -0.35219568
0003c0 ba 6f 59 be 9d 5d 9a bd cc e8 8e bd 37 e0 27 3e
       -0.21234027 -0.075373866 -0.06977996 0.16394125
0003d0 c4 ed 73 bd 8d fe 9a 3c 7a 0a 54 be 84 09 7f be
       -0.059552923 0.018920207 -0.20707121 -0.24905974
0003e0 2c 71 fe bd 0c b3 e6 bd 81 4b c2 bc cc 3e 09 3e
       -0.124239296 -0.11264619 -0.023717644 0.13402861
0003f0 bb 20 e2 bd c1 d4 41 be 88 2e c8 3d 29 fa 87 bf
       -0.11041399 -0.18928815 0.097745 -1.0623218

bias f4 [200]
000000 8a b0 5c be e3 a7 62 be c9 4f 09 be 98 24 98 bd
       -0.2155172 -0.22134356 -0.13409342 -0.07428855
000010 fc ba 29 be e5 a4 77 3d 48 98 32 3d 53 c4 b8 bc
       -0.16575235 0.06045999 0.043602258 -0.022554552
000020 14 e0 e3 be 4b 05 2c 3f 59 aa 2e bd 79 3f 96 be
       -0.44506896 0.67195576 -0.042642925 -0.293453
000030 ac e6 e7 bd f7 f5 e0 be 1a 68 a9 3e e0 28 ea 3d
       -0.11323294 -0.43937656 0.33087236 0.114335775
000040 f5 5b 8a be fb ea b4 be e3 30 4c be ba c8 a5 3e
       -0.27023283 -0.35335526 -0.19940524 0.32379705
000050 0f fc cb be 34 d0 43 bf 85 b7 bc 3e f8 76 96 be
       -0.39840743 -0.7648957 0.36858764 -0.2938764
000060 be 1e 33 be 93 96 74 3e 38 68 99 be 73 f9 f9 3d
       -0.17492196 0.23885565 -0.29962325 0.12205782
000070 62 bd 08 3e 19 df ba bc 3a a7 67 3e 61 2b 16 be
       0.13353494 -0.02281146 0.22622386 -0.14664985
000080 bc ae 1b be c5 74 97 3e de 80 a5 be c7 b3 0f 3f
       -0.15203375 0.29581276 -0.3232488 0.56133693
000090 68 bf 1d 3e e2 03 23 be a4 e6 8f be b5 e4 22 3e
       0.15405047 -0.1591945 -0.28105652 0.15907557
0000a0 1d ec 1e 3f 18 f5 91 3e 18 82 04 bf 7f 9d 26 3e
       0.6207903 0.28507304 -0.5176101 0.16271017
0000b0 60 6d 41 bf a2 b7 1f 3e bc d7 cc 3e e6 fe f9 3d
       -0.7555752 0.15597394 0.40008342 0.12206821
0000c0 f8 29 06 3e 68 c7 00 3e 2d a2 15 bf 10 ec 8d be
       0.13101947 0.12576067 -0.58450586 -0.27719164
0000d0 7d 00 b2 be 8b 42 53 be 98 7b eb be 23 9c 01 bf
       -0.34765998 -0.20630853 -0.45992732 -0.5062887
0000e0 4d 82 15 3e 9a 83 12 bf df 61 01 bf 45 ed 3b 3e
       0.14600487 -0.5723206 -0.50539964 0.1835223
0000f0 d2 9c 08 3c 4f 3a 29 bb 7b 8e 2b 3f 70 96 38 3f
       0.00833817 -0.0025822108 0.6701428 0.7210455
000100 7d bf 0c 3f 0b 75 0b be 46 2a 44 be d6 c1 ca 3e
       0.5497969 -0.13618867 -0.19156751 0.3960101
000110 c1 50 50 3f 62 cb de 3e ac 16 2e bf d5 1f bd be
       0.8137322 0.43514544 -0.68003345 -0.36938348
000120 1d 9e 8a bf d9 ea c4 bd 02 af 1f bf ac fc d7 3e
       -1.0829502 -0.09615106 -0.62376416 0.4218496
000130 86 f7 83 be ba 11 9f 3c ee 12 00 bf 83 d1 66 be
       -0.25774783 0.019417632 -0.50028884 -0.2254086
000140 30 4d a7 3d c9 8a 8c be f7 1e 1e 3f b4 4d 1a 3f
       0.08169019 -0.27449635 0.61766 0.60274816
000150 04 2d 9d be 72 e0 57 3e 54 6b 96 be 9a 2c c0 3e
       -0.30698407 0.21081713 -0.2937876 0.37534028
000160 d9 d9 43 3e af 25 92 3e aa ab f9 bd 6c bd 09 bf
       0.19126071 0.28544375 -0.121909454 -0.5380466
000170 db 2b 0a 3f 64 8c 8b bf 9d e5 95 be 46 06 72 3d
       0.5397317 -1.0902219 -0.29276744 0.059088014
000180 2f ca e1 be 40 13 04 bf 66 d7 a5 3d fc db 20 bf
       -0.44099566 -0.51591873 0.080977246 -0.6283567
000190 cd 4a 91 3e 62 e3 11 bf 4e ad 16 bf cf 13 86 be
       0.2837738 -0.56987584 -0.5885819 -0.26186988
0001a0 8f 30 d7 bc 63 d1 8f 3e 00 ee 3c 3e 20 91 0b 3f
       -0.026268272 0.28089437 0.18450165 0.5451832
0001b0 15 d9 87 3e 9a 09 07 be e9 e2 69 be 20 63 b0 be
       0.26532808 -0.13187256 -0.22840466 -0.34450626
0001c0 fb e3 86 be 55 d5 9e be 89 d3 3c 3f 90 9e 27 3d
       -0.2634581 -0.31022134 0.7376028 0.0409227
0001d0 0f 41 1c bd 95 d5 c3 3e 96 4c f3 3e d5 52 b9 3c
       -0.038147982 0.38248888 0.47519368 0.022622505
0001e0 f9 15 bf 3e dc 4f bd 3d fa 7d e4 be 4d 26 86 bd
       0.3732145 0.092437476 -0.44627362 -0.06550274
0001f0 70 7f e5 be 55 50 f2 be ce 44 be 3d ec e6 a9 3e
       -0.4482379 -0.47326913 0.09290467 0.33183992
000200 84 53 80 3b 29 53 83 be 5b 9c 23 bf 36 9b 07 3f
       0.003916206 -0.25649384 -0.63910455 0.5297121
000210 cf 02 f2 be a5 39 b3 3c 27 0f cf 3d cd af c6 be
       -0.47267768 0.021878073 0.10110312 -0.38806
000220 10 a0 b9 3e a5 d0 1e ba 9d 12 14 bf a5 ef 16 be
       0.3625493 -0.0006058312 -0.578409 -0.14739855
000230 e7 18 0c be 62 3a 86 3e 89 fc 8d bd 04 c5 a5 be
       -0.13681374 0.26216418 -0.06932933 -0.32376873
000240 1f 5b ba be d2 7f 93 be 98 4b f1 3e 7e fd 9c be
       -0.36397645 -0.28808457 0.47127986 -0.3066215
000250 bd 3f 0c bf fd f5 ee bc 74 e7 0d bf b2 16 1c bf
       -0.54784757 -0.02917003 -0.55431294 -0.6097213
000260 e7 ac f6 3e 2b 80 bf be 56 98 43 bf 99 af fe be
       0.4817879 -0.37402472 -0.7640432 -0.49743345
000270 6b 22 37 bf 8a da 15 bf 89 45 37 bd 43 d4 0a bd
       -0.7153689 -0.5853659 -0.04474405 -0.033893835
000280 84 6b 1a be 75 5c 8c be 21 1d c4 be 0b cd d5 3e
       -0.15080076 -0.2741429 -0.38303474 0.41757998
000290 b8 5d ce be f6 8f 03 3d c5 00 e3 be 0f fb 2c bf
       -0.40305877 0.032119714 -0.44336525 -0.67570585
0002a0 1c 25 d9 3e 25 85 fb be b6 39 ce be 83 e7 75 bf
       0.42411125 -0.4912502 -0.40278405 -0.96056384
0002b0 39 1c 57 3d 78 8a 54 be 24 c0 ee 3e c6 a4 94 be
       0.05251715 -0.20755947 0.46630967 -0.29031962
0002c0 d4 2e bd 3d ff a9 b8 be ff e1 71 bf 07 5e ce bc
       0.092374474 -0.36067197 -0.9448547 -0.02519132
0002d0 8a 43 a8 be 35 6d 3e bb 8b d7 8b bd 3f 89 65 3e
       -0.32864028 -0.0029056792 -0.06828221 0.22415636
0002e0 ce 29 99 be f3 73 f2 be 1b 57 28 be 4e f3 d0 be
       -0.29914707 -0.47354087 -0.16439478 -0.40810627
0002f0 35 f9 36 3e cb af bf bd d2 d3 cb be cc 06 21 3f
       0.17868502 -0.09359702 -0.39810044 0.62900996
000300 36 65 64 be ba 97 5e bf 76 76 25 bf 06 d7 67 3d
       -0.22304234 -0.86950266 -0.6463388 0.056601547
000310 32 52 60 bf 04 3b 79 3e c5 1f a2 be 5f 25 05 3d
       -0.8762542 0.24338919 -0.31664863 0.032506343

weight f4 [200, 200]
000000 4e 42 9e 3c c0 32 2e bc 0a 8a d8 bc 3b b2 e9 bc
       0.019318726 -0.010632217 -0.02643301 -0.02852737
000010 d0 4d c5 3d 6c 9a 0d 3d e0 2a 30 bd 70 4c 33 bd
       0.09633982 0.034571096 -0.04300964 -0.04377407
000020 83 72 3c 3d f6 af 95 bd 59 cd 1e bd 00 11 39 be
       0.046007644 -0.073089525 -0.038770054 -0.18072891
000030 87 4b 26 be 37 76 a8 bd 0f 71 a3 bd d1 02 de 3b
       -0.16239749 -0.08225673 -0.079805486 0.006775238
000040 94 4e 56 3c 66 a4 1f bc 5b 65 6e bc e4 d2 f8 bd
       0.013080258 -0.0097437855 -0.014550532 -0.12149599
000050 4b 47 00 be 12 fb d7 bd fb 1c ec bd 42 8e d3 bc
       -0.12527196 -0.10545935 -0.11528965 -0.02582467
000060 d8 55 b0 bc e7 a5 a5 bd c3 f0 e6 bb a9 10 c1 bc
       -0.021525308 -0.08088284 -0.007047744 -0.023567514
000070 51 8e 4d bd 53 b7 74 3d e4 1b 71 bd 76 8c 9d bd
       -0.05018455 0.059745144 -0.05886449 -0.076928064
000080 1a 60 06 3d 87 0b a0 bd c2 07 df bd 0c a3 71 bd
       0.032806493 -0.07814699 -0.108901516 -0.058993384
000090 11 91 58 3c c0 d9 bc bd e5 68 12 3d 20 ee b6 bc
       0.01321818 -0.0922122 0.035744566 -0.022330344
0000a0 31 98 4f bc 7c ab 00 3e 6d 6e 8c bd 9b 6a 17 bc
       -0.012670563 0.12565416 -0.068569995 -0.009241725
0000b0 5d 55 12 3c a6 f0 24 38 af f6 a0 bd 78 a0 3b bc
       0.008931485 3.932477e-05 -0.07859551 -0.011451833
0000c0 e6 ca 23 3b b5 9d 97 3d 45 b6 0f be 93 4f 65 bd
       0.0024992763 0.07403127 -0.14034374 -0.05598409
0000d0 c4 ae 71 be 65 08 07 be 50 e1 3b bc 2c 40 02 3d
       -0.23601824 -0.13186796 -0.011467293 0.03179948
0000e0 fb e4 ec bd 62 55 5d be a9 f9 c8 bc 80 f7 36 bc
       -0.11567112 -0.21614602 -0.02453311 -0.011167407
0000f0 dd 21 0c be 4e 88 1c bd 72 6b 64 3c 49 2f cb bc
       -0.13684793 -0.038215928 0.013941633 -0.02480282
000100 8e d4 21 3c 7b aa 63 bd cf 57 22 be 8f 08 aa bd
       0.009877337 -0.055582505 -0.15853809 -0.08302414
000110 0f ef a7 bd e1 8b 56 3d 8b 6e e7 bc 1e 63 97 bd
       -0.08199894 0.052379493 -0.028250953 -0.07391952
000120 e5 6d 8d bd 35 41 03 3e 02 cd f0 b9 90 6f 36 bd
       -0.06905726 0.12817843 -0.0004592911 -0.044539988
000130 ee d6 9e bb a2 6b 52 bd 5f a3 b7 3b ec ec 7f bd
       -0.004847399 -0.051372178 0.005604192 -0.062481806
000140 e5 20 05 be d2 63 6b bd c9 59 46 bd 8d 9d 8d bd
       -0.1300083 -0.057468243 -0.04842547 -0.06914816
000150 3c c8 76 bd 77 4b 2c bd 4a 2d dc bc f0 a4 b7 bc
       -0.060249552 -0.042064156 -0.026877064 -0.022417516
000160 26 7d 18 bb c1 0b 26 3d 22 c4 d6 bd ad 85 85 bc
       -0.0023267954 0.040538553 -0.10486628 -0.016299093
000170 b8 50 41 3c e2 fc 58 be 62 dc ec 3c 3c e6 8a 3d
       0.01179903 -0.21190217 0.02891368 0.06782195
000180 aa f9 b7 3c 00 d3 3a bd 9e b5 3a bd 06 29 99 bd
       0.022457916 -0.04561138 -0.04558336 -0.07478528
000190 57 73 2d bd 5f fc a4 bd 35 75 8b bd a6 24 14 bd
       -0.042346325 -0.080559485 -0.06809465 -0.036167763
0001a0 11 6c 5a 3c ff 01 af bd 74 a1 74 bc a6 69 15 bc
       0.013331429 -0.085453026 -0.014931072 -0.009119427
0001b0 7d a6 05 be 1e e0 97 bd 2b bb 61 bd 10 1d 4a 3d
       -0.13051791 -0.07415794 -0.055110138 0.049344122
0001c0 4b 57 ee bd 3a 52 60 3c 64 b9 f6 bc ab c5 f2 3c
       -0.116377436 0.013691479 -0.030117698 0.029635271
0001d0 26 8b 9e bd bb 8d 6d bc a2 c7 64 3d 55 b4 01 be
       -0.07741384 -0.014499123 0.055854447 -0.12666447
0001e0 40 79 4a 3d e8 8b 3a bd 11 91 58 3d 70 9d b2 bb
       0.04943204 -0.04554358 0.05287272 -0.005450897
0001f0 1e 37 16 be 85 6f 07 be a5 91 86 bd da 0d 55 bc
       -0.14669463 -0.13226135 -0.06570748 -0.013003791
000200 c7 51 bf 3d 37 1d a2 bd b6 8f 91 bd 87 cd a1 bd
       0.0934177 -0.079157285 -0.07107489 -0.07900529
000210 c0 9f b5 bd cd ee 0d bb 8f 35 2f be 95 6f 9a 3d
       -0.088683605 -0.002165723 -0.17110275 0.07540814
000220 b0 fa 49 3d 7d d7 1a 3d b8 2f 3a bd 1c fd f5 bc
       0.04931134 0.037803162 -0.045455664 -0.030027919
000230 c8 26 c2 3c 22 81 5d bd 4c 69 84 3c be 19 11 3d
       0.023700133 -0.05407823 0.01616349 0.03542494
000240 a1 3e cd bc 31 e3 cf bc cd 3d 05 bd 22 ce 85 bd
       -0.025054278 -0.025376888 -0.03252964 -0.06533457
000250 55 ca 0e be 30 16 bb bc bf f2 3c 3d 85 62 05 bc
       -0.13944371 -0.022837728 0.04612994 -0.008141165
000260 86 ca 15 bd f8 f0 38 bb 5c 2e 73 bd a6 a8 8e bd
       -0.036570095 -0.00282198 -0.059370384 -0.06965761
000270 59 15 c1 bc d4 87 5f 3d 11 74 48 be eb 6a 65 bd
       -0.02356975 0.054572895 -0.19575526 -0.056010168
000280 f5 54 87 bd 59 eb 11 3d 1f e4 27 bd f4 09 87 3d
       -0.06608001 0.035624836 -0.040989038 0.06593695
000290 15 6c 8c bd 1f 09 26 bd 7e 0e 16 bd ce a0 1a be
       -0.068565525 -0.040536042 -0.036634915 -0.15100405
0002a0 79 3f 47 bd b0 85 b7 bd a0 5d b3 3b d5 cf 8b bd
       -0.048644517 -0.08961046 0.0054738075 -0.0682675
0002b0 3e 66 97 bd a0 5e 37 bd c0 e9 31 bc 3a 00 25 bd
       -0.07392548 -0.044767976 -0.010858953 -0.04028342
0002c0 9e 4e 10 bd a9 a6 da 3c 06 f7 98 bc 22 6f e0 3c
       -0.035231225 0.026690798 -0.018672477 0.027396742
0002d0 9e e3 42 3c 2f d4 2c bd 95 26 8a bc df d3 31 3e
       0.0118950885 -0.04219454 -0.0168641 0.17365979
0002e0 09 65 41 bd ee cd 93 bd a4 4f 78 bd 31 64 de bc
       -0.047215495 -0.07217012 -0.060622826 -0.027147384
0002f0 81 80 4e bc 9e 95 3f 3d 29 1d ce 3a 5f 1d ac bd
       -0.01260388 0.046773545 0.0015725243 -0.084040396
000300 80 e2 46 3d 06 02 13 be 7a 69 d9 bd 52 9d 26 bc
       0.04855585 -0.1435624 -0.10615821 -0.010169344
000310 6b 01 e8 bd 97 a0 2f bd 2d c0 8e bd 21 77 ce bd
       -0.113283955 -0.04287776 -0.06970248 -0.10081316
000320 25 d0 1f 3d b2 e8 dd 3c d9 68 4a bf 32 8b e6 3d
       0.03901686 0.027088497 -0.79066235 0.11257018
000330 f9 13 c8 3e 26 fa 98 3e 23 e6 7a 3e 95 b6 0a 3f
       0.39077738 0.29878348 0.24501853 0.5418485
000340 05 62 03 bf 7e 58 92 be 65 47 89 bf d5 7c 1d 3d
       -0.5132144 -0.2858314 -1.0724913 0.038449127
000350 8f 76 80 be ef 56 2b c0 3d 00 8f be d1 55 cc be
       -0.25090453 -2.677181 -0.2792987 -0.39909223
000360 35 da 08 bc c9 b9 cf be 06 1d 1b be 63 79 70 bd
       -0.008352806 -0.4057143 -0.1514779 -0.058709513
000370 2a df db bf d6 45 22 3f fd 49 8a 3e 55 1d 96 be
       -1.7177479 0.6338781 0.27009574 -0.29319254
000380 47 4a ba 3c ab e3 ed 3e 99 a5 c3 bf 05 91 10 3d
       0.022740496 0.4646276 -1.5284911 0.03529455
000390 c6 96 27 3f ac fa fe bd 98 ae b5 be 44 fa 73 3f
       0.65464437 -0.124501556 -0.35484767 0.9530375
0003a0 5f c5 29 bc 3b d7 67 bf 3e 63 24 bf f4 b5 7b bf
       -0.010361998 -0.9056279 -0.6421393 -0.98324513
0003b0 ec c2 80 bf 2d ac 89 3e 07 01 28 3e 96 c2 21 bf
       -1.0059485 0.26889172 0.16406642 -0.6318754
0003c0 66 96 19 3e ec a7 f8 be 8d 5c 83 bf d3 42 df 3c
       0.14998779 -0.48565614 -1.0262619 0.027253544
0003d0 27 8c bb bf 63 d5 e9 be 16 c6 96 bd bb 61 ec 3e
       -1.4652146 -0.45670614 -0.07362001 0.46168312
0003e0 96 29 15 be 24 c4 88 bf a7 d1 a5 be 4f 57 20 c0
       -0.14566645 -1.0684857 -0.32386515 -2.505329
0003f0 53 47 76 3e 26 ed 16 bf 2b 63 78 bf 1e 67 a7 3d
       0.24050646 -0.5895561 -0.9702632 0.08173965

bias f4 [200]
000000 f6 0f 9f bd d3 38 ee be 8c c6 8e be 19 06 59 bc
       -0.07766716 -0.46527728 -0.27885854 -0.013246083
000010 2d 85 83 bd 34 dc fe bb 1f 9c 5c bf f4 38 82 bf
       -0.06421886 -0.007777715 -0.8617572 -1.0173631
000020 09 33 c1 bc aa 1e 83 bf 1e 3b f8 3e a5 3b 8c be
       -0.023583906 -1.0243733 0.48482603 -0.27389255
000030 ab 1e 74 bf c0 da 71 3e 7a 3f 09 bf 83 46 80 bd
       -0.95359296 0.23618603 -0.5361248 -0.06263449
000040 93 7b 66 be 80 8f bf bd ca 6f d3 bd 98 d5 bb bd
       -0.22508077 -0.09353542 -0.103240564 -0.09171599
000050 11 ef 32 3d c5 50 09 be 00 d8 b5 bd 7c 7f ff bd
       0.043685023 -0.13409717 -0.08879089 -0.124754876
000060 59 33 80 bc 2d 30 0d be 5e 71 1e be 29 ba 44 bd
       -0.015649484 -0.13787909 -0.15472934 -0.0480291
000070 1c 82 ad be 1e 45 9c bd 84 2a 10 bf 0d 48 42 be
       -0.33888328 -0.076303706 -0.56314874 -0.18972798
000080 45 4a 08 be 46 b7 0b 3f b8 82 97 be 32 b8 d2 bd
       -0.13309582 0.5457653 -0.29591918 -0.10289039
000090 30 80 21 be aa 7b 65 be 06 7f 93 bd a7 87 58 be
       -0.15771556 -0.22410455 -0.07201962 -0.21145497
0000a0 88 8d b4 bd 09 17 4e bd 48 f6 c2 be d9 1c 26 bf
       -0.088160574 -0.050314937 -0.38078523 -0.6488777
0000b0 de 08 1f be 1a c4 d9 bd 51 24 ce bd d1 1b 45 bd
       -0.15530726 -0.106331065 -0.100655206 -0.04812223
0000c0 9d 9d 8d bc 20 26 dc be 75 07 09 3f 7e cb 83 bf
       -0.01728707 -0.42997837 0.53527004 -1.0296476
0000d0 df 0d 80 bc 07 be 72 3e b8 c5 ba bd bb 00 ac be
       -0.015631614 0.23705302 -0.09119743 -0.33594307
0000e0 14 e9 8e be 06 e9 92 bd 03 79 e8 be 1a 73 56 be
       -0.279122 -0.07173352 -0.45404825 -0.20942345
0000f0 1f 15 a4 bd 22 ad de bd 29 78 b2 bd 04 07 75 bd
       -0.08011841 -0.10872866 -0.08714325 -0.059821144
000100 a5 45 02 bc 2e be 1f be 17 6d a9 bd db 71 6e bd
       -0.007951175 -0.15599892 -0.0827276 -0.05821405
000110 a3 54 cf be 7f ce a8 be 9d 71 86 bd c6 36 e2 bc
       -0.4049426 -0.32970044 -0.06564639 -0.027614009
000120 0f 02 a9 be 91 a0 42 3d 2e 6c 1c bd 01 cb cc bd
       -0.33009383 0.04751641 -0.038189106 -0.099996574
000130 ae d5 1c be d0 88 37 bd 2d 6f 16 be 15 68 1a 3e
       -0.15315887 -0.04480821 -0.14690848 0.15078767
000140 be 9e 18 bd 78 60 b5 bd 07 d4 81 be 6c 80 1e 3f
       -0.037260763 -0.088562906 -0.25357077 0.61914706
000150 33 ea 91 be eb f5 16 3d c1 76 c0 bd cc 27 88 3e
       -0.28498992 0.03685562 -0.093976505 0.26592863
000160 08 1b f2 be 69 16 c9 be f9 bd 3f bf 7f f8 a1 bd
       -0.47286248 -0.3927491 -0.7489925 -0.07908725
000170 23 64 66 bd 8f 2c a4 bd af 36 a7 bd e5 6c d0 be
       -0.05624784 -0.080163114 -0.08164727 -0.4070808
000180 83 fd e7 bd c9 c8 c0 bd 31 9f 61 be e2 31 65 3a
       -0.113276504 -0.09413297 -0.22033383 0.000874309
000190 74 97 fe bd a7 5c 07 be 2a 3c d9 bd 75 53 9e 3d
       -0.12431231 -0.13218938 -0.106071785 0.07730762
0001a0 fd 68 e3 be a6 a9 1b bd 43 86 65 bd 8d ae 06 bd
       -0.44416037 -0.038003586 -0.056036245 -0.03288131
0001b0 23 6d d0 be 6f b8 21 bf 7c d4 f5 bc 28 88 1d bf
       -0.40708265 -0.6317205 -0.030008547 -0.6153588
0001c0 b1 bd d9 3b 37 f4 2c be da 5f 58 be ca 5f ae 3b
       0.0066449274 -0.16890036 -0.21130314 0.0053214775
0001d0 3f 74 bf be ac 67 71 bd 51 7b cc bd 8d 8f 87 bd
       -0.37393376 -0.05893676 -0.09984458 -0.06619177
0001e0 30 22 b9 bd 48 a6 33 bd ef 6e a7 bd 81 b8 24 bf
       -0.09039724 -0.04385975 -0.08175456 -0.6434403
0001f0 48 ec b8 bd 20 c8 b4 bd 18 37 d9 be c2 8e d5 bd
       -0.09029442 -0.08827233 -0.42424846 -0.104276195
000200 24 44 dc be 18 ab 24 bf 08 71 3f bd 8d 77 8c 3e
       -0.43020737 -0.6432357 -0.046738654 0.2743496
000210 55 9b 81 bd c1 25 15 be 57 1c ab be 78 6b 39 be
       -0.06328455 -0.14565183 -0.3342006 -0.18107402
000220 e3 bf 78 bf ac ea 70 bd 74 6f 8a be 1a f8 4f 3f
       -0.97167796 -0.05881755 -0.27038157 0.8123795
000230 3e 13 a6 be 09 e2 41 bd a7 e6 2e bd 6c 75 cd be
       -0.32436556 -0.047334705 -0.042700436 -0.40128648
000240 85 ef 53 be de 6f 18 bd c5 56 87 3e f1 da 2d be
       -0.20696838 -0.03721606 0.26433387 -0.16978051
000250 91 f6 dc be 97 db a1 bd 97 52 b3 be 32 95 5c bd
       -0.43156865 -0.079032116 -0.3502395 -0.05385322
000260 90 b5 18 bf c8 cc b7 bd ab ef 6b bd 4a d9 d0 bd
       -0.5965204 -0.08974606 -0.057601612 -0.101976946
000270 4e e4 95 bd 9c 08 d5 be 5b 2d ef bd 4e 60 e0 be
       -0.07318936 -0.4160813 -0.11678573 -0.43823475
000280 1d 46 43 bf b0 67 bc bd db e8 ef be 6e aa 37 bd
       -0.7627886 -0.09199464 -0.46857342 -0.04484027
000290 00 e0 bc bd 30 a3 30 be d5 a1 02 be 86 4d 95 bd
       -0.09222412 -0.17249751 -0.12757047 -0.07290177
0002a0 73 52 64 bd 06 e9 06 bf 96 1a 34 be 6f 80 8a 3d
       -0.055742692 -0.52699316 -0.17588267 0.06762778
0002b0 26 bd c7 be b8 a5 e2 3d 29 65 ce bd 7e 35 9c bd
       -0.39011496 0.110667646 -0.100778885 -0.0762739
0002c0 02 cd 30 3c cf f0 ae bc 44 3e f1 bd 3e 45 10 be
       0.010791065 -0.02135506 -0.11779454 -0.14088914
0002d0 0e 49 99 be 85 7a 01 be 7f 70 27 bf 61 2a 3c 3e
       -0.2993855 -0.12644394 -0.6540603 0.18375541
0002e0 e6 c2 9c bd 49 c9 4e be 97 78 25 bf 6b 5d e1 bd
       -0.076543614 -0.20193972 -0.6463713 -0.11004146
0002f0 52 0d e3 3d ad a1 6d bf 24 1c 1e be 2b 2c e4 bd
       0.11086525 -0.9282482 -0.15440422 -0.11141237
000300 ea 49 5e bd 1e 6f da 3c 0d 88 02 be 6d 92 bf 3e
       -0.05426971 0.026664313 -0.12747212 0.37416402
000310 5b 0b 9f be 50 a6 b0 be c9 27 60 bf c6 0c 9c bd
       -0.3106335 -0.34501886 -0.8756071 -0.07619624

weight f4 [1, 200]
000000 5a 50 65 bd bc 24 8b bf c7 26 a8 be 29 32 96 bd
       -0.055984832 -1.0870585 -0.32842085 -0.07333786
000010 35 c3 97 3c c6 f7 1b 3c 2b 17 14 bf 8e ab aa be
       0.0185257 0.009519523 -0.5784785 -0.3333401
000020 e5 d5 9d 3c c4 15 2c be a4 3a 3f 3d f5 bb 13 3f
       0.019267032 -0.16805178 0.046686783 0.57708675
000030 27 18 56 be e7 4e 4f 3e 74 36 81 be d5 4a 84 bb
       -0.20907651 0.20244943 -0.25236857 -0.004037241
000040 f0 9b 45 3d ee 17 90 3b 4f d5 24 3c 3e a9 90 3c
       0.048244417 0.004397384 0.010060622 0.017658826
000050 6c e3 d6 be 5e f1 11 3d d4 a2 86 bd d6 ba 9b ba
       -0.41970384 0.035630576 -0.06574026 -0.0011881243
000060 53 9e b0 be 69 d6 51 bc 83 23 ea bc 40 53 c8 3b
       -0.34495792 -0.012807467 -0.028581386 0.00611344
000070 52 50 36 3e e1 3b c2 bb 47 7c 01 bf 02 b7 b5 be
       0.17804077 -0.0059275483 -0.5058026 -0.35491186
000080 a6 7f a2 3c 69 10 dd 3d eb 1c 78 be 2e a7 a7 bc
       0.019836258 0.107941456 -0.24229781 -0.02046546
000090 63 a0 76 bf ff 86 32 3e 12 d6 59 3c fa 6d 2b 3e
       -0.9633848 0.1743431 0.013295667 0.16741171
0000a0 87 f3 3c bd 65 4b 99 bc 58 d0 bf 3e 27 e4 c0 3e
       -0.046130683 -0.018712709 0.3746364 0.37674066
0000b0 b8 6a e5 bd ab 27 eb 3b 86 89 24 bd 75 3d 8d bc
       -0.112019956 0.0071763596 -0.040170215 -0.017241219
0000c0 91 ef 26 be ee 50 0b 3f 73 03 71 3d 82 13 6f be
       -0.16302325 0.54420364 0.05884118 -0.23347285
0000d0 12 b5 6b bc 49 d9 84 be ec ca 87 3c d3 ea db be
       -0.014386432 -0.25947025 0.016576253 -0.42952594
0000e0 ec 4d 83 be e5 20 1e bc 0e e3 e3 3e bb aa a5 3e
       -0.25645387 -0.009651397 0.44509166 0.3235682
0000f0 10 ba b4 bc d0 29 b2 bc 9a 25 16 3f 8e 6c 11 bc
       -0.022061378 -0.021748453 0.58651125 -0.008875979
000100 66 7a a6 3b f9 a9 48 bc 26 f3 95 3c ce f6 14 bb
       0.005080509 -0.012247556 0.018304419 -0.0022730115
000110 56 a1 17 bf 4d 11 9b be d8 eb b0 3c d9 a9 ac be
       -0.59230554 -0.30286637 0.021596834 -0.33723333
000120 3a 33 e1 be 61 80 25 3e 8e 98 92 bc 65 8e 92 ba
       -0.43984395 0.16162254 -0.01789501 -0.0011181353
000130 c7 92 49 be 71 0c c6 3b f3 27 0a 3f bf 0a 91 3e
       -0.19684897 0.0060439636 0.5396721 0.2832851
000140 07 c2 a5 3c 0d f9 84 bc 39 00 3a 3f a5 07 3d 3d
       0.020234121 -0.016232038 0.7265659 0.04614987
000150 b7 9f 84 3e cb 68 ab be 66 a6 27 3a 81 44 33 bf
       0.25903103 -0.33478388 0.000639534 -0.70026404
000160 5f 55 8e 3e cb b2 48 3e a5 f7 4a be df 98 3f 3c
       0.27799508 0.19599454 -0.19821031 0.011694162
000170 e2 a8 e6 3e 0e 7a 2e bb 12 b1 42 3c a6 c1 8d be
       0.45050722 -0.0026623043 0.011883037 -0.27686805
000180 d4 f2 01 3d 98 10 c7 bd 61 80 dd be 1d 42 10 bd
       0.03172572 -0.09719962 -0.43262008 -0.0352193
000190 fc 92 82 bb 8d 78 08 3f d0 89 3b bc 73 0a f6 3d
       -0.003984807 0.53308946 -0.011446431 0.12013712
0001a0 34 b3 e7 3d f5 c8 95 bb 5a 33 d5 3c 9a 62 e3 39
       0.11313477 -0.004571075 0.026025463 0.00043370278
0001b0 49 ea f4 3e 7e 1a 2d 3d 1c cb 0e bd 43 00 01 3e
       0.47834995 0.042261593 -0.03486167 0.12597756
0001c0 5a 20 aa 3e af b9 a6 bc 6f 99 bb bf 1b 97 fb 3c
       0.33227807 -0.020352213 -1.4656199 0.030711701
0001d0 f4 28 9d 3e 60 29 43 bc 2e 20 98 bc b5 d6 81 bb
       0.30695307 -0.01191172 -0.018570032 -0.0039623627
0001e0 b7 5b a2 bc d2 42 e4 3a cc 4c 0f bd 70 f3 53 bf
       -0.019819124 0.0017414934 -0.03498535 -0.8279333
0001f0 e0 e8 ba 3c a9 a5 d6 b9 32 d7 28 3e ed 5c 91 bb
       0.022816122 -0.00040940687 0.1648834 -0.0044361264
000200 cb 4e e9 3d 42 79 a2 be 24 6b 82 bd e9 83 08 bf
       0.11391982 -0.31733137 -0.06368092 -0.5332628
000210 ee 82 93 3c 18 3d a4 3e 86 3d 20 bf e9 f9 29 bf
       0.018006768 0.3207786 -0.6259388 -0.6639696
000220 56 63 b2 be d9 c0 cc 3c 51 2f 4c bf 68 e9 91 3d
       -0.34841412 0.0249943 -0.797597 0.07124597
000230 61 40 0f 3f 9e 43 2f 3d 4c 8d 7e bc a9 50 96 3e
       0.5595761 0.042789094 -0.0155366175 0.29358414
000240 f5 77 43 3e 00 5b ce 3c 2b 90 23 3d 38 65 0b be
       0.19088729 0.025189877 0.03993241 -0.1361283
000250 30 1e 35 3e 1e f4 1c bb c5 69 e6 3e 44 ea 7e 3c
       0.17687297 -0.0023949216 0.4500257 0.015558783
000260 6f 0e 35 3f 44 9e 7a 3b 79 bb c3 3c e3 44 e6 bc
       0.7072515 0.0038241306 0.023893105 -0.02810902
000270 00 cf 4e 3e 98 05 bb bf fd 32 12 bd 45 35 d3 3e
       0.20196152 -1.4611082 -0.035693157 0.4125158
000280 ef 26 7d be 42 7e de bc 75 4e 9f bf a3 27 5e 3e
       -0.24721883 -0.027159814 -1.2445818 0.21694808
000290 3d 93 9c 3c ae e5 a7 3e 73 59 e7 3c ec 93 8c bc
       0.019113177 0.3279242 0.028240895 -0.017160378
0002a0 a8 de c0 bc a9 18 50 3e bc 26 b1 be b3 c9 f4 3e
       -0.02354367 0.20321907 -0.34599864 0.47810134
0002b0 d6 06 28 3e 42 f7 db be c7 a2 be bd ee 6f 2b 3c
       0.16408858 -0.4296208 -0.09308391 0.010463698
0002c0 40 b3 1e bf 33 e8 e3 bc a2 d1 da 3b 35 08 19 3e
       -0.61992264 -0.027820682 0.006677822 0.14944537
0002d0 09 c7 d2 be 6a 37 df 3c 7d b9 9f be 3e 7d 68 3d
       -0.41167477 0.027248103 -0.31196204 0.056760065
0002e0 36 8b 98 3c c2 8c f2 be 61 b0 d2 be bd 41 9b bc
       0.018621068 -0.47373015 -0.4115019 -0.018952245
0002f0 6a 63 c2 3e c7 43 d6 be 07 65 cf be 17 e9 be 3b
       0.37966472 -0.41848585 -0.40506765 0.0058261263
000300 ee f4 99 bc 5c 1f 6f 3e bd 39 14 bf dc 68 18 3f
       -0.01879355 0.23351806 -0.579006 0.59535
000310 f5 36 23 3e 24 ea 8a 3e 2e 72 61 be 99 1a f5 3d
       0.15938933 0.2713176 -0.22016212 0.11967964

weight f4 [200, 15]
000000 1d 8e 58 be ff e0 92 be d8 94 3d 3f 7a 25 19 3f
       -0.21147962 -0.28687283 0.7405524 0.5982281
000010 76 18 99 be f4 9f 55 3d e6 94 62 be 11 dc 3e 3e
       -0.29901475 0.052154496 -0.22127113 0.18638636
000020 2b b2 a7 bd 38 12 63 3f 42 94 09 3f cb 6d bc bc
       -0.0818828 0.88699675 0.5374185 -0.023001572
000030 e2 0f e9 bd 69 43 54 be 27 17 e4 3e 5e a1 bd 3e
       -0.113799825 -0.2072884 0.44548914 0.37037176
000040 54 a7 da 3e 30 fe 81 bd fd eb 51 bf 1c b3 ec be
       0.42705786 -0.063473105 -0.82000715 -0.462304
000050 1e ae 11 bf 73 10 a8 be 04 99 14 3f 1e 67 53 bf
       -0.56906307 -0.3282505 0.58045983 -0.8257922
000060 50 0a 29 3f 46 14 08 3f 4f 2a 9a be 77 f6 3a be
       0.6603136 0.53155935 -0.30110404 -0.18258081
000070 18 de 4b bd 10 89 e3 3e 35 37 86 bd 2e 75 53 be
       -0.049772352 0.44440508 -0.06553499 -0.20650169
000080 ab 7d ca bd fa 03 9c bc 9e db f5 be 98 ae 92 be
       -0.098872505 -0.019044865 -0.48019117 -0.2864883
000090 44 ef 2b 3f fc dc 71 bf 0b 4b 10 bf e3 ce 2a bf
       0.67161965 -0.9447782 -0.56364506 -0.66721934
0000a0 ff 75 4a bf 4e 96 de be dd d3 46 bf 8c 42 39 bf
       -0.790863 -0.43474048 -0.7766703 -0.7236717
0000b0 cb 8f 32 be 64 5d 86 3e 9e 7d ef be 20 73 aa 3e
       -0.17437665 0.26243126 -0.46775526 0.33290958
0000c0 ba ae 54 bf 8e a1 fd be 71 60 23 bf 9c 14 be bf
       -0.8307911 -0.4953732 -0.6381903 -1.485004
0000d0 86 51 87 bf 99 61 30 3f f7 07 cc bb cb 97 cc be
       -1.0571754 0.6889892 -0.0062265354 -0.3995956
0000e0 94 28 3d bf f8 d1 42 bf d6 0b 74 bf 30 24 94 3f
       -0.7389004 -0.76101637 -0.9533056 1.1573544
0000f0 4b f0 a3 3d b3 9b 98 3d 56 ac ea bd 82 dd 94 3d
       0.080048166 0.07451572 -0.11458652 0.07268812
000100 0e d9 5d bf be d4 fa bf b9 00 99 bf 55 fa 8a 3f
       -0.86659324 -1.9596174 -1.1953346 1.0857645
000110 c2 e8 de 3e e5 03 73 3e 97 c9 7d 3f 5c ef c5 be
       0.43536955 0.23731954 0.99135727 -0.3865918
000120 f5 f9 99 be 8e 1e 39 3e 30 77 91 3e 7c 4d 56 be
       -0.30073515 0.18078062 0.28411245 -0.20927995
000130 10 04 94 bf 47 5c 9b 3d 3d 48 c5 3e ee 4d d3 be
       -1.156374 0.0758596 0.38531676 -0.41270393
000140 6f 74 a2 be 7f 24 54 bf 84 d8 98 3f 26 ea a4 bd
       -0.31729457 -0.8286819 1.1941075 -0.08052473
000150 e3 b6 94 bf 97 e4 83 bf ba b7 84 bd ad aa 00 3e
       -1.1618313 -1.0304135 -0.064803556 0.12565108
000160 30 ca 09 bf 02 fa 70 3e 25 b2 62 3f 16 1e 3e bc
       -0.5382414 0.2353287 0.88553077 -0.011603853
000170 ab c3 00 bf 6d ee 3b bf b2 15 8c bf e7 8e 0d c0
       -0.50298566 -0.73410684 -1.0944121 -2.211847
000180 b4 0f 79 bf 09 b6 21 3f 38 ae 0b 3e 5b 46 15 3f
       -0.97289586 0.6316839 0.13640678 0.5831048
000190 07 ca a9 be 12 f7 96 bf c0 5e 95 bf 40 c2 74 bf
       -0.33161947 -1.179415 -1.166954 -0.956089
0001a0 12 e5 2d 3e 5e 2b 52 3f e3 21 41 bf 2d c6 0b be
       0.16981915 0.82097423 -0.7544233 -0.13649817
0001b0 41 ad 3b bf b3 b4 49 be 48 4a 1c 3f ea 8d fe 3e
       -0.7331124 -0.19697838 0.61050844 0.49717647
0001c0 0a d3 25 bf 1a 95 02 be da 14 a5 3d 4e 31 61 bf
       -0.64775145 -0.1275219 0.08060618 -0.8796586
0001d0 1f 51 25 bf 66 db 33 bf 39 2f 2f bf 3b 9a 87 be
       -0.64576906 -0.7025665 -0.6843143 -0.26484856
0001e0 1b 30 9a 3f 39 8f b6 bf 8c 03 06 be 30 99 09 bf
       1.2045931 -1.4262458 -0.1308729 -0.5374937
0001f0 8e 29 8e bc f7 05 2b bf 04 25 f2 be 85 6c c7 bf
       -0.0173538 -0.66805977 -0.47293866 -1.5579993
000200 5f d5 8f be 10 09 8f be 82 0e 5a be c0 54 c1 3d
       -0.28092477 -0.27936602 -0.21294597 0.09439993
000210 32 0e 11 bf 01 94 1a 3e 6d 6a b0 be 94 26 04 bf
       -0.56662285 0.15095522 -0.34456196 -0.51621366
000220 e9 08 a2 be 55 3f 8e 3e 17 81 94 3f 7d 01 9f 3c
       -0.31647423 0.27782694 1.1601895 0.01940989
000230 29 5c 20 3b d1 bb 5a bd 42 f1 6d 3e 4c 54 53 3f
       0.0024468994 -0.053401772 0.23236564 0.825505
000240 a0 b0 37 c0 a2 42 94 be c0 1d 19 bf 0b 96 94 be
       -2.8701553 -0.28957087 -0.5981102 -0.29020724
000250 4e 58 0e 3f 54 5c af 3f c5 c9 1e 3e 72 97 39 3f
       0.5560349 1.3700051 0.15506656 0.7249671
000260 e3 69 2e 3f 2b a8 7b 3e 5e 9a 4f bf e1 20 12 bf
       0.6813032 0.2457587 -0.8109492 -0.5708142
000270 a4 6f fc be 29 19 41 3f 81 0a cb 3e 4d 91 e5 3e
       -0.49303925 0.75429016 0.3965645 0.44837418
000280 97 02 14 bf bf a2 ac be 98 d1 b2 be 22 e7 12 be
       -0.5781645 -0.33717915 -0.34925532 -0.14345983
000290 60 0f 78 bd e4 1e 15 3e 5b 25 6c bd 0c 2d 70 3e
       -0.060561538 0.14562565 -0.057652812 0.23454684
0002a0 26 33 2f 3f ea 4b 05 3f 90 e1 b4 3e f7 50 e9 3e
       0.6843742 0.5206896 0.3532834 0.45569584
0002b0 32 73 8d be 0d 2f b3 3e 3a e9 44 c0 1f 76 04 3f
       -0.2762695 0.34996834 -3.076735 0.5174274
0002c0 fe 56 bc 3e 65 9e 5b bd b1 db 8b bf f6 ac ca 3e
       0.3678512 -0.053617854 -1.092642 0.39585084
0002d0 e2 70 bb 3e 75 86 05 3f ee 65 84 3d 44 5c 9d be
       0.3660956 0.5215829 0.06464754 -0.30734456
0002e0 2e 53 24 3f 20 ff 15 3f 7c 6c 19 bf 8b 19 63 bf
       0.6418942 0.58592415 -0.5993116 -0.8871085
0002f0 6f 58 3e bf d0 93 bc be 24 e7 43 bf c6 ca fd 3e
       -0.7435369 -0.36831522 -0.7652457 0.49568766
000300 56 be 15 3f c3 a6 4e 3e f5 9c 28 bf fe 02 1e 3b
       0.58493555 0.20180802 -0.658645 0.002411067
000310 51 15 04 bb ce b4 e3 bf a5 41 8a bc 70 64 83 3f
       -0.0020154307 -1.7789552 -0.016877005 1.0265026
000320 66 1f 8e 3f 65 62 db 3e 3a 9b f2 3e 68 b4 96 bf
       1.1103332 0.42848507 0.47384053 -1.1773806
000330 a4 b5 7f 3d 43 01 73 be 04 78 18 3e 62 87 78 3d
       0.062429085 -0.2373095 0.14889532 0.060675986
000340 48 21 0c 3d f5 58 fb bd bc 9d 72 3e 2c ea f1 3e
       0.034211427 -0.122728266 0.23692983 0.4724897
000350 09 10 39 3e cb 1c 3e bf b8 e0 6a 3f f7 36 37 3f
       0.18072523 -0.74262685 0.91749144 0.71568245
000360 20 8a 1f 3f 2a 23 85 bf cb c5 82 bd 31 9f 27 3f
       0.6232014 -1.0401356 -0.06385382 0.6547728
000370 82 8e 9d bf 50 e0 33 c0 a8 f5 84 be 9c 9d eb bf
       -1.2309115 -2.810566 -0.2596867 -1.8407474
000380 ed 20 18 bf 3b 5c d7 bb a9 51 47 ba cb f9 ac bf
       -0.5942524 -0.006572274 -0.0007603416 -1.3513731
000390 5c 54 9a bd 4b 2f 9a 3f 32 4a 78 3f 3f 30 30 3f
       -0.075356215 1.2045683 0.96988213 0.6882362
0003a0 1b e7 34 3c 67 f9 8b bf f9 ad e6 3c 4d 8b 65 3f
       0.011041428 -1.0935487 0.028159129 0.8966568
0003b0 18 18 64 3d eb 60 e0 bc e3 d6 38 bd b9 73 61 bc
       0.05568704 -0.027389964 -0.045126807 -0.013760501
0003c0 45 84 c5 3e 47 fb 32 bf 57 85 05 3f 3e 92 95 be
       0.38577476 -0.6991467 0.52156585 -0.29213136
0003d0 5e 2c 85 3e 07 c1 7e be 70 75 56 3e 69 37 f4 be
       0.26010412 -0.24878322 0.20943236 -0.47698525
0003e0 5a e0 99 3e ce fc a4 3e 07 4a c3 bd 52 73 41 3f
       0.3005398 0.32224125 -0.09535604 0.7556659
0003f0 8b db 6f be f3 9e 19 bf cc 3d 30 bf 0e 26 90 3f
       -0.23423593 -0.6000816 -0.68844295 1.1261613

bias f4 [200]
000000 93 be c6 be a3 d6 8c be d7 5f 95 bd 14 19 3b bd
       -0.38817272 -0.27507505 -0.072936706 -0.045678213
000010 df dd 80 bf f6 4f 3e bc 11 f8 9a be 93 cd 66 be
       -1.006771 -0.011615744 -0.30267385 -0.22539358
000020 95 13 6c 3e 01 9d 80 3c 6e 0d 05 bf 46 ac bf be
       0.23054345 0.015699865 -0.5197362 -0.37436122
000030 b8 1f 43 3e 38 71 1c 3f fe e6 8f 3d ba 62 02 3e
       0.19055068 0.6111026 0.0702648 0.12732974
000040 26 0c 80 bf 7c e5 8c be 56 69 54 bd 65 f0 7c 3e
       -1.0003707 -0.27518833 -0.05185827 0.24701078
000050 10 5e c8 3e d9 55 3e bf 4a 13 41 bf 4d 0d 8b be
       0.39134264 -0.74349743 -0.7542006 -0.27158585
000060 f1 0d a3 3d 11 df 4b be a8 62 0f be 0c 05 a6 3e
       0.079616435 -0.19909312 -0.14002478 0.32425725
000070 c4 82 3a be c9 6f c0 be 96 09 cd be a0 5e 94 3e
       -0.18213946 -0.37585285 -0.40046376 0.28978443
000080 62 a6 17 3f 33 e6 87 3d e4 90 88 bd 60 b0 39 be
       0.59238255 0.06635704 -0.06668261 -0.18133688
000090 af d4 90 3e d2 95 42 bf 71 5d 18 bf 3d 1f a3 3e
       0.28287265 -0.7600986 -0.5951758 0.3185977
0000a0 de ce 0d bf ec bf 53 bd c7 6e 28 bd fd e5 63 bf
       -0.5539378 -0.051696703 -0.04112127 -0.8902281
0000b0 76 00 28 be 31 55 26 3f f3 7e ba bd be 1f 7a 3e
       -0.16406426 0.6497374 -0.09106245 0.24426171
0000c0 95 ad d2 bd ad 27 75 3e ba 7e 89 bc 06 ac 48 bf
       -0.102870144 0.23940916 -0.01678406 -0.78387487
0000d0 07 4b c3 3e 52 87 de be ba 37 71 3e fa 19 33 be
       0.3814318 -0.43462616 0.23556414 -0.17490378
0000e0 9c a0 37 bf 9a 9f 21 3f 07 70 ef 3b 84 05 26 be
       -0.71729445 0.6313416 0.007307056 -0.16213042
0000f0 6c 40 e7 be 35 da 8f be 74 fe 69 3e c4 25 cc 3e
       -0.45166337 -0.28096166 0.22850972 0.39872563
000100 a9 23 18 3f 66 9d 67 bf db 4f a6 be fb 38 61 bf
       0.59429413 -0.90474546 -0.324828 -0.8797757
000110 ac d4 a7 3e bf c9 4e 3e 64 41 ac bc cc 6b e8 3d
       0.32779443 0.20194148 -0.021027274 0.113486856
000120 b2 e6 69 3e 5d 94 05 3e 5e 80 7f be 36 39 98 3e
       0.2284191 0.13044877 -0.24951312 0.29731148
000130 bc 9f 04 3e 8a 8f db 3e 04 4a a4 3e da 4f b0 be
       0.12951559 0.4288295 0.3208772 -0.34435922
000140 7e fc ef be e8 c6 70 be c8 0c a8 3e 18 44 a1 be
       -0.46872324 -0.23513377 0.3282225 -0.31497264
000150 9f 6d 03 bf 1f 95 31 be 88 30 cb 3e 13 69 03 3e
       -0.51339144 -0.17342041 0.39685464 0.12833051
000160 95 3c 02 3e c3 df 12 3e 69 9a ad be 86 e1 05 bf
       0.12718423 0.14343171 -0.33906868 -0.52297246
000170 58 75 c1 3e b9 73 66 be 62 aa ea be 64 44 6e 3e
       0.3778484 -0.22505082 -0.45833117 0.23268276
000180 99 09 0b bd 6f 52 10 3a 79 77 0b be 91 3f 57 bd
       -0.0339447 0.00055054476 -0.13619794 -0.052550856
000190 0e a6 a6 3e fb ee 9a bd e7 a5 8c be f6 6c 36 3e
       0.32548565 -0.07565113 -0.27470323 0.17815003
0001a0 26 7a 67 be a8 f2 d6 be 82 bf c7 bd 50 e7 08 bf
       -0.2260519 -0.41982007 -0.09753324 -0.53477955
0001b0 1e ea ef be 1b c7 4c 3d c5 0a 92 be 13 fc 9d 3e
       -0.46858305 0.04999457 -0.28523842 0.3085638
0001c0 b5 41 0f be d9 ba 9c bd 0a 18 bf be 19 dc 82 3d
       -0.13989909 -0.07652826 -0.37323028 0.063896365
0001d0 a8 27 9f 3e b3 87 91 be df 1a b6 3e ce c3 3a bf
       0.31084943 -0.28423843 0.35567376 -0.72955024
0001e0 b5 6e bd 3b c8 3d 0b bc 69 7b 02 3d 32 d9 1d bf
       0.0057810196 -0.0084986165 0.031855974 -0.6165954
0001f0 0c 5b 2b be 56 c3 93 be 34 b4 76 3e 68 27 b6 3e
       -0.1673395 -0.28859967 0.2409218 0.3557694
000200 e5 2b d4 3e 35 2d 16 3f f1 0a c0 be f4 2b 45 bf
       0.4143974 0.5866273 -0.37508348 -0.7702019
000210 ff d2 af 3e 01 ab 50 3e 15 61 95 3e b4 85 97 be
       0.34340665 0.20377733 0.2917563 -0.29594195
000220 c4 e3 07 bf ec 0d 5b 3e be 75 f2 bd 9c 96 4a 3d
       -0.5308192 0.2139203 -0.11838864 0.04946004
000230 fe 79 81 3e 6d 53 84 be 42 3b fd be 04 26 84 be
       0.25288385 -0.258449 -0.49459273 -0.25810254
000240 cb af 6c be c7 b7 62 3e 85 63 72 3e a8 5b 7c be
       -0.23113935 0.22140418 0.23670776 -0.24644339
000250 35 18 1c 3c 5c 9f 5f be 26 41 af be b3 fd 63 3d
       0.009527256 -0.21838135 -0.34229392 0.05566187
000260 81 63 34 bf ca 49 9a bd 61 be f2 3e 85 91 2f be
       -0.7046433 -0.075336054 0.47410873 -0.17145355
000270 ff ff d8 be d2 67 28 be d4 b6 71 3e ea d4 5a bf
       -0.4238281 -0.16445854 0.236049 -0.8548113
000280 d3 0c 86 3f 17 65 53 3d 68 75 59 3f d6 c7 19 bf
       1.0472664 0.05161008 0.8494477 -0.6007055
000290 6b e7 fc be d6 37 b3 3e af 19 da be 5d e4 53 be
       -0.49395308 0.35003537 -0.4259772 -0.20692582
0002a0 c8 3d 39 be 03 4f 69 be cb 40 dd 3e 76 7c 6d bd
       -0.18089974 -0.22784047 0.43213496 -0.057980023
0002b0 9c 23 02 3e 00 83 d2 3e 44 c6 08 bf 55 32 91 bd
       0.12708896 0.4111557 -0.5342753 -0.07089678
0002c0 ad 46 e9 3b d3 10 a4 3e 05 9c a6 be fa 51 00 3f
       0.007119021 0.32044086 -0.32540908 0.50125086
0002d0 40 3e be 3d c3 8b b5 be 25 10 8d be 90 9a 6e be
       0.09289217 -0.35458192 -0.2755138 -0.23301148
0002e0 e2 d2 5f be cf 70 f5 be 3b 80 7d be 7f 42 91 ba
       -0.21857789 -0.4793763 -0.24755947 -0.001108244
0002f0 04 19 4b bf 85 9a 40 3e 60 c9 09 bf 9e 6f 16 bf
       -0.79335046 0.18808945 -0.538229 -0.58764064
000300 ee 78 de be ea 7c 09 bf 20 c9 ab 3c 4e 44 3f 3d
       -0.43451637 -0.5370623 0.020969927 0.046696
000310 3d ff b5 be bb 06 11 bf 22 95 ab 3e de 2b bb 3e
       -0.35546294 -0.56650895 0.33512217 0.36556906

weight f4 [200, 200]
000000 5a ab da bc 6a 6e 5a bd 1c de 79 3d 11 66 42 bd
       -0.026693035 -0.053327955 0.061002836 -0.04746062
000010 a5 1d 10 bd fc fb 89 3d 04 15 5e 3d c3 93 69 bd
       -0.03518452 0.06737515 0.05421926 -0.057025682
000020 94 41 78 bb e5 23 91 3c 0e 59 a7 3c 03 47 c4 3c
       -0.0037880884 0.017717311 0.020428207 0.023959642
000030 c2 ec d6 bc 8e 5c 1c bd 74 41 04 3d dc 6c 0c 3d
       -0.026235942 -0.038174205 0.032288983 0.034283504
000040 b5 26 6a bd e8 4b 1a bd a4 d0 d9 bc 52 3f ef 3c
       -0.05716582 -0.037670046 -0.026588745 0.029204998
000050 b2 86 d4 bb b8 9e 0d bd 6d 3b 08 bd 7b a8 76 3d
       -0.0064857835 -0.034575194 -0.033259798 0.06021927
000060 f4 a2 7a bd 5f 6d 0d 3d 1f e3 23 bd d1 07 40 bd
       -0.06119056 0.034528133 -0.04001152 -0.046882454
000070 56 d4 57 3d e5 6e ec 3c 2f a2 43 3d 45 95 88 bd
       0.052692734 0.028861472 0.047762092 -0.06669096
000080 ea 91 53 bd 3e 75 21 3d 26 68 28 3d 17 36 7f 3d
       -0.051652826 0.03941845 0.04111495 0.062307443
000090 ce b8 96 bc 69 df 5b 3d 3c 29 3f bc 20 b7 3b bd
       -0.018398669 0.053679857 -0.011667546 -0.04582894
0000a0 12 47 66 3d 7f d6 af bd cd 99 0f bd 74 ba 0d 3d
       0.05622012 -0.08585834 -0.035058785 0.034601644
0000b0 7c 43 af 3b 58 ef be bd f8 52 ca 3b a0 fb ba bd
       0.005348621 -0.09322995 0.0061744414 -0.09130025
0000c0 96 f9 29 bc 24 a0 f5 bc 92 50 50 bc 8f 0c a1 3c
       -0.010374447 -0.029983588 -0.012714522 0.019659309
0000d0 22 fa e6 3c b9 d5 00 39 4a cb ca bb 24 32 59 3d
       0.028195444 0.00012286649 -0.0061887847 0.053026333
0000e0 99 66 c1 bd d1 78 c2 bd 48 3e df 3c 37 de c7 bc
       -0.09443397 -0.094957 0.027251378 -0.024397952
0000f0 4d 0f a0 bc e6 0e 28 3d 2d d2 dd bc 38 23 3a bd
       -0.019538546 0.041029833 -0.027077759 -0.045443743
000100 6e 72 9c bd fa 1b 40 bd b8 73 37 bd 65 33 1d 3c
       -0.07639013 -0.04690168 -0.044788092 0.009594773
000110 c4 b5 8d 3c 98 e8 3c bd 79 8d 04 3d f9 95 5c 3d
       0.017298587 -0.046120256 0.03236148 0.053853963
000120 20 c9 b8 bd bd ea 3d bd c9 38 28 bb 74 9c 79 bd
       -0.090227365 -0.046366442 -0.0025668612 -0.06094022
000130 0f 61 ae bc 7f c9 ad bd 1a 6b 53 bd 37 9a 22 bd
       -0.021286516 -0.08485698 -0.051615812 -0.039697852
000140 9f 3b 28 bd c7 11 a0 bd f6 d3 28 3d dd 25 83 bb
       -0.041072484 -0.07815891 0.041217767 -0.0040023164
000150 9a 1d 36 3c 12 f5 58 bd 77 2c ad bd 52 9e 5b bd
       0.011115456 -0.052968092 -0.084557466 -0.053617783
000160 64 fd 73 bd 81 d8 50 3d 6b 2a a2 bc be 2f 48 bd
       -0.059567824 0.050987724 -0.019795617 -0.048873655
000170 1f 53 a2 bd ce d7 15 bd 34 58 7a 3a 98 cc b0 bd
       -0.0792601 -0.03658276 0.00095498865 -0.08632773
000180 e2 33 ed 3c 55 47 8f bd 1f 23 aa bd 36 80 9e bc
       0.028955404 -0.069960274 -0.0830748 -0.019348245
000190 95 14 0c bc 23 c0 67 3d af c5 bd 3c df e8 a1 bd
       -0.008549829 0.05657972 0.023165552 -0.07905745
0001a0 d5 a4 8e 3c 94 1f 0f bd 2b 86 ee bc c2 97 80 39
       0.017412582 -0.034942225 -0.02911671 0.0002452713
0001b0 5a 26 53 bd 40 dd ca 3b c9 af 47 bd 34 50 8d 3c
       -0.051550247 0.006190926 -0.048751626 0.017250158
0001c0 2f 93 d8 3b be 2c ab 3c 01 5c d2 3c fd 11 8b bd
       0.0066093425 0.020895358 0.025678637 -0.0679054
0001d0 f9 18 88 bc 1a 73 16 3d f8 23 bd bc df a4 24 bd
       -0.01661347 0.036730863 -0.02308844 -0.040196296
0001e0 74 c7 76 bd 5a 45 0a bd 75 a5 04 bd ad e6 8b 3a
       -0.060248807 -0.033757545 -0.032384355 0.0010673605
0001f0 27 27 37 3d d8 67 c6 3c e9 5d ca bd 1c ba 7c bd
       0.044715073 0.024219438 -0.09881193 -0.061700925
000200 2e cc 25 3c 2b 8c 6d bc 3c 60 5a 3d 43 b4 6e bd
       0.010119481 -0.014498751 0.053314433 -0.05827738
000210 2f 40 34 3c f6 d6 9b bd 1e 0a aa 3c 50 5f 8c bd
       0.011001631 -0.0760936 0.020756777 -0.06854117
000220 fb 71 62 bc 90 bc be bd 67 a8 af bd 05 fb 8f bc
       -0.01382112 -0.09313309 -0.08577042 -0.01757575
000230 0f c7 b6 3a 02 25 57 bd 5e 5c 2d bd ff 97 2f bd
       0.0013944822 -0.052525528 -0.042324416 -0.042869564
000240 c9 b0 8c 3c e5 a3 84 bd bb 33 72 bd 0b e4 7b 3c
       0.017174141 -0.06476573 -0.059131365 0.015374194
000250 61 b8 40 bd a3 af e8 bb 93 90 b1 bc 04 7e 8f 3c
       -0.047050837 -0.0071010157 -0.021675384 0.017516144
000260 0c 11 81 3a 74 a8 89 bc b2 45 d5 ba 6a 37 8a bb
       0.0009846999 -0.016803958 -0.0016271381 -0.0042180317
000270 ca ec 0f bd ee 26 5e bd 67 ea bd 3c 17 fa 37 3c
       -0.03513793 -0.054236345 0.02318306 0.01122906
000280 95 3f 89 bd 19 03 49 bd 29 6a c9 bc 06 8e 9d bc
       -0.067015804 -0.04907522 -0.024586754 -0.019232761
000290 14 50 b0 bc 93 ed 6c bc 02 89 d7 bd ea 8e 81 3b
       -0.02152256 -0.014460939 -0.10524179 0.0039538043
0002a0 46 5a 75 3d d7 2a 59 3d dd 0c 03 bc e2 dc 55 bd
       0.059900545 0.05301937 -0.007998672 -0.052212603
0002b0 30 7e b2 bd 4d 62 81 bc 78 0c 43 3d b5 0a de 3c
       -0.087154746 -0.015793944 0.047619313 0.027104715
0002c0 33 a9 e1 bd 24 ab 08 3d ea 81 62 bd 22 6c 54 bd
       -0.110186 0.033366337 -0.055299677 -0.051860936
0002d0 c4 00 33 3d dd 16 10 3d dd ce a5 bc 58 82 33 bd
       0.043701902 0.035178054 -0.020240242 -0.043825477
0002e0 ac 21 5c bd f5 6f 8f bd 2e dd 1e bc f3 77 64 bc
       -0.05374305 -0.07003776 -0.009696288 -0.013944614
0002f0 df d2 c1 3c e5 6c 09 bd 53 9b e8 bc 6a 79 5d 3c
       0.023660121 -0.033551116 -0.028394377 0.013517717
000300 05 04 82 bd e5 b6 1e 3d ea 8f ac bc 8b 31 43 bd
       -0.06348423 0.03874864 -0.021064717 -0.04765467
000310 6e 9a 1a bc 57 e3 a7 bd 68 8a 4d 3a 2d 5b 8a bc
       -0.009436233 -0.081976585 0.00078407535 -0.01688918
000320 f8 d7 24 3e f8 63 da 3c b6 a9 53 3d c8 80 7b 3e
       0.1609801 0.026658997 0.05167552 0.24560845
000330 e1 19 da bf 92 52 1c 3d c6 e1 a7 be 79 9a 68 bf
       -1.7039148 0.038164683 -0.3278944 -0.90860707
000340 80 15 f8 be 49 13 ae 3f 08 41 92 bf 66 5f ac bd
       -0.48453903 1.3599635 -1.1426096 -0.08416633
000350 41 e2 54 c0 ea a6 09 3f 77 5e 1b bf b3 00 6d bd
       -3.3263094 0.53770316 -0.60691017 -0.057861995
000360 9a db 32 3f 21 d9 c3 bd bf 0d 1b bf 9b 41 75 3e
       0.69866335 -0.095628984 -0.6056785 0.23950808
000370 0b f2 c0 bf 1f 7a 28 bd 2f 09 d4 bf 35 6a 2c bd
       -1.5073866 -0.04113209 -1.6565303 -0.042093474
000380 cb d1 be bf 4f 7f 34 bb 56 1a 23 3e b4 6e 30 bf
       -1.4907774 -0.0027541702 0.15928015 -0.6891892
000390 b5 a3 16 3d f1 e8 95 be 6a 1e c3 bf a6 f9 16 c0
       0.036777217 -0.29279283 -1.5243657 -2.3589873
0003a0 f5 29 46 bf 83 39 87 3e 9a 8e a5 3f bb aa 8f bd
       -0.7740777 0.26411065 1.2934144 -0.07014986
0003b0 2c cd 2f c0 b6 1c 20 c0 88 8a 97 be 25 06 ec be
       -2.7468977 -2.5017524 -0.29597878 -0.46098438
0003c0 50 68 b2 c0 9a b0 a4 bf 62 57 e5 3e 82 06 5a bf
       -5.5752335 -1.2866395 0.4479323 -0.8516618
0003d0 57 a5 a7 bc 81 2d 57 bf 36 32 12 3e 6b df 06 c0
       -0.020464582 -0.8405381 0.14276966 -2.1073864
0003e0 cd d3 05 bf 6b 28 6e be 8a 52 5b be 44 8a 75 bf
       -0.5227631 -0.23257606 -0.21418205 -0.959141
0003f0 fc 81 8f be ce de 92 bf 3c 16 03 3f cd f3 d6 bf
       -0.28028858 -1.1474245 0.512058 -1.6793152
