Vehicles/ModRepeat_forest_8/ModRepeat_forest_8_actor.pth (torch, 176516 bytes, 5 tensors)

weight f4 [200, 14]
000000 24 d2 18 bf 5b 36 3b bf d4 5f 2b 3f 6c 15 52 3e
       -0.5969565 -0.73129815 0.669431 0.20515984
000010 cd e1 e6 be c8 57 e1 be a4 c9 07 bf 62 5d e0 be
       -0.45094147 -0.44012284 -0.53042054 -0.43821245
000020 ff 65 66 bf 29 28 94 3e 9b 82 73 3e 36 4b 1b 3f
       -0.89999384 0.2893689 0.23780291 0.6066164
000030 4e d0 e4 3e 1d 33 d2 3d 8c 4c dc 3d 82 4c 73 3f
       0.44690174 0.10263655 0.10756788 0.95038617
000040 de 19 5c be b6 8a 93 3e f4 af 68 be 0b 53 99 be
       -0.21494243 0.28816766 -0.22723371 -0.2994617
000050 11 da 49 bf 0e 96 59 bf 8f 30 04 be 39 fd 87 bf
       -0.7884837 -0.8499459 -0.12909149 -1.0624152
000060 9a a4 86 3f 6a 24 75 3f 07 87 58 3e 6b 1e cc be
       1.0518982 0.9575869 0.21145259 -0.39866957
000070 68 22 d4 be d2 29 92 be e7 82 1e be 71 3e d8 3c
       -0.414325 -0.2854753 -0.15479623 0.026396962
000080 0d d1 96 bb ee 64 89 be 90 2f 58 bc 15 85 d0 be
       -0.0046025575 -0.26834816 -0.0131949335 -0.40726534
000090 74 cd 54 be 54 78 96 3d eb 3e 28 3e d5 41 ad bd
       -0.20781499 0.073471695 0.16430251 -0.08459822
0000a0 65 f8 57 be 3b 15 ad be 7d 39 57 3e 99 c0 7e 3f
       -0.21090849 -0.3380526 0.21018024 0.9951263
0000b0 3b b5 ff bc 40 98 c5 be 5d 06 47 3e 7d 1a 72 3e
       -0.031214347 -0.3859272 0.19436021 0.23642917
0000c0 e0 72 c4 bd 98 44 c2 3e 84 1d a4 bf b6 07 69 3d
       -0.09592223 0.37942958 -1.2821507 0.05689212
0000d0 92 df 8f be 1b 46 89 3e ba 0e ac 3d 53 94 09 3e
       -0.28100258 0.268113 0.08401246 0.13435487
0000e0 56 3b e2 bd 66 e0 de 3d 45 48 e1 3e d1 ef cf 3d
       -0.11046474 0.10882644 0.4400045 0.10153163
0000f0 6e 72 2e be 5f 46 4e 3e 55 86 80 3c af 59 c7 3e
       -0.17035839 0.20144032 0.015689055 0.3893561
000100 da 24 c0 3d 32 48 af 3e 24 e3 0a c0 24 fe 81 3e
       0.09382029 0.34234768 -2.1701136 0.25389206
000110 6f 90 a2 3e 1c df aa 3e 62 af 3b be 8a 64 15 3f
       0.3175082 0.33373344 -0.18328622 0.58356535
000120 55 b9 01 bf 39 3f c1 3e 0c 65 c8 be 5d e6 08 bf
       -0.5067342 0.37743548 -0.39139593 -0.53476506
000130 59 7e 84 bf 31 ff 8a bd 35 0d a1 bf 99 eb cc bf
       -1.0351058 -0.06786955 -1.2582155 -1.6009399
000140 f4 4c c6 bd 08 9f 20 be e9 f1 2d bf 4f a8 b4 bd
       -0.096826464 -0.15685666 -0.6794725 -0.08821165
000150 10 4c c9 3c f8 3a 0a bf 65 88 e4 3e a6 ce 1d bf
       0.024572402 -0.5399623 0.4463531 -0.61643445
000160 b6 2b a7 3e 6e 3c 08 3f c1 8b 27 be da 03 40 be
       0.32650536 0.5321721 -0.16361906 -0.18751469
000170 6d fb 32 3f 78 27 ec 3e ea e4 67 bf 3c bc 77 bd
       0.69914895 0.46123862 -0.9058367 -0.06048225
000180 d3 43 21 be 6e c2 b2 3e 2e 73 0e bf 0b 5d 07 3f
       -0.15748529 0.34913963 -0.556445 0.5287635
000190 46 9e 9c bf 6e 4b 0d bc 5e 0f 61 bd 0f 56 94 3d
       -1.2235801 -0.008623941 -0.054946296 0.07242977
0001a0 d2 79 c6 bc 64 2d 20 be 81 76 79 3c 49 f6 a2 bf
       -0.02422801 -0.15642315 0.015226007 -1.273141
0001b0 61 e5 0b be 6a 53 e9 be 72 c3 a0 3d 12 5e 2b be
       -0.1366172 -0.45571452 0.07849778 -0.16735104
0001c0 c3 2b 7c 3e 07 8f 81 3e 2b 02 cb be 02 1f fd 3e
       0.24626069 0.25304434 -0.39650092 0.4943772
0001d0 94 83 ea 3e ac 5a df 3e 14 2e ca bd 14 98 38 bf
       0.4580351 0.43623865 -0.0987207 -0.7210705
0001e0 ee 01 a1 bf df 22 99 be 55 da 16 3f aa a9 6c 3f
       -1.2578714 -0.29909417 0.589269 0.92446387
0001f0 cb 90 21 3d c4 dc 07 3d ae d0 95 3e 12 bd 1c 3f
       0.039444726 0.033169523 0.29260772 0.61226
000200 7e dc 4a bf 2e 2c ed 3e 34 13 8e be 2d 56 de bd
       -0.79242694 0.4632277 -0.27749026 -0.108562805
000210 1b 0e da bc 45 21 8d 3e e9 31 e3 3e 08 f1 b9 ba
       -0.026618054 0.27564445 0.44374016 -0.0014186213
000220 06 7b a5 bf 17 fa 93 3d e9 e4 68 3c 49 66 4e 3e
       -1.2928169 0.07225435 0.014214733 0.20156206
000230 81 0f c3 bc 0e f8 8f be 9c 5e 4d 3e 41 10 fd be
       -0.023811104 -0.28118938 0.20055622 -0.49426463
000240 e2 16 91 3d f2 6c 55 3e 4a 24 43 bc 4f e9 65 3c
       0.07084443 0.2084234 -0.011910507 0.014032676
000250 0d e4 e4 be e1 3b b3 3e df d0 1d bd 44 0f 53 bf
       -0.4470524 0.3500662 -0.038529273 -0.8244517
000260 5e 58 66 bf 4a 94 9a bf 05 bd 25 3f 2a 00 fd 3e
       -0.8997859 -1.2076504 0.64741546 0.49414188
000270 a2 26 90 3e 5e c8 d0 3e 2d 17 13 bf 62 77 0a bf
       0.28154474 0.40777868 -0.5745724 -0.54088414
000280 bc 38 70 bf dd bc 41 bf 48 7a 1e 3f c0 cb e9 3d
       -0.9383657 -0.7567881 0.61905336 0.11415815
000290 0c 8f 6a bf fb 08 8a be 4d c5 e2 be a0 c5 78 3c
       -0.9162452 -0.26959977 -0.44291154 0.015183836
0002a0 70 21 09 bf ac fa 29 3f c3 11 62 3f c2 f9 ee be
       -0.53566647 0.6639812 0.8830835 -0.46674925
0002b0 74 91 d2 bd 5e b3 25 bb bd 29 90 3e b5 6d 18 3d
       -0.10281649 -0.0025283913 0.28156844 0.037214
0002c0 0c 30 fa 3e b8 32 45 3e 24 e8 08 3f 68 f7 80 bd
       0.48864782 0.19257629 0.5347922 -0.06297189
0002d0 f0 34 ea be 6c 26 28 bf fe d8 29 bd cd dc 12 be
       -0.45743513 -0.6568363 -0.041466706 -0.14342041
0002e0 8d b8 9a be 29 38 b5 bd c5 6f 3a bd 93 45 61 bd
       -0.30218926 -0.08848602 -0.045516748 -0.05499799
0002f0 26 dc 0d bf bb e0 55 3e 4a a7 f9 3d 98 c2 07 c0
       -0.55414045 0.20886509 0.12190111 -2.121252
000300 12 19 41 3f e4 0a 86 3d bc 1d ae 3e 2e ff fc 3e
       0.7542888 0.06545046 0.3400706 0.49413437
000310 24 35 85 be 4e 02 22 be 80 6b 85 bf e2 74 47 3e
       -0.26017106 -0.15821192 -1.0423431 0.19478181
000320 ef 3b ff be e2 50 82 bf b9 6a 5c be ae da 00 3f
       -0.49850413 -1.0180933 -0.21525086 0.5033368
000330 d8 af 1a 3f ee 74 c7 be fc 7e 25 bf d9 db b5 be
       0.60424566 -0.38956398 -0.6464689 -0.35519293
000340 55 60 9c 3e f7 00 e4 3e 05 90 6b bf d4 18 1a be
       0.30542246 0.44531986 -0.9201663 -0.15048534
000350 b0 58 c8 3e fa 7d 51 be 72 b5 6c 3e 15 dd a9 3e
       0.39130163 -0.20458212 0.23116091 0.33176485
000360 2e 71 ec 3e ae 9b 02 3f 9f b8 d2 bf 39 fc 79 3e
       0.461801 0.510188 -1.6462592 0.24412622
000370 98 61 7e be 57 5b 22 be 42 74 42 3e 0e db 14 3f
       -0.24841917 -0.15855156 0.18989661 0.5814675
000380 96 80 fb 3e 5e 18 6e bf 5c 45 61 bb 1c c1 bd be
       0.4912154 -0.9300593 -0.0034373617 -0.37061393
000390 b0 ae a3 3e b9 81 6a be 4e b5 b0 3d 4d c4 04 be
       0.31969213 -0.22901048 0.08628331 -0.12965508
0003a0 22 d7 d4 bd b5 70 f7 be 65 a5 e7 be bc 12 d5 be
       -0.10392596 -0.48328176 -0.45243374 -0.41615856
0003b0 14 0d 8e bd ca 8b 82 3e 55 1a e3 3d f1 fc 2b 3f
       -0.06936088 0.25497276 0.11089007 0.6718283
0003c0 26 48 6f 3e d8 af 71 3e 17 e5 39 bf fa b6 1b bf
       0.23367366 0.23602235 -0.7261519 -0.60826075
0003d0 6d 83 43 bf a2 c5 b6 bf cb 2b 5d be ac a0 df 3e
       -0.76372415 -1.4279063 -0.21598737 0.4367727
0003e0 39 d2 23 3e 73 2a b0 3e df 72 1e 3f ea ee 10 bf
       0.15998162 0.34407386 0.6189403 -0.56614554
0003f0 ce 5a 86 bb de ae 10 3f 8f 0c b8 3e 12 a6 11 bf
       -0.00410018 0.56516826 0.3594708 -0.5689403

bias f4 [200]
000000 36 8e 34 be 81 31 33 be 87 b0 d7 be 05 2a 3d be
       -0.17632374 -0.17499353 -0.42126867 -0.1847306
000010 a2 10 02 be 4f 66 bd bc 17 da 1e 3e f0 d2 f2 3e
       -0.12701657 -0.023120074 0.15512882 0.47426558
000020 9f e6 8f 3d 43 00 22 bf 9a 6e b8 be 20 45 ff bc
       0.07026409 -0.6328165 -0.36021882 -0.031160891
000030 c3 5b 6c bd 98 9d 68 be c9 65 e0 be 98 a7 0e 3e
       -0.0577047 -0.22716367 -0.43827656 0.1393112
000040 74 e4 89 3d a7 47 c4 be 10 48 38 3e 43 97 c9 3e
       0.06733027 -0.38335916 0.1799624 0.39373216
000050 c2 9e 5d be 1f f1 8d bd ad da a0 3e 15 5a 80 be
       -0.21642593 -0.06930756 0.31416836 -0.25068727
000060 70 34 1c 3e 88 45 10 be 4c df 0e bf 45 1a 80 be
       0.15254378 -0.14089024 -0.55809474 -0.25020042
000070 d5 24 68 3b ba dc 0d 3f 95 a6 a1 bd 02 21 eb bd
       0.0035422344 0.55414927 -0.07893101 -0.11480905
000080 47 41 bb be f1 bd f2 3e ce 9f c0 bd 71 fb 10 3d
       -0.3657324 0.4741054 -0.0940548 0.035396043
000090 31 48 3f 3e 4f 44 b8 3e 2d 97 33 be 86 5f 2a 3e
       0.18679883 0.35989615 -0.17538138 0.16638002
0000a0 4b ee ef 3d 5f 92 7c be 41 82 27 be 11 a2 7a be
       0.11715373 -0.24665211 -0.16358282 -0.24475886
0000b0 7e ab 86 be 24 df 35 be 1c 76 4a be b8 4d c8 3d
       -0.26302713 -0.17760903 -0.19771618 0.09780449
0000c0 c5 aa f5 3e c5 01 d7 bd 3d 2b 9e 3e 10 32 57 3d
       0.4798185 -0.104983844 0.30892363 0.052537978
0000d0 50 08 9d be 95 8c 0c 3e b9 ac 46 3d 79 1c f1 be
       -0.30670404 0.13725503 0.048504565 -0.47092035
0000e0 41 65 fb bd 2e 39 8f be ce d6 c8 be bb 50 92 be
       -0.12275172 -0.27973312 -0.39226383 -0.28577217
0000f0 29 aa be bd ac 7c 8d 3e 98 41 fc be 10 25 76 3e
       -0.09309799 0.2763418 -0.49268794 0.24037576
000100 46 98 86 3b cd 74 b6 be 3b a2 cb 3d dc 2a e0 3a
       0.004107508 -0.35635987 0.099430524 0.0017102617
000110 10 14 71 be 4e 90 1b bd 5d 0d d9 be 20 36 99 be
       -0.2354281 -0.037979417 -0.42393008 -0.29924107
000120 63 33 a9 3e 7e 53 65 3e 84 3a 25 be 6e a9 28 bf
       0.33047017 0.22395131 -0.16135603 -0.6588353
000130 69 4f 9b be 67 df 78 bd ad d7 81 3e 72 d6 2f be
       -0.30334023 -0.060759928 0.2535986 -0.17171648
000140 de 04 2e 3e c8 60 8b bd 16 25 cd be 31 89 80 3d
       0.16994044 -0.06805569 -0.40067357 0.06276167
000150 e9 d2 3d be 93 05 9a 3d 54 56 84 3d 62 d4 a4 3e
       -0.18537487 0.075205944 0.06461778 0.32193285
000160 b6 ce 6d 3a b5 13 27 bd 8e a8 0e be 40 f1 6a be
       0.0009071635 -0.04079028 -0.13931486 -0.22943592
000170 d0 34 9a be 37 a0 92 be e0 c0 66 3d ff 52 a8 3b
       -0.30118418 -0.2863786 0.056336284 0.005136847
000180 bd b3 a8 be 84 f8 a4 be 30 19 8a 3e 5e f1 cd 3c
       -0.3294963 -0.32220852 0.26972342 0.025139507
000190 54 81 c0 be 50 e3 17 be 47 8f aa 3e 6e 3e bb be
       -0.3759867 -0.14832807 0.33312437 -0.36571068
0001a0 4c b2 2f be 62 49 52 be 7d a0 78 3e 49 07 15 bd
       -0.17157859 -0.20535806 0.24279971 -0.0363839
0001b0 40 49 94 3d 9a db 9c be 86 7a 1a 3d e3 3f d6 be
       0.07240534 -0.30636293 0.037714504 -0.41845617
0001c0 79 63 0f be 49 b8 4e be 9c df b9 3e f5 24 10 be
       -0.1400279 -0.20187487 0.36303413 -0.14076598
0001d0 17 4f 89 3e b3 e7 48 be e5 70 bb be cb 8a 5b 3d
       0.26818153 -0.19619636 -0.3660957 0.05359916
0001e0 2b 8b 2a be 36 f4 3d 3e 9e c9 8c 3e b0 55 75 be
       -0.16654651 0.1855019 0.27497572 -0.23958468
0001f0 44 b9 23 be 5a ba a6 3e c6 77 9b be 20 4a b2 3e
       -0.15988642 0.3256405 -0.30364817 0.34822178
000200 ce 8c 20 3e 37 d5 2a be 6f 1b c6 3e d6 03 18 be
       0.15678713 -0.16682898 0.38692805 -0.14845213
000210 3c d1 c0 3d 54 77 97 3e 87 96 5c 3d b6 98 df be
       0.09414908 0.29583228 0.05385449 -0.43671197
000220 78 0a d6 3e 6d 53 75 be bc 54 13 bf aa 1c ce 3e
       0.41804862 -0.23957606 -0.5755117 0.40256244
000230 db 35 f4 3d 41 28 1b 3e c0 cd e3 bd ea 8b 04 3f
       0.119243346 0.15152074 -0.11123228 0.5177599
000240 a7 c7 2a bf c4 a5 8c 3c 9b 98 d3 be 85 21 48 bd
       -0.66710895 0.017168887 -0.41327366 -0.04886009
000250 c8 e9 e5 3d 28 65 ab bc f2 1b 02 bf 04 aa 50 bc
       0.11226231 -0.020922258 -0.5082389 -0.012735847
000260 b5 17 fd 3e d0 a8 9e be 46 89 bb 3e 68 ba 91 3e
       0.4943215 -0.3098817 0.3662817 0.2846253
000270 45 11 86 3e e1 e9 52 be c7 ba ed 3d fb f8 b2 be
       0.2618505 -0.2059703 0.116078906 -0.34955582
000280 14 d8 93 be aa 3e c3 3d bf 18 b2 be be 5e 31 bd
       -0.28875792 0.095334366 -0.34784505 -0.043303244
000290 cf b5 09 bf ea 99 aa be 34 b9 e0 be be 60 1f 3f
       -0.5379304 -0.33320552 -0.438913 0.6225699
0002a0 19 27 fc bd 07 7e 41 3e 5c 24 e5 be db f3 b8 be
       -0.12312145 0.18895732 -0.44754303 -0.36123547
0002b0 48 04 a7 bd de ce e5 bd ce a1 04 be 1e 95 53 be
       -0.081551135 -0.112210974 -0.12952349 -0.20662352
0002c0 ff b5 32 be f4 a8 1d bc 83 2b 52 be ee 5c 2b bf
       -0.17452239 -0.009622801 -0.20524411 -0.66938674
0002d0 df 69 3c 3e cf dc 44 3f ee da 27 3e d4 de e6 be
       0.18399762 0.7689943 0.16392109 -0.4509188
0002e0 d0 68 c8 bd e6 2d 82 3c 75 93 17 3e 72 db bd 3d
       -0.097856164 0.015891027 0.14802344 0.092703715
0002f0 e2 e9 c5 bc 6c f0 23 be eb c7 b8 3d 83 96 3a 3d
       -0.024159376 -0.16009682 0.09022506 0.045553695
000300 58 36 09 bb e3 7d 77 be 10 67 f4 3d 3c 02 da be
       -0.0020936932 -0.24169116 0.1193372 -0.4257983
000310 2b 25 82 bd e9 49 33 be c5 57 88 3e a5 3b ac be
       -0.063547455 -0.17508663 0.26629463 -0.33639255

weight f4 [200, 200]
000000 0e fc 9c bd 77 f4 29 3d 1a 30 b4 3c 51 3e 11 be
       -0.07665263 0.041492905 0.021995593 -0.14183928
000010 c4 cc f4 bd e3 c3 28 bc cd 71 94 bd c7 d0 b2 3a
       -0.119531184 -0.010300609 -0.07248268 0.0013642543
000020 82 68 97 bd a0 e0 09 bd 04 89 6e bd 66 51 f2 bc
       -0.0739298 -0.033661485 -0.058236137 -0.02957983
000030 4b d2 17 bc 35 2d 5d 3c 68 7d eb bc dd c7 c9 bd
       -0.009266446 0.013499548 -0.028746322 -0.09852574
000040 ae 84 90 bd 67 e2 68 3c 25 db cf bd 91 b6 ba bc
       -0.07056557 0.014214135 -0.101492204 -0.022792133
000050 a5 c9 40 3d 83 17 96 bd 96 1d 76 bd 79 08 c1 bc
       0.047067303 -0.07328703 -0.06008681 -0.02356361
000060 2b 50 96 bc 34 19 56 bd c3 14 7c bc 8c 93 62 bc
       -0.018348774 -0.05227013 -0.015385809 -0.013829123
000070 ec 62 2b 3d c7 bc 94 bd 21 a3 0d be 35 0b c2 bd
       0.041842386 -0.07262569 -0.1383176 -0.09474794
000080 d0 44 62 bd 4a 52 fc bc 4d fa c7 bb 08 e2 3e bd
       -0.055241406 -0.030800957 -0.006102836 -0.04660228
000090 07 0a dd 3c 52 43 88 bc 37 8d b5 bc 45 27 1b 3c
       0.02698232 -0.016633663 -0.022162063 0.009469812
0000a0 3c 53 cb bd 7f ba 6a 3d ff 1f e6 3c 52 3f 47 bd
       -0.09927985 0.057306763 0.028091429 -0.04864437
0000b0 ed 51 f4 bc 78 dc 18 bc 4b 46 60 bd 0c dd cd 3c
       -0.029824222 -0.009329908 -0.054754537 0.025129817
0000c0 56 1a 79 3b 96 1c 17 be 9f 2b 49 bd b5 a2 5e 3c
       0.0038010082 -0.14756998 -0.049113866 0.013588597
0000d0 f4 10 b3 bd 3e cf 94 3d 1d 77 f2 bc 67 b6 c1 bd
       -0.08743468 0.07266091 -0.029597813 -0.094586186
0000e0 a4 d1 9f bd 87 97 30 3d 80 96 85 bd ab 7f d4 b6
       -0.07803658 0.043113258 -0.06522846 -6.332955e-06
0000f0 4f 05 51 ba 87 dc 5e bd da 78 22 3d 84 76 96 3c
       -0.00079735083 -0.05440953 0.039666034 0.01836706
000100 bd 69 a7 bb 34 07 5b bd 65 a8 98 bd 6a 2c b3 bd
       -0.0051090405 -0.053473666 -0.07453994 -0.08748706
000110 01 03 4e bd c4 1e 18 be b5 71 76 bd 92 73 59 bd
       -0.050295833 -0.14855486 -0.060167033 -0.053088732
000120 03 8b d5 bd 6c e0 8e bd 85 0b 96 bd c4 ae 30 3d
       -0.10426905 -0.06976399 -0.07326416 0.04313542
000130 bb d0 70 3d f3 47 28 bd 69 52 4f 3b c2 dc 9a bc
       0.05879281 -0.04108424 0.0031634814 -0.018904094
000140 5e 8d 64 bd 72 3c 92 bd 7d 1d 9d 3d c7 29 8a bd
       -0.05579888 -0.07140435 0.0767164 -0.0674625
000150 c9 20 77 bc ff 6c 11 3d 91 32 1c 3d 5d 6e a2 bd
       -0.0150835 0.035504337 0.03813416 -0.079312064
000160 27 e3 99 3c e4 b9 f6 bd 0e f4 74 bd b6 e5 a5 bc
       0.018785072 -0.120471746 -0.05980306 -0.020251136
000170 72 05 83 bd a9 21 00 bd 84 f8 95 bd c1 22 5e bd
       -0.06397523 -0.0312821 -0.07322791 -0.054232363
000180 73 b9 2b bd d6 75 7f bd f3 30 dd 3c fc 53 bb bd
       -0.041924905 -0.062368236 0.02700088 -0.09146878
000190 92 59 dc bc ac c2 c0 bd 42 9c 82 bb 47 89 a2 bc
       -0.02689818 -0.09412131 -0.0039859125 -0.01984085
0001a0 f7 84 b3 3a ab b6 97 bc a2 3b b0 bc 52 20 00 be
       0.0013696243 -0.01851972 -0.02151281 -0.12512329
0001b0 6d 0b b5 bc ae ea 59 bc f5 c3 df bc 1b ca d7 bc
       -0.022100175 -0.013300581 -0.02731512 -0.026341489
0001c0 34 7b 19 bd bc ea 5d bd db b9 b2 3c 10 51 99 bc
       -0.03747101 -0.05417894 0.021817138 -0.018715411
0001d0 d9 af ac 3d 9d 33 bd 3b 43 4f b3 3c 7c 53 89 bd
       0.08431978 0.005773975 0.02188838 -0.067053765
0001e0 92 56 47 3d 83 74 12 3d 0a b8 b0 bc db 9f 8c bd
       0.048666544 0.035755645 -0.021572132 -0.068664275
0001f0 c2 1a 87 bd 2c de eb bc b3 c9 11 be bc eb 75 bd
       -0.065969005 -0.028792463 -0.14237098 -0.060039267
000200 33 62 78 bd 46 7b fc bd 67 d7 72 bd cc 3a 38 3c
       -0.060640525 -0.123282 -0.059287455 0.011244487
000210 2c d9 dd bd ad 5d aa bc d2 56 8c bd 38 62 b4 bd
       -0.10832438 -0.020796621 -0.06852497 -0.08807796
000220 7c 72 89 bd 71 4e ff 3c e4 02 8d bc f9 71 ad bd
       -0.06711289 0.031165333 -0.017213292 -0.08469004
000230 fa 2c cb 3d 0f ce b5 3a 0e e6 67 bd 7c c4 63 bc
       0.09920688 0.0013870614 -0.05661588 -0.013901826
000240 22 24 d4 bd e5 8b 16 be 0e 54 1c bd be 30 ff 3c
       -0.10358454 -0.14701803 -0.0381661 0.031151172
000250 0b 61 98 3c 00 f8 93 bd a2 76 e1 bc 05 19 b7 bd
       0.018600961 -0.072250366 -0.027522389 -0.08940319
000260 42 24 bf bc a6 18 60 bd bb d8 d0 bd cf db 15 bc
       -0.023332719 -0.054711007 -0.10197588 -0.009146645
000270 a2 9a 1a ba 29 4f 8f bd dc 06 36 3d 41 f3 b9 3b
       -0.0005897676 -0.069975205 0.044440135 0.00567475
000280 2e 29 cb bd 32 94 51 bd 98 97 b1 bc 2c ed 35 bd
       -0.09919964 -0.05116672 -0.02167873 -0.044415638
000290 58 21 67 bd 1d a5 fe bc bc ad d6 3c c4 af ec 3c
       -0.056428283 -0.031084592 0.02620589 0.028892405
0002a0 e4 51 94 bd 25 1d b8 bd 9d de f2 3c f2 d2 e7 3c
       -0.07242182 -0.08989934 0.029647166 0.028298829
0002b0 00 17 78 bd 44 63 5b bd e4 d5 70 3c 77 8b bf bd
       -0.06056881 -0.053561464 0.014699433 -0.09352773
0002c0 06 33 74 bd 7a 43 e8 bb 57 b0 c3 bd 44 53 3a 3c
       -0.059618972 -0.007088122 -0.095551185 0.011372391
0002d0 e4 cf 81 3d 01 a8 69 3b b7 03 96 bd 09 4a 0a be
       0.0633848 0.0035653117 -0.07324927 -0.13504805
0002e0 c2 d9 52 3d 3c 03 c7 3c 8f 3c 79 3c 26 7f 03 bd
       0.0514772 0.024293534 0.015212192 -0.03210368
0002f0 b9 73 90 3c 5e a7 a1 bd 0f ab 2f bd 91 ec 54 bd
       0.017633306 -0.07893251 -0.042887744 -0.05198342
000300 d0 2e 12 bd 38 9e 56 bc f0 8d eb 3c 40 ae 2d 3c
       -0.035689175 -0.013099246 0.028754205 0.0106006265
000310 67 9f a6 3d b8 01 60 3d 68 10 11 3d ba 73 22 bd
       0.08135872 0.05468914 0.035416037 -0.039661147
000320 b7 36 b1 bd c4 d3 80 bd ae d0 24 bd f8 f3 ad bb
       -0.08653014 -0.06290391 -0.040238075 -0.0053086244
000330 2d 24 b5 bd 0c 49 a5 3c 6f c1 ae 3b 0f 2c 7a 3c
       -0.088447906 0.020176433 0.0053331177 0.015269293
000340 65 4d d6 bc ff 1b a3 bd 0c c8 41 3c 32 e6 7e 3b
       -0.026159951 -0.07964324 0.01182748 0.0038894531
000350 53 10 3f 3d 09 01 36 3c d5 a7 d5 3b af 0e 70 bd
       0.046646427 0.011108645 0.0065202513 -0.058607753
000360 15 29 bd bc a2 ae 61 bd a3 21 b5 bc ad 69 0c 3c
       -0.023090879 -0.055098183 -0.022110766 0.008570117
000370 2b 18 87 bd 46 cc 76 3c 28 7f eb 3c ce 80 20 bd
       -0.065964065 0.015063351 0.028747156 -0.039185338
000380 62 0a 38 3d 18 e4 0c bd 44 17 be bb 43 95 38 3c
       0.044931777 -0.034397215 -0.0058011133 0.0112660555
000390 a4 07 a4 3c 4c 70 d8 3c 48 7e 8c bd 45 11 d2 bc
       0.020023175 0.026420735 -0.06860024 -0.025643
0003a0 4a c5 34 bd 2e b7 1e 3d f5 f3 2d bd 74 ad 87 bc
       -0.044133462 0.038748913 -0.042468984 -0.016562201
0003b0 37 e4 b2 bd dd 58 63 bc 94 9f a9 bd f2 e5 34 bd
       -0.08734935 -0.013876167 -0.0828239 -0.044164605
0003c0 91 5c 3d 3c 33 4b 1d 3d c1 97 d1 bc 75 03 aa bc
       0.011557714 0.038401794 -0.025585057 -0.020753602
0003d0 8c 5a b0 3b db a9 95 bd 01 97 a8 3b 49 ba 2a 3d
       0.005381888 -0.07307788 0.005144954 0.04168156
0003e0 e6 e4 4f bd 81 bf ad bd ea 37 76 bd a1 20 cb 3c
       -0.050755404 -0.08483792 -0.060111918 0.024795832
0003f0 6b 2e 0c bc 36 eb a2 bb 8a cb 93 bd 23 21 b4 bc
       -0.008555989 -0.004971887 -0.07216556 -0.021988457

bias f4 [200]
000000 1b 42 f1 ba 99 41 b9 bd e9 08 a3 bd 3a 06 40 bd
       -0.0018406542 -0.09045715 -0.07960684 -0.046880938
000010 a1 8a 91 bd 4e 15 9e be b3 68 f8 3b d6 92 9d be
       -0.071065195 -0.3087563 0.0075808405 -0.3077609
000020 fc 71 1b bd d6 6d 04 be d5 2e 0b 3f 87 e9 2c be
       -0.0379505 -0.12932524 0.54368335 -0.16885959
000030 d3 8b e1 3d b2 3c 67 be 9c cd 37 3c 2d 9d 55 3e
       0.110129975 -0.22581747 0.011218455 0.20860739
000040 01 b9 91 be fa 3b 50 be 76 24 de bc 31 3d 3b bf
       -0.2846146 -0.20335379 -0.027116995 -0.73140246
000050 28 2c 02 be b9 5f 02 3e 28 72 c4 bd 1b ad e2 bc
       -0.12712157 0.12731828 -0.09592086 -0.027670434
000060 66 ac 89 bd ca 69 ce bd 02 b2 aa 3e a5 02 48 bf
       -0.067223355 -0.100787714 0.33338934 -0.78129035
000070 c0 b3 8f be fc 06 81 bc 3e c8 d0 be d5 84 64 bd
       -0.28066826 -0.0157504 -0.40777773 -0.05579074
000080 0d 0f ce bd 98 c2 7c be 93 1d d5 bc 60 cd b6 bd
       -0.100614645 -0.24683607 -0.026015079 -0.08925891
000090 d5 51 62 3e b8 31 3c bb 41 f7 d6 bc ec 85 8a bd
       0.22101529 -0.0028716158 -0.026240947 -0.06763825
0000a0 09 7a 00 bd 40 14 3a be 52 0e ff 3d 7d 79 c0 3e
       -0.03136638 -0.18171787 0.12453903 0.37592688
0000b0 75 e2 cd bc d2 47 ef bd e2 b9 c7 be 46 2e a8 bd
       -0.025132397 -0.116836205 -0.39009005 -0.08211951
0000c0 7b 18 d1 be 37 25 cb bc 00 35 88 be 29 94 8b bd
       -0.4083899 -0.024798019 -0.26602936 -0.06815369
0000d0 f5 61 8d bc 0a f6 ad bc 7b bb a8 be 18 57 d1 bd
       -0.017258624 -0.021235485 -0.32955536 -0.1022169
0000e0 25 c0 8d bd 75 b7 e5 bc 5f 54 46 be 69 57 c9 bd
       -0.06921414 -0.02804158 -0.19368123 -0.09831125
0000f0 3f f7 8f 3e 24 83 e1 bd 7a b0 3b bd 2d 9b 9c bb
       0.2811832 -0.11011341 -0.045822598 -0.0047792406
000100 53 f3 1f be 8e db 02 3f 07 8a 84 bb 06 b1 58 be
       -0.15620165 0.51116264 -0.0040447745 -0.21161279
000110 11 1e 81 be 45 d6 e1 be 4b 63 16 3c fe fb 99 be
       -0.2521825 -0.44108787 0.009178947 -0.30075067
000120 8f d1 01 bc 9f a3 be 3e 44 4f 09 bf 6c 53 ad bd
       -0.007923498 0.37234208 -0.53636575 -0.08463177
000130 3c 28 95 bd 49 34 3f bd a2 79 ad 3d ab cd af bd
       -0.07283065 -0.046680722 0.08470465 -0.0858415
000140 50 9f b0 be 50 9c a4 bd 70 67 4a 3e c6 65 ac bd
       -0.34496546 -0.08037627 0.19766021 -0.08417849
000150 97 4e 61 be 1a 21 8d be 95 26 1c be 88 e3 59 be
       -0.22002636 -0.27564317 -0.15249093 -0.21278203
000160 c9 df 2a bf 37 c5 7c bd f4 e0 d8 bd 68 f2 15 bf
       -0.6674772 -0.061711516 -0.105897814 -0.5857301
000170 a1 0d ae bc 08 bb 01 bf 2a 7b 15 bf 24 51 19 be
       -0.021246733 -0.5067601 -0.5839106 -0.14972359
000180 42 31 a4 bd 42 92 7e be eb 66 f7 be e5 e9 73 bd
       -0.08017208 -0.2486048 -0.48320708 -0.05954923
000190 a2 f8 0a bd af 04 64 bd f6 de 2e bf 11 e4 fe 3d
       -0.03392852 -0.05566853 -0.6830896 0.12445844
0001a0 71 c7 a8 be 5b b8 48 3c 9a 16 04 3f a8 39 b1 bd
       -0.32964662 0.012250985 0.5159699 -0.08653575
0001b0 dd fe 97 bd df 40 a7 3d c0 0d 34 bd 0a 11 e6 be
       -0.07421658 0.0816667 -0.043958426 -0.44934875
0001c0 65 b5 28 be 1c f6 07 be 23 d5 06 3e be 0a fb be
       -0.16475447 -0.13277477 0.13167243 -0.49031633
0001d0 3b 17 8a bd a8 36 93 bc 64 25 12 3e 4b 33 9a be
       -0.06742712 -0.017970398 0.14272076 -0.30117258
0001e0 75 11 05 3e fa 67 d5 be 1e d8 0e bc 6c 79 e0 bd
       0.1299494 -0.4168089 -0.008718519 -0.109606594
0001f0 9c 2e 00 be 69 76 44 be 82 cc 13 bc eb 04 81 be
       -0.1251778 -0.19185795 -0.009020926 -0.25199065
000200 04 24 4d be 97 c8 85 be 0f b1 db be 87 93 31 bd
       -0.2003327 -0.261296 -0.42908522 -0.043353584
000210 28 f3 bd bc 08 f1 ab bd 0b 7b 83 be e2 9b f0 3e
       -0.023187235 -0.083955824 -0.25679812 0.4699393
000220 71 dd fe be 75 69 98 bc 4a 4e c0 bd 41 4e f2 ba
       -0.4977832 -0.018604973 -0.093899325 -0.0018486456
000230 52 a3 c6 bd f0 2f 30 3f 20 82 5a 3e 07 09 2e bf
       -0.0969912 0.68823147 0.21338701 -0.67982525
000240 46 c1 fb bd c8 92 3f bd a8 c5 b2 bd c1 2e 98 be
       -0.12292723 -0.04677084 -0.08729106 -0.2972317
000250 f1 18 de be 46 18 83 bd b6 b7 dd bd d4 08 ba bd
       -0.43378404 -0.06401114 -0.10826056 -0.09083715
000260 33 58 54 bd 78 a2 53 bf 72 92 aa be ec 53 eb bd
       -0.051841926 -0.8266978 -0.33314854 -0.11490616
000270 fe 45 49 be f0 21 9a 3e 6b 8f e8 bd bf d8 12 3f
       -0.19655606 0.30104017 -0.1135548 0.5736198
000280 c8 c7 a4 bd b8 32 04 bd 7a 63 cf be 2c 99 a6 bd
       -0.08045918 -0.03227493 -0.40505582 -0.08134684
000290 10 ef 8b 3d b0 b8 c5 be 4a 0f e5 bd 32 fd 0d bf
       0.06832707 -0.38617468 -0.11184557 -0.5546447
0002a0 14 a6 49 3e fe 2c 1e be 18 a9 a5 bd ef 77 e3 3e
       0.1969226 -0.1544685 -0.08088893 0.4442744
0002b0 fe 1d bd be 00 e1 dc bd a8 8f 00 bf 0d 06 8a be
       -0.36936945 -0.10785103 -0.502192 -0.2695774
0002c0 36 41 ec bd 3c 91 f2 bc 45 a2 9b bd bd 00 0a be
       -0.115358755 -0.029610269 -0.0759931 -0.13476844
0002d0 5b 8c ed bd 87 d2 b8 bd 52 74 d6 bd a3 16 16 bf
       -0.11599036 -0.0902453 -0.10471405 -0.5862829
0002e0 6e d1 ab 3d 49 cf 37 3e c9 a2 b6 be 57 aa 6a be
       0.08389555 0.17950167 -0.3567107 -0.22916542
0002f0 d5 09 ec 3e 50 5b 30 3e 1f cc d7 bc 08 2f 17 3f
       0.4610125 0.17222333 -0.02634245 0.5905614
000300 ef a1 b1 bc d3 12 2b bf c3 32 12 bf 31 31 bf 3d
       -0.021683661 -0.668256 -0.57108706 0.093355544
000310 fb f4 87 bd 36 94 be bd 30 6b b1 3d 73 aa 95 be
       -0.06638523 -0.09305613 0.086630225 -0.29231605

weight f4 [1, 200]
000000 fe 89 17 3c 7f 53 21 3d 2e 78 b5 3a 0f 65 ac 3b
       0.0092492085 0.03938627 0.001384502 0.0052610706
000010 4b 71 eb bc aa bb ec bf 24 4d f7 bb 60 59 f4 3e
       -0.028740546 -1.849477 -0.0075470377 0.47724438
000020 0e 14 4b bb 8e 1a a0 3e 21 ae 03 3f 1b 5c 6d c0
       -0.0030987295 0.3127026 0.51437575 -3.7087467
000030 c1 21 5b bf e2 dd 61 bf 47 44 04 bc d5 c7 30 3f
       -0.8559838 -0.8822919 -0.008072919 0.6905492
000040 cc d7 93 3f 5b 45 a8 3b ce 87 24 be 46 9a 49 be
       1.1550231 0.005135221 -0.1606743 -0.19687757
000050 c3 7f a3 bc 2a a5 e6 3f 17 16 64 3b 4d 17 81 bc
       -0.019958382 1.8019154 0.0034803206 -0.015758181
000060 74 8e f5 bf 72 54 4b be 8d 40 07 40 fb d5 76 3f
       -1.9184098 -0.19856432 2.1133149 0.9642026
000070 a0 a0 b7 be 6b a8 3d bc 18 b7 ad 3f fd f8 bb 3c
       -0.35864735 -0.0115757985 1.3571501 0.022945875
000080 2f 5b c4 be 97 22 41 3b 77 86 49 c0 59 59 98 bc
       -0.38350818 0.002947008 -3.148832 -0.018597292
000090 a7 54 ae bd b3 26 99 3c 30 b0 c4 3c 4f 39 cb 3c
       -0.0851224 0.018695211 0.024009794 0.0248076
0000a0 a1 8b cb 3c 04 63 3c 3e ec 1f 00 c0 c6 5e c8 3d
       0.024846854 0.18397146 -2.0019484 0.097837016
0000b0 3f fd 9f bc cc 19 4f bd b6 ae 97 bf fc 84 84 bc
       -0.019529937 -0.05056171 -1.1850193 -0.016176693
0000c0 c3 b1 52 be d7 1d b4 bb db 5d 61 3f 5e 47 7e bc
       -0.20575623 -0.0054967212 0.8803384 -0.015519945
0000d0 7d 66 f7 3b e8 65 8e 3c 09 27 e2 40 8b 21 70 3c
       0.0075500594 0.017382577 7.067265 0.014656435
0000e0 5e 1a cf bc 6f 32 17 3c 96 09 5c 3d d0 cc 84 bc
       -0.025281128 0.009228333 0.05372008 -0.016210943
0000f0 f8 c2 7a 40 58 ba d1 3c cd 95 75 3c 80 78 07 3c
       3.91815 0.025601551 0.014989329 0.0082684755
000100 c1 75 77 be 31 9e 64 be d8 c8 9a 3e 06 3e 42 c0
       -0.24166013 -0.2232597 0.30231357 -3.0350356
000110 24 93 c1 3c 8e 74 8c bf 61 48 a3 3b 1e bd d1 3e
       0.023629732 -1.097307 0.0049829935 0.40964597
000120 36 f8 4a 3c 91 89 a0 bf 95 82 84 be 0a 7e f8 3c
       0.01238828 -1.2541982 -0.25880876 0.030333538
000130 f7 2b a1 bb fe f5 63 bd 66 07 49 c0 db 74 9a 3c
       -0.004918571 -0.05565452 -3.1410766 0.01885455
000140 0f 74 9f bf 7f c6 41 3c a7 1d 75 3e 36 9e ec bb
       -1.2457293 0.01182711 0.23937093 -0.0072210087
000150 2a 66 03 bf 61 9d e8 3e 19 f3 c5 be 04 bc 30 be
       -0.51327765 0.4543257 -0.3866203 -0.17259222
000160 68 d6 9f be 66 21 39 3d f4 7f 5c bb 34 f2 99 bf
       -0.31218266 0.045197867 -0.0033645602 -1.202704
000170 66 ec ec bf 93 b9 c1 bf 61 57 ee bf eb c4 4b c0
       -1.8509643 -1.5134758 -1.8620416 -3.183894
000180 be 93 cb 3c 2a c7 3c bf d9 0b cb bd cb a8 53 3c
       0.024850722 -0.737414 -0.09914369 0.012918661
000190 9c 6a c4 3f a0 b0 35 3e 91 fe 65 3f 6b 1e 1f bf
       1.5345035 0.17743158 0.8984156 -0.6215579
0001a0 65 f0 99 bf 2a 58 0c be 8a c7 5c be c9 5e ed 3c
       -1.2026488 -0.13705507 -0.21560493 0.028975861
0001b0 35 1a 55 bd 6f 8a bd 40 ee c5 28 3d b4 22 b9 3e
       -0.052026946 5.9231486 0.041204385 0.3615929
0001c0 21 10 1c be 0e 9d 10 bc c9 33 bd 3f 5e 09 1b be
       -0.15240528 -0.008826507 1.4781429 -0.15140292
0001d0 58 5f af bc 5e 93 6b 3e 8b 52 bb be c9 ac 37 3f
       -0.021407768 0.23005435 -0.36586413 0.71748024
0001e0 da 24 f4 be 65 0c 25 be 39 85 7a 3f 25 d3 30 3b
       -0.47684366 -0.1611801 0.9785953 0.002698132
0001f0 73 5d 8d bd 82 3c 04 3c 2a ce 5f bc f8 8c 46 bf
       -0.0690259 0.008071067 -0.013659993 -0.7755885
000200 ad a3 93 be 1f 4f f7 bf f9 c2 13 3f ec ff 12 bb
       -0.28835812 -1.9321021 0.5771938 -0.0022430373
000210 9c fb c6 bc b0 39 3d bc 9e 91 81 bf 8c b9 2f be
       -0.024289899 -0.011549398 -1.0122564 -0.17160624
000220 e0 3f 20 be 3f d6 3a bd ec 9f bc 3e 14 56 a0 bc
       -0.15649366 -0.045614477 0.3684076 -0.019572295
000230 7e 61 d2 3c ea b2 ff 3d 86 51 86 3f df d5 29 3f
       0.025681254 0.12485297 1.0493629 0.66341966
000240 5e 59 1e bb 35 37 2d bc 7d bb 2c c0 54 83 2b 3f
       -0.0024162154 -0.010572244 -2.6989434 0.66997266
000250 1b 12 5d 3e a3 3a 0a 3d 7f 78 2d 3e f5 21 95 bc
       0.21588938 0.033747327 0.16940497 -0.018204669
000260 54 4b 66 be b1 18 29 3f e1 48 7b bf bd d3 9f bb
       -0.22489673 0.660533 -0.9815808 -0.004877536
000270 38 b8 9a 3c d6 c6 42 be 48 43 9b be c5 87 1b be
       0.01888667 -0.19021162 -0.3032477 -0.1518851
000280 34 5b af ba d1 3d c8 3c f5 72 f0 3e ab 78 36 3b
       -0.0013378621 0.024443539 0.46962705 0.002784292
000290 8f 05 97 3f 80 ba be 3f 7a 03 c0 3c 66 20 04 c0
       1.1798571 1.4900665 0.023439158 -2.0644774
0002a0 15 df 7f 3d 69 66 15 be dc 65 a5 bc 5f d7 f4 3e
       0.062468607 -0.14589848 -0.020190172 0.47820565
0002b0 1c e3 9e 3e 89 4c 68 bf 1c 21 68 3f 80 5b 3b c0
       0.31032646 -0.90741783 0.9067552 -2.9274597
0002c0 b2 8f 37 3e 18 4f af bc 24 8e d5 3c 88 b8 e5 3b
       0.17925909 -0.02140002 0.026068754 0.007010523
0002d0 8b 3e 91 bc fb ea 3a be c4 0a ac bc fb c9 f0 bf
       -0.017730018 -0.182537 -0.021001227 -1.881164
0002e0 89 c3 c5 40 a1 ff 0e c0 90 9e fc bd 1b c1 9e bc
       6.180119 -2.2343524 -0.12334931 -0.01937919
0002f0 b4 fa 28 bf 40 86 f1 bf 99 b6 18 bf 2e 45 09 40
       -0.6600754 -1.8869095 -0.5965362 2.1448474
000300 f0 9b ae bb 18 11 95 bf 11 25 e0 3e 12 c1 60 40
       -0.005328648 -1.1645842 0.4377828 3.511784
000310 66 c4 8b bc dc f5 a4 3f b2 68 8c 40 16 05 10 c0
       -0.017061424 1.288753 4.38778 -2.2503104
