Vehicles/ModRepeat_forest_8/ModRepeat_forest_8_critic_target.pth (torch, 353497 bytes, 10 tensors)

weight f4 [200, 15]
00000000: c876 dbbe 6365 8e3f c2d1 023f 9ef4 4cbf
00000010: 90ba 8ebe c6a8 e53d d518 473e d2b9 55bd
00000020: 56eb f2be c22c 0ebe 399c 23be 9239 d1bf
00000030: 0314 6abf 4620 0a3f 85c9 3ebb e747 dbbe
00000040: 42b6 99bf af04 e43d 5653 89be f402 e4be
00000050: 9f64 60bf b5f5 923d 2406 b6bf 62c9 37bf
00000060: bcb3 3e3f a7a0 0d3d af3a 543d c12e cdbf
00000070: f8ae a8bf 762b 13be 51e8 423f 9775 503f
00000080: 5af9 363d 3409 a4be 3c20 b7be 1215 bbbe
00000090: 449d abbe a283 673d 639d 5e3e c90d 6fc0
000000a0: 2072 0e3f de2c 183d 392f 023d 9353 fd3e
000000b0: db42 2cbe 5d1b b53e 5872 f4bc bed9 bfbd
000000c0: 987a 13bf ae4e efbf 84e1 3bbf 5347 a5be
000000d0: 8a08 23bf 193a a53d 1183 efbe dc1d acbe
000000e0: 0768 21be 7e59 943c 0263 d93e baff 8d3e
000000f0: 3a9e 3cbe 5df0 f3be 6912 4a3e 474b b53e
00000100: 23f2 80be 6c14 a63c 8e99 1c3e 92c6 93be
00000110: 6ab6 403f aad4 403c 7134 383f d7b5 88bd
00000120: fb4d 65be 5235 7dbf 56c4 a9be 0e6e f13d
00000130: 00cc 89be 9c20 fbbe a4ab 63bf 1b9d 963d
00000140: dfd0 9abe 79fa b8be 64da 3dbf 126d 88be
00000150: 046e 8abf b7b4 cd3d 5e43 093e c792 b33e
00000160: 68f6 e93e 8b29 a4be c202 af3e a63c cc3f
00000170: 9296 cbbd 5da7 1d3f ce94 0abf 75b6 2dbf
00000180: 8e4f f23e 4182 cb3e c7ad b9bf b3a0 debd
00000190: 68b2 2c3f 9a10 d43e 6a0c 92bf f713 50bf
000001a0: a42b 823f 2b4a c53d af37 5cbf d80f e63e
000001b0: 8a1e a7be 3e48 b73e 62e9 c93e 0c46 3dbd
000001c0: 1d6c 96bf 5ab4 ecbf 5ca6 b83d 1a3d 56be
000001d0: 4113 9c3e 9fa4 75be 0d1f 15bd 876b 913f
000001e0: bafe 15bf 1921 6e3e b996 e23e b96e af3e
000001f0: bb36 693f 1950 943e 74e2 ff3e 3471 8f3e
00000200: e065 f63e 0bf2 53c0 749c a33e 2470 21be
00000210: ec04 1b3e d30f 6dbf 9c66 abbe fe94 afbe
00000220: 5a8d f63e 6864 a1be cfb1 11bf 03c5 b93e
00000230: 2f74 be3e eff6 eabe 86b6 77bf 11ab bfbf
00000240: 8412 213f a190 1fbf 0c3e babd e508 cabe
00000250: 8dd4 80be aaad 6bbe 53e7 9e3f aafc 833f
00000260: f42e ad3e 70d5 153e 09f2 3ebe 451c 6bbf
00000270: bf60 153f da4a 993e d128 13c0 bcd0 85bf
00000280: e9d5 01bf 6782 0fbd c037 2dbf a933 25bf
00000290: 72bb 6f3f eeb1 283d 059e 9b3e 3953 39bf
000002a0: df34 d73e db60 85be c303 003d 1853 53be
000002b0: 8c15 eb3d 32ea e03d 14f1 79be b342 0c3f
000002c0: 1a74 283f aa01 613f 4b6e 193e 1c2a 7dbe
000002d0: 12da b9bf ab83 be3d 0e66 38bf 7fad dabd
000002e0: e4e8 d83c 666d e43d 94af 8e3e bff0 cd3e
000002f0: 2989 67c0 c00b 003f fae3 813f 569e 29bf
00000300: 97a5 163e 12ad 373e b2e5 a5be b8fd b73d
00000310: 43fe 8abe 898f e3be a1a0 6ebe a65d 8dbd
00000320: 98eb 293c 38a4 ad3e da36 cd3d 8666 a7be
00000330: aa76 6ebf 0fef 5f3e f5ac 013e d711 833f
00000340: bc89 503e 9d96 f83e 65b8 733f 5403 85bf
00000350: 14f4 b0be d005 c63e b32a c93e c27f 063e
00000360: aa47 123f 1f5c 91bd e026 31c0 0896 44bf
00000370: 4fe2 44bf cbca fa3d 7f42 383e ee7e f6bd
00000380: 0d96 c13e f2ef cb3e 55f0 493f b6d5 4bbe
00000390: 9441 273f 06f3 e8be cfcf 6038 cdb0 453e
000003a0: ce7d 83bf b9d1 e83e b241 62be cf13 1fbf
000003b0: fd34 68bf 9785 803f 3220 6b3f 3876 8e3d
000003c0: d71e 60bd 2b97 2ebf 8cf7 74bf a5cc e7be
000003d0: 9ea1 1ebe afe6 ac3e c30c ca3d bb46 00bf
000003e0: 8ac0 543e 2c5d 9fbe e5a7 03c0 fc10 01c0
000003f0: 2f13 1ebf afb9 e8be 163d 803d f66f 71bd
-0.4286406 1.1124691 0.51101315 -0.80060756 -0.2787671 0.112138316 0.19443066 -0.052179165
-0.47445172 -0.13884261 -0.15977563 -1.6345694 -0.91436785 0.53955495 -0.0029111814 -0.42828295
-1.2008746 0.11133706 -0.26821393 -0.44533503 -0.87653536 0.07175771 -1.4220624 -0.7179166
0.74493 0.03457704 0.051813778 -1.6029893 -1.3178396 -0.14372048 0.76135737 0.8142943
0.044671394 -0.3203827 -0.3576678 -0.36539513 -0.33518422 0.05652202 0.21739726 -3.7352164
0.5564289 0.037152164 0.031783316 0.49477825 -0.16822378 0.3537244 -0.02983968 -0.09367703
-0.5760894 -1.8695886 -0.73390985 -0.3228098 -0.63684905 0.08067722 -0.46779683 -0.3361653
-0.1576234 0.01810908 0.4245835 0.27734166 -0.18419734 -0.4764432 0.19733585 0.35408995
-0.25184736 0.02027341 0.15292951 -0.28862435 0.7527834 0.011769453 0.7195502 -0.06675308
-0.22393028 -0.98909485 -0.33157605 0.117885694 -0.26913452 -0.49048316 -0.8893378 0.07354184
-0.3023748 -0.36128595 -0.7416136 -0.26645714 -1.0814824 0.10044234 0.13404605 0.3507292
0.45695806 -0.32062945 0.34181792 1.5956008 -0.099408284 0.615835 -0.5413331 -0.6785653
0.4732632 0.39747813 -1.4506158 -0.10870495 0.67459726 0.41418916 -1.1410038 -0.81280464
1.0169568 0.09633287 -0.86022466 0.44933963 -0.32640487 0.35797304 0.3943587 -0.04620938
-1.1751744 -1.8492539 0.090161055 -0.20921746 0.3048344 -0.23988579 -0.036406565 1.136094
-0.58591807 0.23254813 0.44255617 0.34264162 0.9109914 0.2896736 0.49977458 0.28016055
0.481246 -3.3116481 0.31955302 -0.15765435 0.15138596 -0.9260227 -0.33476722 -0.3429336
0.48154718 -0.31521916 -0.5691194 0.3628312 0.37198016 -0.4589152 -0.96762884 -1.497408
0.6291888 -0.6233006 -0.09093866 -0.3945991 -0.25162163 -0.23015466 1.2414345 1.0311482
0.33824885 0.14632201 -0.18647017 -0.9184001 0.5835075 0.2993992 -2.2993662 -1.0454326
-0.50717026 -0.03503647 -0.6766319 -0.6453195 0.93645394 0.041185312 0.30393997 -0.7239261
0.42032525 -0.26050457 0.031253587 -0.20637167 0.11478719 0.10982169 -0.2440837 0.54789275
0.65802157 0.87893164 0.1498348 -0.24723095 -1.4519675 0.093024574 -0.72030723 -0.10677623
0.026478238 0.111536786 0.2786833 0.40222737 -3.6177466 0.5001793 1.0147698 -0.66257226
0.14711605 0.17937115 -0.32401806 0.0898394 -0.2714711 -0.44445446 -0.23303463 -0.06902628
0.010371111 0.3391435 0.10020228 -0.32695407 -0.93149817 0.21868537 0.12663634 1.0239819
0.20365041 0.4855241 0.9520324 -1.0391641 -0.34561217 0.3867631 0.3929039 0.13134673
0.571406 -0.07097649 -2.7679977 -0.7679143 -0.7690782 0.12245711 0.17994116 -0.12035929
0.37809792 0.398315 0.7888234 -0.19905743 0.6533444 -0.45497912 5.35993e-05 0.19305725
-1.0272768 0.45472506 -0.22095373 -0.621396 -0.90705854 1.0040768 0.91846 0.06956142
-0.05471691 -0.68199414 -0.95690227 -0.4527332 -0.1549134 0.33769748 0.09865715 -0.50107926
0.20776573 -0.31125772 -2.0571225 -2.0166616 -0.6174802 -0.45454165 0.06261651 -0.058944665

bias f4 [200]
00000000: 6cbd c53e a37e 6aba f0a1 c73d c332 bc3d
00000010: 5af4 07bf df20 c13e c001 b0be a12c 1fbf
00000020: fc19 25be bcd6 ea3d b6e2 6cbd fe90 38bf
00000030: bbff 76be 536a b5be c0db bb3d 72d9 e6be
00000040: e894 62be 4623 363f e595 b43e b1ba 6fbe
00000050: 47a6 103f 0c61 9c3d ecb5 b83d f81d dfbe
00000060: 5cef 463e 116f e13e d019 933d 489f 6dbf
00000070: e013 23bf 6d61 3dbc 70bf 29be e93b 40be
00000080: 488b e5be d8e3 bb3e ad3a 74bf d117 18be
00000090: 3bbb 7dbf fac0 22be 2a2d 0cbd 684c 1ebf
000000a0: ebc9 2e3e 1161 3c3f f9f1 a83c 4046 093f
000000b0: 7786 f7be ea56 9e3e b0ab 913e c905 91be
000000c0: 0bef 603e f87e 453e 51e5 46be 521e ddbd
000000d0: 9458 01bf 2aeb e23e d036 c1be 9106 e4be
000000e0: e7b4 34bf 1f9f 75be 460d 8bbf b09e 8c3e
000000f0: 8f9f d8be 5e07 f1bd f611 363f 8519 89be
00000100: d7ae 1d3e 2ac4 69bd 5b79 d0be 9123 5e3f
00000110: 3961 31bf aef3 0fbf 39f5 ccbe 8689 1c3e
00000120: 8262 0fbf dc73 f4bd ee53 6b3e 7b6f 333c
00000130: 56bb ffbd 7b74 2dbf 2092 883e 27e0 86bf
00000140: 5cc6 00bf 2a11 d2be f1f4 16be df47 173f
00000150: 3580 08bf 795f 2fbf f52e b8be 0e5d a8be
00000160: f7c7 2d3e 4936 623d 5dd7 bc3c 2943 84be
00000170: 73b6 d13d 01ec 79bd 8dd0 89be b9db a5bd
00000180: 7576 abbe acc8 273d 64fb 0dbf 8896 20bf
00000190: 8754 c23d e0db 4fbf dd54 d2be c2a8 263f
000001a0: a358 6d3e a610 abbe 0eb1 41bf eee9 05bf
000001b0: f31c 06bf 2d70 993d 5747 0cbf d83a 41be
000001c0: 19b4 dbbe 7722 61bf 3791 043e 0a5c 4f3d
000001d0: ceae 64bf 0110 77be e9f5 c5be b8b2 aebe
000001e0: 8a46 71bf 48b6 823e ba1a 61be ee67 073f
000001f0: 6c8d cfbe 3dfd 82be 4709 efbe 5ca6 f8be
00000200: d48d 4e3e 3eaf 36be f19a b1bf a3e7 13bf
00000210: 3728 26be e20c 923d 4130 c5be bc4f b4bc
00000220: 507d 14be f919 82bf 9d35 acbe c065 bebe
00000230: 185a 7dbf 9131 68be 2059 8a3e c660 19bf
00000240: 79b0 7b3d 4a32 db3e 9d3c 393f 40e4 93bf
00000250: 0396 1cbe 11f5 4fbf 0743 0f3f 3292 f6be
00000260: dac6 843e 6213 87bf 53bc c8be 347b 20be
00000270: fe52 a03e 395b c83e 0dfd e7bb 1133 6e3e
00000280: 6e6b 7c3d d873 d6be 6101 49bf 3daa 943e
00000290: 54f4 6ebe b217 06bf 29c6 673e 2b8d 36bf
000002a0: 27f8 91be 6b60 33bf a29d 60bf 9d27 bf3e
000002b0: 2c78 2bbf 61f6 81bd 13d9 963e 23d9 6cbe
000002c0: cab7 e63e b54f 443f 788c 6f3e 0a15 f0bd
000002d0: 883a 2bbe 3a42 cabe f7f0 333e fd25 3cbf
000002e0: 9e44 f93e 5d65 15bf c7e3 a33e 3adc eabd
000002f0: c6c1 123f f142 27bd d2b6 6e3e 141e bcbe
00000300: 8df6 063e 5a12 0fbf d3c1 823e 968e 1e3d
00000310: 01c5 f53d 37d7 b03d 7ab3 b43d bc9e 91bf
0.3862108 -0.0008945262 0.09747684 0.091893695 -0.53107226 0.3772039 -0.34376335 -0.62177473
-0.16123194 0.114667386 -0.057833396 -0.7209624 -0.24120991 -0.3543268 0.09172773 -0.45087773
-0.22127116 0.71147573 0.3527061 -0.23411061 0.5650372 0.07635698 0.09019074 -0.43577552
0.19427246 0.4403005 0.07182658 -0.9282117 -0.637022 -0.011558873 -0.16576934 -0.18772854
-0.44832826 0.36697268 -0.9540203 -0.14852835 -0.99113816 -0.15893927 -0.03422276 -0.61835337
0.17069213 0.7358561 0.020623194 0.5362282 -0.48344776 0.30925685 0.284513 -0.28324726
0.21966188 0.19286716 -0.19423415 -0.10796799 -0.50525784 0.4432004 -0.3773713 -0.4453626
-0.70588535 -0.23986481 -1.0863426 0.2746482 -0.42309234 -0.11768983 0.71121156 -0.26777282
0.15398727 -0.057071842 -0.40717587 0.8677302 -0.69288975 -0.562312 -0.4003084 0.15286836
-0.56009686 -0.11936161 0.22981235 0.010951872 -0.12486903 -0.6775586 0.26673985 -1.0537156
-0.5030267 -0.4102872 -0.14741875 0.5909404 -0.5332063 -0.68505055 -0.35973325 -0.32883495
0.16970812 0.05522755 0.023051912 -0.2583249 0.102398776 -0.061016086 -0.26916924 -0.080985494
-0.33488813 0.04096286 -0.55461717 -0.6272969 0.094887786 -0.8119488 -0.4108037 0.65101254
0.23178343 -0.3341114 -0.7566079 -0.52310073 -0.52387923 0.07492099 -0.54796356 -0.18870103
-0.4291084 -0.87943214 0.1294602 0.050624885 -0.8932923 -0.24127199 -0.38664177 -0.34120727
-0.9424826 0.25529695 -0.21982852 0.5289296 -0.40537584 -0.2558383 -0.46686766 -0.48564422
0.2017129 -0.17840287 -1.3875409 -0.57775325 -0.16226278 0.071313635 -0.38513377 -0.022010677
-0.14500928 -1.0164176 -0.33634654 -0.37187004 -0.989656 -0.22675158 0.27021122 -0.5991329
0.061447594 0.42811805 0.72358114 -1.1554031 -0.152916 -0.81233317 0.5596165 -0.48158413
0.25932962 -1.055279 -0.3920618 -0.15671998 0.31313318 0.39132097 -0.0070797266 0.23261668
0.06162589 -0.41885257 -0.7851773 0.29036132 -0.23335391 -0.52379906 0.22634186 -0.71309155
-0.28509638 -0.70069 -0.8774053 0.3733491 -0.6698024 -0.06345821 0.2946249 -0.23129706
0.45062095 0.76684123 0.23393428 -0.11722763 -0.16721547 -0.39503652 0.1757239 -0.73495466
0.48685163 -0.58357793 0.32009718 -0.11467786 0.57326925 -0.040835325 0.23311928 -0.36741698
0.13179989 -0.5588738 0.255385 0.0387102 0.12000466 0.08634799 0.08823295 -1.1376567

weight f4 [200, 200]
00000000: 0698 2cbd 669a 90bd afd9 29bc ffb0 afbd
00000010: f0af 4a3b bef8 223d 75e8 163d be3a 02bc
00000020: 1df4 83bb cae9 e3bc 2f95 aabd ad52 81bd
00000030: f67a 223c 75ca 82bc afec 2abd c24c 9f3c
00000040: 17d8 acbd b04c b4bd 67ec 2cbd 4cc4 f9bc
00000050: 2ab2 d6bd 3f35 b4bc 67c7 aebd dd97 893a
00000060: 261a 9cbd e2ea dbbc 7267 6dbd 7d7b 08bd
00000070: d1be 47bd 1e3d 95bd 26b4 13bc a1e4 5b3c
00000080: f5d3 0fbd e832 b4bd 77a2 aabc 9db1 8cbc
00000090: 3639 ae3c 8511 86bc 2324 80bd e165 d43c
000000a0: 62c5 5bbd 74b5 79bc 04fb 76bc 3383 f8bb
000000b0: 1dbc 9d3c a40f 72bd 9b9b ff3b 5adb 6bbc
000000c0: 8809 313d 894d 473d 73db 623c f581 8cbd
000000d0: a925 cabd a49d 043b 661e 94bd 2a35 56bd
000000e0: e6ad ac3c 86c9 11bd e75f 80bd 7759 323c
000000f0: 1579 0ebd a1a6 dd3c 0197 c4bd d9d9 4c3d
00000100: 7600 93bd 9881 30bd d52a 81bd f67c 2abd
00000110: 0388 0ebd fa7c 5cba a63c a93b 3085 6a3d
00000120: d549 993b 5c9f f5bc 5f2c b6bd 6c16 0abc
00000130: 2e28 7abd f89e b5bd f586 87bd 2397 eabc
00000140: 6d1f 953c dd63 9a3c 462d 11bd 5d55 123b
00000150: 93da 6bbd e46d 8dbc 8177 dc3c 9505 82bd
00000160: 6dd6 83bd 860a 1cbd ad23 8dbd 6421 073c
00000170: 78bb 43bd d0c1 273c 7b4b 77bc d3f9 6bbc
00000180: 3f95 bd3a 9def 8abb ecba f9bd 925e efbc
00000190: 27b9 a7bd 703f 4a3b f4a7 75bd 0f47 2abc
000001a0: bb79 1ebd 7fa7 bb3c 6059 bbbd e19a 47bd
000001b0: 34fb 7dbc 70db c93c 9e80 90bb 3dac 833d
000001c0: 0894 35bd adab 87bd a781 2abd bf89 a8bd
000001d0: b640 9abd 8f1e 373c d660 91bd a9a9 4dbd
000001e0: b530 0cbd ef73 a2bc 0568 82bd 6790 b33c
000001f0: 062a 9dbd 30f8 853d 90ec b6bd 0bac e33c
00000200: 476b a8bc 2844 c73c 1566 0dbd adb1 9f3c
00000210: 696f 5e3c 0946 5b3c ee19 98bc c2fe ec3b
00000220: de26 a03c 0008 473d ed78 9dbd e691 003b
00000230: 3736 a2bd 1a20 53bd f737 a9bd d92a 4cba
00000240: fcd3 0cbd efbf 263d 5416 e1bd a6e6 2e3c
00000250: adfb 82bd 400f b2bd 346f 73bd 3152 4abd
00000260: 0863 b9bd a7a7 acbd 64be 0a3c 9324 68bb
00000270: 7d22 02bd 6367 73bc 7483 f9bd 7538 123d
00000280: 22e1 e63b 0685 ab3c c6ef 94bd 3b0a ec3b
00000290: f6cf 98bd f442 71bc 88b1 c7bc 89c4 c8bd
000002a0: fdc5 1fbd f872 b4bd 9ee5 94bd 094c 41bd
000002b0: 3fca 303d 852d 923c 6ba9 e5bd aa55 dbbc
000002c0: 451f 8bbd 467b 9dbc 87dd 2fbd ef0c afbd
000002d0: 4cdc 8e3c 9e72 233c a019 b6bc 4422 7ebd
000002e0: 4680 98bc 5570 9d3c 199f 42bd f6cd 293d
000002f0: 2de6 103d a8fe 433b 0bc8 efbc 2d4f 0cbc
00000300: 0727 aabc b4c7 77bd 57dc a4bd 90e7 bbbd
00000310: 4a06 ef3c eae2 6a3d 817b 533d 7477 7bbd
00000320: 0538 15c0 8b7f f9bd 06d1 193f ae37 12be
00000330: 3f28 93be ccdd b1bf 6543 31bf f0b2 3d3e
00000340: 80ac cf3e 4de1 093c 7182 5c3f 0254 6fbe
00000350: e23e 673d 3148 0bc0 b325 00bd 66b9 0c3f
00000360: 5d1c dd3d 23e2 a23e b99e 4dbe 2c46 5e3e
00000370: 8429 5abf f50e 9b3d ef95 ad3c 468b 12bf
00000380: eccb 0b3b 9f3d 303d 6e5a a0bf 4809 6c3f
00000390: a71d 37bf 06fa 163e 79ff 8fbf f860 37bf
000003a0: b7bf e4bf ebbb 0ebf 10e9 7cbf 5c5c fcbc
000003b0: 169a 053f dd9b 38be c5c7 653f b444 c1be
000003c0: 44be 353e 58a1 32c0 f838 c63e 2b53 57bf
000003d0: 206b 37be a898 bbbf 2cb3 07c0 7e42 9ebf
000003e0: 0978 42c0 164a 9abe 330b f33c bbfb e93e
000003f0: 4ca8 91bd f00e 4ebe 6d58 9ec0 c768 a4be
-0.04213717 -0.07060699 -0.010366841 -0.08578681 0.003092762 0.039788 0.036842782 -0.007948576
-0.0040269033 -0.02782144 -0.08329236 -0.06314597 0.0099170115 -0.01596568 -0.041729625 0.01944578
-0.08439653 -0.088036895 -0.04221764 -0.03048911 -0.10483201 -0.021998046 -0.08534127 0.0010497529
-0.07622175 -0.0268454 -0.05795998 -0.033320893 -0.04876596 -0.07287048 -0.009015119 0.013421209
-0.035114247 -0.08798772 -0.020829422 -0.017174536 0.021267515 -0.016365776 -0.062568925 0.025927486
-0.053655036 -0.015241016 -0.015074495 -0.0075839995 0.019254738 -0.059096947 0.007800532 -0.014395559
0.04322198 0.048657928 0.013846266 -0.06860725 -0.09870464 0.0020235563 -0.072323605 -0.052296795
0.021079015 -0.03559258 -0.06268292 0.010885588 -0.03478344 0.027056994 -0.09599114 0.050012443
-0.07177822 -0.04309234 -0.06306998 -0.04162308 -0.03479768 -0.0008410957 0.0051647006 0.057255924
0.004677991 -0.029983215 -0.08895182 -0.008428197 -0.061073475 -0.088682115 -0.06617538 -0.02863652
0.018203462 0.018846447 -0.035443567 0.0022328713 -0.057581495 -0.017264314 0.026912453 -0.06348721
-0.06437383 -0.038095973 -0.0689157 0.008247707 -0.047786206 0.01023908 -0.01509368 -0.014402824
0.0014464034 -0.00423999 -0.12193856 -0.0292199 -0.08189612 0.0030860566 -0.059974626 -0.010392918
-0.03869031 0.022907017 -0.09147906 -0.04873169 -0.015501786 0.024640769 -0.0044098636 0.06429336
-0.044330627 -0.066245414 -0.041627552 -0.08229398 -0.07531874 0.011176719 -0.07098548 -0.05021063
-0.03422614 -0.019830672 -0.063674964 0.021919442 -0.07674031 0.06541479 -0.089318395 0.027791997
-0.020558966 0.024324492 -0.03452118 0.019493902 0.013576367 0.013383397 -0.018567052 0.007232518
0.019549783 0.048591614 -0.076890804 0.0019618212 -0.07920497 -0.051544286 -0.082626276 -0.0007788367
-0.03438185 0.040710386 -0.10990587 0.010675108 -0.063956596 -0.08694315 -0.059432223 -0.04939479
-0.09052092 -0.08430415 0.008468244 -0.003542219 -0.03177117 -0.014856192 -0.12183276 0.035698373
0.007045881 0.020937454 -0.07272296 0.007203368 -0.074615404 -0.0147254355 -0.024376646 -0.09803111
-0.039007176 -0.08810991 -0.072703585 -0.047191653 0.043161627 0.017843971 -0.112139545 -0.026774246
-0.067930736 -0.01922382 -0.042935874 -0.08547389 0.01743903 0.009976057 -0.022229016 -0.062044397
-0.018615853 0.019218603 -0.04751501 0.041456185 0.035375763 0.0029906426 -0.029270193 -0.008563799
-0.020770563 -0.060493186 -0.08049839 -0.091750264 0.029177804 0.05734531 0.051631454 -0.061393216
-2.3315442 -0.1218253 0.6008457 -0.14279053 -0.28741643 -1.3895812 -0.6924346 0.1852529
0.40561295 0.008415532 0.8613654 -0.2337189 0.056456454 -2.1762812 -0.031285953 0.54970396
0.107964255 0.31813154 -0.20080079 0.21706456 -0.852196 0.07571212 0.021189658 -0.57243764
0.0021331264 0.043027516 -1.2527597 0.9220166 -0.7152962 0.14743814 -1.1249839 -0.7163234
-1.7871007 -0.5575549 -0.98793125 -0.03080576 0.5218824 -0.18028207 0.8975795 -0.3774773
0.17748362 -2.7910976 0.3871534 -0.8411128 -0.17911959 -1.4655962 -2.1203108 -1.2364042
-3.0385764 -0.30134648 0.029668426 0.45699868 -0.07112178 -0.20122886 -4.948294 -0.3211119

bias f4 [200]
00000000: 5c50 febb a18f 973e c4d5 943e b685 aebe
00000010: 96c5 94bd 7bca 66be 3ec5 1cbe df41 debd
00000020: b4fa a5be a942 3ebf b0d6 36be 07d4 abbe
00000030: a2da 36bf 6145 43bf 1452 a0bd 8aa1 02be
00000040: 939c 70bd 2996 cabd 6727 44bf 8e29 98bd
00000050: 289e 38bd 0012 d9bd 90e0 2ebe 5527 8cbd
00000060: d6cc 98bd 7069 2cbf 0571 0dbf 6b34 57bf
00000070: 2638 17be 10e1 babd 1331 68be c5eb b3bd
00000080: d15d 9dbe 0683 5ebf 578a 9ebe 8574 82bd
00000090: b2ed 2ebe a2d4 22bf bb55 3cbe 926a 40be
000000a0: 96a4 0dbf c40d a4bd 0083 bfbe 1efb 3bbf
000000b0: 07c6 9ebf 0506 ccbd ea5c 603e 3c09 05be
000000c0: 9615 10bd 8c23 60bc c6a6 483f 2151 ccbd
000000d0: 7cc7 4a3f 95f3 04bd f1ee 4cbe b984 c9be
000000e0: 6f90 44be 7038 48bf c647 17bd 2169 493e
000000f0: e8c9 42be a19a c6bd 311f c6bd 7d28 01be
00000100: cb19 e2be c4df 9ebe 5077 3cbe 3f69 23bd
00000110: 35a5 f4be 9a01 96be aeb0 d3be 8a14 ddbd
00000120: c749 23be 292a 4abf e2ab d9bd 41e2 55be
00000130: d876 e5be 700a 3ebd 1f46 91be 4af3 d4bd
00000140: d1c4 c6bd d73a 15bf 9db3 3cbe 1b72 09bf
00000150: bcc1 35be 100d bcbd f15f cfbd 3632 43be
00000160: de3f 1f3e 24d7 82bf fac1 ddbd 85ca cabe
00000170: d34f 66bd a20e 98be 6988 45bd 5962 c9be
00000180: db08 a1bd 00d9 b9bc d9fa 66be 38b2 b7bd
00000190: 291d efbe b21a 12be 1570 83bd 001b cabe
000001a0: 1efb 9fbd d582 91be d40d afbd 75fd a8be
000001b0: f226 3bbf 8dc3 8fbd 7342 5abe 99cd cdbd
000001c0: d4c3 f4bd 4faf 22bd 505a 2fbf ecde 22bf
000001d0: 5186 f8bd d5dd 54be ad30 0bbf c1ee aebf
000001e0: f1ea fdbc 10f3 b7bd 5ec1 99bd c446 7abd
000001f0: b115 893c 34c6 71bd d179 46bc bed1 9cbd
00000200: 2b2c 85be aeb7 9ebd 1514 eebe 0754 2fbf
00000210: 120a 21bf c427 e9bd 5c87 a73e de8a 44be
00000220: 008f 3dbd 7a42 53bd ab73 efbd c174 3cbe
00000230: d7be 9ebe 73bf d2be 5a39 d4bd 2fbf a3bd
00000240: 74ce f9be 8e4f 9abd 6b91 eb3e 21d7 e03d
00000250: c504 05bf 8777 05be 73e8 42be c152 c6bd
00000260: f119 97be 7e1f 443e 6dc0 8fbd a28b d5bd
00000270: 219f 2abf 34b5 f8bc 8f84 a6bd 4a85 5ebd
00000280: cd94 83bd 0048 f1be 31dc ccbe 8379 cfbe
00000290: 2183 4cbb c286 5bbc 5212 d5be 51c0 9cbe
000002a0: 1cdf 8d3c de14 cdbd 1755 893e b8f2 e5bd
000002b0: 652d 85bd df02 22bf b550 f13d e9f2 77be
000002c0: b8d0 b4bc 3b2d e2bd 4e90 abbd f611 9cbe
000002d0: 3567 05be 76a3 c33e 689a 1bbf 9747 a9bd
000002e0: 2ca1 19bf 1a35 d83d 8aae d4bd 688a 34bd
000002f0: 1a6b d3be aad8 5abe 9030 b4bd afed 2ebd
00000300: 309a 1f3e 22e6 9dbe e08c c7be 894b 2bbf
00000310: c7d8 dfbe 303d 143d 8876 0ebf 0331 6ebd
-0.0077610444 0.29601768 0.2906934 -0.34086388 -0.07264249 -0.22538178 -0.15309617 -0.10852408
-0.32417834 -0.74320465 -0.17855334 -0.33560202 -0.7142736 -0.7627774 -0.07828155 -0.12756935
-0.05874307 -0.09891922 -0.76622623 -0.07429801 -0.045072705 -0.10599136 -0.17077851 -0.068434395
-0.07460944 -0.67348385 -0.5525058 -0.8406436 -0.14767513 -0.091249585 -0.2267497 -0.08785204
-0.3073564 -0.86918676 -0.3096492 -0.063698806 -0.17082861 -0.636057 -0.18392079 -0.18790653
-0.55329263 -0.08010438 -0.37404633 -0.7343005 -1.2404183 -0.09962086 0.21910444 -0.12991804
-0.035176836 -0.01368035 0.78379476 -0.099764116 0.7921064 -0.03245886 -0.20013024 -0.39359072
-0.19195722 -0.78211117 -0.036933683 0.1966901 -0.19022334 -0.09697462 -0.09673918 -0.12613101
-0.44160303 -0.31030095 -0.18404889 -0.039895292 -0.47782293 -0.29298097 -0.41345733 -0.10794933
-0.15946113 -0.7897058 -0.10628487 -0.2088709 -0.44817233 -0.046396673 -0.2837381 -0.10397966
-0.097055085 -0.5829291 -0.18427892 -0.53689736 -0.17749685 -0.09182179 -0.10125721 -0.19062123
0.15551707 -1.0221906 -0.10828014 -0.39607635 -0.05622847 -0.29698664 -0.048225794 -0.39332846
-0.07863017 -0.022686481 -0.22556628 -0.089695394 -0.46701935 -0.14267996 -0.06417862 -0.39473724
-0.07811569 -0.2842013 -0.085475594 -0.33005872 -0.731063 -0.0701972 -0.21314411 -0.1004898
-0.11951414 -0.03971797 -0.6849718 -0.636214 -0.12134994 -0.20787747 -0.5437115 -1.3666612
-0.030995818 -0.08981907 -0.07507585 -0.061102644 0.016733976 -0.05902691 -0.012114004 -0.07657193
-0.2601026 -0.07749878 -0.46499696 -0.6848759 -0.6290599 -0.11384538 0.32720459 -0.19193599
-0.046278954 -0.05157707 -0.11691984 -0.18403913 -0.31004974 -0.4116169 -0.103625014 -0.0799545
-0.48790324 -0.07534705 0.46009383 0.109785326 -0.519604 -0.13033877 -0.19033985 -0.09683753
-0.2951198 0.19152638 -0.07019124 -0.104270235 -0.6664906 -0.030359842 -0.08130752 -0.054326333
-0.06424866 -0.47125244 -0.40011743 -0.40522394 -0.0031206089 -0.013398828 -0.4161554 -0.30615476
0.0173183 -0.10013746 0.2682273 -0.112279356 -0.06502799 -0.6328563 0.11782972 -0.24213757
-0.022072181 -0.11043783 -0.08377133 -0.30482453 -0.13027652 0.38210648 -0.6078248 -0.08265608
-0.60011554 0.10557003 -0.10384853 -0.044077307 -0.4129265 -0.21371713 -0.08798325 -0.04270714
0.15586162 -0.3083964 -0.38974667 -0.6691213 -0.43720075 0.036191165 -0.55649614 -0.05815221

weight f4 [1, 200]
00000000: c362 ed3c 6c22 343e dceb 873d ff89 39bf
00000010: 9b03 77bd 1987 dfbe 2fa9 af3a d5d2 18bf
00000020: 3296 e3be c295 73bf e760 3dbf a09c 923e
00000030: 11a6 36be 8a23 a5be f4c8 65be 7258 81be
00000040: fedc 163e e069 323c 04c2 88bd 0440 78bc
00000050: 3e08 2f3c d1c5 2c3e 8cc9 ac3e a02b ccbc
00000060: 10f8 b23c ba39 8dbe 4007 c4be 65fc bebe
00000070: 4773 af3c 5019 bb3c 9401 8b3e f374 1c3d
00000080: 880c c6be 6979 69be ccb4 c1bf 877c 3bbc
00000090: 4f0d c73e 7f21 ddbe 6883 f33e e58e 0a3e
000000a0: 1bd6 a7be e509 e9bc adcd 12bf 0b00 9bbe
000000b0: 15a8 8bbe 911f 483e ae1b d5bd e831 ef3d
000000c0: ddfa 85bc 6cca 6e3e 6198 433d 6541 0abc
000000d0: c723 553d c06c b13c ca92 62be d745 bbbe
000000e0: eccf 4bbf fcb1 09bf a2c5 5c3c caa0 87be
000000f0: 084b 7d3e 2944 c73c 5b3e 68bc c6b2 9abc
00000100: 84ac 2fbf 2b4d 69bf cd2e 94bd 0faf a13b
00000110: 2f94 8abe f06e dd3d a835 55be b60a a33c
00000120: 6536 b73e ee7f 983e 73fa fa3b 2096 e1bd
00000130: 99d1 043f 3977 45bc f09a e63d 4123 d0bb
00000140: d8f0 443d b018 c33d 0e8a 2b3e b3d4 0f3e
00000150: e874 d03d 5c6a 82bd 7048 bcbc e84c 953d
00000160: fe95 793d 4c99 f13d ee45 99bb 6475 f93d
00000170: f4ad f4bb 52a0 9f3e cea5 953c 42d0 e13d
00000180: b537 4d3e 0ccf 0bbd bb5d 02bf 7011 41bd
00000190: fea6 7dbf cd96 fd3d 2643 2a3c d79f e13d
000001a0: 3269 dbbb 9a29 f9be 9fbf 01bc 89ea d4bd
000001b0: 7e11 42bf e0b5 4fbb c258 e9be 7ec7 253d
000001c0: dfba b1b9 5c07 063d 707b d5be 2b6c 513d
000001d0: 9277 dabe db1a 6a3e 8a59 3ebe 5540 f1be
000001e0: 8602 eabe 5bdb ebbc 18c0 c939 29ee cc3c
000001f0: dce8 ea3d 0199 ccbc 031e edbc 2eae 91bc
00000200: a13c 463d 2436 8fba 0e15 103e 03ac ffbe
00000210: f633 85be 835f 853d 6508 2f3d d577 923e
00000220: c85a 4abd 2453 863d 02df 6abc c485 66be
00000230: c428 cd3e bfc4 1fbf fabf d53c 2879 ba3c
00000240: 3a09 e83b 34e1 f93b 434e f1be 9dd8 423d
00000250: 8eab 2cbe 7c3b cebd 8ce5 4a3e 4f4d aa3a
00000260: fd7f 12bf 3a2a 263d 6ad7 eebb b81b ce3c
00000270: 07e9 fd3d 7f30 babc 93fc f6bb 3c54 813c
00000280: f89f b93c ec8a 9f3e c1b9 52bf 461e 1fbf
00000290: aac0 de3b 9c99 f0be 31ee 2fbf f898 cd3e
000002a0: 805c 0d3d ee0f d53d 5864 463d 102b 133e
000002b0: cbac e63c 4790 6ebe 977f 603d fba8 5f3e
000002c0: d2b8 e13b 29b8 d5bc 78bd 77bf cffc a33d
000002d0: d42e 78bc 15f3 9dbd 0dbd cf3e 304a c3bc
000002e0: 9a7a c73e 88c8 903d f0e2 b53c 6e08 1dbc
000002f0: 7b34 ffbe c60c 25bf 4b49 e83b 52f9 d03c
00000300: 0e9d 1abe 8f17 5d3e 062e 8ebe 3787 763e
00000310: 2d00 99be 0b9a 0c3f b581 f6be 0401 0fbb
0.028977757 0.17591256 0.066367835 -0.7247619 -0.060306173 -0.4365776 0.0013401861 -0.59696704
-0.44450527 -0.9515039 -0.73975986 0.2863512 -0.17836787 -0.32253677 -0.22439939 -0.2526279
0.1473274 0.0108895 -0.066776305 -0.015151981 0.010683117 0.16872336 0.33747518 -0.024923146
0.021846801 -0.27583104 -0.3828678 -0.37301937 0.021417273 0.022839218 0.27149642 0.03819747
-0.38681436 -0.2280022 -1.51333 -0.011443264 0.3887734 -0.43189618 0.47561193 0.13531072
-0.32780537 -0.0284471 -0.57345086 -0.3027347 -0.27276674 0.19543292 -0.1040567 0.11679441
-0.016354972 0.23319405 0.04775274 -0.008438443 0.052036073 0.021658301 -0.22126308 -0.3657672
-0.7961414 -0.5378721 0.013474854 -0.2648986 0.24735653 0.024324493 -0.014175023 -0.018884074
-0.6862261 -0.91133374 -0.07235489 0.0049341987 -0.2706618 0.10812175 -0.2082125 0.019902568
0.35783687 0.29785103 0.0076592504 -0.11014962 0.5188232 -0.012052351 0.11260021 -0.006351859
0.04808125 0.09526193 0.16751882 0.14045982 0.10178548 -0.06367943 -0.02298376 0.07290059
0.06093406 0.11796817 -0.0046775257 0.121805936 -0.007467026 0.31177002 0.018267538 0.1102605
0.20040782 -0.034133002 -0.5092427 -0.04713577 -0.99082935 0.123822786 0.010391986 0.11016815
-0.00669589 -0.48664552 -0.007919221 -0.103962965 -0.7580794 -0.00316941 -0.4557553 0.040473454
-0.000338993 0.032721862 -0.41695738 0.051128548 -0.4266935 0.22861807 -0.18588844 -0.47119394
-0.4570505 -0.02879112 0.00038480829 0.025015907 0.11470196 -0.024975302 -0.028944975 -0.01778325
0.048397664 -0.0010926169 0.14070532 -0.49935922 -0.26016206 0.06512358 0.042732615 0.2860705
-0.049402982 0.065588266 -0.014335396 -0.22511965 0.40070164 -0.62409586 0.026092518 0.02276285
0.007081178 0.0076257233 -0.4713002 0.04756986 -0.16862318 -0.100699395 0.19814128 0.001299301
-0.57226545 0.040567614 -0.007288863 0.025159702 0.12397962 -0.022728203 -0.0075374334 0.015787236
0.022659287 0.31160676 -0.8231469 -0.6215557 0.0067978697 -0.46992195 -0.68722826 0.40155768
0.034512043 0.10403429 0.04843554 0.14371896 0.028158566 -0.23297225 0.05480918 0.21841805
0.0068884874 -0.026088791 -0.9677348 0.08007204 -0.015147883 -0.0771238 0.40573922 -0.023839086
0.38960725 0.07069498 0.022202939 -0.009584529 -0.49844727 -0.64472616 0.0070888153 0.02550951
-0.15098974 0.21591018 -0.27769488 0.24075018 -0.29882947 0.5492255 -0.48145834 -0.0021820674

weight f4 [200, 15]
00000000: 2872 37be 53d5 efbc eb81 f6bd c1a3 de3d
00000010: 0c85 76be 336b e3bc c35d 723c ef89 afbe
00000020: 714c 4cbe 14ec 7fbc 70c3 b4be 3526 143e
00000030: 9f59 a3be e576 183e 69e8 ce3d b17a dabe
00000040: bbbb 2f3d 3ed2 c33d 5aa0 803f 07c5 543d
00000050: 9719 f33e e0b0 8bbd 0a6b 52bf f74a 2f3f
00000060: df76 92be 7892 353f 29ec a8be da74 55bf
00000070: b4b6 7fbf 32a6 ed3e 1db2 c4be 1a16 aabe
00000080: b505 143f ce40 a8be 4cf4 58be 9e1a 6d3c
00000090: f7d4 de3e 0bd2 833f 78df 003f d45c dc3e
000000a0: 361e 71bf 2276 1a3f 41e2 babd 1a2a 5cbf
000000b0: 4b92 3abf cd97 893e 429b 18bf 08cc 8ebe
000000c0: 6931 76bf f5bb 22bf 2557 80bf 1555 dbbd
000000d0: 764f 4abf ecc2 8dbc 1df7 81bc fc1c 973e
000000e0: d533 da3e 156c edbe df6a 96be dc1c 54bf
000000f0: b72a 173f 6da4 453f 5392 37be 4070 a1be
00000100: 905f b6be 7bb1 99be 807d df3d 2cb3 0cbe
00000110: 90ec 043f 5fb4 c2be 1a4a b2be ad97 46be
00000120: 5798 013d 762f 99be 4faa 953e 63cb 353c
00000130: 03d4 0f3f 8264 3f3f 08a6 343e f0b4 4b3e
00000140: c0a6 3fbf f4a2 563d 02a4 0e3f b932 f7be
00000150: 5b0f d43c fed4 88bf f2e0 c1bf 3c99 e5bf
00000160: 2fcb 53bf 2e59 963f c54c 30bf 3a70 2e3e
00000170: ed63 63bf 7ea8 1a3f 49ad 26bf 0cfd 29be
00000180: e228 6fbf 4251 7dbe bc21 bfbd e099 653d
00000190: ab8b 993e d8e5 8e3e 48f6 483f f73b 323f
000001a0: 19c7 a93e cc19 c53e 733b 98be 7325 b33e
000001b0: d0a2 103e 62a5 40bd 08d8 8f3c caad 153f
000001c0: 32ae 34be 5997 eb3e 7404 0ac0 7760 92bf
000001d0: f297 8ebe f0ad db3e 6c5a e9be 0bb4 873d
000001e0: 06da 5a3e 2f4e 993e 65ff 1fbf 12d0 8f3f
000001f0: b918 2a3f 4bbf 84be fb5f d2bd d930 82be
00000200: eab5 2ebf 92fc 12bf 0a03 0fbc cf6b 583d
00000210: 4c2d cfbd 4f26 2cbf 392e 57be a8f2 dcbc
00000220: 313c efbe b387 76bd bf95 2cbf c36c 51be
00000230: 1a82 9cbe bd1c 4b3d 2ed3 ab3e a4ef 82c0
00000240: 4e2c 343f 1978 3a3e f685 053e 44f9 523e
00000250: 6ece 04be 2f12 a3bd e723 9cbf bda3 91be
00000260: 4137 563c 5c1c 353f 91f7 9cbf 8a58 80bf
00000270: 0e2f debe cfcc 78bf a569 a83d 47ce 003f
00000280: a7d6 713d 731a 24bf 9d41 d73e 18e6 14be
00000290: bfbc 85bf 128b 953e 59dc f2be 0238 03bf
000002a0: ec1c 783f 5d89 a13c 0a89 f5be f38f fa3d
000002b0: d6ba d83e 2686 3abe a6df 12bd fb96 0d3d
000002c0: a3e2 e33e a8cc b03d 9799 293f 244c bf3e
000002d0: debc 223e b35b 03bf e15e 7f3e b847 fd3d
000002e0: d5f1 2bbe 67a5 813e 50fa 853e d6a1 9fbe
000002f0: b04c 513f 37c2 8f3d 7bcb 653d 2d8c 3abf
00000300: dbaf a7bf 63f7 89bf 6545 71bf ffee 9cbd
00000310: 4fcb 3fbd 11ad 813f 5a8f 8d3e cb24 61be
00000320: e8d7 94be e345 3e3d b3bb ab3f 3711 7f3e
00000330: 71a8 a93b 39d7 42bf ce26 98bd d305 343f
00000340: 2873 193f 418a 21bc 8fcc b63c 31ef b83d
00000350: 11b2 0f3f b6c0 e03e f14b c83c d283 853c
00000360: d038 893c 7e37 1d3c e49b 763f 59e0 c8bf
00000370: e545 693e 7fc7 fabc c446 f4bd 4aa5 2cbe
00000380: 1565 403e 929a 063e 71b4 97bf 5eb8 3fbe
00000390: 9af4 173e fcba d5be df2c a4be 4d6f 34bf
000003a0: 92ca 08c0 94ad 2c3f 5329 b0bf fcac dc3e
000003b0: e58f ae3c 1fe6 cf3e b7e8 1cbe 3fe9 593c
000003c0: f181 11be eaff 0a3e 177e 3bbf 8f1b 893e
000003d0: 1d87 adbe 6175 14be 3717 d43d 7360 eabd
000003e0: 089d 5e3d eb44 12c0 d286 913f 04e3 143f
000003f0: 9661 fa3e 7f6f 17be cd2b eb3e f9fc 04be
-0.17914641 -0.029276526 -0.12036499 0.10871077 -0.24074191 -0.027761078 0.014792862 -0.34284922
-0.19951035 -0.01562025 -0.35305357 0.144677 -0.31904313 0.14889105 0.101029225 -0.4267173
0.042903643 0.09561585 1.0048935 0.051945712 0.4748046 -0.068208456 -0.8219458 0.6847376
-0.28606316 0.7092662 -0.32992676 -0.83381426 -0.9988816 0.4641586 -0.3841714 -0.33219987
0.5782121 -0.32861942 -0.21186942 0.014471678 0.43521854 1.0298475 0.50340986 0.43039572
-0.94186723 0.60336506 -0.09125186 -0.8600174 -0.72879475 0.26873627 -0.59611905 -0.27890038
-0.96169144 -0.6356805 -1.0026594 -0.107095875 -0.790275 -0.01730486 -0.015864903 0.295143
0.4261767 -0.46371523 -0.2937841 -0.82856536 0.5904955 0.7720402 -0.17926912 -0.31530952
-0.35619783 -0.3001822 0.10912609 -0.13740224 0.51923466 -0.38028237 -0.3482216 -0.19393797
0.031639423 -0.29919022 0.29231498 0.011095854 0.5618288 0.7476274 0.17641461 0.19893241
-0.74863815 0.052401498 0.55719006 -0.48280886 0.025886228 -1.069 -1.5146773 -1.7937388
-0.8273191 1.1745965 -0.6886714 0.17034999 -0.8882435 0.6041335 -0.6510816 -0.16600436
-0.9342176 -0.24738029 -0.09332606 0.05605495 0.2998937 0.27909732 0.78500795 0.6962275
0.33159712 0.38496244 -0.29732856 0.3498951 0.14124608 -0.04703272 0.017559066 0.58468306
-0.17644575 0.46013907 -2.1565218 -1.1435689 -0.278503 0.4290614 -0.455768 0.06626137
0.21372232 0.29942462 -0.62499076 1.1235373 0.66443974 -0.25927195 -0.10272213 -0.25427893
-0.6824633 -0.5741664 -0.008728752 0.05283719 -0.101160616 -0.67245954 -0.21013726 -0.026971176
-0.4672561 -0.060188007 -0.67415994 -0.20451646 -0.3056801 0.049587954 0.33559555 -4.091753
0.70380104 0.18209876 0.13039383 0.206029 -0.12969372 -0.079624526 -1.2198457 -0.28445235
0.013074697 0.707464 -1.2263051 -1.002702 -0.43395275 -0.97187513 0.08223275 0.50314754
0.0590426 -0.6410286 0.42042246 -0.14540899 -1.0448226 0.29207665 -0.47433737 -0.51257336
0.9691913 0.01971882 -0.47956115 0.122344874 0.42330045 -0.18215236 -0.03585782 0.034567814
0.44508848 0.08632785 0.66249985 0.37362778 0.1589236 -0.51311797 0.24938537 0.12367195
-0.1679147 0.25321504 0.26167536 -0.3117816 0.8175764 0.070194654 0.056102257 -0.7287014
-1.3100542 -1.0778621 -0.9424651 -0.076627724 -0.04682475 1.0130941 0.2764843 -0.21986692
-0.29070973 0.046453368 1.3416656 0.2490891 0.0051775505 -0.76109654 -0.074292764 0.7032139
0.5994134 -0.009859622 0.022314338 0.09029997 0.5613108 0.43897027 0.024450274 0.016298208
0.016750723 0.00959575 0.9633162 -1.5693465 0.22780569 -0.030612705 -0.1192756 -0.16859928
0.1878856 0.13144901 -1.1851941 -0.18722674 0.14839402 -0.4174422 -0.32065484 -0.7048233
-2.137364 0.6745236 -1.3762611 0.43100727 0.021308849 0.40605256 -0.15323149 0.013300239
-0.14209725 0.13574186 -0.7323927 0.26778838 -0.33892146 -0.14497901 0.103559904 -0.114441775
0.054348975 -2.2854564 1.1369269 0.581589 0.48902577 -0.14788626 0.45931855 -0.12987126

bias f4 [200]
00000000: 8642 9bbe 130a 4fbe a3a0 62bf 9a3d d43e
00000010: 7230 bcbe 7863 6fbe 9168 b23e 71aa bfbd
00000020: b46d 793d 7f40 c7be d807 34be 5647 86bf
00000030: 2633 02bf 3f67 e9be c03e 32bf 3830 0e3e
00000040: acca dd3d b7db 9dbf cbab 34bf 5a73 d8bd
00000050: 8f7e b33d 3608 403f d11e 613f 73da 853e
00000060: 699d 0d3f c304 d8be b88f 0abf aad1 dc3e
00000070: 9318 8b3e d580 5ebf 32fd dfbe ad1d 5e3e
00000080: 54c8 ab3e bbd6 eabd 2878 46bf f8aa 0dbf
00000090: f309 e83e 28f9 21bf 6125 19be f588 bdbe
000000a0: b19d 1b3c 4963 813e 0d07 f8be 0492 46be
000000b0: 8445 313f 234c c23d 258f 44bf 8689 763e
000000c0: 866f ddbe b82d 05bf 4971 40be 76d2 2fbf
000000d0: fbe7 a83e 1766 e2be 02b2 843e c1cb 843a
000000e0: d871 e23e 33f0 1d3f 92f9 aebe 0329 afbe
000000f0: 6b43 16bf aa10 a6be b422 89bf c766 b3bd
00000100: efaf e63e 112f 6ebe 031b 5b3e 8357 b1be
00000110: b06d 36bf 98c5 41bf 2460 c03d 2a17 4f3e
00000120: cb8b 083f 23f2 a5bc 750b afbe 8f22 b73e
00000130: 0562 6fbe 0b78 97be 0a89 14bf 1a71 48bf
00000140: 8029 f6be ec71 06be b394 3d3e 101e 37bd
00000150: 2aa1 673e 07b7 59bf 7931 dabe 17f5 a73e
00000160: 00b3 42bd f6e8 24bf c30d 443e cb9a eabe
00000170: 2862 173d 3511 b83d 1fec d83e d27b 5ebe
00000180: 0ae3 b6bf b23c c1bd 745b 453f d6ab 2ebf
00000190: a7b3 163f 5107 5cbe a5d5 0dbf 38ee 5d3e
000001a0: 6222 f3be 61f9 05bf 3adb 653f e4da 8b3e
000001b0: 94bc 163f f696 043e d52b 15bf 505d f5be
000001c0: 6e34 84be 9ce6 cebe 37e8 2dbf 62ad 363e
000001d0: bfeb ef3c a0c0 05be f365 eb3d 4baf 393e
000001e0: 80d5 5dbe c640 e93d 8240 173e 2243 23be
000001f0: 7150 13bf f849 d43e 4be6 b4be bebf 9cbd
00000200: 6a9b c9be a7c0 bd3e e3b8 7abe 4bd5 14bf
00000210: 523f 1ebf f780 e0be 9451 af3e 2766 80be
00000220: f203 db3e f371 2ebe 257c aa3e b17c bcbe
00000230: 535d 583d 1175 6ebe b8ac 023e 1493 f9be
00000240: 0bc1 bf3e 779d afbe 14cb 83bf 07b2 2fbe
00000250: 6985 95be c77c dabe 6a25 0d3f fd28 a03d
00000260: 8070 253f 8ff0 96be 539c 68bf 01e8 3b3e
00000270: 209d 0b3e 1143 76be c584 69bf f368 793e
00000280: d93b 92bd fefc 09bf 0a0c cfbe bdc4 9e3e
00000290: b231 e63d 4ab5 593d 3e1f 263e 7ccc 42bd
000002a0: 8ccd 14be 520a c83d 0887 443f b5ac e3bd
000002b0: d5de 583f 489f 8fbe 512e 513f aa9a a03e
000002c0: cd5a dcbe 77d0 c0be 1cab d13c 4501 bfbe
000002d0: 382d 8abe 3f6e 71bc 1268 023e c179 21bf
000002e0: b567 653e 3af8 cd3c d6fb d3bd 06ee 84bd
000002f0: b8f4 843e fab5 52bf a129 2dbd aa4e a7be
00000300: 34db f03e c6af 913e 4b83 653f cdf9 b63e
00000310: 9abd 11bd a895 1fbf 07a2 48bf b6e3 16b9
-0.3032419 -0.20218687 -0.8852636 0.41453248 -0.3675571 -0.23377788 0.34845403 -0.09358681
0.060895637 -0.38916394 -0.17581117 -1.049052 -0.50859296 -0.45586583 -0.69627 0.13885581
0.10829672 -1.2332677 -0.70574635 -0.105688766 0.087643735 0.7501253 0.8793765 0.26143226
0.55318314 -0.42191133 -0.5412555 0.4312871 0.27167186 -0.8691533 -0.4374786 0.21691008
0.33551276 -0.11466738 -0.77527094 -0.55339 0.4532009 -0.6327081 -0.14955665 -0.37018552
0.009498046 0.2527106 -0.4844288 -0.19391638 0.692467 0.09487178 -0.7678092 0.24075899
-0.43249148 -0.52022886 -0.18793215 -0.6868051 0.32989487 -0.44218513 0.2591706 0.0010131524
0.4422748 0.6169464 -0.34174782 -0.34210977 -0.5869662 -0.3243459 -1.0713716 -0.087598376
0.45056102 -0.23260142 0.21397023 -0.3463708 -0.7126112 -0.7569213 0.09393337 0.2022368
0.5333831 -0.020257061 -0.3418843 0.35768554 -0.23377235 -0.29583773 -0.58021605 -0.7829758
-0.48078537 -0.13129395 0.18513756 -0.044706404 0.22620073 -0.850449 -0.4261587 0.32804176
-0.04753399 -0.6441797 0.19145875 -0.45821223 0.036958843 0.08987657 0.42367646 -0.21726921
-1.4288037 -0.09435405 0.7709267 -0.6823095 0.5886788 -0.21487166 -0.5540412 0.21672904
-0.4748717 -0.52333647 0.8978764 0.27315438 0.588815 0.12948212 -0.5827001 -0.47922754
-0.2582125 -0.40410316 -0.67932457 0.17839578 0.029287217 -0.13061762 0.11494055 0.18133275
-0.21663475 0.11389308 0.14770702 -0.15943578 -0.5754462 0.41462684 -0.3533195 -0.076537594
-0.39376384 0.37061045 -0.24484591 -0.5813796 -0.6181537 -0.43848392 0.34241927 -0.25077936
0.42776448 -0.17035656 0.3329784 -0.36813882 0.052823376 -0.23286845 0.127612 -0.48745024
0.37451968 -0.34299824 -1.029635 -0.17157756 -0.29203346 -0.42673323 0.55135214 0.07820318
0.64624786 -0.29480407 -0.9086353 0.18350221 0.13634157 -0.24049021 -0.91218215 0.24356441
-0.07140321 -0.5390166 -0.40438873 0.31009474 0.112399474 0.053151406 0.16222855 -0.047558293
-0.14531535 0.097675934 0.7676854 -0.111169256 0.84715015 -0.2805121 0.817113 0.31368
-0.43038025 -0.37659046 0.025594287 -0.37305656 -0.26987624 -0.014735757 0.12735012 -0.63076407
0.22402842 0.025142778 -0.10350768 -0.06490712 0.25967956 -0.82308924 -0.04227603 -0.32677203
0.4704224 0.28454417 0.8965346 0.35737458 -0.03558121 -0.6233773 -0.78372234 -0.00014389944

weight f4 [200, 200]
00000000: 312a 743d 79be 4fbc 6365 ebbc b31f e1bd
00000010: 05d1 963c a73b a5bd 8d2f 973c 4c95 853b
00000020: 376e a1bd 302d 33bd aed0 1ebd b847 b6bd
00000030: e325 67bd 2b6c eabc e1f6 d93c 0f96 213d
00000040: a033 3abd a066 bebd 9172 423d 0505 86bd
00000050: a55e 02bc 233f 68bd bd2c c63c ed01 83bc
00000060: 7326 63bd 0f71 a3bd 8353 e2bc 00d4 3ebd
00000070: 2a9b 5ebd 85d7 973c 93dd 77bd 9165 c0bd
00000080: 2bde 703d cc99 febc a25c e13c 6a9f 56bd
00000090: d09a b4bd 9816 c63c d17f c5bc a9a2 4abd
000000a0: 9efe 2d3d cf45 25bd e007 babc a5dc 86bc
000000b0: 4a26 59bd 99d1 c4bd f3f1 713c b022 bbbd
000000c0: 448f 89bd 580c 4f3c d6ba 0bbb 3a45 5e3d
000000d0: 8d8f 07be f546 81bd 4d4b 093d 0ea7 9abd
000000e0: d98b d93b 475f aabd ad5e 183c 0953 dd38
000000f0: 376f 25bd eec4 213d 8c28 7b3d 8c0e f7bd
00000100: b798 b53c cfe3 fbbc 95ef 0dbd 1f6e aabd
00000110: be52 2d3d d0de ca3c 5e78 213d f24d d2bd
00000120: 0016 b4bd adb4 12bd 9af4 53bd ef4a 2dbb
00000130: 128c ddbc 18e8 3abc 6f8d a4bd 04ba 053c
00000140: 1e46 80bd 53cb 793c ce48 98bd 2048 41bb
00000150: accc f5bb 2081 b8bc 4c19 f0bc f33f febc
00000160: 0ac3 5bbd e171 d23c 7e71 12bc 905e bdbd
00000170: 6600 193d 7d8d 85bd 9192 c5bd 2e03 5a3d
00000180: e1f7 44bd ae75 90bd 678b 383b ff04 a2bd
00000190: 4e28 ac3c e24c d4bd 9d6c 8bbd c574 9cbb
000001a0: 1627 243d c2e3 e43c f215 6cbd 32b9 ef3c
000001b0: aea8 94bd a7f1 28bd 4d30 01bd 383c babd
000001c0: da87 62bd 8f7a b03c 83df ecbd f535 88bc
000001d0: 8aa4 debd 5e6e 923d 5bf2 7c3c 5bf3 e7bd
000001e0: 4e6d adbd 572e a8bc 2f83 adbc 7ff8 21bd
000001f0: c194 543d d39a e6bc 4fa3 a4bd 76fd 9fbd
00000200: 3524 8cbc e513 1c3d b26c 693d aa86 d7bc
00000210: 9635 2cbd d23d d0bd 136c 73bd 32d8 6ebc
00000220: 4701 29bb 142d 0a3d eb1f e5bd 46a4 92bd
00000230: 8a25 d63d 932a 67bd 2e4f f9bc 289e b8bd
00000240: 6b53 ebbd 2970 8dbd b37a 6fbd ce20 273d
00000250: c172 c9bb 3fa4 aebd 267b 90bd dbce eb3c
00000260: 7fc6 3a3d c6f7 1bbe cbea fd3b 5971 f2bc
00000270: 87b4 21bd edb3 8f3c f0b3 413d 0c2c 70bd
00000280: 08cb 30bc 4f36 323d 37cf aebd faf6 d0bd
00000290: 8f6d aebd e7aa 393d 70a8 c53c ed58 9a3c
000002a0: 6f07 b23c 3157 c5bd c8f5 453b c3a2 733d
000002b0: f00e 37bd 93f7 51bd fd3b 04be 22e4 d9bd
000002c0: 1ae8 d3bd b03a b7bb 0aba d0ba e29e d73c
000002d0: 7cd0 fe3c d625 9fbc c63f 10bd 6b1b 6cbd
000002e0: 7f59 afbd 93b8 793c 04ff 863c c22b 59bd
000002f0: 984f c93c 9da6 123c 95e2 0bbd c328 e6bd
00000300: 152a 973d f723 a4bc 99fc c1bd 9d44 81bd
00000310: ac08 17bc ae4a 93b8 168f 73bd 188f 34bd
00000320: 39dd cdbc 625e 93bd 762a fbbd 4d55 ecbd
00000330: 2c80 44be 6a3f ca3e 31d4 e93d f616 e93f
00000340: 0d12 683f ebae 6b3e 1c6f 6d3e fb26 dc3e
00000350: 17e3 a2bd f93d 043f a515 363f 89a8 323e
00000360: 9378 58bf 63e1 da3c 5a29 0fc0 e67d c2be
00000370: b2fb 333f ba1d 0abf f29d 833e 2024 19bf
00000380: 21f2 573d d1ee 6cbf 3119 4f3f 1fd8 a93e
00000390: a5e6 b03c eb4e 27bd c908 02bf 4f33 8e3d
000003a0: 34eb 54c0 74dc ffbf c2c0 07bf 931c 203e
000003b0: 3d58 bc3f 1dcc a5bd d523 c0be 2af6 123f
000003c0: 32b9 42bf 6bbd b13e 7e23 30bf e4c4 603e
000003d0: b159 4b3f e1b6 c83e 73c4 52be c4a7 c93e
000003e0: dfce d1be db57 043f 9335 753d d410 b2be
000003f0: 9b30 a73e 45cd b13d 7e66 3dbf 3bfe db3e
0.05961055 -0.01267969 -0.028734868 -0.10992374 0.018410215 -0.080680184 0.018455291 0.0040766355
-0.0788235 -0.043744266 -0.03877323 -0.08900398 -0.056432616 -0.028616032 0.026606979 0.039449748
-0.04545939 -0.09296918 0.04747254 -0.06543926 -0.007957135 -0.056700837 0.024191255 -0.01599213
-0.05545659 -0.079805486 -0.027627712 -0.046588898 -0.054347195 0.018535385 -0.060514044 -0.09394372
0.058805626 -0.031079195 0.027509991 -0.052398123 -0.08818591 0.024180695 -0.0241088 -0.04947153
0.04247915 -0.040349778 -0.022708833 -0.016462633 -0.05301503 -0.0961029 0.014767158 -0.091374755
-0.06716779 0.01263722 -0.002132108 0.05426524 -0.13238354 -0.06312362 0.033519078 -0.075513944
0.0066389856 -0.08318954 0.009299916 0.00010553568 -0.040389266 0.039494447 0.061317965 -0.120633215
0.022167547 -0.030748276 -0.03465231 -0.08321785 0.042315237 0.024764448 0.03942143 -0.10268773
-0.08793259 -0.035816837 -0.051746942 -0.002644237 -0.02704433 -0.0114078745 -0.08034789 0.008162025
-0.06263374 0.01524623 -0.074357614 -0.0029492453 -0.0075012054 -0.02252251 -0.029308937 -0.031036353
-0.0536528 0.025689067 -0.008938191 -0.09246552 0.037353896 -0.065211274 -0.09647096 0.05322569
-0.04808796 -0.070536956 0.0028159262 -0.07911109 0.021015313 -0.10366227 -0.06807826 -0.004774662
0.040076338 0.027940635 -0.057638116 0.029263113 -0.072587356 -0.041246083 -0.031540204 -0.09093517
-0.05530534 0.021542815 -0.11566069 -0.016627291 -0.10871227 0.07149957 0.015438641 -0.11325713
-0.08468114 -0.020529909 -0.021180717 -0.039543625 0.051899675 -0.028149998 -0.08038961 -0.07812016
-0.017107109 0.03810491 0.056988426 -0.02630933 -0.04204329 -0.10168041 -0.05942924 -0.014577912
-0.0025788115 0.033734396 -0.111877285 -0.07160239 0.10456379 -0.056437086 -0.030433264 -0.09014541
-0.1149052 -0.069061585 -0.058466624 0.04080277 -0.006147713 -0.08527421 -0.07054739 0.02878516
0.045599457 -0.15231237 0.007748937 -0.029595064 -0.039478805 0.01754185 0.047290742 -0.058635756
-0.010790594 0.043508824 -0.08535617 -0.10203357 -0.085169904 0.045329 0.024128169 0.018841231
0.02173206 -0.09635771 0.0030206311 0.059481394 -0.04469198 -0.051261496 -0.12913509 -0.10639216
-0.10347004 -0.005591713 -0.0015924585 0.026320878 0.031105272 -0.019427221 -0.03521707 -0.057643335
-0.08561992 0.01524176 0.016479023 -0.053020246 0.024574086 0.0089508565 -0.034151632 -0.112382434
0.073810734 -0.02003668 -0.09472007 -0.06311915 -0.009218376 -7.0234164e-05 -0.05946263 -0.044081777
-0.025129901 -0.071957365 -0.12263958 -0.11539707 -0.19189519 0.39501506 0.114174254 1.8210132
0.90652543 0.23015945 0.23186916 0.4299849 -0.0795347 0.5165706 0.71126777 0.17447104
-0.8455898 0.0267188 -2.236899 -0.37986678 0.7030593 -0.5395161 0.2570644 -0.5982075
0.052721146 -0.92551905 0.80897814 0.331727 0.021594355 -0.040846746 -0.50794655 0.0694338
-3.3268557 -1.9989152 -0.530285 0.156359 1.4714428 -0.08095572 -0.37527338 0.57406867
-0.76063836 0.34714827 -0.68804157 0.21950108 0.79433733 0.39202026 -0.20582752 0.39385808
-0.40978143 0.51696557 0.059865545 -0.34778464 0.3265427 0.0868173 -0.73984516 0.429674

bias f4 [200]
00000000: 8cdd fabd b37f dcbd 59ed cfbd 34ff d2bd
00000010: ac29 c0be 79a8 043e b245 bcbe 4146 46bd
00000020: a7da 8bbe ff04 a2bd 648d 07bf da41 ddbd
00000030: 4c79 11be 3faa 2dbd 399e 4bbd f72e 0bbf
00000040: 1935 e5be 274a adbd 2975 c3bd 416b c4bd
00000050: 2fcf 5bbe 59f7 b93d 78d8 afbe e663 97bd
00000060: b6d1 9fbd 31d5 0abe 25a2 2fbe f4c6 f4be
00000070: 19e5 c7bd 25dd 88bd a64c 1ebf d8bc 3cbe
00000080: 3ab4 d8bc 3e19 283a 548d fbbd 0220 5cbd
00000090: 2c32 fcbd 84fc 3a3d 9d24 d1be 4ea0 18be
000000a0: 6940 4dbf c72a a0bd 22f0 c2be ee47 e1bc
000000b0: d3f5 bbbe 3f6e b4be e021 35bf 287d b1bd
000000c0: a411 23bf 7f5d a6bd 7cc5 293e 5973 42bd
000000d0: 72b9 d7bd f6cf 18bd 7f01 adbd 4e60 92bd
000000e0: 532c 0abe 52e0 14be af16 c7bd 2002 bcbd
000000f0: 974b a0bd 37c0 0abf c00e b0bd bcae 7b3f
00000100: 3f2d 2dbd 0e59 68be d40a febd a105 cabd
00000110: 42de 74be 4dfa 09be b980 91be 9fa1 203e
00000120: c74a a3bd d3ea e1bd ea6c d4bd 9061 e2be
00000130: 43ca e2bd dc79 f5bd e30b 95be d720 24bd
00000140: 99be c3bd bca4 05bf 6921 58be 393f 1dbd
00000150: 04e9 79bd 5ddb 84be d927 c0bd fbc9 e4bd
00000160: f35f 87bd e1ff 4bbd 07c6 9fbf 445c bd3d
00000170: 377c a7be 5c47 5e3e 37f2 24bd 57cf a2bd
00000180: 5dd9 3ebe a4ee 14bf 18d2 463c dd2d 8abd
00000190: dbc0 73be b774 22bf 808a 7f3e e426 8abe
000001a0: 4e1e 9dbd b367 6ebd cc41 7cbd ed59 85bd
000001b0: 42a7 53be f639 bfbd 0e49 89bd 1675 97bd
000001c0: 2421 1ebe 1674 93bd 9016 b0bd ee0b 12be
000001d0: 9e41 f8be c04e b6bd 359b 8dbd cdbb 9dbe
000001e0: 65a9 01be 959b 82bd 7345 e2be 6c64 fdbd
000001f0: 44e1 f3bc dbd5 eebe e2da 09bf 9638 8bbe
00000200: 3f60 d83e 331c 45be 5747 28bd cea7 1dbf
00000210: 88d4 bdbd 3389 00bd 7cb3 0fbe 11e3 42bd
00000220: 4121 c8bd 5c0e e1bd d83c b0bd 4367 66ba
00000230: b18e bfbe 17c7 d8be 2d89 d8be edef 05be
00000240: 4196 c1bd fbb6 3fbd b0e3 4ebf 2961 86be
00000250: 4177 30be 0402 9dbe 1ac3 d5bd 4a68 f5bd
00000260: 6900 4bbd 9dea 6dbd dfe3 b4bd ab69 dbbe
00000270: 3266 97bd 1ff1 29bd b8b3 bdbd 2fc2 5cbd
00000280: e544 083e a498 e5be 6910 893e 836d e6bd
00000290: ee53 2d3e e21b 58bd d416 02bf 65b3 b4be
000002a0: a0fa b6bd 905c b5bc c8dc b63d 79c5 05be
000002b0: c53f 0ebf 5ba2 113e 9c24 13bf b08a 32bd
000002c0: 0589 89bd a5fa 81bd b2ba 4abe 6da0 3ebe
000002d0: f9bb c5bd 6759 96be ba0e bfbd a36b ebbd
000002e0: be26 13be c950 2bbe 21d3 a4be 8614 22be
000002f0: 01a1 843e a308 c9be 96de 94be 8d00 0abe
00000300: a518 893e 3fa4 aebd 7632 dabe f6eb 6bbf
00000310: 894f cfbd eacb 29bd 3e6d 9abd 521b 5cbd
-0.12249288 -0.10766544 -0.10152692 -0.103025824 -0.37531793 0.12954892 -0.36771923 -0.048406843
-0.27315256 -0.07911109 -0.5295012 -0.10803576 -0.14206427 -0.042398687 -0.04971144 -0.5436854
-0.44767073 -0.08461409 -0.09543831 -0.095907696 -0.21465753 0.09080381 -0.3434484 -0.07392101
-0.07803671 -0.13557889 -0.17151697 -0.4780804 -0.09760494 -0.06682805 -0.61835706 -0.18431413
-0.026453126 0.0006412453 -0.122828156 -0.053741463 -0.12314257 0.045650974 -0.40848246 -0.14904901
-0.8017641 -0.07820659 -0.38073832 -0.027500119 -0.36710986 -0.3524036 -0.70754814 -0.0866645
-0.6369879 -0.08123302 0.1657924 -0.047473285 -0.10533418 -0.037307702 -0.08447551 -0.07147275
-0.13493471 -0.14538696 -0.097211234 -0.09180093 -0.078269176 -0.54199547 -0.08596563 0.983135
-0.04227948 -0.22690222 -0.12404409 -0.09864355 -0.2391291 -0.13474388 -0.2841852 0.15686654
-0.07973247 -0.11031117 -0.10372336 -0.4421506 -0.110737346 -0.119861335 -0.2911063 -0.04007038
-0.09557838 -0.5220449 -0.21106495 -0.038390372 -0.061013237 -0.2594861 -0.093826 -0.11171337
-0.06610098 -0.049804572 -1.2482308 0.09246114 -0.32711956 0.21706909 -0.040270057 -0.07949703
-0.18637605 -0.58176637 0.012135051 -0.06747029 -0.23804037 -0.6345934 0.24955177 -0.26982796
-0.07671796 -0.058204364 -0.061586186 -0.065112926 -0.20669273 -0.09337227 -0.06703387 -0.07395379
-0.1544233 -0.07199876 -0.085980535 -0.14262363 -0.48487562 -0.08901739 -0.06914369 -0.30807343
-0.12662275 -0.06377331 -0.4419361 -0.123726696 -0.029770501 -0.46647534 -0.53849614 -0.2719161
0.4226093 -0.19249038 -0.04108366 -0.61584175 -0.09269053 -0.031380843 -0.14033312 -0.04757983
-0.09771968 -0.10989067 -0.08605355 -0.0008789191 -0.37413552 -0.42339393 -0.42292157 -0.13079806
-0.09452487 -0.046805363 -0.80816174 -0.26246002 -0.17232992 -0.306656 -0.10437603 -0.11982782
-0.049560938 -0.058085073 -0.088325255 -0.42854056 -0.07392539 -0.041489717 -0.09262794 -0.053896125
0.13307531 -0.44843018 0.26770332 -0.112513565 0.16926548 -0.052760966 -0.5081608 -0.35293117
-0.08934522 -0.022138864 0.089288294 -0.13063611 -0.55566055 0.1422209 -0.57477736 -0.043589294
-0.067155875 -0.06346635 -0.19797781 -0.18615885 -0.096549936 -0.29365084 -0.09328981 -0.114951394
-0.14370248 -0.16730036 -0.3219233 -0.15828142 0.25904086 -0.39264402 -0.2907607 -0.13476773
0.26776615 -0.08527421 -0.42616624 -0.9215692 -0.10122592 -0.041454233 -0.075403675 -0.053736992
