Vehicles/ModRepeat_forest_8/ModRepeat_forest_8_critic.pth (torch, 353492 bytes, 10 tensors)

weight f4 [200, 15]
-0.43080717 1.1086653 0.5089997 -0.79850644 -0.2843145 0.10845156 0.1924139 -0.060191963
-0.4844592 -0.13476442 -0.16129208 -1.6418384 -0.9193905 0.53929853 -0.001936353 -0.42260534
-1.2156856 0.13061818 -0.26297113 -0.43326578 -0.8673561 0.07713531 -1.4292952 -0.7212711
0.74649733 0.036847565 0.06828916 -1.5986422 -1.3108225 -0.14283347 0.76007265 0.8213221
0.046923235 -0.3160145 -0.36804146 -0.37976933 -0.34418616 0.05322334 0.22057967 -3.7389371
0.55579305 0.032923594 0.029796083 0.49166828 -0.1804205 0.36177316 -0.026936362 -0.079169184
-0.5828563 -1.8698393 -0.7404941 -0.32840112 -0.6269963 0.0891123 -0.4580521 -0.3308799
-0.15507932 0.019547628 0.42447698 0.27928373 -0.1901315 -0.47953954 0.20018741 0.35349008
-0.2561337 0.013967078 0.1452703 -0.29289523 0.75183415 0.00479387 0.71951175 -0.06542306
-0.2233348 -0.9909243 -0.3374975 0.11318515 -0.27732894 -0.4861355 -0.8881415 0.077077754
-0.3045614 -0.35843173 -0.7416511 -0.27293444 -1.0774361 0.113156706 0.14019391 0.35507
0.46132308 -0.3264966 0.342806 1.5807756 -0.08163114 0.61896455 -0.54507375 -0.6863027
0.4673495 0.39559186 -1.4488987 -0.10407107 0.67491883 0.40836674 -1.1468484 -0.8193881
1.0226235 0.09486731 -0.84955764 0.45709875 -0.32089007 0.35358697 0.3898592 -0.052047934
-1.1817766 -1.8532755 0.09798673 -0.20383105 0.3223363 -0.24704818 -0.04300847 1.1330999
-0.59030676 0.23673376 0.4447705 0.34341887 0.904756 0.28377324 0.49429396 0.273198
0.47597763 -3.3132002 0.32353422 -0.15235871 0.15486404 -0.92347604 -0.33292213 -0.33243132
0.49001583 -0.31779033 -0.57259387 0.36920863 0.3750319 -0.4534937 -0.9530228 -1.4838585
0.6481775 -0.6015358 -0.070407316 -0.37561426 -0.23588231 -0.23057222 1.2491357 1.0301784
0.33927408 0.13845855 -0.18037145 -0.9131907 0.58878225 0.30064592 -2.2957573 -1.0367895
-0.5136986 -0.03800899 -0.68222374 -0.6486607 0.9375037 0.02764027 0.29989782 -0.72145635
0.4090437 -0.26669323 0.02920009 -0.20995924 0.12253106 0.10087276 -0.24908587 0.5435874
0.65236694 0.86910164 0.14063746 -0.24547039 -1.4555845 0.090264425 -0.7141158 -0.09443517
0.020449826 0.09477885 0.26967213 0.3964064 -3.628924 0.5021453 1.0057744 -0.67081565
0.14037433 0.17162663 -0.32879162 0.09824089 -0.2656225 -0.4498231 -0.23943865 -0.06596935
0.0137061905 0.34688216 0.10577649 -0.32260713 -0.929256 0.22651899 0.12937509 1.0265944
0.21633692 0.48903048 0.9601478 -1.0386032 -0.34417784 0.3827232 0.39543727 0.12482446
0.57412153 -0.062271312 -2.7710485 -0.763203 -0.7608884 0.1173495 0.18729375 -0.12140971
0.37899813 0.37707797 0.7820875 -0.20636278 0.63766253 -0.46361527 0.012895164 0.19288236
-1.0353552 0.45435253 -0.23139948 -0.63367724 -0.9189433 0.99400336 0.90521556 0.07601959
-0.05397778 -0.6843518 -0.9675523 -0.45219144 -0.15606815 0.34032664 0.10037957 -0.49948594
0.20805775 -0.29911956 -2.047252 -2.0082848 -0.61457336 -0.44972637 0.08450195 -0.049375497
00000000: c292 dcbe bfe8 8d3f ce4d 023f eb6a 4cbf
00000010: ac91 91be da1b de3d 2608 453e d98b 76bd
00000020: 090b f8be afff 09be c029 25be c327 d2bf
00000030: 2d5d 6bbf 780f 0a3f 3acd fdba ba5f d8be
00000040: 969b 9bbf c6c0 053e 27a4 86be 03d5 ddbe
00000050: 0d0b 5ebf 1ef9 9d3d 25f3 b6bf 39a5 38bf
00000060: 731a 3f3f 79ed 163d 30db 8b3d 4fa0 ccbf
00000070: 08c9 a7bf f042 12be 1f94 423f 2a42 523f
00000080: 9432 403d a7cc a1be ee6f bcbe 2071 c2be
00000090: 2b39 b0be b800 5a3d a3df 613e bf4a 6fc0
000000a0: 7448 0e3f e4da 063d ea16 f43c f2bb fb3e
000000b0: 27c0 38be 553a b93e a5a9 dcbc 7423 a2bd
000000c0: 1236 15bf e556 efbf 0591 3dbf 3124 a8be
000000d0: d482 20bf 8280 b63d ce85 eabe 1769 a9be
000000e0: 1dcd 1ebe 5922 a03c 0c55 d93e 47fe 8e3e
000000f0: d5b1 42be 3586 f5be eefd 4c3e a7fc b43e
00000100: f523 83be 2cd6 643c bdc1 143e 5df6 95be
00000110: 3478 403f e515 9d3b ec31 383f 86fc 85bd
00000120: e1b1 64be 37ad 7dbf 79cc acbe 9ecd e73d
00000130: 0ffe 8dbe c1e6 f8be 3e5d 63bf f1da 9d3d
00000140: 79ef 9bbe 5d84 b7be d9dc 3dbf 10be 8bbe
00000150: 6de9 89bf b4be e73d fe8e 0f3e bccb b53e
00000160: 8a32 ec3e 902a a7be 4584 af3e db56 ca3f
00000170: 3a2e a7bd 7674 1e3f f489 0bbf 89b1 2fbf
00000180: 6f48 ef3e 048b ca3e 8375 b9bf 3723 d5bd
00000190: 7bc7 2c3f 7215 d13e eecb 92bf 6bc3 51bf
000001a0: 54e5 823f cb49 c23d 9c7c 59bf d908 ea3e
000001b0: b44b a4be 5a09 b53e a09b c73e 3730 55bd
000001c0: 7544 97bf 2238 edbf 44ad c83d 16b9 50be
000001d0: 4309 a53e 33fa 7cbe a629 30bd 6b09 913f
000001e0: 581e 17bf 566a 723e f5b8 e33e 99d4 af3e
000001f0: 179e 673f ba4a 913e 1914 fd3e 9ce0 8b3e
00000200: 57b3 f33e 790b 54c0 47a6 a53e ec03 1cbe
00000210: ae94 1e3e ed68 6cbf c574 aabe 7034 aabe
00000220: 5be3 fa3e 6ab5 a2be 8395 12bf ea08 bd3e
00000230: 2e04 c03e 5430 e8be 4df9 73bf 13ef bdbf
00000240: f6ee 253f 40fe 19bf b631 90bd 8350 c0be
00000250: 228b 71be 201b 6cbe aee3 9f3f e3dc 833f
00000260: 55b5 ad3e 14c8 0d3e 4bb3 38be dec6 69bf
00000270: 6fba 163f 43ee 993e b0ed 12c0 85b5 84bf
00000280: c081 03bf 51af 1bbd 37a6 2ebf a10e 26bf
00000290: 3e00 703f d96d e23c 358c 993e 5db1 38bf
000002a0: 2d6e d13e 048c 88be 0735 ef3c 8eff 56be
000002b0: 90f1 fa3d 6196 ce3d 5e10 7fbe 8b28 0b3f
000002c0: 8501 273f 727d 5e3f 4403 103e 975c 7bbe
000002d0: 9850 babf 8edc b83d 4bd0 36bf 3a67 c1bd
000002e0: 6586 a73c 6a1b c23d 7712 8a3e c8f5 ca3e
000002f0: 4a40 68c0 988c 003f 37bd 803f 93ba 2bbf
00000300: 4abe 0f3e e4be 2f3e 6057 a8be 8532 c93d
00000310: acff 87be 374f e6be 682f 75be f01a 87bd
00000320: ee8f 603c 8a9a b13e 58a1 d83d c32c a5be
00000330: b9e3 6dbf 98f4 673e e77a 043e 7267 833f
00000340: 6d87 5d3e 3462 fa3e 3fcc 753f f3f0 84bf
00000350: 1438 b0be 4cf4 c33e c176 ca3e f7a3 ff3d
00000360: a1f9 123f 3410 7fbd dc58 31c0 4661 43bf
00000370: 95c9 42bf ef54 f03d efc9 3f3e a7a5 f8bd
00000380: 0b0c c23e 5d10 c13e e336 483f c450 53be
00000390: da3d 233f fb5e edbe 3d46 533c f482 453e
000003a0: 8586 84bf e5a0 e83e fcf3 6cbe ac38 22bf
000003b0: de3f 6bbf 0177 7e3f 35bc 673f 29b0 9b3d
000003c0: ce17 5dbd ae31 2fbf 82b1 77bf a385 e7be
000003d0: 54d0 1fbe 4b3f ae3e ce93 cd3d 9fbc ffbe
000003e0: 170d 553e 3326 99be 2d06 03c0 bd87 00c0
000003f0: ae54 1dbf 8942 e6be 5c0f ad3d f63d 4abd

bias f4 [200]
0.3847596 0.010199859 0.094815284 0.09995273 -0.53599995 0.380528 -0.3469003 -0.6226552
-0.16279732 0.12922747 -0.05404768 -0.73099905 -0.24939072 -0.34758738 0.09545876 -0.46740702
-0.22067864 0.7153586 0.3489964 -0.23059872 0.56388474 0.095051266 0.08610772 -0.44229254
0.19455062 0.42914462 0.08233977 -0.93722 -0.6444007 -0.004956752 -0.15519013 -0.1932063
-0.44991058 0.37033412 -0.9537513 -0.13830332 -0.98908293 -0.16237862 -0.03631279 -0.6205595
0.16226564 0.73235446 0.02221468 0.53032905 -0.47804588 0.31897298 0.29093924 -0.29670402
0.21643655 0.18367268 -0.20543353 -0.10365793 -0.49911597 0.4274493 -0.3753449 -0.4499006
-0.71109235 -0.23606701 -1.096833 0.2745136 -0.42974344 -0.11972878 0.71957433 -0.26690608
0.16021943 -0.048448604 -0.4051719 0.8673854 -0.6986368 -0.57012534 -0.39084175 0.15181497
-0.5639938 -0.11862978 0.22948599 0.0053414446 -0.123589195 -0.6782591 0.27149016 -1.0435507
-0.5035359 -0.4008126 -0.15810584 0.59609735 -0.5428555 -0.6815301 -0.3634622 -0.3370568
0.17075343 0.055804875 0.030666653 -0.27924842 0.08829733 -0.06534508 -0.2748134 -0.07832364
-0.33744305 0.05117768 -0.564284 -0.6264552 0.09138649 -0.80768937 -0.4105838 0.6578665
0.23838282 -0.3426736 -0.75393915 -0.52225184 -0.5240899 0.08306029 -0.55151504 -0.19348884
-0.42221656 -0.8792704 0.13874865 0.050631724 -0.880292 -0.23950997 -0.38506737 -0.33397257
-0.94154316 0.2568027 -0.2318365 0.52649647 -0.39920107 -0.25584194 -0.46480468 -0.48564717
0.2099744 -0.18333875 -1.390862 -0.5913108 -0.16332749 0.07190287 -0.38851616 -0.020358726
-0.14869665 -1.0196112 -0.33670002 -0.36793497 -0.9896209 -0.24036528 0.26687863 -0.60071725
0.06372176 0.42766875 0.72182614 -1.1505313 -0.1538889 -0.8019963 0.5622735 -0.4855608
0.2596215 -1.0572058 -0.39801824 -0.16767287 0.31038153 0.39620095 -0.009417748 0.2248546
0.06309392 -0.4148747 -0.78975487 0.28689244 -0.2376459 -0.53184885 0.22367711 -0.7206893
-0.28702173 -0.7102326 -0.8761472 0.37834868 -0.6605486 -0.058102217 0.293799 -0.2289985
0.4530282 0.76217103 0.2300876 -0.1206337 -0.16142093 -0.40537477 0.18463847 -0.7464396
0.49314898 -0.5698127 0.32608032 -0.112746626 0.5758853 -0.03619576 0.232626 -0.3726423
0.13390338 -0.56070024 0.2600953 0.04257858 0.11949387 0.096570544 0.0912002 -1.1436231
00000000: 36ff c43e 4f1d 273c 842e c23d 04b4 cc3d
00000010: 4b37 09bf 91d4 c23e eb9c b1be 5566 1fbf
00000020: 57b4 26be 3554 043e 1a61 5dbd c122 3bbf
00000030: 4860 7fbe f9f6 b1be e27f c33d f94f efbe
00000040: 95f9 61be be21 373f a8af b23e 1222 6cbe
00000050: c05a 103f 3daa c23d 3f59 b03d 2b74 e2be
00000060: 4738 473e d8b8 db3e c1a1 a83d a6ed 6fbf
00000070: 72f7 24bf 406c a2bb 29ea 1ebe dfd7 45be
00000080: ae5a e6be 6f9c bd3e 0c29 74bf 639f 0dbe
00000090: 8a34 7dbf 9546 26be b8bc 14bd fddc 1ebf
000000a0: f728 263e 957b 3b3f 90fb b53c a5c3 073f
000000b0: 6ec2 f4be 6d50 a33e fdf5 943e 97e9 97be
000000c0: 8ba1 5d3e b114 3c3e 2b5d 52be 9c4a d4bd
000000d0: 218c ffbe a2da da3e 352d c0be 5f59 e6be
000000e0: 260a 36bf 8dbb 71be 0665 8cbf 0c8d 8c3e
000000f0: 5507 dcbe 5d34 f5bd 0636 383f eaa7 88be
00000100: 9010 243e 0b72 46bd b172 cfbe f80c 5e3f
00000110: dcd9 32bf bcf3 11bf 691c c8be 6275 1b3e
00000120: e661 10bf 2cf4 f2bd 60fe 6a3e 4907 af3b
00000130: 551c fdbd 63a2 2dbf c200 8b3e 1293 85bf
00000140: bbe7 00bf 4f37 cdbe 7fe6 21be d699 183f
00000150: 94f8 0abf c278 2ebf b817 babe b592 acbe
00000160: fdd9 2e3e a793 643d a238 fb3c a6f9 8ebe
00000170: 3bd5 b43d a4d3 85bd 58b4 8cbe 2568 a0bd
00000180: 56c5 acbe b09f 513d eb74 10bf 5e5f 20bf
00000190: d728 bb3d bbc4 4ebf 0a38 d2be f069 283f
000001a0: a01a 743e ea72 afbe 2802 41bf 4cb2 05bf
000001b0: c12a 06bf 831b aa3d 1730 0dbf f021 46be
000001c0: c52c d8be dd17 61bf 2014 0e3e 3663 4f3d
000001d0: d15a 61bf 1a42 75be 8d27 c5be 74fe aabe
000001e0: f908 71bf a57b 833e 8c66 6dbe 79c8 063f
000001f0: 1564 ccbe b7fd 82be e1fa edbe bfa6 f8be
00000200: 8703 573e 27bd 3bbe c407 b2bf 2560 17bf
00000210: 523f 27be d041 933d 97eb c6be 58c7 a6bc
00000220: ef43 18be 9f82 82bf f263 acbe f961 bcbe
00000230: cc57 7dbf 5122 76be 51a4 883e 9bc8 19bf
00000240: 8e80 823d 66f7 da3e 99c9 383f 9c44 93bf
00000250: 0d95 1dbe a14f 4dbf 28f1 0f3f 6d9b f8be
00000260: 1ced 843e 8552 87bf 0cc9 cbbe 70b2 2bbe
00000270: 54ea 9e3e dada ca3e e64c 1abc 4940 663e
00000280: 6337 813d 756a d4be 602d 4abf 91e3 923e
00000290: 7259 73be 3f27 08bf 9d0b 653e 187f 38bf
000002a0: 83f4 92be ced1 35bf 2f4b 60bf ebb6 c13e
000002b0: b719 29bf 97fc 6dbd d36c 963e 957e 6abe
000002c0: 50f3 e73e a41d 433f 159c 6b3e cd0e f7bd
000002d0: 874b 25be 488d cfbe de11 3d3e aa16 3fbf
000002e0: 067e fc3e 3fdf 11bf 00f4 a63e b4e7 e6bd
000002f0: 386d 133f 0142 14bd 8335 6e3e f9ca bebe
00000300: f81d 093e 0d8a 0fbf 362b 853e e166 2e3d
00000310: 34b9 f43d c7c6 c53d 2cc7 ba3d 3e62 92bf

weight f4 [200, 200]
-0.042136952 -0.07060711 -0.01036689 -0.08578768 0.0030927297 0.039787266 0.036842488 -0.007948576
-0.0040269378 -0.02782144 -0.08329251 -0.06314619 0.009916837 -0.015965948 -0.041730087 0.01944578
-0.08439763 -0.08803698 -0.042217776 -0.030489108 -0.10483211 -0.021997908 -0.08534222 0.0010497632
-0.0762226 -0.026845524 -0.057959612 -0.03332091 -0.048766583 -0.072871685 -0.009015282 0.013421053
-0.035114225 -0.08798837 -0.020829568 -0.017174534 0.021267278 -0.01636577 -0.0625696 0.02592736
-0.05365513 -0.0152411405 -0.015074511 -0.00758393 0.019254582 -0.059097633 0.007800455 -0.014395458
0.043222595 0.048658404 0.0138464095 -0.06860721 -0.09870518 0.00202355 -0.07232406 -0.052297436
0.02107899 -0.035592686 -0.062683694 0.0108854715 -0.034783702 0.02705676 -0.095992394 0.05001284
-0.07177829 -0.04309268 -0.063070245 -0.04162242 -0.03479768 -0.00084110553 0.005164647 0.057255924
0.004677955 -0.029983414 -0.08895055 -0.008428005 -0.061073475 -0.088683195 -0.066176176 -0.028636567
0.0182032 0.018846417 -0.035443753 0.0022328547 -0.057581868 -0.017263938 0.02691221 -0.063487574
-0.06437495 -0.038096305 -0.06891622 0.008247611 -0.047786016 0.01023908 -0.015093626 -0.01440292
0.0014463835 -0.0042400276 -0.12193898 -0.029219847 -0.08189659 0.0030860398 -0.059975196 -0.010392918
-0.03869031 0.02290699 -0.091480404 -0.04873236 -0.015501916 0.024640553 -0.004409876 0.064293474
-0.04433077 -0.06624576 -0.041627906 -0.082294494 -0.07531972 0.011176687 -0.07098675 -0.05021121
-0.03422637 -0.019830817 -0.063675486 0.021919413 -0.076740384 0.06541479 -0.08931914 0.027792031
-0.020559218 0.024324255 -0.034521352 0.01949362 0.013576198 0.0133832535 -0.018567238 0.0072324537
0.019549394 0.048591007 -0.07689068 0.0019617875 -0.079205 -0.051544387 -0.08262712 -0.0007788456
-0.034381445 0.040710416 -0.10990725 0.01067505 -0.06395655 -0.086943194 -0.059432857 -0.049395002
-0.090522155 -0.0843049 0.008468129 -0.0035422328 -0.031771634 -0.014856015 -0.121833324 0.03569787
0.0070457943 0.020937426 -0.072722994 0.0072034374 -0.07461592 -0.014725516 -0.024376499 -0.09803139
-0.039007053 -0.0881101 -0.07270454 -0.047192015 0.04316131 0.017843911 -0.112140276 -0.026774457
-0.06793126 -0.019223876 -0.042935852 -0.08547436 0.01743895 0.009976023 -0.02222901 -0.062044784
-0.018616134 0.019218497 -0.04751541 0.041455895 0.035375454 0.0029906153 -0.029270528 -0.008563942
-0.02077079 -0.0604933 -0.080499515 -0.091750726 0.029177733 0.057344638 0.05163078 -0.061393406
-2.3366401 -0.12182406 0.6012562 -0.14279065 -0.2769572 -1.3884655 -0.6936321 0.18525404
0.40560895 0.00841555 0.8613572 -0.2329411 0.056456033 -2.185984 -0.031286135 0.5609279
0.10755948 0.32594246 -0.20080075 0.21653451 -0.8507559 0.07571113 0.021189783 -0.57243824
0.0021331008 0.04302704 -1.2527466 0.91819316 -0.718015 0.14767677 -1.1313344 -0.7163307
-1.784939 -0.5564429 -0.9884869 -0.030806039 0.53480244 -0.17999062 0.8970819 -0.36142048
0.17753194 -2.7911353 0.38715056 -0.8408142 -0.17912221 -1.4656185 -2.121023 -1.2364242
-3.038584 -0.30134675 0.029668052 0.45817232 -0.07352207 -0.19115794 -4.9488115 -0.31833175
00000000: cc97 2cbd 769a 90bd e3d9 29bc 73b1 afbd
00000010: 65af 4a3b f9f7 223d 26e8 163d be3a 02bc
00000020: 67f4 83bb cae9 e3bc 4395 aabd ca52 81bd
00000030: 3b7a 223c 05cb 82bc 2bed 2abd c24c 9f3c
00000040: aad8 acbd bb4c b4bd 8cec 2cbd 4bc4 f9bc
00000050: 38b2 d6bd f534 b4bc e7c7 aebd 3598 893a
00000060: 981a 9cbd 25eb dbbc 0f67 6dbd 827b 08bd
00000070: 78bf 47bd c03d 95bd d5b4 13bc fae3 5b3c
00000080: efd3 0fbd 3f33 b4bd c5a2 aabc 9cb1 8cbc
00000090: b738 ae3c 8211 86bc 7e24 80bd 9d65 d43c
000000a0: 7bc5 5bbd fab5 79bc 15fb 76bc 9e82 f8bb
000000b0: c9bb 9d3c 5c10 72bd f69a ff3b edda 6bbc
000000c0: 2d0a 313d 094e 473d 0ddc 623c f081 8cbd
000000d0: f125 cabd 899d 043b a31e 94bd d635 56bd
000000e0: d9ad ac3c a3c9 11bd 4f60 80bd fa58 323c
000000f0: 5b79 0ebd 23a6 dd3c a997 c4bd 44da 4c3d
00000100: 7f00 93bd f381 30bd f92a 81bd 457c 2abd
00000110: 0388 0ebd a37d 5cba 333c a93b 3085 6a3d
00000120: 8849 993b c79f f5bc b52b b6bd 9d15 0abc
00000130: 2e28 7abd 899f b5bd 6087 87bd 3c97 eabc
00000140: e11e 953c cd63 9a3c 782d 11bd 1655 123b
00000150: f7da 6bbd 1a6d 8dbc ff76 dc3c c605 82bd
00000160: 04d7 83bd df0a 1cbd f223 8dbd fd20 073c
00000170: 45bb 43bd d0c1 273c 424b 77bc 3afa 6bbc
00000180: 9494 bd3a eeef 8abb 25bb f9bd 765e efbc
00000190: 66b9 a7bd 283f 4a3b 8da8 75bd 0f47 2abc
000001a0: bb79 1ebd 71a7 bb3c 145a bbbd 959b 47bd
000001b0: c0fb 7dbc fcda c93c b980 90bb 4cac 833d
000001c0: 2e94 35bd dbab 87bd 0682 2abd 048a a8bd
000001d0: 3a41 9abd 6c1e 373c 8061 91bd 45aa 4dbd
000001e0: f330 0cbd 3d74 a2bc 4b68 82bd 5790 b33c
000001f0: 102a 9dbd 30f8 853d f4ec b6bd 1dac e33c
00000200: ce6b a8bc a943 c73c 4366 0dbd 16b1 9f3c
00000210: b46e 5e3c 6f45 5b3c 521a 98bc 38fe ec3b
00000220: 0d26 a03c 5d07 473d dc78 9dbd 5591 003b
00000230: 3b36 a2bd 3520 53bd 6838 a9bd 722b 4cba
00000240: 8fd3 0cbd f7bf 263d 0d17 e1bd 68e6 2e3c
00000250: a7fb 82bd 460f b2bd de6f 73bd 6a52 4abd
00000260: ae63 b9bd 0ca8 acbd e8bd 0a3c ce24 68bb
00000270: f922 02bd a566 73bc c083 f9bd ee37 123d
00000280: 68e0 e63b f784 ab3c cbef 94bd d00a ec3b
00000290: 3bd0 98bd 4a43 71bc 39b1 c7bc aec4 c8bd
000002a0: dcc5 1fbd 1173 b4bd 1ee6 94bd 6a4c 41bd
000002b0: eac9 303d 652d 923c cda9 e5bd 1b56 dbbc
000002c0: 8b1f 8bbd 647b 9dbc 81dd 2fbd 2e0d afbd
000002d0: 21dc 8e3c 7972 233c 9d19 b6bc ac22 7ebd
000002e0: dd80 98bc 1c70 9d3c 859f 42bd a8cd 293d
000002f0: dae5 103d 33fe 433b bfc8 efbc c74f 0cbc
00000300: 8127 aabc d3c7 77bd eedc a4bd cee7 bbbd
00000310: 2406 ef3c 36e2 6a3d cc7a 533d a777 7bbd
00000320: 838b 15c0 e57e f9bd edeb 193f b637 12be
00000330: 56cd 8dbe 3db9 b1bf e091 31bf 3cb3 3d3e
00000340: faab cf3e 60e1 093c e881 5c3f 1d88 6ebe
00000350: 713e 673d 29e7 0bc0 e425 00bd f998 0f3f
00000360: 2548 dc3d eee1 a63e b69e 4dbe 39bb 5d3e
00000370: 23cb 59bf 700e 9b3d 3296 ad3c 508b 12bf
00000380: 7ecb 0b3b 1f3d 303d 005a a0bf b50e 6b3f
00000390: d5cf 37bf 9438 173e 91cf 90bf 7361 37bf
000003a0: e278 e4bf 0b73 0ebf 7a0d 7dbf f25c fcbc
000003b0: d0e8 083f 764f 38be 29a7 653f 1b0c b9be
000003c0: efca 353e f6a1 32c0 9938 c63e 993f 57bf
000003d0: d06b 37be 6399 bbbf d7be 07c0 2643 9ebf
000003e0: 2978 42c0 1f4a 9abe 6a0a f33c 9095 ea3e
000003f0: bd92 96bd e8be 43be aa5c 9ec0 61fc a2be

bias f4 [200]
-0.00776111 0.30487606 0.28096023 -0.34931484 -0.072643265 -0.22538266 -0.15309855 -0.09333034
-0.3244927 -0.7342536 -0.1785547 -0.3351139 -0.71599936 -0.77272826 -0.08284655 -0.13427031
-0.053623013 -0.098919675 -0.7530294 -0.07429888 -0.04507318 -0.1025657 -0.17439066 -0.068434514
-0.07460988 -0.66216683 -0.5525054 -0.84545666 -0.14767675 -0.09125076 -0.22674982 -0.086254925
-0.31012592 -0.86551225 -0.3090124 -0.06369912 -0.17254855 -0.6300245 -0.19438747 -0.19194286
-0.5458074 -0.083633624 -0.37405187 -0.73547083 -1.2374145 -0.088922 0.21642308 -0.12448509
-0.035177518 -0.014405398 0.7916995 -0.09976506 0.79571646 -0.03245924 -0.20013177 -0.39359128
-0.18997069 -0.7897215 -0.036934372 0.18151943 -0.17833275 -0.09697541 -0.0967403 -0.12613328
-0.4343936 -0.31416467 -0.18405141 -0.039895967 -0.4830301 -0.2922862 -0.4163935 -0.10794942
-0.15985778 -0.7993002 -0.1062861 -0.20956038 -0.4431827 -0.046396647 -0.2860733 -0.10398001
-0.09705545 -0.5714533 -0.18892126 -0.536225 -0.18262736 -0.09182307 -0.10125721 -0.1879276
0.16334578 -1.0222124 -0.10828107 -0.40090883 -0.05622858 -0.2974335 -0.04822637 -0.393333
-0.08048172 -0.02268656 -0.21155065 -0.08969674 -0.46807307 -0.13495874 -0.064178914 -0.40736327
-0.0781163 -0.27791062 -0.08777466 -0.33677247 -0.73225987 -0.070197426 -0.216702 -0.100490384
-0.119515315 -0.039718322 -0.6886402 -0.6451488 -0.13412422 -0.2110565 -0.54634255 -1.3627524
-0.024309112 -0.089819334 -0.07507662 -0.061103057 0.013677346 -0.059027582 -0.012114115 -0.07657198
-0.26184925 -0.077499375 -0.46741197 -0.6848855 -0.623401 -0.10326159 0.3307903 -0.19003405
-0.04627903 -0.051577162 -0.11692119 -0.20002204 -0.30419028 -0.39982048 -0.10362597 -0.07995483
-0.4879065 -0.07534725 0.46246573 0.10954508 -0.51961017 -0.12874842 -0.20189635 -0.09683756
-0.29179987 0.1894582 -0.07019243 -0.1042708 -0.67463446 -0.0303599 -0.0813081 -0.0543263
-0.06424927 -0.44411656 -0.40011758 -0.40313092 -0.0031206312 -0.026609106 -0.41909894 -0.3150942
0.012961505 -0.0957367 0.26858485 -0.11231913 -0.06502808 -0.63570553 0.12493379 -0.24506149
-0.022072243 -0.11043789 -0.07796998 -0.3083013 -0.1302765 0.38633412 -0.6010442 -0.082656376
-0.61044616 0.11693313 -0.10384868 -0.04407799 -0.41292712 -0.21371728 -0.08798373 -0.04270735
0.1429274 -0.3034165 -0.38641748 -0.6699607 -0.43707088 0.041365866 -0.5532466 -0.05815241
00000000: e950 febb b718 9c3e 05da 8f3e 65d9 b2be
00000010: fec5 94bd b6ca 66be dec5 1cbe fa23 bfbd
00000020: e823 a6be 0bf8 3bbf 0bd7 36be 0d94 abbe
00000030: bc4b 37bf 85d1 45bf 74ab a9bd 287e 09be
00000040: cea3 5bbd 6696 cabd 89c6 40bf 032a 98bd
00000050: a89e 38bd f70d d2bd 7793 32be 6527 8cbd
00000060: 11cd 98bd c483 29bf fe70 0dbf d96f 58bf
00000070: 9338 17be aee1 babd 1b31 68be 6ca6 b0bd
00000080: d3c8 9ebe 3692 5dbf e036 9ebe af74 82bd
00000090: 91b0 30be 4949 21bf 820d 47be ab8c 44be
000000a0: 09ba 0bbf 1b48 abbd ba83 bfbe d147 3cbf
000000b0: 9963 9ebf bd1c b6bd 039e 5d3e 0af2 febd
000000c0: 4d16 10bd 9e04 6cbc d2ac 4a3f a051 ccbd
000000d0: 13b4 4b3f fbf3 04bd 58ef 4cbe cc84 c9be
000000e0: ad87 42be 302b 4abf 7f48 17bd 3be0 393e
000000f0: dc9c 36be 0b9b c6bd c71f c6bd 1529 01be
00000100: d768 debe 31da a0be f977 3cbe f469 23bd
00000110: b94f f7be 89a6 95be 8731 d5be 9614 ddbd
00000120: c2b1 23be f09e 4cbf 87ac d9bd ff96 56be
00000130: d8e8 e2be 690a 3ebd 3378 92be 79f3 d4bd
00000140: 02c5 c6bd c34a 12bf 9374 41be 0b46 09bf
00000150: ab02 3bbe bc0d bcbd f15f cfbd 1870 40be
00000160: 1e44 273e dbd7 82bf 77c2 ddbd ec43 cdbe
00000170: f14f 66bd 3449 98be 0489 45bd f162 c9be
00000180: 9ad3 a4bd 2ad9 b9bc bca0 58be edb2 b7bd
00000190: 46a7 efbe a032 0abe 3c70 83bd eb91 d0be
000001a0: 70fb 9fbd 4d4a 8ebe 33c3 b3bd 716d acbe
000001b0: 6275 3bbf abc3 8fbd 21e7 5dbe e7cd cdbd
000001c0: 72c4 f4bd aeaf 22bd b94a 30bf 7928 25bf
000001d0: dc57 09be 321f 58be 1bdd 0bbf ac6e aebf
000001e0: e723 c7bc 33f3 b7bd c5c1 99bd 3347 7abd
000001f0: f216 603c e8c6 71bd 487a 46bc c5d1 9cbd
00000200: 1b11 86be feb7 9ebd 9f50 efbe a854 2fbf
00000210: 3597 1fbf d07a d3bd 595d a93e 4998 42be
00000220: 158f 3dbd 9342 53bd 6074 efbd 94d2 4cbe
00000230: d4be 9bbe 45b5 ccbe da39 d4bd 5cbf a3bd
00000240: e1ce f9be a94f 9abd 4fc8 ec3e 2c59 e03d
00000250: 2c05 05bf a0d6 03be ebbd 4ebe c552 c6bd
00000260: cb66 95be 5501 423e 0cc1 8fbd ee8b d5bd
00000270: d8b4 2cbf 53b5 f8bc dc84 a6bd 4185 5ebd
00000280: 1f95 83bd 3f63 e3be 36dc ccbe 2d67 cebe
00000290: 8183 4cbb 57fb d9bc 2394 d6be 0754 a1be
000002a0: 7e5c 543c 9a11 c4bd f483 893e 9207 e6bd
000002b0: 712d 85bd 99bd 22bf 49dd ff3d 66f1 7abe
000002c0: d9d0 b4bc 432d e2bd baae 9fbd abd9 9dbe
000002d0: 3467 05be 96cd c53e 08de 19bf bf47 a9bd
000002e0: 3346 1cbf a37a ef3d 9eae d4bd 1f8b 34bd
000002f0: 2f6b d3be b4d8 5abe d030 b4bd e7ed 2ebd
00000300: 8f5b 123e 6859 9bbe 83d8 c5be 8b82 2bbf
00000310: c1c7 dfbe 416f 293d 92a1 0dbf 3931 6ebd

weight f4 [1, 200]
0.028977858 0.18305548 0.0657004 -0.72589624 -0.060305428 -0.4365748 0.0013401923 -0.5953215
-0.45122054 -0.95497096 -0.73975545 0.2813006 -0.17660798 -0.31253946 -0.21888812 -0.24770372
0.1582519 0.01088966 -0.074542746 -0.015152124 0.01068308 0.16250595 0.34261504 -0.024923084
0.021847052 -0.28463966 -0.3828635 -0.37451458 0.021417469 0.022839515 0.27149585 0.03821127
-0.39074293 -0.235713 -1.4969642 -0.01144321 0.3921544 -0.4430928 0.47016758 0.14131619
-0.33125016 -0.030396178 -0.57344866 -0.3082924 -0.2756528 0.20106135 -0.09613937 0.13392343
-0.016355213 0.22901347 0.047618933 -0.008438502 0.052780114 0.021658588 -0.2212619 -0.36576644
-0.79723066 -0.5256877 0.013474976 -0.26784384 0.2530419 0.02432476 -0.014175044 -0.018884063
-0.6849658 -0.91070724 -0.07235399 0.004934248 -0.26741022 0.108079255 -0.21064998 0.019902427
0.3596449 0.29573417 0.007659214 -0.11229159 0.52151036 -0.012052408 0.107144244 -0.0063518253
0.048081134 0.09202274 0.15440546 0.13354309 0.1000308 -0.06367902 -0.02298377 0.050787397
0.05666874 0.11991218 -0.0046775853 0.11627337 -0.007467111 0.3111011 0.018267756 0.11026028
0.20580076 -0.03413242 -0.511074 -0.047135387 -0.98884994 0.12339349 0.010391871 0.108346686
-0.0066959565 -0.49363628 -0.008654114 -0.10912035 -0.7605867 -0.0031693922 -0.45114288 0.04047294
-0.00033898995 0.03272122 -0.4274109 0.04352787 -0.43292314 0.22037429 -0.18791838 -0.48091444
-0.48186406 -0.028791156 0.00038480404 0.025016014 0.11607337 -0.024975343 -0.028945222 -0.017783388
0.048197962 -0.001092614 0.15242983 -0.49935532 -0.25990283 0.071896836 0.0434639 0.2898879
-0.04940251 0.065588005 -0.014335371 -0.22093362 0.41066313 -0.62821907 0.02609268 0.022763086
0.0070810937 0.0076258006 -0.46743926 0.047348283 -0.16862087 -0.09569593 0.18227258 0.0012993183
-0.5661789 0.040549938 -0.0072888313 0.025159543 0.12783249 -0.022727916 -0.007537367 0.015787184
0.022659354 0.32432628 -0.82313603 -0.62513375 0.006797926 -0.44794247 -0.68157166 0.40006173
0.034715656 0.10281857 0.054222632 0.13769501 0.028158834 -0.22280315 0.057506 0.2284414
0.006888473 -0.026088702 -0.97686356 0.07062053 -0.015147944 -0.08007077 0.42096603 -0.023838775
0.39205226 0.07444173 0.022203133 -0.009584573 -0.4984444 -0.644716 0.007088832 0.025509521
-0.12754753 0.21501683 -0.28536174 0.24058871 -0.3000444 0.5436878 -0.48364258 -0.0021820609
00000000: f962 ed3c e572 3b3e ee8d 863d 56d4 39bf
00000010: d302 77bd bb86 dfbe 64a9 af3a fd66 18bf
00000020: 6106 e7be fa78 74bf 9d60 3dbf a206 903e
00000030: b9d8 34be 2c05 a0be 3524 60be 0ba6 7dbe
00000040: c90c 223e 8b6a 323c dea9 98bd 9d40 78bc
00000050: 1608 2f3c f667 263e 3d6b af3e 7f2b ccbc
00000060: 97f8 b23c 4abc 91be af06 c4be 60c0 bfbe
00000070: b073 af3c ef19 bb3c 8101 8b3e 6c83 1c3d
00000080: 750f c8be c05e 71be 869c bfbf 4d7c 3bbc
00000090: 76c8 c83e 0fdd e2be ceb9 f03e 31b5 103e
000000a0: 9f99 a9be 6801 f9bc 88cd 12bf 80d8 9dbe
000000b0: 5d22 8dbe 07e3 4d3e b8e4 c4bd 3923 093e
000000c0: 5efb 85bc 8282 6a3e 120c 433d a541 0abc
000000d0: f62f 583d 5a6d b13c 7b92 62be bd45 bbbe
000000e0: 4f17 4cbf 7893 06bf 25c6 5c3c d422 89be
000000f0: b58e 813e b844 c73c 723e 68bc c0b2 9abc
00000100: eb59 2fbf 1c24 69bf 542e 94bd 79af a13b
00000110: fee9 88be a858 dd3d a1b4 57be 6a0a a33c
00000120: 6023 b83e 786a 973e 25fa fa3b 22f9 e5bd
00000130: b481 053f 7777 45bc 716e db3d f922 d0bb
00000140: b9f0 443d 6b76 bc3d 771c 1e3e 85bf 083e
00000150: f3dc cc3d 256a 82bd 7648 bcbc 7206 503d
00000160: 7b1d 683d 8494 f53d 6e46 99bb bc20 ee3d
00000170: abae f4bb a548 9f3e 43a6 953c 24d0 e13d
00000180: 6fbd 523e 70ce 0bbd bfd5 02bf 0911 41bd
00000190: 4525 7dbf bab5 fc3d ab42 2a3c dee4 dd3d
000001a0: c169 dbbb e5bd fcbe fcc9 0dbc 7d7a dfbd
000001b0: cfb5 42bf 94b5 4fbb 33fc e6be f4c6 253d
000001c0: 76ba b1b9 b006 063d 9ad5 dabe 484a 323d
000001d0: 1aa8 ddbe cca9 613e ad6d 40be 6b3a f6be
000001e0: e3b6 f6be 6edb ebbc 86bf c939 62ee cc3c
000001f0: e0b7 ed3d 1799 ccbc 881e edbc 78ae 91bc
00000200: 3a6b 453d 0b36 8fba 9116 1c3e 80ab ffbe
00000210: fc11 85be a63e 933d 3407 323d 306c 943e
00000220: 495a 4abd 0153 863d e7de 6abc 6c3c 62be
00000230: 7042 d23e f7d2 20bf 51c0 d53c a779 ba3c
00000240: 8508 e83b dae1 f93b 3354 efbe 46f0 413d
00000250: f3aa 2cbe 3afc c3bd aaa5 3a3e e34d aa3a
00000260: 1af1 10bf b117 263d 26d7 eebb 631b ce3c
00000270: 85e6 023e e52f babc 04fc f6bb 2054 813c
00000280: 1ca0 b93c 180e a63e 0bb9 52bf c408 20bf
00000290: 23c1 de3b b758 e5be 7b7b 2ebf e4d4 cc3e
000002a0: 0132 0e3d 8b92 d23d 8d18 5e3d ecff 0c3e
000002b0: 5bad e63c 8226 64be 698b 6b3d 8bec 693e
000002c0: b3b8 e13b f9b7 d5bc bb13 7abf 7fa1 903d
000002d0: 152f 78bc 25fc a3bd dc88 d73e 8949 c3bc
000002e0: 13bb c83e e874 983d 58e3 b53c 9d08 1dbc
000002f0: 1b34 ffbe 1c0c 25bf 6f49 e83b 58f9 d03c
00000300: d29b 02be 5f2d 5c3e ef1a 92be e35c 763e
00000310: 6b9f 99be 202f 0b3f 00a0 f7be e800 0fbb

weight f4 [200, 15]
-0.17914815 -0.029276539 -0.12036485 0.10870949 -0.2407417 -0.027761221 0.014792741 -0.34285054
-0.19951269 -0.015620422 -0.353058 0.1446752 -0.31904516 0.14889064 0.10103056 -0.43275735
0.045604594 0.101557806 1.0099593 0.044539448 0.46719286 -0.075686105 -0.8305658 0.67697185
-0.28583995 0.7063602 -0.3363108 -0.8346025 -0.9989419 0.46600157 -0.38255975 -0.33080697
0.5869077 -0.316564 -0.20610344 0.020329801 0.4399584 1.0288773 0.51596284 0.42773038
-0.9348914 0.6153674 -0.078658275 -0.8521162 -0.73837286 0.2744166 -0.6009875 -0.2669397
-0.9691222 -0.63315386 -0.99979186 -0.104404286 -0.78633225 -0.015935972 -0.014815443 0.29258466
0.4288724 -0.46759304 -0.29972637 -0.8330296 0.6037908 0.7670385 -0.18697584 -0.32792258
-0.34775174 -0.29345003 0.119164705 -0.12786613 0.51856273 -0.3732645 -0.34253618 -0.18201609
0.043043513 -0.28678775 0.29208636 0.02003103 0.5591838 0.7604586 0.17973737 0.2043006
-0.74450463 0.05864694 0.56617963 -0.47613165 0.042387065 -1.0593787 -1.5032812 -1.7842461
-0.8169607 1.1787955 -0.6753556 0.15712635 -0.8920184 0.61126024 -0.63948464 -0.15272865
-0.92458063 -0.24839093 -0.08454205 0.0640765 0.29973492 0.288485 0.7905444 0.7033021
0.32901204 0.3760189 -0.2932579 0.34371322 0.13351268 -0.055781018 0.00849 0.5743316
-0.18163088 0.45321327 -2.1695275 -1.1491276 -0.29222143 0.42481226 -0.4599661 0.0667941
0.21822765 0.29898787 -0.6254025 1.1264789 0.6688908 -0.26517466 -0.09356969 -0.24825232
-0.67738444 -0.5767308 -0.010385582 0.052711878 -0.10291074 -0.6760652 -0.21007988 -0.035810236
-0.4728676 -0.04711463 -0.67091835 -0.21303338 -0.31513202 0.03764213 0.32618517 -4.096321
0.71083874 0.17529064 0.123589575 0.19518486 -0.13831508 -0.070886716 -1.2208151 -0.27368727
0.0025321473 0.70699316 -1.2425046 -1.018873 -0.4475209 -0.98152465 0.08426076 0.49852622
0.061817616 -0.64289755 0.42066532 -0.1463312 -1.0404165 0.29554474 -0.48500675 -0.5034474
0.9751322 0.021179408 -0.47534692 0.12982354 0.42262152 -0.17594224 -0.03396256 0.04104396
0.45189646 0.09266586 0.66789037 0.3747548 0.15786688 -0.5114853 0.23693852 0.11922676
-0.17246267 0.24791518 0.2551315 -0.32106677 0.81664556 0.06691237 0.059480045 -0.73972476
-1.3171937 -1.0801314 -0.94150764 -0.07718506 -0.05450319 1.020223 0.27782798 -0.21495835
-0.28852376 0.04778847 1.3406428 0.24802074 0.002893659 -0.76115406 -0.07026489 0.7040951
0.59891707 -0.008599802 0.008223745 0.102034174 0.55726236 0.43753025 0.015885714 0.010334486
0.012227444 0.0072238087 0.9625319 -1.565847 0.23269543 -0.02920634 -0.11808996 -0.16725306
0.18179505 0.1454066 -1.1882253 -0.17756024 0.16312458 -0.40235206 -0.31065586 -0.6927757
-2.1243072 0.68198526 -1.3628353 0.45146155 0.042294685 0.42560777 -0.1406602 0.024651863
-0.14875491 0.15022734 -0.73545253 0.26622683 -0.34139395 -0.14603837 0.10209456 -0.12594238
0.049367692 -2.29076 1.1324693 0.57827675 0.48688602 -0.14838266 0.4523975 -0.12572436
00000000: 9d72 37be 5ad5 efbc d981 f6bd 15a3 de3d
00000010: fe84 76be 806b e3bc 415d 723c 1b8a afbe
00000020: 0e4d 4cbe ccec 7fbc 05c4 b4be bc25 143e
00000030: e359 a3be ca76 183e 1ce9 ce3d 5f92 ddbe
00000040: e2cb 3a3d 8afd cf3d 5946 813f ff6e 363d
00000050: e733 ef3e 5101 9bbd f69f 54bf 074e 2d3f
00000060: 9d59 92be 06d4 343f ee30 acbe 82a8 55bf
00000070: a8ba 7fbf c297 ee3e dfde c3be 885f a9be
00000080: 953f 163f ad14 a2be c80c 53be af8a a63c
00000090: 3a42 e13e 40b2 833f 2416 043f 7aff da3e
000000a0: 0b55 6fbf b888 1d3f 9717 a1bd 4a24 5abf
000000b0: 0106 3dbf 5580 8c3e 51da 19bf 52ac 88be
000000c0: 6418 78bf 5f16 22bf 5cf2 7fbf ead1 d5bd
000000d0: 124d 49bf 288c 82bc 79bc 72bc a8cd 953e
000000e0: 2a95 db3e 5b68 efbe bc75 99be 6e41 55bf
000000f0: 0992 1a3f a35c 443f 9876 3fbe 78e5 a7be
00000100: 840c b2be 153f 96be a00c f43d 57ef 02be
00000110: 87c0 043f 861c bfbe e760 afbe 6d62 3abe
00000120: 654e 303d d8d5 92be 588c 953e 1d18 a43c
00000130: ab26 0f3f 6aad 423f 130d 383e 2d34 513e
00000140: db97 3ebf c637 703d 26f1 103f 87c7 f3be
00000150: 0f9e 2d3d b999 87bf 856b c0bf 2d62 e4bf
00000160: 5624 51bf c5e2 963f 1be4 2cbf bbe5 203e
00000170: 515b 64bf 8d7b 1c3f 44b5 23bf e664 1cbe
00000180: 51b1 6cbf 315a 7ebe 6224 adbd 8a3a 833d
00000190: db76 993e 4eb4 933e 1e61 4a3f 9b0b 343f
000001a0: 4474 a83e 8d85 c03e e625 96be 2efb af3e
000001b0: 8cb7 083e a37a 64bd a419 0b3c 6507 133f
000001c0: 72fd 39be 920b e83e 8ad9 0ac0 9d16 93bf
000001d0: 0c9e 95be fe80 d93e ad80 ebbe 58cb 883d
000001e0: 1277 5f3e f014 993e 611a 20bf 7630 903f
000001f0: 6d3c 2b3f f9c4 87be 77a1 bfbd db35 7ebe
00000200: 1169 2dbf a1a4 13bf 4a28 2abc 69e8 573d
00000210: dec2 d2bd 9c12 2dbf 2e1f 57be c1ad 12bd
00000220: b41b f2be 45fb 40bd 4ec1 2bbf 6c25 5abe
00000230: fc58 a1be a22e 1a3d be01 a73e 1015 83c0
00000240: 87f9 353f 647f 333e 881c fd3d 8ade 473e
00000250: 78a2 0dbe 0e2d 91bd ab43 9cbf bd20 8cbe
00000260: 62f2 253b 81fd 343f 640a 9fbf 6e6a 82bf
00000270: 7621 e5be 3345 7bbf e890 ac3d d43e ff3e
00000280: 7834 7d3d ef94 24bf 7261 d73e d9d7 15be
00000290: 5e2c 85bf a451 973e ce52 f8be eee1 00bf
000002a0: 44a2 793f 7080 ad3c ac60 f3be 76f0 043e
000002b0: d961 d83e 342a 34be 531c 0bbd b61d 283d
000002c0: f95e e73e 99c7 bd3d ddfa 2a3f dcdf bf3e
000002d0: dba7 213e b3f0 02bf 03a0 723e 292d f43d
000002e0: 0e9a 30be 7add 7d3e 99a0 823e dd62 a4be
000002f0: af0f 513f 5a09 893d 59a1 733d 9a5e 3dbf
00000300: ce99 a8bf bf41 8abf a506 71bf 3313 9ebd
00000310: bd3e 5fbd ab96 823f 783f 8e3e 0b1e 5cbe
00000320: 63b9 93be d8bd 433d 2f9a ab3f 26f9 7d3e
00000330: 8ba3 3d3b feda 42bf 0ae7 8fbd 943f 343f
00000340: a152 193f 2fe6 0cbc e3bc 063c 4bf7 d03d
00000350: bfa8 0e3f f703 e03e c222 823c fa51 293c
00000360: 9e55 483c b3b5 ec3b 7e68 763f ad6d c8bf
00000370: b647 6e3e 2242 efbc 26d9 f1bd 6344 2bbe
00000380: 7b28 3a3e 78e5 143e c417 98bf 5ad2 35be
00000390: 210a 273e 1701 cebe 490e 9fbe c059 31bf
000003a0: a6f4 07c0 9696 2e3f 6371 aebf f825 e73e
000003b0: 313d 2d3d 43e9 d93e 3a09 10be b4f2 c93c
000003c0: 3553 18be 32d5 193e 9e46 3cbf e24e 883e
000003d0: 30cb aebe 158b 15be f416 d13d 0af7 00be
000003e0: c735 4a3d d09b 12c0 c1f4 903f f209 143f
000003f0: 2049 f93e a0f1 17be a5a0 e73e e3bd 00be

bias f4 [200]
-0.30324474 -0.20390363 -0.8761979 0.41833115 -0.35901073 -0.22813667 0.3619289 -0.10061122
0.064644076 -0.39806262 -0.18119268 -1.0448643 -0.5110151 -0.4554998 -0.6999431 0.15084364
0.105490774 -1.2268779 -0.7094681 -0.100789785 0.09005515 0.75371426 0.88342524 0.25621855
0.5451196 -0.41828674 -0.52616656 0.4350525 0.26856565 -0.8621223 -0.43274668 0.21596614
0.34013695 -0.11336539 -0.777525 -0.5556628 0.44648477 -0.62460613 -0.15230481 -0.38438568
0.014249592 0.250836 -0.4897141 -0.1988405 0.69803053 0.08473636 -0.75683475 0.22811136
-0.44192985 -0.5331655 -0.18793482 -0.6835774 0.32898703 -0.43416685 0.26420054 -0.0033387411
0.452387 0.6260156 -0.34271848 -0.32931566 -0.58343345 -0.3284753 -1.0710049 -0.090188004
0.44834045 -0.23216325 0.2170131 -0.36585084 -0.7087517 -0.76162416 0.09997722 0.20164393
0.5286993 -0.015912203 -0.34436977 0.35147682 -0.23880963 -0.2907419 -0.5804326 -0.78487575
-0.48437962 -0.13125978 0.18132958 -0.046509907 0.22036342 -0.8589204 -0.43143153 0.33156025
-0.052608967 -0.64161104 0.20153339 -0.44692954 0.04206036 0.09202021 0.4227569 -0.20350885
-1.4286901 -0.09979188 0.7576224 -0.6824968 0.57544076 -0.21097891 -0.5510709 0.21009652
-0.4626016 -0.5135826 0.8896717 0.27989787 0.5954814 0.1321817 -0.58088803 -0.47931236
-0.26376283 -0.39595968 -0.6814308 0.17883699 0.023644328 -0.13655059 0.1269261 0.18794493
-0.21847475 0.12149262 0.14682685 -0.15990914 -0.5661681 0.40753675 -0.35803044 -0.06361511
-0.39540988 0.37013006 -0.23221187 -0.5626709 -0.609714 -0.4370929 0.33613634 -0.25078326
0.42508784 -0.17076704 0.3379551 -0.36660314 0.04740389 -0.24286568 0.12907958 -0.48745242
0.3702847 -0.34299988 -1.0268619 -0.16759343 -0.28970742 -0.4287672 0.56070143 0.06563992
0.6548808 -0.29353887 -0.89907104 0.1861168 0.14061567 -0.23191856 -0.91692126 0.2412687
-0.07376434 -0.5316992 -0.40459323 0.31253403 0.11281096 0.044435535 0.14796747 -0.04730523
-0.14620079 0.09831268 0.75964355 -0.111903176 0.84478086 -0.27648294 0.8154481 0.31205907
-0.41962412 -0.36722463 0.030751027 -0.3715514 -0.2753994 -0.014879443 0.12770128 -0.6250073
0.22088397 0.030480977 -0.111044824 -0.06100553 0.24895987 -0.8263209 -0.03637927 -0.33075908
0.4685383 0.2865433 0.90300137 0.35874903 -0.036327112 -0.6281213 -0.7762718 -0.0015698754
00000000: e542 9bbe 1dcc 50be 814e 60bf 802f d63e
00000010: 41d0 b7be a99c 69be bf4e b93e 410d cebd
00000020: 1d64 843d ddce cbbe 938a 39be 1dbe 85bf
00000030: e3d1 02bf 4537 e9be 792f 33bf c176 1a3e
00000040: 8c0b d83d 560a 9dbf b49f 35bf e06a cebd
00000050: d66e b83d 6bf3 403f 2828 623f 142f 833e
00000060: f58c 0b3f ae29 d6be dab2 06bf 34bf de3e
00000070: 7081 893e 0cb4 5cbf f990 ddbe 3a26 5d3e
00000080: 6e26 ae3e 1d2c e8bd e10b 47bf eb3f 0ebf
00000090: a799 e43e 30e6 1fbf cbf5 1bbe 33ce c4be
000000a0: 1f77 693c 946d 803e cebb fabe d89c 4bbe
000000b0: 21b2 323f 428a ad3d ecbf 41bf 0696 693e
000000c0: a144 e2be 897d 08bf fc71 40be eefe 2ebf
000000d0: fd70 a83e 1e4b debe 4b45 873e c8ce 5abb
000000e0: 459f e73e 8f42 203f cc78 afbe 109c a8be
000000f0: e55b 15bf ea2d a8be b016 89bf 7db4 b8bd
00000100: e18c e53e 34bc 6dbe af38 5e3e cd50 bbbe
00000110: c070 35bf cdf9 42bf dbc0 cc3d bf7b 4e3e
00000120: d658 073f 4f5a 82bc 3c51 b0be c5f4 b33e
00000130: 838a 74be 1fdc 94be 3b97 14bf 9eed 48bf
00000140: 9b00 f8be f768 06be 76ae 393e 2c81 3ebd
00000150: f3a6 613e 35e2 5bbf 98e4 dcbe 44c2 a93e
00000160: 807c 57bd 9f40 24bf c55e 4e3e f3d3 e4be
00000170: 7c47 2c3d 1875 bc3d 9873 d83e a064 50be
00000180: 51df b6bf af5f ccbd 8bf3 413f 1cb8 2ebf
00000190: 1650 133f db0a 58be fc12 0dbf 8b23 573e
000001a0: 1eda ecbe 267a 03bf 86c1 633f c64e 8f3e
000001b0: 7871 183f a45a 073e 14b5 14bf 6e68 f5be
000001c0: ec0b 87be 3abb cabe 4072 2ebf 0b21 373e
000001d0: c0b1 c13c ebd3 0bbe eaf8 013e a374 403e
000001e0: d8b7 5fbe 1fd1 f83d c759 163e 39bf 23be
000001f0: 65f0 10bf a8a8 d03e c44f b7be a448 82bd
00000200: 2a73 cabe b081 bd3e f3c8 6dbe 330b 10bf
00000210: 3716 1cbf a4ca dfbe 101a ac3e aa66 80be
00000220: 1da5 d93e 8edd 2ebe 7308 ad3e 68b3 bbbe
00000230: 952a 423d c8b1 78be 702d 043e 5d93 f9be
00000240: f595 bd3e ae9d afbe 3670 83bf 9d9d 2bbe
00000250: 8854 94be 6087 dbbe 218a 0f3f 396e 863d
00000260: 45a6 273f ba4a 96be 8529 66bf 6795 3e3e
00000270: 8efd 0f3e 0f7c 6dbe 5abb 6abf 240f 773e
00000280: c211 97bd 701d 08bf d826 cfbe 7604 a03e
00000290: 6f09 e73d 0902 363d c984 173e 21c3 41bd
000002a0: a9b5 15be 2958 c93d 0078 423f 7e2d e5bd
000002b0: 8f43 583f 2c8f 8dbe 35c1 503f 35c6 9f3e
000002c0: f9d8 d6be de04 bcbe 94e9 fb3c fc3b bebe
000002d0: 2601 8dbe e8c8 73bc 20c4 023e 7a00 20bf
000002e0: 682f 623e 3eb3 f93c 786b e3bd efe0 79bd
000002f0: 56ef 7e3e c489 53bf 6e02 15bd 4159 a9be
00000300: 41e4 ef3e ceb5 923e 192b 673f f4ad b73e
00000310: bdcb 14bd 8fcc 20bf c0b9 46bf 47c4 cdba

weight f4 [200, 200]
0.05961055 -0.012679845 -0.028735135 -0.10992509 0.018409856 -0.08068053 0.018454967 0.0040765437
-0.078823954 -0.04374478 -0.038773865 -0.08900535 -0.05643325 -0.028616093 0.026606856 0.03944982
-0.045459915 -0.09296967 0.047473084 -0.06543958 -0.007957224 -0.05670087 0.024191255 -0.015992377
-0.055456836 -0.07980559 -0.027627872 -0.04658936 -0.05434734 0.018535187 -0.060513284 -0.09394482
0.05880503 -0.031079374 0.027509868 -0.052398317 -0.08818719 0.024180533 -0.024108808 -0.049471576
0.042478435 -0.040350433 -0.022708923 -0.016462754 -0.053015627 -0.09610291 0.014767081 -0.091375895
-0.06716759 0.012637128 -0.002132108 0.054265406 -0.1323849 -0.06312448 0.033519518 -0.07551447
0.0066389637 -0.083190136 0.009299732 0.00010553475 -0.040389426 0.039493978 0.06131848 -0.12063371
0.022167258 -0.030748276 -0.034653004 -0.083218575 0.042314593 0.024764257 0.039421044 -0.10268793
-0.08793257 -0.035816375 -0.051747438 -0.0026442683 -0.027044512 -0.011407977 -0.08034793 0.008161959
-0.062632725 0.015246096 -0.07435893 -0.0029492206 -0.0075012776 -0.02252251 -0.029309217 -0.031036075
-0.053653173 0.02568872 -0.008938211 -0.09246683 0.037354082 -0.06521131 -0.09647201 0.05322569
-0.04808804 -0.07053799 0.0028159027 -0.07911112 0.021015093 -0.10366239 -0.06807893 -0.004774626
0.040075883 0.027940439 -0.057637386 0.02926289 -0.072588615 -0.041246668 -0.03154043 -0.090935744
-0.055304956 0.021542467 -0.115661465 -0.016627526 -0.10871223 0.07150096 0.015438522 -0.11325847
-0.08468048 -0.02052989 -0.021180727 -0.03954362 0.051898982 -0.028150134 -0.08039018 -0.07812098
-0.01710712 0.038104717 0.056988236 -0.02630956 -0.042043045 -0.10168127 -0.059428927 -0.014577822
-0.0025788525 0.03373366 -0.11187741 -0.071602784 0.10456422 -0.05643765 -0.030433264 -0.09014632
-0.114906125 -0.069061585 -0.058466848 0.040802475 -0.0061477763 -0.08527522 -0.070547365 0.028785255
0.045598794 -0.15231451 0.0077488767 -0.029595064 -0.039479412 0.017541917 0.047290206 -0.058636278
-0.010790731 0.04350824 -0.085356586 -0.10203471 -0.08516996 0.04532891 0.024127977 0.018841041
0.021731878 -0.09635846 0.0030205841 0.059481174 -0.04469235 -0.051261496 -0.12913729 -0.106392935
-0.103470616 -0.0055917334 -0.0015924672 0.026320864 0.031105395 -0.019427419 -0.03521724 -0.057643604
-0.08562073 0.0152416825 0.016478753 -0.053020235 0.024573715 0.008950764 -0.034152087 -0.11238334
0.073809445 -0.020036781 -0.09472134 -0.06312016 -0.009218376 -7.023504e-05 -0.05946263 -0.044082373
-0.0251299 -0.07916752 -0.12346252 -0.09551452 -0.18207772 0.40244114 0.10828002 1.8225595
0.9148056 0.2271762 0.21871309 0.43472287 -0.08330819 0.5096429 0.71291155 0.18132605
-0.8881635 0.017432138 -2.213395 -0.3738589 0.7101433 -0.5440879 0.25288326 -0.59704494
0.06436197 -0.9031686 0.8169625 0.3317294 0.031104064 -0.037927065 -0.4995836 0.06869915
-3.343178 -1.9989233 -0.5323415 0.15828015 1.4820906 -0.079686016 -0.36891198 0.57737654
-0.7560379 0.36348775 -0.7056373 0.20944208 0.79513913 0.39155018 -0.19595285 0.39434522
-0.40988448 0.5273251 0.059865545 -0.34614423 0.30533978 0.09241009 -0.7356722 0.42414862
00000000: 312a 743d 20bf 4fbc f265 ebbc 6820 e1bd
00000010: 44d0 963c d53b a5bd df2e 973c 8794 853b
00000020: 746e a1bd ba2d 33bd 58d1 1ebd 7048 b6bd
00000030: 8d26 67bd 4c6c eabc 9ff6 d93c 2296 213d
00000040: 2d34 3abd e266 bebd 2373 423d 3005 86bd
00000050: 045f 02bc 2c3f 68bd bd2c c63c 7202 83bc
00000060: b526 63bd 1d71 a3bd d953 e2bc 7cd4 3ebd
00000070: 519b 5ebd 1bd7 973c c7dc 77bd 2466 c0bd
00000080: 8bdd 703d 2c9a febc 605c e13c 9e9f 56bd
00000090: 7c9b b4bd 4116 c63c d67f c5bc b5a2 4abd
000000a0: defd 2d3d 7f46 25bd 1008 babc e6dc 86bc
000000b0: ea26 59bd 9ad1 c4bd a0f1 713c 4923 bbbd
000000c0: 298f 89bd f50b 4f3c d6ba 0bbb 6745 5e3d
000000d0: e88f 07be 6847 81bd c34b 093d 55a7 9abd
000000e0: aa8b d93b 975f aabd e75d 183c 8a52 dd38
000000f0: 626f 25bd 70c4 213d 1629 7b3d ce0e f7bd
00000100: 1c98 b53c cfe3 fbbc 4ff0 0dbd 806e aabd
00000110: 1152 2d3d 69de ca3c f677 213d 0d4e d2bd
00000120: fe15 b4bd 31b4 12bd 1ff5 53bd 764b 2dbb
00000130: 748c ddbc 86e8 3abc 758d a4bd bdb9 053c
00000140: 9645 80bd c3ca 793c 7f49 98bd b647 41bb
00000150: 47cd f5bb 2081 b8bc e219 f0bc 5e3f febc
00000160: 6ec3 5bbd 2771 d23c 9371 12bc 405f bdbd
00000170: 9800 193d 828d 85bd 1e93 c5bd 2e03 5a3d
00000180: f7f7 44bd 3976 90bd 028b 383b 0305 a2bd
00000190: d827 ac3c f24c d4bd f76c 8bbd 7774 9cbb
000001a0: 9c26 243d 59e3 e43c 2e15 6cbd bab8 ef3c
000001b0: 57a9 94bd 44f2 28bd 8a30 01bd 853c babd
000001c0: 7387 62bd d479 b03c ebdf ecbd 7336 88bc
000001d0: 85a4 debd 186f 923d dbf1 7c3c 0ff4 e7bd
000001e0: f66c adbd 4d2e a8bc 3483 adbc 7ef8 21bd
000001f0: 0794 543d 1c9b e6bc 9ba3 a4bd e4fd 9fbd
00000200: 3b24 8cbc b113 1c3d 7f6c 693d 2587 d7bc
00000210: 5435 2cbd 453e d0bd bf6b 73bd d1d7 6ebc
00000220: f701 29bb 4e2c 0a3d fc1f e5bd 7ba4 92bd
00000230: c425 d63d 2a2b 67bd 2e4f f9bc a29e b8bd
00000240: e753 ebbd 2970 8dbd ef7a 6fbd 7f20 273d
00000250: 4973 c9bb c6a4 aebd 237b 90bd 0ecf eb3c
00000260: cdc5 3a3d 56f8 1bbe 4aea fd3b 5971 f2bc
00000270: 2ab5 21bd 11b4 8f3c 60b3 413d 982c 70bd
00000280: 9bcb 30bc b235 323d 6fcf aebd 93f7 d0bd
00000290: 976d aebd cfaa 393d 09a8 c53c 8758 9a3c
000002a0: 0d07 b23c 9657 c5bd fef4 453b 88a2 733d
000002b0: 530f 37bd 93f7 51bd 913c 04be 8ae4 d9bd
000002c0: 67e8 d3bd dc3a b7bb 55ba d0ba da9e d73c
000002d0: bed0 fe3c 4026 9fbc f43f 10bd b31b 6cbd
000002e0: ec59 afbd 40b8 793c 73fe 863c bf2b 59bd
000002f0: d14e c93c 3aa6 123c 0fe3 0bbd 3d29 e6bd
00000300: 6829 973d 2d24 a4bc 43fd c1bd 2445 81bd
00000310: ac08 17bc 264b 93b8 168f 73bd b88f 34bd
00000320: 38dd cdbc 9522 a2bd ebd9 fcbd 1e9d c3bd
00000330: 9572 3abe c40c ce3e eac1 dd3d a149 e93f
00000340: b330 6a3f e1a0 683e 53f6 5f3e ff93 de3e
00000350: 7c9d aabd f577 023f 5f81 363f 89ad 393e
00000360: af5e 63bf d8cd 8e3c 44a8 0dc0 6f6a bfbe
00000370: f4cb 353f 5849 0bbf ea79 813e f0d7 18bf
00000380: 35d0 833d 0f36 67bf 7424 513f 70d8 a93e
00000390: f3cd fe3c 6959 1bbd 6cc9 ffbe 24b2 8c3d
000003a0: a1f6 55c0 b8dc ffbf 8847 08bf 3114 223e
000003b0: 25b5 bd3f 6c32 a3bd 08e2 bcbe f3ce 133f
000003c0: b38b 41bf 111b ba3e a5a4 34bf fc77 563e
000003d0: 3d8e 4b3f 4479 c83e dda7 48be 9ee7 c93e
000003e0: 61dc d1be c7fe 063f 9335 753d d139 b1be
000003f0: 7f55 9c3e 8041 bd3d 0355 3cbf 022a d93e

bias f4 [200]
-0.122493 -0.10838306 -0.10152773 -0.1003419 -0.38292462 0.1364051 -0.38685933 -0.0484072
-0.28540468 -0.079111606 -0.52558565 -0.10803711 -0.14076355 -0.042398814 -0.049711566 -0.5416416
-0.44315422 -0.08461548 -0.09543912 -0.09590884 -0.22024053 0.088386565 -0.36639628 -0.07392233
-0.078037366 -0.14060943 -0.17095236 -0.47808057 -0.097605474 -0.06682888 -0.6183671 -0.18431494
-0.026453154 0.00064124074 -0.122828126 -0.053741522 -0.12314322 0.043476153 -0.4171227 -0.14904927
-0.8039711 -0.07820728 -0.3847353 -0.027021363 -0.36311552 -0.35313773 -0.7173743 -0.08666511
-0.63718003 -0.08123358 0.17387082 -0.047473837 -0.10533458 -0.03730768 -0.08447652 -0.07147331
-0.13609593 -0.14705488 -0.101362 -0.09180222 -0.07826941 -0.5447548 -0.08596678 0.9820453
-0.042280063 -0.22472091 -0.124044195 -0.09864412 -0.24459876 -0.13474585 -0.28128394 0.17307985
-0.07973384 -0.11031209 -0.10372435 -0.45138845 -0.11073864 -0.11986144 -0.28627416 -0.040070385
-0.095579125 -0.5093976 -0.21030022 -0.047493882 -0.06101325 -0.25948948 -0.093826056 -0.11171397
-0.06406605 -0.049804766 -1.2467338 0.10136942 -0.32712063 0.22376785 -0.040270355 -0.07949826
-0.17949419 -0.5787565 0.012134969 -0.06747065 -0.2317673 -0.6345938 0.25006992 -0.26915002
-0.076718 -0.05820464 -0.061586384 -0.06511295 -0.20669337 -0.08716506 -0.056734927 -0.07395419
-0.15280323 -0.07199973 -0.08598091 -0.14262563 -0.4938914 -0.089018196 -0.06914435 -0.30158272
-0.12662399 -0.06377467 -0.4419389 -0.12372729 -0.02977072 -0.46647936 -0.5393211 -0.27701783
0.41349238 -0.1959356 -0.041084282 -0.6158522 -0.0926912 -0.031128839 -0.14237005 -0.04757998
-0.09771987 -0.116496705 -0.08605427 -0.00087892613 -0.37324092 -0.4312579 -0.42032838 -0.13079993
-0.09452587 -0.04515508 -0.8060158 -0.2624245 -0.1691332 -0.31838837 -0.10437625 -0.11462088
-0.04956141 -0.06168605 -0.090808965 -0.42368007 -0.083490044 -0.04149035 -0.09262891 -0.04970842
0.12091795 -0.45236683 0.2671559 -0.11251411 0.16701831 -0.052761454 -0.5063931 -0.36037257
-0.08934516 -0.02213902 0.085998766 -0.12308592 -0.55882645 0.13846862 -0.582439 -0.0435894
-0.06715701 -0.06346761 -0.20859881 -0.19365339 -0.09655065 -0.29493952 -0.096555226 -0.114952184
-0.14370377 -0.16873668 -0.32440677 -0.17902556 0.25342587 -0.39487794 -0.29076573 -0.13476862
0.26488778 -0.08527504 -0.42053923 -0.9280108 -0.10122719 -0.028054949 -0.07540485 -0.05373763
00000000: 9cdd fabd f0f7 ddbd c5ed cfbd 0e80 cdbd
00000010: b20e c4be c7ad 0b3e 6d12 c6be a146 46bd
00000020: 9020 92be 4405 a2bd c88c 06bf 8f42 ddbd
00000030: 5224 10be 61aa 2dbd 5b9e 4bbd 06a9 0abf
00000040: 1ce5 e2be e14a adbd 9675 c3bd db6b c4bd
00000050: bc86 61be 0404 b53d 4b98 bbbe 9764 97bd
00000060: 0ed2 9fbd ebfb 0fbe 230e 2fbe fac6 f4be
00000070: 61e5 c7bd 94dd 88bd 4e4d 1ebf 0ebd 3cbe
00000080: 49b4 d8bc f018 283a 508d fbbd 1220 5cbd
00000090: 8332 fcbd 0d14 323d 1b91 d5be 5fa0 18be
000000a0: 0dd1 4dbf 232b a0bd 06fc c4be e85b ddbc
000000b0: 47ea b9be 78ce b4be d8a5 37bf 7a7d b1bd
000000c0: 3b1e 23bf cb5d a6bd 310b 323e ed73 42bd
000000d0: a8b9 d7bd f0cf 18bd 0702 adbd 9960 92bd
000000e0: bb5c 0bbe 8e95 16be e196 cfbd cd02 bcbd
000000f0: b64b a0bd 0d75 0bbf 5a0f b0bd 5267 7b3f
00000100: dc2d 2dbd 3d1d 66be e20a febd ee05 cabd
00000110: 1978 7abe d1fa 09be 7304 90be d83b 313e
00000120: 7f4b a3bd 4eeb e1bd 6f6d d4bd 631c e7be
00000130: f1ca e2bd ea79 f5bd 8792 92be d820 24bd
00000140: fdbe c3bd e267 02bf f158 57be f288 42bd
00000150: 08e9 79bd cedb 84be e027 c0bd 4bca e4bd
00000160: 1035 83bd 1500 4cbd f994 9fbf c59a cf3d
00000170: 5b7c a7be 6623 653e 87f2 24bd fccf a2bd
00000180: 53cd 37be 6329 14bf c0d1 463c 0d2e 8abd
00000190: 6854 6dbe bd74 22bf 2a09 803e 08ce 89be
000001a0: 541e 9dbd fd67 6ebd 0142 7cbd f059 85bd
000001b0: 6da7 53be 9883 b2bd e262 68bd 4b75 97bd
000001c0: 7378 1cbe 9874 93bd c216 b0bd 740c 12be
000001d0: 55df fcbe 2c4f b6bd 8e9b 8dbd 0d69 9abe
000001e0: b8a9 01be 4b9c 82bd d145 e2be bc64 fdbd
000001f0: bae1 f3bc 62d6 eebe f310 0abf 48d5 8dbe
00000200: 46b5 d33e 58a3 48be fe47 28bd 7da8 1dbf
00000210: e2d4 bdbd e801 ffbc 74c9 11be 3ae3 42bd
00000220: 5b21 c8bd d395 eebd 393d b0bd bc67 66ba
00000230: 6f19 bfbe d6cd dcbe 4835 d7be 6bf0 05be
00000240: c896 c1bd 88f4 38bd 0d57 4ebf 815c 86be
00000250: 4131 2dbe cd03 a3be 37c3 d5bd 5abe eabd
00000260: e800 4bbd 83aa 7cbd 0dfa b9bd 98ec d8be
00000270: d4fc aabd c9f1 29bd 3ab4 bdbd 0e9b 4bbd
00000280: d5a3 f73d a09c e7be a8c8 883e cc6d e6bd
00000290: d906 2b3e 651c 58bd faa2 01bf c182 b8be
000002a0: 98fa b6bd e45c b5bc 1f20 b03d 7914 fcbd
000002b0: 400f 0fbf b8ca 0d3e b91a 15bf cc8a 32bd
000002c0: 9d89 89bd 4efb 81bd ed9a 55be 134d 46be
000002d0: 59bc c5bd 5002 97be bfbe c5bd 0d6c ebbd
000002e0: 1527 13be 4fc9 2cbe a518 a6be 7a52 37be
000002f0: 09c1 813e 712d cabe 3fdf 94be c900 0abe
00000300: 5f9f 873e aea4 aebd eb50 d7be 1e92 6dbf
00000310: 3350 cfbd 7ed3 e5bc dc6d 9abd fd1b 5cbd
