Vehicles/Navforest_2/Navforest_2_critic_target.pth (torch, 351955 bytes, 10 tensors)

weight f4 [200, 14]
000000 4e fa 4f be 8c 8d 61 3d 34 4e 02 3e eb 6c df 3d
       -0.20310327 0.05506663 0.12725145 0.10909446
000010 5e 60 64 3e 1e 0b aa be b5 45 99 be 65 21 c0 be
       0.22302386 -0.33211607 -0.29935995 -0.37525478
000020 11 d8 80 bd 04 90 50 be cd b5 8e bd ad f4 37 3d
       -0.062912114 -0.20367438 -0.069682695 0.044911075
000030 87 cf be be 75 af 82 3d 2f c3 47 be 42 7c 9d bd
       -0.37267706 0.06381122 -0.1950805 -0.07689716
000040 f8 72 98 3e a8 f9 b1 3d 1e b1 33 be 0d 92 8a bd
       0.29775214 0.08690196 -0.17548034 -0.06766138
000050 db 98 91 be 61 2d c2 bd 0e aa ff 3d 93 71 ce bd
       -0.28436932 -0.094813116 0.12483607 -0.10080256
000060 be 7a 1e be 33 28 bd be 57 83 96 be ba b8 54 be
       -0.1547651 -0.36944732 -0.2939708 -0.20773593
000070 f6 77 9a 3d f5 fc 89 be 6f a1 c1 3e c3 15 10 bd
       0.07542412 -0.26950803 0.37818477 -0.035177004
000080 1e af ce 3d e6 17 7c be 5e bc 45 be 20 b0 7a 3e
       0.10091995 -0.24618492 -0.19310138 0.24481249
000090 0a 2c cd 3d 69 3f b1 3d 7d 30 c8 3c 1d 63 9e be
       0.100181654 0.08654673 0.024437184 -0.30934992
0000a0 b8 90 25 bc 7d 0c b9 3c c9 da eb be 05 aa 86 3d
       -0.010105304 0.022588963 -0.46065357 0.065753974
0000b0 e2 7a cf be 2f 32 c1 3d 78 de 07 3d e1 0b 3f 3e
       -0.4052344 0.094334 0.033171147 0.18656875
0000c0 4b 40 03 be e8 0b 1f 3d 60 9f e4 3d 0b 46 0a 3e
       -0.12817495 0.038829714 0.11163211 0.13503282
0000d0 5b 22 24 be b1 bc aa 3d c1 82 ad 3d 07 09 2d bd
       -0.1602873 0.08336771 0.08472205 -0.042244937
0000e0 8b 95 ea be f5 4a c1 3e 3a 04 82 bd 6a c0 d7 bd
       -0.45817217 0.377525 -0.063484624 -0.10534747
0000f0 84 8d 8a bc 4a 93 4e 3e d0 a2 93 3d b5 f7 65 3d
       -0.016913183 0.20173374 0.072087884 0.056144435
000100 b5 63 6c 3e 2c fc a1 3d 3d 2c d0 3d 15 6a f1 bc
       0.2308491 0.07909426 0.10164688 -0.02946953
000110 c6 9f 24 3e c4 b7 8c be 57 ec ee bd be 3f e0 3e
       0.16076574 -0.27483952 -0.11666172 0.4379863
000120 a8 f3 ce be 6d 3c 01 be 55 93 2a be 44 4e 49 3e
       -0.4042027 -0.12620707 -0.16657765 0.19658762
000130 9b 57 42 3e 10 e7 d0 3c dd 85 61 3e fa b5 b8 bd
       0.18978731 0.025500804 0.22023721 -0.09019084
000140 73 a9 3b be cc 78 59 3b 42 63 98 be 60 6d de 3e
       -0.18326358 0.0033183573 -0.29763228 0.43442822
000150 91 bf e6 be 3d 74 c4 3e 81 da 02 bd af 00 3b 3e
       -0.4506803 0.38369933 -0.031946663 0.1826198
000160 79 62 88 be 2a 53 6a 3e 1f c6 9b be 2c 36 88 3d
       -0.2663763 0.22883287 -0.30424592 0.066509575
000170 87 0e 8b bd 31 80 8e 3d 2c 0c 52 3e fe 52 6e 3e
       -0.0678988 0.06958044 0.20512456 0.23273847
000180 f5 63 46 be d3 e8 8f bd d1 32 03 be 8f 12 60 3d
       -0.19374068 -0.070268296 -0.12812354 0.0547052
000190 27 66 1c 3e 48 ff 31 3e d1 0a cf 3d 0c 8e b4 3c
       0.15273343 0.17382538 0.10109485 0.02204039
0001a0 2d f4 90 be 6a 4a 2a be eb 64 0a be 98 41 6d 3e
       -0.2831129 -0.16629949 -0.1351506 0.23169553
0001b0 9a 16 97 bd 26 b6 86 be d7 74 60 3e ff 4d e3 bd
       -0.07377358 -0.26310843 0.21919571 -0.11098861
0001c0 81 b9 14 3e cf 01 c0 be 48 5d 5f bd dc d8 f5 3c
       0.14523889 -0.3750138 -0.05453232 0.030010633
0001d0 50 47 47 3e 0a 11 fb 3d 79 e2 a3 be 30 dc 7f be
       0.19460797 0.12259109 -0.32008722 -0.24986339
0001e0 c8 69 0a bc 9b 09 84 be 6b 7a 57 bd b5 05 8e 3e
       -0.008448072 -0.25788578 -0.05260698 0.2773873
0001f0 31 24 82 be 1b 8b 74 be 4b 4e 57 be 18 37 e0 3d
       -0.25418237 -0.2388119 -0.2102596 0.10948008
000200 11 ce b3 bd 2a b9 e3 bd c8 ec 85 be 19 4e ad bc
       -0.087795384 -0.111193016 -0.26157212 -0.021155404
000210 44 3c b5 bd fb 96 a5 be 25 9a c6 bd da ab 1f be
       -0.088493854 -0.3234175 -0.096973695 -0.155929
000220 4f 66 25 bd 81 02 90 3e f8 9a 4f be 49 e5 67 3e
       -0.040380772 0.2812691 -0.2027396 0.22646059
000230 45 7c ce be 4e 82 5c be 85 4e b3 bc 19 38 ec 3c
       -0.40329185 -0.21534082 -0.021888027 0.028835343
000240 4a ed 00 be 12 bc 1e bc b6 c6 59 bd 8f 37 52 3d
       -0.12590519 -0.009688394 -0.05316802 0.051322516
000250 18 88 26 3e cf d5 40 3d e5 af 52 be 73 b5 01 3e
       0.16262853 0.047078904 -0.20574911 0.12666874
000260 49 48 49 3e 5a 8b 9c 3e 30 99 6d be 84 59 08 be
       0.19656481 0.30575067 -0.23202968 -0.13315398
000270 4b cc 8a be 1e c3 19 be de 4d 51 be 79 da a5 bc
       -0.27108988 -0.15015838 -0.2043986 -0.020245777
000280 ee e1 06 3e 83 f1 e0 be 6f 12 dc bd 5d 11 50 3e
       0.13172123 -0.4393426 -0.107457034 0.20319124
000290 ff ab ea 3d 83 34 92 3d ba 96 bf 3d fb 1f 63 3d
       0.11458587 0.07138922 0.09354921 0.05545042
0002a0 9d 02 9a 3e 50 f9 a0 bd b5 07 92 be f8 d6 07 bd
       0.3008012 -0.078600526 -0.28521505 -0.033163995
0002b0 4a 29 9c bb 66 fe 00 3e e4 d8 dd 3c 14 ca ca 3d
       -0.004765664 0.12597045 0.02708096 0.099018246
0002c0 1b 8f 14 be ea a7 14 be 2a c0 06 be a9 fc 1d 3e
       -0.14507715 -0.14517179 -0.13159242 0.15428413
0002d0 1b 46 27 3e 65 1e 31 bd 05 65 39 3f e8 d6 d1 bc
       0.16335337 -0.043241877 0.7241977 -0.02561517
0002e0 62 8f 0f 3e ee 6a 36 be 83 7a 40 bc 2a 87 17 bf
       0.1401954 -0.17814228 -0.011747959 -0.5919062
0002f0 69 26 1a bf 16 17 ff be f1 5b 8d bd 86 d8 12 3e
       -0.6021486 -0.498223 -0.06902302 0.1434041
000300 83 01 93 3e b6 1b f5 bd da 54 36 3c 40 70 42 be
       0.2871209 -0.11968176 0.011128629 -0.18988132
000310 3d 29 78 3e 95 b7 cb 3d c3 08 25 3e d9 6d c4 bd
       0.24234481 0.09947125 0.16116624 -0.09591264
000320 d4 30 87 3d dd 1f 19 bd 27 3b 85 3e 0c e1 c9 bd
       0.0660111 -0.037383903 0.26021692 -0.098573774
000330 b3 7d 41 3b 20 c7 15 3e f5 da 3b 3d de 5b 17 be
       0.0029524385 0.14626741 0.04586311 -0.14781138
000340 75 ec c5 3d 5f 6d 30 3e 6f 52 8e 3e 9b f8 b7 be
       0.09664241 0.17229222 0.27797267 -0.35931858
000350 9a e8 bd bd 1e 96 28 3e c0 69 87 bd 68 3f d2 3d
       -0.09272881 0.16463515 -0.06611967 0.10266
000360 70 4d 4f 3e 28 6e d8 be 86 69 c2 3d 96 ca 01 3e
       0.20244384 -0.42271543 0.09492783 0.12674937
000370 de 14 2c 3e 10 c8 42 be d9 f6 9d be 70 85 31 3e
       0.16804835 -0.1902163 -0.30852392 0.17336059
000380 8e 98 e8 3d f1 0f a0 3e a3 6f 91 3e c5 73 9d 3c
       0.113572225 0.31262162 0.28405485 0.019220242
000390 6d a2 32 3e af a3 45 bd 04 5e 3e bc d2 9f 52 be
       0.17444773 -0.048251804 -0.011619095 -0.20568779
0003a0 93 92 4d be 97 c7 fa 3d f6 05 d7 3d 6d 38 d7 3a
       -0.20075445 0.122451 0.10499184 0.0016420014
0003b0 be 2b 1c 3e fb 64 61 3c 74 f5 9d be 1c 77 c5 bd
       0.15251061 0.013756986 -0.30851328 -0.09641859
0003c0 07 91 e7 be fb 95 26 3e 18 dd 11 bc 9c 86 7b 3d
       -0.45227835 0.1626815 -0.0089028105 0.06140767
0003d0 ed bc 02 3e 18 60 52 3e ea 5f 4f 3e 97 f6 d8 bd
       0.12767382 0.2054447 0.20251432 -0.10593908
0003e0 f6 9b fc 3c 14 94 e9 bd 03 24 5b 3c f1 5a 64 3d
       0.030836087 -0.11405197 0.013375285 0.05575079
0003f0 04 23 cc be 24 7a cc bd 6f 2a d6 be e6 8b 1b bd
       -0.39870465 -0.09984234 -0.4182925 -0.037975214

bias f4 [200]
000000 0b 95 95 be 96 48 af 3d 6e 4d d2 3c 8b 19 fc 3c
       -0.29215273 0.085587665 0.025671687 0.030773899
000010 cb b2 8b be bc f4 bc 3c 6f cf ef be 8a 25 80 be
       -0.27284846 0.023065917 -0.46837947 -0.2502864
000020 1d 77 d2 3e ac 66 a5 bd cc ea fb bd 93 15 98 3e
       0.411065 -0.08076224 -0.12300643 0.2970396
000030 35 2c c6 3e da c4 6f be fe e2 84 be b2 2d c4 3d
       0.38705602 -0.23414937 -0.2595443 0.09579028
000040 2d 83 70 3e c7 71 96 3d 43 f1 b6 3d 35 17 1d be
       0.2348754 0.0734592 0.08932736 -0.15340884
000050 0d e8 64 be 4c 2a ed 3d 9f e8 3a bc ce 38 96 be
       -0.22354145 0.11580333 -0.011408 -0.29340214
000060 0d 31 d4 bd c6 32 88 3e 09 f9 0b be 96 14 83 3e
       -0.10360918 0.26601237 -0.13669218 0.25601643
000070 6e 07 0d 3d 5d 3f c0 3d 48 50 90 3e 11 9e d2 3e
       0.034430914 0.093870856 0.2818625 0.4113622
000080 d1 2a cc 3d a0 9f 73 bd 25 b8 50 3e 62 eb 05 bd
       0.09969104 -0.059478402 0.20382746 -0.03269518
000090 56 18 c8 3e 35 d8 87 be 51 3d 79 be 36 9a bd bd
       0.39081067 -0.2653214 -0.24339797 -0.09257929
0000a0 21 76 91 be d3 e1 16 be 52 4a 2d be c9 1f 2d be
       -0.28410438 -0.14734583 -0.16922882 -0.16906656
0000b0 34 e2 7a bd 2b 17 29 be 68 bb 6b 3e 17 08 05 be
       -0.06125088 -0.16512744 0.23020709 -0.12991367
0000c0 f6 84 8f 3e 0b 60 b6 be 8c 65 9a bd 34 23 0d be
       0.2803113 -0.3562015 -0.075389 -0.1378296
0000d0 c1 4a 44 bd 4e 6a 8f bc 4d 19 c0 3d 2c 09 fc be
       -0.047922853 -0.017506745 0.09379826 -0.49225748
0000e0 d9 da 79 bd 6f 7b 39 bc e3 73 9a 3e dd 8b e8 3d
       -0.060999725 -0.011320933 0.3016654 0.11354802
0000f0 f5 87 cf bd e9 50 cb 3d 55 27 bb be 25 5a 93 3d
       -0.101333536 0.09927542 -0.36553445 0.07194928
000100 62 fa de be ac f2 9b be fe 5b 73 be 75 ca 92 be
       -0.43550402 -0.3045858 -0.23765561 -0.28670087
000110 78 1e ce be 1e dc 9d bd f2 eb 5e 3e d0 d8 b0 3e
       -0.4025762 -0.07708 0.21769693 0.34540415
000120 8a bb 2f 3d 9d e6 82 be 5a bf e0 3c f8 e9 23 be
       0.04290346 -0.2556657 0.027434994 -0.16007221
000130 45 33 ec be 86 94 b8 3e 60 d6 87 bc d3 90 e2 3c
       -0.46132866 0.36050814 -0.016581714 0.027656948
000140 99 51 58 3e 60 a1 3c 3e c9 60 29 3d ec 1a 1e bd
       0.21124877 0.18420935 0.041352067 -0.038599893
000150 a1 0c 75 3d 1e 87 73 3e ed 5a 27 be 08 72 75 3c
       0.059826497 0.23782012 -0.16343279 0.0149808
000160 4d e8 3e bd e3 1e a0 be 14 ad 66 be 88 c8 35 be
       -0.046608258 -0.31273565 -0.22526962 -0.17752278
000170 eb 0c fa 3d 6f 52 73 be f3 f2 ad 3d 91 6c 12 3d
       0.12209495 -0.23761915 0.084936045 0.03574807
000180 f6 68 26 3e 43 c2 2c 3e 54 61 d1 be c4 b6 65 bb
       0.16250977 0.1687098 -0.40894568 -0.0035051564
000190 5d 8c 95 3e ae 1b 09 3d 1d 29 25 be 2f 6c ee 3d
       0.2920865 0.033473663 -0.16128965 0.11641728
0001a0 72 5c 4f be 27 87 82 3e 80 6a 0b bd ef 03 b1 be
       -0.20250109 0.25493738 -0.034037113 -0.34573314
0001b0 bf 86 90 be 69 97 b7 bd db bf fa 3d 07 48 3d 3d
       -0.28227803 -0.08964426 0.12243625 0.04621127
0001c0 ef 6c 5e 3e 9a b0 43 3e 90 eb af 3e d9 18 9e bd
       0.21721242 0.19110337 0.34359407 -0.07719583
0001d0 9a 1b 56 be 20 cb 68 3e 9f a6 b5 be 74 d6 4c 3e
       -0.20908967 0.22733736 -0.35478684 0.20003682
0001e0 0e bf 83 3e 40 05 72 be fd 96 89 bd a1 44 62 be
       0.257317 -0.23634815 -0.06718252 -0.22096492
0001f0 e9 fc cd be c6 4b bb be 94 d3 db be af 67 95 be
       -0.40232018 -0.36581248 -0.4293486 -0.29180667
000200 aa 77 ef 3d e7 5a ce 3c 81 f5 d2 be 2c ca bc be
       0.11692746 0.02518983 -0.4120293 -0.36872995
000210 60 ca 00 bd 60 b8 5d be 9d 2e 06 bd dd e9 96 3e
       -0.031443 -0.21652365 -0.032759298 0.294753
000220 d2 15 c4 be 2a 2e 15 3e ab 35 9f be 63 b8 96 3e
       -0.38297898 0.14568391 -0.31095633 0.2943755
000230 5f f5 40 3e b1 9d a4 be 01 03 97 be fb f6 3d 3e
       0.18843602 -0.3215156 -0.2949448 0.18551247
000240 9e 89 e5 3d 16 f8 4a be 1c de 38 be de 2a ba 3e
       0.11207889 -0.198212 -0.18053478 0.3636083
000250 a8 70 d6 3e c7 1f e1 3e 25 ea e3 bc aa a3 ae be
       0.41882825 0.43969557 -0.02782161 -0.3410924
000260 c1 7e 61 bd 83 9e d0 be 2f 0a ab be da 13 8f be
       -0.055052523 -0.40745935 -0.33406207 -0.27944833
000270 2a 9f b8 3e e1 c0 8c 3e 08 cd 80 be 57 42 29 be
       0.36058933 0.27490905 -0.25156426 -0.16529213
000280 af b7 0d 3d 48 67 b0 be fb cd ad be dc 5b 4b be
       0.034599002 -0.34453797 -0.33946213 -0.1985926
000290 0b 07 83 3e b4 1c 5a bd f4 41 5a 3e 04 d8 d2 3e
       0.2559131 -0.05325003 0.21314222 0.41180432
0002a0 cb 7f ee 3d 45 72 a6 3e ec 6e 96 be 5d a8 ac 3e
       0.11645468 0.32509056 -0.29381502 0.337222
0002b0 5f 27 a6 3e 34 37 5f 3e 90 05 b7 bd af 0c e9 bd
       0.32451913 0.21798402 -0.08936608 -0.11379372
0002c0 35 fb 8b be d8 ed 85 be a3 bd 98 be bb 78 cc be
       -0.27340093 -0.26158023 -0.2983218 -0.3993586
0002d0 a3 3e 0d 3e 28 17 ad 3e 7c 55 6f 3e 06 b4 c7 be
       0.13793425 0.3380673 0.23372453 -0.39004534
0002e0 ad ce 3e bd 97 94 55 3e 4a 41 0a 3d 30 3c 2a bd
       -0.04658382 0.20857464 0.03375367 -0.041561306
0002f0 62 e6 97 3e 5a 56 49 bd be 7b 69 bc 84 0d 47 be
       0.29667956 -0.049154617 -0.014250694 -0.1943875
000300 90 82 3f bd be 65 d3 be 87 1f 90 3e 46 3b 8d ba
       -0.046755373 -0.4128856 0.28149053 -0.0010775111
000310 40 2f b3 be 98 9d 66 be be df ea bd cd fb 04 be
       -0.34996986 -0.22521055 -0.11468457 -0.1298668

weight f4 [200, 200]
000000 3b cd 76 bd 0b 97 90 bb 01 e4 87 bd 80 da bf bc
       -0.060254317 -0.004412537 -0.06635285 -0.023419619
000010 e1 51 32 bd 56 e6 9a bd c9 14 f6 3a 8e 71 83 bd
       -0.043535117 -0.07563464 0.0018774505 -0.06418143
000020 3a 32 5d bd df f5 60 3d da c3 58 bd 03 18 6e bd
       -0.054002978 0.05492198 -0.052921154 -0.058128368
000030 51 3d 4e bd 40 5f 46 3c 96 3e d9 bb 1c bc d6 3b
       -0.050351445 0.01210767 -0.0066297753 0.006553186
000040 f9 93 54 3d 38 ff 87 bc 92 a4 db bc 50 e5 fb bc
       0.05189893 -0.01660119 -0.026811872 -0.030748993
000050 30 db c8 3c e6 b8 f9 ba e7 b9 2a bc 7f 48 84 bc
       0.02451858 -0.0019052296 -0.010420299 -0.01614785
000060 40 c8 41 3d 47 2c 26 bd 59 0c 50 bc bf ed a8 bd
       0.047310114 -0.04056957 -0.012698256 -0.082484715
000070 6e eb 25 3c 93 5e 6f bc 9e 61 91 bd ed d8 0d bd
       0.010126932 -0.014609951 -0.07098697 -0.034630705
000080 96 8a 22 3c fa d0 ed 3c 31 1e 5b 3d b6 be 1e bd
       0.009920737 0.029030312 0.05349559 -0.038756095
000090 76 89 91 bd 7f b3 71 3d ab e1 e5 bc ce 6d 0c bd
       -0.07106297 0.05900907 -0.028061708 -0.034284405
0000a0 d4 6a 2d 3d 6f bd b5 3c dd c8 85 bd 4d bd 8f bc
       0.042338207 0.022185056 -0.06532452 -0.01754632
0000b0 f8 89 c6 bb a7 05 28 bd 63 da ae 3b 91 34 44 bd
       -0.0060589276 -0.041021015 0.0053360923 -0.047901694
0000c0 10 91 3f bd 1c bc 98 bc 20 7c 00 bd 14 65 44 bd
       -0.0467692 -0.018644385 -0.031368375 -0.047947958
0000d0 36 53 b0 3a 74 f3 8c bd 45 4f 6b 3d 0d 51 8a bd
       0.0013452533 -0.068823725 0.057448644 -0.067537405
0000e0 9c 6f 6e bd e6 4b 9b bc 57 d6 25 bd 33 87 a3 3b
       -0.058211908 -0.01895709 -0.040487614 0.0049904822
0000f0 fd 8f 2a 3d 28 3d 03 3c 3a 10 bb bc 63 5d 7d 3c
       0.041641224 0.008010186 -0.022834886 0.01546416
000100 ee c4 e5 bc 99 74 ff bc 82 71 63 bc 80 27 43 bb
       -0.028048005 -0.031183528 -0.013882043 -0.0029778183
000110 5f 84 e1 bc d8 3b 45 3c 87 8a a8 bd 66 e3 21 3d
       -0.02752894 0.012038194 -0.08229547 0.039523505
000120 6a ca ec 3c 6e 43 5b 3d 35 54 66 bd cc fe db ba
       0.028905112 0.053531103 -0.05623265 -0.0016784309
000130 a2 80 0c 3d f9 d6 4d bd 1b be 2e 3d ed a8 fb 3c
       0.03430236 -0.050253842 0.042661767 0.030720199
000140 15 ab 8e bc 41 73 cb bc 76 0e 19 bc 40 50 37 bd
       -0.017415563 -0.02483523 -0.009341827 -0.044754267
000150 cc 3b 8c bc 4b ce 32 bd 1e e2 9f bc f7 2e 37 3d
       -0.017118357 -0.043653768 -0.019517 0.044722524
000160 d1 46 42 bd 9f fd 8e 3d 0c 63 84 3c 5c 06 c8 3c
       -0.047430817 0.06981968 0.01616051 0.024417095
000170 46 1d 9c bd c3 b1 64 bb a2 4d 57 bd 6d 68 49 3c
       -0.07622771 -0.0034895993 -0.05256427 0.012292963
000180 10 2d 3f bd 78 37 c6 bc 9d a5 20 3b eb 0a 2a 3d
       -0.046673834 -0.024196371 0.0024512776 0.04151432
000190 fe 6f 25 3d 74 68 f1 bc 06 17 9c bd 2a f8 5b bd
       0.040390007 -0.029468752 -0.07621579 -0.053703465
0001a0 3b c4 66 bd 3b 6b 60 bd 2a f1 d8 bc f6 06 88 3d
       -0.056339484 -0.054789763 -0.026482183 0.06641953
0001b0 af 7a 77 bc 96 41 aa 3c da b7 5a bd 92 48 90 3d
       -0.015104934 0.020783227 -0.05339799 0.07045092
0001c0 ca 3c 55 3c 47 3f a7 bd 2a 5d e0 3c 5f cc 2c bd
       0.0130149815 -0.08166366 0.027388174 -0.04218709
0001d0 06 50 9f bd 78 a5 36 bd af f0 1f bd 3b 1b 50 3d
       -0.07778935 -0.044591397 -0.039047893 0.05080722
0001e0 31 e8 9c 37 67 f7 a6 bc 9f b9 85 bc d5 74 4f bd
       1.8704772e-05 -0.020381643 -0.016323863 -0.05064853
0001f0 23 6e 1a bd 2e 7a bb 3c fc 12 b9 bc b3 64 62 bd
       -0.03770269 0.022885408 -0.02259206 -0.055271816
000200 17 52 a1 bd be 38 dc bc 84 eb 87 bd 90 56 6b bd
       -0.078769855 -0.026882526 -0.06636718 -0.0574556
000210 de 9b 99 bd 5a b6 d4 bc e3 6e 3e 3d d4 2d 0d 3d
       -0.075004324 -0.025965858 0.04649247 0.034467533
000220 42 95 d6 bc 1c b7 09 3d 43 d4 dd 3c 37 e8 ae bd
       -0.026194219 0.033621892 0.027078753 -0.08540385
000230 6e 24 10 bd 78 34 34 3c 57 45 37 3d 18 7a 2e 3b
       -0.035190992 0.010998838 0.044743862 0.0026623067
000240 85 91 12 3d d9 25 0d bd 37 4b d1 bc 25 f9 34 3d
       0.03578331 -0.034459922 -0.02554856 0.044182915
000250 11 78 58 3d 37 71 ad bc 76 6b 31 bd c9 5b 4e bd
       0.05284888 -0.02117215 -0.043315373 -0.050380502
000260 c9 9f 32 bc 50 49 ec bc a1 b7 76 3d 6b 59 6a bd
       -0.010902354 -0.028843552 0.060233716 -0.057214182
000270 fd 13 6b bc 02 f8 51 bd 85 bd 9a bc b7 ec a7 bd
       -0.014348027 -0.05126191 -0.018889198 -0.08199447
000280 98 1e 2a 3d 2b c6 74 3c d9 f4 d3 3c f2 4b 8a bd
       0.041533083 0.014939825 0.025873588 -0.06752767
000290 cf 78 29 bd 67 f6 3b 3c 46 43 1e bd 39 f3 41 bd
       -0.041374978 0.011472321 -0.038638376 -0.047351096
0002a0 6d 19 82 3d 0a 08 5a bb 7b 7e d3 3c 1a 97 54 bc
       0.06352506 -0.0033268952 0.025817147 -0.012975479
0002b0 25 6c 86 bd a5 08 08 bc c2 86 ac 3c a8 75 d5 3c
       -0.06563596 -0.008302842 0.021060351 0.02605708
0002c0 f6 79 d6 bc ac 11 49 3d ba 61 fc 3c e2 9b 35 bd
       -0.026181202 0.04908912 0.030808318 -0.044338115
0002d0 e0 d2 46 3d 97 b2 2c bd a0 16 87 bd c8 48 84 bd
       0.04854095 -0.042162504 -0.06596112 -0.064591944
0002e0 68 bb 30 bd d2 65 5a bc ff 15 34 3d 45 64 8c bc
       -0.043147475 -0.01332994 0.04396629 -0.017137656
0002f0 94 3a 0e 3c a6 c0 13 bc b9 a1 59 3d 4a 51 23 bd
       0.008680958 -0.009018099 0.053132746 -0.039872445
000300 32 e4 53 bd 9f fe 6c bd c3 aa 7a 3c ee 27 de ba
       -0.051731296 -0.057860013 0.015299502 -0.0016949156
000310 d6 eb 98 3c 04 0f a6 3c cd f3 30 3d 5d 26 3e 3a
       0.018667143 0.020270832 0.043201257 0.00072536414
000320 29 52 c6 bd 79 86 ec 3a ca bd 87 bd 11 76 85 3c
       -0.096836396 0.0018045447 -0.06627996 0.01629165
000330 77 6b 9f bd 74 c3 5f 3c 23 34 26 bd 63 d2 40 bd
       -0.07784169 0.0136574395 -0.040577065 -0.04707564
000340 cd 67 ba 3d 20 8b 87 3d b7 16 cb 3c 75 7b c0 39
       0.0910183 0.06618333 0.024791105 0.00036713076
000350 ae c2 a3 3d 5a 9c ee 3d 60 5d 41 bd 1e 93 13 3d
       0.079961166 0.116509154 -0.04720819 0.036028974
000360 09 e1 76 bd a6 13 77 3d 0a db 89 3c 63 45 2e 3d
       -0.060273204 0.060321473 0.016828079 0.04254664
000370 ff ee fc bd 5d d4 4e 3c f0 30 08 3c 0a 77 d0 bd
       -0.123502724 0.012623874 0.008312449 -0.10178955
000380 48 e2 ff 3c c9 91 f9 bd 24 37 39 3d 67 7f a6 3c
       0.031235829 -0.121860094 0.0452186 0.020324422
000390 4d 2d 4f 3e de d7 9c be d4 99 9c 3d 86 12 20 bd
       0.20232125 -0.30633444 0.07646528 -0.039080165
0003a0 a5 a3 58 3e 33 d2 a1 3d 36 87 aa 3d a1 60 82 bc
       0.21156175 0.079014204 0.08326571 -0.015915217
0003b0 b2 85 cc 3d 1a d4 bb 3c aa 2a 04 be 84 63 83 bd
       0.09986438 0.022928286 -0.129069 -0.064154655
0003c0 69 30 23 3c ec 76 c6 bc 71 dd f4 3a 90 db 1d 3c
       0.009960272 -0.024226628 0.0018681717 0.009634867
0003d0 54 d3 f1 3c cf a2 37 bd b9 34 80 3c a9 fa 68 bc
       0.029519714 -0.044833 0.01565014 -0.014219918
0003e0 c2 9e 3e 3d f9 c9 6a 3c 99 02 c4 3e cd ca 09 3c
       0.046538122 0.014330381 0.38283232 0.008410168
0003f0 20 6e 93 3d fe 10 f0 bc 01 13 da bc 70 91 26 3d
       0.07198739 -0.029304978 -0.02662039 0.040666044

bias f4 [200]
000000 94 4b 07 3d 86 7f f4 3d 10 7b 16 3c be 7c d2 bb
       0.03303106 0.11938386 0.009184614 -0.006423562
000010 e0 6c 82 3c af 70 05 3e 14 43 20 3d 1a e1 61 bc
       0.015921056 0.13031267 0.03912647 -0.013786579
000020 c9 bd ae 3d d9 f2 11 3e 1b 86 d9 3d 5d 4a 76 3b
       0.085322924 0.14252795 0.10621282 0.0037580945
000030 30 d7 0c 3d cc d0 05 3e 75 9a 05 3e 70 f6 b8 bd
       0.034384906 0.13067931 0.13047202 -0.09031379
000040 57 c6 47 bd 43 08 be 3d 6b 48 c6 bc a4 77 89 bd
       -0.048773136 0.092789195 -0.024204453 -0.06712273
000050 65 1a 61 bd ec 4b 6e bd 09 eb 4c bc 71 74 e7 bd
       -0.054956812 -0.058177873 -0.012507209 -0.11301506
000060 75 32 dd 3c 8f 7c 02 3d 9c 3d ba 3c cd 68 3a 3e
       0.027001599 0.03185707 0.022734456 0.18204041
000070 8d 12 15 3e 7f 06 88 3d 37 b8 36 3d fa b1 98 3c
       0.14557858 0.06641864 0.044609275 0.018639553
000080 97 ed e3 3d 49 89 7c 3d 36 06 2a 3d 65 8e b5 3d
       0.11129301 0.061654363 0.04150983 0.0886505
000090 6b c1 70 bd db 95 50 be 3d 67 d5 bc 43 22 db 3d
       -0.058778208 -0.20369665 -0.026050204 0.10699894
0000a0 9b 71 8f 3e 17 16 a2 3b f2 3c d6 bc f9 c5 2d 3e
       0.28016362 0.004946481 -0.026152108 0.16970052
0000b0 5c a1 ac 3d 15 3e 03 bd 5c e2 e6 3d 08 7f 45 3d
       0.08429214 -0.032041628 0.112736434 0.04821685
0000c0 7c 2a a6 bb 67 74 34 3c c3 56 8c 3e bd 77 12 3d
       -0.0050709825 0.011014081 0.27409944 0.035758723
0000d0 66 28 8d 3d 2b 71 65 bd b6 e3 4c 3d b1 59 4f bd
       0.06892471 -0.05601613 0.05002185 -0.050622646
0000e0 69 33 a3 bd 85 6d 41 3b 66 1d 39 3e 32 15 ae 3b
       -0.0796879 0.0029514742 0.18077621 0.0053125853
0000f0 69 68 1a 3d fd bb 18 3d 83 ea 3c bd f8 4f e9 3d
       0.03769723 0.037288655 -0.046122085 0.11392206
000100 89 07 f4 3d ac 52 13 3e 47 1e 11 3e 69 94 b3 3a
       0.119155 0.14387006 0.14171706 0.0013700846
000110 fd 26 b7 3d 79 b6 09 3e a8 73 59 bd d1 ba 50 3d
       0.08942983 0.13448514 -0.053088814 0.050959412
000120 96 37 9b bd 8b d6 53 bd ad 48 ad 3d 02 ae d1 3d
       -0.075789616 -0.051718276 0.084611274 0.102382675
000130 76 49 33 3e 0a 00 56 bd ef 62 2b 3d d2 69 32 bd
       0.17508492 -0.05224613 0.041842397 -0.04355795
000140 98 77 e2 3c cd 3c da 3d a2 47 ff ba d0 9a a1 bd
       0.027644917 0.10656128 -0.0019476304 -0.07890856
000150 ca 2a 63 3c 90 d0 43 3d 06 be 95 bd cd b0 0f bd
       0.013865182 0.047806323 -0.07311635 -0.03508072
000160 5f 4f ac bc bf aa 3c be 4f ae 12 3e 75 d9 38 3c
       -0.02103394 -0.1842451 0.14324306 0.011282315
000170 1d 0c a7 ba cf a6 3c bd fc 23 6f bd b2 0b 9d 3d
       -0.0012744699 -0.04605752 -0.058383927 0.07668246
000180 50 9e a7 bd 8f bc 93 ba 36 32 2b 3c 0c bc 43 3d
       -0.081844926 -0.0011271405 0.010448983 0.047786757
000190 b3 4b 25 bd 47 45 6b bd 3f 17 b9 3c d7 92 96 3d
       -0.040355396 -0.057439115 0.022594092 0.07352226
0001a0 35 51 60 bd 52 2b ef 3d d4 3f d1 bc bf 72 27 3d
       -0.054764945 0.116781846 -0.025543131 0.040880915
0001b0 e5 92 84 3e be df d3 bc dd ee d4 3c 5f dc 23 bd
       0.25893322 -0.025863525 0.025992805 -0.040005084
0001c0 0e 5c 53 3e cb 5f 22 3d 2b 52 41 3d bd cf 0a be
       0.20640585 0.039642137 0.047197502 -0.13555808
0001d0 54 bf 15 3e 7b be 68 bd bf 35 a3 3c a3 db b7 3b
       0.14623767 -0.05682228 0.01992309 0.0056108995
0001e0 ed d5 81 bc cf 08 50 bd f0 cc 87 bb 32 99 75 3e
       -0.015849078 -0.05078965 -0.0041443035 0.2398422
0001f0 ac d0 de 3c 6b 2c e5 3d 2a 5b 0c 3c 47 7f 9d bc
       0.027199112 0.11190113 0.008566657 -0.01922573
000200 ee 2f c9 3b 10 d2 70 bc d5 4b df bc 0c ae ec 3d
       0.006139747 -0.01469852 -0.02725784 0.11556634
000210 73 bc cb bd 4d 07 8c bd 10 f1 52 bd f6 68 7f 3d
       -0.09948053 -0.0683733 -0.051499426 0.062355958
000220 3f 39 01 3e 70 4e 21 3c d0 71 00 3e 0a ff fd 3d
       0.12619494 0.009845361 0.12543416 0.124021605
000230 35 e0 8e bc 4b 64 7d bd 52 89 43 3d 47 cd a5 3d
       -0.017440895 -0.061863225 0.04773838 0.08095794
000240 34 1e b7 3d 14 ae 6a 3c f7 65 04 3e 94 dd c9 3c
       0.08941308 0.01432373 0.12929522 0.02464179
000250 78 f8 88 3c ee 6f 18 3d f2 69 38 3d 0d f1 12 3d
       0.016720042 0.03721612 0.045022912 0.035874415
000260 ab df 89 3c 86 5e b9 bd 06 c5 2e 3d 47 28 05 3e
       0.016830286 -0.09051232 0.042668365 0.13003646
000270 58 04 e9 3d 42 ae 6f 3d 7e 0a d1 3b 75 e5 8a bd
       0.11377782 0.058515795 0.0063794246 -0.06782047
000280 2e 39 04 3c 8e 86 d4 bc cf 1f 66 bc e6 e6 44 3d
       0.008070273 -0.025943067 -0.01404567 0.048071764
000290 56 55 95 bc 60 2e 36 bb e0 0b 31 bd 91 75 7b bd
       -0.018229168 -0.0027798638 -0.043224216 -0.061391417
0002a0 0f 10 13 3d 86 04 b8 3d fe 57 29 3c 79 c4 3c bc
       0.035903987 0.08985238 0.01033592 -0.011521452
0002b0 43 3c e5 3c 97 56 f3 bc b9 64 12 be 65 de 15 3c
       0.027982837 -0.029704375 -0.14296235 0.009147261
0002c0 96 c7 06 bd 39 7a 29 3e f2 ce e2 3c 75 8f 20 3d
       -0.032905184 0.1655053 0.02768657 0.03919931
0002d0 23 2c 93 3c 39 b5 b5 bc 47 92 87 3d 39 dd 15 bd
       0.017965382 -0.02218114 0.06619697 -0.036587927
0002e0 a2 a5 07 be e8 e1 34 bd 6b 6a 80 3b 1d 2e 9f bd
       -0.13246778 -0.044160753 0.003918936 -0.07772467
0002f0 62 40 7b bd f0 96 00 bc 36 bc be 3d c8 7b b0 3d
       -0.061340697 -0.007848486 0.09313242 0.086173594
000300 18 3a c6 bc 9b 27 9c bd c2 2b 2e bd d6 c6 30 3e
       -0.024197623 -0.07624742 -0.0425222 0.1726335
000310 a3 5c 9b bc 0b 58 6a 3d 5f 1e 63 3c 7f 52 a1 bd
       -0.018965071 0.05721287 0.0138622215 -0.07877063

weight f4 [1, 200]
000000 60 86 40 bd d9 7d b1 bd 6e d5 91 bd cf fd a0 bd
       -0.04700315 -0.08666582 -0.071207866 -0.0786091
000010 d0 4e 45 be 03 c8 f5 bd 75 9b 7d bd 82 4e 15 bd
       -0.19268346 -0.1200104 -0.061915834 -0.036451824
000020 a7 ec d2 bd 5a 08 87 be ab d6 2c be ef ef c2 3e
       -0.10299044 -0.2637356 -0.16878764 0.3807368
000030 cc 6c 34 bf eb 89 6c be 59 ec eb 3e ee f1 26 bd
       -0.7047851 -0.23099487 0.46078756 -0.040758066
000040 66 9f 06 bd b4 1f 8b 3e ee aa 16 3d 45 39 13 3d
       -0.032866858 0.27172625 0.036784105 0.03594329
000050 6a 69 02 3e ca 51 97 39 5e d3 2f 3c 95 d6 9f 3d
       0.12735525 0.00028861902 0.010731546 0.078046
000060 8a 60 bf bd 7a 20 eb 3c 9f ee 8c bd 46 48 93 be
       -0.09344585 0.02870201 -0.06881451 -0.28766078
000070 36 cf 0f bf 25 e7 45 3e de 84 a1 3c da 50 e3 3c
       -0.56175554 0.19326456 0.019716676 0.027748514
000080 de 96 c0 bd c1 48 dd bd 38 e4 b7 3b b8 69 21 bd
       -0.09403776 -0.10804892 0.0056119226 -0.039407462
000090 cb 03 5d be 10 58 6a 3d 30 8c b5 3b 4c 31 d2 bd
       -0.21583478 0.05721289 0.0055403933 -0.10263309
0000a0 13 12 b6 be a6 0c 22 3d 55 8b 79 3c 2f 7b 6d be
       -0.35560665 0.039562844 0.015230973 -0.23191522
0000b0 b5 18 94 bd 71 55 5f bc 4a aa c6 be 4f dc 27 bd
       -0.07231275 -0.013631211 -0.38801795 -0.040981587
0000c0 38 5d 7c 3e d3 ba 2f bd 59 83 57 be 9f 0e 3c 3d
       0.24644935 -0.04290278 -0.21046199 0.04591238
0000d0 82 15 f9 3c af 6b 33 3d 08 cf aa be 68 ba 45 3d
       0.030405764 0.043803867 -0.33361077 0.048273474
0000e0 84 9e 61 3c d7 77 13 3f 96 fa 86 be 91 15 09 bf
       0.013770703 0.57604736 -0.26363057 -0.5354853
0000f0 50 26 51 3d cf cf 7c 3e 68 91 8b bb 63 55 fb be
       0.05106193 0.24688648 -0.004259277 -0.49088582
000100 9c 23 5b be 01 cd 98 bd 64 86 c3 bd 48 66 07 3e
       -0.21400303 -0.074609764 -0.09547117 0.13222611
000110 4a ea 34 be f7 37 f1 be 34 6c f1 3c 9f 79 bf 3c
       -0.17667499 -0.4711301 0.02947054 0.023373423
000120 59 ef 57 3d 22 91 86 3c 61 62 dd 3d 58 ba d7 bc
       0.052718494 0.016426627 0.1080978 -0.026333973
000130 94 1c a8 be 7e c8 1b 39 2f 7e b2 3c ea 03 f2 be
       -0.32834303 0.00014856641 0.021788685 -0.4726861
000140 4a 07 ca 3e 1b 49 ea be 44 28 8c 3b 9a 4d e3 bb
       0.39458686 -0.457589 0.004277261 -0.006936741
000150 ee de d3 bc a4 fe a5 3b 61 83 4d bc 49 ef 34 3c
       -0.025863137 0.005065756 -0.01254353 0.011043378
000160 2f f6 b7 3b 78 3f 74 3d 9e 63 c3 be 89 d4 8d be
       0.005614064 0.05963084 -0.3816194 -0.27701214
000170 c0 1f 04 bf c3 d3 91 be ae 9b 2b bd b7 0a 40 bd
       -0.51610947 -0.28481874 -0.041896515 -0.04688522
000180 16 b8 00 3d 76 1f 2b bd 8e 33 a7 bb 05 66 9d be
       0.031425558 -0.04177805 -0.0051025813 -0.30741897
000190 bf 6d 89 bc 5c 40 12 3d d3 70 a6 3a da 4f c5 bd
       -0.016775964 0.03570591 0.0012698419 -0.09634371
0001a0 8d 9b 97 3d b5 d4 16 be 2f 3c 5b 3c fe fb f0 3e
       0.07402716 -0.14729579 0.013381048 0.47067255
0001b0 b3 a8 8a be ee 0a 66 3c 06 0f 58 bd c0 9b a7 3d
       -0.27081832 0.014040692 -0.052748702 0.08184004
0001c0 6b 64 b5 be d4 f2 6c bb e6 d6 74 bd 22 25 d5 3d
       -0.35428175 -0.003615548 -0.059775256 0.10407473
0001d0 d2 14 f5 bc a4 6c 08 3d ac 20 6a 3d d6 90 73 bc
       -0.029917154 0.033306733 0.057160065 -0.014866075
0001e0 82 d2 ea bc 24 a5 d6 3c 0e 5c 46 bd db 8d b3 be
       -0.028664831 0.026201792 -0.048427634 -0.35069165
0001f0 63 73 52 3d 6c e8 e0 bd d1 47 5f bd c2 fc c9 3d
       0.051379573 -0.10981831 -0.05451185 0.09862663
000200 18 87 3a 3d d6 4f b0 3c 55 cb 3c 3d c8 75 ab bd
       0.04553899 0.021522444 0.04609235 -0.08372074
000210 53 6f 07 3d 17 f5 3c bd 53 a6 99 3c 0f 78 98 be
       0.03306515 -0.046132173 0.018756067 -0.29779097
000220 09 a2 d3 bd 9c 08 13 3e 6f 2a a6 be 25 39 a8 bd
       -0.1033364 0.14358753 -0.3245425 -0.082140245
000230 80 9e 49 3c 4c 88 83 3c b2 08 47 bd 5b 38 b3 bd
       0.012305856 0.016056202 -0.048592277 -0.08750983
000240 dc c1 01 3e 1c 5b fe 3c 96 58 53 bd d2 9f 8f 3c
       0.12671608 0.031049304 -0.051598154 0.017532263
000250 5d 9f e8 bc fa 18 8f 3d 05 b3 e5 bd 0a bd 71 3c
       -0.028396303 0.06987186 -0.11215786 0.014754543
000260 b9 31 33 bb d6 25 ad bc ed 70 39 bf b8 a1 e6 be
       -0.002734287 -0.021136206 -0.72437936 -0.45045257
000270 8b 30 e5 bd 54 50 81 3d ed 98 e5 be a4 c8 01 bc
       -0.111908995 0.063141495 -0.44843236 -0.007921372
000280 e9 2b 98 3c 52 61 2c be b7 b7 b4 3c ca 94 81 bd
       0.018575625 -0.16834 0.022060258 -0.063272074
000290 79 05 d9 3c d6 e7 66 3e 7a e5 6e 3d 76 47 c2 3b
       0.026491867 0.22549376 0.058324315 0.005928929
0002a0 44 4d 26 bd 11 64 ca 3e 1a ed 67 bd 62 4d f4 3e
       -0.04060103 0.3952947 -0.056622602 0.47715288
0002b0 5b 27 70 3c a5 91 7f 3c 1b c0 34 3c fd 5e ac 3d
       0.014657821 0.015598689 0.01103213 0.08416555
0002c0 80 3d 6b 3d e1 41 ab be 2d 85 1c 3c de 61 8b 3d
       0.057431698 -0.334487 0.009553236 0.06805776
0002d0 a1 80 0a 3c e4 84 97 3b 2c 13 ef 3d 27 eb 95 3d
       0.008453519 0.004623996 0.116735786 0.073202424
0002e0 51 99 dc 3c 71 af 86 ba 29 27 92 3b b6 63 63 3d
       0.026928576 -0.0010275674 0.0044602347 0.055515014
0002f0 c2 23 eb 3d ee d6 46 3d 96 1c 7e bd 00 f8 92 bd
       0.1148143 0.048544817 -0.06203898 -0.071762085
000300 8a 8e d2 bc 14 59 03 3b 47 0f 0a 3d 16 75 56 be
       -0.025702734 0.0020042108 0.033705976 -0.20943102
000310 ff cc 91 bd 87 63 f9 bc 64 15 28 3e 23 6e 14 3b
       -0.07119178 -0.030442966 0.1641441 0.0022648654

weight f4 [200, 14]
000000 b9 27 56 3e 9f c1 de 3e e1 ee 24 bf 2d e7 a0 be
       0.2091359 0.43507096 -0.64427 -0.31426373
000010 e7 99 14 be 50 d9 d1 3d 93 10 8d 3e 5b ba 62 be
       -0.14511834 0.10246527 0.27551708 -0.22141401
000020 67 0c 16 3d a0 c7 8b 3d 99 b7 90 3e 1d 11 2a be
       0.03663292 0.06825185 0.28265074 -0.1660809
000030 ee 93 ec bd 06 2d cf be fe b8 30 3e 95 7d b7 bd
       -0.11551653 -0.40464038 0.17258069 -0.089595
000040 ec 4c a6 be 68 9e 9e bd e5 ce ae 3d 99 00 4d bd
       -0.32480562 -0.07745057 0.08535556 -0.050049398
000050 55 a4 5b be e8 8b 6c be c5 ee 60 3d 53 24 00 3e
       -0.21449406 -0.23100245 0.05491521 0.12513857
000060 1e 0f ed be a0 69 b9 bb 79 61 22 3e 23 32 35 3e
       -0.46300596 -0.0056583434 0.15857495 0.17694907
000070 72 1e 88 3c cc ea 1c be e2 63 3d 3f 15 65 fe 3d
       0.01661608 -0.15323943 0.73980534 0.124216236
000080 41 5c db be 07 bb 45 be 5d 22 1b bf 8b b3 10 bf
       -0.42843822 -0.19309627 -0.6059931 -0.5652396
000090 3f d6 6e 3e 74 8f 18 3e c5 47 58 be 3c 64 9e bd
       0.23323916 0.14898473 -0.21121128 -0.07733962
0000a0 29 17 8a be 0c 5f 56 be 76 58 b8 3d 89 d9 8c be
       -0.26970795 -0.20934695 0.090012476 -0.27509716
0000b0 73 43 b5 bc 16 58 bb 3b 9a 0c eb 3d c1 07 90 3c
       -0.022126889 0.005717288 0.11477013 0.017581822
0000c0 b8 98 10 be c6 64 da 3d 57 f5 d6 bd b7 c3 0e 3d
       -0.14120758 0.10663752 -0.104960136 0.034854617
0000d0 8d da c1 bc e7 0c 85 3d 03 7a c7 be 0a 49 b8 be
       -0.023663783 0.064966016 -0.38960275 -0.35993224
0000e0 bb dd bd 3e 78 73 2b 3e b8 d0 78 3f d7 3b e4 3c
       0.3708323 0.16743267 0.9719348 0.027860565
0000f0 50 5d 8b be 6b a0 1e be ca 02 c2 be 3d 65 13 be
       -0.2721963 -0.15490882 -0.37892753 -0.14394088
000100 db 52 da bd 95 60 4e 3e ce 6f e6 3b 7d 8e b6 bd
       -0.10660335 0.2015403 0.007032371 -0.08913896
000110 1b ee eb 3d 99 97 c3 3e 5a 15 41 3f 06 6b 07 3e
       0.115200244 0.38201597 0.75423205 0.1322442
000120 59 29 8e be ab d3 82 bd 06 ed 59 be 33 32 ab bd
       -0.2776592 -0.06388029 -0.21281824 -0.08359184
000130 e2 45 ee bd 84 a5 aa 3e f6 89 ba be 19 f4 89 bb
       -0.11634423 0.33329403 -0.3643338 -0.004210007
000140 1d 87 0d 3d a2 9d 8f bd 55 ff 41 3e bc 18 bd bd
       0.034552682 -0.07012488 0.18945058 -0.09233233
000150 5a e3 b9 be b3 a5 83 3e f8 2a 31 bf 65 2f 06 be
       -0.36306268 0.25712356 -0.6920619 -0.13104017
000160 d6 3f 7a 3c b4 dc 24 3d f1 54 80 3e ba 84 84 3e
       0.015274009 0.04024954 0.25064805 0.25882512
000170 ec 91 8f 3c e1 10 22 3e 7a 60 2b 3e ce d5 ff bd
       0.017525636 0.15826751 0.16736022 -0.12491952
000180 4f 40 c7 bd fd 02 3c be a6 c9 14 bf d1 a1 57 3d
       -0.09729063 -0.18360515 -0.5812019 0.052644555
000190 8b a3 e4 bd ce 17 42 3d 99 3f 9b be 31 e2 0f be
       -0.11164006 0.047385983 -0.3032196 -0.14051129
0001a0 af 0b c4 bd 62 17 19 be 8e 0f 65 bd 2f 45 35 3d
       -0.09572541 -0.14950326 -0.055923037 0.04425543
0001b0 9a ba 87 3d 22 0d 86 3e 7e d3 b9 3c a2 ce a1 be
       0.06627388 0.26181895 0.022683855 -0.3160296
0001c0 a7 d2 b3 bc f4 29 28 be 03 c0 1d 3f fc 76 04 3e
       -0.021951033 -0.16422254 0.6162111 0.12936014
0001d0 6e b0 b8 3b f4 b0 10 bd 68 af 06 3e c2 b2 1c 3e
       0.0056362664 -0.035325006 0.1315285 0.15302566
0001e0 7c 19 09 bf 9d 71 0c 3e 2b 40 a3 bd 78 59 b7 3d
       -0.5355451 0.13715215 -0.079712234 0.08952612
0001f0 ea 32 92 bd a7 d5 b6 be 19 27 d1 3e d2 f4 1f be
       -0.07138617 -0.3570988 0.40850142 -0.15620735
000200 55 71 09 3e 2e 91 0b be 16 50 2b 3d 99 e5 01 3e
       0.13422139 -0.136296 0.041824423 0.12685241
000210 86 a0 58 be f2 91 52 be b5 cb 2e 3e 62 b9 07 3c
       -0.21154985 -0.20563486 0.17069896 0.008283945
000220 0a ee 1f 3e aa 43 85 3d 01 85 1a 3e eb 97 2e 3e
       0.15618148 0.065070465 0.150898 0.1705014
000230 5f 51 18 3c 53 b2 2e be 3f 15 e6 3e 55 36 46 3e
       0.009296744 -0.17060213 0.44938084 0.19356664
000240 fb e2 67 3d e8 22 d2 bc ac fd 29 3e 3f 92 f5 3d
       0.05661295 -0.02565141 0.16600674 0.11990785
000250 b0 d3 df be 07 0c fd bc ab ec 32 be 18 eb f7 3d
       -0.43716192 -0.030889524 -0.17473094 0.121053874
000260 a2 77 5a 3d 02 c2 e3 3d ed e2 f9 bd 6f b7 80 3e
       0.053336747 0.111209884 -0.12201486 0.2513995
000270 cc d0 56 bf f8 8f 3b 3c 1f 60 8c be fe f7 51 3e
       -0.8391235 0.011447899 -0.27417085 0.20504758
000280 b9 78 30 be 65 3d 01 3e 80 fa 30 3e 33 d1 43 be
       -0.17233552 0.12621076 0.17283058 -0.19122772
000290 b7 39 18 be 25 c5 82 3d cd fc 7e 3e e5 8e b9 3c
       -0.14865766 0.063852586 0.24901123 0.022651145
0002a0 cb 85 e4 3e b7 c2 5b 3e 71 28 c4 3e cd ef 14 3e
       0.44633326 0.21460997 0.38312104 0.14544602
0002b0 ef bb 73 bd f5 3d f2 bc 0f 7e 21 bd ac a7 12 be
       -0.0595054 -0.029570559 -0.03942686 -0.14321774
0002c0 83 89 22 be ad 17 1e bd 90 ec 01 3e 75 4d 09 be
       -0.15872769 -0.038596798 0.12687898 -0.13408454
0002d0 49 6b d3 3d a3 f1 af bd 6a 4b f1 be 4b 8d 8e bd
       0.103231974 -0.085910104 -0.4712785 -0.06960543
0002e0 25 4a 01 3d 80 da 10 3e d3 6d c5 3d db a9 f9 3d
       0.03156485 0.14145851 0.09640088 0.121906005
0002f0 67 50 64 bb c1 1e ac 3e 9c 8d 48 be 26 df bf 3d
       -0.0034837963 0.33617213 -0.1958527 0.09368734
000300 f3 6c 3e bd 10 0f a6 3d 9a 99 ea 3c f6 ad 9d bd
       -0.04649062 0.08108342 0.028637696 -0.07699196
000310 d7 2f 14 3e c6 93 ab be c5 54 1c bd 5b 8d d5 be
       0.14471374 -0.3351118 -0.03816678 -0.41709408
000320 70 f3 a1 be 34 c8 29 bd ae f9 40 3d e3 75 1e 3e
       -0.3163104 -0.041450694 0.047113113 0.15474658
000330 47 dd fc 3d 0f 74 01 3e 59 91 48 be aa 4b dc bd
       0.12346893 0.12641929 -0.19586696 -0.10756619
000340 fe d0 38 be f1 93 a6 be 7d 6b 21 3e 79 08 52 3e
       -0.18048474 -0.32534745 0.1576366 0.20511045
000350 f9 87 33 3e 8e 13 d1 bc 6d cf 93 bd 85 a1 2c 3e
       0.17532338 -0.02552202 -0.07217298 0.1685849
000360 95 b6 06 3e a8 ab 77 3c 03 68 b7 3d bb 59 0b 3d
       0.13155587 0.01511661 0.089553855 0.03402112
000370 78 b2 39 be 9a b4 06 bd aa 5b 52 3b df 66 4e bd
       -0.18134487 -0.03288708 0.0032098093 -0.050391074
000380 46 b1 65 be 49 5f a4 be 9e a3 0c 3f 3a 6a 0d 3e
       -0.22430906 -0.32103947 0.5493716 0.13810053
000390 34 4a 0e bd 7c 7c 50 3e 14 f9 0a be 80 1d c9 be
       -0.034738734 0.20359987 -0.13571578 -0.3928032
0003a0 4f 0e 01 be ff 38 21 3c 77 c6 8a be 29 b0 af be
       -0.12603115 0.009840249 -0.27104542 -0.34314087
0003b0 35 5e 14 bc c9 83 78 be d8 bd ca 3d 74 1b f6 3d
       -0.009055664 -0.24269022 0.09899491 0.12016955
0003c0 da a9 93 3e 1c 62 8c bd e7 59 f6 3c 2a d8 1c 3e
       0.28840524 -0.068546504 0.030072166 0.15316835
0003d0 a7 7a ed 3d 20 22 8a be 8e 6d e3 be 29 18 69 3d
       0.1159566 -0.2697916 -0.4441952 0.056907807
0003e0 2a b4 22 3e 1b c7 37 bd d8 17 bc 3d b0 09 5f 3a
       0.1588904 -0.044867616 0.09184235 0.00085082185
0003f0 26 4d 0e be da 32 93 3e 2d a5 6d be f6 0f f9 3d
       -0.13896617 0.28749734 -0.23207541 0.121612474

bias f4 [200]
000000 69 ef 6f be 2b 0c 28 be a1 33 ea bc ba ca 87 bd
       -0.23431171 -0.16410892 -0.028589072 -0.06630464
000010 0b 21 6d 3e 4c 65 27 be 8e 1c 7e be 96 66 a4 be
       0.23157136 -0.16347235 -0.2481558 -0.32109517
000020 9d 4f 95 bd 96 7e 95 3e be f6 86 3e 0f de 92 bd
       -0.07290576 0.2919814 0.26360124 -0.071712606
000030 a0 5e 6a be ad 39 a5 be 17 c0 c3 bd a8 0c 19 3e
       -0.22887659 -0.32270566 -0.095581226 0.14946234
000040 cf a2 0a 3e ba 30 60 3e 79 a3 ff bd ba f7 58 3e
       0.13538669 0.21893588 -0.12482352 0.2118825
000050 14 63 7b be b0 73 35 3c 1d 1c c8 bd dd 0f 86 3e
       -0.24549514 0.011074945 -0.09770987 0.26183978
000060 d0 b7 85 bd ce 19 8e 3e 68 a2 69 bd a5 50 bd 3d
       -0.065292 0.27754062 -0.05703965 0.09243897
000070 40 ed 3f 3e b2 c2 d4 3e 5a 81 1a bd 9e 23 c9 be
       0.18742847 0.4155479 -0.037721016 -0.39284986
000080 b4 63 63 be a5 4e b0 be 92 bc 35 be 87 5a a6 bd
       -0.22206002 -0.34435 -0.17747715 -0.081227355
000090 e6 c4 01 3d 4c d7 38 3d 49 cf 73 be 46 2a 54 3d
       0.031681918 0.045127198 -0.23809542 0.051798128
0000a0 c8 85 8b 3d 85 eb 64 3e 28 01 0b be 19 d8 7e be
       0.06812626 0.22355469 -0.1357466 -0.24887122
0000b0 96 8a 07 be bc fe 5f be 04 30 59 3e 36 4c 98 3e
       -0.1323646 -0.21874517 0.21209723 0.29745644
0000c0 93 b6 9f bd 35 aa bd 3e da f6 7e 3e e3 c3 81 be
       -0.07798495 0.3704392 0.24898854 -0.25344762
0000d0 a6 b2 ec 3d 5e b2 b1 3d 5d 5c 8f bd 6d f6 6e be
       0.11557512 0.08676599 -0.07000039 -0.23336191
0000e0 ed ad b3 3e 2a f0 91 be 82 3e c7 bd 31 15 8c 3e
       0.35093632 -0.28503543 -0.09728719 0.27359918
0000f0 d8 4d a2 bd 52 cf 32 3e 43 2a 80 3e b0 59 07 3e
       -0.07925004 0.17461899 0.25032243 0.13217807
000100 6d 6b d0 3d cc dc 8d be 42 7a 1f bb 2f 1b 82 bd
       0.1017674 -0.27707517 -0.0024334346 -0.06352841
000110 71 d4 8f bd 51 b5 b9 bd 5e 4a 8b bd 90 3f a1 3e
       -0.07022942 -0.090677865 -0.06801294 0.31493807
000120 82 43 07 bc cf f8 ba be 45 0a b2 3e eb fd f2 3d
       -0.008255841 -0.3651795 0.3477346 0.11864837
000130 e6 ec 87 be 71 a9 d4 bc 25 0d 15 3e a2 c3 e7 be
       -0.26547927 -0.025959702 0.14555795 -0.45266443
000140 ff 1c 04 3d a7 35 35 3d a3 db 99 be 7f fe 0a be
       0.032254215 0.04424062 -0.30050382 -0.13573645
000150 d1 e6 90 be a7 59 b4 be 71 0c 21 3e 35 19 b8 3d
       -0.283011 -0.3522465 0.15727402 0.08989183
000160 34 eb 38 be 12 50 3a be e5 ca 90 3d 5d ec bc 3e
       -0.18058473 -0.18194607 0.07069949 0.3689908
000170 93 f2 a6 be 06 f7 b3 be a2 11 5d be 31 1f 58 be
       -0.32606944 -0.351494 -0.21588758 -0.21105649
000180 b2 a6 bf 3e 38 97 fc 3d c0 69 84 be 54 1f 66 3e
       0.37431866 0.1233353 -0.2586193 0.22472888
000190 8e 49 e2 be 6b bd 6b be aa 3a a5 3e f4 11 c9 3d
       -0.44196743 -0.23021476 0.3227132 0.098178774
0001a0 59 50 dc be 6d 57 ba be 2b fc 99 be 9b da 4a bd
       -0.4303005 -0.36394826 -0.300752 -0.049524885
0001b0 00 d9 a8 be 8c 93 a6 3e f2 10 d0 3d 93 86 01 bf
       -0.32978058 0.32534444 0.10159482 -0.5059597
0001c0 4f 9b 8a 3e fa 6c 38 3e 0a d6 70 bd 77 fb b4 3e
       0.27071616 0.18010321 -0.058797874 0.35348102
0001d0 f7 97 95 3e 7a 88 96 3e fe ec 8c bc e3 8d 11 bd
       0.29217502 0.29400998 -0.01720285 -0.035535704
0001e0 aa 02 c1 be cc d9 53 be be c3 32 3e 88 5b 52 be
       -0.37697345 -0.20688552 0.17457482 -0.20542729
0001f0 ad 21 82 3d 2d 40 8f be 05 98 ae be 16 9c 3c be
       0.063540794 -0.2797865 -0.34100357 -0.18418917
000200 f7 b8 86 3e c7 35 9a 3e 0f e8 b7 be db 86 5a be
       0.26312992 0.30119154 -0.35919234 -0.21340506
000210 82 a8 08 bb 61 79 8e 3e 88 e5 a6 bd ce d4 30 3d
       -0.0020852392 0.2782698 -0.08149248 0.043171696
000220 71 5a 1f 3e fe f2 87 3c 9a dc 7c 3e d3 fd a1 3e
       0.15561844 0.01659536 0.24693528 0.31638965
000230 35 c7 69 3e 23 fd 0a 3d 3e 33 ca 3e 45 33 39 bd
       0.22829898 0.033932816 0.3949222 -0.04521491
000240 42 41 f9 bd bc 73 8c 3d 25 43 3f be 85 4a f8 be
       -0.1217065 0.06858012 -0.18677957 -0.48494354
000250 96 21 66 be d0 75 be be 21 60 3b be 8a 7e 59 3d
       -0.2247375 -0.3719926 -0.18298389 0.053099193
000260 5f 37 75 be e3 58 9c be 09 38 a8 3d a2 6b b5 be
       -0.23946904 -0.30536565 0.08213813 -0.3543368
000270 10 c5 88 bd 72 a9 ce 3d 2f 9d a5 3e ea f9 f7 bd
       -0.06678212 0.10090913 0.32346484 -0.12108214
000280 5c 5b 9c be 6f 5c 45 3e 34 db 4c bd 83 c8 0d be
       -0.30538452 0.19273542 -0.050013736 -0.1384602
000290 45 db 12 bd 3f 3d 4a be 6c de 90 be ab 44 9c be
       -0.035853643 -0.19749926 -0.28294694 -0.3052114
0002a0 ea 41 b1 be cd 45 71 3e 07 27 b1 3d 3d 5e f0 bd
       -0.346206 0.23561783 0.08650022 -0.117367245
0002b0 ef 34 ea bd 5a b5 15 be 84 ac 5f 3c e8 09 ad be
       -0.114358775 -0.14619961 0.013651971 -0.3379662
0002c0 8e 74 9a be 41 d6 fb 3d 79 fe 66 be a1 ae 5c be
       -0.3016705 0.12296725 -0.22558011 -0.2155099
0002d0 d7 fc 86 3d 97 dd 04 3e 59 9f 57 be c7 c0 a4 3d
       0.06591194 0.12975155 -0.2105688 0.08044582
0002e0 43 e2 0c 3e 87 81 85 3e ef d9 34 3e 05 9e 31 3e
       0.13758187 0.26075384 0.1766126 0.17345436
0002f0 10 ff e0 be 63 41 56 3e 01 71 91 3d 50 48 05 be
       -0.43944597 0.2092338 0.07101632 -0.13015866
000300 ae 74 9e be 8c cb 82 3e 93 10 1c 3e 82 db 0c 3e
       -0.30948395 0.2554592 0.15240698 0.1375561
000310 06 44 9f bd 87 76 f2 bd 2e 64 27 3e 20 1c b1 be
       -0.07776646 -0.118390135 0.1634681 -0.3459177

weight f4 [200, 200]
000000 cd 0f 29 bd 58 92 b9 bc a6 1d 2e be ac 7e bb 3d
       -0.041274834 -0.02265279 -0.17003497 0.0915502
000010 c0 72 62 bc 9c 3c 28 bd 48 a9 fb bd a8 5a d0 bd
       -0.013821304 -0.041073427 -0.12288147 -0.10173541
000020 84 d8 38 bd 89 51 66 bd a8 4d 60 bd 63 d2 75 bc
       -0.04512836 -0.0562301 -0.05476156 -0.015003773
000030 53 9f fa bc f6 3d 91 bd e6 a8 dd bd a9 9a 07 3d
       -0.03059355 -0.07091896 -0.108232304 0.03310648
000040 23 da 75 bd e4 88 5c bc cd fe 75 bd 1d 42 8a 3c
       -0.060022485 -0.013460372 -0.06005745 0.016877228
000050 90 5d c6 bd 42 b9 37 3d cf 56 06 3e cc fe 28 3d
       -0.096858144 0.04485441 0.13119052 0.04125862
000060 34 f5 f6 bc 7e 07 9d 3d de c0 9f bc 00 98 b9 bc
       -0.030146219 0.07667445 -0.019501146 -0.022655487
000070 bc a0 09 be a2 25 83 3d 3d ff 87 bc 3c fb 65 bd
       -0.13440222 0.06403662 -0.0166012 -0.0561478
000080 44 72 2b be 19 a6 aa bd 37 29 4a bc a2 2f fe bb
       -0.16742808 -0.08332462 -0.012338928 -0.007757143
000090 1b 73 06 3d 9a f0 d7 3d a4 82 84 3b 3e 2d 6b bc
       0.032824617 0.10543938 0.004043894 -0.014354048
0000a0 60 50 11 bd 64 86 73 bd bd cf 8e bd 34 26 b3 3d
       -0.035477042 -0.059454337 -0.06973217 0.08747521
0000b0 35 5d fc bd f1 f6 8b bd 9e 64 0d 3d 9c 2c 35 bd
       -0.12322465 -0.0683421 0.034519784 -0.044231996
0000c0 3e c2 06 bd 6e b8 fe 3d 85 3b 95 3c 1f 03 50 bc
       -0.032900088 0.12437521 0.018216858 -0.012696057
0000d0 28 3e d6 bd 1b 03 08 bd 21 9c a4 3c 0e b6 3f bc
       -0.10461074 -0.033206087 0.02009398 -0.01170112
0000e0 eb 5d 59 bd a1 3e b5 bc 34 fc 79 3d 68 99 de bd
       -0.053068083 -0.02212459 0.061031535 -0.10869104
0000f0 95 6d cc bd ce da 5b bc 93 db e4 3c df 7f 4d bd
       -0.099818386 -0.013418866 0.027936732 -0.050170776
000100 ba 9e cf bc 3d cf be bd e4 8a e4 3b 53 9c a6 bc
       -0.025344241 -0.09316871 0.006974565 -0.020338213
000110 3f 46 02 3d 53 d6 e9 bb 10 b8 93 bc c0 c3 00 3c
       0.031805273 -0.007136145 -0.018032104 0.00785917
000120 53 11 28 3d 83 d8 c5 3c 3d b5 11 bd 0c d5 ce bd
       0.041032147 0.024151092 -0.035573233 -0.10099229
000130 75 96 6b 3c 43 27 06 be fe 41 26 be 7f e9 e5 bc
       0.0143791335 -0.13100915 -0.16236112 -0.028065441
000140 40 b3 42 bd 31 23 80 bd a1 d2 bd bc ac ca a0 bd
       -0.047534227 -0.06256712 -0.023171725 -0.078511566
000150 53 42 66 bd 75 3c 09 3c e9 27 fb 3d a2 98 6a bd
       -0.056215595 0.0083762305 0.12263472 -0.05727447
000160 8d 58 24 be 6c fe ba bd 6e e5 bf bc 1e dd 86 3c
       -0.16049404 -0.09130558 -0.02342483 0.016462859
000170 40 5d 99 bb 7e 38 31 bc b9 4e bb bd 00 96 97 3a
       -0.0046803057 -0.010816691 -0.091458745 0.0011565089
000180 0e 40 e3 bd 33 a7 dc 3d 1d aa 72 be 04 30 a1 3d
       -0.11096202 0.10774078 -0.23697706 0.078704864
000190 05 2b 0b 3d f8 ea 8f bc 9a 70 6b bd 67 1c 03 3d
       0.033976573 -0.017568097 -0.057480432 0.03200951
0001a0 0a 15 7b b9 81 ca af bd 6a 7f bf bc a8 01 1a be
       -0.00023945063 -0.085835464 -0.023376185 -0.15039694
0001b0 1f 82 7f bd 1e e3 82 bd 87 a6 cd 3d 22 9f 08 3e
       -0.062379953 -0.063909754 0.10041528 0.13341954
0001c0 8a 94 66 bd 4f b1 8e bd e1 c5 e5 bd 20 c3 d9 3d
       -0.056294 -0.06967413 -0.11219383 0.1063292
0001d0 53 bc 7c bc 2f 90 c8 bd 6c ee 1d 3d 74 6e f0 bc
       -0.015425759 -0.09793126 0.038557455 -0.029349543
0001e0 b9 fd 72 bd f9 e6 cd ba 93 cb 31 bd bf c9 03 3d
       -0.059324 -0.0015709094 -0.043407034 0.032174822
0001f0 2b bb 44 3d c3 de 11 bd bd f6 8d 3d 8f 5a e1 bd
       0.04803006 -0.035612833 0.06931827 -0.11003601
000200 73 8c b6 3d eb 06 57 bd 9d 09 b6 bd a4 53 de bd
       0.08913507 -0.052496832 -0.08888552 -0.10855797
000210 d2 af 61 3d 0c 12 94 bc 04 93 fa 3c b6 1c 40 3c
       0.055099316 -0.018075012 0.03058768 0.011725595
000220 c4 d3 bc bd b4 eb 4f bc 2a 5c 12 be 84 37 ed 3d
       -0.092200786 -0.012690473 -0.1429297 0.115828544
000230 54 71 1e bd 4d 57 d0 bc bd e4 f7 bd e7 8e 2a 3c
       -0.038682297 -0.025432253 -0.12104175 0.010410047
000240 f3 76 1c bd d2 2d 08 be 1f cd 8c 3c 26 d4 71 bd
       -0.038199376 -0.13298729 0.017187653 -0.05904021
000250 fa b4 b5 bd a3 2a 44 bc 19 39 0c be f2 61 f6 bd
       -0.08872409 -0.011973056 -0.13693656 -0.120304
000260 cd 14 66 bd b9 5c 6a 3d 0c 04 9c 3d a5 f1 7e 3e
       -0.05617218 0.057217333 0.076179594 0.24896868
000270 e3 87 47 3d fe df 89 bb 53 83 2c 3d 9b 8f af 3d
       0.048713576 -0.00420761 0.042117428 0.085723124
000280 3f 4a c2 bb 0f 1d 99 bd 88 ee 0b ba b2 08 48 be
       -0.005929261 -0.074762456 -0.0005337973 -0.19534567
000290 15 eb a5 bd f2 a2 8b bd 16 d0 84 3c 87 74 ad bd
       -0.08101479 -0.06818189 0.016212504 -0.084694915
0002a0 08 e3 9b 3a 3f a2 76 bd 85 5d 03 bd f1 53 5e bd
       0.0011893222 -0.060213324 -0.03207161 -0.05427927
0002b0 d2 17 51 be 8f 33 be 3d 9a 52 03 be 36 40 89 bd
       -0.20419243 0.09287178 -0.12824479 -0.067017004
0002c0 98 38 2e 3d 6e 49 db bd f2 fc f0 bd 20 45 4e bd
       0.04253444 -0.10707365 -0.117669955 -0.05035889
0002d0 43 cb 4e 3e a3 f2 4c 3c 93 2a 22 be f9 7b 8a bd
       0.20194726 0.012509021 -0.15836553 -0.06761927
0002e0 4f 23 32 3d b8 5a 00 bc 3e 4b a8 3d 6f f0 3d bd
       0.043490704 -0.007834129 0.08217476 -0.046371873
0002f0 a7 2a 3b bd e6 13 b4 bc 09 23 49 be a6 07 bc bc
       -0.045694973 -0.021982145 -0.19642271 -0.022952866
000300 15 a7 a9 bd 3c ba 01 be 2e a6 9b bc 00 2f a8 39
       -0.082838215 -0.12668699 -0.01900014 0.00032078475
000310 ae 67 8b 3d 0d 90 d6 bd 15 15 45 3d ac f1 80 3c
       0.06806885 -0.10476694 0.04811581 0.015740238
000320 41 71 e0 be e6 90 0c bc 9d e4 be bd 31 25 61 3e
       -0.43836406 -0.008579468 -0.09320948 0.21986844
000330 5d f2 0e 3e 68 f4 2f 3e 4e 26 aa bc 1f 1c 95 bc
       0.13959642 0.17183077 -0.020770218 -0.018201886
000340 d6 51 9f 3e f6 de e7 be 4b 10 9d 3e 38 63 51 be
       0.31117123 -0.45287293 0.30676493 -0.20448005
000350 7f e5 1e 3e f6 29 77 3d 7d 1d bd bd 14 8d 34 bc
       0.15517233 0.06034275 -0.0923414 -0.011019964
000360 aa cb b0 bd 3e b2 b2 be 11 68 ef bd 8e 20 9d bd
       -0.08632596 -0.34901613 -0.11689771 -0.07672225
000370 c9 fa 9b 3c 18 6f 96 be 94 6c 5d bc 55 f4 13 be
       0.019040482 -0.29381633 -0.013514657 -0.14448674
000380 ce c6 31 3e 52 f1 17 3d 37 eb a5 bd 86 9d a0 bc
       0.17360994 0.037095375 -0.08101504 -0.019606363
000390 a3 81 0d be 3a ec 4f 3d cc 29 82 be a7 a9 92 3d
       -0.13818984 0.050762393 -0.25422513 0.07161265
0003a0 1c e3 32 bd d2 b1 97 3d df b8 29 bd cd f6 1a be
       -0.04367362 0.074069634 -0.041436072 -0.1513321
0003b0 0b e0 c5 3e 14 15 cf 3d 87 e0 1b be b3 3b e1 bc
       0.38647494 0.10111442 -0.15222369 -0.027494287
0003c0 f9 f5 05 3d 6a a5 82 bd 9d fb 08 bc 3e f4 c2 bd
       0.03270528 -0.063792065 -0.0083607705 -0.09519242
0003d0 ae d6 93 be b5 c2 47 bf f2 40 02 3e 69 aa 0a be
       -0.28874725 -0.78031474 0.12720087 -0.13541569
0003e0 30 30 fc 3c 66 1e 40 3e c5 75 21 bb 96 ff 9b bd
       0.030784696 0.18761596 -0.0024636847 -0.076171085
0003f0 81 d0 6f be 17 7b e4 bc 5b 71 15 3d 49 44 db bb
       -0.23419382 -0.027890725 0.036485057 -0.00669149
