Vehicles/Navforest_2/Navforest_2_actor_target.pth (torch, 175681 bytes, 5 tensors)

weight f4 [200, 13]
000000 cc 6b a2 bd dc 5b 53 be 57 7a d4 3e 27 7a 83 3e
       -0.07930717 -0.2064051 0.41499588 0.25679132
000010 ee 02 7d 3d a6 51 72 3d bb f1 92 3d d7 79 c1 3d
       0.061770372 0.059159897 0.07175013 0.09447067
000020 3b 11 28 bc 70 0c 4e 3d 5f f7 98 3d ea ac 48 3e
       -0.010258014 0.05030483 0.07469057 0.19597211
000030 91 bc d1 bd 30 54 40 3d 56 75 d4 3d 0d 2c 9e be
       -0.10241044 0.046955287 0.103739426 -0.30892983
000040 dd 8b 9a be 81 9a 35 be ae 79 67 3d c7 3a 31 3d
       -0.30184832 -0.1773472 0.056512527 0.043268945
000050 4f e1 72 be cb 0c 96 3d 4a d3 bd 3d bb 02 3f 3d
       -0.23718761 0.07326659 0.09268816 0.046633463
000060 8d e7 0d 3d af 56 25 3e 62 4d e6 3d ad a3 f6 be
       0.034644652 0.16146348 0.11245228 -0.4817175
000070 2e a7 8e 3d 46 3d 98 3d 45 6e 0e be 5b 8a 8c 3c
       0.06965481 0.07433562 -0.13909252 0.017155817
000080 57 6f fd be 9b d0 2b bd 91 75 29 3d c6 84 2a 3e
       -0.49499008 -0.04194699 0.041371886 0.16652212
000090 31 35 0d be a7 3c 0d be 67 d9 79 3e ff 66 b6 3e
       -0.13789822 -0.13792668 0.24399339 0.35625455
0000a0 e8 78 4f 3e 29 5d d4 3d 81 1c 14 3c 75 a5 20 be
       0.20260966 0.103693314 0.009039999 -0.15688117
0000b0 c6 9c 74 3e 16 b7 61 be 7b 1c b6 be 4d a1 f3 be
       0.2388793 -0.22042498 -0.35568604 -0.47584
0000c0 a4 88 fc bb 06 f5 c8 3d df d9 96 3e ce 79 7e 3e
       -0.0077067185 0.098123595 0.29463097 0.24851152
0000d0 80 6f 84 3e 89 88 6c 3d 1a d1 b6 3d f2 f6 ae be
       0.25866318 0.057747398 0.08926602 -0.3417278
0000e0 ba 7f 17 3e 0d 4b 90 be c4 7b 92 3d bd 47 5b bd
       0.14794818 -0.2818226 0.07152513 -0.05353521
0000f0 84 22 b6 bd 45 f4 ea bd 1d 42 bf be 5b 65 a6 be
       -0.08893302 -0.11472372 -0.37355128 -0.32499203
000100 a5 84 80 be ff f9 44 3e 2d 50 fd bb 2d 6a 15 bd
       -0.251012 0.19235991 -0.007730505 -0.03647821
000110 e6 0b 6f be 09 eb 90 3e 93 f2 66 bd c7 de db be
       -0.23344383 0.28304318 -0.05638368 -0.42943403
000120 22 85 1a 3d 47 10 8c 3e c8 a8 f1 3d 26 8b ff 3d
       0.03772462 0.2735617 0.117997706 0.12477712
000130 1c 9a 3d bd f1 f1 40 3e 7a 71 81 3d 0d df b0 3d
       -0.04628955 0.18842293 0.06320472 0.086362936
000140 a8 7e fc be c7 71 85 be 14 3c d8 3d f7 7c 38 3e
       -0.4931538 -0.26063368 0.10558334 0.1801642
000150 c6 cf 01 3e 32 51 e2 bd 73 de ec 3d 1c 06 03 3d
       0.12676916 -0.11050643 0.11565866 0.03198825
000160 46 3c f3 be 2e b0 8a 3d 64 73 91 3e 09 93 e7 bd
       -0.47506922 0.06771885 0.2840835 -0.113073416
000170 64 3a bc bd ae 13 f0 be 31 ee e2 be f3 6e d1 be
       -0.09190825 -0.46890014 -0.4432235 -0.4090496
000180 18 15 86 bd d5 d9 b0 be 64 8d d2 be 48 d5 90 3d
       -0.06546992 -0.34541193 -0.41123497 0.0707193
000190 93 ad fd 3d d7 53 46 3e 63 23 4a 3e 4e 57 80 be
       0.12386622 0.1936792 0.19740061 -0.25066608
0001a0 9f 6e 0e 3e f7 38 99 3e 3e de f4 3d 5c 86 c3 3d
       0.13909386 0.29926273 0.11956452 0.095471114
0001b0 53 c7 d5 be 94 bc 6d be f4 54 08 bf a3 93 e3 be
       -0.41753635 -0.23216468 -0.5325463 -0.44448575
0001c0 07 11 60 3d 39 98 9c be 52 99 b9 3d 3e de 88 3e
       0.05470374 -0.30584887 0.09062447 0.26732057
0001d0 89 99 1d be 59 47 99 be 15 9d 14 3e 2f df 24 be
       -0.153906 -0.29937246 0.14513047 -0.16100763
0001e0 f2 f9 e2 3b 62 55 b6 bc 66 34 72 3c d1 c2 a5 3e
       0.0069267685 -0.02225751 0.014783001 0.32375196
0001f0 7b 36 28 3e d4 53 da bd f5 96 32 be 0a 45 58 3e
       0.16427033 -0.1066052 -0.17440398 0.21120086
000200 63 d7 e5 bd b5 4c 06 be ea f4 d7 bd f2 c5 94 3e
       -0.112227224 -0.13115199 -0.105447605 0.2905727
000210 cb ff b3 3d 4b f5 bf bd 06 2b 98 3e 00 1e 0f 3e
       0.08789023 -0.09372958 0.29720324 0.13976288
000220 24 29 ea be ba 62 62 ba ce 1f da bc 84 04 7d 3e
       -0.45734513 -0.0008635927 -0.026626494 0.24708754
000230 39 40 60 bd 50 c0 53 be 35 52 75 3e 35 c6 83 3d
       -0.054748747 -0.2067883 0.2395714 0.06434289
000240 80 0b e2 bc 32 26 91 3e 0c 59 3b 3e 77 e5 30 3e
       -0.027593374 0.28349453 0.18295687 0.17275034
000250 8b 16 d4 3d bd 64 65 be 52 2f 0e 3e 2a 8c 23 be
       0.10355862 -0.2240171 0.13885239 -0.15971437
000260 9d 5f 88 3e e8 b7 83 3e 47 b8 d0 3c 04 70 25 bd
       0.26635447 0.25726247 0.025478495 -0.04039003
000270 ef 5d 4b 3e 2f 8a bb 3e 24 a2 3e be ee 88 53 3e
       0.19860052 0.36628863 -0.18616539 0.20657703
000280 c4 74 3a be 23 41 e0 bd d1 48 9b 3e 8e 80 04 be
       -0.18208605 -0.10949924 0.30328992 -0.12939665
000290 0e f1 db 3d d5 90 56 3d d4 e0 40 3e 7f 3c 18 be
       0.10739337 0.052384216 0.18835765 -0.14866827
0002a0 86 77 9b be 68 59 7f 3d 8d b6 72 be 6a fb 18 3e
       -0.30364627 0.062341124 -0.2370245 0.14939657
0002b0 be 23 e3 be 3c 38 d6 bd 77 23 dc 3d be e4 b4 be
       -0.44363207 -0.104599446 0.10748952 -0.35330766
0002c0 4d 4c 2c 3d ed bb f4 bd 03 fc 46 3e 6e 06 61 3e
       0.042064954 -0.119499065 0.19432072 0.21975109
0002d0 6f 3b 16 bc 57 40 b5 bd e2 a4 6d be 24 5b a2 bd
       -0.0091694435 -0.088501625 -0.23207429 -0.0792754
0002e0 82 78 56 3d 34 dc 0e 3e 65 c0 10 3e cb 7e 08 be
       0.05236102 0.13951188 0.14135893 -0.13329618
0002f0 5c 90 b6 3b f9 fd a4 be 2a c2 20 be 3c 27 40 3e
       0.005571408 -0.32225016 -0.15699068 0.18764967
000300 e5 52 6c 3e 89 f9 21 3e e3 e9 e2 bd 9a 1e 8b 3e
       0.23078497 0.15817846 -0.110797666 0.27171785
000310 19 57 f5 3d d4 80 cc 3d 7f 75 5c bd 03 7c 12 3e
       0.11979503 0.099855095 -0.05382299 0.14305119
000320 2c b8 87 3e b5 39 07 be 4a c0 24 be 20 05 0d be
       0.265077 -0.13205607 -0.16088977 -0.13771486
000330 7a 81 eb 3d 7c d6 a2 3e bf c6 04 3e 00 f2 4d bd
       0.11499305 0.31804264 0.1296644 -0.050279617
000340 88 19 55 be 2c 9e de 3d 69 9f 66 be af 43 83 3d
       -0.2081052 0.10870013 -0.22521748 0.06409394
000350 2e b3 dd bd de 33 e0 3d 1f 9d 01 3e 8f 44 de 3d
       -0.108251914 0.10947393 0.12657593 0.1085292
000360 55 ed 84 be c2 e4 52 bb 60 83 54 bd e1 ff 9f 3e
       -0.2596232 -0.0032179807 -0.0518831 0.31249908
000370 95 db 40 3d eb 0b 93 bd c0 32 e4 3e ce 62 05 be
       0.04708441 -0.071800075 0.4456997 -0.13025972
000380 49 d0 d9 3d eb 4f 1e bd 52 d1 dc be 73 8d 51 3d
       0.1063543 -0.038650434 -0.4312845 0.051160287
000390 57 35 89 bd d5 c5 a9 be 64 ef 73 bd 92 db 7a 3e
       -0.06699627 -0.33158746 -0.059554473 0.24497822
0003a0 8f 79 57 be e8 ac 0d be 14 fd 5e be b2 3d 2c be
       -0.21042465 -0.1383549 -0.21776229 -0.1682041
0003b0 b5 3e 92 3e cf 5f 2e bd d6 0a 10 3e 07 c9 6e 3e
       0.28563467 -0.04257184 0.14066634 0.23318873
0003c0 05 02 08 3e 77 9f 9f 3e f5 fe 1f be 17 78 74 3e
       0.1328202 0.3117635 -0.15624602 0.23873936
0003d0 8d 3d 72 3d 88 aa 1a be 55 de 33 3c a6 b1 c0 bc
       0.05914073 -0.15104115 0.010978301 -0.02352221
0003e0 f1 f6 20 bd 8b 44 bb 3e 69 15 20 3e c6 9c 1e 3e
       -0.039298 0.36575732 0.15633167 0.15489492
0003f0 2b 34 87 3e c8 a3 81 be c0 79 8e be 7b 5b 83 3e
       0.26406989 -0.25320268 -0.27827263 0.25655732

bias f4 [200]
000000 e6 07 51 be 2f 4b 83 3e d3 ce 5c be b9 f7 f6 3d
       -0.2041317 0.25643298 -0.21563272 0.12058968
000010 75 6b f0 3e 0c 9c 1b be c2 43 15 be 59 af 65 3e
       0.46956983 -0.15196246 -0.14576629 0.22430171
000020 df fe 67 3d aa 86 4b bd 18 10 99 be 63 c3 ba bd
       0.05663955 -0.049688973 -0.2989509 -0.09119298
000030 50 b4 d7 bd c3 ca 2c be 28 14 9f bb db a0 34 be
       -0.10532439 -0.16874222 -0.0048546977 -0.17639486
000040 c4 4b 05 be 20 d9 2b be f1 df 92 bd 40 14 88 be
       -0.13017184 -0.16782045 -0.0717162 -0.2657795
000050 0c 27 6d 3e 90 2e f3 bd 63 63 94 bd 5b 02 fc 3c
       0.23159426 -0.118741155 -0.07245519 0.030762842
000060 7c ae 8d bd 0b 44 47 bd 92 40 2f bc a9 ce 81 be
       -0.06918046 -0.048648875 -0.010696547 -0.25352982
000070 bd fb c4 be 15 69 3a 3e 15 e7 a7 3e cb 81 eb bd
       -0.3847331 0.18204148 0.3279349 -0.114993654
000080 33 39 2d be 14 ff 93 be fa 6d 99 3d fc 6b d9 bd
       -0.16916351 -0.28905547 0.074916795 -0.106162995
000090 d2 e7 c6 be 67 cd 35 3e fb a3 f1 bd 9e 86 c3 3d
       -0.3884874 0.17754136 -0.11798855 0.095471606
0000a0 50 de 6a be 1d 80 8d 3e 4b 34 1b be d8 ef 48 3d
       -0.22936368 0.27636805 -0.15156667 0.049056858
0000b0 79 6d c4 3d 98 83 53 3e b9 58 ba bd 63 bc 99 be
       0.09591193 0.20655668 -0.09098954 -0.3002654
0000c0 dd 6b 39 3e 80 9a 08 be b3 1d a9 bd 52 38 3a 3e
       0.18107553 -0.13340187 -0.08257618 0.18185547
0000d0 b8 b1 ae 3e bb 6c b1 3d 91 0a 41 be b7 ff a9 3d
       0.34119964 0.08663317 -0.18851687 0.08300727
0000e0 d4 d0 14 bd 40 73 69 3e e0 c7 76 3e c8 f7 68 3d
       -0.036331967 0.2279787 0.24099684 0.056876928
0000f0 d2 8c 21 3e 9f 4f ca bd cd aa 12 be 1c 42 f3 bb
       0.15776375 -0.09878468 -0.14322968 -0.0074236523
000100 08 f4 d9 bd da b8 a8 3e fd b4 65 bd 10 05 41 3d
       -0.106422484 0.3295353 -0.056080807 0.04712397
000110 f9 8a 19 be 79 3e 1a be c1 55 45 be 1b a9 15 3e
       -0.1499442 -0.15062894 -0.19270994 0.1461529
000120 38 43 25 be 42 0b 74 3d cf 48 a9 be 93 df 05 be
       -0.16138923 0.05958105 -0.3306336 -0.13073568
000130 11 08 c8 3d 05 b7 95 be 17 32 0e 3e 23 53 2e 3c
       0.097671635 -0.29241195 0.13886295 0.0106399385
000140 5c 7e aa 3e 8c aa e0 bd a3 ef 17 3d 4a fe 7c be
       0.3329953 -0.10970029 0.03709377 -0.24706379
000150 37 31 c2 3e 01 75 18 3c 11 ad 46 bd 33 10 24 3e
       0.37928173 0.00930524 -0.048504893 0.16021805
000160 0b 93 82 be fb b5 35 be 2b 77 87 be eb 0b 27 3e
       -0.2550281 -0.17745201 -0.26458105 0.1631314
000170 40 6f 90 be f9 65 9c bd e0 31 2d be 30 45 89 be
       -0.28209877 -0.07636637 -0.16913557 -0.26810598
000180 62 eb 54 be e4 ed 9a be d2 7e 77 3e 95 f6 e9 bd
       -0.20792916 -0.3025962 0.24169472 -0.11423985
000190 91 5e 5b 3e a9 a2 78 be 2c 78 a1 be df 1b 8f 3d
       0.21422793 -0.242808 -0.31536996 0.06987738
0001a0 57 e3 36 3d 6c b2 93 be 25 06 12 3e 14 49 39 3e
       0.044650402 -0.28847063 0.14260156 0.18094283
0001b0 f9 9f 01 be 6e bc f2 3d ef 2d 47 3e 9a 85 b8 be
       -0.12658681 0.11852346 0.19451116 -0.3603943
0001c0 29 1f 79 be 29 36 7d 3e 54 0b c0 bd 7b 12 34 be
       -0.24328293 0.24727692 -0.09377161 -0.17585175
0001d0 62 02 c1 3d 6b 0c 01 be c6 cd 7d 3e b3 91 8f be
       0.094242826 -0.12602393 0.24785528 -0.28040847
0001e0 6c d5 9b be 5c 6c 0b be 5a e3 50 3e cf 3e df bd
       -0.30436265 -0.13615555 0.20399228 -0.10900652
0001f0 93 61 b8 bd bc d4 e0 3d 80 23 04 bc 6c 7b 02 be
       -0.09002986 0.10978076 -0.0080651045 -0.12742394
000200 b9 3f 03 be 53 2b 06 3e ce 64 5b bd 1e 64 3b be
       -0.12817277 0.13102464 -0.05356293 -0.1829991
000210 4b d3 b8 bd 58 77 85 be d9 4f 4a be 28 a0 6e be
       -0.09024676 -0.26067615 -0.19757022 -0.23303282
000220 54 3c b1 3c 6a dd a4 3e 44 ed dd 3e af ef 19 be
       0.021635212 0.32200176 0.43345082 -0.15032838
000230 10 b0 87 3e 6f cb a8 be 13 13 6d be 2b fb a3 bd
       0.26501513 -0.32967708 -0.23151807 -0.08006891
000240 bd e9 54 bd ed 2c 57 be 8c 68 84 3e 17 2a 72 be
       -0.051980723 -0.21013232 0.25861013 -0.23648869
000250 62 a6 85 bb 50 2c 8e 3e df 78 18 be b7 44 a4 3e
       -0.0040786723 0.27768183 -0.14889859 0.32083675
000260 7c 42 ff bd 33 09 c6 3d bb 9e 3b be 40 9d 40 be
       -0.12463853 0.09669723 -0.1832227 -0.18809986
000270 ed ce a6 be 12 2c 77 be f8 7d 84 bd 03 f9 87 3e
       -0.32579747 -0.24137905 -0.06469339 0.26557168
000280 f5 a0 63 3d 22 00 c6 3d 67 59 c4 3d 75 a4 7e be
       0.055573422 0.09667994 0.09587365 -0.24867423
000290 de 6b ab bc 3e 91 7c 3d fb 24 86 bc 38 19 d6 3e
       -0.020925459 0.06166195 -0.016375056 0.41816115
0002a0 21 76 0d be 0b f4 8b bd 72 e3 e4 3d e8 d3 bc 3e
       -0.13814594 -0.06833657 0.11176194 0.36880422
0002b0 ee 37 5a 3e 94 b2 9c 3d 58 e9 a9 3c 34 89 50 be
       0.21310398 0.076512486 0.02074115 -0.20364839
0002c0 b6 fa d3 bc 78 93 be bd ec f2 f8 bd fc 57 5b 3e
       -0.025876384 -0.09305471 -0.12155709 0.21420282
0002d0 0f a4 8a be 5b 12 61 bd ea 51 99 bb 1b f7 8f be
       -0.27078292 -0.054949146 -0.0046789544 -0.28118214
0002e0 81 38 39 bd bb 2a 6f bd 90 7d dc 3d b8 44 05 3e
       -0.045219902 -0.05839036 0.10766137 0.13014495
0002f0 fa 4d 57 3e e1 0a 88 be 18 38 ff 3d 2c af b7 3e
       0.2102584 -0.265708 0.12461871 0.35875833
000300 3c c4 e3 bd 2a f2 8c bd 7a 2e d9 bd 3d 34 a4 bd
       -0.11121413 -0.06882127 -0.10604568 -0.08017776
000310 02 eb 62 3e dd 25 95 3e 86 07 f1 3c c5 d0 00 bd
       0.22159961 0.2913045 0.029422533 -0.0314491

weight f4 [200, 200]
000000 8d 63 6b 3d 77 72 01 3e ee 25 ac 3d 9f 7c bd bd
       0.057467986 0.12641321 0.08405672 -0.09252285
000010 32 1c b1 be fc cb 5f 3c 50 29 9e 3e ea 7a d2 3d
       -0.34591824 0.0136594735 0.30890894 0.1027735
000020 aa 0e 74 be 2e 1b 1b 3e fb 4b eb 3d 2c 65 79 bd
       -0.23833719 0.15147087 0.114891015 -0.0608875
000030 35 bf 32 bd 7f 8e 27 3e 9f 0e 2a 3d c3 5a c5 3c
       -0.04363938 0.16362952 0.04151785 0.02409113
000040 2f fd 5f be 08 86 8c be ed c5 86 bd f0 31 b9 3a
       -0.21873926 -0.27446008 -0.0658072 0.0014129262
000050 9c ad 31 3e 78 8a 52 3e 8c 50 44 bd f2 19 4d 3c
       0.17351383 0.20560634 -0.047928378 0.012518393
000060 13 ae 30 3e 0e 0c 06 3e e5 7c af 3d c5 7d 8f be
       0.17253904 0.13090536 0.085687436 -0.28025642
000070 ba 9c 09 bb 9f f6 21 be 9b 04 fe bd 20 a9 e6 3b
       -0.0020997957 -0.15816735 -0.12403222 0.0070392042
000080 19 73 22 be 4b ad 24 bd 34 d5 07 3e ed 32 e3 3a
       -0.15864219 -0.040204328 0.13264924 0.0017333903
000090 8a bb 3d be 7c 1e 39 3e d1 f7 85 3d 99 2d f6 3d
       -0.18528572 0.18078035 0.06541408 0.12020416
0000a0 60 0e 19 be 07 8d 0b 3e 9b 44 1e 3e 3d c7 44 bd
       -0.1494689 0.13628016 0.15455858 -0.04804157
0000b0 b0 38 33 3d e8 06 9f be 73 30 7e bd 99 0a e0 3d
       0.043755233 -0.31059957 -0.062057924 0.10939521
0000c0 89 33 15 3e 13 5b cb 3c 67 f7 70 3c 8a 39 99 3d
       0.1457044 0.024823701 0.014707423 0.07481678
0000d0 79 63 cd bd 0b 5a 24 3e 13 26 06 be 70 11 44 3e
       -0.100287385 0.16049974 -0.13100462 0.19147277
0000e0 7e 0c a5 bd 87 18 9b bd 29 c5 97 3c d1 3b 26 3e
       -0.08059023 -0.075730376 0.01852663 0.16233756
0000f0 75 79 fe 3d 8a 5f 53 3e 95 11 0d bc 25 01 1f 3d
       0.1242551 0.20641914 -0.008610149 0.03881945
000100 4b 32 74 bd 15 94 e8 bd 56 a0 76 3d 9c 0c e3 3d
       -0.059618276 -0.113563694 0.060211502 0.110863894
000110 4a 0e 89 bc 1a c1 e0 3d 38 36 d9 bb 1f 73 cb bc
       -0.016730446 0.10974331 -0.006628778 -0.024835167
000120 20 0d e9 bd fd df e5 bc 55 59 84 3c 0b 8a a3 3d
       -0.113794565 -0.028060907 0.016155878 0.07985314
000130 35 00 8c bd 51 9e 82 bd 75 a9 37 3d c3 54 91 3d
       -0.06835977 -0.06377853 0.04483934 0.07096245
000140 30 bf e2 3e 11 e1 71 3e 1a 5b 04 be e5 c1 8c be
       0.4428649 0.23621012 -0.12925377 -0.2749168
000150 17 7b 4d be d6 92 2a bd 1a 8e 9f bd f8 3c 29 3e
       -0.20066486 -0.04164394 -0.077907756 0.16527164
000160 86 46 b2 3c 74 31 1c be fa 82 d6 be 74 fc aa 3d
       0.021762144 -0.1525324 -0.41896802 0.08348933
000170 b2 97 4e bd 31 22 88 3c 6f 21 04 be e5 c0 92 be
       -0.050437637 0.016617866 -0.12903379 -0.28662792
000180 c9 1c 4c be 49 8b 3b bd 45 6b 4f 3e 98 9e d2 3d
       -0.19932856 -0.04578713 0.20255764 0.102841556
000190 d1 b0 29 be b4 27 dd 3d 2b be 9c 3d e3 59 c0 bd
       -0.16571356 0.107985884 0.07653459 -0.093921445
0001a0 dd f4 6e 3d 14 d7 cd 3d 6d 07 58 be fe 0d 02 be
       0.05833899 0.100507885 -0.21096583 -0.1270065
0001b0 85 ab de 3c 60 68 0a bd fb bc 10 be 43 86 c3 bd
       0.027181396 -0.033790946 -0.1413459 -0.09547093
0001c0 f3 4d 07 3e dd 2b 44 be 38 e8 97 3c d3 7c c7 3d
       0.13213329 -0.19157358 0.018543348 0.09740605
0001d0 27 69 ca 3c 78 d4 13 bd 72 bc 32 be f6 23 45 3d
       0.024708344 -0.036091298 -0.17454699 0.04813
0001e0 eb dd 82 3e 90 4f 63 be df 0b 03 3d 28 fc 82 3c
       0.25559935 -0.2219832 0.031993743 0.015989378
0001f0 d4 23 5a 3d a7 f7 08 3e fd ce 88 3d 6b 77 3d 3e
       0.053256825 0.13375722 0.06680105 0.18502586
000200 c5 a8 22 be f2 b2 83 bc 07 f2 3c 3c b7 83 3a 3e
       -0.15884693 -0.016076539 0.011532313 0.18214308
000210 d7 82 a2 3d 30 a5 23 3d 11 28 dd bc 35 46 93 3e
       0.07935112 0.039952457 -0.026996644 0.287645
000220 98 9b b5 bd 51 99 62 bd 0f cb b4 be 7e eb d3 bc
       -0.08867568 -0.055321995 -0.3531117 -0.025869127
000230 df 0c ec bc ff ad f9 3c 4e 58 89 bd 86 ea e8 3c
       -0.028814731 0.030478476 -0.06706296 0.028432142
000240 64 6a c2 bc 42 69 ad 3d ce 31 86 3d 1e f2 89 3e
       -0.023732372 0.08467342 0.06552468 0.26942533
000250 ec 7a d9 3c 94 cb f5 3d ca 88 58 3e c0 b5 a9 3c
       0.026547872 0.1200172 0.21145931 0.020716548
000260 86 11 96 bd 65 cb a6 bc b7 18 3f be 7a f5 43 bd
       -0.07327561 -0.020360658 -0.18661772 -0.047841527
000270 4e 1f 12 3d ca e6 9b 3d 54 40 01 be 75 ae 8e be
       0.035674386 0.07612379 -0.12622195 -0.27867475
000280 a4 2c 88 3e da 1a bb 3d 9a ef 91 3d ab a2 27 bb
       0.26596558 0.09135981 0.071257785 -0.0025579135
000290 bf 89 3d 3e c2 84 0c be 27 fe 77 3c 80 cd 87 be
       0.18509577 -0.13722518 0.015136278 -0.26523972
0002a0 25 78 27 3d 2c 0c 1b 3e a4 06 25 bd 96 20 ee 3d
       0.040886063 0.15141362 -0.040289536 0.11627309
0002b0 35 44 6e 3d 7c a6 04 3e df 3e 16 bb 30 dc 40 be
       0.058170516 0.12954134 -0.0022925658 -0.18833995
0002c0 ec 53 79 3c fd fe c3 bc 8d 1f 53 3c ab 8f 89 be
       0.015217762 -0.023925299 0.01288594 -0.26867422
0002d0 bf 17 46 be ae c8 cc bd 57 50 b0 be 42 2c cd 3d
       -0.19344996 -0.09999214 -0.34436294 0.10018207
0002e0 17 cd 37 3d a7 0c 97 bc b5 0a a1 3d 86 b9 b8 3d
       0.044873323 -0.01843865 0.0786337 0.09019761
0002f0 69 c4 0f 3e 44 83 a8 bd a6 2c cf 3d 81 91 5e bc
       0.14039768 -0.08228162 0.10115938 -0.0135844955
000300 06 a9 3c 3d b7 3d 39 3e 2d ec 19 bd c0 98 31 3d
       0.04605963 0.18089949 -0.03757875 0.043358564
000310 c6 ff b0 3d d1 ea 2b 3e 58 8e 9f bd dd f2 da 3d
       0.08642535 0.16788794 -0.07790822 0.10690854
000320 1c 22 b3 38 57 57 24 bd 3c 92 f3 38 92 be c4 bd
       8.5417385e-05 -0.040122356 0.00011614381 -0.09606661
000330 e1 33 cd bc 3c 73 0b 3d 1b 32 2e 3d 1f 6d 02 3d
       -0.025049152 0.034045443 0.042528253 0.031842347
000340 bf f6 36 3e 7f c2 a8 3d 3a eb a3 bd 52 a4 88 be
       0.17867564 0.08240222 -0.0800385 -0.26687866
000350 c9 b1 b1 3d 30 46 ac bd 53 e4 42 be 21 45 94 be
       0.08676488 -0.08411825 -0.19032411 -0.2895899
000360 76 3e 07 3d d4 b6 8b bd c1 a3 88 39 65 ee fd 3c
       0.03301855 -0.06821981 0.00026061948 0.030997464
000370 4c 35 cc bd df 55 d9 3d 64 44 f8 bd 57 11 26 3d
       -0.09971103 0.10612082 -0.121224195 0.04054388
000380 7f 3b 9c 3c 96 07 96 bc 41 21 bc 3c 28 f1 bf bd
       0.019071339 -0.018314164 0.022965075 -0.09372169
000390 f6 e5 d3 3c 8d 54 d4 bc 89 92 9f bd 62 3b fd 3d
       0.02586649 -0.025919223 -0.07791621 0.12364842
0003a0 7b da 8a 3d 5e 96 a3 3c 60 e0 0a bd 70 e6 2f 3c
       0.06779953 0.019969162 -0.033905387 0.010736093
0003b0 b8 5d 02 3e 7b 6b 5d be 75 7e aa 3b c5 69 12 be
       0.12731063 -0.21623032 0.005203063 -0.1429816
0003c0 bd 9f 39 3e 83 25 94 bd 35 78 ea 3d ea 81 8e be
       0.18127342 -0.07233717 0.11448709 -0.27833492
0003d0 e5 7d 40 3c 40 d8 ea bd 8c 7e 0f bb 27 18 c0 3b
       0.011748766 -0.11467028 -0.0021895496 0.005862254
0003e0 36 2a 4d 3d e4 4c 88 bd 56 ad 9e 3c 69 a5 5f be
       0.050089084 -0.06655291 0.019369762 -0.21840443
0003f0 6e a3 94 bc 8d d6 5f 3c 39 6b bd 3c 5f 32 f6 3c
       -0.018144336 0.013661993 0.023122417 0.030053316

bias f4 [200]
000000 84 67 6d 3d 03 61 cf bd 27 aa 6e 3d b9 25 ac bc
       0.05796005 -0.101259254 0.05826774 -0.021014081
000010 2c 7a 89 3c c9 17 10 3d fa 61 34 bc 22 30 32 bc
       0.016781889 0.035178933 -0.011009688 -0.010875734
000020 4a 70 ee 3c ae 42 25 3d be 1d 57 3c a3 46 33 3c
       0.029106278 0.040346794 0.01312965 0.010942134
000030 0d cf 00 3e 4e 59 0f 3e 18 66 9c bd 3b 75 56 bb
       0.12578984 0.13998911 -0.0763666 -0.0032723683
000040 f2 c0 85 3d ba 61 01 bc 6e 0c 2d 3d f4 55 55 bb
       0.06530942 -0.007896835 0.042248182 -0.0032552453
000050 1c 86 8f bc 8d e9 3f 3d 28 e1 0b bd 14 ff ca 3c
       -0.017520003 0.04685359 -0.034150273 0.024779834
000060 81 fd 4e bd 58 bc 76 3d b1 71 4b bd 0f 66 dd bb
       -0.05053473 0.060238212 -0.04966897 -0.006756551
000070 64 5c d9 bc 62 9e 71 bd 4e 98 22 be 7b 17 a1 3d
       -0.026533313 -0.058988936 -0.15878412 0.07865807
000080 88 b9 b5 bd dc 82 eb 3b bb 39 62 bc a2 1e c6 bc
       -0.08873278 0.0071872305 -0.013807709 -0.024184529
000090 e4 44 e1 3d a9 48 40 bd 65 32 c6 bd 3b 6d 92 3c
       0.10999468 -0.046944294 -0.09677581 0.01787435
0000a0 89 63 6e 3d 4e eb 1f 3c 0e cb 97 bd a3 bb 98 bd
       0.058200393 0.009760691 -0.074117765 -0.07457664
0000b0 a1 f9 0b 3d fc 17 71 bc 40 32 19 3d a4 30 d1 3d
       0.03417361 -0.014715191 0.037401438 0.102143556
0000c0 25 84 02 bd e8 64 34 bc 46 55 31 bc bb b5 a3 3d
       -0.031864304 -0.011010386 -0.010823553 0.07993647
0000d0 b4 e5 b9 bc 21 ae ef bc fb c8 cc bc 6d 58 02 3d
       -0.022692539 -0.029257836 -0.024998179 0.03182261
0000e0 a0 a0 45 3c 0e 15 91 bd a7 df a5 3c bd ef 17 3c
       0.012062222 -0.07084094 0.020248247 0.009273467
0000f0 55 78 ee 3d 0e 0a 9f 3d dc aa 31 3e b7 df a5 bd
       0.11644045 0.0776559 0.17350334 -0.08099311
000100 2c 17 2c 3d fa 7a 08 3d dd 65 10 3d 48 df b6 bc
       0.042014286 0.033320405 0.035253394 -0.022323266
000110 a4 fb 09 3e e5 d8 fc bd bc 3e 76 bd a2 d3 64 bd
       0.134749 -0.12346057 -0.060118422 -0.05586589
000120 60 1a 02 3d 53 c5 5b bc c8 4e 2b 3d 06 69 50 3d
       0.031763434 -0.013413745 0.04182318 0.05088141
000130 d0 cc 84 3d bf d2 a0 bd 1f 17 2c bd ec 36 f0 bd
       0.064843774 -0.078526966 -0.042014237 -0.117292255
000140 1e 2a 54 ba 1c 45 a7 3d 88 60 0d 3d 8b 3a 4e 3e
       -0.0008093434 0.081674784 0.034515887 0.2013952
000150 a9 67 2b bc 89 c2 40 bd 88 b0 4c 3d fe bb d1 3d
       -0.010461726 -0.047060523 0.04997304 0.10240935
000160 dd 88 2f 3d ac ae 7a bd 5f 5a 07 3e 01 b4 85 3d
       0.042855132 -0.061201736 0.13218068 0.06528474
000170 a0 f4 e0 3c 20 8c 9e 3d 2e ae 48 bd 24 9a 8f 3b
       0.027460396 0.077415705 -0.048994236 0.0043823887
000180 3e ab b2 3d 47 8c af bb e4 84 85 3b 3c b7 fd 3c
       0.08724068 -0.0053572985 0.0040746797 0.030971162
000190 11 27 f2 bd a0 de 94 3c 55 b6 37 bc be 85 20 3d
       -0.118238576 0.018172562 -0.011212905 0.039190046
0001a0 34 eb bd bd 9a ac 12 3d 1c 4c 4e 3c dc 9a 48 3d
       -0.09273377 0.035809137 0.012591388 0.04897581
0001b0 7b 11 99 bd c0 85 bf 3c 22 0e d3 bc f3 be 3d bd
       -0.07474037 0.023379207 -0.025763575 -0.04632468
0001c0 dc 7a c8 3c b5 ca d7 3b bb c5 12 bc fe 3f 8a 3c
       0.024472646 0.006585444 -0.008958275 0.016876217
0001d0 cb a1 0b be 3f 9a 38 3d b4 09 e5 3c 95 2c 88 bb
       -0.13635938 0.045068976 0.027958728 -0.004155705
0001e0 ac 1a 02 3d 0a fd c6 3d bd 6f 0b bd a1 e9 83 bd
       0.031763718 0.09716232 -0.03404211 -0.064410456
0001f0 14 74 bf 3c aa ce a3 3d 6b e9 36 bd 81 65 46 bd
       0.02337078 0.079984024 -0.0446562 -0.048436645
000200 b4 4d ef bc af ac 7d 3d 48 c9 8c 3d e3 92 8c 3d
       -0.029211856 0.061932262 0.06874329 0.06863954
000210 23 41 91 3d 9b 65 60 3d c0 41 78 3d 2d 61 0d be
       0.07092502 0.0547844 0.06060958 -0.13806601
000220 b8 f0 af 3d 8c ce 3a 3d fe 39 6a bc f9 55 6f bd
       0.08590835 0.045607135 -0.014296053 -0.0584316
000230 7b 99 96 3c 51 79 e7 3d ae d3 11 bc c2 14 29 bd
       0.018383732 0.11302436 -0.008900566 -0.04127956
000240 ec 79 a3 3d 66 80 8c 3c f7 e3 a9 3c a6 6b 87 bc
       0.07982239 0.017151069 0.020738585 -0.016530823
000250 8f da 39 3d 2c a1 d5 3c 4b 4b 06 bd 61 ac 04 3e
       0.04537445 0.02607783 -0.03278665 0.12956382
000260 da f8 61 3d 03 aa 61 3d e5 8e ff bb 2d 62 1a 3e
       0.055168964 0.055093776 -0.007799017 0.15076514
000270 33 8f 9d 3d 86 62 58 bd 70 e4 ad bc d2 b0 5a bc
       0.07693329 -0.052828334 -0.021227092 -0.013347821
000280 d9 ac 21 3c 63 e2 6b bd 0e a0 05 3d d0 ca ae 3a
       0.00986787 -0.057588946 0.032623343 0.0013335589
000290 8c 93 7e bd 6c aa 28 3c 58 3e cf 3c a6 a9 6e 3d
       -0.06215243 0.010294538 0.025298283 0.058267258
0002a0 9f 6e a2 3d 8c cd aa 3c f3 1b 6b bd fa 79 d0 bc
       0.079312555 0.020849966 -0.0573997 -0.025448788
0002b0 50 d2 3c bd 67 c7 80 bc a4 b3 e3 bc 3b 4a 88 bd
       -0.046099007 -0.015720082 -0.02779562 -0.06654783
0002c0 66 b1 81 3d 76 82 a0 3d a5 52 84 bd 26 92 88 bd
       0.06332664 0.078373834 -0.06461076 -0.066685006
0002d0 9c 04 cc 3d f2 0c 14 be 04 ea 7d bc c4 7c 8a 3c
       0.09961817 -0.14458063 -0.015497688 0.016905196
0002e0 c8 a8 96 3a 1e de c1 3d 9b a6 5c bd f4 5c 5f 3c
       0.0011494393 0.094661936 -0.053869825 0.013633002
0002f0 98 b7 96 3d 9a 70 50 bd 39 89 82 3d 19 28 24 3c
       0.073592365 -0.050888635 0.063738294 0.010019326
000300 23 de c8 bd e2 b6 53 bc 57 fe 83 bc 37 01 2f bc
       -0.09807994 -0.012922021 -0.01611249 -0.010681442
000310 da ed ea 3b 9a 58 54 bd 02 90 13 3d 67 a8 86 3d
       0.0071694674 -0.05184231 0.03602601 0.06575089

weight f4 [1, 200]
000000 0b 83 97 3e 20 04 15 be 44 58 5e be 3e ec a2 3c
       0.29592165 -0.14552355 -0.21713358 0.01988804
000010 e3 c4 f2 bc f9 dc bb 3e ca 1d 6f 3e 6b 0f 61 3e
       -0.029634899 0.36692026 0.23351207 0.21978538
000020 95 de 94 bb c8 86 4b 3d db 6b 2a 3e 85 8d dd 3c
       -0.0045431354 0.049689084 0.16642706 0.02704502
000030 09 5f 9f be 30 e7 34 3e ab f1 d7 bb 0d 00 8b bd
       -0.31127194 0.17666316 -0.0065900884 -0.06787119
000040 db 5f 07 be 36 84 e1 bd 00 71 42 3d de 80 2a 3d
       -0.1322016 -0.11011545 0.047471046 0.041626804
000050 d5 b6 07 3e 14 bd a1 3d 0a c1 d2 bd dc c1 17 be
       0.13253339 0.07897392 -0.102907255 -0.14820045
000060 c5 08 30 bb 33 65 9f 3d 9f 34 3e 3d 0b 68 33 3e
       -0.0026860696 0.07782974 0.046436902 0.17520158
000070 af 45 3d 3d a0 0b d1 3b 60 b0 24 be 8f 0b 73 bd
       0.046209034 0.0063795596 -0.16082907 -0.059337195
000080 60 eb c1 39 ce 15 e2 3d bf b2 b6 3c cd f6 f9 3d
       0.00036987197 0.11039315 0.02230203 0.12205277
000090 ec 33 0a be bc ba 0b 3d b2 0a 0f be 50 c8 0b 3e
       -0.13496369 0.03411363 -0.13968924 0.13650632
0000a0 ce 26 a2 3d be df df 3b 8e da 1f be ba 19 04 bd
       0.07917558 0.006832092 -0.15610716 -0.032251097
0000b0 a1 5b 97 bb 0c d5 8a bc 85 8a 2b 3e 89 cb 3f be
       -0.0046190773 -0.016947292 0.1675206 -0.18729986
0000c0 4e b8 ad bc 69 0e da 3b 65 e8 07 3b 37 09 8d bd
       -0.021206047 0.00665455 0.0020737883 -0.06886523
0000d0 ae 58 ee 3b ef cb fe bc 56 a9 ff 3d d3 9d 76 3c
       0.007273755 -0.031103102 0.1248347 0.015052277
0000e0 3c 4e 78 ba 0c 7c 84 3c 27 50 51 be b8 c1 43 3d
       -0.0009472107 0.016172431 -0.20440732 0.047792166
0000f0 c7 be a8 be d5 0d 1e be f0 ce 73 3e 38 a8 c1 3c
       -0.32958052 -0.15434964 0.23809409 0.023639783
000100 8c 96 b7 3e 0d 09 1c bd af 22 ff 3c 3f 6f 3b 3c
       0.35857046 -0.03809457 0.031144468 0.011440097
000110 47 71 52 3e 99 22 bf bd 6c f1 f2 ba 92 95 0c be
       0.20551024 -0.09332771 -0.0018535084 -0.13728932
000120 40 2e 5d be f9 7b 75 3b 6c 99 08 3e fd e9 12 3c
       -0.21599674 0.0037457927 0.13339776 0.00896692
000130 36 c7 58 be bd 48 ed bb 6a 13 65 bb 1b 60 8e be
       -0.21169743 -0.007241337 -0.0034954199 -0.27807698
000140 9a 4e b0 3a e4 dc 06 be 12 00 2e be a8 a7 9b be
       0.001345116 -0.131702 -0.16992214 -0.3040135
000150 72 95 11 be 8c 56 04 3d c5 4b 69 3e cc 93 1e be
       -0.14217165 0.0323091 0.2278281 -0.15486068
000160 d6 d3 f0 bd 55 35 12 3c c3 bc a1 be a6 e0 13 be
       -0.117591545 0.008923848 -0.31589326 -0.14441165
000170 33 fa a2 bc c3 88 00 be 04 f8 12 3d f8 f8 3f bb
       -0.019894695 -0.1255217 0.035881057 -0.0029292684
000180 42 5d 4a 3e 78 6c cc 3c b4 a2 f9 3b 8c 80 61 3e
       0.19762138 0.024954066 0.0076182727 0.22021693
000190 f8 3d 40 be 99 2f e3 bd 31 f9 b7 3d 14 9c 50 bc
       -0.18773639 -0.11093063 0.08983076 -0.012732524
0001a0 bb 1f 8d bd ad cc 0d be fe a0 21 3d a4 e5 09 3e
       -0.06890818 -0.13847609 0.039460175 0.13466507
0001b0 94 2e 42 be c9 30 bb 3d 2a f2 8d bb 53 20 ab bc
       -0.1896308 0.091401644 -0.0043318467 -0.020889437
0001c0 1e e8 71 be f5 c2 03 3e 72 a8 58 bc 21 3b 63 3d
       -0.23623702 0.12867339 -0.013223754 0.05547631
0001d0 11 1c f6 bd f1 ff 5e 3c e4 0b 29 bd 46 fb 29 3c
       -0.12017072 0.013610826 -0.041271105 0.01037485
0001e0 15 63 1a bc f9 df 21 be 9a 1a 56 bb 0e b6 24 be
       -0.009423037 -0.15808095 -0.0032669664 -0.16085073
0001f0 24 05 71 be a6 5b 99 be ac b4 8a 3c 2c f2 8e 3c
       -0.23537117 -0.29952735 0.016931854 0.01744946
000200 8d c0 d7 ba 6c 76 8f bd 46 e0 31 be ae 8e b8 3d
       -0.0016460583 -0.07005009 -0.1737071 0.09011589
000210 d7 33 4f be e8 df 4e be 81 78 15 3d ec a8 72 be
       -0.20234619 -0.20202601 0.036491875 -0.23697251
000220 24 08 22 be 2d 9a 32 3c d2 80 32 3e 59 15 d6 bc
       -0.15823418 0.010901016 0.17431954 -0.026133226
000230 bc 4a bd 3a af ac 23 be 28 fb 4e 3c c5 36 bf ba
       0.0014441828 -0.15983842 0.0126331225 -0.0014588466
000240 04 3d a7 be cd 12 9b bb d4 93 85 3c b4 d8 11 be
       -0.3266374 -0.004732466 0.016305842 -0.14242822
000250 31 22 52 3d f8 19 2e 3c 8b f1 5a 3d fb 7f 37 be
       0.05130214 0.010626309 0.05345301 -0.17919914
000260 e0 b1 20 3e 21 0f 77 bd 39 4f 54 bd 97 43 a1 be
       0.15692854 -0.060317162 -0.051833365 -0.3149688
000270 c0 d7 87 3e 04 45 3b 3d 35 b0 0e bc 58 ba b0 bb
       0.26531792 0.045720115 -0.008709003 -0.0053933077
000280 1b 89 3c be 74 be 04 3d 52 62 05 bd a6 ba 9c bd
       -0.18411677 0.032408193 -0.03256447 -0.07652788
000290 bd cf 3d be c9 fa 54 be 18 d7 03 bb 99 1a 68 3e
       -0.18536277 -0.20798792 -0.002011722 0.22666396
0002a0 0f b5 90 3d 7e 5b 24 be be 45 2b 3d 21 1d 6c bb
       0.07065784 -0.16050526 0.04181456 -0.0036028104
0002b0 dd 6c e5 bb 69 89 16 be 41 ef 88 3d 48 0a 0d 3c
       -0.007001503 -0.14700855 0.06686259 0.008608408
0002c0 c0 ad 05 be 38 ec 33 be 57 e3 45 ba ae 4c e7 bc
       -0.13054562 -0.17570579 -0.000754883 -0.028234806
0002d0 85 3a 59 3e 9b 6c ee bd 28 d3 44 3d 1b 2e 72 3d
       0.2121373 -0.116418086 0.048052937 0.059126
0002e0 f7 fe ac bd 0a 38 46 be aa a4 bc ba c9 6a 37 be
       -0.08447068 -0.19357315 -0.0014392335 -0.17911829
0002f0 a6 e6 e1 bd a9 61 59 3c 6f b6 ee bd cf 80 a6 bd
       -0.11030321 0.013267913 -0.1165589 -0.08130037
000300 b0 cf a3 3c 92 54 e0 bc af 5d a8 bd af 8a 32 3c
       0.019996494 -0.027384076 -0.08220994 0.010897323
000310 02 df ea bc c7 e7 41 3a 76 85 3a 3e 52 fc 1a be
       -0.028670792 0.0007396903 0.18214974 -0.15135315
