Vehicles/Navforest_2/Navforest_2_critic_target.pth (torch, 351955 bytes, 10 tensors)

weight f4 [200, 14]
0	0x3e5bba1e	0.21457717
1	0xbe3190ab	-0.17340343
2	0xbf9d7188	-1.2300272
3	0x3f675dad	0.9037731
4	0x3f56608e	0.8374108
5	0xbe535cee	-0.20640919
6	0xbec7c462	-0.39017016
7	0xbf66e537	-0.90193504
8	0xbf1075b0	-0.56429577
9	0xbf885266	-1.0650146
10	0xbf078a6f	-0.5294561
11	0xbe8be5e3	-0.27323827
12	0xbf39032c	-0.72270465
13	0x3f6eb9a6	0.9325203
14	0xc00d0ec6	-2.2040267
15	0x3efea240	0.49733162
16	0x4068108d	3.6260102
17	0xbc86961b	-0.016428998
18	0xc01cce97	-2.4501092
19	0xc033f5b1	-2.8118708
20	0xc02a5c12	-2.6618695
21	0x3f1cfdd2	0.613248
22	0x3e847c5c	0.2587613
23	0x3ec828ca	0.3909362
24	0xbf44d60a	-0.768891
25	0xbeb3c535	-0.35111395
26	0xbeb5934d	-0.35463944
27	0x3b32d3f2	0.0027286974
28	0xc07e427b	-3.9728076
29	0xc0049103	-2.0713508
30	0x3fc6b868	1.5525026
31	0x3f249df3	0.6430351
32	0xbe52e586	-0.20595369
33	0xbf95a183	-1.1689914
34	0xbe519394	-0.20466453
35	0x3ef2fb67	0.4745743
36	0xbdfc097e	-0.12306498
37	0x3e27d2c3	0.16388993
38	0x3cb1ba85	0.021695385
39	0xbedb4ba3	-0.42831144
40	0x3d40f26e	0.0471062
41	0x3d098690	0.033575594
42	0x3f23c6ef	0.63975424
43	0x3f2d3818	0.6766372
44	0xc10f99a9	-8.975015
45	0x3f32ff82	0.69921124
46	0x3ead0f6d	0.3380083
47	0xbd87c8ce	-0.06630097
48	0xbf3d7ffc	-0.74023414
49	0xbe250a0c	-0.16117114
50	0x3d80e959	0.062945075
51	0x3e86e95d	0.26349917
52	0xbdec026e	-0.11523901
53	0xbc834fcf	-0.016029267
54	0xbeaa72ef	-0.33290812
55	0xbe5f6f72	-0.21819857
56	0xbf3cb3a8	-0.73711634
57	0x3f65b4b7	0.89728874
58	0xc03fb965	-2.9956906
59	0xbe8600f5	-0.26172605
60	0x3ea7729c	0.32704628
61	0x3ec40ba2	0.38290125
62	0x3efaed82	0.4900933
63	0xbf208514	-0.6270306
64	0x3d2ca02f	0.04214495
65	0xbdfff556	-0.12497966
66	0x3f19db11	0.60099894
67	0xbd06b0d8	-0.032883495
68	0x3f2083ec	0.62701297
69	0xbf792b8a	-0.9733206
70	0xbe7a8c5b	-0.24467604
71	0x3fcd0050	1.601572
72	0xc0768d8f	-3.85239
73	0x3e23e184	0.16003996
74	0xbedda0c2	-0.4328671
75	0xbdccfdba	-0.10009332
76	0x3f3ed80c	0.7454841
77	0x3e22b058	0.15887582
78	0x3e3aca4d	0.18241234
79	0xbe74e888	-0.23916829
80	0xbdbb91e5	-0.091586865
81	0x3f394a65	0.7237914
82	0x3e4d45e8	0.20046198
83	0x3fa3bb22	1.2791483
84	0x3f22c465	0.63580924
85	0x3fdc13ff	1.7193602
86	0x3cec934d	0.028878832
87	0x3f2d9d48	0.6781812
88	0xbe131ad3	-0.14365701
89	0x3f0ddb62	0.55412877
90	0xbed38e0c	-0.4131931
91	0x3edf075c	0.43560302
92	0xbda6de8e	-0.08147918
93	0x3e730bfb	0.23735039
94	0x3e90448a	0.2817729
95	0x3f22bca8	0.63569117
96	0xbed7ba01	-0.42134097
97	0x3f5d8fc1	0.86547476
98	0xbf1ff93a	-0.62489665
99	0x3f76ec3a	0.96454203
100	0x3e440ea0	0.19146204
101	0x3ed04612	0.4067846
102	0x3efdf1de	0.49598593
103	0x3f3f0e7d	0.7463148
104	0x3ed7841d	0.42092982
105	0xbd8a7126	-0.067598626
106	0xbf1a7f41	-0.60350424
107	0x3f486784	0.7828295
108	0x3e2e82ef	0.17042135
109	0xbf2d5aed	-0.67716867
110	0x3eedfa34	0.46479952
111	0x3df7f404	0.12107089
112	0xc01a1722	-2.407662
113	0xc00138e7	-2.019098
114	0xbfa1d8ea	-1.2644322
115	0x3e3dcbc7	0.18534766
116	0x3e8d567b	0.27605042
117	0xbdbf6ca3	-0.09346893
118	0xbf1009aa	-0.56264746
119	0xbd6b9890	-0.05751854
120	0x3df4d7e5	0.11955241
121	0xbf0716ee	-0.5276936
122	0xbe08cb86	-0.13358888
123	0x3f0d1d8c	0.5512321
124	0xbf16136d	-0.5862339
125	0xbe8a3c06	-0.2699892
126	0x3f0385cf	0.5137605
127	0x3f28827b	0.658241
128	0x401f26b9	2.4867384
129	0x3dc84d9d	0.097804286
130	0x3ed8a8c0	0.42316246
131	0x3eac6157	0.33668014
132	0xbfc2994f	-1.5203036
133	0xc02e4daf	-2.7234914
134	0x3efbaf7e	0.49157327
135	0xbfe8ad00	-1.8177795
136	0xbeebbc0d	-0.4604191
137	0x3f99096f	1.1956004
138	0xbc55c972	-0.013048517
139	0x3fa54d68	1.2914248
140	0xc005636e	-2.0841937
141	0xbe2e3bd2	-0.17015007
142	0xbf5fc7e1	-0.87414366
143	0x3e9f34fd	0.31095114
144	0xbecf69e3	-0.40510473
145	0xbdc06a68	-0.093952954
146	0x3ed22b73	0.41048774
147	0x3e9b5b59	0.3034313
148	0x3e91f581	0.28507617
149	0x3e7f41ca	0.2492744
150	0xbeff92aa	-0.49916583
151	0x3e20114b	0.15631597
152	0x3eb8270b	0.35967287
153	0x3f017861	0.5057431
154	0x3dc816dd	0.09769986
155	0xbf989765	-1.1921202
156	0xbf82e0fe	-1.0224912
157	0xbd66579c	-0.056235895
158	0x3e470b15	0.19437821
159	0x3f10e99f	0.5660648
160	0x3f40ede0	0.7536297
161	0xbfeacf97	-1.8344601
162	0xbe214084	-0.15747267
163	0x3eafc3f5	0.3432919
164	0x3ec6031d	0.3867425
165	0x3e15bea2	0.14623502
166	0x3dc181f5	0.094486155
167	0xbf15887f	-0.584114
168	0x3f9b7a1f	1.2146643
169	0xbe12230d	-0.14271183
170	0xbe7b087e	-0.24514958
171	0x3e1206dc	0.14260429
172	0x3e8770a3	0.26453122
173	0x3f4c05c1	0.7969628
174	0x3f4f0680	0.80869293
175	0x3ef8a27f	0.48561475
176	0xbf41a322	-0.75639546
177	0xbe824e20	-0.2545023
178	0xbd8b902d	-0.06814609
179	0x3f1139ad	0.5672863
180	0x3edbe0de	0.42944998
181	0xbf38af23	-0.7214224
182	0x3fbe3d9e	1.4862554
183	0xbf2fdce6	-0.6869644
184	0x3fdeba01	1.7400514
185	0x3eb4e30f	0.35329482
186	0x3ec87faf	0.39159915
187	0xbf6d60dd	-0.92725927
188	0xbf9be44e	-1.2179048
189	0xc05a4cf4	-3.4109468
190	0xbe4515bf	-0.19246577
191	0x3f0066fe	0.50157154
192	0x3f8f779a	1.1208375
193	0x3e108812	0.14114407
194	0xbea18a36	-0.3155076
195	0xbf20b39f	-0.6277408
196	0x400835aa	2.1282754
197	0x400d661e	2.2093577
198	0xbdda64cf	-0.10663759
199	0x3ed90e96	0.4239394
200	0xbe22670d	-0.15859623
201	0xbd879a49	-0.066212244
202	0x3eddefc4	0.4334699
203	0x3e09295b	0.13394682
204	0xbd2fe958	-0.042947143
205	0x3e9309e9	0.28718498
206	0x3e181b0c	0.14854068
207	0xbf11bfde	-0.5693339
208	0x3e931f2b	0.28734717
209	0x3f0badc7	0.5456204
210	0x3f686499	0.907785
211	0x3ed0feb6	0.4081933
212	0xc084dd9b	-4.1520514
213	0x3f205d3c	0.62642264
214	0xbeaeb0de	-0.34119314
215	0x3f095636	0.5364717
216	0x3f2eb632	0.6824676
217	0xc000c903	-2.0122688
218	0x3e5d1a47	0.21592055
219	0x3df3c877	0.1190347
220	0x3ef070ff	0.4696121
221	0xbf14e20a	-0.5815741
222	0xbe1f8f42	-0.15581992
223	0x3e5fcae4	0.2185474
224	0x3fbe4941	1.4866105
225	0x3f34daea	0.70646536
226	0x3fd2b8ee	1.6462686
227	0xbee7b4cb	-0.45255122
228	0x3cb37758	0.021907493
229	0xbdffbffb	-0.12487789
230	0xbcf6ee19	-0.03014283
231	0xbf2c0277	-0.6719126
232	0xc0169c75	-2.3532994
233	0x3e395118	0.18097341
234	0x3f01763c	0.50571036
235	0x3ec6d29f	0.38832566
236	0x3edf62de	0.43630117
237	0xbecc4cd1	-0.39902356
238	0xbf09ae79	-0.5378185
239	0xbf209ef3	-0.6274254
240	0xc0200645	-2.5003827
241	0x3e87f196	0.26551503
242	0x3e21a915	0.15787156
243	0x3df13629	0.11777908
244	0x3ed8879b	0.4229096
245	0x3fa481d4	1.285212
246	0x3f039316	0.5139631
247	0xbeb6aa56	-0.3567683
248	0xbea3f657	-0.3202388
249	0x3d3fd723	0.04683603
250	0x3e2180ca	0.15771785
251	0xbe4342fa	-0.19068518
252	0xbf907317	-1.1285123
253	0x3dc809f6	0.09767525
254	0xc0c18083	-6.0469375
255	0x3d74a415	0.059726793

bias f4 [200]
0	0xbe3693c6	-0.17829809
1	0x3f8530f7	1.0405568
2	0x3f0ff9c1	0.5624047
3	0x3d8f1685	0.06986717
4	0xbf807cb1	-1.0038053
5	0xbac8ebea	-0.0015329097
6	0xbfc6178a	-1.5475934
7	0xbf893c64	-1.0721555
8	0x3f902a80	1.126297
9	0x3ec21865	0.37909237
10	0xbf15f686	-0.5857929
11	0x3eb6ab9b	0.356778
12	0x3f97a3bd	1.1846844
13	0xbe91d1f5	-0.28480497
14	0xbf6425a8	-0.8911996
15	0x3e3b863e	0.18312928
16	0x3fa6be65	1.3026854
17	0x3eca1ba8	0.39474225
18	0x3ee26eab	0.44225058
19	0x3e210c1e	0.15727279
20	0xbf89dd36	-1.0770633
21	0x3f33fb0f	0.7030496
22	0x3f689f9d	0.9086855
23	0xbf247fa9	-0.64257294
24	0xbe82f6fe	-0.25579065
25	0x3ee9f614	0.45695555
26	0xbf15ab71	-0.58464724
27	0xbef9a376	-0.48757523
28	0x3f66ce6e	0.90158737
29	0x3ec7ac63	0.38998708
30	0x3fe95a71	1.8230726
31	0x3f8024f7	1.0011281
32	0x3f5a6130	0.85304546
33	0xbed12c2c	-0.40854013
34	0x3ef1c563	0.47220907
35	0xbf5397e3	-0.82653636
36	0x3f8510bb	1.0395731
37	0xbed0abc5	-0.4075605
38	0xbf060673	-0.5235359
39	0x3f2909cf	0.6603059
40	0xbe91871e	-0.284234
41	0xbf607e2c	-0.87692523
42	0xbef8bcf4	-0.4858166
43	0xbeb66e21	-0.35630897
44	0x3e920554	0.2851969
45	0xbf2350aa	-0.6379496
46	0x3ef42471	0.47684053
47	0x3ce609dc	0.028080873
48	0x3f26d6b6	0.6517137
49	0xbf8374e8	-1.0270052
50	0x3ebe0da7	0.3711979
51	0xbf4dd1d7	-0.80398315
52	0x3e9a0c86	0.3008768
53	0x3f2d06e2	0.6758863
54	0x3f17dd57	0.5932211
55	0xbf71e9dd	-0.9449747
56	0xbf1394ad	-0.57648736
57	0x3e9183d0	0.28420877
58	0x3f65fb95	0.8983701
59	0x3eaa4532	0.33255917
60	0xbdbd711d	-0.0925009
61	0x3ee51b09	0.4474719
62	0xbedb6475	-0.4285008
63	0x3ee8e1fb	0.4548491
64	0xbf1e4217	-0.61819595
65	0xbf87eb36	-1.0618656
66	0xbf019ea7	-0.5063271
67	0xbf2e241d	-0.68023854
68	0xbee734bb	-0.45157418
69	0xbf4ff57f	-0.8123397
70	0x3f1a37db	0.6024148
71	0x3f3a0c6a	0.7267519
72	0x3db1a5a2	0.0867417
73	0xbec11a7b	-0.37715515
74	0x3f851787	1.0397805
75	0x3e653f9a	0.22387543
76	0xbf85465e	-1.0412099
77	0x3f2eda54	0.6830189
78	0x3d34f5af	0.044179615
79	0x3ec85322	0.39125925
80	0x3f338556	0.7012533
81	0x3ee6f446	0.4510824
82	0xbe3ebd61	-0.1862693
83	0xbf87c389	-1.0606548
84	0x3deb900a	0.11502083
85	0xbce401d0	-0.027832896
86	0xbf27d99a	-0.6556641
87	0x3f5a01e5	0.8515914
88	0x3efe7f10	0.49706316
89	0x3e1e1af0	0.15439963
90	0x3ec769ea	0.38947994
91	0xbe155169	-0.14581837
92	0xbe72a87b	-0.23697083
93	0xbe9fadfc	-0.31187427
94	0x3f227bb8	0.6347003
95	0x3e835a7a	0.25654966
96	0x3f2ced94	0.67550015
97	0x3f0b8936	0.5450624
98	0xbc91cdd1	-0.017798336
99	0x3e44cd4b	0.19218938
100	0x3f19cca0	0.6007786
101	0x3ebd38d6	0.36957425
102	0x3e258dfe	0.16167447
103	0x3f4d641a	0.8023087
104	0xbe684083	-0.2268086
105	0x3f6b09b9	0.9181171
106	0x3eb4d9b0	0.35322332
107	0xbfb0f916	-1.3826015
108	0xbd9c5673	-0.076336764
109	0xbf254a47	-0.64566463
110	0xbe1bde99	-0.15221633
111	0x3eaed6a4	0.34148133
112	0x3d710897	0.058846083
113	0x3f1bf3f2	0.60919106
114	0x3f7e8010	0.9941416
115	0xbd8938a9	-0.0670026
116	0xbf321904	-0.6956942
117	0x3f6daca4	0.92841554
118	0xbe6fd017	-0.23419224
119	0xbe3313c9	-0.17488016
120	0x3e03fb1e	0.12888762
121	0xbf077493	-0.52912253
122	0xbdc9280e	-0.09822093
123	0xbd47d5a7	-0.04878774
124	0xbf689489	-0.90851647
125	0xbf751802	-0.9573976
126	0xbf9a662a	-1.2062428
127	0xbe3d6e2a	-0.18499056
128	0x3e75f297	0.24018322
129	0x3f45e472	0.77301705
130	0xbf421bf8	-0.75823927
131	0xbe6ff18d	-0.23431988
132	0xbea430b2	-0.32068402
133	0xbe8598bf	-0.260931
134	0x3e452e6d	0.19255991
135	0x3cd6ad07	0.026205553
136	0xbececbf9	-0.40389994
137	0x3f0a1e8e	0.5395287
138	0xbf5e378d	-0.86803514
139	0x3ea030a5	0.31287113
140	0x3f84580f	1.0339373
141	0xbf6ebcac	-0.9325664
142	0xbf8652ee	-1.0494058
143	0xbdbdc53d	-0.09266136
144	0xbe89b2b3	-0.2689415
145	0xbf76e151	-0.96437556
146	0xbe96aee4	-0.29430306
147	0x3f5f26d3	0.87168616
148	0x3f6abe7f	0.91696924
149	0x3fae7310	1.3628864
150	0x3e8f7927	0.2802212
151	0xbf327763	-0.6971342
152	0xbd064ab0	-0.03278607
153	0xbf860a48	-1.0471888
154	0xbf0f0eb0	-0.55881786
155	0x3c680c03	0.01416302
156	0x3f865ec0	1.0497665
157	0x3f860cc7	1.0472649
158	0xbf37d69c	-0.7181184
159	0xbe6ff1a0	-0.23432016
160	0x3f2d7dc4	0.6777003
161	0x3e1ce881	0.15323068
162	0xbf548385	-0.8301318
163	0xbf4a12a5	-0.789347
164	0x3eb82622	0.35966593
165	0xbe890f61	-0.26769546
166	0x3f26ff53	0.65233344
167	0x3fa8d3c5	1.3189627
168	0x3f0bb117	0.5456709
169	0x3f4eb8df	0.8075084
170	0xbe0d4945	-0.13797481
171	0x3f374824	0.7159445
172	0x3f921ed0	1.1415653
173	0x3f3f9c82	0.74848187
174	0xbdce3bc1	-0.10069991
175	0xbd65cf40	-0.056105852
176	0xbf0bf86e	-0.5467595
177	0xbe95de13	-0.29270992
178	0xbf2f7fc1	-0.6855431
179	0xbf654b58	-0.8956809
180	0x3f9f128b	1.2427534
181	0x3fd77f69	1.6835757
182	0x3f24e0e5	0.6440566
183	0xbf380c44	-0.71893716
184	0x3e2ac357	0.16676079
185	0x3e94ca28	0.29060483
186	0x3e55d8ad	0.20883437
187	0xbf2522e2	-0.6450635
188	0x3f44670b	0.7671973
189	0xbea63071	-0.32458833
190	0x3f4273e5	0.7595809
191	0xbeb1a0a2	-0.34692866
192	0x3f14d5cb	0.5813872
193	0xbf0db011	-0.5534678
194	0x3f23cb3e	0.63982
195	0xbdae9916	-0.085252926
196	0xbf9f749f	-1.2457465
197	0xbf42320a	-0.75857604
198	0xbdb91a85	-0.09038261
199	0x3e457983	0.19284634

weight f4 [200, 200]
0	0xbd76cd3b	-0.060254317
1	0xbb909746	-0.0044125644
2	0xbd87e401	-0.06635285
3	0xbcbfda80	-0.023419619
4	0xbd3251e1	-0.043535117
5	0xbd9ae656	-0.07563464
6	0x3af613c3	0.00187742
7	0xbd83718e	-0.06418143
8	0xbd5d323a	-0.054002978
9	0x3d60f5df	0.05492198
10	0xbd58c3da	-0.052921154
11	0xbd6e1803	-0.058128368
12	0xbd4e3d51	-0.050351445
13	0x3c465f40	0.01210767
14	0xbbd93e96	-0.0066297753
15	0x3bd6bc1c	0.006553186
16	0x3d5493f9	0.05189893
17	0xbc87ff38	-0.01660119
18	0xbcdba492	-0.026811872
19	0xbcfbe550	-0.030748993
20	0x3cc8db30	0.02451858
21	0xbaf9baec	-0.00190529
22	0xbc2ab9e7	-0.010420299
23	0xbc84487f	-0.01614785
24	0x3d41c840	0.047310114
25	0xbd262c47	-0.04056957
26	0xbc500c59	-0.012698256
27	0xbda8edbf	-0.082484715
28	0x3c25eb6e	0.010126932
29	0xbc6f5e93	-0.014609951
30	0xbd91619e	-0.07098697
31	0xbd0dd8ed	-0.034630705
32	0x3c228a96	0.009920737
33	0x3cedd0fa	0.029030312
34	0x3d5b1e31	0.05349559
35	0xbd1ebeb6	-0.038756095
36	0xbd918976	-0.07106297
37	0x3d71b37f	0.05900907
38	0xbce5e1ab	-0.028061708
39	0xbd0c6dce	-0.034284405
40	0x3d2d6ad4	0.042338207
41	0x3cb5bd6f	0.022185056
42	0xbd85c8dd	-0.06532452
43	0xbc8fbd4d	-0.01754632
44	0xbbc68a39	-0.006058958
45	0xbd2805a7	-0.041021015
46	0x3baeda26	0.005336064
47	0xbd443491	-0.047901694
48	0xbd3f9110	-0.0467692
49	0xbc98bc1c	-0.018644385
50	0xbd007c20	-0.031368375
51	0xbd446514	-0.047947958
52	0x3ab05127	0.001345192
53	0xbd8cf374	-0.068823725
54	0x3d6b4f45	0.057448644
55	0xbd8a510d	-0.067537405
56	0xbd6e6f9c	-0.058211908
57	0xbc9b4be6	-0.01895709
58	0xbd25d657	-0.040487614
59	0x3ba38733	0.0049904822
60	0x3d2a8ffd	0.041641224
61	0x3c033d28	0.008010186
62	0xbcbb103a	-0.022834886
63	0x3c7d5d63	0.01546416
64	0xbce5c4ee	-0.028048005
65	0xbcff7499	-0.031183528
66	0xbc637182	-0.013882043
67	0xbb432780	-0.0029778183
68	0xbce1845f	-0.02752894
69	0x3c453bd8	0.012038194
70	0xbda88a87	-0.08229547
71	0x3d21e366	0.039523505
72	0x3cecca6a	0.028905112
73	0x3d5b436e	0.053531103
74	0xbd665435	-0.05623265
75	0xbadbfecc	-0.0016784309
76	0x3d0c80a2	0.03430236
77	0xbd4dd6f9	-0.050253842
78	0x3d2ebe1b	0.042661767
79	0x3cfba8ed	0.030720199
80	0xbc8eab15	-0.017415563
81	0xbccb7341	-0.02483523
82	0xbc190e76	-0.009341827
83	0xbd375040	-0.044754267
84	0xbc8c3bcc	-0.017118357
85	0xbd32ce4b	-0.043653768
86	0xbc9fe21e	-0.019517
87	0x3d372ef7	0.044722524
88	0xbd4246d1	-0.047430817
89	0x3d8efd9f	0.06981968
90	0x3c84630c	0.01616051
91	0x3cc8065c	0.024417095
92	0xbd9c1d46	-0.07622771
93	0xbb64b1c3	-0.0034895993
94	0xbd574da2	-0.05256427
95	0x3c49686d	0.012292963
96	0xbd3f2d10	-0.046673834
97	0xbcc63778	-0.024196371
98	0x3b20a59d	0.0024512776
99	0x3d2a0aeb	0.04151432
100	0x3d256ffe	0.040390007
101	0xbcf16874	-0.029468752
102	0xbd9c1706	-0.07621579
103	0xbd5bf82a	-0.053703465
104	0xbd66c43b	-0.056339484
105	0xbd606b3b	-0.054789763
106	0xbcd8f12a	-0.026482183
107	0x3d8806f6	0.06641953
108	0xbc777aaf	-0.015104934
109	0x3caa4196	0.020783227
110	0xbd5ab7da	-0.05339799
111	0x3d904892	0.07045092
112	0x3c553cca	0.0130149815
113	0xbda73f47	-0.08166366
114	0x3ce05d2a	0.027388174
115	0xbd2ccc5f	-0.04218709
116	0xbd9f5006	-0.07778935
117	0xbd36a578	-0.044591397
118	0xbd1ff0af	-0.039047893
119	0x3d501b3b	0.05080722
120	0x379ce831	1.8704772e-05
121	0xbca6f767	-0.020381643
122	0xbc85b99f	-0.016323863
123	0xbd4f74d5	-0.05064853
124	0xbd1a6e23	-0.03770269
125	0x3cbb7a2e	0.022885408
126	0xbcb912fc	-0.02259206
127	0xbd6264b3	-0.055271816
128	0xbda15217	-0.078769855
129	0xbcdc38be	-0.026882526
130	0xbd87eb84	-0.06636718
131	0xbd6b5690	-0.0574556
132	0xbd999bde	-0.075004324
133	0xbcd4b65a	-0.025965858
134	0x3d3e6ee3	0.04649247
135	0x3d0d2dd4	0.034467533
136	0xbcd69542	-0.026194219
137	0x3d09b71c	0.033621892
138	0x3cddd443	0.027078753
139	0xbdaee837	-0.08540385
140	0xbd10246e	-0.035190992
141	0x3c343478	0.010998838
142	0x3d374557	0.044743862
143	0x3b2e7946	0.0026622578
144	0x3d129185	0.03578331
145	0xbd0d25d9	-0.034459922
146	0xbcd14b37	-0.02554856
147	0x3d34f925	0.044182915
148	0x3d587811	0.05284888
149	0xbcad7137	-0.02117215
150	0xbd316b76	-0.043315373
151	0xbd4e5bc9	-0.050380502
152	0xbc329fc9	-0.010902354
153	0xbcec4950	-0.028843552
154	0x3d76b7a1	0.060233716
155	0xbd6a596b	-0.057214182
156	0xbc6b13fd	-0.014348027
157	0xbd51f802	-0.05126191
158	0xbc9abd85	-0.018889198
159	0xbda7ecb7	-0.08199447
160	0x3d2a1e98	0.041533083
161	0x3c74c62b	0.014939825
162	0x3cd3f4d9	0.025873588
163	0xbd8a4bf2	-0.06752767
164	0xbd2978cf	-0.041374978
165	0x3c3bf667	0.011472321
166	0xbd1e4346	-0.038638376
167	0xbd41f339	-0.047351096
168	0x3d82196d	0.06352506
169	0xbb5a08da	-0.0033269436
170	0x3cd37e7b	0.025817147
171	0xbc54971a	-0.012975479
172	0xbd866c25	-0.06563596
173	0xbc0808a5	-0.008302842
174	0x3cac86c2	0.021060351
175	0x3cd575a8	0.02605708
176	0xbcd679f6	-0.026181202
177	0x3d4911ac	0.04908912
178	0x3cfc61ba	0.030808318
179	0xbd359be2	-0.044338115
180	0x3d46d2e0	0.04854095
181	0xbd2cb297	-0.042162504
182	0xbd8716a0	-0.06596112
183	0xbd8448c8	-0.064591944
184	0xbd30bb68	-0.043147475
185	0xbc5a65d2	-0.01332994
186	0x3d3415ff	0.04396629
187	0xbc8c6445	-0.017137656
188	0x3c0e3a94	0.008680958
189	0xbc13c0a6	-0.009018099
190	0x3d59a1b9	0.053132746
191	0xbd23514a	-0.039872445
192	0xbd53e432	-0.051731296
193	0xbd6cfe9f	-0.057860013
194	0x3c7aaac3	0.015299502
195	0xbade29e2	-0.0016949738
196	0x3c98ebd6	0.018667143
197	0x3ca60f04	0.020270832
198	0x3d30f3cd	0.043201257
199	0x3a3e265d	0.00072536414
200	0xbf5e9ca1	-0.86957747
201	0x3fd0ddf5	1.6317736
202	0xc0470f13	-3.110295
203	0xbf1e77da	-0.6190163
204	0x3f0faac3	0.56119937
205	0x3e48663c	0.1957025
206	0xbfa75257	-1.3072003
207	0xbf618884	-0.8809893
208	0xc004950c	-2.071597
209	0x3f9eb05e	1.2397573
210	0xbf603d85	-0.8759387
211	0x3ed4ddfa	0.41575605
212	0x3f3e3b1f	0.7430896
213	0x3e9e9c95	0.30978838
214	0xbf903e2b	-1.1268972
215	0x3df38d90	0.11892235
216	0x3f9cfca5	1.2264601
217	0xbf17f536	-0.5935854
218	0x3e359501	0.17732622
219	0x3fb75d92	1.432543
220	0xbfc1e09c	-1.514667
221	0xbe43aaa7	-0.19108067
222	0x3ec4cda7	0.3843815
223	0x3ea0b8b4	0.31390917
224	0x3f6ddbde	0.92913616
225	0xbf9f83c4	-1.2462087
226	0xbcf7626f	-0.030198304
227	0x3fdcd9a8	1.7253923
228	0x40384893	2.8794296
229	0xc011e53d	-2.2796166
230	0x3f56747b	0.83771485
231	0x3edde67a	0.43339902
232	0x40063626	2.097055
233	0x3f822f0e	1.017061
234	0x3f0272b6	0.50956285
235	0x3ea7c768	0.32769322
236	0x3fdcb2f8	1.7242117
237	0x3d44abc4	0.04801537
238	0xbf964cb4	-1.1742158
239	0xbfee371c	-1.8610568
240	0x3c251ad7	0.0100772
241	0xbf93375e	-1.1501272
242	0x3e6d745c	0.23188919
243	0xbf799e60	-0.97507286
244	0x40271215	2.6104786
245	0x3e9fdb7b	0.31222138
246	0x3f338ce7	0.70136875
247	0xbf4fc190	-0.8115473
248	0x3cf33917	0.029690308
249	0xbf4cfc06	-0.8007206
250	0x40439c8c	3.0564299
251	0x3f05c51e	0.522539
252	0x3f3dcede	0.7414378
253	0x4002a468	2.0412846
254	0x3f4f23b2	0.8091384
255	0xbfd6935e	-1.6763723

bias f4 [200]
0	0x3d074b94	0.03303106
1	0x3ee54829	0.44781616
2	0x3e7302e7	0.23731576
3	0x3be15601	0.0068767075
4	0x3f38a23b	0.72122544
5	0x3f692233	0.9106781
6	0x3dd9b103	0.106294654
7	0x3e93dae2	0.28877932
8	0x3ef10693	0.47075328
9	0x3f2bd17f	0.6711654
10	0x3e83dab5	0.25752798
11	0x3d8fecb8	0.070275724
12	0x3f049f61	0.5180569
13	0x3f36bbe4	0.7138045
14	0x3dd2fb16	0.10301797
15	0xbdb8f670	-0.09031379
16	0xbd47d641	-0.048788313
17	0x3e99c3dd	0.30032244
18	0xbdb6cbb1	-0.0892557
19	0xbd89b26d	-0.06723485
20	0x3d31c85d	0.043403972
21	0xbdb6b518	-0.0892126
22	0xbd355010	-0.044265807
23	0xbf726309	-0.94682366
24	0xbd351695	-0.04421099
25	0xbb9c807e	-0.0047760596
26	0x3e7489f9	0.23880757
27	0x3f312a9a	0.6920563
28	0x3ec3cbfe	0.3824157
29	0x3e084ad4	0.13309795
30	0x3d36b837	0.044609275
31	0xbc580dd2	-0.013186889
32	0x3e21bf6d	0.1579568
33	0x3f0f5c75	0.56000453
34	0x3d2a0636	0.04150983
35	0x3f028f2a	0.509997
36	0x3e318170	0.17334533
37	0xbf0dd1e7	-0.5539841
38	0x3eb2fe02	0.34959418
39	0x3ea0c70a	0.31401855
40	0x3f68b120	0.9089527
41	0xbcdaedc2	-0.0267247
42	0xbe17c26e	-0.14820263
43	0x3f889f8d	1.0673691
44	0x3ebe4143	0.37159166
45	0xbd033e15	-0.032041628
46	0x3f3f7e76	0.7480234
47	0xbb5d995a	-0.0033813328
48	0x3d86ae35	0.06576196
49	0x3f8c1f09	1.0946971
50	0x3ea037be	0.31292528
51	0x3d1277bd	0.035758723
52	0x3eb2a0bd	0.3488826
53	0xbd65712b	-0.05601613
54	0x3f2237c9	0.6336637
55	0xbdac10df	-0.084016554
56	0x3dc4488f	0.09584152
57	0x3d9ff598	0.07810515
58	0x3f1151b5	0.567653
59	0x3f4be3b4	0.7964432
60	0x3de866c6	0.113477275
61	0xbe2fe9b1	-0.1717899
62	0xbd434581	-0.047673706
63	0x3f47ac69	0.7799745
64	0x3f3517f3	0.7073967
65	0x3e95d29d	0.29262248
66	0x4028b0b2	2.6357846
67	0xbdbca8e4	-0.09211901
68	0x3dffffb6	0.12499945
69	0x3f415351	0.75517756
70	0xbd9377fe	-0.07200621
71	0x3caae02e	0.02085885
72	0xbddacf4a	-0.106840685
73	0x3ff73c55	1.9315287
74	0x3e03a4ab	0.12855785
75	0x3fbf96bd	1.4967877
76	0x3f540db2	0.828334
77	0xbd56000a	-0.05224613
78	0x3bb36d3f	0.0054756696
79	0x3f265a2e	0.64981353
80	0x3f168d6b	0.58809537
81	0x3e80d2ea	0.25160915
82	0x3e0df74d	0.13863869
83	0xbdaa0957	-0.08302563
84	0x3e8ba78b	0.27276263
85	0x3c84a63c	0.016192548
86	0xbd95be06	-0.07311635
87	0xbdb27a48	-0.087147295
88	0xbd606f23	-0.05479349
89	0xbf0b0f7e	-0.54320514
90	0x3f33d074	0.7023995
91	0x3ee09eaa	0.4387105
92	0x3f5bb6c4	0.85825753
93	0x3effa743	0.49932298
94	0xbdb89b08	-0.09013945
95	0x3ed4362d	0.41447583
96	0xbf7bd300	-0.98368835
97	0xbd069bcd	-0.032863427
98	0x3c28d716	0.010305187
99	0x3ebe1c04	0.3713075
100	0xbd7ce1f4	-0.061738923
101	0xbdac8b87	-0.0842505
102	0x3c3dfeb7	0.011596373
103	0x3f652136	0.895038
104	0x3e1b7639	0.15181817
105	0x3ee59bed	0.44845524
106	0xbe46188a	-0.19345298
107	0x3ca5f26f	0.020257203
108	0x3f708006	0.9394535
109	0xbd2df607	-0.042470958
110	0x3eb39bf0	0.35079908
111	0xbf0da096	-0.5532316
112	0x3ee182e1	0.44045165
113	0xbb274587	-0.002552362
114	0x3f1566d3	0.5836002
115	0xbf376cef	-0.71650594
116	0xbdf13803	-0.117782615
117	0xbda9f057	-0.08297794
118	0x3c83c21c	0.01608377
119	0xbae44783	-0.0017416332
120	0xbd1c8aa6	-0.038218163
121	0xbd7b5a8c	-0.06136565
122	0x3f58c5f3	0.84677047
123	0x3f39f5b1	0.7264052
124	0x3e9e85e2	0.3096152
125	0x3f3cd969	0.7376924
126	0x3c0c5a1c	0.008566406
127	0xbd9405c7	-0.072276644
128	0x3d1ed48d	0.038776923
129	0xbd12c386	-0.035830997
130	0xbdf96c93	-0.12178912
131	0x3deaa9ea	0.1145819
132	0xbdce77e9	-0.10081465
133	0xbd8c074d	-0.0683733
134	0xbda4426f	-0.08020484
135	0x3f886caf	1.0658168
136	0x3e6be040	0.23034763
137	0xbe8da80b	-0.2766727
138	0x3f743e7c	0.95407844
139	0x3eb280e6	0.34863967
140	0xbcda029a	-0.026612569
141	0xbd7d646c	-0.061863348
142	0x3ea93e3a	0.33055288
143	0xbf0fba01	-0.56143194
144	0x3dfbb1c1	0.12289763
145	0x3eb201e8	0.3476708
146	0x3f1d87e8	0.615355
147	0x3ef7b0af	0.48376986
148	0x3db70752	0.08936943
149	0x3d5ddaf5	0.05416389
150	0xbd9170fd	-0.07101629
151	0x3f56b1ce	0.8386506
152	0xbc758e2c	-0.01498751
153	0xbdba2c98	-0.09090537
154	0x3e9d0f23	0.3067561
155	0x3ef0fa8a	0.47066146
156	0xbe754195	-0.23950799
157	0x3d075044	0.03303553
158	0x3e171de7	0.147575
159	0xbf2cc399	-0.6748596
160	0xbcc10361	-0.023561182
161	0x3f0da8a1	0.5533543
162	0xbc66202b	-0.014045755
163	0xbf01f463	-0.5076353
164	0xbd4cc1a1	-0.049989346
165	0xbd587af4	-0.052851632
166	0xbd97c976	-0.074114725
167	0xbdbc1f08	-0.09185606
168	0x3cecd942	0.02891219
169	0x3d3bb5ea	0.045827784
170	0xbab02950	-0.0013440046
171	0x3e027349	0.1273929
172	0xbb6f0bc3	-0.0036475516
173	0xbd824285	-0.06360344
174	0xbe2bb0c7	-0.16766654
175	0x3f292c5b	0.66083306
176	0x3d76fdf8	0.060300797
177	0x3f2a63ca	0.66558516
178	0xbb2e85c7	-0.002663003
179	0xbde29d3a	-0.11065145
180	0x3c932b6d	0.017965043
181	0xbccd8cc1	-0.02509153
182	0xbd3122fc	-0.043246254
183	0xbf2f0d88	-0.6838002
184	0xbe343d10	-0.17601418
185	0xbd9b4f06	-0.07583432
186	0xbcfe26f4	-0.031024434
187	0xbf51e03c	-0.8198278
188	0xbd91150e	-0.07084094
189	0xbc48f111	-0.012264506
190	0xbe8c95b6	-0.2745797
191	0x3fc4550b	1.5338453
192	0xbd896835	-0.06709329
193	0xbdc0cd79	-0.09414191
194	0xbd2e52ff	-0.04255962
195	0x3ecf7619	0.4051979
196	0xbeb6c70e	-0.35698742
197	0x3f760514	0.961015
198	0xbcd2e262	-0.025742713
199	0xbde25063	-0.11050489

weight f4 [1, 200]
0	0xbd408660	-0.04700315
1	0xc0c00a00	-6.0012207
2	0xc0c119ea	-6.0344133
3	0xc0c0898f	-6.016792
4	0xc106e229	-8.430215
5	0xc08a2f7e	-4.3182974
6	0xc0d2de8f	-6.589668
7	0xc0b498c2	-5.643647
8	0xc0cf507f	-6.478576
9	0xc0fa2fe8	-7.818348
10	0xc0b62517	-5.6920276
11	0x40bdf0b4	5.9356327
12	0xc0f65ec5	-7.6990685
13	0xc0b5b262	-5.6780252
14	0x40bd334c	5.912512
15	0xbd26f1ee	-0.040758066
16	0xbd06b65d	-0.03288876
17	0x40a7a86a	5.2393084
18	0x40452f04	3.0809946
19	0x3d140f8e	0.036147647
20	0x40de8fe3	6.9550643
21	0xbbc2ea19	-0.005948317
22	0xbcac43a7	-0.021028353
23	0x406f5524	3.7395716
24	0xc0f5f7e1	-7.6865087
25	0x3c5f2701	0.013620139
26	0xc0bd90d9	-5.9239316
27	0xc1025037	-8.144584
28	0xc1019264	-8.09824
29	0x40bd6df3	5.9196715
30	0x3ca184de	0.019716676
31	0xbb865965	-0.004100012
32	0xc0802236	-4.004176
33	0xc116388e	-9.388807
34	0x3bb7e438	0.0056119226
35	0xc113710c	-9.215099
36	0xc0fb88e8	-7.860462
37	0x40105090	2.2549171
38	0xc0c7ecdb	-6.247663
39	0xc0ce355f	-6.444015
40	0xc0e48354	-7.1410313
41	0x3c081dbc	0.0083078705
42	0xbd223956	-0.03960546
43	0xc0f15c75	-7.5425363
44	0xc0afc2d9	-5.492535
45	0xbc5f5389	-0.013630756
46	0xc13cb28e	-11.793592
47	0xbc88b54d	-0.016688013
48	0x40c087c4	6.016573
49	0xc09e185c	-4.9404736
50	0xc0f2a095	-7.5821023
51	0x3d3c0e9f	0.04591238
52	0x40a6ff68	5.2186775
53	0x3d336baf	0.043803867
54	0xc10f5fd7	-8.960898
55	0xbc640e7b	-0.013919468
56	0x40e00506	7.000613
57	0x40f91890	7.7842484
58	0xc0927c27	-4.5776553
59	0xc12774af	-10.465987
60	0x40b7c4ce	5.742774
61	0x40fef683	7.967592
62	0xbb3a514f	-0.0028429811
63	0xc10cdd9f	-8.804107
64	0xc0b64483	-5.6958632
65	0xc0f2bc72	-7.5855036
66	0xc00e07be	-2.2192225
67	0x41080eae	8.503584
68	0xc100ec97	-8.057761
69	0xc1146e95	-9.276998
70	0xbbf76544	-0.0075499136
71	0x3adecf81	0.0016999097
72	0x3dabde17	0.0839197
73	0xc08b3449	-4.3501325
74	0x40cae5d0	6.3405533
75	0xc08dfb57	-4.436931
76	0xc0d6b819	-6.709973
77	0x391b5d15	0.00014816628
78	0x3cafaddf	0.021445213
79	0xc10f5ba7	-8.959876
80	0x40cab909	6.3350873
81	0xc0d772c5	-6.73276
82	0x41099dd7	8.601035
83	0xbbe13b0a	-0.006873493
84	0xc0f55b69	-7.6674085
85	0xbcc651f9	-0.02420901
86	0xbc4d81d0	-0.012543157
87	0xbcbba6b8	-0.022906646
88	0xbb793c5c	-0.0038030362
89	0x40bb1f4d	5.847571
90	0xc102297b	-8.135127
91	0xc10b4cc8	-8.706245
92	0xc1314c13	-11.081073
93	0xc0fdaf36	-7.927638
94	0xbc39d9c7	-0.011343426
95	0xc109dac7	-8.615912
96	0x40d805d9	6.750714
97	0xbc82fe04	-0.015990265
98	0x3ca8cdb7	0.020605905
99	0xc0c3ceab	-6.118978
100	0x3c371e90	0.01117672
101	0x3d112bb5	0.035442073
102	0xbcccf211	-0.02501777
103	0xc06f1b3c	-3.7360373
104	0x409ef977	4.9679523
105	0xc0d95d8c	-6.7926693
106	0x40b08b7c	5.517027
107	0x410404de	8.251188
108	0xc096a176	-4.7072096
109	0xbcd69222	-0.026192728
110	0xc059f1e3	-3.4053886
111	0x406e6b53	3.7253006
112	0xc0bcdc73	-5.9019103
113	0xba05508c	-0.000508555
114	0xc0f79268	-7.736622
115	0x4091bb29	4.5540967
116	0xc11acd31	-9.675096
117	0xbc70d274	-0.014698613
118	0x3d695092	0.056961603
119	0x39df99d9	0.000426485
120	0xbbb4f56f	-0.005522422
121	0x3c584931	0.013201044
122	0xc10dd3d0	-8.864212
123	0xc1073fb4	-8.4530525
124	0x40c967f3	6.293939
125	0xc10b7c5c	-8.717861
126	0xbd5f47d1	-0.05451185
127	0x4087817f	4.2345576
128	0x3ffcd044	1.9751058
129	0xbbdff222	-0.0068342844
130	0x410322ea	8.196024
131	0xc0d93c65	-6.7886224
132	0x3d076304	0.033053413
133	0xbd3cf517	-0.046132173
134	0x3bcbac48	0.006215606
135	0xc08b23b4	-4.3481083
136	0xc0aa33d6	-5.3188276
137	0x40c201cb	6.062719
138	0xc120a73d	-10.04083
139	0xc0c7ad76	-6.2399244
140	0xbc8682cd	-0.016419793
141	0x3c83884c	0.016056202
142	0xc091f445	-4.561068
143	0xc0770370	-3.8595848
144	0x40b61d81	5.6911016
145	0xc102d18c	-8.176159
146	0xc0b3eb46	-5.62247
147	0xc0a00546	-5.0006437
148	0xc0db04ce	-6.8443365
149	0x40cb8fa9	6.3612866
150	0xc0d4c58d	-6.649115
151	0xc0f743c4	-7.727022
152	0x3ced53eb	0.02897068
153	0xbcad03d6	-0.021119993
154	0xc10b2174	-8.695667
155	0xc10dea4b	-8.8697
156	0xc0ce3c31	-6.4448476
157	0x3d053214	0.03251846
158	0xc131502f	-11.082076
159	0x4039de78	2.9042034
160	0xbbf55844	-0.0074873287
161	0xc1150a7d	-9.315061
162	0x3cb4b7b7	0.022060258
163	0xc0be85b6	-5.953822
164	0xbb7f68d4	-0.0038972395
165	0x40b5fba5	5.6869683
166	0x3d47d7d0	0.0487898
167	0xbc810f7d	-0.015754456
168	0xbc965275	-0.018349865
169	0x40bbc120	5.867325
170	0xbc146325	-0.009056841
171	0x40d5b0fa	6.6778536
172	0x3b6d8072	0.003623989
173	0x3a9c37d5	0.0011918495
174	0xbb1b402d	-0.0023689375
175	0x40b726d2	5.723489
176	0x41123ae6	9.1393795
177	0xc12fcc29	-10.987344
178	0xbc591772	-0.013250219
179	0x40bf32eb	5.9749656
180	0x3c0a7cc4	0.008452598
181	0x3b8dd054	0.004327813
182	0x40b69075	5.705134
183	0x409490e3	4.6426864
184	0x3c743fcb	0.014907788
185	0x3cfb945c	0.030710392
186	0x3bc71099	0.0060749766
187	0x40a30dad	5.0954194
188	0x3db476df	0.08811735
189	0x3d40ef10	0.047102988
190	0xc08e9eab	-4.4568686
191	0xc02609d4	-2.5943499
192	0x3be333ba	0.0069336565
193	0x3ccdac01	0.025106432
194	0x3d09f40c	0.033680007
195	0xc0b708d9	-5.71983
196	0xc0ef00be	-7.4688406
197	0xc0800d3a	-4.0016146
198	0x3e0bbb84	0.1364575
199	0xbcf17bfc	-0.029478066

weight f4 [200, 14]
0	0x3e64070c	0.22268313
1	0xbf0e9cdd	-0.55708104
2	0xc07be723	-3.9359825
3	0xbf76b03a	-0.9636265
4	0xbf25a8cd	-0.64710695
5	0xbd24d820	-0.040245175
6	0x3f922229	1.1416675
7	0xbf2d10f0	-0.6760397
8	0x3dcf6f95	0.101287045
9	0xbd13702a	-0.03599564
10	0x3f23142b	0.6370265
11	0xbe579dd2	-0.21056297
12	0xbc9b5141	-0.018959643
13	0xbec70f96	-0.3887908
14	0xbecf14eb	-0.40445647
15	0xbfd353da	-1.6509964
16	0x3df22fed	0.11825547
17	0xbf2c88e9	-0.6739641
18	0xbf03490f	-0.51283354
19	0xbfaaec60	-1.3353386
20	0xbffcaef4	-1.9740891
21	0xc07802d3	-3.8751724
22	0x3ed8fd2c	0.42380655
23	0x3e55d9f9	0.20883931
24	0xbf838716	-1.02756
25	0x3ee365ef	0.44413707
26	0x3eba50ce	0.36389774
27	0x3f87c4d6	1.0606945
28	0xbf59d0d9	-0.850843
29	0xbecd0295	-0.40041032
30	0x3ff6a134	1.9267945
31	0x3e5bc496	0.2146171
32	0x3e0082c7	0.12549888
33	0xbfc6585a	-1.5495713
34	0xc03a24ca	-2.9084954
35	0xc09cd9c6	-4.9015837
36	0x3eb61061	0.3555937
37	0x3f03fe3d	0.5155981
38	0x3d993d1f	0.07482361
39	0xbdf8daa0	-0.121510744
40	0xbeaf93ad	-0.34292355
41	0xbf3b3218	-0.7312331
42	0xbf94ab40	-1.1614761
43	0xc023a98b	-2.557223
44	0xbfbfcc8e	-1.49843
45	0xbe891ac9	-0.26778248
46	0x3f0832ae	0.5320233
47	0x3d659482	0.05604983
48	0xbd643410	-0.055713713
49	0x3e2cf0f4	0.16888791
50	0xbd9cb02d	-0.0765079
51	0x3e163187	0.1466733
52	0xbf5d02a6	-0.86332166
53	0xbe3f4f61	-0.18682624
54	0xbed74a8e	-0.42049068
55	0xbf84337f	-1.0328215
56	0x3f6cc355	0.92485553
57	0xbeff8217	-0.49903938
58	0x40650a7e	3.5787654
59	0x3d073c75	0.03301664
60	0xbeab2002	-0.33422858
61	0x3e87b499	0.26504973
62	0xbeee9f17	-0.4660575
63	0xbfc608d9	-1.547145
64	0xbbf536ec	-0.007483354
65	0x3e84473f	0.25835606
66	0x3d84305f	0.064545386
67	0x3e206967	0.15665208
68	0x3e9e298c	0.30891073
69	0x3f1c3ec0	0.6103325
70	0x401b766c	2.429103
71	0xbd0961f5	-0.033540685
72	0xbf7f8163	-0.99806803
73	0xbe40c7d3	-0.18826227
74	0xbec259e1	-0.37959197
75	0xbed28e85	-0.4112436
76	0x3e0fa429	0.14027466
77	0x3faaab76	1.3333576
78	0xbfe08206	-1.753968
79	0xbc4d1474	-0.012517083
80	0x3e1158ea	0.14194074
81	0x3eb67047	0.35632536
82	0x3f15fba5	0.58587104
83	0x3e889854	0.26678717
84	0xbf215f41	-0.6303597
85	0x3f881ea5	1.0634352
86	0xc0936adc	-4.6067944
87	0xbf0fa1ae	-0.5610608
88	0x3ea6af09	0.32555416
89	0x3f68a461	0.9087582
90	0x3f2937af	0.6610059
91	0x3ec33154	0.38123572
92	0xbe3d0d26	-0.18462047
93	0x3ee6b3d5	0.45059076
94	0x3ef0fc17	0.4706733
95	0x3d9aa19f	0.07550358
96	0x3ea5cf3e	0.32384676
97	0x3d69db21	0.057093743
98	0xc04db0cd	-3.213916
99	0x3e4b42f9	0.19849767
100	0xbfcb0d30	-1.58634
101	0x3eea1c55	0.4572474
102	0xbf0abbc1	-0.5419274
103	0xbf57ce37	-0.84299034
104	0xbf0fa2c1	-0.5610772
105	0xbec23f09	-0.37938717
106	0xbe3a23eb	-0.18177764
107	0x3d181c44	0.03713633
108	0x3d54b932	0.05193443
109	0x3f2a0c08	0.6642461
110	0x3efb0853	0.49029788
111	0xbf7d4332	-0.98930657
112	0xbd008061	-0.03137243
113	0xbf664601	-0.8995057
114	0x4035409e	2.832069
115	0x3f1c28ce	0.60999763
116	0x3e083bc1	0.13304044
117	0xbeb3e74e	-0.3513741
118	0xbe883dc3	-0.2660962
119	0x3f5779f4	0.8417046
120	0xbfca7c27	-1.5819138
121	0x3eac4bad	0.33651486
122	0xbde45fa1	-0.11151052
123	0xbe3d10be	-0.18463418
124	0xbe13b454	-0.14424258
125	0xbf4f4796	-0.80968606
126	0x401a81e6	2.4141784
127	0xbff33eac	-1.9003501
128	0xc0141580	-2.3138123
129	0xbf3d38ff	-0.73915094
130	0x3cd9bd9d	0.026579672
131	0x3de8e719	0.113722034
132	0x3f287ad9	0.6581245
133	0xbf5ee280	-0.8706436
134	0x3dbf7bfd	0.09349821
135	0xba15a987	-0.00057091605
136	0xbd17010e	-0.03686624
137	0xbebdebf2	-0.37094074
138	0xbf3b400f	-0.7314462
139	0x3f0a8248	0.54105043
140	0xbf69a142	-0.91261685
141	0xbe945eb7	-0.28978512
142	0x405d16e9	3.4545233
143	0x3f5be15e	0.8589076
144	0xbd95d806	-0.07316594
145	0x3e081e7d	0.1329288
146	0x3f36b90c	0.7137611
147	0x3ea61b0e	0.32442516
148	0xc004d74a	-2.0756402
149	0x3eb27779	0.34856775
150	0xbe41f353	-0.18940477
151	0xbd682e73	-0.056684922
152	0xbda1afa3	-0.07894828
153	0x3ea4dd08	0.32199883
154	0xbf4d0816	-0.80090463
155	0x3f88c210	1.0684223
156	0xc09092f0	-4.5179367
157	0x3e8e7397	0.27822563
158	0xbf11be5d	-0.56931096
159	0xbf33e6c5	-0.70274
160	0xbf64eb6d	-0.8942173
161	0x3e9422f9	0.28932932
162	0x3e133d58	0.1437887
163	0xbe0d9bc8	-0.13828957
164	0x3d5f6813	0.054542612
165	0x3eff25b9	0.49833468
166	0x3eff1bd6	0.49825925
167	0x3f20eea7	0.62864155
168	0x3ff58358	1.9180708
169	0x3f5e393f	0.868061
170	0xbf7a9a41	-0.9789162
171	0x3ea19d3a	0.31565267
172	0xbebc3fa7	-0.36767313
173	0x3d088e4c	0.03333883
174	0x3e35d81a	0.17758217
175	0xbf3585d5	-0.70907336
176	0xbf502351	-0.8130389
177	0xbf06df50	-0.526845
178	0x3da08c08	0.07839209
179	0xbe3568fb	-0.17715828
180	0x3ecd654f	0.40116355
181	0x3e9c86d9	0.3057163
182	0xbfe0de77	-1.7567891
183	0xbf51dec4	-0.8198054
184	0xbe36b67e	-0.17843053
185	0x3f714057	0.942388
186	0x3f6b8ae1	0.9200879
187	0x3e761797	0.24032436
188	0x3e3ca2ea	0.18421522
189	0x3f4b537b	0.79424256
190	0xbec9d33c	-0.39418972
191	0x3f00b231	0.502719
192	0xbea33051	-0.318728
193	0x3d4e50bd	0.050369967
194	0x3d67b2b6	0.056566916
195	0x3e98528a	0.29750472
196	0x4012875c	2.2895117
197	0xbe6e4b17	-0.23270832
198	0xbe5f79d4	-0.21823817
199	0xbfb528ad	-1.4153038
200	0xbeba0142	-0.36329085
201	0x3f825c4a	1.0184414
202	0x3dbdd893	0.09269824
203	0x3e4acdbb	0.19805042
204	0x3f19aee2	0.60032475
205	0xbde6b1b0	-0.1126436
206	0xbf35060f	-0.7071237
207	0x3e2a3c1a	0.1662449
208	0xbe80cdfe	-0.2515716
209	0xbf3304ec	-0.69929385
210	0x3f99f998	1.2029295
211	0x3fcf6b38	1.6204596
212	0x3f9b6e95	1.2143122
213	0xbf93fb09	-1.1560985
214	0xbf2875d0	-0.6580477
215	0x3e2e3aa3	0.17014556
216	0x3f132162	0.57472813
217	0x3dc74be0	0.09731269
218	0x3e8a3440	0.2699299
219	0xbea071ef	-0.31336924
220	0xbebf05de	-0.37309164
221	0x3e1d40b5	0.15356715
222	0x3dbdaf4f	0.09261953
223	0xbee3a8bb	-0.4446467
224	0xbf341333	-0.70341796
225	0xbee923c2	-0.45535094
226	0x40112289	2.2677329
227	0x3a20bc99	0.0006131619
228	0xbf891e12	-1.0712302
229	0x3e7e5acf	0.24839328
230	0xbedfe7f1	-0.43731645
231	0xbfc07f5a	-1.5038865
232	0xbd069343	-0.032855283
233	0x3d51357c	0.051076397
234	0xbec4ebd2	-0.38461167
235	0xbfbb90cc	-1.4653563
236	0x3e23946c	0.15974587
237	0xbee7de93	-0.45286998
238	0x3f8fd291	1.1236135
239	0x3e7ea020	0.2486577
240	0x40145ba3	2.318093
241	0xbe5ea121	-0.21741153
242	0xbe76ed6d	-0.24114008
243	0x3d9aa87d	0.07551668
244	0xbc674c15	-0.01411726
245	0xbf2217c7	-0.6331753
246	0xbff7e857	-1.936778
247	0x3d98d27c	0.07462022
248	0x3f121186	0.5705799
249	0x3e27734e	0.16352579
250	0x3eb6f8e7	0.35736772
251	0xbf3422c5	-0.70365554
252	0x3fa205d0	1.2658024
253	0x3f3d2665	0.7388671
254	0xbfc905b1	-1.5704862
255	0x3f2f4725	0.6846793

bias f4 [200]
0	0xbec62276	-0.38698167
1	0x3d967a05	0.07347492
2	0x3e8c406f	0.2739291
3	0xbdf1ea67	-0.11812287
4	0x3e6a5acf	0.22886203
5	0x3e8308ff	0.255928
6	0xbe1d180b	-0.15341203
7	0xbe20bcaa	-0.1569697
8	0x3e654090	0.2238791
9	0x3d830359	0.06397123
10	0x3fa63cab	1.2987264
11	0x3da33814	0.079696804
12	0xbef1552f	-0.47135302
13	0xbfa20382	-1.265732
14	0xbf2580e4	-0.64649796
15	0x3e5f65f7	0.2181624
16	0x3f839f66	1.028302
17	0x3f8e6f30	1.1127682
18	0xbd0b0322	-0.033938535
19	0x3f5bfaab	0.85929364
20	0x3e082b4f	0.13297771
21	0xbe17389c	-0.14767689
22	0xbfa91456	-1.3209331
23	0x3e1e8511	0.15480448
24	0x3e8ca733	0.27471313
25	0x3f8f268a	1.1183636
26	0x3f067ce3	0.5253431
27	0x3f29dda6	0.66353834
28	0x3f3fecb8	0.7497058
29	0x3fbed06d	1.4907357
30	0xbe414cc0	-0.18876934
31	0x3ea6a4d4	0.3254763
32	0xbf1192c6	-0.56864583
33	0xbf524a86	-0.82144964
34	0x3e73735e	0.23774478
35	0xbd9616ec	-0.07328591
36	0x3dc53e40	0.09631014
37	0xbf28af95	-0.65892917
38	0xbf3e01e3	-0.7422163
39	0x3f3e3fab	0.743159
40	0x3e9388fb	0.28815445
41	0x3f211b7b	0.62932557
42	0xbf58407a	-0.84473383
43	0xbea8c13a	-0.3295992
44	0xbe2694b0	-0.16267657
45	0xbf0952a2	-0.5364171
46	0x3d2d47e3	0.042304885
47	0x3f31b745	0.6942027
48	0xbe2a3779	-0.16622724
49	0x3ee0c82c	0.4390272
50	0x3ecf6c99	0.4051254
51	0x3e104481	0.14088632
52	0x3f2a1155	0.66432697
53	0x3f187dc6	0.59566915
54	0x3d90cb4c	0.07070026
55	0x3e716b27	0.23576032
56	0x3f71385e	0.94226635
57	0x3a35a57b	0.00069292606
58	0xbf43f5f5	-0.76547176
59	0x3ed674a0	0.41885853
60	0x3f27a61d	0.65487844
61	0x3f377c73	0.7167427
62	0x3e80b50b	0.25138125
63	0xbd87ec03	-0.066368125
64	0x3f5056a7	0.8138222
65	0xbf921461	-1.1412469
66	0xbe51418b	-0.20435159
67	0xbe43ed29	-0.19133438
68	0x3e3dd775	0.18539222
69	0xbd519ebb	-0.051176768
70	0x3ea033f7	0.31289646
71	0x3f2ce1fb	0.6753232
72	0x3dfd22b9	0.123601384
73	0xbf7b02f2	-0.9805137
74	0x3f9ae464	1.2100949
75	0x3c13a963	0.009012553
76	0xbf76091e	-0.9610766
77	0x3ecd8b48	0.40145326
78	0x3f2ee760	0.683218
79	0xbe81988f	-0.25311705
80	0x3ea32a51	0.31868222
81	0x3eab3094	0.334355
82	0xbf184030	-0.5947294
83	0xbd5dce81	-0.054152016
84	0xbf1f8610	-0.6231394
85	0xbe88dc49	-0.26730564
86	0x3ee01596	0.4376647
87	0x3f3cfbb9	0.738216
88	0xbf36846d	-0.71295816
89	0xbe9d0c21	-0.30673316
90	0x3e86f9a3	0.26362333
91	0x3fce923d	1.6138378
92	0xbfc2d43b	-1.5221018
93	0xbfa1adfa	-1.2631218
94	0x3cb6d7e6	0.022319745
95	0x3dbfb22c	0.093601555
96	0x3edc0a42	0.42976576
97	0x3eef2f01	0.4671555
98	0x3dcdd99a	0.1005127
99	0x3e9a4cc2	0.30136687
100	0xbf595f0a	-0.84910643
101	0xbf1060cc	-0.563977
102	0x3f8d4036	1.1035221
103	0x3c7d44a8	0.015458263
104	0xbe403588	-0.1877042
105	0xbf8eac5c	-1.114635
106	0xbee4d72a	-0.44695407
107	0xbdf70d28	-0.12063056
108	0xbf73c8df	-0.9522838
109	0x3f6ee23e	0.9331397
110	0x3ee74dc7	0.45176527
111	0xbf51f8f6	-0.8202051
112	0x3f470cef	0.7775411
113	0x3f453c0b	0.77044743
114	0x3e4e9af1	0.20176293
115	0x3f635e33	0.8881561
116	0x3f502225	0.813021
117	0x3f14b4b7	0.5808825
118	0x3f6ac396	0.9170469
119	0x3d34a93f	0.04410672
120	0xbfafdcb9	-1.3739234
121	0xbe087205	-0.13324745
122	0xbe1f3b5c	-0.15549988
123	0xbe8fa017	-0.28051826
124	0x3f2aa13e	0.66652286
125	0xbea49f67	-0.32152864
126	0x3e590391	0.21192767
127	0xbda79a31	-0.081837066
128	0xbd26207c	-0.040558323
129	0x3fb35399	1.4009887
130	0xbfa3aa64	-1.2786374
131	0xbf5e6b19	-0.8688217
132	0xbd5d8ffb	-0.05409239
133	0x3ebd5bdc	0.36984146
134	0x3e002022	0.12512258
135	0x3eaea575	0.3411061
136	0x3eb5f977	0.3554189
137	0x3eb01200	0.34388733
138	0x3f819a44	1.0125203
139	0x3f4acf64	0.792227
140	0x3f541de2	0.828581
141	0x3e9c7ca1	0.30563834
142	0x3f9d6b8a	1.2298443
143	0x3ea2544b	0.31704935
144	0x3cdbaf79	0.02681707
145	0xbe7f1657	-0.24910866
146	0x3eb2c652	0.3491693
147	0xbf2c3b87	-0.6727833
148	0xbeb874f4	-0.36026728
149	0xbf390ee8	-0.7228837
150	0xbb8c9c7f	-0.0042911167
151	0x3f060f70	0.52367306
152	0xbf06f679	-0.5271984
153	0xbf7c6246	-0.98587453
154	0x3e6726b1	0.22573353
155	0x3ec43c20	0.38327122
156	0x3e829549	0.2550452
157	0x3ea58a20	0.32331944
158	0x3f1c4fbe	0.61059177
159	0xbe826c49	-0.2547324
160	0xbe86c953	-0.26325473
161	0x3ed50140	0.41602516
162	0x3efb6314	0.49099028
163	0xbeb00cce	-0.3438477
164	0xbef57d2d	-0.47947064
165	0xbf7fb51d	-0.9988573
166	0xbf4e3547	-0.80550045
167	0xbee8efce	-0.45495456
168	0xbf2d29ec	-0.6764209
169	0x3f187c69	0.59564835
170	0x3e8c829a	0.2744339
171	0xbf0cb324	-0.54960847
172	0xbeaf0a76	-0.3418767
173	0xbeaee015	-0.34155336
174	0xbd4ae773	-0.049537133
175	0xbdcd019d	-0.10010073
176	0xbf658760	-0.8965969
177	0x3edca302	0.43093115
178	0xbd768596	-0.06018599
179	0xbf1d89b6	-0.61538255
180	0x3efa8fd1	0.48937848
181	0x3f537ffa	0.8261715
182	0xbf4525fb	-0.7701108
183	0xbe4ef9d0	-0.20212483
184	0xbf148236	-0.58011186
185	0x3f94e4d7	1.1632336
186	0x3ee5a37d	0.44851294
187	0xbb1deef0	-0.0024098717
188	0xbf5405f5	-0.8282159
189	0x3facabe4	1.3489957
190	0x3ec9babc	0.3940028
191	0x3f817cfe	1.011627
192	0xbf6bcecc	-0.9211242
193	0x3f9494c0	1.1607895
194	0x3efb6295	0.4909865
195	0x3f13130a	0.57450926
196	0x3e4581ee	0.19287845
197	0x3e871b19	0.2638786
198	0xbe875ed8	-0.26439548
199	0xbec8ec61	-0.39242843

weight f4 [200, 200]
0	0xbfa47721	-1.2848855
1	0x3f94bdf6	1.1620471
2	0x3f199a92	0.6000148
3	0xbfef22dd	-1.8682514
4	0x3fbe48d3	1.4865974
5	0xbf1aecc3	-0.6051752
6	0xbe310331	-0.17286374
7	0x3cdc4f87	0.02689339
8	0x3ef3c845	0.4761373
9	0x3fe4eca1	1.7884713
10	0x3ecffd63	0.40623006
11	0xc0379559	-2.8684905
12	0xbcc59848	-0.024120465
13	0xbe793ff8	-0.24340808
14	0xc00aa12b	-2.166087
15	0xc01010e1	-2.2510302
16	0x3e85b9b7	0.26118252
17	0xbe54ec30	-0.20793223
18	0x3dfcab63	0.12337377
19	0xbdb1995b	-0.08671828
20	0xbfccaca5	-1.5990187
21	0xbe82b187	-0.25526068
22	0x3ffcdad7	1.9754285
23	0x3fa97d41	1.324135
24	0x3f092121	0.53566176
25	0x3f9f570a	1.2448437
26	0xbf2a0e92	-0.6642848
27	0xc0107d06	-2.2576308
28	0x3f150020	0.58203316
29	0x3f527c24	0.82220674
30	0xbfb3579e	-1.4011114
31	0xbe6c3f0b	-0.23070924
32	0xbf2b2e40	-0.66867447
33	0xbfe8a46e	-1.817518
34	0x3ee2c9e9	0.4429467
35	0xc0a20daa	-5.064168
36	0x3efdf76b	0.49602827
37	0xbf19b57e	-0.6004256
38	0xbdd90c04	-0.10597995
39	0x3fbb3b0e	1.4627397
40	0xbf4469f8	-0.76724195
41	0x3ff853e4	1.9400601
42	0xbfd98bf5	-1.6995836
43	0xbfd4a238	-1.6612005
44	0xbfd07ce9	-1.628812
45	0xbf3e9b17	-0.744554
46	0x3edee679	0.43535212
47	0x3e847531	0.2587066
48	0xbf403dc9	-0.75094277
49	0x3fa24764	1.2678037
50	0xbf9bd34a	-1.2173855
51	0xc0228701	-2.53949
52	0xc0218242	-2.5235753
53	0xc00aef32	-2.1708493
54	0xbfc40030	-1.5312557
55	0xbf9275d8	-1.1442213
56	0xbf8b6081	-1.0888826
57	0xbfac5732	-1.346411
58	0xbe7c7e1a	-0.24657479
59	0x3f3d333c	0.739063
60	0x3ed67e28	0.41893125
61	0x3fe6e32c	1.8038077
62	0x3faf0bc1	1.3675462
63	0xbff38127	-1.9023789
64	0x3ff065cf	1.878107
65	0xbec7eaca	-0.39046317
66	0xbf1e6d79	-0.6188579
67	0xbfcc2f62	-1.595196
68	0xbf0d4693	-0.5518581
69	0x3ecf71df	0.40516564
70	0xbf3ed769	-0.7454744
71	0x40025add	2.0367959
72	0x3f41b1d5	0.75661975
73	0xbfc4a4b8	-1.5362768
74	0x3f8ff614	1.1246972
75	0x3f439bd6	0.7640966
76	0x3ee411f4	0.44544947
77	0xbf010334	-0.5039551
78	0x3d9e48b0	0.07728708
79	0xc0347716	-2.8197684
80	0x4004cb82	2.0749211
81	0x3f7451b4	0.9543717
82	0x3f57b354	0.8425801
83	0xbffc25e8	-1.9699068
84	0xbf9b21fb	-1.2119745
85	0x3f6a3d86	0.9150013
86	0xbf3d9761	-0.7405911
87	0x3f4dbe13	0.80368155
88	0x3e87da2c	0.2653364
89	0xbe8f95af	-0.28043887
90	0x3faf4113	1.3691734
91	0x3eb120e4	0.34595406
92	0xc00a6713	-2.1625412
93	0xbeae472e	-0.3403868
94	0x3ef233a5	0.47305027
95	0xbfd00524	-1.6251569
96	0x3e7dde8c	0.24791926
97	0x3f60185a	0.8753716
98	0xc049631c	-3.1466742
99	0x3f601f95	0.8754819
100	0xbffc7670	-1.9723644
101	0xbfdac8db	-1.7092546
102	0x3f2fefbf	0.687252
103	0xc016939a	-2.352759
104	0xbf7ec9ff	-0.9952697
105	0xc022f708	-2.5463276
106	0xbf593338	-0.8484378
107	0xbf649bc4	-0.8930018
108	0xbe0f4bce	-0.13993761
109	0xbd53b1b8	-0.051683158
110	0x3f0c3993	0.5477535
111	0xbfdaee1f	-1.7103919
112	0x3ea0322d	0.3128828
113	0x3ec0a28e	0.3762402
114	0x3f23cb5a	0.63982165
115	0x3e61412f	0.21997522
116	0x3edabb7b	0.4272116
117	0xbc28f723	-0.010312828
118	0xc0829841	-4.0810857
119	0x3f0eac5c	0.5573175
120	0xbf0a9f9d	-0.541498
121	0xbf4e0217	-0.8047194
122	0x3fd2da05	1.6472784
123	0xbecd057f	-0.40043256
124	0x3f9a46bb	1.2052835
125	0xbd119e8d	-0.035551596
126	0xbf09a6ae	-0.5376996
127	0xbeb13727	-0.3461239
128	0x3f992e1b	1.1967195
129	0xbfb55b4d	-1.4168488
130	0xbe9a75f1	-0.30168107
131	0x3f3a188b	0.726937
132	0xbf0d6a87	-0.5524067
133	0xbf1b5e2a	-0.6069056
134	0x3f114675	0.56748134
135	0x4005623d	2.084121
136	0xbd848dff	-0.06472396
137	0xc085e33f	-4.18399
138	0xbfb1b1f6	-1.3882434
139	0xbf8d62dc	-1.1045794
140	0xbf221cf6	-0.6332544
141	0xc0449c36	-3.0720344
142	0xbebb9ab2	-0.3664146
143	0xbf611ec8	-0.87937593
144	0x40115fb5	2.2714665
145	0xbff246eb	-1.8927892
146	0xc0200d75	-2.5008214
147	0xbd8a68ef	-0.06758296
148	0x3e7a75bc	0.24458975
149	0xbfe0b4ea	-1.755521
150	0xbf851f27	-1.0400132
151	0xbfa9a579	-1.3253623
152	0xbf3383a5	-0.7012275
153	0xbff94c12	-1.947634
154	0xbfefb925	-1.8728377
155	0x3d0c0ac5	0.034189958
156	0xbf56d0bf	-0.8391227
157	0x401a8701	2.41449
158	0x3f663e27	0.89938587
159	0xc08998e0	-4.2999115
160	0xbdaaffbc	-0.08349559
161	0x3fa2c0ea	1.2715123
162	0xbe83d769	-0.25750282
163	0xbfed1716	-1.852267
164	0x3f3b3247	0.7312359
165	0xbc2bae16	-0.010478517
166	0x3fc89f7a	1.5673668
167	0xbf801530	-1.0006466
168	0xbea006a3	-0.31255063
169	0x3e4838d6	0.19552931
170	0xbf40a0a1	-0.752451
171	0xbf50fb8b	-0.81633824
172	0x3f029888	0.51013994
173	0x3da0c88f	0.078507535
174	0xbf23c93e	-0.63978946
175	0xbf42f667	-0.7615723
176	0x3fbea4ad	1.4894005
177	0x3fb8005a	1.4375107
178	0xc03dacda	-2.963675
179	0x3f9b26f0	1.2121258
180	0x3f473464	0.77814317
181	0xbfdf8df2	-1.7465193
182	0x3f4d52db	0.8020455
183	0xc0054f0c	-2.0829496
184	0x3f5fca06	0.8741764
185	0xbebf1476	-0.37320298
186	0x3f8e685d	1.1125599
187	0xbe1c9d0b	-0.15294282
188	0xc08b4f68	-4.353443
189	0xbf5203c6	-0.8203701
190	0xc0190326	-2.3908172
191	0x3f4243fb	0.7588498
192	0xbf8768c1	-1.0578843
193	0x3f1eb986	0.62001836
194	0x3fcf509a	1.6196473
195	0x3f45aa31	0.77212816
196	0x3ef76ea0	0.48326588
197	0xc0225978	-2.5367107
198	0x3f4758f3	0.778701
199	0x3c80f1ac	0.015740238
200	0xbfb7ed57	-1.4369305
201	0x3f28abdf	0.65887254
202	0x3fab7ec2	1.3398058
203	0xbff3f54b	-1.9059232
204	0x3f025aff	0.509201
205	0x3f391ce5	0.72309715
206	0xbe90eac3	-0.2830411
207	0xbe9c0451	-0.30472043
208	0x3f770b38	0.96501493
209	0x3fbcfe0f	1.4765033
210	0x3fd1a3b3	1.6378082
211	0xbfae0019	-1.359378
212	0xbfe8f4b4	-1.8199677
213	0x3e7052ac	0.23469037
214	0xc014c6b2	-2.3246274
215	0xbe8b54c2	-0.27213103
216	0x3fb10ef7	1.3832692
217	0x3f19e216	0.60110605
218	0xbe7836eb	-0.242397
219	0x400f4a1c	2.2388983
220	0xbf896ee9	-1.0736972
221	0xbec57fb3	-0.3857399
222	0xbe35c1a1	-0.17749645
223	0xbe6e201a	-0.23254433
224	0x3e17926a	0.14801946
225	0x3ffe5c45	1.9871908
226	0x3fd3d823	1.6550335
227	0xbfc2de27	-1.5224046
228	0x3f8958cc	1.0730224
229	0x3f72584d	0.94665986
230	0xbfb7201b	-1.4306673
231	0x3ec8fda3	0.3925601
232	0x3ed41616	0.414231
233	0x3e0f136d	0.13972254
234	0xbe6c5ad5	-0.23081525
235	0xc066c077	-3.6054971
236	0xbe7d6169	-0.2474419
237	0x3f11f766	0.57018125
238	0xbf2d743f	-0.677555
239	0x401bcb39	2.4342787
240	0xbec689e3	-0.38777074
241	0x3f92b088	1.1460123
242	0xbf672e9d	-0.903055
243	0xbe55381b	-0.20822184
244	0xbfe94a14	-1.8225732
245	0xbef923ce	-0.4866013
246	0x3eb2a7ed	0.34893742
247	0x3e8e5e3c	0.2780627
248	0xbfdac3b9	-1.709098
249	0x3f8d27cb	1.1027769
250	0xbeb04fc8	-0.34435868
251	0xc005d1eb	-2.0909374
252	0xc07eeb86	-3.9831252
253	0xbf8dc45a	-1.1075547
254	0x3d7696f1	0.060202543
255	0x3f3b123f	0.73074716
