Vehicles/Navforest_2/Navforest_2_actor_target.pth (torch, 175681 bytes, 5 tensors)

weight f4 [200, 13]
-0.26054335 -0.13165985 2.5138562 0.34700036 -0.0014995679 -0.18425336 -0.2178315 -0.20270264
-0.25872603 -0.08807767 0.16334863 0.23837824 -0.18549775 -0.43838423 0.07256962 -0.70544124
-0.2855393 -0.26888865 0.018760927 0.16471308 -0.7281686 -0.24958958 -0.04958269 -0.08106878
-0.17489642 -0.008624746 0.33513996 -1.1426328 -0.23876181 0.292767 0.13037883 0.25633636
-0.48924926 -0.5967657 0.058735892 0.29848808 -0.35191414 -0.19415796 0.0014241324 0.5587208
0.5849022 -0.42868438 -0.24641225 -0.23753306 0.31803167 -0.16629829 -0.35615245 -0.81624913
-0.41429633 -0.09064515 0.085430585 0.05211656 0.51049644 -0.078219965 -0.32923687 -0.39583728
-0.068390585 -0.44134977 -0.25575563 -0.1677771 -0.17349017 -0.083732635 -0.8705531 -0.26986912
-0.36761883 -0.07617242 0.24896567 1.1443387 0.043254122 0.6061095 -0.026716758 -0.3634576
-0.08451336 -0.036644574 0.08298212 0.17644267 -0.1560811 0.23237939 0.4949075 -0.35563332
-1.4866052 -0.07110511 0.14961118 0.4684045 0.4676046 -0.25678352 0.10388881 0.21898125
-0.47758004 0.15251206 0.3618389 0.14645328 -0.8123439 0.01277181 0.09875818 0.15047748
0.21749428 -0.31330845 -1.3448194 0.006734283 0.018715318 0.34295893 0.29410583 -0.16396585
0.309157 0.25521109 -0.39967453 0.15287012 -0.5999897 -0.46167624 -1.254499 -0.42136294
-0.2493708 -0.4272789 -0.52648497 0.25964203 -0.07248542 -0.13080664 0.6808442 -0.59531415
-0.005687183 0.20135556 0.12947226 0.2976572 0.3684235 -0.5744813 -0.6422314 0.29629782
0.010062543 0.1097191 -0.2226522 0.86947143 1.0204996 -0.048235353 0.29800305 0.08130833
-0.5266997 -0.39584792 -0.20869513 0.34950525 -0.03346112 -0.24841246 0.32697502 0.7577776
-0.16390695 3.7497296 0.06824724 0.1675931 0.00720149 -0.47710738 -0.010258771 -0.109703794
0.3014391 0.14156577 -0.02546302 -0.18307924 0.25806305 0.47631487 -2.9447718 0.3473302
-0.15531111 0.16000861 0.7359381 0.16463803 0.2179705 0.0136357825 0.25838727 -0.11284159
-0.20239438 0.0086509865 0.006516569 0.16391413 -0.55546033 -0.2016787 -0.04175215 -0.45679078
-0.1521501 -0.47849923 0.15322618 0.3129427 0.092147104 -0.37748408 -0.16140975 -0.6122783
0.66139996 0.4237569 0.20437098 -0.1574971 -0.15268451 -0.9396566 -0.116710186 0.2757573
0.29333588 0.17124356 -0.013890447 -0.22017755 -0.090062045 0.13045706 0.04487564 0.52346385
0.31695673 -0.1506395 -0.21898678 -0.15173131 0.15747939 0.4545123 -0.010221868 -0.32649758
-0.21525921 0.17055668 -0.2632948 -0.19472393 -0.14264579 0.18548524 0.18578058 0.3678205
-0.7615294 -0.28822398 -0.041283973 0.39342928 0.15853651 0.20239022 0.70237285 -0.45014894
0.0066347765 0.041456316 -0.36666286 0.04633472 -0.018326584 -0.43899435 -0.33946458 0.308003
-0.13285008 -0.07646144 -1.497795 -0.48696306 -0.3019678 0.08489364 0.3191677 0.15134121
0.06145847 0.036634896 -0.33437967 0.4005457 0.042067237 -0.35350007 -0.14733303 0.36573404
-0.79553205 0.5945777 0.2753586 0.48204273 0.21953972 -0.17807223 0.0038202677 0.120968506
00000000: f065 85be d7d1 06be 05e3 2040 08aa b13e
00000010: 268d c4ba eaac 3cbe 390f 5fbe 4891 4fbe
00000020: bd77 84be 1162 b4bd dd44 273e 6d19 743e
00000030: 1ff3 3dbe e673 e0be 629f 943d cc97 34bf
00000040: 3532 92be c6ab 89be 84b0 993c 8caa 283e
00000050: 4269 3abf 6994 7fbe 3817 4bbd 6307 a6bd
00000060: 0c18 33be cf4e 0dbc 7797 ab3e cb41 92bf
00000070: fa7d 74be 8ee5 953e 0782 053e 853e 833e
00000080: e17e fabe a3c5 18bf 0c95 703d 6ed3 983e
00000090: 172e b4be 58d1 46be f4a9 ba3a 5408 0f3f
000000a0: 27bc 153f 857c dbbe 7e53 7cbe de3b 73be
000000b0: 0cd5 a23e 194a 2abe 9d59 b6be b4f5 50bf
000000c0: a61e d4be 2aa4 b9bd 3bf6 ae3d 2d78 553d
000000d0: e5af 023f ca31 a0bd bc91 a8be 2fab cabe
000000e0: 5d10 8cbd 99f8 e1be 67f2 82be c3cd 2bbe
000000f0: 68a7 31be 047c abbd 91dc 5ebf 492c 8abe
00000100: 8938 bcbe 4900 9cbd dbf0 7e3e b179 923f
00000110: 3c2b 313d fe29 1b3f 1add dabc 1d17 babe
00000120: 5715 adbd 9f18 16bd 88f2 a93d 63ad 343e
00000130: b9d3 1fbe ddf4 6d3e 8464 fd3e 9215 b6be
00000140: 1449 bebf 8e9f 91bd ac33 193e b7d2 ef3e
00000150: df69 ef3e 2179 83be a8c3 d43d 9f3c 603e
00000160: 5f85 f4be 1f2c 1c3e f342 b93e d9f7 153e
00000170: c5f5 4fbf db40 513c bb41 ca3d c516 1a3e
00000180: d2b6 5e3e f769 a0be 0b23 acbf 43ab dc3b
00000190: de50 993c 5098 af3e 0a95 963e aae6 27be
000001a0: d449 9e3e 07ab 823e 24a2 ccbe fc89 1c3e
000001b0: ed98 19bf d460 ecbe 6c93 a0bf e2bc d7be
000001c0: 0f5b 7fbe 4dc4 dabe b8c7 06bf cdef 843e
000001d0: 3c73 94bd 2df2 05be ce4b 2e3f 8266 18bf
000001e0: 8c5b babb 2730 4e3e 6094 043e 8666 983e
000001f0: 01a2 bc3e 3511 13bf 4769 24bf 59b4 973e
00000200: 5ddd 243c 68b4 e03d f0fe 63be ae95 5e3f
00000210: bb9f 823f 6f92 45bd db93 983e fb84 a63d
00000220: cbd5 06bf 94ac cabe 2db4 55be 5af2 b23e
00000230: 870e 09bd d65f 7ebe 4569 a73e b6fd 413f
00000240: 39d7 27be 92fb 6f40 35c5 8b3d 879d 2b3e
00000250: 7afa eb3b 6b47 f4be 6714 28bc 62ac e0bd
00000260: 3a56 9a3e 9ef6 103e d397 d0bc 2079 3bbe
00000270: d720 843e 8bdf f33e 2477 3cc0 44d5 b13e
00000280: e009 1fbe 4cd9 233e 7066 3c3f df96 283e
00000290: a933 5f3e 9e68 5f3c 564b 843e 7e19 e7bd
000002a0: 7940 4fbe debc 0d3c f188 d53b 1bd9 273e
000002b0: a632 0ebf dc84 4ebe 4d04 2bbd 7be0 e9be
000002c0: 3ccd 1bbe dafd f4be 53e7 1c3e 073a a03e
000002d0: 9fb7 bc3d 9845 c1be 9948 25be 45be 1cbf
000002e0: 8251 293f aaf6 d83e a046 513e eb46 21be
000002f0: 5459 1cbe 568d 70bf c005 efbd 1030 8d3e
00000300: 1f30 963e 795a 2f3e c294 63bc 3976 61be
00000310: 7372 b8bd 8996 053e 85cf 373d ba01 063f
00000320: 2748 a23e 3e41 1abe 123e 60be 745f 1bbe
00000330: 4742 213e d6b5 e83e 9f79 27bc b12a a7be
00000340: e96c 5cbe 69a6 2e3e 93ce 86be b665 47be
00000350: bd11 12be d8ef 3d3e 443d 3e3e f852 bc3e
00000360: 97f3 42bf 1892 93be 6219 29bd 906f c93e
00000370: 6557 223e 623f 4f3e b5ce 333f ec79 e6be
00000380: 8a68 d93b 19ce 293d 3cbb bbbe 7ac9 3d3d
00000390: a221 96bc dec3 e0be 4dce adbe 92b2 9d3e
000003a0: da09 08be d197 9cbd bfb7 bfbf 3953 f9be
000003b0: 869b 9abe b7dc ad3d f369 a33e 31f9 1a3e
000003c0: e0bb 7b3d 790e 163d d033 abbe 5314 cd3e
000003d0: b24e 2c3d f6fd b4be 78de 16be 7e41 bb3e
000003e0: fda7 4bbf 3f36 183f cdfb 8c3e 4ece f63e
000003f0: 05cf 603e 9158 36be 755d 7a3b 56be f73d

bias f4 [200]
-0.41530424 0.1659577 -0.3867087 -0.07341979 0.5173968 -0.19626327 -0.011097167 0.3663258
-0.01916123 0.049519535 -0.17152368 -0.25965434 -0.21848163 -0.16360664 -0.012887545 -0.40697563
-0.0098763 -0.17292024 -0.40334672 -0.36180997 0.34212396 -0.16616492 -0.17132923 0.35506064
-0.047533426 -0.15305941 -0.068687685 -0.1027 -0.5267802 0.07453358 0.43986169 -0.35841203
-0.22806995 -0.4470635 0.051008537 -0.16872084 0.014010917 0.21222779 0.06865237 0.24007972
0.017650869 0.4156206 -0.029294906 -0.15484188 0.3197455 -0.018768877 -0.042033587 -0.41558272
0.10910236 0.016005725 0.024340672 -0.09948741 0.3024139 -0.18239588 -0.21420732 -0.06728224
-0.17254812 0.18895176 0.3151558 0.26867178 0.39504883 -0.13535215 -0.2295494 0.089260675
-0.15874775 0.12794614 0.14165531 0.27937788 -0.31481707 -0.09088764 -0.11763938 0.08207102
-0.20408292 -0.18424293 -0.3116312 -0.15674484 0.025608376 -0.2712556 0.27373874 -0.2765092
0.4925131 0.016880162 0.19336912 -0.20064579 0.09242159 -0.26593202 -0.004998226 0.16438988
-0.5859217 -0.42419535 -0.32046708 0.43284622 -0.14046417 -0.24117458 -0.3094229 -0.39737225
-0.1319398 -0.57255405 0.37508553 -0.032111783 0.34892547 -0.37230414 -0.40226316 -0.16032311
0.15158494 -0.24679612 0.13771322 0.16038379 -0.3502032 0.03195862 0.24920368 -0.23586284
-0.11694599 0.24360631 -0.23947994 -0.3141182 0.28373754 -0.16864704 0.390061 -0.5346251
-0.42434078 -0.33334604 0.10407949 -0.082325265 0.3474546 0.12152813 0.20174466 -0.17259812
-0.14127587 0.33174542 0.2555758 -0.23652503 -0.032091264 -0.18493995 -0.18468317 -0.14908467
-0.21600488 0.2799444 0.28826883 -0.122101374 0.0871986 -0.2546039 0.21270679 -0.05518829
-0.056578644 -0.20770863 0.2432839 -0.1559055 0.34378055 0.37868845 -0.2561639 0.43223655
-0.1467567 -0.23971732 0.044515733 -0.07680041 -0.1581483 -0.37877917 -0.09716684 0.18455543
0.16253744 -0.07557086 0.11408819 -0.15954214 0.027977265 -0.022279022 0.061791304 0.32423118
-0.31217664 -0.31682467 0.00036619345 0.50181586 0.22557707 0.16908163 -0.2711011 -0.11069774
0.3352287 -0.12149496 -0.09935805 0.35374874 -0.1743024 -0.17982501 0.01803834 -0.2202934
-0.07775389 -0.18819402 -0.035305284 -0.005491782 0.56049097 -0.44978997 0.3137278 0.23657887
-0.24469095 0.074236736 0.03400465 -0.08273648 0.2076822 0.33077142 0.07111504 0.1142404
00000000: c2a2 d4be d1f0 293e affe c5be 1d5d 96bd
00000010: 1e74 043f 3df9 48be e4d0 35bc 0e8f bb3e
00000020: 03f8 9cbc ffd4 4a3d e7a3 2fbe 6af1 84be
00000030: a6b9 5fbe 8088 27be 4826 53bc 1c5f d0be
00000040: 34d0 21bc 0112 31be 7683 cebe 283f b9be
00000050: df2a af3e 2327 2abe ee70 2fbe 82ca b53e
00000060: 69b2 42bd 9bbb 1cbe 21ac 8cbd 6154 d2bd
00000070: 11db 06bf 10a5 983d 8d35 e13e c881 b7be
00000080: 2b8b 69be 82e5 e4be 54ee 503d 28c5 2cbe
00000090: 0c8e 653c 3e52 593e 9d99 8c3d 75d7 753e
000000a0: 8e98 903c 39cc d43e dffb efbc df8e 1ebe
000000b0: afb5 a33e 30c1 99bc 692b 2cbd 42c7 d4be
000000c0: 0f71 df3d 701e 833c 1766 c73c 0ec0 cbbd
000000d0: ffd5 9a3e fcc5 3abe 2a59 5bbe 45cb 89bd
000000e0: 74b0 30be 927c 413e 1a5c a13e 598f 893e
000000f0: d743 ca3e c199 0abe ff0e 6bbe 4dce b63d
00000100: c58e 22be 5004 033e 170e 113e 9e0a 8f3e
00000110: b42f a1be 4d23 babd eaec f0bd da14 a83d
00000120: 1dfb 50be 2eaa 3cbe 208e 9fbe b881 20be
00000130: a8c8 d13c 04e2 8abe 7c27 8c3e 9d92 8dbe
00000140: ad2a fc3e 4448 8a3c 8e02 463e 1776 4dbe
00000150: 8847 bd3d 3e28 88be 29c8 a3bb d255 283e
00000160: f7fe 15bf 2230 d9be 4314 a4be 059e dd3e
00000170: d7d5 0fbe 78f6 76be ae6c 9ebe 6074 cbbe
00000180: 3a1b 07be e792 12bf 360b c03e a587 03bd
00000190: 5ca6 b23e a69e bebe 70f5 cdbe be2b 24be
000001a0: 1539 1b3e 1fb8 7cbe b204 0d3e a63b 243e
000001b0: d54d b3be 0be7 023d 402f 7f3e 0786 71be
000001c0: 6181 efbd ef73 793e 3b3a 75be 1ad4 a0be
000001d0: 0c46 913e cfb1 2cbe 13b6 c73e 31dd 08bf
000001e0: 3243 d9be 55ac aabe a127 d53d 269a a8bd
000001f0: 92e5 b13e bde3 f83d 2796 4e3e 90bd 30be
00000200: 9faa 10be 89da a93e d5da 823e 9e33 72be
00000210: 2172 03bd e660 3dbe 961d 3dbe a7a9 18be
00000220: 6230 5dbe df54 8f3e f997 933e 4910 fabd
00000230: 2e95 b23d 715b 82be cfcf 593e 1e0d 62bd
00000240: 02bf 67bd 92b1 54be 6a1f 793e b1a5 1fbe
00000250: 0104 b03e 74e3 c13e ea27 83be 1c4e dd3e
00000260: 6347 16be 7578 75be 2156 363d 8949 9dbd
00000270: a1f1 21be 58ef c1be 69ff c6bd 19fc 3c3e
00000280: 3770 263e e5c4 9abd 12a7 e93d 045f 23be
00000290: 9430 e53c 7f82 b6bc e118 7d3d a101 a63e
000002a0: 9ed5 9fbe d836 a2be a7fd bf39 0177 003f
000002b0: adfd 663e bc23 2d3e c3cd 8abe 7fb5 e2bd
000002c0: 19a3 ab3e 59d2 f8bd 3c7c cbbd 8e1e b53e
000002d0: 547c 32be 0c24 38be 24c5 933c 9894 61be
000002e0: 6e3d 9fbd efb5 40be 469c 10bd 68f4 b3bb
000002f0: 567c 0f3f df4a e6be eea0 a03e bb41 723e
00000300: 4490 7abe 6e09 983d 7648 0b3d be71 a9bd
00000310: a5aa 543e df5a a93e c3a4 913d dff6 e93d

weight f4 [200, 200]
-0.12186268 0.0690908 0.48629284 -0.03406835 -0.42799744 -0.2863555 0.49517858 0.5253437
-0.22251114 0.0041255616 -0.3429459 -0.27019912 -0.5109556 0.84928334 -0.06538269 -0.21004255
-0.32322782 -0.38528168 -0.53405446 -0.27124956 0.3260893 0.04800667 -0.001965209 0.3663502
0.08389667 -0.11986776 0.28559127 -0.4775026 -0.261648 -0.31213483 0.007928049 0.07320128
-0.16926691 0.04365868 0.33194104 0.6850817 0.26881826 0.11825985 0.84613913 0.2169282
-0.2288384 0.11974508 -0.33399186 -0.49062604 -0.55899066 -1.0022115 -0.5854378 -0.21190602
0.31403983 0.1292403 -0.0007423838 0.39613086 -0.2749172 0.5415352 -0.31279618 0.29297403
-0.19781695 -0.21908604 0.084993444 0.3575653 0.4184293 0.46995872 -0.32314226 0.23079997
0.048882503 -0.14080629 0.96164286 0.29213035 -0.07977691 0.15174082 -0.2349785 0.13422199
-0.3620181 -0.021395665 -0.2201651 -0.0036397965 0.004013751 -0.16667293 0.5711459 0.1402752
0.6597499 0.09534392 0.48734447 -0.01775295 -0.20448244 -0.0986612 -0.05391346 0.10045755
-0.31339136 -0.28282732 -0.4720748 0.20364808 0.35414568 -0.073586464 -0.09951377 -0.4532914
0.017627832 -0.08277908 0.123063326 -0.109867506 0.023139913 0.19012478 0.83436453 -0.36988533
-0.0015285326 0.00586124 -0.282689 0.08249585 0.24250756 -0.3243479 -0.19396174 -0.3464899
0.20491661 -0.3701514 0.17671691 0.23495957 0.06521649 -0.17797816 -0.288251 -0.1801272
0.138946 -0.47286233 0.060957357 0.07294349 0.45942932 0.026527677 0.1574132 0.31884322
-0.1715906 0.24995446 -0.1305041 0.10089184 0.16238289 -0.35107002 0.0017069645 0.32126018
-0.06573098 0.06481879 -0.3129114 -0.21376963 0.46100843 -0.42101544 0.27651355 0.12077941
0.03884252 0.27875996 -0.39277315 0.43100685 0.044073403 0.0021075439 0.1313004 0.18066195
-0.20690246 -0.18303064 -0.028473638 -0.09712196 -0.34389737 0.18552549 -0.14133318 -0.43554717
0.38534516 0.04511881 -0.0072958306 0.9499927 0.36283278 -0.034719456 -0.8324792 -0.28449553
0.11694368 0.19877812 -0.03660064 0.14598212 0.12197714 0.61513925 -0.44936877 -0.11790429
0.5481789 0.18234809 -0.06330309 -0.08783304 -0.5143782 0.014264855 -1.0089549 0.028579168
0.0153423315 -0.075474165 -0.15862627 0.30358762 0.5538607 0.23243997 0.40576372 -0.11066822
-0.18096314 -0.50288516 -0.33877307 -0.0510422 0.53145343 0.29209983 -0.29479298 -0.19001456
-0.42112213 0.054501794 -0.107565925 -0.19441713 -0.006584876 -0.18320762 -0.024921235 0.15398285
0.17144844 0.07950759 -0.51567554 -0.29661998 0.10093782 -0.08108698 0.0135793425 -0.27032647
0.032371767 -0.26162592 0.2622942 -0.224189 0.046329945 -0.16982172 -0.12122479 0.03939756
0.082835995 -0.23121117 -0.03087654 -0.40167764 -0.14663544 0.20525286 -0.41055083 0.20702055
0.06397597 -0.068441845 0.21143082 -0.053479947 -0.0037713079 -0.30482292 -0.15252869 -0.34935933
-0.30740207 -0.26883066 0.27765894 -0.44921172 0.14739029 -0.08743222 -0.1265358 0.38418812
0.07480465 -0.22514454 0.050027914 -0.22186892 -0.15369025 -0.5350734 0.019348906 0.13979536
00000000: 2493 f9bd 7a7f 8d3d 60fb f83e 418b 0bbd
00000010: 7b22 dbbe 309d 92be 0c88 fd3e ed7c 063f
00000020: f6d9 63be b82f 873b 9b96 afbe 8a57 8abe
00000030: fccd 02bf a26a 593f 5ce7 85bd 6515 57be
00000040: 1e7e a5be a443 c5be cbb7 08bf 39e1 8abe
00000050: 2df5 a63e a4a2 443d bcca 00bb 4192 bb3e
00000060: 04d2 ab3d 3a7d f5bd 0539 923e 397b f4be
00000070: baf6 85be 23d0 9fbe a6e4 013c 8dea 953d
00000080: 4e54 2dbe 72d3 323d 2df4 a93e 8461 2f3f
00000090: 8ca2 893e 3832 f23d 939c 583f 6d22 5e3e
000000a0: 9d54 6abe e93c f53d fb00 abbe 5633 fbbe
000000b0: 031a 0fbf 7748 80bf 40df 15bf e4fd 58be
000000c0: d4c9 a03e 9257 043e 899c 42ba aad1 ca3e
000000d0: f2c1 8cbe 0da2 0a3f d226 a0be b100 963e
000000e0: 8790 4abe 1758 60be 0b11 ae3d cd12 b73e
000000f0: 5d3c d63e 6e9e f03e e772 a5be d456 6c3e
00000100: 0539 483d 862f 10be 3a2e 763f 1c92 953e
00000110: 1462 a3bd f261 1b3e 349e 70be 7d71 093e
00000120: 705a b9be f645 afbc f672 61be a789 6ebb
00000130: c985 833b 4fac 2abe 9e36 123f 4da4 0f3e
00000140: 5fe5 283f ac43 c33d 3785 f93e a26e 91bc
00000150: d863 51be e20e cabd 5cd4 5cbd b0bc cd3d
00000160: d574 a0be bece 90be cab3 f1be 1f89 503e
00000170: 9552 b53e 80b4 96bd e0cd cbbd cf15 e8be
00000180: 3e68 903c 1488 a9bd a008 fc3d 3702 e1bd
00000190: ea8f bd3c 12b0 423e ea98 553f 9c61 bdbe
000001a0: 0b59 c8ba a50f c03b 9dbc 90be 96f3 a83d
000001b0: e753 783e ee10 a6be e89d 46be 2067 b1be
000001c0: a9d5 513e 7c84 bdbe 47f5 343e 3e99 703e
000001d0: 3990 853d e83f 36be a395 93be 4473 38be
000001e0: dc47 0e3e 031b f2be 6cae 793d 6663 953d
000001f0: 523a eb3e 9250 d93c ed30 213e 6b3f a33e
00000200: 72b5 2fbe 10f4 7f3e dea2 05be 62a0 ce3d
00000210: b347 263e 73bf b3be 39bc df3a 377c a43e
00000220: f79d 86bd b7bf 843d ec35 a0be 6de6 5abe
00000230: 4c09 ec3e 568f d7be 2f93 8d3e 325b f73d
00000240: 5619 1f3d a0b9 8e3e 9019 c9be eeac dc3e
00000250: 5086 343d b81e 0a3b 9d73 063e 72ff 383e
00000260: 3dde 53be 626c 3bbe 8c41 e9bc e1e7 c6bd
00000270: 5113 b0be 65fa 3d3e a5b9 10be 0a00 dfbe
00000280: f64b c53e 80ce 383d dd11 efbb b932 733f
00000290: 38c5 b93e fd35 0ebd 5b1d 55bf 66a9 91be
000002a0: 2b80 ef3d 7e8c 4b3e 8dea 15bd 567c 153e
000002b0: 27cf f93d c479 1d3f aa13 e6be ce77 f1bd
000002c0: 7455 0c3f 75b9 3a3e 0da5 81bd cfe1 b3bd
000002d0: 4aae 03bf 23b7 693c 6f25 81bf dc1e ea3c
000002e0: 675e 7b3c 3392 9abd ed6e 22be d66f 9b3e
000002f0: d1c9 0d3f be04 6e3e 43c0 cf3e 05a6 e2bd
00000300: 674e 39be 15bd 00bf aa73 adbe a011 51bd
00000310: 550d 083f 1c8e 953e 1bef 96be 2d93 42be
00000320: 529d d7be 463d 5f3d 864b dcbd 4915 47be
00000330: f2c5 d7bb c79a 3bbe 9e27 ccbc aead 1d3e
00000340: 2e90 2f3e e0d4 a23d 5003 04bf 93de 97be
00000350: 7db8 ce3d ee10 a6bd e47b 5e3c 3b68 8abe
00000360: 4298 043d d5f3 85be 6d4b 863e cd91 65be
00000370: 78c4 3d3d bfe5 2dbe b444 f8bd 565f 213d
00000380: eba5 a93d 9fc2 6cbe ccf0 fcbc b1a8 cdbe
00000390: 9a27 16be ce2d 523e b833 d2be 32fd 533e
000003a0: d505 833d 3d2b 8cbd 5281 583e ca0d 5bbd
000003b0: 0c28 77bb c011 9cbe 7b30 1cbe 3adf b2be
000003c0: ce63 9dbe 2ca4 89be 5029 8e3e 14ff e5be
000003d0: 7bed 163e aa0f b3bd 9a92 01be 4eb4 c43e
000003e0: 2e33 993d 4a8c 66be 12ea 4c3d 9b31 63be
000003f0: fa60 1dbe 92fa 08bf 9981 9e3c 8426 0f3e

bias f4 [200]
-0.0021641876 -0.2646967 -0.15414459 -0.05700631 -0.012489886 0.15370505 0.31808165 0.007318203
0.011460586 -0.44397795 0.28448543 0.010654805 -0.045231264 0.1876297 -0.08372896 -0.04778025
-0.26445642 0.21838407 -0.0034205418 0.032916337 -0.21160187 -0.02438149 -0.23678027 -0.14973745
-0.096150585 0.40786168 -0.12609525 -0.07608825 -0.07020018 -0.06002603 -0.42940107 -0.1698971
-0.14852151 -0.11139747 -0.075391755 0.18529676 -0.04466485 -0.07859104 -0.34578773 -0.36715898
0.2025603 -0.051423587 0.10123456 -0.0759282 -0.056339484 -0.026174102 0.06048817 -0.018485857
-0.025772516 -0.042524602 -0.05302248 -0.2303379 -0.038762055 -0.029285466 0.0242071 -0.02002625
-0.029955275 -0.12135741 0.20478502 -0.03278892 -0.027003659 -0.03462915 0.34160268 -0.110072754
0.12435456 -0.2986252 0.44979617 -0.08538299 0.41183326 0.052307528 -0.07182293 -0.28609818
-0.2882539 -0.07369302 0.40138543 0.015623416 -0.30895254 -0.102461234 -0.045334965 0.44940555
-0.019810183 -0.06915804 -0.2119945 -0.02789282 -0.26318154 -0.07288985 0.24115202 -0.053924
-0.07190602 -0.14932021 -0.08838003 -0.106567994 -0.029436715 -0.111865535 -0.06259351 -0.040019717
0.39211002 0.05868522 -0.037572198 0.25265947 -0.16454028 -0.049413946 0.11454579 0.03384988
-0.12187746 -0.15524492 0.3214732 0.18222792 -0.37283635 0.10527707 -0.05666582 -0.12866123
-0.1358097 0.18645129 -0.050724626 0.15778445 -0.24729869 0.0035430104 -0.0030046592 -0.028781807
0.010743654 -0.037126623 -0.083244674 -0.26333255 -0.042580005 -0.12373434 0.08557605 -0.07225357
-0.07446341 -0.22537608 -0.2554267 -0.09308577 -0.14811076 0.03436619 0.0279533 -0.055682402
-0.15677238 -0.3126356 0.3615635 -0.067675926 -0.0074555706 -0.041022897 -0.06366453 -0.07957005
-0.21356702 -0.042986542 -0.09517456 -0.3162119 0.019134413 0.0037490192 0.030645825 -0.06407603
-0.06340972 0.10179548 0.08017031 -0.0048713344 0.17172262 -0.09666914 -0.05403129 -0.097938724
-0.17911376 -0.117693216 0.3583046 -0.040931668 -0.26235524 -0.26007092 -0.027610948 -0.15934871
-0.069694646 -0.0025060782 0.014977338 -0.10791953 -0.055484157 -0.16845581 0.35821345 -0.0977465
-0.12464461 -0.17884822 -0.111871324 -0.13898773 0.48745212 -0.034887042 -0.046317697 -0.014534327
-0.30120826 -0.2940926 -0.053971685 0.401188 -0.26735255 -0.07891291 -0.17998385 -0.022653699
-0.13158186 -0.06075768 0.2578589 -0.1102322 -0.096538015 -0.0877195 0.031241754 0.12109176
00000000: 0bd5 0dbb 5386 87be 14d8 1dbe 737f 69bd
00000010: 61a2 4cbc db64 1d3e 99db a23e 89cd ef3b
00000020: 2fc5 3b3c 1451 e3be 13a8 913e 7e91 2e3c
00000030: 6b44 39bd 0022 403e 177a abbd 39b5 43bd
00000040: d566 87be 13a0 5f3e 2b2b 60bb 48d3 063d
00000050: 29ae 58be b1bb c7bc 8776 72be c654 19be
00000060: 99ea c4bd 3fd3 d03e 1d1f 01be 28d4 9bbd
00000070: 1dc5 8fbd dbdd 75bd 75da dbbe 81f9 2dbe
00000080: 0616 18be 5b24 e4bd fe66 9abd 6fbe 3d3e
00000090: 7df2 36bd 57f4 a0bd 170b b1be 43fc bbbe
000000a0: f86b 4f3e 8aa1 52bd 1154 cf3d 3e80 9bbd
000000b0: 3bc4 66bd 126b d6bc 71c2 773d a76f 97bc
000000c0: e220 d3bc 472e 2ebd 1a2e 59bd b3dd 6bbe
000000d0: f6c4 1ebd 13e8 efbc f84d c63c 170e a4bc
000000e0: c464 f5bc 3c8a f8bd 2ab3 513e ad4d 06bd
000000f0: c736 ddbc 4cd7 0dbd 8ce6 ae3e d36d e1bd
00000100: 9bad fe3d 67e5 98be af4b e63e 47dd aebd
00000110: cfdb d23e 6b40 563d e617 93bd 767b 92be
00000120: 0496 93be 5eec 96bd 6482 cd3e 5bf9 7f3c
00000130: 072f 9ebe 32d7 d1bd 28b1 39bd 7c18 e63e
00000140: f748 a2bc bba2 8dbd 1615 59be 7c7f e4bc
00000150: bbbf 86be 4647 95bd 8ef0 763e 6adf 5cbd
00000160: 7743 93bd 66e7 18be 9700 b5bd 5240 dabd
00000170: 4425 f1bc c219 e5bd 0731 80bd b7eb 23bd
00000180: a5c2 c83e ea5f 703d 4ee5 19bd 955c 813e
00000190: 3f7d 28be 4766 4abd fc96 ea3d 2ca6 0a3d
000001a0: e49a f9bd 86f8 1ebe 2398 a43e f599 3a3e
000001b0: 68e4 bebe 819b d73d 6b1a 68bd c5bf 03be
000001c0: b311 0bbe 16ed 3e3e a0c4 4fbd 3f92 213e
000001d0: de3b 7dbe da31 683b d1e9 44bb d3c7 ebbc
000001e0: 2706 303c 1612 18bd 2f7c aabd 86d3 86be
000001f0: 5f68 2ebd 6e68 fdbd 7f42 af3d aef9 93bd
00000200: 4680 98bd fdc8 66be 4ac7 82be c1a3 bebd
00000210: 59aa 17be 90c3 0c3d 52fe e43c 3b13 64bd
00000220: f088 20be c611 a0be da1e b93e ad99 8abd
00000230: dc4d f4bb a007 28bd 8d62 82bd 9ff5 a2bd
00000240: 50b1 5abe a812 30bd e1ea c2bd 87e6 a1be
00000250: c6bf 9c3c 1bb2 753b f40c fb3c 4b3a 83bd
00000260: f5dc 81bd 267a d03d 5530 a43d b79f 9fbb
00000270: 0ed8 2f3e 78fa c5bd ea4f 5dbd 1994 c8bd
00000280: 9969 37be 2409 f1bd b373 b73e f7a7 27bd
00000290: 6d53 86be 0428 85be 5b30 e2bc 4f2c 23be
000002a0: 11bc 8ebd 043d 24bb 8263 753c ea04 ddbd
000002b0: 5b43 63bd ae7f 2cbe c167 b73e 512f c8bd
000002c0: ac45 ffbd fd23 37be cb1c e5bd cd52 0ebe
000002d0: 5393 f93e b7e5 0ebd a0b7 3dbd 6321 6ebc
000002e0: f837 9abe 4e93 96be 6a11 5dbd 8368 cd3e
000002f0: 6fe2 88be 179d a1bd b04d 38be 4094 b9bc
00000300: 65bd 06be 0cdd 78bd 1506 843e 6bc1 e1bd
00000310: b9b5 c5bd 48a6 b3bd b5ee ff3c f5fe f73d

weight f4 [1, 200]
0.38816333 -0.8826629 -0.47414872 0.0033390974 -0.020507555 0.8393388 0.9971188 0.063174576
0.01068498 0.5506366 0.91638476 0.026994409 -0.8188309 0.45747873 -0.0047552907 -0.06656876
-0.2276046 -0.07036486 0.040642582 0.5660098 0.66053903 0.03408979 -0.038912352 -0.44868332
-0.022021145 2.0607603 0.0017344153 0.2657019 0.015401202 0.005607825 -1.4098264 -0.40877107
0.010216153 0.01616163 0.003225476 1.0318598 -1.475826 0.002837533 -0.50036067 0.08807788
0.8827513 0.010901421 -0.18330291 -0.03423359 0.008602168 0.011732162 0.32485393 -1.4256618
-0.00068396976 0.00022683691 0.00784682 0.01649467 -0.040127 -0.031105645 0.97286075 -0.02135357
0.0032448939 0.017243827 -1.0761185 0.0037161438 -0.83515185 -0.8087445 1.5639338 -0.0006194058
0.936685 -0.047977034 0.95535475 0.019241702 1.3363855 -1.1290938 0.016042791 -0.39008808
-0.49064863 -0.0037762139 0.36233494 -0.038017742 -0.67344576 0.0241576 0.019008499 -0.10212796
-0.0052699405 -0.59413004 -0.5767949 -0.8244767 -0.50015295 0.02870879 0.83229154 -0.35350057
-0.611758 -0.03037735 -0.6068338 -0.25856817 -0.023094773 -0.40832728 0.023249744 0.03710728
0.7830566 0.58555055 0.02151972 0.7802043 -0.06923458 -0.1957531 0.49328768 0.0058621694
-0.06880543 -0.016116926 -0.18444249 0.6533758 -0.17183289 1.2072818 0.027032781 -0.0054015364
-0.49270615 0.90092844 -0.011533446 1.3734642 -0.88189113 0.0071223425 0.0034169094 0.007767284
0.009609861 -0.6632676 0.0090980055 -0.13508244 -0.06363348 -0.7149679 0.48929718 0.0049624173
0.027241398 -0.44380197 -0.6056386 0.84757584 -0.51165235 -1.7326164 0.002166328 -0.41044548
-0.436176 2.4926925 1.637383 -0.021595715 0.025470395 -0.8048701 0.034254447 -0.022618681
-0.66095203 0.028014025 0.09348177 -0.25185072 -0.011668272 -0.0058243573 1.0889899 -0.822454
0.027780447 0.11348025 -0.08614909 -0.5895735 0.52045035 0.088513725 -0.007848961 -0.015435476
-0.48269236 -0.021040646 -1.9453882 -0.04449081 -0.60566884 -0.62778777 -0.008530085 0.090135776
0.6297628 -0.46606842 1.1718456 -0.030127011 -0.0021358272 -0.20052204 1.0885016 -0.008160722
-0.3346476 -0.44180042 -0.014009061 -0.0013471943 1.1694187 -0.62676316 0.02782217 0.030673882
-0.074695 -0.23310056 -0.0013396272 -0.24137606 -0.3547455 -0.0078043505 -0.19030738 -0.06803504
-0.013930271 0.007327048 -0.18052578 -0.019516256 -0.032760605 0.003669857 0.16625187 -1.8594762
00000000: 58bd c63e 32f6 61bf 9fc3 f2be c2d4 5a3b
00000010: 76ff a7bc e8de 563f 2d43 7f3f ac61 813d
00000020: 0e10 2f3c 85f6 0c3f 3198 6a3f 6123 dd3c
00000030: e79e 51bf a73a ea3e 45d2 9bbb 3455 88bd
00000040: 2e11 69be 741b 90bd d678 263d 05e6 103f
00000050: 1619 293f bca1 0b3d 8f62 1fbd d2b9 e5be
00000060: b065 b4bc 7fe3 0340 5255 e33a 140a 883e
00000070: 5355 7c3c d8c1 b73b 3175 b4bf 714a d1be
00000080: a761 273c 6565 843c 8262 533b fb13 843f
00000090: dee7 bcbf e7f5 393b a317 00bf 2d62 b43d
000000a0: fdfb 613f e09b 323c c2b3 3bbe 8538 0cbd
000000b0: 1cf0 0c3c 4138 403c 4153 a63e 167c b6bf
000000c0: 6f4c 33ba 12db 6d39 f38f 003c d51f 873c
000000d0: 365c 24bd 44d1 febc 670d 793f afed aebc
000000e0: 49a8 543b ed42 8d3c 40be 89bf 8c8a 733b
000000f0: 83cc 55bf e109 4fbf fc2e c83f 9f5f 22ba
00000100: 97ca 6f3f 9183 44bd 2192 743f c6a0 9d3c
00000110: ae0e ab3f 2586 90bf 2c6c 833c a0b9 c7be
00000120: 4c36 fbbe 5b7a 77bb f783 b93e 7eb8 1bbd
00000130: f166 2cbf 29e6 c53c b6b7 9b3c 7728 d1bd
00000140: 77af acbb e818 18bf d5a8 13bf e810 53bf
00000150: 060a 00bf b22e eb3c 0f11 553f 07fe b4be
00000160: 2c9c 1cbf ecd9 f8bc 7659 1bbf 0c63 84be
00000170: 4031 bdbc 4610 d1be 3f76 be3c cefd 173d
00000180: 6676 483f a4e6 153f 204a b03c 78bb 473f
00000190: dcca 8dbd 8073 48be 3490 fc3e 7117 c03b
000001a0: dce9 8cbd a507 84bc 7ede 3cbe a343 273f
000001b0: f6f4 2fbe 3688 9a3f da73 dd3c 5fff b0bb
000001c0: fb43 fcbe 3fa3 663f c7f6 3cbc adcd af3f
000001d0: 9ec3 61bf 8a62 e93b 3aee 5f3b b384 fe3b
000001e0: ae72 1d3c e8cb 29bf cd0f 153c 0d53 0abe
000001f0: 4552 82bd 2308 37bf 2985 fa3e c69b a23b
00000200: 5a29 df3c 033a e3be 220b 1bbf bbfa 583f
00000210: a6fb 02bf 60c6 ddbf f4f8 0d3b e925 d2be
00000220: 7652 dfbe 4688 1f40 c495 d13f 7fe9 b0bc
00000230: 4aa7 d03c f80b 4ebf 644e 0c3d d04a b9bc
00000240: 2734 29bf ab7d e53c 5f73 bf3d 94f2 80be
00000250: 482c 3fbc 40da bebb 0564 8b3f 588c 52bf
00000260: d293 e33c 5568 e83d ef6e b0bd 4aee 16bf
00000270: 3c3c 053f af46 b53d ee98 00bc 14e5 7cbc
00000280: 7423 f7be 6f5d acbc 7b02 f9bf ff3b 36bd
00000290: 1d0d 1bbf b3b6 20bf c5c1 0bbc 1b99 b83d
000002a0: 2338 213f 85a0 eebe 09ff 953f eccc f6bc
000002b0: 3cf9 0bbb a655 4dbe 0554 8b3f 8db4 05bc
000002c0: ee56 abbe aa33 e2be 4386 65bc 5794 b0ba
000002d0: 83af 953f 8d73 20bf 52eb e33c cb47 fb3c
000002e0: b1f9 98bd eab1 6ebe 6e96 afba 492b 77be
000002f0: 34a1 b5be a3bb ffbb f0df 42be f455 8bbd
00000300: cb3b 64bc bc17 f03b c0db 38be 8ee0 9fbc
00000310: fc2f 06bd fc81 703b ee3d 2a3e 5103 eebf
