Vehicles/ModRepeat_forest_5/ModRepeat_forest_5_actor_target.pth (torch, 176514 bytes, 5 tensors)

weight f4 [200, 14]
000000 70 17 cd 3b 1b ed cf be 05 dd 03 bf 42 52 5a 3f
       0.0062588975 -0.40610585 -0.51509124 0.85281765
000010 c0 6e ef 3e c8 5b 1e 3f c7 6f 26 3f 90 e2 d6 3e
       0.46764183 0.618588 0.6501431 0.41969728
000020 8d b7 cd bf 0e dc 25 3d b2 a5 6d be 41 8d c8 be
       -1.607164 0.040493064 -0.23207739 -0.39170268
000030 3f de 54 3e 04 38 97 3e 6e 16 30 3e 48 0e 9b be
       0.20787905 0.29534924 0.17196056 -0.30284333
000040 02 40 8b bf 80 7b 6d 3f 20 c6 6a be e6 8e 73 3e
       -1.0878909 0.9276657 -0.22927141 0.2378498
000050 db 08 e6 3e e9 ed c1 3d 6b 1d 85 3e 84 b6 89 bf
       0.4492863 0.09469206 0.25999007 -1.0758824
000060 d7 79 ab bf 9b f6 4d bf e1 e2 87 bf b9 1c 85 bf
       -1.3396558 -0.80454415 -1.0616113 -1.039939
000070 1a eb 5f be ad 40 9d 3c 26 c9 1c 3d 0a 32 ef 3d
       -0.21867028 0.019195879 0.038277768 0.11679466
000080 6c ec 77 be 0e ee a3 3c 67 e3 3a 3e 66 ac 26 3e
       -0.24211282 0.020010974 0.1825081 0.16276702
000090 49 e9 c5 bd 9a 73 43 be 56 9d 22 3d db 2b 69 be
       -0.09663636 -0.19087067 0.03970083 -0.22770636
0000a0 6e 4a ab 3d 70 85 b6 bd e4 a7 df 3e 74 21 4a bf
       0.08363806 -0.0891217 0.43682778 -0.78957295
0000b0 0f cf 8a 3e 32 a7 ef 3d 3d 98 5a 3d 5f c8 ad be
       0.27111098 0.11701812 0.053367842 -0.33941934
0000c0 97 84 00 bf 9f bd 58 3e 59 65 7f be 1f dc ca be
       -0.50202316 0.21166085 -0.24941005 -0.39621064
0000d0 8a c9 d7 bf da 0f b7 bf 80 bb 90 bf 88 20 06 bf
       -1.685838 -1.4301713 -1.130722 -0.5239339
0000e0 cd 5a c7 3d b0 22 96 3e 57 2d ff 3e 99 7b a0 bd
       0.09734116 0.2932334 0.4983928 -0.078360744
0000f0 c6 67 67 bf e2 6d 60 bf c0 4f ab be f6 7a a6 3e
       -0.9039272 -0.8766767 -0.33459282 0.32515687
000100 4d 82 02 3f 5b d1 28 3f 84 61 33 3f 2e 59 fb be
       0.50980073 0.6594445 0.7007067 -0.49091476
000110 84 ba b6 be 6a 0a d5 be 25 eb 5f 3f 2b d3 1e 3f
       -0.35689175 -0.41609508 0.8746818 0.62040967
000120 71 25 42 be 20 ca 4b be 49 2b 2c 3f 27 71 0f 3f
       -0.18959595 -0.19901323 0.6725355 0.5603203
000130 b9 38 18 be 5a d6 be be 72 bb dc be 5a 48 f0 be
       -0.14865388 -0.37272912 -0.4311176 -0.469302
000140 c7 c7 48 be 3d 09 09 bf c1 86 38 bf 8c af 1f bf
       -0.19607459 -0.5352972 -0.7208062 -0.6237724
000150 3f c4 dd 3e 1f c0 10 be e0 3b cc 3d af 2d 4d bf
       0.43313786 -0.14135788 0.09972358 -0.8014783
000160 ee 44 b1 bc bc 96 73 be 3e 2c 12 3f 60 52 e0 3d
       -0.021639314 -0.2378797 0.5709876 0.10953212
000170 5e 89 bc 3e 41 1f 98 be 75 ed 84 be 1b be 33 bf
       0.36823553 -0.29711345 -0.25962415 -0.7021195
000180 6c df 09 bf e8 44 95 bf 5f 5d 24 3f 1c f6 a6 3e
       -0.5385654 -1.1661654 0.64204973 0.32609642
000190 9d 7a d6 3e e8 f0 1f bd fe f0 ac 3d 18 d8 66 bd
       0.41890422 -0.039048105 0.08444403 -0.056358427
0001a0 7a ab 38 3e f3 23 33 bd 50 48 ac be 8f 80 09 3e
       0.18034163 -0.043735456 -0.3364892 0.13427947
0001b0 d7 3f 20 be 85 18 d5 3d 1d 83 08 3e 28 71 22 3e
       -0.15649353 0.10405067 0.13331266 0.15863478
0001c0 b6 30 e0 bf a4 5f 2b 3f f2 46 01 3f 69 c2 7d 3d
       -1.7514865 0.6694281 0.5049888 0.061952982
0001d0 75 dc 94 3e 89 aa 00 3f 1f 7f 8a 3e 1b 4d 6f bd
       0.29074445 0.50260216 0.2705011 -0.058423143
0001e0 de 9f 29 be bb f5 bf be 28 cd 06 bf 88 e1 d5 be
       -0.1656489 -0.37492165 -0.52656794 -0.4177363
0001f0 6b db b6 be c6 46 db be 20 34 23 be b5 05 91 3d
       -0.35714278 -0.42827433 -0.15937853 0.07081167
000200 87 5b 24 be f0 41 2d 3d 69 00 cd 3e 67 55 ac 3d
       -0.1605054 0.04229921 0.40039375 0.08414727
000210 62 a3 04 3e 50 8b 4a bd c3 45 8d 3e 22 5e c9 bf
       0.1295295 -0.049449265 0.27592286 -1.5731852
000220 ab 7c 02 3f c4 40 43 be 94 ae b6 3d c5 05 19 be
       0.5097148 -0.19067675 0.08920017 -0.14943607
000230 61 76 9c 3e 48 51 28 3f cb 5a 44 3e 5f e4 2d 3e
       0.30559066 0.65749025 0.1917526 0.16981648
000240 32 75 7b 3d 54 fc c0 bd 87 57 d1 3e 81 bd c3 bd
       0.061391063 -0.09423128 0.4088709 -0.095576294
000250 49 6d f6 bf e3 89 a9 3e 54 43 19 bd 80 71 5b 3d
       -1.9252101 0.33113012 -0.037417725 0.05357504
000260 01 f5 0c 3e e1 89 b7 3e aa 55 ce 3e c1 d2 ef 3d
       0.13765337 0.3584738 0.40299731 0.1171012
000270 00 7f 2d 3f 10 ab 64 bf 6e d0 1d bf 72 f1 5a bf
       0.6777191 -0.8932352 -0.61646163 -0.85524666
000280 28 38 47 bf bc cd 9d bf 94 29 39 3f 94 a1 36 bf
       -0.7782006 -1.232841 0.7232907 -0.713403
000290 5b 8a 5e 3e 32 18 f7 3e ed 21 64 3e 77 0a 7e 3e
       0.21732466 0.48260647 0.22278567 0.2480868
0002a0 36 ca 5f 3f f4 e3 ab be 1e d2 2b bf b3 9b a6 3e
       0.87417924 -0.33572352 -0.6711749 0.32540664
0002b0 3e 5c 3b bf 89 c0 e1 be 6f db 91 3e 70 33 73 3d
       -0.73187625 -0.44092205 0.28487727 0.059375226
0002c0 58 de 4b bf fd 08 9b be a1 cb 81 3e e7 8a 08 3e
       -0.79636145 -0.30280295 0.2535067 0.13334237
0002d0 5d bb 88 3e 86 8b 75 3d 9c c5 f0 3e 6f bd fa bd
       0.26705447 0.059947513 0.47025764 -0.12243163
0002e0 8f 86 9a 3e b9 08 44 bf b9 33 e7 bd e8 0a 27 bf
       0.30180785 -0.7657581 -0.11289162 -0.65251017
0002f0 cf 04 6e bf aa 67 b5 be d2 97 02 bf 0e 02 00 bf
       -0.9297609 -0.35430652 -0.5101291 -0.50003135
000300 ec d2 04 3f e2 8f 29 be 32 03 72 be be a3 29 bf
       0.5188434 -0.16558793 -0.23634031 -0.66265476
000310 62 e0 32 bf 0b 6a 12 be 15 6a 0e bf 7f b3 b7 3d
       -0.6987363 -0.14298265 -0.5563062 0.08969783
000320 5e ee 14 bf 2d d5 81 3c 40 f2 2e be f8 af a0 bf
       -0.5817622 0.01584872 -0.17084599 -1.2553701
000330 6e 12 dc 3e e2 5e 7d bf 95 84 13 3f 18 da 80 3e
       0.4298281 -0.98972905 0.5762418 0.25166392
000340 11 92 71 3e 9d b8 9e 3e f8 d9 16 3e 9d bc fc 3e
       0.23590876 0.31000224 0.14731586 0.4936265
000350 db b9 ad bf 6e 83 06 3e 30 d6 84 be 8f 16 59 be
       -1.3572344 0.13136074 -0.25944662 -0.21200012
000360 62 65 d4 bd c1 2d e8 bd d6 8d ff 3e 1a bb 26 3f
       -0.103709 -0.11336852 0.499129 0.65129244
000370 51 82 38 bf 14 56 3f bf 26 b6 bb be d3 74 0e bf
       -0.7207385 -0.7474072 -0.36662406 -0.5564701
000380 8d 3c 0e c0 05 54 8d be dd 4a c4 bd 56 23 3d bf
       -2.2224457 -0.27603164 -0.095845915 -0.73882043
000390 55 1b 81 3d 21 37 e4 3a 92 32 03 bf 8d 8f a2 3e
       0.06304041 0.0017411449 -0.5124904 0.31750146
0003a0 62 8f d0 be 27 24 f5 bd 77 fc 2b 3f ca 58 da 3d
       -0.40734392 -0.11969786 0.67182106 0.106614664
0003b0 48 ef d7 3e 7f 8c da bc f2 a5 36 3d d1 e3 94 bf
       0.42174745 -0.026678322 0.04459185 -1.1632024
0003c0 7d 2a 14 3f 9a 26 0c 3f 1d 1d c0 3c f1 f2 e9 bd
       0.5787733 0.547464 0.023451382 -0.114232905
0003d0 d7 a9 e1 3d 86 96 99 3d 04 b0 27 3e 65 8c b0 3e
       0.110187225 0.07499413 0.16375738 0.34482113
0003e0 07 be b6 bf 7d 8e 9f bf 75 a3 19 bf 80 d1 fc bd
       -1.4276742 -1.2465359 -0.6001504 -0.123446465
0003f0 49 09 91 3d 2b 51 67 3e ed f1 11 bf ce 08 91 3e
       0.07081849 0.22589557 -0.57009774 0.2832703

bias f4 [200]
000000 bb 76 5b 3e f5 3b 01 3c e3 11 62 be fc 5b a6 3e
       0.21432011 0.00788783 -0.22077136 0.32492054
000010 23 02 3b bf 84 66 90 3e 23 a9 f7 be 59 d6 c7 bd
       -0.73050135 0.28203213 -0.4837123 -0.097576804
000020 ad 9e 06 3e 54 98 aa 3e e3 8f b1 3e 48 6e 63 be
       0.13146468 0.33319342 0.3468009 -0.22210038
000030 3c e6 da 3d 73 f2 38 3e 74 47 93 3d dd 24 08 bf
       0.10688445 0.18061237 0.07191363 -0.5318125
000040 ab 6a 71 be 4a 31 84 3e 61 22 9c be f3 6d 40 3e
       -0.23575847 0.25818855 -0.3049498 0.18791942
000050 99 9c be 3d 88 51 9e bd d2 74 1f 3e 75 27 c1 3d
       0.093072124 -0.077303946 0.15571907 0.09431354
000060 2a c6 ae 3e 93 07 19 be f3 72 20 3f 8d 6a f7 bd
       0.34135562 -0.14944296 0.626754 -0.1208087
000070 4c cf cd 3d 94 15 de be 46 d5 ae bc 0a c4 e0 3d
       0.10049304 -0.43375838 -0.021341931 0.109748915
000080 74 09 55 3e c5 64 22 3e 45 79 04 3e d3 03 73 be
       0.20804387 0.15858753 0.12936886 -0.23731928
000090 a9 67 bf 3a 3a 94 ea bd ef bf 36 3e b0 f6 25 bd
       0.0014603037 -0.11454053 0.17846654 -0.040518463
0000a0 fc 69 d0 3d d1 77 43 3c 44 e4 dd bc 80 1a e1 bd
       0.10176465 0.011930422 -0.027086385 -0.109913826
0000b0 64 d9 12 3f 09 89 e4 bc 20 07 1d 3e c5 c4 7b be
       0.5736296 -0.027897375 0.15334749 -0.2458678
0000c0 c2 9a 33 3e 3d aa 87 be 22 6d 58 be 7c 71 b4 3d
       0.17539504 -0.2649707 -0.21135381 0.08810708
0000d0 f4 52 4c 3b 4e 94 e3 3d bc be 72 3e 50 a2 fd bd
       0.0031177374 0.11112271 0.23705572 -0.12384474
0000e0 d5 1f 07 be 5e 14 85 3e 06 09 af 3d 29 e0 99 be
       -0.13195737 0.259921 0.08546643 -0.30053833
0000f0 77 4a f3 bd fa d4 08 be 32 8c 8d 3e 52 18 04 bc
       -0.118794374 -0.13362494 0.27646023 -0.008062439
000100 5f d1 0b 3d 34 92 c2 3e ca f9 3e be 85 78 ef bd
       0.03413522 0.3800217 -0.18649974 -0.11692909
000110 c6 5d 4b be 75 79 4a bf 41 a6 0c bf c2 a5 01 be
       -0.1985999 -0.7909158 -0.54941183 -0.12660888
000120 8c 79 7a be b1 81 4c 3c 8e 0e 90 be 6d 9d a1 3d
       -0.24460429 0.012482093 -0.28136104 0.07891355
000130 62 70 1a be e7 2a 13 bf 64 0c 89 be c9 24 31 3e
       -0.15081933 -0.5748734 -0.26767266 0.17299189
000140 e9 3d 1c be 7e f2 80 be ed 18 9c 3c dc b0 90 bd
       -0.15257992 -0.25185007 0.019054854 -0.07064983
000150 b8 52 be 3d 47 91 8a 3e 8b 21 93 bd 39 ea 88 bd
       0.09293121 0.27063963 -0.07184132 -0.066852994
000160 56 20 9c bd e0 a7 94 3c 29 2b bd be d2 c5 87 3e
       -0.07623355 0.018146455 -0.3694699 0.26518112
000170 c4 b3 a6 bd 54 ba 9c 3e ee 15 92 be 5c 3e 99 be
       -0.08139756 0.30610907 -0.28532356 -0.2993039
000180 9c 06 47 be 48 da 37 bf ae 4b 79 be 87 79 c0 be
       -0.19436115 -0.71817446 -0.24345276 -0.37592718
000190 9e d9 0a bf c5 6e 90 3e 18 55 5d 3e d6 39 ab 3d
       -0.5423831 0.2820951 0.21614492 0.08360641
0001a0 e0 31 f2 3b 14 7b 2f bf 90 1f b7 3e fc ae ee 3d
       0.0073911995 -0.6854718 0.35766268 0.11654469
0001b0 3a 31 1f be 37 59 c9 be 2f 93 5a be 13 e5 10 be
       -0.15546122 -0.39325878 -0.21345209 -0.14149885
0001c0 01 8b cd be 05 a9 3a be e3 cd 24 3e d4 45 15 3e
       -0.40145114 -0.18228538 0.16094165 0.14577419
0001d0 9a 7c 86 3e 19 5e 0b be b4 ae 4e be 67 d0 eb be
       0.26266938 -0.13610114 -0.20183831 -0.46057436
0001e0 5b 82 36 bd 43 cf 19 3e e0 f0 12 bd c3 2a 3a 3e
       -0.04455791 0.1502047 -0.035874248 0.18180375
0001f0 34 30 82 3d d3 22 51 3e 75 50 87 3c fb cf 58 be
       0.0635685 0.2042344 0.016517857 -0.21173088
000200 7b 84 00 bd 52 6d df bd d8 33 f0 bb 2f 4e f6 bc
       -0.031376343 -0.10909523 -0.007330399 -0.030066578
000210 df 31 e0 be 68 65 18 bf 54 ee 73 be 88 78 3d be
       -0.4378805 -0.59529734 -0.23821384 -0.1850301
000220 5c 57 8c be 16 c2 a2 be cd a6 ec 3d ce bf e7 be
       -0.274104 -0.317887 0.11555252 -0.45263523
000230 91 48 01 3f c6 30 0a be fd ef 00 be fb 1e 0b bd
       0.5050135 -0.13495168 -0.12591548 -0.033965092
000240 41 1b cb be 42 3c 81 be b7 32 9b bc bc 37 34 3d
       -0.3966923 -0.25241286 -0.018945081 0.043998465
000250 fa d3 c0 3e a1 70 cd be 55 85 f1 bc f2 ec 5d be
       0.37661725 -0.40124992 -0.029482523 -0.21672419
000260 28 68 2e 3d 82 db 5c be fa 59 f7 be 33 c3 15 be
       0.0425798 -0.2156811 -0.48310834 -0.14625244
000270 5f db 42 bf 51 96 55 be 63 9e ab be 47 a4 08 3e
       -0.76115984 -0.20858122 -0.33519277 0.13343917
000280 37 54 09 be 50 82 c7 be a2 7a a9 3e c9 b0 50 bf
       -0.13411032 -0.38966608 0.33101374 -0.8151975
000290 4c 4b 36 be 6a 9d ba 3d e1 55 eb 3d 4b eb a4 3d
       -0.17802161 0.091120556 0.114909895 0.08052691
0002a0 5f c9 95 3c c9 f0 ca be 82 13 20 be 14 25 07 be
       0.018284498 -0.3963683 -0.15632442 -0.13197738
0002b0 d7 00 07 3e 23 db 53 3d 2f 27 06 be b5 88 e2 3e
       0.13183914 0.051722657 -0.13100885 0.44244924
0002c0 50 ba b4 be 68 de a7 be 06 52 ac bc ae c3 9c bc
       -0.35298395 -0.3278687 -0.021035206 -0.019136276
0002d0 8a 14 5d be 7a a0 71 3e 46 e2 db bc 20 b0 1a be
       -0.21589866 0.23596373 -0.026841294 -0.15106249
0002e0 8d f8 7b be 88 ca d5 be e7 7c 69 be 00 68 31 be
       -0.24606533 -0.41756082 -0.22801553 -0.17324829
0002f0 93 20 74 be ec 46 ac 3d 63 cb d2 3e dd 74 89 be
       -0.23840551 0.08411965 0.41170797 -0.26846972
000300 fe 0c 99 3c 6b e2 c1 3c 8b d7 80 bc ec 09 8d bc
       0.018682953 0.023667535 -0.015727779 -0.017216645
000310 38 c5 15 3e 00 e3 d8 3e b3 f7 9c 3d d8 48 8d 3e
       0.14626014 0.42360687 0.076644324 0.27594638

weight f4 [200, 200]
000000 d0 9e 85 3a 62 25 e5 bd e6 07 1e 3c c3 ea e7 be
       0.0010194425 -0.11188771 0.009645438 -0.45296296
000010 b8 ce 27 bf 8b db 72 bf f3 62 48 bf 6f c1 ad bf
       -0.655498 -0.94866246 -0.78275985 -1.3574656
000020 d1 5c 4f be f5 63 3f bd 4c 97 f4 be 3e 95 a2 be
       -0.2025025 -0.046726186 -0.4777168 -0.31754488
000030 95 e3 64 bf 8f 0d 3e 3f ba 1f a3 3e 64 8c 9a be
       -0.8940976 0.7423944 0.31860143 -0.30185235
000040 c4 c5 62 3f 95 0f ab be 33 08 67 3e 30 4b c7 3e
       0.88583016 -0.33410326 0.22561722 0.3892455
000050 45 35 74 3e 56 6f 6d 3f ee 80 33 bf 12 36 0e 3e
       0.23848446 0.9274801 -0.70118606 0.13887814
000060 f3 90 64 bc ce 4a 00 bf cd 04 1b bf a7 bb 87 3b
       -0.013950574 -0.5011414 -0.605542 0.004142243
000070 e0 91 08 3f cf 9c 83 3c c8 03 cf be d9 0a a6 bf
       0.5334759 0.016065983 -0.40432572 -1.297206
000080 cd a0 01 be b5 4a 90 3e f7 81 3e 3c bf a5 34 3c
       -0.12658997 0.28181997 0.011627666 0.011025845
000090 0c f6 ef 3d ac 04 de bf 74 16 fd bd 7e 0e 16 3f
       0.117168516 -1.7345176 -0.12357798 0.58615863
0000a0 27 82 04 bf 03 7c e2 be b8 2d cb 3e be 6b d8 be
       -0.51761097 -0.44235238 0.39683318 -0.422697
0000b0 44 30 04 40 fb 3b a2 bd c0 76 fc be 7c fe 07 3c
       2.065446 -0.079215966 -0.4930935 0.00830042
0000c0 0a 8f 6c 3f dc 72 8b bf 25 6c 41 bd 41 1b c0 3e
       0.9240576 -1.0894427 -0.047222275 0.37520793
0000d0 ce bd 1c bf 75 11 8c be 4e 4f 19 bf f9 ac d4 3e
       -0.6122712 -0.2735707 -0.59886634 0.41538218
0000e0 52 9a e4 3c 47 7b 04 bf c9 f5 5e 3f 98 ef bf 3e
       0.027905617 -0.51750606 0.8709379 0.37487483
0000f0 06 03 43 3e c2 7d dc be bb a0 fd be d9 ad cb 3e
       0.19044122 -0.43064696 -0.4953669 0.39781073
000100 fc 1d a3 bf dc 2d 0a 3e 95 e6 82 be f1 60 24 bf
       -1.2743526 0.13494056 -0.25566545 -0.6421042
000110 b7 86 ba 3e 3b 5c 6f be f5 81 8c bf c0 87 b9 be
       0.36430904 -0.23375027 -1.097716 -0.36236382
000120 9d a3 1f ba 61 ce 98 bf 8f 2b 35 bd bf 33 ae be
       -0.0006089749 -1.1937982 -0.044230994 -0.34023854
000130 b1 bf ac 3d a7 19 eb be cf 4d ca be 22 73 e9 be
       0.08435 -0.4591801 -0.39512488 -0.45595652
000140 7b 01 3a 3f 6c bb 7a be ca e7 3d 3f f8 bf 95 be
       0.7265851 -0.24485558 0.7418181 -0.29248023
000150 f2 5f bf 3e 33 2c e1 be 20 46 a4 bf b2 b7 b8 be
       0.37377888 -0.43979034 -1.28339 -0.36077648
000160 a1 23 cb 3e 9c 91 a3 be 7e 5a 1f 3e bf d1 87 3e
       0.3967562 -0.3194703 0.15561864 0.2652721
000170 84 24 07 3f e9 70 4b be 89 d7 dd 3e 4a f5 dc be
       0.52790093 -0.1986729 0.43328503 -0.4315589
000180 1b d7 2b bf ba 3e 3c be 50 04 e7 3d 3e c5 9c be
       -0.671251 -0.18383303 0.112801194 -0.30619234
000190 49 1e 67 3e 74 ec 0d 3e 4c 52 9c be 30 d4 3a 3e
       0.22570147 0.13859731 -0.30531538 0.18245006
0001a0 6a d8 59 bf 24 83 7e bc 13 41 42 bf ed 2e 88 be
       -0.85095847 -0.015534196 -0.75880545 -0.26598302
0001b0 6b c0 04 3f 3d 94 87 bd 12 4c 32 3e 6e 27 21 be
       0.51856107 -0.06620071 0.17411831 -0.15737697
0001c0 a9 27 1c 3f 6b f4 ab be 4a 3a 81 3e 37 f5 22 3d
       0.60998017 -0.33584914 0.25239784 0.039784636
0001d0 15 10 93 3e c7 1b 2f 3f d7 da bb 3e 44 ac bd be
       0.28723207 0.6840176 0.366904 -0.3704549
0001e0 d5 6a 87 bd e1 14 dc 3d 2c 38 7b be b6 7f 26 bf
       -0.066121735 0.1074617 -0.24533147 -0.6503862
0001f0 8e d1 ae 3e d6 fb a5 3e a1 cd ca be 32 a4 e6 be
       0.34144253 0.32418698 -0.39610007 -0.45047146
000200 64 54 0b 3f 7c b2 03 3d 31 c2 c8 be c6 0b 3b be
       0.54425645 0.032152638 -0.39210656 -0.1826621
000210 93 a2 c3 3e 52 bb 6b 3e 37 ce aa be e8 1b e9 3e
       0.38209972 0.23020676 -0.33360454 0.45529103
000220 59 01 81 3f c1 ec 5b bf 70 98 2f be ae 0b 61 3f
       1.0078536 -0.8590813 -0.17147994 0.87908447
000230 d5 ce 39 3e 21 31 2c bf 28 41 bb bf e4 b9 80 be
       0.18145306 -0.67262465 -1.4629259 -0.25141823
000240 e1 ff 23 bf b0 bd cf 3e 65 1d 37 3e c6 82 93 bf
       -0.64062315 0.40574408 0.17882307 -1.1524284
000250 fb be fb bd 41 c3 5f 3e a2 fe 93 bf 19 d2 46 3d
       -0.12292286 0.21851827 -1.1562083 0.04854021
000260 69 4c 4f be 64 40 06 bd 96 d1 49 3d 25 91 9d 3e
       -0.20243992 -0.03277625 0.049272142 0.307748
000270 28 ca f3 bd 62 da e4 be 8b 6f 53 bf b5 66 9c bf
       -0.119037926 -0.44697863 -0.82592076 -1.2218844
000280 c3 58 93 be a6 0c ba 3e f2 8c 13 bf dc 2b 1b 3d
       -0.28778657 0.36337775 -0.5763694 0.037883624
000290 53 fe 64 bf 8d 1e e8 be dc 46 c0 3e 61 e5 cf 3e
       -0.8945057 -0.45335808 0.3755406 0.4060469
0002a0 f0 4a c6 3c b5 93 c9 be 0b b6 30 bf be 4d 99 bf
       0.024205655 -0.39370504 -0.69027776 -1.197685
0002b0 2e db 16 3e 96 0a 07 bf b8 48 a0 be 6d 10 2c be
       0.14732048 -0.5275053 -0.3130548 -0.16803141
0002c0 0a 72 2b bf 1f 32 34 3d 26 da 61 bd 7c 44 0d be
       -0.66970885 0.04399311 -0.055139683 -0.13795656
0002d0 96 36 17 3e 55 a2 1d 3e 26 96 8d bf bf 95 d9 bf
       0.14766917 0.15393956 -1.1061447 -1.6998824
0002e0 52 03 3c bf 8d f1 98 3e f3 23 09 3f 74 e0 f6 be
       -0.73442566 0.2987179 0.5357048 -0.4821812
0002f0 cc 49 83 3f b3 e7 1e bf 2e 14 9a be 40 a5 cb be
       1.0256896 -0.62072295 -0.3009352 -0.39774513
000300 ed 96 73 bf 44 b3 fb 3e d0 9a 34 be b4 17 73 bf
       -0.9515217 0.49160206 -0.17637181 -0.94958043
000310 fc 2a 72 be e1 86 92 be dc 1f 84 3e 3e d2 e4 3e
       -0.2364921 -0.2861853 0.25805557 0.44691652
000320 09 95 7d bc fd 6e 08 bc 69 03 86 bb 14 60 0e 3b
       -0.015477427 -0.008327243 -0.004089762 0.0021724747
000330 70 e9 4f 3d 78 e4 b8 bc be d7 1b bd 38 b7 b2 bc
       0.050759733 -0.02256988 -0.038047545 -0.021815881
000340 a7 7d 33 3d f7 52 b1 3c 0e 89 6d bd be 5a 9b bd
       0.043821003 0.021646006 -0.057992034 -0.07585667
000350 b0 3c 3f bd 4f 39 be 3c e8 e7 33 bd a1 07 52 3c
       -0.046688735 0.023220686 -0.043922335 0.012819202
000360 76 70 91 bd a8 01 12 bd 30 aa 9b bc b4 d2 56 3c
       -0.07101528 -0.03564611 -0.01900205 0.013111759
000370 a9 b9 42 bd 72 b2 54 bc 16 57 9c bc 50 a0 1e 3d
       -0.04754034 -0.012981998 -0.019084495 0.038727105
000380 87 2b 50 bc d4 8c 79 bd fb fb 64 bd ab 6d f0 3c
       -0.01270569 -0.06092532 -0.05590437 0.029349169
000390 ae b0 9b bc 1f 0f 25 bc 6e 5a 00 3d 53 d9 8d bd
       -0.019005146 -0.010074406 0.03133624 -0.06926217
0003a0 00 89 be bb 85 a2 0b bd b7 f8 a5 bb 7d 38 8f bd
       -0.0058146715 -0.034090538 -0.0050650495 -0.06993196
0003b0 75 a6 88 bc 06 1e 9f bc db 18 e8 bb 75 ba 21 3d
       -0.016680935 -0.019423496 -0.007083041 0.03948446
0003c0 2b 95 78 3b c1 aa 48 bd 70 39 4b 3d 84 b5 0c 3b
       0.0037930708 -0.04899097 0.049615324 0.0021470496
0003d0 c5 56 58 3d 96 8d 95 bd d8 b5 e2 3c 6b bb 39 bd
       0.052817125 -0.07302396 0.0276746 -0.04534475
0003e0 22 79 56 bd b1 08 3d 3a 75 55 90 bd b5 b8 86 bd
       -0.052361615 0.0007211073 -0.0704755 -0.06578199
0003f0 2d 1d 8c bd b9 55 d5 3c e8 2d b9 bd 98 9e 30 bd
       -0.06841502 0.026041852 -0.09041959 -0.043119997

bias f4 [200]
000000 a3 9e d8 be 6b 4d ec bd 07 26 a6 bc 63 c7 e3 bd
       -0.4230853 -0.11538204 -0.020281805 -0.111220144
000010 c0 81 7b be 1d 8c 8c bd bf fa 2a bd 7a 3c 54 bd
       -0.24561214 -0.06862662 -0.041743036 -0.051815487
000020 b5 de 08 bf 54 8b 73 bd 6f 3b a1 bd f2 f1 d8 bc
       -0.53464824 -0.059459046 -0.07872664 -0.026482556
000030 b0 7a bd bd bd b1 00 be a2 f5 03 3e cb 9e 80 bd
       -0.092519164 -0.12567802 0.1288667 -0.06280287
000040 7d 0e 16 be a3 44 65 bd f5 35 88 bd b5 d2 8a be
       -0.14653964 -0.05597366 -0.066509165 -0.27113882
000050 d3 51 6e bd ad 14 03 bd 13 48 80 bd 79 4c c9 ba
       -0.058183502 -0.03200214 -0.06263747 -0.0015357874
000060 6c 55 8f bd 87 e7 d9 3c 10 37 b5 bd 46 f2 1e bd
       -0.06998715 0.026599659 -0.08848393 -0.03880527
000070 87 66 ae bd 1d 32 fc be bb 95 02 bf de 30 96 be
       -0.08515649 -0.49256983 -0.5100972 -0.29334158
000080 33 60 69 bd 88 f8 12 be 51 e4 c7 bc a0 ae b2 bc
       -0.05697651 -0.1435262 -0.024400862 -0.021811783
000090 5d 19 83 bd 43 5a e4 bd 1c b8 03 bf bf 69 be be
       -0.06401322 -0.111500286 -0.51452804 -0.37190053
0000a0 51 f1 c9 bd c1 94 0a 3e 52 06 b9 be f5 42 8a bd
       -0.098604806 0.13533308 -0.36137635 -0.06751052
0000b0 7e 7e a0 3e e7 2a 2d bd 17 1b a6 bc 40 38 8f bc
       0.31346506 -0.042277243 -0.02027659 -0.017482877
0000c0 02 3f 4f 3e 74 68 f1 bc 9e 44 9a bd ee 35 24 3d
       0.2023888 -0.029468752 -0.07532619 0.040090494
0000d0 e3 1f 68 bd ec 6e 45 be 12 e4 df bc 39 17 96 bd
       -0.056671035 -0.19280595 -0.027330432 -0.07328648
0000e0 d0 b5 3c bd b4 86 5a 3e 45 21 43 bf 55 65 0a bd
       -0.046071827 0.21340448 -0.7622264 -0.033788044
0000f0 d2 07 d9 bd d8 d4 b8 bc 7e fb 29 3e 23 90 e7 bd
       -0.10597195 -0.02256243 0.16599843 -0.11306789
000100 7e 01 81 bd 82 da 11 bf aa a8 72 3e 35 34 81 bd
       -0.06299113 -0.5697404 0.23697153 -0.06308786
000110 8e 9f 15 bd 1e 0b 15 bc d6 2a 01 be 8b ad e9 be
       -0.036529116 -0.009096889 -0.12613997 -0.45640215
000120 ab c9 82 3e 17 2e 27 bc 78 d5 e7 be 86 b3 83 bc
       0.25544485 -0.01020386 -0.4528005 -0.016076814
000130 9d 28 8e bd 6e 0d 98 be 81 06 41 bd 4e 76 9f bd
       -0.0694134 -0.29697746 -0.047125343 -0.07786237
000140 c0 df bb bd 3d b6 1e 3c 60 48 40 3e d7 47 2a bd
       -0.09173536 0.009687004 0.18777609 -0.041572418
000150 f0 23 3c be 48 fb 9d 3e 16 36 15 be cd a0 9a 3e
       -0.18373084 0.30855775 -0.14571413 0.30200806
000160 3a a7 d6 bc e2 e2 65 3e 07 0c 0e bb ec bf 74 bd
       -0.026202787 0.2244983 -0.002167465 -0.059753343
000170 70 8b b5 be a1 af 48 be 1f fd 98 be e4 24 7c bd
       -0.35457945 -0.19598247 -0.29880616 -0.06155862
000180 00 56 3a bd fe 72 18 bd 58 1a 3c bf 32 25 57 be
       -0.045492172 -0.03721904 -0.734777 -0.21010283
000190 78 61 80 bd dc e8 15 bc ad af 17 be 05 e2 6d be
       -0.06268591 -0.009149756 -0.14813109 -0.23230751
0001a0 0d a3 8a bd 0e c7 a1 be fb f6 8d bd fa a1 5f be
       -0.06769381 -0.3159718 -0.069318734 -0.21839133
0001b0 a5 1a 05 bd 99 b4 cd bd 26 41 a2 bd e0 c0 50 3e
       -0.032496113 -0.10044212 -0.07922582 0.20386076
0001c0 fe 24 5a 3e 3e 1d 96 3e 01 45 c1 bd ab 7d 65 bd
       0.21303174 0.29319185 -0.094369896 -0.05602805
0001d0 04 50 a5 bc 74 48 3f bd 65 2e 77 be 2b 72 18 bf
       -0.020179756 -0.046699956 -0.24138792 -0.59549206
0001e0 f5 b3 8c bd fb 9d c9 be 31 53 4e bd 04 2e 8d bd
       -0.068702616 -0.39378342 -0.050372306 -0.068935424
0001f0 4f 55 05 be 35 fd 85 bd c3 68 8f be 15 31 01 bd
       -0.13020824 -0.06542436 -0.28009614 -0.03154095
000200 36 5d e0 be fe e8 ae 39 14 1f 04 3f 67 47 a2 bd
       -0.43821114 0.0003336146 0.5160992 -0.07923775
000210 78 16 39 bd fd 87 88 bc 16 e6 40 bf 09 a3 f6 be
       -0.045187443 -0.016666407 -0.75351083 -0.4817126
000220 bf 9b 25 bf 87 0b 00 bd 43 ad eb bd f3 49 4a be
       -0.64690775 -0.031260993 -0.115076564 -0.19754772
000230 5a e3 d9 bd a0 97 3a bd f1 bb 01 bf 5f 52 bf 3e
       -0.10639067 -0.045554757 -0.506774 0.37367532
000240 75 f4 8d be 26 7c da 3e 76 b8 9e bd 22 e7 70 3e
       -0.27725568 0.42672843 -0.07750027 0.2352567
000250 90 42 b1 bd f9 22 66 3e 0a 3d d0 bd 6d 34 85 bd
       -0.08655274 0.22474279 -0.10167892 -0.0650414
000260 56 c6 17 bc 8d 6c 39 bf 8f bf 40 3d 0c 2d 33 3e
       -0.009263596 -0.7243126 0.047057685 0.17497653
000270 17 f0 65 be a4 c7 fd bc d1 8d 4b bd 88 b2 b2 bd
       -0.22454868 -0.030978985 -0.049695794 -0.087254584
000280 e6 df 1b 3f fc 63 39 bf 08 cb 30 be 4d 7e ef bd
       0.60888517 -0.7241819 -0.1726495 -0.11694012
000290 88 b5 3e bd 8f 76 80 bd ae b5 96 bd 44 82 60 3e
       -0.04655984 -0.06272613 -0.073588714 0.21924692
0002a0 d6 61 15 bc bc 46 7d be 27 e6 59 3e c5 de b7 3e
       -0.009117564 -0.24734014 0.21279202 0.35912147
0002b0 16 de 92 bd 76 09 9e bd a3 66 84 3e 9f 46 a2 bd
       -0.07171266 -0.07716648 0.25859556 -0.07923626
0002c0 c5 ed 31 3e d5 6c 8f bd fb 72 3a be 8c cc 01 3d
       0.17375858 -0.0700318 -0.18207924 0.03168921
0002d0 c6 a0 9d bd d4 6e df 3e f4 6b ff be 00 74 ce 3b
       -0.07696681 0.43639243 -0.4988705 0.0063004494
0002e0 ab af e5 bd 83 bd 61 bd 30 b8 7d 3e 24 4c 49 3c
       -0.11215147 -0.055112373 0.24777293 0.01228622
0002f0 e0 ae b3 bc 59 a7 4a be 86 dc 92 bd 08 00 bd bd
       -0.021933973 -0.197904 -0.07170968 -0.092285216
000300 01 12 0b be 8d 58 8c bd 20 31 b0 bd 22 6a f4 bd
       -0.13581087 -0.06852827 -0.0860312 -0.11934306
000310 67 11 38 bf 8e fd 16 bd 76 06 92 bc 0c 77 89 3e
       -0.71901554 -0.036862902 -0.017825346 0.26848638

weight f4 [1, 200]
000000 e3 6b 0d c0 dd ff 19 3d 1d b1 8a bc af 79 39 bc
       -2.20971 0.037597526 -0.016930157 -0.011320516
000010 0a bb 51 bf f3 38 e2 3b 3b 59 63 3c 05 36 1b bb
       -0.81926024 0.0069037615 0.013876255 -0.0023683321
000020 ed 21 1f 3d e5 c6 93 bc 34 00 79 3c be 38 a9 3b
       0.038850714 -0.018039176 0.015197802 0.005164235
000030 5d 10 11 3d c5 1f 8d 3b bc 9a 0a 3f f9 71 49 3c
       0.035415996 0.0043067657 0.54142356 0.01229524
000040 bd 59 97 bf f1 6e c0 3c d5 e0 04 bc d4 e7 07 bf
       -1.1824261 0.023490401 -0.008110245 -0.53088117
000050 8f e8 bf 38 38 aa b0 3c 6d 6b 19 3a fc 1c 85 bc
       9.150907e-05 0.021565542 0.00058524945 -0.016249172
000060 76 32 28 be c8 30 1d 40 42 cb 66 3c 84 09 7f 3c
       -0.164255 2.4561024 0.014086546 0.015566234
000070 66 34 a1 bc 9e 88 bd 3d 16 39 37 bf be 1d 21 bf
       -0.019678306 0.09254573 -0.7157148 -0.6293601
000080 44 45 0d bb 23 4a a4 bf 50 51 ba 3c 5d de 10 3d
       -0.0021556178 -1.2835125 0.022743851 0.035368312
000090 3d 5a 99 bb fa d1 52 3c 0d 1e 08 bf 6f 44 2c bf
       -0.0046799467 0.012867445 -0.53170854 -0.6729192
0000a0 cd 3a 12 bc 89 78 2f 3e 71 3a 1a be f1 bc 4c bc
       -0.008925152 0.17135824 -0.15061356 -0.012496219
0000b0 38 49 cc 3e 5e 07 9f 3c 92 6c 5c 3c dc 91 39 3e
       0.3989961 0.019412693 0.01345362 0.18122047
0000c0 5a cd 3a 40 f3 32 fc 3a 95 7a 14 3c e0 18 4c bf
       2.9187837 0.0019241258 0.009062429 -0.79725456
0000d0 c2 09 67 bc 68 1e 26 be f8 5b bc bc 7c d1 0f 3e
       -0.014101448 -0.16222537 -0.022993073 0.14044756
0000e0 9e b2 90 bc 86 6b 87 bf 6a ea f3 bc 6e b8 a1 3c
       -0.017663296 -1.0579689 -0.029774863 0.019741263
0000f0 e6 e3 a3 bc 85 fa 0d 3b 2f da 48 c0 99 76 4f bc
       -0.020006131 0.0021664214 -3.1383169 -0.012662553
000100 5a d3 a1 c0 f8 c8 bd 3d 14 aa 39 3e 6b 1c 70 bc
       -5.0570498 0.09266847 0.18131286 -0.014655213
000110 95 37 1b 3c bb 49 f0 3b c0 09 ce 3b 55 50 9a be
       0.009473701 0.007333008 0.0062877834 -0.30139413
000120 91 d2 e5 3d 20 26 cf 3c f6 01 f2 3f 54 e5 1f 40
       0.11221803 0.025286734 1.8906848 2.498372
000130 30 f6 b7 3c d6 45 22 3f f2 b6 e6 3c 74 79 03 3c
       0.022456259 0.6338781 0.028163407 0.008024562
000140 d4 2b 85 bb 60 9d 7e 3f 75 06 8f bf 75 99 06 3d
       -0.0040640626 0.99458885 -1.1173846 0.03286119
000150 6a b5 cd 3f 30 e4 0d 40 cd a0 1a 3f f2 2d d3 3f
       1.6070988 2.2170525 0.6040161 1.6498396
000160 12 a3 d5 3c c0 88 86 c0 3e 86 5e 3e 17 40 24 bb
       0.026078735 -4.204193 0.21730897 -0.0025062615
000170 23 f9 fb be 61 8d ca 40 ea c2 07 bf b3 6c 69 3b
       -0.49213514 6.329758 -0.5303179 0.0035617768
000180 47 4a ba bb 5d c6 94 3a 4f 30 b3 bf 76 c9 85 3e
       -0.005685124 0.0011350621 -1.3999118 0.26130265
000190 f8 01 54 c0 a7 f8 fc bd 6e f7 3b bf a9 d6 6e be
       -3.3126202 -0.12352114 -0.7342442 -0.23324074
0001a0 50 a0 b1 bc 73 bc 38 be ba d2 c5 3f 92 20 41 bf
       -0.021682888 -0.18040638 1.5454934 -0.75440323
0001b0 16 85 25 3b 4e e5 99 3c b5 47 84 bf 52 cd f1 bd
       0.0025256327 0.018786099 -1.0334383 -0.1180674
0001c0 b6 c8 80 be 14 54 d1 bd 65 59 06 bd 65 b1 88 bb
       -0.2515313 -0.10221115 -0.032800097 -0.0041715377
0001d0 9d c4 c2 bf 21 4d 65 3f 2a 9c 55 3f 6b 18 a3 bf
       -1.5216252 0.89570814 0.8344141 -1.2741827
0001e0 d6 ca 90 bc d8 68 74 c0 43 11 ec 3b 60 ee ba be
       -0.017674845 -3.8188992 0.007204206 -0.3650999
0001f0 28 77 b0 be 4f 04 b2 bc 80 98 a1 3e e1 3c df bc
       -0.3446591 -0.02173057 0.3156166 -0.027250709
000200 00 14 8a 40 f6 eb 24 3c 76 9e 89 be 48 5f c3 3b
       4.3149414 0.010066023 -0.2687871 0.005962286
000210 84 3d 07 3b ce 42 99 bc 3f 1d 4e 3e 42 82 94 3e
       0.0020636031 -0.018708613 0.20128344 0.2900563
000220 fc 03 85 be b6 f8 25 3c bd a5 02 3c 11 d7 24 40
       -0.25979602 0.010130098 0.007974085 2.5756266
000230 e8 02 bc bc df 8a b9 3c 60 4b d0 bd 9d 64 7c bf
       -0.022950605 0.022649227 -0.10170627 -0.98591024
000240 6b 7e 31 3f 81 ba 6d c0 fd e2 96 3c 0e 30 d8 bf
       0.69333524 -3.7145083 0.018418783 -1.6889665
000250 a7 d2 29 bc 7c 51 c1 be b4 75 8d 3c 8a 6f 6b bc
       -0.010365165 -0.3775748 0.01726804 -0.014369855
000260 e4 53 70 3c 0e 39 e0 be 9f f4 da bd 07 15 d0 3e
       0.014668439 -0.4379353 -0.10691189 0.40641043
000270 56 d3 12 3f af 25 ae bc 5d 20 9f be 45 bb 8a bc
       0.57353723 -0.021258203 -0.3107938 -0.016935
000280 68 e5 97 bf c3 f8 03 40 6d 88 90 bf b6 e3 07 40
       -1.1866884 2.0620582 -1.1291634 2.1232734
000290 5c d4 01 3d 82 d1 e6 3c 39 d5 c6 3c 70 63 94 bd
       0.031696662 0.028176073 0.024271594 -0.07245529
0002a0 76 9b 27 c0 55 ed 1d be 7e ea b0 bd e2 0d aa 3e
       -2.6188636 -0.15422566 -0.08638476 0.33213717
0002b0 7e 00 29 bc f8 24 41 c0 7d c9 bb 3f ee d4 96 bc
       -0.010315059 -3.0178814 1.4670864 -0.01841208
0002c0 b6 9a 46 c0 7c bf 05 3e be 2e 30 3e bc 81 88 bf
       -3.1031928 0.13061327 0.1720533 -1.0664592
0002d0 56 9c 1e bc 34 13 b2 bf f1 a4 d0 bf 71 37 43 bc
       -0.009680828 -1.391211 -1.6300336 -0.011915074
0002e0 25 c9 83 bc aa d7 ef ba cc 3a 75 bd ad 9a 04 be
       -0.016087124 -0.0018298526 -0.059870526 -0.12949629
0002f0 f5 0e 82 3c bd 34 19 40 8c 1a 8e bc c5 0a 9d bb
       0.015876273 2.393844 -0.017346643 -0.0047925436
000300 bb 63 76 bf 1e 7d 9b bc 54 8f 83 3c a6 f0 24 c0
       -0.96245927 -0.018980559 0.016059555 -2.577188
000310 23 b5 2c 3e 16 7e a2 3b 55 25 1d 3c 5d cd 17 3f
       0.16865973 0.0049588783 0.00959142 0.59297734
