Vehicles/ModRepeat_forest_5/ModRepeat_forest_5_critic_target.pth (torch, 353497 bytes, 10 tensors)

weight f4 [200, 15]
00000000: 990c 8ebf d02b 5b3f 87ce 67be cd02 46bd
00000010: c521 81bf 1110 f2be bd76 6cbf b3c1 a23d
00000020: 1926 de3e 9f7a 633f 5f92 b13d 89ca 44be
00000030: c7f5 01bf 7eb9 77bf f206 5e3e f3d8 f9bd
00000040: 4aa1 97be a647 bcbf 3504 ed3d 6023 c0bd
00000050: 92f7 23be fe6d 8a3e 95b9 aabe f439 9bbf
00000060: 2de9 c63d 7cb0 4e3f 44c3 393e f0a9 06be
00000070: 560a 52bf 8bdd 31be 0bf4 e2bf aa5e f2be
00000080: 5009 843e 0833 803e 4879 0a3f b363 be3d
00000090: 0e42 f4be 88cd 243f 229d 67bf d158 813e
000000a0: abb1 103f f194 f23e 50fc ec3a bbfc 0c3d
000000b0: 1ade 333f 5100 60be a8bd 91bd 6ce4 d1bd
000000c0: 523e a33f 210c 913d 33e8 cebc 2563 2bb8
000000d0: 3e4e 18be bda7 343d 1863 323d af4a 84be
000000e0: d527 703e c228 013e 83a4 23be 55e1 b13f
000000f0: a7f4 e0bd 55d2 2cbe f117 4fbf 5609 bfbd
00000100: b959 77be 8857 bf3d 2d13 9f3d fa05 90bf
00000110: 4e60 44be 081f e9be 6b67 0d3f 8486 413e
00000120: 8d00 8fbe 7526 983b bf38 973b 62fd 213f
00000130: dd75 e5be 9d7d 02bf 5712 763d 4679 04be
00000140: 18b0 9a3d e2d3 f6be c21c acbf 723f 34bf
00000150: f2a8 4f3e 90af f0be be5b dc3e 7ab3 c4be
00000160: bacd 91be c0d5 8cbe 8e7c 9fbe 398a c63c
00000170: cc1a 0f3d 336d 6bbd fa41 ea3c fd7b 8abe
00000180: 8cb5 093e 6f3f 313d ecab 883d 6efc 1ebe
00000190: 4192 4abe edfa 183d 1c54 0d3e f131 46bd
000001a0: a123 c53c 3543 45bc a815 3dbf 5d33 633d
000001b0: 85ce 90be 3e1f 8dbe 4abc dcbe 615e 983e
000001c0: af71 763f 16e2 3e3f 05be 45bf 2a76 b3bf
000001d0: 7936 57bf 8429 85be 1275 99bf 1db4 68bf
000001e0: 27ec 9c3e 0f2b dc3f a42f 5cbf 1728 403f
000001f0: f589 d2bd d912 0c3f 1262 eb3e ab66 12bd
00000200: 92db b63e fce4 c5bd 360b 82bf e75b 1bbf
00000210: a446 f6be be6b bdbe 743e cc3c 6f35 c93c
00000220: c2cf 31be 7f23 81bf a638 a9bd af15 eabc
00000230: 35ed bdbd 39cf 3abe bf60 fdbf 00c4 523e
00000240: 5820 f33d 94f0 8f3d 5e34 a93e 772b 8e3e
00000250: 9b6b 6f3e e31f 823e 751d 223f 798b a6bf
00000260: 1b17 64bf 53ca 0d3e 9d85 693e 99db 7e3e
00000270: 39ec 61be 3052 edbe 521f 2cc0 81df ddbf
00000280: 9615 2cbf 2f20 af3c 61bd 603e 273f d23e
00000290: 457b 4fbf 4951 6bbd 5620 073e cd6e 9bbe
000002a0: c2a1 953f f057 babe a887 afbd 2f8d ebbe
000002b0: 114c a23e ca47 9b3e a662 0bbe 5df7 863a
000002c0: 1614 d53e ff97 77bf d11a 82be a47c 5b3f
000002d0: 94cb 5f3d 74df 553d cc93 a1bf 8d0d 063e
000002e0: c5f9 1c3f 5ea3 053f ec81 773e 9746 38be
000002f0: 94a0 55bf 87e6 023d 528c cf3e acd1 c63d
00000300: bf99 dabd e460 2dbd a62a ae3c 9e2e 0abe
00000310: 2aba b43d a400 48bf 5640 263e 6656 c0be
00000320: d150 10be 9784 653e 9e96 c0be a430 8cbf
00000330: 9a66 893d 6058 983e 1f50 4e3e 5cad 973d
00000340: be20 8dbd a307 d23d 54b9 9fbf 9a99 e13f
00000350: 0923 243f c32c 4ebe 3012 3dbf 0963 30be
00000360: 77bb f1be fa0b 4cbf 6e98 2f3f 9718 2dbf
00000370: 16dd 9dbf 7e2a 26be 1ab7 bdbe bf2a 04bf
00000380: 9a48 45bf 6d9a 213f 3fb7 093f 9981 98bf
00000390: 1c7d 3c3d af04 09bf 21fc 0abf db3d b7be
000003a0: 9667 32bf e2c6 bc3e 2106 5d3f 8cc8 77be
000003b0: c998 1ebf 168f 3bbf 1e2c 1fbf bc73 f93e
000003c0: 01cf 4d3f 2683 b43e d18c 363d 7845 67bd
000003d0: f06d 70bd 7d32 413d 8cb6 c2bc 0838 f63e
000003e0: dc86 9b3c acc4 40bf 9f83 94bf 7dd2 85bf
000003f0: 89c1 efbe 8588 c5bf 34e1 823e 8651 523f
-1.1097594 0.8561373 -0.22637378 -0.048342515 -1.0088431 -0.47277883 -0.9236868 0.079471014
0.4338844 0.8885898 0.08670496 -0.19217886 -0.5076565 -0.96767414 0.21682337 -0.12199583
-0.2961524 -1.4709365 0.11573068 -0.09381747 -0.1601241 0.27037042 -0.33344713 -1.2127061
0.097124435 0.80738044 0.18140894 -0.13150764 -0.8204702 -0.17369668 -1.7730726 -0.47337848
0.25788355 0.25038934 0.5409131 0.0929636 -0.47706646 0.64376116 -0.9047414 0.25263074
0.565211 0.47379258 0.0018080566 0.03442071 0.70260775 -0.2187512 -0.07116252 -0.10248646
1.2753394 0.070823915 -0.025257206 -4.0861913e-05 -0.14873597 0.04410528 0.043551534 -0.2583823
0.23452695 0.12613204 -0.15980725 1.3896891 -0.10984164 -0.1687711 -0.80895907 -0.093279526
-0.2415532 0.09342867 0.07767329 -1.1251824 -0.19177362 -0.45531487 0.5523593 0.1889897
-0.27930108 0.0046432563 0.004614919 0.63277256 -0.44816485 -0.5097292 0.060076084 -0.12936887
0.075531185 -0.4820853 -1.3446276 -0.7040931 0.20279291 -0.47008944 0.43038744 -0.3841818
-0.2847727 -0.27506828 -0.31149715 0.024235832 0.034937665 -0.057477187 0.028595913 -0.2704772
0.13448161 0.043273386 0.066734165 -0.15525982 -0.19782354 0.037348676 0.13801616 -0.04838747
0.02406484 -0.012039949 -0.7386117 0.055468906 -0.28282562 -0.27562898 -0.43112403 0.29759505
0.9626722 0.7456373 -0.7724307 -1.4020436 -0.84067494 -0.26008236 -1.1988852 -0.9089983
0.3064892 1.720064 -0.86010194 0.7506117 -0.102802195 0.5471626 0.4597326 -0.035742443
0.35714394 -0.09662816 -1.0159671 -0.60687107 -0.4810077 -0.36996263 0.024932124 0.024561612
-0.1736441 -1.0088958 -0.08262758 -0.028574793 -0.09273759 -0.18243112 -1.979515 0.2058258
0.118714035 0.070283085 0.33047765 0.27767536 0.23380892 0.25414953 0.633262 -1.3011314
-0.89097756 0.13846712 0.22804876 0.24888457 -0.22062768 -0.46351767 -2.6894116 -1.7333833
-0.6722044 0.021377651 0.21947242 0.41063806 -0.8104747 -0.057450566 0.13195929 -0.30357972
1.168999 -0.36395216 -0.08570796 -0.46006152 0.3169866 0.30328208 -0.1361185 0.0010297109
0.41616887 -0.967163 -0.25411084 0.8573706 0.054637507 0.052215055 -1.2623229 0.13091107
0.6131862 0.52202404 0.24170655 -0.17995678 -0.8344815 0.03195813 0.40536743 0.097079605
-0.10673856 -0.04232873 0.02126057 -0.13494346 0.088245705 -0.7812598 0.1623548 -0.37565917
-0.14093329 0.2241386 -0.37614912 -1.0952344 0.06709023 0.29754925 0.20147751 0.074061126
-0.06891011 0.10255363 -1.2478433 1.7625 0.6411596 -0.20134263 -0.73855877 -0.17225279
-0.47213337 -0.79705775 0.68591964 -0.67615646 -1.2333095 -0.16227147 -0.37053758 -0.51627725
-0.77063906 0.6312626 0.53795236 -1.191455 0.04601775 -0.5352277 -0.5429097 -0.3578938
-0.6968931 0.36870486 0.86337477 -0.24197596 -0.6195188 -0.73265207 -0.6217669 0.4872111
0.8039399 0.35256308 0.044567887 -0.056462735 -0.058698595 0.04716729 -0.023768686 0.48089623
0.018985204 -0.753001 -1.1602668 -1.0454861 -0.46827343 -1.5432287 0.2556244 0.82155645

bias f4 [200]
00000000: a59e 343e aeea a23c 329e 6e3e a394 383e
00000010: ea3a 343f 2aaa 9bbd 964a 9cbe 51a2 03bf
00000020: 865b 1fbf bd83 5b3c b14a 6d3e 8991 6fbe
00000030: ca59 103f 5b07 133f 6815 99be 18a2 38bf
00000040: 6b57 f1bd 8c6b babe 8cfe 103f ad91 943e
00000050: 31fc e2be 1c97 33bf 4df9 c0be 46f9 0ebf
00000060: ee22 a63d 1df7 843d 1c7c e83c 2145 b7bd
00000070: 31c2 b9be ad63 a4bf 1e9b 19bf d793 993e
00000080: 840d 303e ed9c bebd b550 ed3c a395 9cbe
00000090: 5e38 e1bc fed3 85be 0469 483e aabf 87bf
000000a0: 9f49 cb3e 2e66 8c3e 4c04 41be 4412 84be
000000b0: 32cc 283f fe88 97ba e957 6a3c adfe 9ebe
000000c0: 3696 8d3e 3edc 5d3f 8a43 31bd e4ee 83be
000000d0: cba5 a7be ee70 68be 3f86 be3d 1a4d 58be
000000e0: fd80 ba3e a9f3 a03d 54bc 983d d2da 3a3c
000000f0: 8b4b 1abe e9f3 1e3f aea3 3a3e 3114 bdbe
00000100: 92b6 7ebf 8c39 5f3e 9cc2 b8be 9bde e23d
00000110: 973d 8a3e fdf4 09bf 8cbf 40bf 33d1 3ebd
00000120: d123 07be 07a6 57be 7268 ba3e 9798 323e
00000130: 4e30 11bf 64e9 26bf e915 0e3f 7228 8b3d
00000140: 1d1d dcbe 2f54 a1be 521e 66be 0b77 c93e
00000150: ffd8 2a3e d77b 3abd 40c5 adbe 37b7 6b3e
00000160: b0e6 193f b464 74be 1a71 433b 4fbd 7bbe
00000170: d851 a9bc fc3f b0bd b983 45be 9b59 073e
00000180: 7647 e4bd f8b7 543f 0a4f 44bf c54d 0dbe
00000190: f074 65bf 34c5 c3be 15d8 5ebf ff9c aabe
000001a0: 8733 0dbf c58f 7bbe 7e71 cb3e dbae 68be
000001b0: e1b2 2fbf 3157 bd3e d205 c83e 5f0d babb
000001c0: b92e e8be 5b0f 353c c105 14bf 7a0b 07bf
000001d0: c163 34bf eb28 a1be f941 fb3c 9c3d 1cbf
000001e0: d983 91be e76b 573d 8c62 c33e 33ab 2fbf
000001f0: 7a4c 103e 45b6 15bf 1dc3 f1be 89b0 29be
00000200: 1532 74bf e8f6 a53e a843 f9bd a72e 6bbe
00000210: ab61 65bf a6e6 3dbf 28de 093e ee98 443d
00000220: 5678 90bf 52e3 ae3e cfac 513e 8db1 203f
00000230: f882 bfbe f768 293b 65d6 dd3d 183a 0a3f
00000240: 65a3 13bf 3ac7 a6be 9fbd 21bf 3608 e0be
00000250: aa3c 0e3e 7dd7 febe b2ce 20bd 269f d73a
00000260: eb6d cd3d e57a de3c 986d d5bc 5b42 08be
00000270: 0be0 2e3d bd26 223e 9f52 0bbd 834a f1bd
00000280: d34f 023f 862d 27bf 6e36 8e3e 6c80 50bf
00000290: 0549 a73e d228 87bd 9383 a9be aa11 eebe
000002a0: 1179 723e 62a7 99be 679a d0bd e40d b1bd
000002b0: 1f62 31bf 5ade fc3d 8f75 16bf 3aaf a6be
000002c0: ef4b abbe 7878 71bf 9712 b73e 5b81 363f
000002d0: 38fe fabe bc32 78be c1e5 a2be 1c3d d43e
000002e0: cd84 813e ae1e e53d 53cc 0d3f 4a2e b9be
000002f0: 26a6 4ebe 1de9 a8be 344b 96bc 55c5 d3be
00000300: a47d 78bf 01e4 11bf bf66 823e bcdf bfbe
00000310: 01a5 123d 30ca 743e 1ea3 b2be 5384 b2be
0.17638643 0.019887295 0.23302534 0.1802545 0.70402396 -0.076008156 -0.30525655 -0.5141955
-0.6224903 0.013398108 0.23173024 -0.23395361 0.5638701 0.574331 -0.29899144 -0.72122335
-0.11784252 -0.36410177 0.5663841 0.29017392 -0.44333032 -0.7015245 -0.376902 -0.5584911
0.08112131 0.064924456 0.028379492 -0.08948732 -0.3628097 -1.2842919 -0.60002315 0.29995605
0.17192656 -0.09307275 0.028969148 -0.30582914 -0.027492698 -0.261383 0.1957131 -1.0605366
0.39704606 0.27421707 -0.18849295 -0.25795186 0.6593658 -0.0011561213 0.014303186 -0.31053677
0.27653664 0.8666419 -0.0432773 -0.25768197 -0.32743677 -0.2269933 0.09302949 -0.21123162
0.36426535 0.078589745 0.07457796 0.01140471 -0.1506788 0.6209093 0.18226501 -0.36929467
-0.9949733 0.21799296 -0.36085975 0.11077615 0.27000114 -0.5388945 -0.7529228 -0.046586227
-0.13197257 -0.21059428 0.3640781 0.17441021 -0.5671433 -0.65199876 0.5550218 0.06794824
-0.42990962 -0.3150954 -0.22472504 0.39348635 0.1668434 -0.04552826 -0.33939552 0.2301911
0.60117626 -0.2386654 0.0029822052 -0.24583934 -0.020668909 -0.08605954 -0.1928853 0.13217776
-0.111464426 0.83093214 -0.76683104 -0.13799198 -0.8963156 -0.38236392 -0.87048465 -0.33322904
-0.5515675 -0.24566562 0.39735025 -0.22722952 -0.6863232 0.36980584 0.3906694 -0.0056778635
-0.45348147 0.011051024 -0.5782128 -0.52751887 -0.7046471 -0.3147653 0.030671107 -0.6103151
-0.28420904 0.052593138 0.38161123 -0.68620604 0.14091673 -0.58481246 -0.47219172 -0.16571249
-0.9538892 0.32414937 -0.121711075 -0.22967015 -0.89602154 -0.74180067 0.13463652 0.047997408
-1.1286724 0.34157807 0.20476077 0.6277092 -0.3740461 0.0025849917 0.10831908 0.53994894
-0.57671195 -0.32573873 -0.63179964 -0.43756264 0.13890329 -0.4977378 -0.03925962 0.0016450628
0.10030731 0.02715821 -0.026053235 -0.13306563 0.042694133 0.1583509 -0.03401434 -0.1178179
0.5090305 -0.6530384 0.27775902 -0.81445956 0.32672897 -0.06599583 -0.33108196 -0.46497852
0.23678996 -0.30010515 -0.101857 -0.086452276 -0.69290346 0.12347098 -0.5877313 -0.32555562
-0.3345637 -0.94324446 0.3575637 0.7129113 -0.4902208 -0.24238104 -0.31815913 0.41452873
0.2529663 0.11187492 0.553899 -0.36168128 -0.20180568 -0.3299035 -0.018346407 -0.4136149
-0.9706671 -0.5698853 0.25469014 -0.37475383 0.03580189 0.23905253 -0.34890074 -0.3486658

weight f4 [200, 200]
00000000: 561d 96bd a3bb 663f f295 5f3d 2906 c9bf
00000010: 1206 eb3c e9b9 43bf 6aba f5bc 5a10 5f3e
00000020: 87ff 21bf 36cc a2be 3e70 0dbf 6bab edbd
00000030: ad40 84bf d421 0f3f 555f 8bbf 3f3d bb3d
00000040: 8543 06bc aaaa 6a3c a76c 21bf 8dc6 82bd
00000050: 2975 5c3e 35bf 073f 64ac 0d3f 5205 683e
00000060: 3e84 92be b8c7 c23e 6303 733d c067 b6be
00000070: 5aa2 683e 2594 103d 3505 0dbd 0139 43bd
00000080: bbb9 eebd 36e8 2ec0 30c9 32bf 2e02 1dbf
00000090: 266b 1bbe 2318 62bd c63f 10c0 d8a8 37be
000000a0: 2b98 6bbe b629 a23e 552e 0fbe 96bf 15bf
000000b0: 4dfe 00bf ae85 9ebf 904a 38be b124 dcbd
000000c0: 4dfd 953e ab69 f93d 197a c4be 74d3 0d3d
000000d0: 45f1 1ac0 03f8 6abe bdc7 0dbf ad32 17bd
000000e0: 4fd4 20be 565b 94ba b632 adbf 3a99 693c
000000f0: d499 7bbd 78ed 433f 26c7 14bf b443 0d3e
00000100: 5681 16bf b723 a3bd 7557 913e b6ca 1cbe
00000110: 2079 bdbd c8c5 34bf 0e1e 9cbe 7490 7bbf
00000120: 7c25 f5bb 3125 de3e 7fda bf3d 5b62 e2be
00000130: 8933 c3bd 177b afbe 3b9d 793e 9e71 1fbe
00000140: 6a44 48be 0f96 21be 654c 04bf 92f7 623e
00000150: b2cc d9be 0f9b 353e 4d4a 05bd 3940 4abf
00000160: 673d acbe 4855 34bd 0265 ddbf fb79 e9be
00000170: 4ec5 af3e a709 3ebf a201 d3bf e1de dd3c
00000180: 654a 953f 5ec6 94bf e12b cdbd 306b 4a3f
00000190: aff4 b1be 4628 af3b 3b07 793e e559 083d
000001a0: b052 33c0 1efe 2b3f 6d32 963d 02ba d3bc
000001b0: 152b 823f 49c3 43be 8496 74be bd03 9d3e
000001c0: 2689 afbe d185 ddbf 25a9 00bf 5d26 05be
000001d0: d103 493f c184 c6be ad04 0ebf b1df dabe
000001e0: 8d7b 82bf a383 e7bf 1542 133e 4aec 51be
000001f0: faf3 5dbf ef47 ba3e e56a 81bf 5252 d7be
00000200: 0db9 173f 3952 c7bd 6fd1 ba3e b207 e53e
00000210: 3738 aabd e327 efbd b29d 65be 4594 9d3e
00000220: 3ffd 343e ae1b 9fbe 0727 2abf cba5 e3be
00000230: cd6a 8abd 7f71 abbe 6eec a9be 33c0 723e
00000240: 396e d33e fe67 1ec0 9d12 81bd 6182 49bf
00000250: 0774 b23e f8b7 35bf 986f 4c3f 8511 9f3e
00000260: f44f 0c3f cff6 2dbf 4a4b 57be f19c c9be
00000270: 16aa a33e 9904 49bf 1661 12bf c29a d3bf
00000280: 6bab edb8 3d84 123e 6cf8 8e3e 5c96 833c
00000290: 8e0f ad3e d077 3ebe c0c7 3fbf b423 f1be
000002a0: c580 01be f79f a0bf 4a63 ec3e db2a e5be
000002b0: 9d27 8abf f63b a03d 0a12 53bd c233 603e
000002c0: e7a7 adbe c537 09bf 7e4b 90bf f58c 1f3e
000002d0: 54b5 853d 3710 80be 9f16 aabf 9216 e2bf
000002e0: 6c0d 7fbf 3136 573e f97e cbbd ea31 62bf
000002f0: 4000 c13e d20a e53e ccf1 803d 542d 0bbf
00000300: a3d0 efbe e745 b53e b3c1 f83e 2224 80be
00000310: 68d6 38bf 95ee 893c d459 f5be 89c4 c8be
00000320: 3602 bebe 566e 2e3e 07df efbe 9346 1ebe
00000330: 0a3a 01bf 899f 49bf e703 a73d 4e46 1b3f
00000340: 6f38 6dbf 4654 eebf 3c92 b9bf ee8a 533e
00000350: bd17 62bf a6bd 50bf 0899 8c3d f519 8a3e
00000360: 90da 043f 0930 0ec0 88f0 c0be 991b 71bf
00000370: f571 dfbf 3923 8cbd 15c7 523f 4041 3bbf
00000380: e2a5 2b3f 46f9 c43e 1a85 da3e 4c76 87bf
00000390: 7949 1dbf 4766 b6bf b707 adbf a60d 1c3e
000003a0: 348c 993e 2a39 91be 04fa 36be 59a4 61bf
000003b0: d42a 293d 6c30 dcbf ea05 3ebf 37ad 07c0
000003c0: 253f e93f e070 423e 569b 9a3e 34ea 7cbf
000003d0: 1070 3fbe 8bc1 04be 3442 b9be 169f 5dbf
000003e0: 8f92 aabe e735 20bf 2439 debe cb08 c53d
000003f0: 5144 00bf c97f 54be cad0 7dbd c927 5fbd
-0.07329814 0.9013006 0.05458636 -1.5705005 0.028689418 -0.7645555 -0.029996116 0.21783581
-0.6328053 -0.31796426 -0.55249393 -0.11604961 -1.0332237 0.5591099 -1.0888468 0.09142541
-0.008194809 0.014322916 -0.63056415 -0.06385527 0.21529068 0.53026134 0.5534117 0.2265828
-0.28616518 0.38042998 0.0593294 -0.3562603 0.22718182 0.03529753 -0.034428794 -0.047661785
-0.11656519 -2.732923 -0.6983824 -0.6133145 -0.15177593 -0.0551988 -2.2538924 -0.17935503
-0.23007266 0.31672448 -0.13982518 -0.5849546 -0.5038803 -1.2384546 -0.17997193 -0.10749186
0.29294816 0.12178358 -0.38374403 0.034625486 -2.420976 -0.22946171 -0.553829 -0.036913563
-0.1570599 -0.0011318724 -1.3531101 0.014257723 -0.061426 0.76534224 -0.58116376 0.13795358
-0.587911 -0.079657964 0.28387037 -0.15311703 -0.092516184 -0.7061429 -0.3049168 -0.9826729
-0.007481275 0.4338775 0.09367847 -0.44215664 -0.09531314 -0.34273598 0.24376385 -0.15570685
-0.19557348 -0.15779899 -0.5167907 0.22164753 -0.42538983 0.17734931 -0.032541562 -0.79004246
-0.33640596 -0.044026643 -1.729645 -0.45600876 0.3433022 -0.7423348 -1.6484873 0.027083816
1.1663328 -1.1623037 -0.10018135 0.79069805 -0.3475699 0.005345377 0.24319164 0.033288855
-2.8019218 0.6718463 0.07333837 -0.025845531 1.0169398 -0.19117464 -0.23885542 0.30666915
-0.34284323 -1.7306463 -0.50258094 -0.13002916 0.7852145 -0.38773158 -0.55475885 -0.42748788
-1.0193955 -1.8087047 0.14380677 -0.20500293 -0.86700404 0.36383006 -1.0110747 -0.42054993
0.5926674 -0.097324796 0.3648791 0.44732434 -0.083115034 -0.1167753 -0.22423437 0.30777183
0.1767473 -0.31075805 -0.664658 -0.44462427 -0.06758652 -0.33485028 -0.33188194 0.2370613
0.4129503 -2.4750972 -0.06302378 -0.7871457 0.34854147 -0.7098384 0.7985778 0.31068054
0.548095 -0.67954725 -0.21024814 -0.3937755 0.31965703 -0.7852264 -0.5717939 -1.6531603
-0.0001133297 0.14308257 0.27923906 0.016062908 0.3380093 -0.18600392 -0.7491417 -0.47097552
-0.12646778 -1.2548817 0.46169502 -0.4475926 -1.0793339 0.07823937 -0.051530875 0.21894744
-0.33917162 -0.5360072 -1.1273038 0.15581115 0.06528726 -0.2501237 -1.3288153 -1.7663138
-0.99629855 0.21016766 -0.099363275 -0.8835741 0.37695503 0.44734818 0.06296119 -0.5436604
-0.46838865 0.35404894 0.4858528 -0.25027567 -0.7220216 0.016837398 -0.47920096 -0.39212444
-0.37111062 0.17034277 -0.46849844 -0.1545661 -0.50479186 -0.78759056 0.08155041 0.6065415
-0.92664236 -1.8619468 -1.4497752 0.20658466 -0.8831747 -0.8153938 0.06865126 0.2697293
0.51896 -2.2216818 -0.3768351 -0.94182736 -1.7456652 -0.06842656 0.82335025 -0.7314644
0.6704999 0.3847143 0.42679673 -1.0582976 -0.61440235 -1.4249963 -1.3517979 0.15239581
0.2998978 -0.28363925 -0.17868811 -0.881414 0.04130061 -1.7202277 -0.74227774 -2.1199472
1.8222395 0.18988371 0.30196637 -0.98794866 -0.18695092 -0.12964456 -0.3618332 -0.8657087
-0.3331494 -0.6258225 -0.4340297 0.09620818 -0.5010424 -0.20751871 -0.061966695 -0.0544813

bias f4 [200]
00000000: 818b c8be cdd4 cd3d e601 09bf 65f1 ba3e
00000010: e370 1fbf 7d0a dcbd 9804 1d3e 4ea0 98bc
00000020: 08fe b4be c4b0 fcbe 36ca 9abc 2835 bdbd
00000030: 1828 fcbd cb35 c7be 4c5c bdbe d8bc 3cbe
00000040: a260 58be fc1a fdbd 767e 97bd 2d3f a73e
00000050: 8fa4 29bd 1dc9 44bf 783e 0fbf e607 1ebf
00000060: d1c8 febe 6585 9bbe 8a2d 973d dfd1 bebd
00000070: 4943 9bbe 1e08 b9be e85f 6ebf 3439 fcbd
00000080: 2620 1bbe e8e8 b7bd 9127 c2bd 0113 28bf
00000090: 3027 8abe caeb f8be abdc eabc 588a babc
000000a0: 7914 4abe c9b9 b4be fb02 e7be 233d 80bd
000000b0: 4f2e abbd 1e31 97bd ed96 eabe 014d c8bd
000000c0: c28a 113e c69d dbbe 02d0 01bf 35a8 0fbd
000000d0: 4294 3abe f8f7 bbbd 76ae 1bbf b9d4 c4bc
000000e0: c7a9 56be c55d f8be 69a8 4bbf 8534 1abf
000000f0: aaa5 05bf cc3e 70bd c616 a1be 1fad acbd
00000100: bd92 01be 65a9 01be 9dfe 1fbf 8bf1 133e
00000110: 9ddd 0dbe 52f5 1cbf d7b6 4abf 23dd b4be
00000120: dcc5 f9bc 8066 d5be 6ba9 5bbe 4292 13bf
00000130: 0809 b1be 995c 5abf 55a8 83bd f68e 22bf
00000140: d0f1 b2bd c156 16bf 6794 aabe d2ef dcbd
00000150: a768 aabd e292 45bf 265f 9dbd 98d2 34be
00000160: 90d9 b5bd fee8 15bd dbe3 d0be 0c73 f9be
00000170: b937 09bf 85a9 8ebd 8166 0e3d e9bc cfbd
00000180: 652f 3abf 2996 cabc deb5 1dbd 2b90 ecbe
00000190: 21cb 40bd 04fb f6bd 6e58 95be 4b5a 35be
000001a0: 1dd1 8dbd 7c0b d1be cfea 2fbd b51b 03be
000001b0: 8f41 75bf cdd3 983d bd34 ecbe 8a89 d6bd
000001c0: 2a3b 26bf ee27 9ebe 7ddc 9c3f 062d 10bc
000001d0: 2fbd acbd 1b69 e4bc 3ac7 f9be c68b 14be
000001e0: 03f9 3bbe 1bb1 e0bc 5b0a dfbe 3a29 82be
000001f0: a809 bebd 676d d63d ef0a 27be 1edf 13be
00000200: 06a4 91bc 947d 4ebe e753 a2bc 836c e2be
00000210: dde7 04bd d3da ecbe d2e2 dabc f106 49bf
00000220: e5e2 06be 56f0 90bd 9e31 99bd f31c 5cbe
00000230: de6f 98bd 1f71 5a3e 9b48 2fbf 6ddc 02be
00000240: e0a9 fabc 5418 34bf 2de1 24be a83d 30bf
00000250: fb82 08bf 1048 263f ce5f 6ebe 9acb 5ebd
00000260: 82ba d4bc c711 80be c928 cabd 7f1a adbd
00000270: d8fb bebd 760c 0ebe f78e a7bd 2416 f3bc
00000280: 8f91 a8bc b315 e9bd ee6c 3bbe 264a 94bd
00000290: 7cee 79bd 44ab fcbd 1d64 82bd d8c2 d7bd
000002a0: ad16 0bbe 583c b1be 8e88 9dbe 369b 5fbe
000002b0: e2b6 f5bd d553 64be d741 abbd f136 c1bd
000002c0: 575f 9bbe 401a c6be 42e8 1fbf 1ed5 c3be
000002d0: 11e5 cabe 041f f1bd c184 04bf b908 17be
000002e0: 0526 8dbd 3dc8 4a3e 4752 a8bc a87f 3bbd
000002f0: 838d 69be 5cf7 cabe c8b8 32bd 6810 1ebf
00000300: 9084 bfbc 015f 07bf d400 07bf 0a95 17bf
00000310: 5c7f f7be ea78 d2bc 09f0 47bd 0099 053e
-0.39168933 0.10050354 -0.5351852 0.36512294 -0.62281626 -0.10744188 0.15333784 -0.018631127
-0.3535006 -0.4935361 -0.01889525 -0.092386544 -0.12312335 -0.38908228 -0.3698448 -0.18431413
-0.21130612 -0.123586625 -0.073971674 0.32665387 -0.0414167 -0.76869375 -0.55954695 -0.617308
-0.49762586 -0.3037521 0.07381733 -0.093173735 -0.30324772 -0.36139005 -0.9311509 -0.12315598
-0.15148982 -0.0897997 -0.09480203 -0.65654 -0.26983023 -0.48617393 -0.028669676 -0.022771046
-0.19734372 -0.35297993 -0.4511946 -0.06261661 -0.08358442 -0.07382415 -0.45818272 -0.09780312
0.14213088 -0.4289381 -0.5070802 -0.035072524 -0.18220618 -0.09178156 -0.6081308 -0.024027215
-0.20963202 -0.4850904 -0.7955385 -0.6023639 -0.5220591 -0.058653638 -0.31462687 -0.08431458
-0.12653632 -0.12662275 -0.62497884 0.1444761 -0.1385407 -0.6131183 -0.7918524 -0.35324964
-0.030489855 -0.41679764 -0.21451347 -0.57645047 -0.34577203 -0.8529754 -0.06428591 -0.6349939
-0.08737528 -0.58726126 -0.33316347 -0.107879296 -0.08320742 -0.7717725 -0.07684164 -0.1765846
-0.088793874 -0.03659915 -0.4079884 -0.48720586 -0.5360065 -0.06965927 0.034765724 -0.10143454
-0.7272857 -0.024729805 -0.03850352 -0.4620374 -0.04706872 -0.12059596 -0.2916903 -0.17710225
-0.06924651 -0.40829074 -0.04294854 -0.12803538 -0.9580316 0.07462273 -0.46133986 -0.10475452
-0.6493403 -0.3088984 1.2254788 -0.008799797 -0.084345214 -0.02788215 -0.4878481 -0.14506444
-0.18356709 -0.0274282 -0.43562588 -0.25422078 -0.092791855 0.104700856 -0.16312765 -0.14440581
-0.017778408 -0.20165092 -0.019815398 -0.44223413 -0.032447685 -0.462607 -0.026719484 -0.78526217
-0.13172491 -0.070770904 -0.07480167 -0.21495418 -0.07443212 0.21332215 -0.6847016 -0.12779398
-0.03059858 -0.7034962 -0.16101523 -0.6884408 -0.5332486 0.6495371 -0.23278734 -0.05439339
-0.02596784 -0.25013563 -0.098710604 -0.08452319 -0.09325379 -0.13871941 -0.08181565 -0.029673643
-0.02057722 -0.11381092 -0.18303272 -0.07240705 -0.061018452 -0.12337354 -0.06366751 -0.1053521
-0.13582869 -0.3461635 -0.30768245 -0.21836552 -0.11997773 -0.22297604 -0.08362167 -0.09434307
-0.30346176 -0.38691902 -0.6246377 -0.38248533 -0.3962789 -0.11773494 -0.51765066 -0.14749421
-0.06892017 0.19802947 -0.020547045 -0.04577604 -0.22807889 -0.39641845 -0.043633252 -0.61743784
-0.02337864 -0.5287934 -0.5273564 -0.5921179 -0.48339355 -0.025692422 -0.0488129 0.13046646

weight f4 [1, 200]
00000000: 7df5 953d 6e2f a5be 0e81 fc3d a9f0 473d
00000010: 82e4 1dbf d540 6b3e 6d55 6b3d a3b3 78bb
00000020: 947e 8bbf 94ed 93bf b196 49ba da80 df3c
00000030: e1e1 2cbe 3fc8 d93c eaab a43e fad8 ee3a
00000040: 6874 c0be e0e8 3a3c d7af babd 54fe 2b3d
00000050: 1098 c2bd baa5 22be e0c2 81bf 806c c9be
00000060: 4f63 143d ebde 693e 07d8 103e 4a47 603e
00000070: 04ee f73d cfb9 21be 6ce3 e1be b247 d2bc
00000080: 52a2 6b3a f9d2 d6bb f7ae aabc 1ce9 0abe
00000090: ed6b 2e3f 892f 163e 8697 113d 31d9 593b
000000a0: 73fe f1be abc5 3ebe 5ce7 e83d 4a62 e8bb
000000b0: d6df 993c ef27 373f e50f cbbd 742f 873c
000000c0: c3bd c13d d7e3 8dbe f314 79bf 4e02 91bb
000000d0: 3aca 253e 37e2 afbc 2307 95be bdf8 89bc
000000e0: b5e7 b7be 3220 dabe 4693 313d bb13 fa3d
000000f0: e51a e1be 8261 68bb 8fc5 88bd 9b7a f839
00000100: 6c2f f1bb 9309 f93c bb7c e7be 897f 2cbf
00000110: fb03 6cbd 30ac 87be 5817 21be 9b61 983e
00000120: d403 7bbc 2767 223e 6c1d f23e 5792 513e
00000130: ed0a 413d 19d6 e73c f512 92bd fc79 083f
00000140: 6964 cbbb 87a0 1fbf b4c6 8cbe db62 fdbb
00000150: e937 c8bc 18a3 d83d f1fa ca3c 25a6 a6be
00000160: 68ad 43bd 68a8 483c 6691 dfbe c794 b8be
00000170: fce6 efbe cbf7 ffbc 9f32 ad3d b198 d1bc
00000180: 26e0 7cbe e18d c5bc 0253 003c 7566 7e3e
00000190: c2f8 6dbd 9e87 933c 1a0c 2e3e 950a c83e
000001a0: a8bc 353c b4c8 2f3e 84c0 86bc a962 5dbc
000001b0: c064 54be 7b7f c93e 109f 4e3d adda 943b
000001c0: 3166 35be ec92 88bf d298 573d fdbd 183c
000001d0: b263 c43e 7c75 89ba 407a 11bf 354d 813c
000001e0: ce81 993d 29ad adbe 61af 5bbf d085 7ebf
000001f0: d37d 6fbc b242 e93d 61c5 c23c 9d35 10bf
00000200: a191 54bd 1697 5fbf 1a98 d8bb b201 e6be
00000210: 3d09 01bd 2ff7 bbbe 316f da3c fed5 adbe
00000220: 42b0 5e3c 18bb 353c dbdf 7d3c de29 87be
00000230: 0963 52bb 73f3 0fbe d4ab ed3d b657 123c
00000240: 834c dfbe dd92 1dbf 46a7 c73e 175e 0dbe
00000250: daa6 3e3e cf79 293d 3bfc 02bf 680f 3cbb
00000260: 291f f03d b541 9e3e 85f5 123d 7d0a 1f3c
00000270: 29f8 c2bc 56f9 73bf aa7a d9bc 0e38 a03c
00000280: fb65 fd3c 6c1d f83d 9a95 a7bf 0d1d 18bd
00000290: 5a97 6e3d f67d 15bc 6845 cc3c a0cc 04c0
000002a0: ab09 70bd db5b 413e f15a 54bf fd81 3c3d
000002b0: a53d 43be ddb0 1e3e 04e8 0ebc 1d2d 873b
000002c0: 77cc 90bf 5af0 18be f294 c5be 1b08 153f
000002d0: 1cd4 80bf b28d d73c 3f37 e9be 48c2 543e
000002e0: 6b79 6d3c 1758 e9bd ad50 923b 18cd b2bb
000002f0: fbf5 7ebf ee51 c1bf a79c 32bc 4193 82be
00000300: 0895 b9bb e6b4 013f 5cfd 5abf 7e3f 203f
00000310: 4e6a 983e 6864 4bbd 2ad9 dcba 57fe 193d
0.07322214 -0.32262748 0.12329303 0.048813496 -0.616768 0.2297395 0.057454515 -0.0037948869
-1.0898004 -1.1556878 -0.0007689996 0.02728312 -0.16883041 0.026584743 0.3216241 0.0018222623
-0.3758881 0.011408061 -0.0911557 0.041990593 -0.0950166 -0.15883532 -1.0137596 -0.3934059
0.03622752 0.22838943 0.14144908 0.21902195 0.12105945 -0.15793537 -0.44118822 -0.025668953
0.0008988726 -0.0065559116 -0.020835383 -0.13565487 0.6813343 0.1466657 0.035544895 0.0033241028
-0.47264442 -0.18630092 0.11372253 -0.007091795 0.018783491 0.7154531 -0.09915141 0.01650212
0.09460022 -0.2771289 -0.9729759 -0.0044253236 0.16190425 -0.021470172 -0.29107007 -0.01684224
-0.35918966 -0.42602688 0.04335334 0.122107945 -0.4396583 -0.003545851 -0.06678306 0.00047393594
-0.0073603895 0.030400073 -0.4521235 -0.67382103 -0.057620984 -0.26498556 -0.15731561 0.29761967
-0.015320737 0.15859662 0.47288072 0.2046598 0.04712956 0.028300332 -0.07132522 0.53311133
-0.006207038 -0.6235432 -0.27495348 -0.0077327318 -0.024440723 0.10577983 0.024777861 -0.32548633
-0.047772795 0.012247182 -0.43665618 -0.36051008 -0.46855915 -0.031246087 0.08456921 -0.025585504
-0.24694881 -0.024115505 0.007832291 0.24843772 -0.058098562 0.018009003 0.16996804 0.39070573
0.011092342 0.17166406 -0.01644922 -0.013512292 -0.20741558 0.39355072 0.050444663 0.0045426697
-0.17714764 -1.0669837 0.052635975 0.0093226405 0.3835731 -0.0010487284 -0.56827164 0.015783885
0.074954614 -0.33921173 -0.8581448 -0.9942293 -0.014617401 0.11389674 0.023775758 -0.5633181
-0.051896695 -0.87339914 -0.006609929 -0.44923168 -0.03150295 -0.36712024 0.026664348 -0.33952326
0.013591828 0.01109197 0.015495266 -0.2639913 -0.0032102487 -0.14057712 0.11605039 0.008932045
-0.4361306 -0.6155222 0.38994807 -0.13805424 0.18618336 0.04137593 -0.51166123 -0.0028695706
0.11724693 0.30909505 0.035878677 0.00970709 -0.023799973 -0.9530233 -0.026547749 0.019557979
0.030932417 0.12114987 -1.309253 -0.03713708 0.05824981 -0.00912427 0.02493544 -2.0749893
-0.05860297 0.18882696 -0.82951266 0.046022404 -0.19066484 0.15497155 -0.008722309 0.004125251
-1.1312398 -0.14935437 -0.385902 0.5821549 -1.0064731 0.026312683 -0.45549962 0.20777237
0.01449428 -0.11393755 0.0044651837 -0.005456578 -0.99594086 -1.5103128 -0.010901607 -0.2550297
-0.005663518 0.50666654 -0.85542846 0.6259688 0.29768604 -0.0496563 -0.0016849388 0.037596073

weight f4 [200, 15]
00000000: 04cd d73e 3b38 86be aba7 423c a121 c2bd
00000010: 2e37 863e 50b5 983d 64c5 ce3f b9b4 3d3f
00000020: e07d 6fc0 8dcb 00c0 8a77 e23d e067 163d
00000030: 1c55 2dbc 1833 d0be f554 683e 443b 1fbf
00000040: 6649 ecbf 909e cabe 9e6f 523f 60e9 adbe
00000050: fcb6 43be c366 dbbf 7b29 78be ab36 8f3e
00000060: 6b1f 41be 3680 b03e 219f 0ebe e12c 9c3e
00000070: a7f7 483d 0b9f 1a3f d936 7f3e b7ac 5ebf
00000080: f9f2 353f 03e0 adbe 8756 4ebf c287 aa3e
00000090: dba1 f7be d0eb 553e 57de d7be a979 b5bf
000000a0: e436 233f 2c99 f8bf 732a 8ebf 022b 52bf
000000b0: 21be 803e 92d2 8c3d 7594 003e 1707 aebf
000000c0: f1ac 923e a57e bf3e 481c 60be d644 1bbf
000000d0: 8faa 88bf bdff 113e 7c95 343f 609b ba3e
000000e0: 51e5 28bf 4106 91be a9a8 20be 7d58 173f
000000f0: f539 88bf f2c3 84bf 8ff6 a23d ff59 08bf
00000100: 99d2 80bf cdcf 93be 39dd 1e3e d8db eb3d
00000110: e587 06be 6b75 30bd 8822 013f 1f0f 3c3f
00000120: 304e 943e a846 6f3e c74a fd3e 05f5 ad3d
00000130: 850f f03d 962a b9bf 9ffe 9b3f fefe 43bf
00000140: 27a0 47bf c751 2d3f 7107 6ebe 28f5 52bc
00000150: d4ab 0fbf 6da3 a8be fa87 95be ca39 7dbe
00000160: c2d3 25bf 26a1 733f 57ed 153f c750 783e
00000170: b1aa 2ebf 2e04 5e3e 4bf3 4cbf 6e78 693e
00000180: ea6f 033f 629a f8bd 61f7 e83c b9d7 7ac0
00000190: e497 893e e512 943e 079c c3be 8a39 843e
000001a0: 3eb4 b3bd d083 bcbe bb2a f1bd 01f2 d2bd
000001b0: 7d4f 873e 0b4e 62be 211c d93d 69e6 46be
000001c0: 40be b2be f112 c7bd 9aca dabc 5f21 a3be
000001d0: 27ca a0be 7e5f 95be c020 c63d 7542 883d
000001e0: c9f6 50bd a5c0 803e 2dae d5bf b7a9 8f3e
000001f0: cb9b 9dbe 7023 debd e567 3e3e 2a9f 013d
00000200: 4075 aa3d 6d10 4c3f 11b3 3d3e 58f2 033b
00000210: 1442 163e e922 3dbe 789a b23e fee1 ba3d
00000220: 7957 1b3e d53c 00bf 3fc9 323f 60f8 183d
00000230: 2e0e 223f 10a7 953e 4632 473e 43ec 6f3d
00000240: 800f 053f 2829 45c0 5750 b33d 3356 22be
00000250: 70a0 663c 3e27 b63e 65ad 093f b5b7 b4bf
00000260: a27d 32bf 0c04 d73e 5498 6abd 64b2 a3bf
00000270: b21d 10bf 3a13 30bf 7a3c 2bbf e5a9 45bf
00000280: 017c 0d3f f7a1 363e 28c9 43be f9b4 9f3e
00000290: 085a d4be 0cbc 1a3f 1277 42be 7dbf ddbb
000002a0: bfcf c83e a1b5 e6bc 2b8a bc3d b75b 133e
000002b0: 4a69 193f 7ad6 0ebf cf47 69c0 ab52 263f
000002c0: 73a5 283d 1265 5abf 5fac eabe 69d8 06be
000002d0: 9bce c7bd 320d 353e d7a6 42bf faaf 1abf
000002e0: 971b 20bd 8834 22be 59ec 37be 0b28 9b3e
000002f0: ea65 b9bd 8a47 cfbf 786d 7abf 2625 b63d
00000300: c133 983e 4718 723f 817a dfbe 2d42 c4be
00000310: 0d64 c93f bdf5 49be b64c dc3e 2ffc 343e
00000320: 5141 013f 288b 02be ff4a 213e 1868 503e
00000330: 47d6 7b3e fc6d fc3e 5523 833e b6f7 3d3e
00000340: 05ed 573e 3e57 f23e 473d 193f 87d2 d43e
00000350: e8ff e23e f11d 50be d71f 39bf fd15 bf3c
00000360: c4f4 933d 58f8 f23c ffe4 67bf d62d f63e
00000370: c8dc 553f 158c 043d 635d 5e3e 8497 8dbe
00000380: caab fd3d 677a 6e3e ef08 a1bf 5fe3 f7bd
00000390: a29c 133f 5dc7 41be 5f0c 163d 2135 c8be
000003a0: 8e84 06bf ce13 a1bf 2603 653e 2bb8 85be
000003b0: 147b ba3c 1cb5 823f 5e1e 083f 31c8 653e
000003c0: f840 4bbf ce1e 55bf dfec 633f cafa 7abf
000003d0: 63fd 0a3f 038a 893e 46d3 c7be 988a e6be
000003e0: dcae e03e 3218 eebf fd06 c7bf 4f26 4abf
000003f0: c6ee 09be fc78 35bf 91f6 5fbf 4729 753f
0.42148602 -0.26214775 0.0118807955 -0.094790705 0.26213974 0.074564576 1.6153989 0.74103886
-3.7420578 -2.0124238 0.110579565 0.036720157 -0.010579374 -0.4066398 0.22688659 -0.6219981
-1.84599 -0.395741 0.82201564 -0.33967113 -0.19112772 -1.7140735 -0.24234574 0.27971396
-0.18859641 0.34472817 -0.1392789 0.3050299 0.049064305 0.6039893 0.24923266 -0.8698229
0.7107387 -0.3395997 -0.8060078 0.333067 -0.48365673 0.20890737 -0.4216182 -1.4177753
0.6375563 -1.9421744 -1.1106704 -0.82096875 0.25145057 0.068761006 0.12556632 -1.3595914
0.2864757 0.3740131 -0.21885788 -0.6065191 -1.067705 0.14257713 0.70540595 0.36446667
-0.6597491 -0.28325084 -0.15689339 0.591194 -1.0642687 -1.0372298 0.079571836 -0.53262323
-1.0064269 -0.28869477 0.15514077 0.11516541 -0.13137777 -0.04308073 0.50443316 0.7346057
0.28965902 0.23366797 0.49471113 0.084939994 0.1172171 -1.4466121 1.2187079 -0.7656096
-0.7797875 0.6770291 -0.23245026 -0.012875833 -0.56121564 -0.32937184 -0.29205304 -0.24729076
-0.6477624 0.9516777 0.58565277 0.24249564 -0.68229204 0.21681282 -0.80058736 0.22799847
0.5134264 -0.12138821 0.028438272 -3.9194167 0.26873696 0.28920665 -0.38204977 0.2582515
-0.08774613 -0.36819315 -0.11775728 -0.10300065 0.26427832 -0.22100084 0.10601068 -0.19423832
-0.34910774 -0.0972041 -0.026707936 -0.31861398 -0.3140423 -0.29174417 0.09674215 0.06653301
-0.051016603 0.25146976 -1.6693779 0.2805917 -0.30782923 -0.10846603 0.1859432 0.03164593
0.08323145 0.79712564 0.1852534 0.0020133462 0.14673644 -0.18470348 0.34883475 0.09125136
0.15170087 -0.5009282 0.6983833 0.037346244 0.63302886 0.2922902 0.19452772 0.058574926
0.51976776 -3.080637 0.08755558 -0.15853195 0.014076337 0.35576814 0.53780204 -1.4118563
-0.6972295 0.41995275 -0.057274178 -1.2788815 -0.5629531 -0.6877934 -0.66889155 -0.77212363
0.5526734 0.17835222 -0.19119704 0.3119276 -0.41474938 0.60443187 -0.18990734 -0.006767212
0.39220998 -0.02816278 0.09206041 0.14390455 0.59926283 -0.55796015 -3.6450078 0.6496989
0.04117341 -0.8531047 -0.45834634 -0.13168491 -0.09756204 0.17680815 -0.7603583 -0.6042477
-0.03908881 -0.15840352 -0.17961253 0.30303988 -0.09052642 -1.6193707 -0.97823286 0.08893804
0.29726985 0.94568294 -0.4364815 -0.38331738 1.5733658 -0.19722648 0.43027276 0.17674325
0.5049029 -0.12748396 0.15751265 0.20352209 0.24593459 0.4930266 0.25612894 0.18551525
0.2108651 0.47332186 0.59859127 0.4156687 0.44335866 -0.20323922 -0.7231421 0.023325915
0.0722442 0.029659435 -0.90583795 0.48081845 0.8354001 0.032360155 0.21715312 -0.2765466
0.12386282 0.2328888 -1.2580851 -0.121039145 0.5766088 -0.18923707 0.03663289 -0.39103034
-0.5254601 -1.2584169 0.22364482 -0.26117072 0.022763766 1.021152 0.53171337 0.22439648
-0.7939601 -0.8325013 0.8903331 -0.98038924 0.5429289 0.26863107 -0.39028376 -0.45027614
0.43883407 -1.8601134 -1.5549008 -0.78964704 -0.13469991 -0.7088773 -0.87485605 0.9576611

bias f4 [200]
00000000: 89da d53e b12e 00be b07b 92be c287 bfbe
00000010: 73ea 023e 98f3 6bbe 0250 863e d42d 74be
00000020: 3e69 50bf 13e5 223d 706c 60bc ca2d cd3e
00000030: ef2b 473e 1c3b 0abf 92fb 66bf de22 9e3b
00000040: 1e66 acbe 0852 0e3f cebb 9abe 32b8 afbe
00000050: 83f2 103e bb5b 14bf c8b0 1bbe 78e7 3fbf
00000060: 1fe5 d5be c31f e33e 9809 a63e c1cc dd3e
00000070: 6680 123f 8d1d 57bd 205b 053f b74e c4be
00000080: e42b 8e3e 9d43 103e c97e acbe c8cd e9be
00000090: 09aa 12be ebd2 42be 8fda fa3d 8887 b5be
000000a0: f1b1 a6bd 5191 49bf 1f3e 56ba 58c8 fe3e
000000b0: 9430 82bf dad9 a5be 5864 b5bd 41c5 b0bd
000000c0: caca e3be 24b3 e6be 4070 f1be c4e2 143e
000000d0: b48a 063d 1fac f1be d6cb 70be 31f5 f43e
000000e0: b5cc e23e b6d4 0ebf 2ba9 103f 5bda 01bf
000000f0: ab2e 83bd b048 42bf 5205 80be 64ab 3bbf
00000100: c663 3dbe a140 5ebf 4678 e43e c7ef f5bc
00000110: 5715 15bf 9efd f0bc d181 74be e630 93be
00000120: e462 88bf 2349 0bbe 0db9 f6bd d31e 183d
00000130: aa15 d33e cda8 cfbe 9834 dabd baa5 623d
00000140: 8c50 d5bd 937d 2a3d 2a9c 3bbf 4fa6 1dbf
00000150: 6c76 7ebe ec80 81be b6d8 acbe 79ae a73e
00000160: fe92 d53d bc67 90be 9215 0fbe 6751 fabe
00000170: 0a37 cabe bc17 a53d df2c cc3e b6ce 8fbf
00000180: 1eeb 643e 83a9 fe3d 0075 0e3f ae55 cabd
00000190: 3f23 a4bf a0cd dabe 1bad 01bf f09b 343e
000001a0: ce6b 033f f240 a73f 9594 acbe ffaa 44bf
000001b0: dd89 683e 2694 c33d ca64 ac3e 1336 cdbe
000001c0: d557 44bf 7185 d0bd 7add 5e3d 6a54 7e3d
000001d0: 9b3d ce3d ead7 17bf 4fe4 5bbd c306 4f3f
000001e0: 45b1 ebbe 40f2 06bf 22fa eebe 04f7 5bbe
000001f0: ff18 6cbf 7fd1 22bf 004c 563f 9bac c53e
00000200: 9dc5 853d ba54 9fbe b752 343e 439c 523e
00000210: ef20 ecbe d93c 68bd 266d 813c 9396 1abf
00000220: b01e a0be c5fa cebe c4f0 233e 1fd8 b1bd
00000230: 250c 6dbe 8e16 71bf 343c eebd 6374 13bf
00000240: 1ef7 acbe fc36 b63e e000 fd3e 4918 c2be
00000250: 45df 433f d8b3 cabe 1f7b d7be 9265 9bbe
00000260: 9c98 2dbe 6566 be3d c452 57be 5095 11bc
00000270: 917a bc3e 47ca 803e dba1 a6be 51de fabe
00000280: 72cd a13e a77c 643e 44d8 953e 401c b4be
00000290: 1777 a73e 60b7 1bbf e77f 65bf da4d 3abe
000002a0: 5b1c 2f3e 718d c13d 1e7b 93bf 153e 483d
000002b0: 7ea1 e03d fe66 04be 5cf0 0fbd 8e68 5bbe
000002c0: 9781 05be b910 10bf 73ba e8be 841b 443e
000002d0: 289e 01bf baa8 b23e f6c3 a5bd 3ed9 a53d
000002e0: bdaa 9a3d fe3f c93e d0a5 8c3e 1767 1abf
000002f0: e827 6a3e 4393 0c3f 576c 23bf b16f 8abe
00000300: 203d 1ebf 17c3 fd3d fa0d b23e 88be a4be
00000310: a80b 4a3f 4df5 14be f539 063e 7c76 ebbe
0.41768292 -0.12517811 -0.2860999 -0.37408262 0.12784748 -0.23042142 0.26232916 -0.23845607
-0.81410587 0.039769243 -0.0136977285 0.40073997 0.19450353 -0.53996444 -0.90227616 0.004825934
-0.3367166 0.5559392 -0.3022141 -0.34320217 0.14155011 -0.5795247 -0.15204155 -0.7496257
-0.41776368 0.4436017 0.32429194 0.43320277 0.5722717 -0.052518416 0.5209217 -0.38341305
0.2776786 0.14088292 -0.3369048 -0.4566481 -0.14322676 -0.19025771 0.12248718 -0.35454965
-0.081394084 -0.7873736 -0.0008172709 0.49762225 -1.0171075 -0.3239277 -0.0885703 -0.08631373
-0.44490653 -0.45058548 -0.47155952 0.14539629 0.03284712 -0.4720163 -0.23515257 0.47843316
0.44296804 -0.5579332 0.5650813 -0.5072381 -0.064053856 -0.7589216 -0.2500406 -0.73308396
-0.18495092 -0.86817366 0.4462301 -0.030021561 -0.58235687 -0.02941781 -0.23877646 -0.28748244
-1.0655179 -0.13602118 -0.120470144 0.03713877 0.41227466 -0.40558472 -0.10654563 0.05533383
-0.10415754 0.041623663 -0.7328516 -0.6158189 -0.24849862 -0.25293672 -0.33759087 0.327503
0.10428427 -0.28204143 -0.13973072 -0.4889023 -0.39495116 0.080611676 0.39877984 -1.1234958
0.22355315 0.124346755 0.5564728 -0.09879623 -1.2823256 -0.42735004 -0.50654763 0.1763761
0.5133637 1.3066695 -0.3370711 -0.7682342 0.2270884 0.095497414 0.33670646 -0.40080318
-0.7669652 -0.10181702 0.054410435 0.062092222 0.10070344 -0.59313834 -0.05368453 0.8086969
-0.46033683 -0.52713394 -0.4667521 -0.21480948 -0.9222564 -0.63600916 0.83709717 0.3860825
0.06531832 -0.3111933 0.17609678 0.20567422 -0.46118876 -0.056698654 0.015799116 -0.6038601
-0.31273413 -0.40425697 0.16009814 -0.086838 -0.23149164 -0.9417504 -0.116325766 -0.5759947
-0.33782285 0.35588825 0.4941473 -0.37909153 0.7651256 -0.39590335 -0.4208612 -0.3035093
-0.16952747 0.09296874 -0.21027666 -0.0088856965 0.3681226 0.25154325 -0.3254536 -0.4899774
0.31602055 0.22313176 0.2926656 -0.35177803 0.32708046 -0.60826683 -0.8964829 -0.1819376
0.1710066 0.09450806 -1.1521947 0.04888733 0.10968302 -0.12929913 -0.035141334 -0.21426603
-0.13037716 -0.56275517 -0.4545475 0.19151121 -0.5063195 0.34894353 -0.08094017 0.08098076
0.07552097 0.39306635 0.27470255 -0.6031355 0.22866786 0.54912204 -0.6383719 -0.2703834
-0.6181202 0.12390726 0.34776288 -0.32176614 0.78924036 -0.145467 0.13108046 -0.45988834

weight f4 [200, 200]
00000000: 6957 49be 9dc8 9dbd b672 9a3d 1a44 663c
00000010: a0d0 3dbd 2f17 a6bd 26bb 96be f207 71bc
00000020: e988 47bd 06ab 14bd ab3c 743d c9cc d03c
00000030: d4d9 01bd 4659 92bd 5d7e 87bd ce79 94bc
00000040: 899e c6bd 588a babc bac6 d7bc 5b73 74bd
00000050: c7c6 383e 40a3 c33c 7573 9d3b 5063 37be
00000060: 8f8b 29be f73b 393d 6b66 ecbd 7dc6 88bd
00000070: 66f2 abbc 242a 78bd e83a bbbb 0819 bdbb
00000080: 0e9c 5d3d e923 c3bb 3e28 19bd 7573 a6bb
00000090: 0094 b8bd fc82 f4bb fe57 10be e76b b73c
000000a0: ffc6 3cbd ca3e d73c a658 9cbd 6e58 98bb
000000b0: d048 31bd 2df0 06bd 97af 393c cfc1 21be
000000c0: 187b c83d 15b1 8dbd cacc d0bd ee85 9fbd
000000d0: c762 b83d 6072 bbbd 7184 cbbd 517b 4c3d
000000e0: a5dd 8abd 0431 073c 0e6f 9bbd 5b96 6abd
000000f0: 757e 173d 9af1 60bd 0b75 e8bd 2670 2f3b
00000100: b2be 53bd 9194 4dbd a2b8 5abe c2be 66be
00000110: e8d7 3ebd 48d8 33bd 7379 eabc a362 b2bc
00000120: 3f2b 253e 8ddc 8fbd a086 41be caa9 5abd
00000130: f44f 8cbd 5508 8dbc 97bd 26bd 9df2 163b
00000140: 333a 67bd 00c5 4d3d f80c 16bd 4f08 29be
00000150: 5793 acbc 9eed 9bbd 6d53 9d3c d481 7fbc
00000160: 75fc 82bd 4413 74bd 0d75 01be 28f9 fabc
00000170: ba89 ddbd b692 9dbc d472 8e3c 97c7 b5bd
00000180: f207 e63c e5ea 8dbd 401c 34bd 40b8 4c3c
00000190: 3762 3c3d 5b8b 703d 683a b93d 3143 40bd
000001a0: 64ce 7fbd 1547 8ebc 83aa 013d 1e80 273c
000001b0: 1c7f 71bd 8512 8abd d337 eabd fcc0 f2bd
000001c0: cd6f 1e3d 365f 97bd 0be8 72bd bfb4 3e3c
000001d0: 35fb 963c 1ee0 97b8 d743 333d f1c9 cebd
000001e0: a81b bbbd 4c1e 043d 516b 57bc 22d5 68bc
000001f0: 4197 5e3d 3593 86bd 1ec1 98bd a466 f03d
00000200: c7c4 303b 1667 11be 26ae 14bd 2f5d abbd
00000210: a82d 38be f679 9ebd 0fbd 27bc 30fd 3abe
00000220: 6e44 13be 6e5d 13bd dc53 73bd e179 403b
00000230: 46f6 95bc 99f6 c2bd 983b c4bd c716 6dbd
00000240: 4611 9ebc 352f 06be 2b13 64bd c73f a9bd
00000250: 4c33 8d3b 9826 3b3b 9b84 6ebe ad6b 9a3d
00000260: 263a 1fbd ad36 0ebd ee2c 19bc 14d1 f7bc
00000270: 4641 96bd 0ddd 113d 208c f43b 0c50 83bc
00000280: c479 7ebd 98cd cd3c cca9 8c3d 5496 9abc
00000290: b85f 32bd 27fc 20bc 1e6e 91bd 3345 61bd
000002a0: 61d1 c0bc 500b b5bd 5d98 8b3c 0e24 9bbd
000002b0: 96b1 283d c028 b43d 1dcb 8ebd af1e 2bbd
000002c0: efe7 b03b 4642 1abd ff97 12bb 8a5e 59be
000002d0: 65ba 133d 783a cc3d 2fa2 acbd 1ee6 96bd
000002e0: 1bd5 ebbd 22fb 51bd 1a3f 6b3d 8400 8d3d
000002f0: a4bb 7fbd 44e8 f6bd 50c2 bcbd d244 ecbd
00000300: a301 ecbb 0512 08bd 550d 88bc 2cbd 023d
00000310: b5ff 0fbe 7784 2fbd 2110 42bd d908 5a3d
00000320: aebc 8d3f a96f c6bf 8f4d 2bbf 878e 943e
00000330: cf3c 9ebf 6e80 fbbe 0a44 85bf f52a 8e39
00000340: 9caa a03e d9b4 9bbf 29d1 8dbf 6c8f 94bf
00000350: ab7c d9bd a370 273e 4cd3 83bf 6d24 8a3e
00000360: 2df0 9fbf 9958 213e be68 a1be 0ece 34c0
00000370: 7840 4b3e 2f38 adbf 31d3 5a3e 7939 b6be
00000380: 93f3 6bbe 0b4d e6bf ee24 92be 60e7 343e
00000390: bc41 1bbe 352f 86be b874 bbbc 55f9 61bf
000003a0: 7009 babe 0fb3 b13e e805 483d 5631 24c0
000003b0: 9bd6 6cc0 7505 8ebf 75ea ecbe 87f9 bb3b
000003c0: f1af 4ac0 5d17 cf3e 0093 7abf 0ecc 43bf
000003d0: 48e7 17bf c100 49c0 dbf8 7dbf 18d6 bdbe
000003e0: 0fdf 09c0 ebf1 f5bf 6a57 b6be b71d a73d
000003f0: 4ef0 2c3e 9da6 1c3e 0ca9 f0be 57be 29be
-0.1966225 -0.077042796 0.075414106 0.014054323 -0.04634154 -0.08109891 -0.29439658 -0.014711367
-0.048714552 -0.036295913 0.05962817 0.025488274 -0.031701878 -0.07145934 -0.06615899 -0.018124487
-0.09698207 -0.022771046 -0.026339877 -0.059680324 0.18044578 0.023881555 0.0048050233 -0.17908978
-0.16557144 0.045223203 -0.11542972 -0.06678484 -0.020989608 -0.060587063 -0.0057138093 -0.005770806
0.054103903 -0.0059552086 -0.037391894 -0.0050796815 -0.09012604 -0.0074619036 -0.14096066 0.022390319
-0.046088215 0.026275057 -0.07634096 -0.0046492135 -0.04328233 -0.032943893 0.011333368 -0.15796588
0.09789103 -0.06918541 -0.101953104 -0.07789217 0.09003215 -0.09152675 -0.099373706 0.04992229
-0.067805566 0.008251432 -0.075895414 -0.057272296 0.036985833 -0.05491791 -0.11350449 0.0026769727
-0.051695533 -0.050190512 -0.21359494 -0.22533706 -0.046592623 -0.043907434 -0.028622365 -0.02177555
0.16129778 -0.070244886 -0.18899012 -0.05338458 -0.06851187 -0.017215887 -0.04070815 0.0023032792
-0.056451987 0.050236702 -0.03663346 -0.16507076 -0.02106635 -0.07613681 0.01920482 -0.015594918
-0.063958086 -0.059588686 -0.12642308 -0.030636385 -0.10817285 -0.019234996 0.017388739 -0.08875959
0.02807996 -0.06929568 -0.043972254 0.0124951005 0.045992102 0.05872665 0.09044343 -0.04693908
-0.06245269 -0.017367879 0.031656753 0.010223417 -0.05895911 -0.067418136 -0.11436429 -0.11853215
0.03868084 -0.07391207 -0.059303325 0.011639773 0.018430332 -7.241986e-05 0.04376587 -0.10097111
-0.091361344 0.032255456 -0.013148145 -0.014210971 0.054343466 -0.06571046 -0.07458709 0.11738327
0.0026972757 -0.1419948 -0.036298893 -0.08367383 -0.17986166 -0.07738106 -0.010237946 -0.18260646
-0.14381573 -0.035977773 -0.059406146 0.002936952 -0.018305909 -0.09519691 -0.09581679 -0.05788305
-0.019295346 -0.13103946 -0.055682342 -0.08264118 0.0043090936 0.002855694 -0.23292772 0.07540069
-0.038873814 -0.03472011 -0.009349091 -0.030251063 -0.07336669 0.0356112 0.0074629933 -0.01602938
-0.062127843 0.025122449 0.06868324 -0.01887051 -0.043548316 -0.009825743 -0.07101081 -0.054997634
-0.02353734 -0.08840048 0.017040426 -0.07575236 0.041184984 0.08796835 -0.069723345 -0.04177731
0.0053987424 -0.03766086 -0.0022368429 -0.2122747 0.03606643 0.099720895 -0.084293716 -0.0736811
-0.11515256 -0.05126489 0.057433225 0.06884864 -0.062434807 -0.1205602 -0.0921675 -0.11536564
-0.0072023435 -0.03322031 -0.01660792 0.03191869 -0.14062388 -0.042850938 -0.047378663 0.053231094
1.1073205 -1.5502826 -0.6691522 0.2901499 -1.2362307 -0.49121422 -1.0411389 0.00027116356
0.31380165 -1.2164565 -1.1079456 -1.1606269 -0.10619482 0.16351561 -1.0298858 0.26980916
-1.2495171 0.15756454 -0.31525224 -2.8250766 0.19848812 -1.3532771 0.21369626 -0.35590723
-0.23042135 -1.7992262 -0.285438 0.17666388 -0.15161794 -0.2620789 -0.022882804 -0.88271075
-0.36335325 0.34706923 0.048833758 -2.5655112 -3.7005985 -1.1095415 -0.46272627 0.005736533
-3.1669886 0.40447512 -0.97880554 -0.7648324 -0.5933728 -3.140671 -0.9920785 -0.37077403
-2.1542394 -1.9214453 -0.35613567 0.081599645 0.16888544 0.15297933 -0.47003973 -0.16576515

bias f4 [200]
00000000: 1f5f 80bd 3c2d f0be e6fe 49be 2712 1a3f
00000010: 6d0a 0abf d38f ecbc 8f6d aebd 9add dbbd
00000020: 3067 babe dd54 27bf 6651 19bf 20fa b4bd
00000030: 8a51 2dbf e0fa a3be c503 d9be d4b1 b43f
00000040: ba06 5ebd 8a1a dcbd 995a 43bd aa45 21bf
00000050: ab0d 6dbe 4308 e1bd 3af6 f43e b80e b3bd
00000060: 306f b4be 4935 79be d053 4dbf 0fe3 a9bd
00000070: af48 24bd e907 58be 574d a6be 6f6a b4be
00000080: 4266 aabe e246 f4be 62c9 f2be 7dd9 09bf
00000090: ba16 53be 31d3 41bd ba7a 24be b6ce 923e
000000a0: 982a 8dbe e018 33bd f229 31be dbcf 11bf
000000b0: b864 17be 2bbd e9bd 1749 3fbe 2114 a1be
000000c0: d975 ccbd 265f 28be 35b1 3ebf 7686 9ebd
000000d0: 1a95 febe 69ff c6bd f83a 04bf 6719 e9be
000000e0: 6bd6 a2be bd86 03be f2d2 a2bd 5abe dbbe
000000f0: a65f 9fbd 5097 65be a063 b2bd f9d1 03bf
00000100: e12a 49be 0b80 e2bd a676 17be b3e9 e9bc
00000110: d4db f0bd 085c 4dbe b7ec 27bd c0ef c8be
00000120: 8d0d 8cbe c803 283e eeac c7bc 1b1a 28bf
00000130: b417 f3bd 709c ccbc 50a7 b4bd 7192 a83d
00000140: 691f cabd 3317 e1be 78c0 e5bd 9652 cbbe
00000150: 4c08 25bf 42a2 b4be 9cd3 58be e7e4 a7bd
00000160: 4ddb 8abd 0cdb f0bc f620 91be 4b73 71be
00000170: 8f9c 22bd 3cce bbbe a074 c43a 5814 bdbd
00000180: 28b3 17bf 671b 94bc f6fb 0dbf eff0 a2bd
00000190: e92c c3bd 0447 fbbd cadc aabe dd21 a13c
000001a0: 0094 acbe 33f7 6dbd eb4c afbe 1623 94bd
000001b0: 727b 3cbe 8f0d 5fbd 6932 24be f249 9dbe
000001c0: 10e8 39be befc 19bc 6d9f 88bd 9933 1bbf
000001d0: 3a32 ddbd ead2 d9be b7cc ac3d 2014 b1be
000001e0: 3de0 0bbf 3b60 71bf 1dfe 923c 26cf 1bbd
000001f0: 4fca aabe 8601 aabe cef6 7c3d a42f f5bd
00000200: b10e 4fbd 4f8a a4bd 59ba 1ebf 87db a7bd
00000210: 4f7a 2fbd abb0 e9bd 314c 4bbd 519b 03bf
00000220: 4966 c6bd 5a2d 3abf 0ba8 6cbe f9ca 4fbc
00000230: 22a1 efbe 4c81 0bbf b6ee 96be e20f d3bd
00000240: f8ac 3bbc 0a96 d6bd 6c5e 7fbe e53b 8dbd
00000250: 42d4 d8bd 4555 11be fdf8 0abf 63f5 6cbe
00000260: 27eb a7be 489a 72be e110 c5bd 17c8 95be
00000270: 65a3 66be e840 babe f8af 14bf fd6b 80bf
00000280: ade9 86bc 6d24 0fbf 637e ebbd 2660 c1bd
00000290: 8ac1 543d dd3f 22bf a643 13be 697b 43bd
000002a0: 6082 b0bd 46ef 92bd c4da 72bd 1546 9dbe
000002b0: 4b89 eebc 233d 00be 7666 1bbf 2787 27bd
000002c0: 4c96 e7be 0409 7dbd 06fd 97bd aa39 d4be
000002d0: 969b 32bf 96d6 45bf adc7 19be 4000 13be
000002e0: b5c4 29be c1b5 c2bd ac13 c93e 4c11 66be
000002f0: 1d7f 0abd 5c49 a1be 5f56 afbe 8c18 933d
00000300: 64f1 f5bd d679 11bf bdfc 00be 3b8d ebbd
00000310: f983 b5be b61e c7be c4ca 80be 2691 1dbe
-0.06268143 -0.4690951 -0.19726142 0.6018395 -0.5392216 -0.028877174 -0.085169904 -0.107356265
-0.3640685 -0.65363866 -0.5988983 -0.0883677 -0.67702544 -0.3202734 -0.42385688 1.4116769
-0.054205634 -0.107472494 -0.047693823 -0.62996924 -0.23149745 -0.10987904 0.47844106 -0.08743042
-0.3524108 -0.24336733 -0.8020601 -0.08295261 -0.04010838 -0.21096767 -0.3248088 -0.35237452
-0.33281142 -0.4771033 -0.47419268 -0.53847486 -0.20614138 -0.04732055 -0.16062441 0.28673333
-0.2757156 -0.043724895 -0.17301157 -0.5695779 -0.14784515 -0.11413034 -0.18680225 -0.3146067
-0.09983415 -0.16442546 -0.74489146 -0.0774049 -0.4972313 -0.09716684 -0.5165248 -0.45527193
-0.31804213 -0.12844367 -0.07950391 -0.42918664 -0.07781915 -0.22421002 -0.08710408 -0.5149227
-0.19645263 -0.110595785 -0.14791355 -0.02855382 -0.11760679 -0.20054638 -0.040997233 -0.39245415
-0.27354088 0.16407692 -0.024374451 -0.65664834 -0.118697554 -0.024976939 -0.08820975 0.082310565
-0.09869272 -0.43963012 -0.11218351 -0.39711446 -0.64465785 -0.35280043 -0.21174473 -0.081979565
-0.067801096 -0.029401325 -0.2834546 -0.23579137 -0.039700087 -0.36680782 0.001498837 -0.09232396
-0.59257746 -0.018079473 -0.55462587 -0.07956111 -0.0953005 -0.122694045 -0.33371574 0.019669468
-0.33706665 -0.058097076 -0.3423837 -0.072332546 -0.18406466 -0.05445629 -0.16034855 -0.30720478
-0.18154931 -0.009398637 -0.06671033 -0.60625607 -0.108005956 -0.42543727 0.08437484 -0.34585667
-0.54639035 -0.9428746 0.017943436 -0.03803935 -0.33357474 -0.33204287 0.06175881 -0.11971977
-0.05055112 -0.08034193 -0.62003094 -0.081961684 -0.042841252 -0.1141065 -0.04963321 -0.5140887
-0.09687478 -0.7272545 -0.23110978 -0.01268267 -0.46802622 -0.54494166 -0.29478997 -0.10305764
-0.011454813 -0.104778364 -0.24938363 -0.068961896 -0.1058736 -0.14192684 -0.54286176 -0.23140483
-0.32796595 -0.23691666 -0.0962236 -0.2925422 -0.22523268 -0.36377645 -0.58081007 -1.0032955
-0.016468847 -0.55914956 -0.11498716 -0.09442167 0.051942386 -0.633787 -0.14381275 -0.047725115
-0.08618617 -0.07174544 -0.059290662 -0.3071753 -0.0291182 -0.12523322 -0.6070322 -0.040900376
-0.45231855 -0.061776176 -0.07421307 -0.41450244 -0.69768655 -0.7728056 -0.15017577 -0.14355564
-0.16578944 -0.09507323 0.3927282 -0.22467536 -0.03381263 -0.3150128 -0.34245583 0.07182416
-0.12008932 -0.5682653 -0.12596412 -0.11501547 -0.3545225 -0.38890618 -0.25154698 -0.15387401
