Vehicles/ModRepeat_forest_2/ModRepeat_forest_2_critic.pth (torch, 353498 bytes, 10 tensors)

weight f4 [200, 15]
00000000: 831a 903d f771 e63d 8e92 7fbe 7bcb 52bf
00000010: 989c f73e a3df fdbe 6a80 88bf 12d0 173e
00000020: de8b f9ba c0cd 5abe cae1 cabd 4f48 143e
00000030: 1563 40bc c20c 213e fdf8 5f3e d816 4cbf
00000040: b473 aabe 7d04 25bf 8083 f83e c50d 283f
00000050: d9fb 813f 054a 1b3f 60e6 0bbf c2c5 9ac0
00000060: 2759 5e3e 93a2 b73d ea57 093f aed4 16be
00000070: 7f84 963e 2e8c 493f a9cd 11bf fdf1 f03c
00000080: 5f1e 53be 86bc 64bf 6ffd f83e 7eda 87bf
00000090: 6cdb 92bf 64ef 41c0 f733 25c0 90a8 8abf
000000a0: c031 973e 365b 8a3e a7f8 9f3e 2598 1c3f
000000b0: 75df 6cbe f075 26be 3f53 443e 5889 b03d
000000c0: a85e 353f 670c dabd 8383 423f 789a a03f
000000d0: 2656 823e 8d90 46bf 038c bebd 74c2 d6be
000000e0: be17 8dbe 0a5e 873e d8b3 90be 8b6e 623e
000000f0: 989b 573e 266b aa3f effc 6abf 4c5a 00be
00000100: 5e11 dfbf 7e29 9cbf 6df8 d6be ca56 fdbf
00000110: c508 d0be 589c 0a3e fcf8 e33d 5162 23be
00000120: 950d adbe b56e 7bbf 296e d1be 8ca6 333e
00000130: 2462 c53e d705 873e e067 79bf 4ac9 8d3f
00000140: 1445 8c3e 0293 37be a332 853f ae2a 36bf
00000150: e1e2 ee3d d83f 98bf 6229 403e e88b 89be
00000160: 5064 38bf 2b44 cd3e 7963 7cbf f041 e0be
00000170: e425 ce3d 3fb4 3c3f 88b4 a73f 8157 09bf
00000180: 7a48 0b3e 8193 393f 2bef d7bd 90b4 95be
00000190: 75f2 f8be bcd0 8d3e e624 ef3e eb33 353e
000001a0: 8fbc 6ebd 77ee 033f 1b89 55bf a618 e1be
000001b0: 8d9a 17bf c2f8 163e 10f3 a5be 9057 57bf
000001c0: e9d9 b2bf f24e ff3e 2d58 37bf 6533 c1bf
000001d0: fad3 833e 07fa 41bf 8d50 ecbf 833e a13e
000001e0: 8ffc 82bf 28ba 0d3d b7c8 1dbe bae4 533e
000001f0: cdf7 de3f b843 b93e c0ed adbe c212 263f
00000200: c159 be3e eddb 743e 86ff 81bf 5d56 94be
00000210: c4b7 3f3e c0cd 6cbf 0405 24be eaf5 cebf
00000220: 49fd 33bf 44fc da3a baff b5be 7616 463f
00000230: 6c3e dc3e 0e83 913f 9061 b1bf 2ec8 2f3d
00000240: abfc 55be abb7 9f3d 46c7 873f 2d02 00bf
00000250: aa8c 5abe 6773 f1bd 491d cabe 4a82 b33c
00000260: 9453 803e 6490 f73e f8f0 0f3e dc26 d5be
00000270: 70ab 263d ead2 0f3f a180 0e3e 00e3 e03d
00000280: f812 ac3e b9d7 08bf 2a9f 91be 5e1d d8be
00000290: 4826 0bbf 9844 053e 52da 7ebc 6b5f 223c
000002a0: 1a55 033f 9f7d b83e 23e7 9b3d 3af3 07bf
000002b0: 3307 cc3e f2f6 b4be d418 493d 36e0 513d
000002c0: e28a 16c0 0ae4 18be 6b97 353e 21d9 203e
000002d0: 344b 203f 628f 653f 8013 38bf f422 df3e
000002e0: 4866 92bf a90c 5ebf 1f9d 503f fad0 1d3e
000002f0: 08a0 1c3f 2150 d23e 3cab e1be f42d 63be
00000300: 15c3 f8be fb75 a4bf e0d6 803f 0121 3ebe
00000310: d142 acbd ad3d b1be 4371 8e3f 6e49 a53f
00000320: b593 4c3f 9cad 2bbe 8059 cdbe 9cf4 98bd
00000330: fd49 dc3b 8f19 afbd cf39 c53e e31e 99bd
00000340: 1e83 14be fbc5 783f 7e3e 41bf e5a2 c6bf
00000350: 5d2c 83be 0739 8ebf d10a 78c0 82ee 83c0
00000360: 626e 47c0 0ee4 54c0 ce6d 18c0 91a5 89bf
00000370: 6924 853f 012e 113f 5d4e 133f d361 913e
00000380: dc0f e6be 75c9 563d c3cd da3c 132b 1cbd
00000390: 78a7 05bd 59e2 013d e3e1 913c 43a9 8fbe
000003a0: 1158 45be f782 94be b7ac a3bb 3278 b2bb
000003b0: 52cf 89be 0efe bf3d 6e10 cfbd 850b 1b3d
000003c0: cf60 713d ea59 e33c 1f3f 69bf cf30 15be
000003d0: 0493 10bf fdd5 2fbf ea4b 853e e9b2 083f
000003e0: d898 45bd 545e 313f 7a25 c7bf 379b 80bf
000003f0: 83f5 91bf 6a06 84bf 68eb 113f 75a9 f3be
0.07036307 0.11252206 -0.2495825 -0.82341737 0.4836166 -0.49584684 -1.0664189 0.14825466
-0.0019038876 -0.2136755 -0.09906347 0.14480709 -0.011742373 0.15727523 0.21872325 -0.79722357
-0.332914 -0.64459974 0.48537827 0.6564601 1.0154983 0.6065982 -0.546484 -4.8366404
0.21713696 0.089665554 0.5364977 -0.14729568 0.29397961 0.7872952 -0.5695444 0.029412264
-0.20617054 -0.89350164 0.48630854 -1.0613554 -1.1473212 -3.0302362 -2.5812967 -1.0832691
0.29530144 0.27022713 0.31244394 0.61169654 -0.23132117 -0.16255927 0.19172381 0.08619946
0.7084756 -0.10646897 0.7598192 1.254714 0.2545635 -0.77564317 -0.09304049 -0.4194523
-0.27557176 0.26438934 -0.2826221 0.22112481 0.21055448 1.3313949 -0.91792196 -0.12534446
-1.7427175 -1.2200162 -0.4198641 -1.9792111 -0.4063169 0.13536203 0.111314744 -0.15955473
-0.33799425 -0.982158 -0.40904358 0.17544001 0.38551438 0.26371643 -0.97424126 1.1077054
0.27396452 -0.17927173 1.0406078 -0.71158874 0.116643675 -1.1894484 0.18765786 -0.26864552
-0.72028065 0.4009107 -0.98589283 -0.43800306 0.10065821 0.73712534 1.3101969 -0.53649145
0.13601866 0.724907 -0.105436645 -0.2923932 -0.4862248 0.27698314 0.4670784 0.17695586
-0.058285292 0.51535743 -0.8341233 -0.43964118 -0.592202 0.14743331 -0.32412004 -0.84117985
-1.3972751 0.49864918 -0.7161892 -1.5093809 0.25747663 -0.75772136 -1.8462082 0.31493005
-1.0233325 0.03460136 -0.15408598 0.20692721 1.7419373 0.36184478 -0.3397045 0.6487237
0.37177852 0.2391202 -1.0156105 -0.2897214 0.18722445 -0.9250145 -0.16017538 -1.6168797
-0.7030836 0.0016707261 -0.35546666 0.7737802 0.43016374 1.136812 -1.3857899 0.042915516
-0.20897166 0.07798704 1.0607688 -0.5000332 -0.21342722 -0.117895894 -0.39475468 0.021912713
0.25063765 0.4835235 0.14056766 -0.4163121 0.04069084 0.56181204 0.13916256 0.10980797
0.33608222 -0.53454167 -0.28441745 -0.42209905 -0.5435529 0.13014448 -0.015554981 0.009910445
0.5130173 0.3603334 0.07612445 -0.5310551 0.39849243 -0.35344654 0.049095944 0.051239215
-2.3522267 -0.1493074 0.17733543 0.15707828 0.6261475 0.8967191 -0.71904755 0.43581355
-1.1437464 -0.8673807 0.8148975 0.1541175 0.6118169 0.41076759 -0.44075954 -0.22185498
-0.48586336 -1.2848505 1.0065575 -0.18567277 -0.08411182 -0.34617367 1.1128315 1.2913034
0.79912883 -0.16765445 -0.40107346 -0.074685305 0.0067226873 -0.08549797 0.38520667 -0.07476594
-0.14503142 0.97177094 -0.7548598 -1.5518461 -0.25619784 -1.1111153 -3.8756602 -4.1228647
-3.1161122 -3.3264194 -2.381702 -1.0753652 1.0401736 0.5671082 0.5754145 0.28394946
-0.44933975 0.05243822 0.026709443 -0.038127016 -0.032630414 0.031710003 0.017807906 -0.28058824
-0.19271876 -0.29006168 -0.0049949544 -0.0054464573 -0.26915985 0.09374629 -0.101105556 0.037852783
0.058930214 0.027752835 -0.9111194 -0.145694 -0.5647433 -0.68685895 0.2603448 0.53397995
-0.048241466 0.6928456 -1.5558312 -1.0047368 -1.1403049 -1.0314457 0.56999826 -0.47590223

bias f4 [200]
00000000: 2efc 203e 7d06 943d d367 713e 4ec5 db3d
00000010: d2f7 013e f798 353e 2a38 cebd 8281 f83e
00000020: 4e6b 9a3e bdc6 35be d583 57bf 1741 ba3e
00000030: 5b83 2fbf e498 d1bd 61f6 d9be 9d42 19be
00000040: efe6 913d cc16 843e 0722 fdbe d864 c53e
00000050: caae 283f aba8 543f 6dc5 13be fba6 9a3f
00000060: f0ad 43bd a263 093f 703c fdbe b8f5 54be
00000070: ee19 be3d 7858 5e3f 3a98 f1be 607a edbe
00000080: b2dc 36bf 41c2 90be 5ba7 44bf 650f 36bf
00000090: ce11 523e 4011 313f ca1d 3fbf 27e0 27bf
000000a0: b1c4 54bf ea86 97bc e838 51bf db63 003f
000000b0: da66 f1bd ef82 183d 5d04 2fbe f846 9ebf
000000c0: ed75 fdbd eff8 01bf 3a62 953c 3baa 70be
000000d0: 0499 b43d fa29 e63e bf02 ce3c 3655 1cbf
000000e0: 8c89 7dbd e630 11bf e61c a1be 93c1 5a3e
000000f0: b7ce 3dbf adef 61be dcf7 f9bd 63af 4abf
00000100: b82f b5be 03c2 973f d6c7 8a3b 8c04 b2be
00000110: 357b 873e b934 19bf 3219 fabd 93c4 c7be
00000120: f645 bb3e 7e1b adbe 9079 05bf edbd cebe
00000130: 8928 2abe 4f6d e6bd ef9d c9bd 0e76 133f
00000140: 99fa 0f3f ee4d 40bc dbe7 833e 8368 9e3e
00000150: 7d69 853e 1919 9c3d ebda cbbe 8060 a33e
00000160: bfc4 173e c483 81bf ff92 b6be df8c 65be
00000170: d112 3fbf d9f4 953e cf73 303d 03ed 253d
00000180: a926 61be 5bb2 b8be e899 1b3f 61ba 523f
00000190: c418 6ebd bdc1 c43d 31fe dd3d b316 d9be
000001a0: 4194 ebbc 9452 17be e528 8d3e e1fc 78be
000001b0: 2dda edba 2b2b 1f3f 877c 6bbe 84ec b9be
000001c0: 1c5e 5abf 3392 923e 27be 483e 18d7 4d3e
000001d0: 8000 52bf 602d a4be dfe9 243d 6841 5a3f
000001e0: 3b14 813e d71d 14bf 8141 2dbe f3ab 8cbd
000001f0: 2bd9 26bf 338d 45be cb4f f33e 3d75 d23e
00000200: e438 ad3e 6c91 8abf f2f0 413f de78 a8be
00000210: f519 8bbf ece5 aabe a340 dbbe b64d 243f
00000220: b958 243e 83c8 873e cf8a 70be 65aa d8bd
00000230: a907 d9be be17 6fbe c64c cbbe 932e 683e
00000240: e41e 5b3d 7d99 e1be 90a1 0cbf c2cc 50bd
00000250: 6d33 013e 3d1f 0cbf a421 48bf 4189 8abe
00000260: d57f ab3e fafc d2bd 996f 8d3b 60dc 603e
00000270: fa35 653e d39a 46bf 0726 babd 326c bbbe
00000280: e828 9cbe 704a 213f 4542 733e b7a2 53bf
00000290: 13f4 0b3f 7e71 4f3e 0620 84bf dc53 bcbe
000002a0: d5c5 2cbf defd f03b c0a5 75bf b8e9 04bf
000002b0: 8139 cb3e 2c0c 95be ed6f af3d f571 963d
000002c0: 72b0 893e cf85 07be 76ab 39bd 14c4 a9be
000002d0: 7283 de3e ed80 b73d 4479 6cbe 7986 2f3f
000002e0: 21f4 e83e 30df 893e 9ffb 9f3e e932 3b3c
000002f0: 66ee cebe 5b3d 1c3f 8cf3 a0be f90b 7dbe
00000300: 2dfb c6be 01ad 53be fdee 2dbf 9a56 9c3e
00000310: 7fa5 e3be d88a 08bf 9402 fdbe f578 f2be
0.15721199 0.072278 0.23574762 0.10730992 0.12692192 0.17734133 -0.10069306 0.48536307
0.30159992 -0.17751594 -0.84185535 0.36377785 -0.6855981 -0.1023424 -0.42570785 -0.14966817
0.07124125 0.25798643 -0.49440023 0.385535 0.65891707 0.83069867 -0.1443078 1.2082208
-0.0477733 0.5366765 -0.49460173 -0.2079686 0.092822894 0.8685374 -0.47186452 -0.46382427
-0.71430504 -0.28273204 -0.76817864 -0.7111724 0.20514604 0.69166946 -0.7465483 -0.65576404
-0.8311263 -0.01849695 -0.8172746 0.5015237 -0.117871955 0.037234243 -0.17091508 -1.2365408
-0.12376008 -0.5077047 0.018235315 -0.23502438 0.08818248 0.449539 0.025147794 -0.6106752
-0.061898753 -0.5671524 -0.3146736 0.21362905 -0.74143547 -0.22064085 -0.122054785 -0.7917387
-0.3538797 1.1856083 0.004235248 -0.34769094 0.26461187 -0.59846073 -0.12211837 -0.39017162
0.36576813 -0.33810037 -0.52138615 -0.40379277 -0.16617025 -0.11251318 -0.098445766 0.5760201
0.56241757 -0.01173733 0.2576283 0.3093911 0.26057044 0.076219745 -0.3981546 0.3190956
0.14821146 -1.0118337 -0.35659024 -0.2241702 -0.74638087 0.29288366 0.043079194 0.040509235
-0.21987404 -0.36073574 0.6078172 0.8231564 -0.058129087 0.09607265 0.10839499 -0.4240013
-0.028757216 -0.14777595 0.27570263 -0.24315216 -0.0018146686 0.62175244 -0.22996722 -0.3631326
-0.8529985 0.28627166 0.19603787 0.20101583 -0.8203201 -0.32065868 0.0402621 0.8525605
0.25210747 -0.5785803 -0.16919519 -0.06868734 -0.6517512 -0.19292144 0.47521815 0.4110507
0.33832467 -1.0825629 0.7575828 -0.32904714 -1.0867296 -0.3337854 -0.4282275 0.6418108
0.1604947 0.26520166 -0.23490451 -0.10579375 -0.42388657 -0.233489 -0.3970701 0.22674017
0.053496256 -0.44062415 -0.54934025 -0.050976522 0.12617274 -0.54735166 -0.7817633 -0.2705784
0.33495966 -0.10302158 0.004316282 0.21959066 0.22383872 -0.77579993 -0.090892844 -0.36605984
-0.3049996 0.6300421 0.23755749 -0.8267016 0.546693 0.20258138 -1.0322273 -0.3678273
-0.6748937 0.007354482 -0.9595604 -0.51919127 0.3969231 -0.2911085 0.0856627 0.07345954
0.2689243 -0.13234638 -0.045329534 -0.33157408 0.4345966 0.089601375 -0.23093134 0.68564564
0.45498756 0.2692809 0.3124666 0.011425712 -0.4041626 0.6103112 -0.31435812 -0.24711598
-0.38863507 -0.20671465 -0.6794279 0.30534822 -0.444622 -0.5333686 -0.4941603 -0.47357908

weight f4 [200, 200]
00000000: 252f 80bf de75 17be b3ef 8fbf c61f d13e
00000010: 5569 72be 58e4 ae3d 1b0d 33be da67 913e
00000020: 39f0 6bbd af43 6f3e 4bd0 9d3d df7f eebd
00000030: a38a 38c0 0640 0d3c 06aa e63f 6433 053c
00000040: 1742 2b3f bb4a c03e ab89 abbf 3127 c93e
00000050: 5683 a03e 2fdd d7be 33eb 79bf cbd5 1d3f
00000060: 0732 7bbf b96d d53e 30a0 20bf 7302 18c0
00000070: 40bd 9dbf 132c 0a3f 8293 213e 4416 ab3e
00000080: c2fe 78bf 225b 03bf 62aa c23e f3f1 8fbf
00000090: 5f20 983f 8dc6 de3e db59 96bf 9d4b 8abe
000000a0: f3a8 7cbd 30df 453e 7d50 abbe ca54 e0be
000000b0: f211 78bf 3303 953f 7bf0 03bf 40d6 a4bf
000000c0: 364c b6be 4fd1 543d 1fdc e4be ac3e 60bd
000000d0: 37a3 ec3f 8084 873f 38f6 c93f 2ba6 6abf
000000e0: 11c2 bc3e 6167 973e 3860 61bd 4a12 953e
000000f0: 97c7 04bf 98d5 05bd 16a9 94bf 71dd 333e
00000100: d098 b7bf 9428 1a3e 24cb 503e 5baa debe
00000110: 78bf c1bf f486 5bbf 671d d7bf 9d12 903e
00000120: 314b 85be c0d7 77c0 ac60 23be 1294 a0bf
00000130: c0cc 4ebd 695a 903c fd86 e3bd 8f03 63bd
00000140: 4cc6 01c0 c336 5d3e 808a 2bbf 90b8 8fbf
00000150: 1180 4cbe cfb3 2c3f 1ff0 e5be 9fcd 46bf
00000160: 61d0 04bf 32dd 973b 1d96 efbf 38fa 4a3f
00000170: c5dd 0cbe 9269 a5bd a796 66be 437e e9bc
00000180: 7768 d1bf 87ee 693e 6748 6e3e 5838 2bbe
00000190: 0cce 8d3e a92f 9d3f 7e50 1a3f 96bf 393e
000001a0: 5cb7 d03e 071d 513f 0dfc b53e b257 87bd
000001b0: 9326 cf3e 9383 dabe cf07 ea3e d26d 393f
000001c0: b598 4dc0 40c7 16c0 03ec a5bf b84e ed3e
000001d0: 682c 8f3f 89c3 0dbe c4a0 b43d 07bb 8bbe
000001e0: 9793 c73f 0de4 833e ccd7 263f 6e72 b5bf
000001f0: c1a8 7fbf fdca 3bbf 47b9 36bf 4573 983d
00000200: 1718 503f b0ac 6cbf 3352 94be 37f6 bebf
00000210: 78c0 aabf 6457 92be a8bd 9abf 8d5d 40bf
00000220: 9d62 a63f b022 c6be dcf3 fcbe f960 bebe
00000230: 1b85 58bf e767 d23f 06e7 02bf 91aa 02be
00000240: 194e 323e 9b16 2bbe ac61 d2be 5617 0d3f
00000250: 8a6f 98bd e5ea a4be 5dc8 71bf 3940 fbbe
00000260: b9ee e03d 554b 5ec0 f4ff 46bf ac98 283e
00000270: 7f5a 99be 34b9 513e 85a2 ac3e e8bf bb3e
00000280: 82cb c6bc 09f1 f9be a898 31bf b0a6 12be
00000290: 0eb3 dcbf 6cda 5cc0 3db6 b3bf 5c5d bdbf
000002a0: 7883 743f bd43 3d3f 421e 80be 1f80 f93e
000002b0: 8bff 583d e406 60bd 97a5 cfbd f749 8b3f
000002c0: bce9 993c 6f55 de3d 254b 97bf 9c1e c13e
000002d0: 5f5e 86bd 1a53 3dbf ed96 cbbe d0af d03f
000002e0: 49ef db3e fd82 e03e 3412 44be 6135 e33e
000002f0: 5f96 123d a7d8 bdbe 9306 93be 2c93 1bbd
00000300: 4275 2c3e b77a 2d3f 2f63 2e3e 80cd 1b3d
00000310: abef 1ebd 0f92 e33d 4961 0c3f ed8a 7fbe
00000320: 969b 443f 7406 adbf 0d6d 8b3d 4ac6 493e
00000330: 8196 cfbf 24f0 3c3f 8150 6cbe b802 81bc
00000340: 385d 10be 809f bdbe 0395 2a3e 4ad6 8bbd
00000350: 5d23 713f 3df3 f63c bc22 b53d 3dfb 56bc
00000360: 861c 953c f861 28bf 50dd 17bf 9573 dabd
00000370: b07f 6fbe 617d 04bd 6653 9d3d 30e3 c23d
00000380: a272 85bf ece0 973e 04a0 12be 25c2 99bf
00000390: e642 a2bf 1555 98be 444f fabe 7f46 233f
000003a0: 5113 073e 92e2 253f 395d bd3d 452d 66bf
000003b0: 3ea3 983f 5671 1cbe 438e 51bf 44b4 7ebc
000003c0: 0b1d a0bc d9da b53e c8dc b2be 38db 5dbf
000003d0: 30b3 3dc0 de3f 4bbe 42ee d43d e09a 423e
000003e0: 5270 0c3d a14d 0fbe ec29 6e3f 3ee0 30bd
000003f0: 0e61 753d 4375 b13e d61c 793d 9cee 90bf
-1.0014387 -0.14791057 -1.1245025 0.40844554 -0.23672993 0.08539647 -0.17485468 0.28399545
-0.05760214 0.23365663 0.07705744 -0.11645483 -2.8834617 0.008621221 1.8020637 0.008129928
0.6689772 0.37557015 -1.3401388 0.39287713 0.313502 -0.42160937 -0.9762451 0.6165435
-0.9812321 0.41685274 -0.62744427 -2.3751495 -1.232338 0.539735 0.15778926 0.33415425
-0.9726373 -0.5131093 0.38020617 -1.1245712 1.1884879 0.43510857 -1.1746172 -0.27010813
-0.06168456 0.1932342 -0.33459845 -0.4381469 -0.9690238 1.1641601 -0.5153882 -1.2877884
-0.3560502 0.051957425 -0.4469919 -0.05474727 1.8487309 1.0587311 1.5778265 -0.916598
0.3686681 0.2957106 -0.055023402 0.29115516 -0.5186705 -0.032674402 -1.1614101 0.17564942
-1.434351 0.15054542 0.20389992 -0.43489346 -1.5136557 -0.857528 -1.6805848 0.281392
-0.2603393 -3.8725433 -0.15954846 -1.2545187 -0.050488234 0.017621236 -0.11109731 -0.055423316
-2.027728 0.21602921 -0.6700821 -1.1228199 -0.19970728 0.67461866 -0.4490976 -0.776575
-0.5188046 0.004634523 -1.8717686 0.79288054 -0.13756473 -0.080767766 -0.22518407 -0.02850259
-1.6360005 0.22844897 0.23269807 -0.16720712 0.27696264 1.228017 0.6027907 0.1813949
0.40764892 0.8168492 0.35543862 -0.066085234 0.40459117 -0.42678508 0.45709082 0.724332
-3.2124455 -2.3559113 -1.296265 0.4634912 1.1185427 -0.13844122 0.08819726 -0.27291128
1.5591916 0.25759926 0.6517303 -1.4175546 -0.99866873 -0.7335661 -0.7137646 0.07443861
0.8128676 -0.92451 -0.28968963 -1.4918889 -1.3339987 -0.285823 -1.2089128 -0.7514275
1.2998844 -0.3869834 -0.494048 -0.3718336 -0.845781 1.6437958 -0.51133764 -0.12760378
0.17412604 -0.16707842 -0.41090143 0.5511373 -0.074431494 -0.3221046 -0.94446355 -0.49072435
0.10983033 -3.473348 -0.77734303 0.1646449 -0.29951856 0.20480806 0.33717743 0.3666985
-0.024266962 -0.48816708 -0.6937356 -0.14321399 -1.7242143 -3.4508314 -1.403999 -1.4794116
0.95513105 0.73931485 -0.25023085 0.4873056 0.05297808 -0.05469407 -0.10139006 1.0881947
0.018788211 0.10856139 -1.1819807 0.37718666 -0.065609686 -0.7395493 -0.39763585 1.6303654
0.42955998 0.43849936 -0.19147569 0.44376662 0.035787936 -0.37079355 -0.28715953 -0.03798215
0.16841605 0.67765373 0.17030023 0.038037777 -0.038802784 0.11111843 0.54835945 -0.2495534
0.76799905 -1.3517594 0.06807909 0.19704548 -1.6217805 0.73803926 -0.23077585 -0.015748367
-0.1409806 -0.3703575 0.16658406 -0.06827982 0.94194585 0.030145282 0.08844516 -0.013121423
0.018202078 -0.6577449 -0.5932207 -0.10666577 -0.23388553 -0.032346133 0.076819226 0.09515989
-1.0425608 0.2966379 -0.14318854 -1.2012373 -1.2676666 -0.29752412 -0.488886 0.63779444
0.13190962 0.64798844 0.092462964 -0.89912826 1.1924818 -0.15277609 -0.818577 -0.015545908
-0.019545099 0.3551853 -0.34934068 -0.86662626 -2.9640617 -0.19848582 0.103970066 0.19004393
0.034286804 -0.13994457 0.9303272 -0.043182604 0.05990701 0.34659776 0.060818516 -1.1322818

bias f4 [200]
00000000: 7f15 1fbe 950b 263d 3539 20be 0147 5bbf
00000010: 9ee4 0abe 3bc2 b3bd 1a7a bcbe a26f 35bf
00000020: b1c8 b2be 5057 38be 9a95 7abd 12d5 4cbd
00000030: 1501 93bd ed06 37bd 4ea1 6ebd d1ba 12bf
00000040: d094 dfbd 7972 dcbd 3a62 99bd a9af 033f
00000050: 7048 84bd b34b 643e 5410 783e e7c5 a8bd
00000060: 89e0 50bd 032d 06be f4bf 27be 1570 44be
00000070: 44ef 93be c2ba c0bd 2088 f73e 2bb1 00be
00000080: abf1 63be 5227 dcbe aa97 c8bd f6c6 93be
00000090: cec1 4c3e a44a 013e 268e 28bf 37a7 833d
000000a0: f2d2 a93d ea8d 043e 12aa b03e 140d 1f3e
000000b0: 8ae8 03bf 2a00 11bf 1e4c f5be 522d 50bd
000000c0: 6a17 65be 3381 0bbf 5243 6abf a106 b2bd
000000d0: 21df 15be e14f 1dbf f0c6 cbbd 3f63 64be
000000e0: 1520 b5bd e4e1 1abd 3d15 c0be 742e b5bd
000000f0: 28b9 cb3e eae8 143e 050c c9bd db25 38bf
00000100: a7de 51bd 2fc0 c3be 1bd9 fdbd 6952 513d
00000110: 928a 35bf c3c8 9e3e a525 bbbe b12b 3bbd
00000120: 40e6 9cbd dedf 5f3e 78eb e13e 3e11 583f
00000130: db9e 233f b740 88be 6bde f9bc fd6e edbe
00000140: 3da8 bbbd fc91 ad3e f7e5 3b3d c270 7dbc
00000150: fde3 8abd 997e 20be 715d 9ebe b99d b2bd
00000160: 282c 5d3d e58f cbbe 7b8c b4be c5c8 64bc
00000170: 5606 673d 8174 19bf 5e6f 39bf 218f e5bd
00000180: 5c26 1ebf 18fe a7bc 6a58 a6bd 542b 96bd
00000190: 41f5 bfbd 47f9 2bbd 885b 78bd dfdb 59bd
000001a0: d83f abbd 6515 36bf 6003 40bd 65a1 d7be
000001b0: 65f9 2b3e e0c8 9ebd 013f 1dbe 239c 46bf
000001c0: 7b61 bdbd d2f4 96bc 3b40 85be 6936 25be
000001d0: 6af0 4cbe dc34 1abd ab57 02be 7acf 61bd
000001e0: 473a cbbd 5e86 7dbe 052b 5ebe e15e 00bd
000001f0: 17b0 0abf 5667 eebc 29ba febe 87dd bdbd
00000200: 97c0 dfbe 7e03 013f dde3 44be 5314 27be
00000210: 49f6 cbbd 4128 8fbe 49e9 96bd 60c9 50bc
00000220: 7f2f b6bd e419 51bf 1f29 bbbe 890a efbe
00000230: a76d 373f 6540 88be fd1e df3e 83b2 d2bd
00000240: 42b9 e1bc 3a38 e1be d9c5 cbbd d926 78bb
00000250: 035e 4f3e cb6e 43bd d84c c5be 5ab8 28bd
00000260: 87ee 8fbd 4c96 323d 0039 d5be 5367 de3d
00000270: 49b1 b83e 6932 b2bd d519 843e f7c6 c2bd
00000280: f6fd 1abe f307 6f3e 11f2 393f 73ce b83e
00000290: 187d 8ebd 257a a4be d641 82be 85a7 903e
000002a0: 6974 2cbd 5973 58bf f9b2 39bc 8f32 943c
000002b0: c4df 43bf e9c9 cabe ec40 d1be 9af4 c8bd
000002c0: c51f c2bd c4fb 05be 3b66 76bd 9a00 b7be
000002d0: 1e54 763d 8143 ddbe 6086 d13e 5d81 8f3b
000002e0: e671 f5bd f1b3 e33e 6243 26be 2f37 abbd
000002f0: 25bf 65bd c7a6 29bf ed80 66be b44e 69be
00000300: 5a3b 1ebf a5bd 5fbd e2f0 f4be 34f5 cd3e
00000310: 0f02 7cbe 5634 9bbe cf76 33bd 8530 58bf
-0.15535544 0.04053839 -0.15646823 -0.8565522 -0.13563773 -0.08777281 -0.36811906 -0.70873463
-0.3491874 -0.18002057 -0.061177827 -0.050007887 -0.07177941 -0.04468434 -0.0582593 -0.5731631
-0.109170556 -0.107640214 -0.07489438 0.5143991 -0.06459129 0.22294502 0.24224979 -0.08240872
-0.050995383 -0.13103108 -0.16381818 -0.19183381 -0.28893483 -0.09410621 0.48346043 -0.12567584
-0.22260158 -0.4299875 -0.097945526 -0.28862733 0.19995806 0.1262613 -0.658419 0.06428378
0.08292188 0.12944761 0.34504753 0.15532333 -0.515267 -0.56640875 -0.47909635 -0.05082447
-0.22372213 -0.5449402 -0.9150897 -0.086926706 -0.14635898 -0.6145001 -0.09950054 -0.22303484
-0.0884401 -0.037813082 -0.37516204 -0.08846751 0.397897 0.14541975 -0.09816746 -0.7193276
-0.05123773 -0.38232562 -0.12394925 0.051103983 -0.70914567 0.31012544 -0.36552158 -0.045695964
-0.07661104 0.21862742 0.4412496 0.8440131 0.6391427 -0.26611874 -0.030501565 -0.4637374
-0.09162948 0.3390044 0.04587361 -0.015468778 -0.067817666 -0.15673293 -0.30930665 -0.087214895
0.05399719 -0.3975822 -0.35263428 -0.013963883 0.056402527 -0.59943396 -0.7243556 -0.1120894
-0.6177728 -0.020506904 -0.081223324 -0.07332483 -0.0937295 -0.041985776 -0.060634166 -0.0531882
-0.083617866 -0.71126395 -0.04687822 -0.42115322 0.16794355 -0.077531576 -0.15356065 -0.77581996
-0.092471085 -0.018427286 -0.26025566 -0.16134037 -0.20013586 -0.037648067 -0.12728755 -0.055129506
-0.09923225 -0.24758288 -0.21696098 -0.031340484 -0.5417494 -0.029102009 -0.49751404 -0.092707686
-0.43701622 0.50395954 -0.19227548 -0.16316347 -0.099590845 -0.279604 -0.07368714 -0.012743324
-0.08895778 -0.8168013 -0.3655481 -0.46687725 0.7165169 -0.2661163 0.4357833 -0.10287955
-0.027554158 -0.4398821 -0.09949846 -0.0037864952 0.20250706 -0.047713082 -0.3853519 -0.041191436
-0.07027917 0.043600366 -0.4164505 0.10859551 0.36072758 -0.08701021 0.25800958 -0.09510606
-0.15135941 0.23342876 0.7263499 0.36095008 -0.069574535 -0.3212444 -0.25440854 0.28252807
-0.042103205 -0.84551007 -0.011334174 0.018090514 -0.76513314 -0.3960717 -0.40869844 -0.09812279
-0.09478716 -0.13084322 -0.06015609 -0.35742646 0.060138814 -0.43215564 0.40922832 0.004379435
-0.11984615 0.44473222 -0.16236642 -0.08360135 -0.056090493 -0.6627011 -0.22510119 -0.22783929
-0.61809313 -0.05462422 -0.4784003 0.40226138 -0.2461016 -0.30313367 -0.043814477 -0.84449035

weight f4 [1, 200]
00000000: 5d8a 343e abc3 1fbe 8d04 7f3d e7a6 c3be
00000010: a52c 2c3d cac4 79bc 87ad a4be ca7c cc3d
00000020: cc03 eebe 187f b8bb df15 84bc ef1a bebe
00000030: ae97 3ebe 34f7 08bf e8c8 c9ba 2931 673e
00000040: e286 65bc 4906 b7bd 80e1 e1bc b48a 863d
00000050: c99a c53b d799 313e 25d1 6abe 8c03 b0bc
00000060: aebe 0abc 32b8 75bb 522d 97bf 83ac 0e3e
00000070: c66f 8a3e b821 c2bb 0967 803e 034f 223c
00000080: d2aa 853e 7aa0 4ebe 9373 ff3a 1581 97be
00000090: f2f9 6c3d f338 07be 17c5 62bf ac85 9c3d
000000a0: 0cfd 3ebf 5cf6 60be 412c 483d 9cee 3dbe
000000b0: 0b99 0fbf b6ec 03bf f503 bbbe 2e62 783b
000000c0: fe5b 60bf fd75 37be e4b4 12be 33c4 97bc
000000d0: e95e c5ba b4c3 b1be 1cd5 33be b0d7 d63e
000000e0: 05a9 b63c 0028 cdbd 99b4 90be f614 ce3d
000000f0: ae34 84be 097f 02be 1427 13bd ae69 36be
00000100: 768b f4bc da0a 79be 784a 433e 78da 43be
00000110: 47fe 69be 5968 633d d2d0 6c3e 89a0 e73b
00000120: 2a20 ed3a 0e8a 863e 5530 353e 8099 573d
00000130: f626 d43d be0e 04be 1008 133c 9e66 a9bf
00000140: 52f1 e03c b048 ff3d 54f0 b9be fd84 8cbc
00000150: 650d e83b d6c5 47bf f896 90be 57fa d33e
00000160: ab4a 163e eda9 b53e 0783 60be 3297 503b
00000170: a73a 05bf a304 33be e108 3bbe 9b27 36bc
00000180: 3e02 523e c779 d73c 9128 94bd dab3 fcbc
00000190: ec81 83bc f610 1bbc b1c3 d0be 54f5 c13d
000001a0: 068f c33c 584e cebe 8678 26bc 9832 3abe
000001b0: 16c0 6e3e dd07 043d 525a 85bd 5218 a9be
000001c0: 191c f6bc 4eba 7a3a fda6 873e 0d33 10be
000001d0: 0dda 2d3f 054e 993c 2f36 fc3c 77c1 813e
000001e0: 7346 f83c 8b1e 3a3e 897b 473e 59d7 59be
000001f0: a307 36bf 1e90 75bd 5dc2 2cbf 98f6 e6be
00000200: 1885 26bf 2fb6 8a3e beed e8be 4144 29bc
00000210: 3955 67b9 e2cc 863e 5369 7cbb cf5a ee3c
00000220: a6f4 173c 7912 2bbe 71fc 3cbf 2a0a 2bbe
00000230: ad86 5f3d a340 cdbf 07b1 8b3e 77b6 073a
00000240: ced2 313d 1163 633e e708 303c 6978 2dbe
00000250: ab01 ae3d 2439 a3bc e8fa b1be ebf0 48bc
00000260: bcd4 0d3d 3aa2 0d3e d3f4 e5be f91c c83e
00000270: c925 073e 313e 5a3c c8bc 003e 2778 193e
00000280: 8789 0b3e 0ded 0a3e 58d5 403d e4e0 1abe
00000290: c3f9 fe39 c631 ffbe b813 1fbf e5d7 123e
000002a0: 5d8b d7bc d527 08bf 5348 89bc 5212 bb3d
000002b0: 9173 9abe daa9 12bf 40e5 a03f e131 b4bb
000002c0: 1020 82bf d290 133b f6f3 acbd fb3e 3bbf
000002d0: 1914 76be a5ca 6d3e b325 a13d b7a2 643c
000002e0: cd4e c6bc ab04 603d 656c 19be 3713 e23c
000002f0: 5e46 ebbb b786 a4be a08f e23d edaf 2f3f
00000300: 66b8 2a3e b9be df3b 6b2c 9fbe 941e 7fbe
00000310: 3b0a 52bf ce83 b23d aca1 213b 88c6 bbbe
0.17630906 -0.15601985 0.0622602 -0.38213274 0.042034764 -0.015244672 -0.3216364 0.09984739
-0.46487272 -0.005630385 -0.01612371 -0.37129924 -0.18612549 -0.535022 -0.0015394958 0.22577347
-0.014009209 -0.08936746 -0.027573347 0.06569424 0.0060304147 0.17343841 -0.22931345 -0.021486066
-0.008468313 -0.0037493822 -1.1810706 0.13932995 0.270384 -0.0059244297 0.2507861 0.009906533
0.26106888 -0.20178404 0.00194894 -0.2959067 0.057855554 -0.13205318 -0.88581985 0.076426834
-0.7460487 -0.21968979 0.04887033 -0.18548054 -0.560929 -0.5153307 -0.36526456 0.0037900317
-0.8764037 -0.17916103 -0.14326817 -0.018526172 -0.0015058193 -0.34719622 -0.17561764 0.41961432
0.022297392 -0.10017395 -0.28262785 0.10062592 -0.2582144 -0.12743773 -0.03592594 -0.17813751
-0.029851656 -0.24320546 0.19071376 -0.19126308 -0.22850905 0.055519436 0.23126534 0.007068698
0.0018091251 0.26277202 0.17694218 0.052636623 0.10358994 -0.12896249 0.00897409 -1.3234441
0.02745882 0.12465036 -0.36316168 -0.017153258 0.007081675 -0.7803625 -0.2824018 0.41401932
0.14676921 0.35481206 -0.21924983 0.00318284 -0.5204262 -0.17482238 -0.18265106 -0.011117841
0.20508668 0.026303185 -0.072343 -0.030847479 -0.016053163 -0.009464493 -0.407743 0.09470621
0.02387191 -0.40294147 -0.010160571 -0.18183362 0.23315462 0.03223406 -0.06511368 -0.33026367
-0.030042695 0.0009564505 0.2649459 -0.14081974 0.67910844 0.01871396 0.030787556 0.25342914
0.03030703 0.18175714 0.19480719 -0.21273555 -0.711054 -0.059951894 -0.67484075 -0.4511001
-0.65046835 0.2709212 -0.45493883 -0.010331214 -0.00022061625 0.26328188 -0.0038514927 0.029096035
0.009274637 -0.16706266 -0.73822695 -0.16703096 0.054571796 -1.603535 0.272835 0.00051770307
0.04341393 0.2220576 0.01074431 -0.16940464 0.08496412 -0.019924708 -0.3476174 -0.012264471
0.034626707 0.13831416 -0.4491335 0.39084604 0.13198008 0.013320492 0.12572014 0.1498724
0.13626681 0.1356699 0.04707846 -0.15124851 0.00048632742 -0.49842662 -0.62139463 0.1434017
-0.02631157 -0.5318578 -0.01675812 0.09134354 -0.30166295 -0.5729042 1.2569962 -0.00549911
-1.0166035 0.002251674 -0.08444969 -0.73142976 -0.24031104 0.23221834 0.07868519 0.01395481
-0.024207497 0.05469195 -0.14982755 0.027597053 -0.0071800193 -0.3213403 0.110625505 0.68627816
0.16671905 0.006828156 -0.31088576 -0.24914008 -0.8204686 0.08716546 0.0024663014 -0.36674905

weight f4 [200, 15]
00000000: 4637 87bf e5c9 923d cfe6 edbe 07e4 2d3f
00000010: 49f3 8cbf 70bb d73e 7e54 723d eb44 85bd
00000020: 7705 18bf 5d33 c9bc d959 eb3d 9b38 38bf
00000030: c1b8 233f 78c2 7e3e 3f4d 6b3d f235 153e
00000040: 3c7b 03be 0034 5e3d 7218 c13d 069d ab3f
00000050: 4994 99be ca62 09c0 bf12 24c0 8e72 963e
00000060: 2827 bb3c 65f6 3bbf cb3e cb3c c4fb ddbe
00000070: d154 26be 65fb c03d 659a 89bf 67f9 6cbe
00000080: 5a14 363e 1928 303f 5d9d 1ebf cc5e 5a3e
00000090: ed2b 813c df18 5e3f b87a 6f3e 9e92 523d
000000a0: d392 983e 7938 3d3f 9198 ef3d 42d2 4cbe
000000b0: 2c6d 383d 2f96 4d3e 1ee3 6d3d 3e25 673e
000000c0: 6b80 9f3e 9c91 0c3e 2a7c 1c3e 58fb 183f
000000d0: 9867 913f 9bd5 f73c f7a7 bf3e 1500 f8bf
000000e0: 0ac0 e8bb 3b6e 61bf 4c36 a3bf 9c0e b63e
000000f0: 1efc e0be 3524 e8bd ecd9 8b3e 726a b1be
00000100: 03b1 a1c0 110e c3bd f25b 333f 04ec b43f
00000110: 485d b7bd 4484 a2bb 5a93 523d 6958 e03d
00000120: 62c0 59be d806 aabe 362f 6fbd 1b4e 043f
00000130: 2191 fabe 40f7 213d 28d1 623d c10d 603e
00000140: c6d7 a6be 5f5e 913e 20e4 943f 8dd4 c53e
00000150: fdf0 0cbf cdc9 15bc f484 b9be 09e3 60bf
00000160: d670 5ebf cfc3 bebe 41dc 493f 6fea 563f
00000170: da44 d5be 3d65 fcbd d3fa 0d3d da28 69bf
00000180: 742b f8bd 8c92 df3c 5c68 5a3f baa5 07be
00000190: 2bd8 d7bf ca1a 1c3d 0664 a03d 04f3 353d
000001a0: 3d78 6a3f 2032 30bd 8210 0ebf f487 4d3e
000001b0: 7fee 82be e8b1 723e 8b54 89be 3c2e c1bf
000001c0: 6485 533e dfa9 6e3d 70ff 973e 1e23 ebbf
000001d0: bf61 153f 2473 bebc f270 54be bc8b 83be
000001e0: dd7c 233e 7d7f debe d60d d43e 145a 6bbe
000001f0: 5b24 f53e 24e4 323f 3251 4c3f 2fc3 683e
00000200: 9a3e f33e 8fd3 d63e 12dd 7a3d 6cc8 e0bd
00000210: 4acd 65be a281 dbbd 5c2f 96be e995 f8bd
00000220: f076 99be e18c 1ebe ad5c 0bbf 8ded a7bf
00000230: 8a14 c83e 70a3 1fbf c0c6 4abf fe44 e6be
00000240: 82e9 f3bd f0c0 cb3c af6f 0d3f a75c 87be
00000250: 0117 ebbe f5c9 88bf bfba 993e d7c6 25bc
00000260: 8ec5 953e ec1e 1abf 5173 a63d 3335 34bd
00000270: 3f31 efbe aa17 02bf ea7e 273e 374b 173f
00000280: c854 bf3e 83b0 c23e c426 293e 5cc7 2b3e
00000290: 7095 94bd 565e 4cbe 7122 2ebd 0ef0 9a3f
000002a0: 3fcc 953e a573 903e b13b fd3e 0941 753e
000002b0: 17c8 153e 3f9a cabf 1bcc 993e c3dc 713d
000002c0: 6c04 38be d208 9dbd e8d9 e1be 9272 113d
000002d0: bffd 7dbe 61ae 873d 8966 a4be 1145 603e
000002e0: 162c 2d3f 854f e03e 372c f0be 1979 bbbf
000002f0: 848d 29bf 5e79 853e 80b0 e93e a98d 01bf
00000300: fb2c b2bf e159 91bf 7cbe 76be afb9 033e
00000310: cc03 13ba f06a 28bf 7bca 1dbe b8d5 293f
00000320: 38b1 51bd 90da a0bf 4576 c0bf 38a2 fd3e
00000330: 47e7 cd3e 6c5f 593f bf41 a43e 0632 f9bd
00000340: 4a3e 20be ff79 063f df23 f73f c59d b33e
00000350: 47b1 8d3e edd3 60bf d2bf 64bf 919b 46be
00000360: 771c 10be 7dc8 ddbe 0ddf 43be 1082 473e
00000370: 6e89 a2bf c870 d3be e29d 86bf 771c 99bf
00000380: d579 14bf e056 4c3e 1540 273f a233 0cbf
00000390: 15f0 0bbf 9417 a43e c863 c63b 6154 a8bd
000003a0: 836a cf3e 5971 7bc0 3ca1 3dc0 e064 593f
000003b0: 5eae e4be 8ddc a73e d20f 623e 29a6 523e
000003c0: 8d90 ddbc 2bc3 6ebd 079e 8d3d 4e6d d53e
000003d0: 5720 f63f 8847 0f3f 02bd 723d 09ab e6bf
000003e0: e095 36bd d4ac 96bd 7847 f0bd a085 00c0
000003f0: 18e1 d1be 5658 683d b31a 22bc e0bf e33e
-1.0563743 0.071674146 -0.46465155 0.6792607 -1.1011745 0.4213519 0.05916261 -0.06507286
-0.5938334 -0.024560625 0.114917465 -0.71961373 0.6395379 0.24878871 0.057446714 0.1457136
-0.12839979 0.05424881 0.09428491 1.3407295 -0.29995945 -2.1466546 -2.5636442 0.29384273
0.02284582 -0.73422843 0.024810215 -0.43356144 -0.16243292 0.0942295 -1.0750242 -0.23142014
0.17781201 0.68811184 -0.6195887 0.21325225 0.015768016 0.867567 0.23386657 0.051409356
0.29799518 0.73914295 0.116990216 -0.20002082 0.04502599 0.20076822 0.058077924 0.225728
0.31152663 0.1372742 0.1528174 0.5975852 1.1359739 0.030253222 0.37432835 -1.9375025
-0.007102971 -0.88058823 -1.2750945 0.3555802 -0.4394235 -0.11335031 0.273147 -0.34651524
-5.052858 -0.09524167 0.7006217 1.4134526 -0.08953339 -0.004959615 0.051410057 0.10954363
-0.21264794 -0.33208346 -0.058394633 0.5168168 -0.4893885 0.039542437 0.05537525 0.21880247
-0.32586497 0.28392312 1.1632118 0.38638726 -0.5505522 -0.009142351 -0.36234248 -0.8784643
-0.86890924 -0.37258765 0.78851706 0.8395147 -0.41654092 -0.12323997 0.034663033 -0.9107796
-0.12117663 0.027291559 0.8531549 -0.13246813 -1.6862844 0.038111486 0.07831578 0.04442121
0.9158972 -0.043016553 -0.5549394 0.20071393 -0.25572583 0.23700678 -0.26822314 -1.5092235
0.20656353 0.05826747 0.2968707 -1.8370092 0.58352274 -0.023248263 -0.2074621 -0.25692546
0.159656 -0.4345664 0.41416806 -0.22983581 0.478793 0.69879365 0.79811394 0.22730707
0.475087 0.4195828 0.061245985 -0.109757274 -0.22441593 -0.10718085 -0.29333007 -0.12137968
-0.29973555 -0.15483429 -0.54438287 -1.311937 0.3907817 -0.6235876 -0.7920952 -0.44974512
-0.119097725 0.024872273 0.5524854 -0.26437876 -0.45915988 -1.0686632 0.30025288 -0.010118208
0.29252285 -0.60203433 0.081274636 -0.043996047 -0.4671726 -0.5081736 0.16357008 0.59099144
0.3736937 0.38025293 0.16518694 0.16775268 -0.072550654 -0.19957861 -0.042513315 1.2104509
0.2925739 0.2821323 0.49459603 0.2395059 0.1462711 -1.5828322 0.30038533 0.059048425
-0.17970437 -0.07667698 -0.44111562 0.035509653 -0.24803828 0.06625057 -0.32109478 0.21901347
0.67645395 0.4381067 -0.46908733 -1.4646331 -0.6623156 0.26069158 0.4564247 -0.5060678
-1.3919977 -1.1355554 -0.24096102 0.12863801 -0.0005608171 -0.65788174 -0.15409271 0.66341734
-0.0511944 -1.25667 -1.5036093 0.49537826 0.40215513 0.8491123 0.3208141 -0.12167744
-0.15648761 0.525299 1.9307822 0.35081306 0.27674314 -0.87823373 -0.89355195 -0.19395281
-0.14073358 -0.43317023 -0.19128056 0.19483209 -1.269819 -0.41296983 -1.0516932 -1.1961812
-0.579984 0.19955015 0.65332156 -0.54766285 -0.5466321 0.3204924 0.0060543753 -0.08219219
0.4051095 -3.9287932 -2.962966 0.8491955 -0.44664282 0.32785454 0.22076347 0.20571198
-0.027046466 -0.058291595 0.06914907 0.41684955 1.9228619 0.55968523 0.059262283 -1.8020946
-0.044576526 -0.07357183 -0.117323816 -2.0081558 -0.40992045 0.05672487 -0.009894061 0.44482327

bias f4 [200]
00000000: 0234 df3e 054b 3f3f 8327 32bf 7e9c 393e
00000010: d84e 163f 0748 3ebf b6c9 ffbe 9e36 083f
00000020: a629 81bf 2ca6 9c3e c179 63bf 5564 64bf
00000030: ecec fd3e 40d9 ecbe ce12 b7be 750f 803e
00000040: 05b2 273f d32b 7c3e 19e6 6dbe 5f0c 35bd
00000050: 620a e83e c846 83bf 32b8 c83c 0290 0d3e
00000060: b6dc 06bf 3a1e 5abf 249d 1bbf 117d 1c3f
00000070: 43ab 32bf d40e 7d3d 86be d0be ce6a b03e
00000080: 1c69 94bf b713 c53d 1bcc 983c 30c5 51bf
00000090: e663 debd a5bd 4b3e fb63 78be 9fdb 10bf
000000a0: 6942 0abe a2f8 33bf ff5d 1abe 7ebf 1f3f
000000b0: fecb 47bf b9c6 40bf 6874 95bd b848 113f
000000c0: 804a 3bbf c3e0 1a3f 337f 5bbf c088 8bbe
000000d0: bb68 b53d 827e ef3d 1bc7 56bf e90f 8f3d
000000e0: f7a6 1c3e 988f a03e b82d d4be eefa cfbe
000000f0: a37f 4ebe 6f58 553e 20c6 e1bd 0315 ab3d
00000100: f638 febe 2a42 82be 9e21 203e 676b 6bbe
00000110: 5e26 8d3e a62a c23e 146a 38be bb26 6cbf
00000120: aa5b 39bf 5d63 323e 47f3 17bf 503b 8b3e
00000130: 6dfd 063e 4690 9abe dde0 d2be 9efd 293d
00000140: 2d8d 343f 98c7 49bf fe45 e83e 62c9 82be
00000150: bcbb e1bc cb97 75be f9dc dbbd b9ff 193e
00000160: c249 b2be a638 1a3f 2034 2dbf 1882 0f3e
00000170: f1b0 f6be ee5d 8a3d 1071 36bf 0343 923e
00000180: 252f 2ebf a03e 9fbe 9d81 a93d 5722 dfbd
00000190: 9da8 413d 8706 32be b003 fc3e 9652 99bd
000001a0: 2c4c 96bf bd51 0bbf e4cd 38be 1a07 5fbe
000001b0: d6c0 1f3f 6d8b 27be 5bac 933c 322c fd3c
000001c0: 1d23 db3e 1627 1abe 4ca4 ed3e f040 b3be
000001d0: 9f5f b7be cad1 f2be 802c f1be e54b f6be
000001e0: 3360 473f 4001 a0bd bd86 dcbe 7416 093f
000001f0: d253 75be 80ee 5fbe 6334 d4bc 995c 42be
00000200: a9db 9cbe 2ef0 8e3d d3b2 ba3e 1d6f d6bc
00000210: dfa9 ce3e 9f12 853f 6dec 08bf 33b5 fbbe
00000220: 8585 cb3d f509 bf3d a4b1 3fbf a2cc 553d
00000230: 8943 2ebf 91e8 c3be 5313 73bf c437 b6be
00000240: 5c9b 7dbd ef2a fabe de39 d63e e789 ac3e
00000250: a975 e13e db49 0dbf 54d0 28bf 85c5 52bc
00000260: 4872 ec3e d17d f1be e458 2bbf ed87 05be
00000270: 60c2 a0be 25cf 603e eb4b 7bbe 72a2 a03e
00000280: da6e 0f3e 2aa8 023f 5b1b ddbe 6fe9 ea3e
00000290: 3c8c 9ebf 7eba aa3e a469 8dbf 7901 9fbe
000002a0: 3315 c63e ad79 283e 7ebc 07bf d5c8 9cbe
000002b0: 294e 2fbd 3d0d 313f 5826 ffbe 736b 22bf
000002c0: 5973 c13e bc7b 96bf 6175 1bbd 6837 7abe
000002d0: 4e69 8fbd f656 00bf 0682 82be 122c 2dbf
000002e0: fc0e 07bf 7539 e7be 510d 90be 3112 51be
000002f0: b876 063e febd 87bf adb0 123e 1bc8 c5bc
00000300: b51e 2e3f 18fc 82be 1835 193f e1f6 dbbe
00000310: 4d92 2e3d 5019 81be d645 ff3e 4a41 2d3f
0.43594366 0.74723846 -0.6959154 0.18126103 0.58714056 -0.74328655 -0.4995858 0.5320834
-1.0090835 0.3059553 -0.88857657 -0.89215595 0.4959482 -0.462595 -0.35756534 0.25011793
0.6550601 0.24626093 -0.23232307 -0.04420125 0.4532042 -1.0255976 0.024501894 0.13824466
-0.5268053 -0.8520237 -0.6078665 0.61128336 -0.69792575 0.06178172 -0.40770358 0.34456486
-1.1594577 0.09622901 0.018652013 -0.8194151 -0.10858898 0.19896562 -0.2425689 -0.56585115
-0.13501896 -0.7030126 -0.15074919 0.6240157 -0.7804564 -0.75303227 -0.07297593 0.56751585
-0.7316055 0.6049921 -0.85740966 -0.2725277 0.088578664 0.11694051 -0.8389756 0.069854565
0.15298067 0.31359553 -0.4144113 -0.40621132 -0.20165877 0.20834516 -0.110241175 0.08353617
-0.49652833 -0.25441104 0.15637824 -0.2299019 0.27568334 0.37923163 -0.18009216 -0.922466
-0.72405493 0.17420717 -0.59355587 0.2719369 0.13182612 -0.30188197 -0.41187182 0.041501634
0.7052792 -0.7882018 0.453659 -0.25544268 -0.027555339 -0.23983686 -0.107355066 0.15038957
-0.34821898 0.6024269 -0.6765766 0.1401447 -0.4818187 0.06756197 -0.7126627 0.2856675
-0.68040687 -0.31102467 0.08276675 -0.10895222 0.047279943 -0.17385302 0.49221563 -0.07486455
-1.1741996 -0.544216 -0.18047291 -0.21780053 0.6240362 -0.1636178 0.018026521 0.030904863
0.42800227 -0.15053973 0.4641441 -0.3501048 -0.3581514 -0.4742568 -0.47104263 -0.48104778
0.77881163 -0.078127384 -0.43071547 0.53549886 -0.23957756 -0.21868324 -0.025903886 -0.18980636
-0.30636337 0.069794044 0.36464557 -0.02617603 0.40363976 1.0396308 -0.5348576 -0.49161682
0.09937576 0.09328071 -0.74880433 0.052197106 -0.680718 -0.38263372 -0.9495136 -0.3558942
-0.06191574 -0.4886088 0.41841024 0.3369896 0.4403508 -0.5519082 -0.65942883 -0.012864475
0.4618094 -0.47166303 -0.6693251 -0.13040133 -0.31398296 0.2195402 -0.24540679 0.31373936
0.1400713 0.5103785 -0.43184933 0.4588122 -1.2386546 0.33345407 -1.1047864 -0.3105581
0.3868805 0.16452666 -0.5302199 -0.30621973 -0.04279915 0.69160825 -0.4983394 -0.63445204
0.37783316 -1.1756511 -0.037953738 -0.24435198 -0.07002507 -0.5013269 -0.25489825 -0.6764537
-0.5275724 -0.45161024 -0.2813516 -0.20417096 0.13131225 -1.0604856 0.14325209 -0.02414327
0.68015605 -0.25582957 0.5984664 -0.4296179 0.042619992 -0.25214624 0.49857968 0.6767775

weight f4 [200, 200]
00000000: 5bbc a5bf 3c8d efbe c50c 9dbd acb8 fb3d
00000010: ece5 56c0 5dd2 1abf 30b4 24bf 8349 d9bf
00000020: 752a 13bf e5eb 6c3f 33cf ac3f f72e c53d
00000030: 7269 28c0 cd5d 17bf 4ca7 1ebf 8b6e 39be
00000040: f590 783e fd01 1dc0 03dc e2bd 8eb4 32bf
00000050: 6bc2 a0bb 33be ef3e ebe3 5abe bb6f 17bf
00000060: 7f39 e8be 0eab cfbf a2ec 0fbf 69e9 3b3d
00000070: babf 283f 6832 213f d247 bdbe d801 b6bd
00000080: 0163 76bf ce82 d3be 3fd6 bcbd ae32 5abe
00000090: ecd1 433e 3ac5 3bc0 69e6 7d3e e359 31be
000000a0: f7e2 09c0 dd8b 22bf 3a4e a2be 2915 0fbf
000000b0: 8f71 4fbf 1928 193d fa30 09bf 634c 263f
000000c0: 5cd6 06be 5a09 ff3e f40c 8ebf f0a4 863e
000000d0: 32c1 99be 70dd 1bbe 4340 5abf 779c 49bf
000000e0: 019c b63e 4322 bdbe d0b4 adbf 0e9e 513e
000000f0: 7805 733f 1ac4 903e 824a 6abe b740 4ac0
00000100: 9d44 813e cc5a a53d c268 b5bf 7d0a abbc
00000110: c99a b0bf f66f ccbe 5e5e 6fbd bd03 a6bf
00000120: 0a1b 7abe d536 fcbe 60d2 fb3e e158 9dbf
00000130: 7df7 313e f7a0 d13b b3cd e33f af1b 16bf
00000140: de5a f0bf 5caf 00bf 8d95 64bf 89e0 d93f
00000150: a442 c0bf 5f92 10be 95b3 3abf b29d b33e
00000160: 0449 44bf 743c 0abf a2d6 12be bebf d23e
00000170: cd56 b83d 9039 c4bf ee7d 013f 8ad0 403e
00000180: dc28 7ebf ddd0 5abf 96c8 40bf 7c4a dcbf
00000190: 7b98 08bf 3af0 95be 6426 7e3f 8c71 c43e
000001a0: e4a4 ddbd 3de3 00bf 2e55 9dbf 2300 58bd
000001b0: eb69 97bf 9a91 0ebf e608 303e f5f6 3d3f
000001c0: cb5e 833d ab15 87be d3f2 11bf c9a8 8fbd
000001d0: c2b3 d0bd 347b e1be ab34 e53e 9645 e6bd
000001e0: b170 53bf 9950 bd3d d39d 39be a29e e0be
000001f0: 3296 f5bc bf79 b8be 8efd debd 016d 54bf
00000200: ff40 85bf 628a 6ebe 3084 1fbe 0e1b 1bbf
00000210: 767d e7be 3ac8 9bbf 86b3 e6be 5498 42bf
00000220: 463b e3be e567 633f e598 6cbe 0022 38be
00000230: 4a4a d63e 3b17 4a3d b242 0fc0 bd60 1abf
00000240: a498 dabf 029b 433f f207 e53e 486a 423e
00000250: f89c 15bf 55e9 8dbe edc4 c33d 63e9 3abe
00000260: 1ca5 3dbd e5c2 0c3f c058 edbd ec27 c5be
00000270: f7ec 8e3f fb5c d2bd 7518 5abe 5b74 fe3e
00000280: 4df3 e8bd c6f2 203e 7cba fe3b 13b2 c7bf
00000290: eae4 2dbe 278f 153d f3d6 afbe 1887 91bf
000002a0: c473 8d3f 5312 6fbe 2301 36bf b588 bbbd
000002b0: 8a7d 6d3f 9809 42c0 8cb3 aebf 3145 ecbe
000002c0: bbd6 593f 1389 023e b448 843f e5ca 203d
000002d0: 655e 46bf 5e37 c13f 913d a33e e013 983d
000002e0: 8bca fc3e 070b 5cbf 85fa bcbf 04ea 843f
000002f0: 94fc 123f 294f 6cbe f812 cf3f c597 a13f
00000300: 752c 13bf e148 ae3e a08b 39bf 7034 a2be
00000310: e46c 9e3e be0b 87bf 0bec 08bf fc1d 273f
00000320: 48cd 16bf e169 023e 47e4 40c0 19c1 203e
00000330: a2c2 e8be 034a 1abe 0d1a bbbf 61e9 c13e
00000340: b52d 3ebf 12fc 5dbc 3c3b 88be 0dc2 20be
00000350: 8aae adbf 5ec6 ccbe dd41 0c3d bbbc edbe
00000360: 4971 87bd 263a c3bf e22b 74bf 2d2b 283f
00000370: b520 a0bd d6f1 efbe 82da 17bf dc10 003f
00000380: ecab 0f3f 9108 3dbf b611 9e3d 710f 323e
00000390: 9536 1ebf 97ec 8b3e 3b6b 44bf e786 b3bf
000003a0: e185 b8be 7e4e 88bf f37d db3e e5df a7be
000003b0: 9612 f53d b522 363f db3e 963d 4717 eb3e
000003c0: 1afc 2bbf aa81 70bf 98c4 7fbe e48d 02be
000003d0: 390c 02bf 7ee5 653e ff97 edbf 2e36 96bf
000003e0: da8d 05be 32a9 e2be 35a6 04bf 0384 65be
000003f0: b4a2 6bbe f251 fdbe fd2d ea3e 3898 0b3f
-1.2948107 -0.4678744 -0.07668451 0.12291083 -3.3577833 -0.6047724 -0.64337444 -1.6975559
-0.5748666 0.92547446 1.3500732 0.096280985 -2.6314359 -0.59127504 -0.61974025 -0.18108575
0.24274047 -2.4532464 -0.1107712 -0.69806755 -0.004905989 0.46824798 -0.21376006 -0.5915486
-0.45356366 -1.6224077 -0.5622045 0.045876894 0.6591755 0.6296754 -0.36968857 -0.088870704
-0.9624482 -0.41310734 -0.09220552 -0.21308395 0.19123048 -2.9339128 0.24794926 -0.17319445
-2.1544778 -0.63494664 -0.31700307 -0.5589166 -0.8103265 0.037391756 -0.5359036 0.64960307
-0.13167709 0.49811822 -1.1097703 0.26297712 -0.3003021 -0.1522119 -0.85254306 -0.7875437
0.35665897 -0.36940202 -1.3570805 0.2047045 0.9493022 0.28274614 -0.22879985 -3.1601999
0.2524766 0.08073959 -1.4172595 -0.020879025 -1.3797237 -0.3992917 -0.058439605 -1.2969891
-0.24424377 -0.49260584 0.4918394 -1.2292749 0.17379566 0.0063973623 1.779715 -0.5863599
-1.877773 -0.5026758 -0.89290696 1.7021648 -1.5020337 -0.14118336 -0.7293027 0.3508125
-0.76673913 -0.53998494 -0.14339688 0.41161913 0.09000931 -1.5330067 0.5058278 0.18829551
-0.99281096 -0.8547495 -0.7530607 -1.7210231 -0.53357667 -0.2928484 0.9927733 0.3836788
-0.10822466 -0.5034674 -1.229162 -0.052734505 -1.1829199 -0.5569092 0.17190894 0.7420495
0.06414565 -0.2638372 -0.57011145 -0.07014615 -0.10190536 -0.4403931 0.44766745 -0.11243741
-0.8259383 0.092438884 -0.18126611 -0.43871027 -0.029978845 -0.36030385 -0.108882055 -0.82978827
-1.041046 -0.23294976 -0.1557777 -0.6058816 -0.45212907 -1.2170479 -0.4505884 -0.76013684
-0.4438116 0.88830405 -0.231052 -0.1798172 0.41853553 0.04933856 -2.2384458 -0.6030386
-1.7077832 0.764084 0.44732624 0.18985856 -0.5844264 -0.2771708 0.09559045 -0.18253092
-0.04630004 0.54984885 -0.11589193 -0.3850702 1.1166066 -0.10271641 -0.21298392 0.49698147
-0.11374531 0.1571761 0.0077736955 -1.5601219 -0.16981855 0.036513474 -0.3434368 -1.1369352
1.1050954 -0.23346834 -0.71095484 -0.09156934 0.9276968 -3.0318356 -1.3648543 -0.4614654
0.8509328 0.12747602 1.0334687 0.039255995 -0.77487785 1.5095022 0.3188291 0.07425666
0.49373278 -0.85954326 -1.4763952 1.0383916 0.57416654 -0.23077072 1.6177664 1.2624441
-0.5748971 0.34039977 -0.72478676 -0.31680632 0.30942452 -1.0550458 -0.53485173 0.6528013
-0.58906984 0.12735702 -3.013933 0.15698661 -0.45460993 -0.15067296 -1.4617325 0.37873366
-0.74288493 -0.013548868 -0.26607692 -0.15699024 -1.356889 -0.39995092 0.0342425 -0.46433052
-0.06613404 -1.525212 -0.9537946 0.6569088 -0.07818738 -0.46864194 -0.5931779 0.50025725
0.56121707 -0.73841196 0.07718222 0.17388703 -0.61802036 0.2732894 -0.7672612 -1.4025544
-0.36039641 -1.0648954 0.4286953 -0.32788005 0.119664356 0.7114671 0.073362075 0.45916197
-0.6718155 -0.9394785 -0.24977338 -0.1274944 -0.507999 0.22450826 -1.856201 -1.1735284
-0.13042393 -0.4426971 -0.5181611 -0.2241364 -0.23011285 -0.49476582 0.4573821 0.5452914

bias f4 [200]
00000000: 7f68 01bf 6013 12be e6c2 bcbd 35bd b1bd
00000010: f9e8 3abf a4be e9bd 9820 5ebd fc80 c0bd
00000020: f763 ccbd d243 0a3e a24d b6bd 7f61 94be
00000030: 8549 1cbd 9f10 eabd dd7c 97be 78f3 05be
00000040: 6a38 dcbd 73a7 ebbd 135e 29bf ae56 ddbb
00000050: ac3f 18bf 4d97 97bd 12f6 41bc 2641 57bd
00000060: 0abc 88bd 7df1 25bf 3dc3 d7bd 095f b7bd
00000070: 1b57 88bd f033 4abe 364f 89be d65e b2bd
00000080: cdb9 27bf 30bd 07be 6848 69bf 6240 3ebf
00000090: 176e 1e3f bc3b 80bd 5fab 7ebe 366b 1ebd
000000a0: df4e 00bf 692f 2dbb fd23 65bd b928 9bbd
000000b0: 7036 85bd 417c a3bd ed7a f63b 5947 edbe
000000c0: 556e a5bd f19a e4be d1b9 03be c678 a0bc
000000d0: bb4d 6fbf 308b 633e d5f5 cebe 3dc6 72bd
000000e0: 1e84 64bd 6002 45be 09a8 553f 986f 1fbe
000000f0: 52ac e73d 644e 3cbd 3cb3 d6be ed9a 01bf
00000100: ba50 bcbe 6a70 cdbd 8127 2dbe d6fd 603e
00000110: 9213 99be 12ac d6bd 6f81 133e 2dba 4cbd
00000120: 869d 5fbe acb5 d1bd 651f 9c3e ba3a e7bd
00000130: 1fe9 1fbf 642b 623e a123 3ebe b468 40bd
00000140: 0467 39bd 3cbb d5bd f30e 93be 0956 f4bd
00000150: 8dff c7bd d6d6 5ebd 3f45 4f3e 6ae1 42be
00000160: 3a68 9cbe 9d60 abbe b62c cf3e bdd4 10bf
00000170: 2143 eebd 7ff3 65be 5103 15bd b8f3 25be
00000180: 81d8 7fbd 7366 09be 3b51 49bd 10c4 97bd
00000190: fbde 933d 87c1 99be 858d 90be ebb9 43bd
000001a0: fa50 b33d b5c6 9abd af52 73bc 6bbf 61bd
000001b0: 6d39 aabc 0f83 f1bd 92e9 bbbd c742 3bbe
000001c0: 0d31 3dbd 633a bd3e 430a 8b3e 0f18 d5be
000001d0: b170 8abd fa31 d3bd 5286 f6bd 7e83 debe
000001e0: 4d2f 0cbe 73a3 a43e c455 96bd 25f8 78bc
000001f0: 9f49 b2bd 5849 cfbd f722 afbd 69f6 aabe
00000200: d0b2 1a3e 536a 47be 996d 9ebd 49bf c3be
00000210: cc28 4e3e d557 0abf f7bd 23bf 3229 8cbe
00000220: 218b 3dbf f0a4 74bd 7128 1ebf a158 96be
00000230: 2f20 b43e e7ff 8d3e ef2c 88be 8a20 e5bd
00000240: 5e9a c9be 67fc 35be fa42 52ba 872c 1bbf
00000250: 1aee fbbe 85a3 ecbd 2792 653e d6a9 aa3e
00000260: f251 92bd 9464 40bf cb0f 30bf 9dad f9bd
00000270: b13d 373d 8524 91be 60dc 55bd aeb4 97bd
00000280: 663a 523f 04e5 9cbd 6619 afbd e7d6 e5be
00000290: 3573 a4bd 25d3 9fbe 008e d53d d263 d7bd
000002a0: 7734 ffbd 1c33 bdbe 36bd fd3e cd40 5fbe
000002b0: f9a9 d8bd f7f5 fdbe dc63 b6bd c02a 82bd
000002c0: 37dc 1bbe 2076 61be 78f3 51bd b29a 1e3f
000002d0: 0551 c5bd 610c e4bd 5799 d5be bc87 52bd
000002e0: d0b9 fb3e ee5a 16be f365 c9be 8650 ef3e
000002f0: 585e 1abf 22f4 28bf 2d5f 0cbe 2d8e 23bf
00000300: 364c 5bbe 668c 04bf de09 963d 34f6 12be
00000310: 6446 41bd 56d7 20be 6c20 e4be 437c 473d
-0.50550073 -0.14265203 -0.092168614 -0.086786665 -0.7301174 -0.11413315 -0.054230303 -0.09399602
-0.09980004 0.13502434 -0.08901526 -0.28980634 -0.03815605 -0.114289515 -0.2958745 -0.13081157
-0.10752948 -0.11506548 -0.6615917 -0.006754718 -0.59472156 -0.07401905 -0.011838453 -0.052552365
-0.066764906 -0.64821607 -0.105352856 -0.089536734 -0.06657239 -0.19746375 -0.26818246 -0.08709495
-0.65517884 -0.13255763 -0.9112611 -0.7431699 0.61886734 -0.062613934 -0.2487006 -0.038676463
-0.5012035 -0.0026425964 -0.055942524 -0.075761266 -0.06504524 -0.07982684 0.007521978 -0.46343496
-0.08077685 -0.4464946 -0.12863852 -0.01958884 -0.9347798 0.22221065 -0.4042193 -0.059271086
-0.05579006 -0.19239187 0.83459526 -0.15569913 0.11312164 -0.045973197 -0.4193362 -0.50627023
-0.3678034 -0.10031207 -0.16909601 0.2197183 -0.29897743 -0.104820386 0.14404844 -0.04998224
-0.21837434 -0.10239729 0.30492702 -0.11290498 -0.6246509 0.22086865 -0.18568279 -0.046974853
-0.04526426 -0.10436103 -0.28722343 -0.119304724 -0.09765539 -0.054404102 0.20241259 -0.19031301
-0.3054827 -0.33472148 0.404638 -0.5657461 -0.116338976 -0.22456168 -0.036380116 -0.16206253
-0.062462334 -0.13417988 -0.049149733 -0.07410443 0.072202645 -0.30030462 -0.2823297 -0.047784727
0.087556794 -0.075574316 -0.014851256 -0.05511419 -0.020779336 -0.117925756 -0.091754094 -0.18287192
-0.046189357 0.36958608 0.27156267 -0.41619918 -0.067597754 -0.10312267 -0.12037338 -0.43459696
-0.13689919 0.32155952 -0.07340577 -0.015195881 -0.08705448 -0.10121411 -0.08551591 -0.3339112
0.15107274 -0.19474153 -0.07735748 -0.38231876 0.2013275 -0.5404027 -0.6396174 -0.2737518
-0.7404042 -0.05972761 -0.6178046 -0.29364493 0.35180804 0.277343 -0.26596782 -0.11187847
-0.39375585 -0.17772065 -0.00080208445 -0.6061482 -0.49205095 -0.115546264 0.22419034 0.333327
-0.07144536 -0.7515347 -0.687741 -0.12191317 0.044736568 -0.28348175 -0.05221212 -0.07407509
0.8212036 -0.07660869 -0.08549766 -0.4489052 -0.080297865 -0.31215778 0.10427475 -0.10517086
-0.12461179 -0.36953056 0.4955842 -0.21802063 -0.10579295 -0.4960172 -0.089057654 -0.0635581
-0.15220724 -0.22017717 -0.05125758 0.61954796 -0.09634594 -0.111351736 -0.41718552 -0.051398978
0.491652 -0.14683124 -0.39335594 0.46741122 -0.6030021 -0.6599752 -0.13708182 -0.6388882
-0.21415791 -0.5177673 0.07326101 -0.14351732 -0.04718627 -0.15707144 -0.44555986 0.04870249
