Vehicles/ModRepeat_forest_2/ModRepeat_forest_2_critic_target.pth (torch, 353502 bytes, 10 tensors)

weight f4 [200, 15]
00000000: 07d3 973d efaf e73d e574 81be b47c 54bf
00000010: 2452 f73e f5c1 f8be 9677 87bf b8d0 183e
00000020: 3357 cd3b a53b 5ebe 7159 c4bd bcbc 163e
00000030: 9eb9 3dbc 3000 213e 8e99 523e 8117 4cbf
00000040: f3c0 a9be 726b 24bf 0018 fc3e d339 273f
00000050: baf7 813f 7e69 183f eb30 11bf 43c5 9ac0
00000060: 99d8 533e 6ff1 bb3d b328 0a3f 60bf 14be
00000070: 463e 973e 617a 4a3f c10d 13bf c32b dd3c
00000080: 3c97 52be 5bba 63bf d840 f83e 1a0a 87bf
00000090: 2988 92bf eef4 41c0 ad1f 25c0 39e3 8abf
000000a0: 3de8 973e 1f3b 893e 41ba 9e3e defb 1b3f
000000b0: c52f 72be 6377 25be 0cc7 483e 79f4 973d
000000c0: e5b8 333f ed65 dabd 602b 423f 6363 a03f
000000d0: c2ac 8a3e 2528 48bf 9ccd c2bd 2038 dabe
000000e0: bf84 90be 1c6c 853e 45ce 91be 928e 623e
000000f0: d5ef 593e acee aa3f b0eb 6cbf 7495 07be
00000100: 474c ddbf 3cf6 99bf 2975 ccbe 81aa fcbf
00000110: a28f d8be 8789 0d3e 426e ec3d f195 19be
00000120: 09e7 a6be d6db 78bf 7bd8 cfbe e62c 343e
00000130: 231e c33e 2d20 853e a898 7abf fa3f 8e3f
00000140: daf9 8e3e 8ff8 3dbe 92c0 843f 84ca 35bf
00000150: 70f3 e23d d18b 98bf 4eec 373e 49d0 8ebe
00000160: b66d 39bf 782c cc3e c686 7cbf 6a5a e1be
00000170: a147 db3d 59da 3c3f 9aef a73f 4cde 08bf
00000180: 3945 073e b995 383f 317d bcbd f68e 96be
00000190: 4db1 f8be 69aa 8d3e 9678 ee3e 88ac 323e
000001a0: 87b2 84bd 730e 063f 497d 58bf d1ca debe
000001b0: b0d4 13bf 88c7 1d3e ffd1 a4be 2732 55bf
000001c0: f0c4 b0bf f125 053f 63c6 34bf 3a33 c0bf
000001d0: 4756 8b3e 1e26 3ebf c1c2 eabf bced 9b3e
000001e0: d5da 81bf 4a42 0b3d ae3f 25be 7183 543e
000001f0: a1ad df3f d9f7 ba3e 0a6f a9be c3a0 293f
00000200: 03b1 be3e aaa5 763e c971 81bf e840 91be
00000210: 98a6 453e ee9c 6abf 832a 27be 6335 cfbf
00000220: 2aa0 35bf 7a86 d63a 3522 b6be 6f58 473f
00000230: 5ffa d93e 85a2 913f aa43 b0bf 64b2 3d3d
00000240: cbe6 50be bc14 b13d 0d18 873f ccb9 00bf
00000250: 7bd4 59be f2ac f7bd f0ce cabe dc7f 7a3c
00000260: a1b3 7a3e d46d f53e fe35 0c3e ba1d d5be
00000270: 6706 293d 62d4 103f 3ecf 123e 18c8 cd3d
00000280: f03d a93e a1d0 09bf be1b 94be bcd9 dbbe
00000290: d9a6 0abf 3112 083e e949 0abc 1251 023c
000002a0: b5d6 033f 6bc6 b93e 2dc9 a73d 062c 05bf
000002b0: 5b61 d43e 13c5 aebe b452 173d 73b4 223d
000002c0: 2be8 16c0 291f 19be 8193 363e 5db3 183e
000002d0: 6fee 1d3f 80eb 663f e022 35bf f572 dd3e
000002e0: dfc6 93bf 225a 60bf 901e 4f3f 4895 1b3e
000002f0: 303a 183f fdfd cd3e 02b2 e6be 760b 6fbe
00000300: 18f3 febe 2603 a6bf 258d 813f 031a 45be
00000310: bcd1 a2bd 6ba5 b4be 7e35 8e3f f7fc a43f
00000320: 7066 4b3f 8dd7 29be c99d cdbe d44e 9dbd
00000330: 1094 803a 3ffa bfbd c335 c53e 46a9 99bd
00000340: 5615 13be 4a72 773f 23d0 42bf f24a c7bf
00000350: 548b 79be 8e07 8dbf e921 78c0 ecfb 83c0
00000360: 1ba1 47c0 5438 55c0 c998 18c0 495f 8abf
00000370: 5a68 843f a53e 0e3f 9436 103f a120 8b3e
00000380: ca53 e9be 99c9 563d 81ce da3c 8e2a 1cbd
00000390: 45a7 05bd 6ce2 013d bee1 913c c4a9 8fbe
000003a0: c058 45be 6682 94be 6fac a3bb b778 b2bb
000003b0: 1cd0 89be a8fd bf3d 0811 cfbd d50b 1b3d
000003c0: 9864 773d f0ef 263d f531 68bf 9d33 0ebe
000003d0: 2dcf 11bf c6c8 2fbf 627a 7b3e 302d 063f
000003e0: be88 41bd df94 313f ac26 c8bf e67d 81bf
000003f0: 4192 92bf 8182 84bf 2b74 0e3f 60ff f4be
0.07413297 0.113128535 -0.25284496 -0.8300278 0.48304856 -0.48585477 -1.058337 0.1492337
0.0062664985 -0.2170244 -0.09587372 0.14720434 -0.011579899 0.15722728 0.20566389 -0.79723364
-0.3315502 -0.6422645 0.4923706 0.6532261 1.0153725 0.5953597 -0.5671527 -4.83658
0.20688094 0.09176909 0.5396835 -0.14526129 0.29539698 0.79092985 -0.5744286 0.026998406
-0.20565504 -0.8895623 0.48486972 -1.0549958 -1.1447803 -3.0305743 -2.5800583 -1.0850593
0.2966937 0.26802918 0.31001475 0.60931194 -0.23651035 -0.16158824 0.1960718 0.07419676
0.70204 -0.10663972 0.75847435 1.253033 0.2708493 -0.78186256 -0.09511873 -0.42620945
-0.28226277 0.26059043 -0.28477684 0.22124699 0.21282895 1.3354087 -0.9254713 -0.13240606
-1.7288903 -1.202827 -0.39933136 -1.9739534 -0.42297083 0.13821994 0.115444675 -0.14998604
-0.3259814 -0.97210443 -0.4059485 0.17595252 0.3810893 0.2600111 -0.97889185 1.1113274
0.27924997 -0.18551849 1.0371268 -0.7101214 0.11081588 -1.1917669 0.17961237 -0.27893284
-0.7243303 0.39877677 -0.9864315 -0.44014293 0.107070215 0.7377067 1.3119996 -0.534642
0.1321 0.7210346 -0.09203566 -0.29405946 -0.4857277 0.27669075 0.46576375 0.17448628
-0.06479364 0.523658 -0.8456617 -0.43514112 -0.5774641 0.15408146 -0.32191464 -0.8327965
-1.38101 0.5201102 -0.70615214 -1.5015633 0.27214262 -0.7427691 -1.8340684 0.30454814
-1.0144907 0.033998765 -0.16137573 0.20753266 1.7474862 0.36517218 -0.3309253 0.6626093
0.37244424 0.24086633 -1.011285 -0.28369832 0.19301832 -0.91645706 -0.1632481 -1.6188167
-0.70947516 0.0016366981 -0.35572973 0.77869314 0.4257383 1.1377722 -1.377065 0.046312705
-0.2040054 0.08646533 1.0554215 -0.50283504 -0.21272461 -0.120935336 -0.39611006 0.015289273
0.24482585 0.47935355 0.13692471 -0.41624242 0.04126587 0.5657407 0.14336869 0.100479305
0.33055067 -0.5383397 -0.28927416 -0.42939556 -0.5416084 0.1328819 -0.008440473 0.007953899
0.5149949 0.36284193 0.08192668 -0.520203 0.41480526 -0.3413473 0.036944106 0.03972287
-2.3579204 -0.14953293 0.17829706 0.14912172 0.61691946 0.90203094 -0.7075634 0.43251768
-1.1545066 -0.8763753 0.8090601 0.15193665 0.5946379 0.4023284 -0.45057684 -0.23344216
-0.4979484 -1.2969711 1.0121199 -0.19248204 -0.0795016 -0.35282454 1.1110075 1.2889699
0.7945318 -0.16586132 -0.40159443 -0.07681051 0.0009809751 -0.093739025 0.3851758 -0.075029895
-0.14363608 0.96658766 -0.7609884 -1.5569746 -0.24369556 -1.101793 -3.8770697 -4.124502
-3.119208 -3.331563 -2.3843253 -1.0810329 1.0344346 0.5556434 0.5633328 0.2717333
-0.45571738 0.052438352 0.026709797 -0.03812652 -0.032630224 0.031710073 0.017807838 -0.28059208
-0.19272137 -0.29005736 -0.004994921 -0.0054465192 -0.26916587 0.09374553 -0.1011067 0.03785308
0.060398668 0.040756166 -0.9070123 -0.13886876 -0.5695675 -0.6866573 0.24558404 0.524127
-0.047249548 0.69367784 -1.5636802 -1.0116546 -1.1450883 -1.0352327 0.5564601 -0.47851086

bias f4 [200]
00000000: 08b1 223e 42d2 963d e389 6d3e d31b d43d
00000010: d0e6 073e 8f65 343e f2ed cdbd 189b fd3e
00000020: 8cc7 9d3e 78e5 34be 7418 58bf 74f7 bb3e
00000030: 0845 32bf 4082 d3bd 3afd ddbe 0642 19be
00000040: 65fe 8e3d 4508 813e 3988 febe d886 c53e
00000050: 8fab 253f b831 553f 419a 0fbe 4862 9a3f
00000060: c175 52bd 8328 0a3f 0b98 f5be 2c41 5bbe
00000070: ca77 ca3d c951 5e3f c556 efbe 02a1 e9be
00000080: b22f 37bf 9701 93be b901 45bf 6f54 37bf
00000090: b260 473e fdfd 323f 9d66 3ebf 6fdf 27bf
000000a0: cbf0 54bf 7bb4 c3bc 6a19 50bf 0740 f83e
000000b0: 0533 03be 7f5b 133d 348f 36be d569 9ebf
000000c0: e07d f6bd 1ae3 01bf 748c 343c d4a9 70be
000000d0: 0e3f cf3d a2af e83e 9e6d cc3c 2c7d 18bf
000000e0: 223d 67bd 08b9 0ebf 2f1c a1be 1ff4 5e3e
000000f0: 7457 3ebf 83ef 61be a53e f9bd 9b60 4abf
00000100: 0a09 b2be f7e7 973f 8007 6eba f16d b1be
00000110: 1362 863e 0edf 18bf a156 f8bd 7147 c5be
00000120: ee10 b73e d0d1 a7be 1f54 05bf 48f7 cebe
00000130: cf27 2abe 3efc dbbd 5e2e cbbd 6af0 133f
00000140: 3a44 0e3f c8e5 51bc b969 803e 2091 973e
00000150: 299d 733e 8951 ad3d 07b8 cdbe cabc a53e
00000160: b79a 1b3e da40 81bf dac3 b1be 6c99 65be
00000170: 4b59 3dbf 5dc9 973e 45b3 283d b32f 553d
00000180: 4d9e 60be 0a6a b5be cc35 1c3f 5836 523f
00000190: 190a 4abd a0c5 c23d 0a47 f93d edf8 d6be
000001a0: 3dd9 3ebc 5d1c 13be cd65 8c3e 4cfc 78be
000001b0: 46ea d5bb 6fa6 1f3f f1ad 73be 5680 babe
000001c0: 1285 5abf e265 8f3e 45da 503e 9626 4e3e
000001d0: 6920 52bf f5cb a4be 41a1 133d 793e 5a3f
000001e0: ebd9 7f3e 379b 12bf ddd4 2dbe ece3 76bd
000001f0: 8864 25bf ad64 50be 4a8d f53e 248c cf3e
00000200: 9fe3 b13e f460 8abf 7c29 423f 033a aabe
00000210: f591 8abf 4716 acbe 68fd d4be 0f30 243f
00000220: 60e5 233e 1b49 893e 2b8c 6ebe 83f3 f8bd
00000230: a93e d9be cb6f 63be 057b ccbe c91a 613e
00000240: 7a9a 7b3d ad5e e4be 4151 0dbf 1a3a 4dbd
00000250: 7f96 f83d 69fd 08bf 3ac1 48bf 994e 8bbe
00000260: 0e6a aa3e b6b7 cdbd 07bb e83b 8079 633e
00000270: b6f2 6f3e 5ff3 46bf 8b96 b4bd 6dd1 bfbe
00000280: 3628 9cbe 1322 223f 567c 743e 1966 54bf
00000290: 773b 0a3f 5047 433e ab7c 85bf 62ad bebe
000002a0: dbac 2dbf 065f e43b acd1 75bf 5b2f 05bf
000002b0: 1014 c63e 47c0 98be 3c6e a53d 3c78 8e3d
000002c0: 1980 8b3e bab1 14be 8f8e 32bd 7a9d a9be
000002d0: b08b da3e 7069 aa3d a856 6ebe eb46 303f
000002e0: a59e e63e cf51 903e bb14 a03e c32a b93c
000002f0: 76ce cdbe 2b93 1b3f 8866 a3be 454a 7abe
00000300: 8787 c7be 96a0 57be c32b 2dbf be6a 9d3e
00000310: f142 e6be 6c50 07bf da86 fbbe 4c86 f5be
0.15887845 0.07364322 0.23197131 0.103568695 0.13271642 0.17616867 -0.1005515 0.4953239
0.30816305 -0.1766566 -0.8441231 0.3671223 -0.69636583 -0.103275776 -0.4335726 -0.14966592
0.06982116 0.25201622 -0.49713305 0.3857944 0.647149 0.8327899 -0.14023687 1.2061243
-0.05138183 0.53968066 -0.47967562 -0.2141158 0.09886129 0.86843544 -0.46745887 -0.45630652
-0.7155715 -0.2871215 -0.76955754 -0.7161321 0.1947048 0.69918805 -0.74375325 -0.6557531
-0.8317992 -0.02388977 -0.8128878 0.4848635 -0.12812431 0.03597593 -0.17828065 -1.2376047
-0.120357275 -0.50737154 0.011019815 -0.23502284 0.101194486 0.45446497 0.024954613 -0.59566
-0.056454785 -0.55751085 -0.31466815 0.21772812 -0.7435219 -0.22064023 -0.121701516 -0.7905366
-0.3477252 1.1867665 -0.0009080097 -0.3465419 0.262467 -0.59715354 -0.12125898 -0.38531068
0.35755104 -0.32777262 -0.52081484 -0.40423036 -0.16616748 -0.10741471 -0.09920953 0.5778872
0.55572855 -0.012811132 0.2508066 0.2960291 0.2379042 0.08462817 -0.40179464 0.32370597
0.15195738 -1.0097916 -0.34719735 -0.22421807 -0.73964375 0.29645815 0.04118659 0.052047443
-0.21935387 -0.35432464 0.6101959 0.8211417 -0.049326036 0.0951035 0.12171753 -0.4198679
-0.011648473 -0.14366288 0.27421418 -0.24314994 -0.0065281717 0.6236333 -0.23796822 -0.36426038
-0.853593 0.28007418 0.20395763 0.20131907 -0.82080704 -0.32186857 0.036042456 0.85251576
0.24985473 -0.5726809 -0.16975732 -0.060275957 -0.64606524 -0.20350905 0.47959358 0.40536606
0.34743974 -1.0810838 0.7584455 -0.33247384 -1.0825793 -0.33610746 -0.41599584 0.6413583
0.16005468 0.26813588 -0.23295657 -0.12155821 -0.42430618 -0.22210614 -0.39937606 0.21982874
0.061426617 -0.44603482 -0.5520211 -0.050104238 0.1213808 -0.53511673 -0.7841984 -0.27208403
0.33284038 -0.10044806 0.0071023735 0.22214317 0.2343243 -0.77715105 -0.08817776 -0.37464467
-0.3049943 0.63333243 0.23875555 -0.8296829 0.53996986 0.19070172 -1.0428671 -0.37241656
-0.6784188 0.0069693355 -0.9602306 -0.52025384 0.3868718 -0.29834196 0.08077666 0.06956527
0.27246168 -0.14520922 -0.043592986 -0.33127958 0.42684698 0.08320892 -0.23275244 0.6885821
0.4504291 0.28187415 0.31265816 0.022603398 -0.4019658 0.60771435 -0.31914163 -0.24442394
-0.38970587 -0.21057352 -0.676449 0.307455 -0.44972947 -0.5285709 -0.4912632 -0.47954023

weight f4 [200, 200]
00000000: a747 7fbf c950 1bbe ef97 8fbf e73f d53e
00000010: dd10 77be edd3 b63d f03b 30be 6718 943e
00000020: df37 5dbd 9fbb 7d3e e341 993d 9500 edbd
00000030: a08a 38c0 069c 793b 0e20 e73f dd32 053c
00000040: e208 2c3f 8e46 c43e fd3b aabf 536d c63e
00000050: bd48 a23e bb6a dcbe ffb2 7dbf b74f 203f
00000060: ee99 77bf a90e d73e 0112 20bf cdd9 15c0
00000070: 7727 9cbf 83aa 0b3f 1439 1c3e ed78 ab3e
00000080: dedb 7abf eda5 02bf e745 c53e a3cf 8fbf
00000090: 1da0 9a3f 8ae4 de3e 9a7f 94bf 544c 8abe
000000a0: 8df2 5fbd 6dd2 403e a665 a8be ff55 ddbe
000000b0: b9d2 77bf 5046 953f a1e7 03bf 238d a3bf
000000c0: 6371 b8be 1fff 5a3d 82d5 e3be b33e 60bd
000000d0: 23ce ee3f aaad 873f 7850 c93f f976 6abf
000000e0: d3f3 b53e a848 993e c35f 61bd cc02 913e
000000f0: 3db7 05bf 5dd5 05bd fdd7 94bf b8cb 333e
00000100: b959 b7bf 8919 233e b8e1 573e c910 dfbe
00000110: 88e5 c1bf e297 58bf 1622 d7bf 1d13 953e
00000120: a460 78be a39a 76c0 8df1 1cbe 390a 9fbf
00000130: c0cc 4ebd 44a5 ba3c 805c e4bd 3607 4abd
00000140: 1bd7 01c0 5b7e 5b3e 1529 28bf 195c 8ebf
00000150: ca24 2bbe eb52 2b3f 8998 e4be a162 47bf
00000160: a42b 03bf a2cc 893c 07f0 eebf e341 493f
00000170: 2ba1 e1bd 2931 8fbd 7e70 68be 19b2 ccbc
00000180: fd5c d0bf 140f 5d3e 7d88 653e 906b 27be
00000190: 1bc9 8f3e 1c22 9b3f aecd 1b3f b650 323e
000001a0: e0c0 d63e 6c29 513f afc9 b33e b257 87bd
000001b0: 5e62 cb3e 4cf1 d9be 01c1 ec3e f3f6 373f
000001c0: 6d2d 4dc0 1efa 15c0 eb5d a4bf 0039 ef3e
000001d0: 2699 903f 1416 09be be54 c03d 8aaa 8fbe
000001e0: dbc0 c93f 282a 893e d0c9 283f 6f41 b3bf
000001f0: 5167 7dbf 7f75 3abf c4e2 34bf f37b 883d
00000200: 329c 523f b657 6bbf 0bda 91be 11d0 bebf
00000210: ceb4 aabf 00a4 8fbe e83c 98bf 05aa 3ebf
00000220: 1609 a63f 8120 c2be ab77 f8be d755 bdbe
00000230: 31b4 58bf 9a57 d33f cbcf 03bf 3dbd fcbd
00000240: 6c27 433e 9f16 29be 0752 d1be 84fe 0c3f
00000250: 563d a5bd b2fa a8be ada4 73bf c92f febe
00000260: b74b ee3d 801e 5dc0 0493 42bf 1b6c 313e
00000270: 2394 9bbe a365 573e acd5 b03e 8d41 b63e
00000280: d8cb c6bc d390 fcbe d3b8 33bf 6f24 0dbe
00000290: 4578 dbbf 4801 5cc0 8890 b3bf bd1b bdbf
000002a0: b257 733f 59e2 3b3f 9296 80be dcdd fe3e
000002b0: 51b6 7e3d d6cd 6fbd df66 ccbd 129e 8a3f
000002c0: d4fd 8d3c 2fa9 d83d 5783 97bf 5540 c63e
000002d0: e0af 86bd 4738 3ebf 01ba ccbe 2d68 d23f
000002e0: 9d8a d53e fae9 da3e cf3f 4bbe 3068 e43e
000002f0: a02f 1d3d ae9c b5be e7de 95be fe92 1bbd
00000300: 4470 333e f464 2d3f e595 293e 8bdf 673d
00000310: 569a 18bd 6695 ee3d e80c 103f 4c92 7fbe
00000320: 1c23 443f 9098 acbf 646d 8b3d 483b 453e
00000330: 890d cfbf 033c 3d3f aa1e 6dbe 249f 04bc
00000340: 0d02 10be fcfd bdbe 71fc 3c3e 2122 7ebd
00000350: f113 723f 0dfc bd3c c022 b53d d2fa 56bc
00000360: 5846 133d 1ee1 2abf 2d2e 15bf 183c e1bd
00000370: b797 74be c783 f5bc 14e7 b23d ace8 b83d
00000380: 9333 85bf a538 943e 3215 1abe a97f 9bbf
00000390: 15d3 a2bf 32e8 98be 668f f8be f12a 223f
000003a0: c8a2 fe3d ac93 243f 066a d63d 46c4 66bf
000003b0: e91f 983f b508 2abe c76b 50bf 94b3 7ebc
000003c0: 74c4 d5bc 1238 b63e 9ce3 b0be 0d96 5dbf
000003d0: bb30 3cc0 873d 4dbe dea9 dc3d 29a8 453e
000003e0: 9b5e 3a3d 7071 11be 3fb7 6c3f 20e0 30bd
000003f0: 9358 5e3d 285c ad3e 6cd2 6e3d 3a7d 90bf
-0.9971871 -0.15167536 -1.1218241 0.41650316 -0.24127527 0.089271404 -0.17210364 0.28924868
-0.05400836 0.24778603 0.0748327 -0.11572377 -2.883461 0.0038087382 1.8056657 0.0081298025
0.67201054 0.3833508 -1.3299557 0.38755283 0.3169612 -0.4305018 -0.9910125 0.62621635
-0.96719253 0.42003372 -0.6252747 -2.3414185 -1.2199544 0.54557055 0.15256149 0.33490697
-0.9799174 -0.5103443 0.38529894 -1.1235241 1.2080113 0.43533736 -1.1601441 -0.2701136
-0.054674674 0.18830271 -0.32890052 -0.43229672 -0.9680591 1.1662083 -0.5152531 -1.2777447
-0.36024007 0.05346596 -0.4449883 -0.054747295 1.8656658 1.0599873 1.5727682 -0.9158779
0.35537586 0.29938245 -0.055022966 0.28322446 -0.52232724 -0.032674182 -1.1628414 0.17558181
-1.4324256 0.1592771 0.21082199 -0.43567494 -1.5148172 -0.84606755 -1.6807277 0.29116145
-0.24255615 -3.8531883 -0.1532652 -1.2424995 -0.050488234 0.022783883 -0.111504555 -0.049323283
-2.028754 0.2143492 -0.65687686 -1.1121856 -0.16713253 0.669234 -0.44647625 -0.7788487
-0.51238465 0.01682121 -1.8667 0.7861616 -0.110170685 -0.069917984 -0.22699162 -0.024987267
-1.6278378 0.21587783 0.22415347 -0.16349626 0.2808312 1.2119784 0.6086072 0.17413601
0.41944027 0.8170383 0.3511481 -0.066085234 0.39723486 -0.42566907 0.46241 0.7186119
-3.2058976 -2.343391 -1.2841161 0.46723175 1.1296737 -0.13387328 0.09391163 -0.28059798
1.576198 0.26789975 0.6593294 -1.4004344 -0.98985773 -0.72835535 -0.70658517 0.066642664
0.82269585 -0.9193071 -0.28486666 -1.4907247 -1.3336427 -0.2805481 -1.1893587 -0.7447818
1.2971523 -0.37915424 -0.485288 -0.36979553 -0.8464995 1.6511109 -0.5148894 -0.12340782
0.19058007 -0.16512536 -0.40882894 0.5507586 -0.080683395 -0.33003765 -0.9517315 -0.49645832
0.11635535 -3.4549866 -0.7600558 0.17326395 -0.30386457 0.21034865 0.3453802 0.35596886
-0.024267122 -0.49329242 -0.70203894 -0.1378343 -1.7146078 -3.4375782 -1.4028482 -1.477409
0.9505569 0.73392254 -0.25114876 0.4977864 0.06218559 -0.05854591 -0.099805586 1.0829489
0.017332949 0.10579144 -1.1836957 0.38720956 -0.06576514 -0.7430462 -0.3998566 1.6438042
0.41707316 0.42756635 -0.1984856 0.4461074 0.038375497 -0.354711 -0.29271623 -0.03798198
0.17523295 0.6773217 0.16561086 0.05660967 -0.03725656 0.11649589 0.56269693 -0.24958152
0.7661607 -1.3484058 0.06807974 0.19260895 -1.6176006 0.73919696 -0.23156229 -0.008094583
-0.14063282 -0.37107837 0.18455674 -0.062044267 0.9456168 0.023191476 0.08844519 -0.013121324
0.035955757 -0.6674975 -0.58273584 -0.1099779 -0.23886 -0.029970063 0.08735481 0.09028754
-1.0406364 0.28949466 -0.15047148 -1.2148334 -1.2720667 -0.2986465 -0.48546904 0.63346773
0.12433392 0.6428783 0.10469441 -0.9014324 1.1884738 -0.16604884 -0.81414455 -0.015545744
-0.026094653 0.35589653 -0.34548652 -0.86557084 -2.9404743 -0.20043002 0.10774587 0.1930243
0.04550038 -0.14203429 0.9246711 -0.043182492 0.05428369 0.33859372 0.058306143 -1.1288216

bias f4 [200]
00000000: 6e33 26be ea14 2b3d d738 20be fca0 5dbf
00000010: e5e3 0abe a0c1 b3bd 6076 bcbe 8385 33bf
00000020: a8f2 acbe 1057 38be e494 7abd 61d4 4cbd
00000030: ab81 82bd 0ac2 47bd bba0 6ebd 8f65 12bf
00000040: 6294 dfbd 0a72 dcbd 0e62 99bd 2064 033f
00000050: b547 84bd 8282 6d3e 1ba0 803e e7c5 a8bd
00000060: 52e0 50bd dd2c 06be 185c 29be f16f 44be
00000070: c2d9 9abe b9ba c0bd eb47 f83e f5b0 00be
00000080: 0da9 62be ed0e debe 3997 c8bd 386b 96be
00000090: acc6 413e 84fc 063e 9f75 27bf 0a6e 8c3d
000000a0: b028 ad3d c990 033e 46a4 af3e eec6 213e
000000b0: 7c57 02bf f69e 0fbf c44b f5be a22c 50bd
000000c0: 5317 65be 7889 0cbf 76f0 66bf a806 b2bd
000000d0: d6de 15be e43e 20bf cc7e ddbd efc5 6cbe
000000e0: a01f b5bd a6e1 1abd 39fc bfbe 34e9 b0bd
000000f0: be0a cf3e cc13 133e a10b c9bd 1dc5 37bf
00000100: 3ade 51bd 7ffc bfbe fdad f9bd 916a 4f3d
00000110: 3228 32bf 2e71 a03e 10d4 b6be 482b 3bbd
00000120: 0ee6 9cbd a5af 5c3e 77ff e23e c398 583f
00000130: e3a8 233f 3807 83be 14de f9bc 7b6e edbe
00000140: 48a8 bbbd 38f0 ad3e 825b 533d 2470 7dbc
00000150: e5e3 8abd 5b6e 16be 4cf9 9fbe 9f8d b3bd
00000160: a3a2 703d 2f48 cabe b137 b7be 6bc8 64bc
00000170: 3b1c 4f3d e380 19bf 4d7d 39bf db8e e5bd
00000180: 3d3b 1ebf e7fd a7bc 0758 a6bd 9e2a 96bd
00000190: 10f5 bfbd a7f8 2bbd 7fea 65bd 8adb 59bd
000001a0: 7f3f abbd 26da 32bf 2103 40bd 5076 dabe
000001b0: 17d3 253e dec8 9ebd 563e 1dbe 4567 4bbf
000001c0: e860 bdbd 2ef4 96bc 7811 84be 7b21 25be
000001d0: b9ef 4cbe 3634 1abd 9d57 02be f719 57bd
000001e0: 393a cbbd ee51 81be 139e 5fbe 575e 00bd
000001f0: 8daf 0abf eb66 eebc d4b9 febe 63d1 c0bd
00000200: 4fdb e6be 4d7f 003f 2f10 43be 4f14 27be
00000210: b9f5 cbbd 1528 8fbe 3ee9 96bd e2c8 50bc
00000220: 802f b6bd 18f7 50bf f274 bdbe 330a efbe
00000230: e98c 393f 3a15 88be 92a3 dc3e f2b1 d2bd
00000240: d3b8 e1bc 458a e0be 49c5 cbbd de1e 61ba
00000250: e2f9 543e 216e 43bd 414c c5be d7b7 28bd
00000260: 85ee 8fbd 523b 253d c672 dabe 955d e83d
00000270: 4f90 ba3e 6832 b2bd 74fe 863e 3475 bcbd
00000280: a006 21be 24a8 693e e870 393f ff98 b73e
00000290: fd7c 8ebd e779 a4be bd41 82be d36c 913e
000002a0: 1774 2cbd 6273 58bf b8b2 39bc 92b0 8d3c
000002b0: 586c 42bf bc68 c5be 6a40 d1be 31f4 c8bd
000002c0: e983 c1bd a5fb 05be cc65 76bd fa41 b7be
000002d0: 914a 773d e15f e1be f491 d03e ec81 8f3b
000002e0: 4471 f5bd 6dd8 e33e ef42 26be e736 abbd
000002f0: 83be 65bd 3a31 28bf 312e 6cbe f041 6ebe
00000300: ae3a 1ebf 02bd 5fbd 93ec f4be 5130 cd3e
00000310: df1f 86be 8aa5 96be a076 33bd ede6 56bf
-0.16230556 0.041767992 -0.15646683 -0.8657377 -0.13563497 -0.087771654 -0.36809063 -0.701256
-0.33778882 -0.18001962 -0.06117715 -0.050007228 -0.063723885 -0.048769034 -0.058258753 -0.57186216
-0.10916974 -0.10763939 -0.074894056 0.51324654 -0.064589895 0.23194316 0.2512215 -0.08240872
-0.05099518 -0.13103051 -0.16539037 -0.19183327 -0.3024426 -0.094106145 0.4849237 -0.12567504
-0.221348 -0.43370762 -0.097944684 -0.29378676 0.18923444 0.13182265 -0.6541385 0.06856926
0.08455026 0.128482 0.34305018 0.15798542 -0.5091474 -0.5610193 -0.47909367 -0.050823815
-0.22372179 -0.5489726 -0.90210664 -0.08692676 -0.14635786 -0.62595963 -0.108152 -0.2312238
-0.088439226 -0.03781285 -0.37497118 -0.0863823 0.40437883 0.1436302 -0.09816671 -0.71785146
-0.051237322 -0.37497327 -0.12191389 0.05063874 -0.69592583 0.3133635 -0.35708666 -0.045695573
-0.07661067 0.21551378 0.4433553 0.84608096 0.63929576 -0.25591445 -0.030501403 -0.46373352
-0.091629565 0.33972335 0.05160094 -0.015468631 -0.06781749 -0.14690535 -0.31244886 -0.087672465
0.058748852 -0.39508197 -0.35784677 -0.013963799 0.050564032 -0.5996229 -0.7245682 -0.11208888
-0.6180914 -0.020506812 -0.08122259 -0.07332347 -0.09372914 -0.04198518 -0.056131836 -0.053187884
-0.0836172 -0.6986412 -0.046877984 -0.4266839 0.16193806 -0.07753156 -0.1535581 -0.7945445
-0.09246999 -0.01842698 -0.25794578 -0.16126053 -0.20013322 -0.03764745 -0.12728734 -0.052514996
-0.099232145 -0.2525782 -0.21837644 -0.03133997 -0.5417412 -0.02910181 -0.4975115 -0.09414937
-0.45089194 0.50194246 -0.19049142 -0.16316341 -0.09958977 -0.27960268 -0.07368706 -0.012743207
-0.08895779 -0.81627035 -0.37003285 -0.4668747 0.72480637 -0.26578695 0.43093544 -0.102878466
-0.027553951 -0.4385549 -0.099497385 -0.00085876684 0.20798448 -0.04771245 -0.3853474 -0.04119095
-0.07027916 0.040339775 -0.4266569 0.11345974 0.36438224 -0.087010205 0.26366007 -0.09202042
-0.15725183 0.22818047 0.72437906 0.35858914 -0.069574334 -0.32124254 -0.2544078 0.2840334
-0.0421029 -0.8455106 -0.011334114 0.01729611 -0.7594657 -0.38556468 -0.40869457 -0.09812201
-0.09448988 -0.13084276 -0.060155675 -0.35792524 0.060373846 -0.44018462 0.40736353 0.0043795016
-0.11984494 0.44501057 -0.1623647 -0.08360081 -0.05608989 -0.65700114 -0.23064496 -0.2326734
-0.6180829 -0.05462361 -0.47836742 0.40075925 -0.2619619 -0.2942317 -0.0438143 -0.83946115

weight f4 [1, 200]
00000000: 40f5 303e 031b 22be d304 7f3d 4f50 bfbe
00000010: fe2c 2c3d 4cc4 79bc fe20 a6be 7829 ce3d
00000020: 39c7 f6be e87e b8bb b515 84bc 9f1b bebe
00000030: ed64 3cbe b567 08bf b1c8 c9ba d224 6e3e
00000040: 4386 65bc 5706 b7bd 3ae2 e1bc e06f 803d
00000050: 619a c53b 520e 333e 4cda 6dbe 0803 b0bc
00000060: 65be 0abc 5bb8 75bb f935 96bf a4ac 0e3e
00000070: 2178 833e 5121 c2bb f318 813e 6f4e 223c
00000080: 439e 8a3e acfb 50be fc72 ff3a 7c50 95be
00000090: e4ec 753d 2cc5 0ebe 1708 64bf f7dd a53d
000000a0: d61a 3fbf b6be 66be e69f 4a3d ce2a 3dbe
000000b0: 7a26 12bf 67cb 05bf 3704 bbbe 9c61 783b
000000c0: 625c 60bf d405 36be 990f 26be c5c4 97bc
000000d0: 005f c5ba 7738 afbe 3ac3 2fbe 3e78 d63e
000000e0: 98a8 b63c c028 cdbd 56bb 91be b058 da3d
000000f0: 4afd 7bbe f173 f7bd 8527 13bd ada3 3dbe
00000100: cc8a f4bc 424e 82be f958 383e e12f 43be
00000110: b72c 6ebe e486 6e3d a96b 733e 8ba0 e73b
00000120: 5a20 ed3a c2e3 863e cef3 333e 76d2 523d
00000130: 8dda d13d 457e 0fbe 4508 133c d666 a9bf
00000140: d3f0 e03c aa8a 023e 4641 b9be 4d84 8cbc
00000150: 230d e83b 0fef 48bf e2f8 8ebe 1e18 d33e
00000160: abd6 153e 358d b73e 71be 52be a997 503b
00000170: c4aa 03bf 0b89 2ebe 9840 3dbe e826 36bc
00000180: d763 583e 6279 d73c 5529 94bd dcb3 fcbc
00000190: 4581 83bc 8610 1bbc d6ad d3be c9f4 c13d
000001a0: f18e c33c c168 d3be d678 26bc 1767 3bbe
000001b0: e571 633e 6c08 043d b45a 85bd a9d1 a3be
000001c0: 941b f6bc 9cb9 7a3a fc3f 833e 5056 11be
000001d0: aeda 2d3f be4d 993c 1436 fc3c 3af6 863e
000001e0: 4446 f83c 8a52 383e f378 473e a1d7 59be
000001f0: 6f08 36bf 8390 75bd fec2 2cbf 8e6e e7be
00000200: 757f 20bf b81f 8a3e 598f efbe 7644 29bc
00000210: 8a55 67b9 04cd 863e a369 7cbb 6b5a ee3c
00000220: 6ef4 173c cabf 2fbe 4b1d 3cbf 5e0a 2bbe
00000230: 4e52 563d 5bf0 cdbf aec1 893e 9cb6 073a
00000240: 17d3 313d 47c1 6a3e 4709 303c 0d86 2abe
00000250: 04f9 b23d 9639 a3bc f0fa b1be 49f0 48bc
00000260: 04d5 0d3d 6d03 0e3e 9005 e3be d3d0 c43e
00000270: bf11 083e fa3d 5a3c 245f f03d ef51 203e
00000280: f067 063e 2531 083e f76f 3d3d a951 1cbe
00000290: e3f9 fe39 2332 ffbe dd13 1fbf 7dbe 083e
000002a0: 218c d7bc e427 08bf f448 89bc 6a95 c03d
000002b0: bc64 9dbe 5fb8 11bf 7ee5 a03f 5831 b4bb
000002c0: e22a 82bf fd90 133b 36f4 acbd c56f 3bbf
000002d0: a98a 6dbe 766b 703e 51d0 9f3d 23a2 643c
000002e0: d94e c6bc 0f1e 5a3d fd6c 19be ab12 e23c
000002f0: 2346 ebbb 03cb a6be a3eb de3d 09fe 2e3f
00000300: 1eb9 2a3e 59bf df3b a630 9fbe 9ccf 80be
00000310: dc3e 4cbf 7d4d be3d ffa0 213b d055 bbbe
0.17281055 -0.15830617 0.06226046 -0.37365958 0.042035095 -0.015244555 -0.32447046 0.10066503
-0.4819887 -0.005630363 -0.016123632 -0.37130448 -0.18397875 -0.53283244 -0.0015394894 0.23256233
-0.014009061 -0.08936756 -0.027573694 0.062713385 0.0060303663 0.17485932 -0.23227805 -0.02148582
-0.008468245 -0.0037493918 -1.1735221 0.13933045 0.2567759 -0.005924382 0.25214347 0.009906395
0.2707387 -0.20408505 0.0019489224 -0.29162967 0.06004037 -0.13942403 -0.89074844 0.08098977
-0.74650323 -0.22533688 0.049468897 -0.1847336 -0.5708996 -0.5226349 -0.36526653 0.0037899977
-0.87640965 -0.17775661 -0.16216888 -0.018526444 -0.001505822 -0.34222767 -0.17164317 0.41888613
0.022297189 -0.10017538 -0.28463238 0.10661447 -0.24608341 -0.12082661 -0.03592636 -0.18519469
-0.02985134 -0.2545033 0.1800269 -0.19061233 -0.23259245 0.05823411 0.23771538 0.0070686988
0.0018091307 0.2634564 0.17573473 0.051470242 0.102467634 -0.14013012 0.00897414 -1.3234508
0.027458584 0.12748209 -0.36182612 -0.01715293 0.007081644 -0.78489774 -0.27924258 0.41229337
0.1463267 0.3584992 -0.2058046 0.0031828678 -0.5143244 -0.17044465 -0.18481672 -0.011117674
0.21131836 0.026302997 -0.07234446 -0.030847482 -0.016052851 -0.009464389 -0.41343564 0.09470517
0.02387187 -0.41290858 -0.0101606455 -0.18301044 0.22211416 0.032234594 -0.06511441 -0.31995896
-0.030042447 0.0009564401 0.25634754 -0.14193082 0.67911804 0.018713828 0.030787505 0.2635973
0.030306943 0.18000236 0.19479732 -0.21273662 -0.7110662 -0.05995227 -0.67485034 -0.45201534
-0.62694484 0.26977324 -0.46789053 -0.010331264 -0.00022061742 0.2632829 -0.0038515113 0.029095849
0.009274585 -0.17163005 -0.734822 -0.16703174 0.052324586 -1.6088976 0.26905578 0.0005177052
0.0434142 0.22925292 0.010744399 -0.16652699 0.08738902 -0.01992492 -0.34761763 -0.01226432
0.034626976 0.13868494 -0.4434018 0.3844057 0.1328802 0.01332044 0.11736897 0.15656255
0.13125587 0.13299997 0.046249356 -0.15265526 0.00048632835 -0.4984294 -0.62139684 0.13353916
-0.026311936 -0.5318587 -0.01675842 0.094034985 -0.30740917 -0.5692195 1.2570035 -0.0054990463
-1.0169337 0.002251684 -0.08445017 -0.7321742 -0.23197426 0.23478493 0.07803405 0.013954672
-0.02420752 0.053251322 -0.14982982 0.027596792 -0.007179992 -0.3257676 0.10884788 0.68356377
0.16672179 0.0068282303 -0.31091803 -0.25158393 -0.79783416 0.092921235 0.0024662612 -0.36588907

weight f4 [200, 15]
00000000: 537b 86bf 4345 903d 117e ebbe 6cad 2f3f
00000010: 4a9c 8cbf a953 d93e 90a2 823d d7de 80bd
00000020: 9ea9 16bf e8dd e4bc 1131 e53d 98ae 37bf
00000030: 19e5 233f b21c 803e ab72 533d f533 203e
00000040: d555 0abe 3793 713d 5feb d13d 8ee0 aa3f
00000050: 841e 9dbe f745 09c0 2da9 23c0 b470 973e
00000060: 13dc f83c 3ba5 3abf 9c49 f13c b875 dabe
00000070: 0b6b 22be 2ec6 b33d 0daf 8abf d6bb 5dbe
00000080: feb5 303e 37f2 2d3f e5ca 21bf c760 4f3e
00000090: 625a 3f3b 262e 5a3f fe39 663e 3765 4c3d
000000a0: 325f 973e 2d7a 3a3f b5b2 d83d 0d22 57be
000000b0: b6fa 2c3d 0481 563e 25f3 343d 1a3f 693e
000000c0: 2663 9e3e c5a0 0d3e e557 1d3e e6dd 183f
000000d0: f267 913f baeb cf3c 381c c03e 5c0b f8bf
000000e0: 8337 12bc 5b99 61bf 651f a3bf 95e4 b53e
000000f0: 60af e1be 6cac e3bd 10b5 8b3e caf0 afbe
00000100: ead7 a1c0 b0f6 cdbd a174 313f 5f51 b43f
00000110: 1c4c c4bd 0aff 67bb ba7e 513d 7e89 db3d
00000120: 834c 5cbe 1600 abbe 9177 80bd ec89 043f
00000130: 3e0b f8be 103d 1d3d cf3b 6d3d f5d7 5d3e
00000140: 4e34 a9be aef3 903e 499b 943f 3a4f c63e
00000150: 8636 0cbf ff1a 02bc 8e0f b7be b4fc 60bf
00000160: 46a8 5ebf 5d27 c1be d931 493f d45c 583f
00000170: c8a0 cfbe dc32 eabd 2c2b d83c 68f6 69bf
00000180: 6339 0abe fd6b 563c 06fe 593f 443a 12be
00000190: 525a d8bf 4058 0f3d b2e6 963d e2cd 173d
000001a0: e537 693f 78a4 37bd 85ef 0cbf 7330 4a3e
000001b0: 3abc 81be 43fb 753e ecba 86be dfc5 c0bf
000001c0: 2b91 543e 55f5 7c3d 2e77 983e a059 eabf
000001d0: c01d 163f de89 b1bc 9fc2 52be 6822 87be
000001e0: e91f 1a3e 8ea8 dbbe 7dea d43e ccc7 73be
000001f0: 2959 f33e dfed 313f 94a1 4a3f ea8f 5f3e
00000200: 5c78 f33e aeab d43e 563f 643d 9c36 f4bd
00000210: e142 6ebe 8e45 eabd c51c 91be 67fd ecbd
00000220: 8e39 98be d890 19be 45b5 0abf f270 a6bf
00000230: ceaa ce3e 229a 1cbf 2cba 47bf 5491 debe
00000240: 5513 ecbd 3a1e ef3c 9bbc 0e3f b359 85be
00000250: 1c28 e9be bd8b 89bf 6933 973e 4fb7 04bb
00000260: f2fe 973e b317 1abf fe53 ae3d 87a4 15bd
00000270: 9558 ebbe c1cd 00bf 20f2 2b3e f74e 163f
00000280: e84b bf3e 6479 c23e 9d8c 273e 4436 2c3e
00000290: 729a 94bd 8da9 50be 3498 15bd eb0b 9a3f
000002a0: 8639 933e eb0a 8d3e 063b f93e 4d44 6c3e
000002b0: a4b5 0d3e ae6b cbbf 1f7f 993e e825 663d
000002c0: 6179 38be 9aaa a4bd 7e8f e3be 67d8 1d3d
000002d0: 8c65 79be bed8 8b3d ea7e a4be bd27 633e
000002e0: a4e8 303f 98be ea3e 70a0 e8be 4718 babf
000002f0: 3175 27bf adfe 873e e51d ec3e e06a ffbe
00000300: 4273 b1bf 6671 90bf 3a1a 7dbe 6310 063e
00000310: 63ca c0bb f84d 28bf 865f 1fbe 669e 293f
00000320: 4dc0 56bd 8b21 a1bf 276f c0bf 14eb fa3e
00000330: 50e1 cd3e db9a 573f e221 a43e 99cf f9bd
00000340: fcdb 1ebe f805 083f 25a1 f53f be79 ac3e
00000350: c22f 903e 8a4d 61bf abd2 69bf fa6e 4ebe
00000360: 94d8 1fbe a5bd dfbe 3239 50be 9a11 3c3e
00000370: 26ac a2bf ed4d d8be ffa2 88bf 5d7e 9abf
00000380: b8cc 10bf db0a 4a3e d6d3 253f c1b8 0bbf
00000390: f3eb 0abf 7c52 a43e cfd1 7f3b 5d63 b3bd
000003a0: 89a1 d23e b46a 7bc0 1678 3dc0 f036 5a3f
000003b0: 27fa e1be eaf8 a83e d0a1 633e da25 4b3e
000003c0: 07a3 d3bc db73 7cbd 6897 893d 45a7 d53e
000003d0: 3274 f63f 24c9 0f3f e9a1 8c3d 00ce e5bf
000003e0: 16cf 27bd e159 a2bd 4168 f8bd 4552 00c0
000003f0: 7629 d1be badc 613d 3982 42bc e0f3 eb3e
-1.0506386 0.070444606 -0.4599462 0.68623996 -1.0985196 0.4244664 0.063786626 -0.06292503
-0.58852565 -0.027937844 0.11190999 -0.71750784 0.6402145 0.25021893 0.051623028 0.1564482
-0.13509305 0.058978286 0.102499716 1.3349779 -0.30687344 -2.1448953 -2.5572007 0.29578173
0.030378377 -0.7290837 0.029454045 -0.42667937 -0.15861146 0.08778034 -1.0834671 -0.21653685
0.17256925 0.67947716 -0.6320022 0.20251761 0.002919816 0.85226667 0.2248306 0.049901213
0.29564816 0.72842675 0.10580961 -0.21009083 0.042231284 0.20947653 0.044177193 0.22777978
0.3093502 0.1383086 0.1536556 0.5971359 1.1359847 0.025380958 0.3752153 -1.9378467
-0.008924368 -0.88124627 -1.2743956 0.35525957 -0.44079113 -0.11116871 0.27286577 -0.34363395
-5.0576067 -0.100568175 0.69318587 1.4087332 -0.09584829 -0.0035399818 0.051146246 0.10719584
-0.21513562 -0.33398503 -0.062728055 0.5177295 -0.48446077 0.038388312 0.057918366 0.21664412
-0.33047718 0.28310913 1.1609889 0.3873232 -0.54770696 -0.007941007 -0.35754055 -0.87885594
-0.86975515 -0.37725344 0.78591686 0.84516644 -0.40552354 -0.11435482 0.026387773 -0.9139161
-0.13498454 0.01308727 0.85153234 -0.14280039 -1.6902564 0.03499627 0.073682204 0.03706158
0.91100913 -0.044834584 -0.5505298 0.19745044 -0.25338918 0.2402163 -0.26314485 -1.5060385
0.20758502 0.061757404 0.29778427 -1.8308601 0.58639145 -0.021672186 -0.20582055 -0.26393437
0.15051235 -0.42902035 0.4158515 -0.23806685 0.4752896 0.6950359 0.791528 0.21832243
0.47552764 0.4153723 0.055724464 -0.119244784 -0.232677 -0.11439048 -0.28342262 -0.1157177
-0.2973141 -0.1499666 -0.54182845 -1.3003218 0.4036469 -0.6117269 -0.7801845 -0.43470252
-0.11527125 0.029189218 0.5575654 -0.26044998 -0.45538414 -1.074577 0.2953141 -0.0020250862
0.29686695 -0.6019241 0.08512114 -0.03653386 -0.4596602 -0.50313956 0.16791582 0.5871424
0.373626 0.3798324 0.16362233 0.16817576 -0.072560206 -0.20377178 -0.036522105 1.2034887
0.28754824 0.27547392 0.48677844 0.2307293 0.13838822 -1.5892236 0.29979798 0.056188494
-0.18015052 -0.08040352 -0.44445413 0.038536455 -0.24355143 0.0682845 -0.32128078 0.22183128
0.6910498 0.45848536 -0.45434904 -1.4538659 -0.65413195 0.2656149 0.46116558 -0.49886227
-1.3863299 -1.1284606 -0.24717036 0.13092189 -0.0058835014 -0.6574397 -0.15563783 0.6625732
-0.052429486 -1.2588362 -1.5033921 0.49007475 0.40210962 0.84220666 0.320571 -0.12197799
-0.15513605 0.5313411 1.9189802 0.33686632 0.28161436 -0.8800894 -0.9133708 -0.20159522
-0.15609962 -0.43699375 -0.20334318 0.1836609 -1.2708786 -0.42246953 -1.0674742 -1.2069813
-0.56562376 0.19730704 0.6477636 -0.5457879 -0.5426628 0.3209418 0.0039034968 -0.087591864
0.41138867 -3.9283876 -2.9604545 0.8524008 -0.44136164 0.33002406 0.22229695 0.19838658
-0.025834573 -0.061633926 0.067183316 0.4172918 1.925421 0.5616629 0.068668194 -1.7953491
-0.040968977 -0.07927299 -0.1212926 -2.0050213 -0.40851945 0.055142142 -0.011871868 0.460845

bias f4 [200]
00000000: afb9 e03e 58cb 403f 5b0d 35bf 0ef6 3c3e
00000010: 7525 153f 1d42 3ebf 5886 01bf b592 083f
00000020: f7bd 81bf 2d9e a03e b62f 63bf 28ba 65bf
00000030: bd8f 003f a48c edbe d8d4 bdbe 0745 7f3e
00000040: 4133 283f 7658 863e 6047 7dbe c70f 51bd
00000050: 1576 ea3e 376f 83bf 90f2 d63c 14ee 113e
00000060: 7e7c 07bf 1c22 59bf 4bf1 1dbf dea8 1b3f
00000070: 9c80 30bf 8253 873d ed40 cfbe 79bc b53e
00000080: 5ed2 93bf e9c1 bf3d 0589 a2ba 2cc0 4fbf
00000090: fbfd e4bd 4065 4f3e f944 78be 514c 11bf
000000a0: 5df0 0cbe ef47 32bf df6b 1fbe 35fe 1a3f
000000b0: 4d81 47bf 02d6 41bf e16e 8cbd a9c7 0f3f
000000c0: f00f 3dbf a93f 1b3f 7e40 5bbf 76c0 89be
000000d0: d7f1 b13d 1850 e63d dec9 56bf 5eef 9c3d
000000e0: f2e9 1e3e 2da5 9a3e c6ef d6be ceb4 d0be
000000f0: 5a47 42be 8852 483e 797b dcbd 793b b03d
00000100: 25d0 fdbe cc4b 77be a5fa 1d3e db6a 6bbe
00000110: f363 8e3e bfdd be3e f3fe 43be e137 69bf
00000120: c264 3bbf d2d8 363e 7cf4 17bf 020c 8b3e
00000130: f44f 133e 656f 93be 730c d2be 5e9b 303d
00000140: 51ea 343f 2305 4abf 7520 eb3e c69a 83be
00000150: 5304 0bbd 57fa 7cbe 6733 d0bd 4d51 1c3e
00000160: b692 b8be 5100 1a3f 66b7 2abf efff 133e
00000170: 0316 f7be 3ceb 693d ffa3 36bf de39 923e
00000180: 8490 2cbf 6f47 9dbe 464d a93d 9378 d0bd
00000190: ced6 453d 16e9 31be 8e10 fb3e 2624 90bd
000001a0: 6d8b 95bf 81a9 09bf 0b72 39be 9644 61be
000001b0: c3b6 1f3f fd87 27be d6ac 8b3c 8104 0e3d
000001c0: 8460 db3e 3a08 0ebe e67d ed3e b840 b3be
000001d0: f191 b5be 74de f6be 3611 f1be 4e72 fbbe
000001e0: d0a1 463f 2e32 a9bd 471a dfbe d4bf 083f
000001f0: 9453 75be 6276 5fbe 5ea0 13bd 21e5 3cbe
00000200: 70a2 9cbe 0bda 533d 1b38 b73e 12a6 f2bc
00000210: 57f7 cf3e cee9 843f 25ee 05bf 0351 fcbe
00000220: c563 e53d 289f c53d 77f4 40bf 5e6e 653d
00000230: 2873 2dbf 60c9 c2be 21c0 72bf 0ec6 b6be
00000240: 2e0d 6fbd 458b febe 442b d33e 4e94 b03e
00000250: 19cf e33e 6eb0 0dbf e0a2 27bf 8dd7 93bc
00000260: 5168 eb3e 33ed f2be 9f45 2abf a0a2 f7bd
00000270: 3a65 a7be cbcf 613e 47aa 73be 6117 a23e
00000280: 8aaf 0a3e 500f 023f c03c dfbe db80 eb3e
00000290: fc5d 9ebf 853e a93e 7f5d 8dbf 7a75 a0be
000002a0: d794 c63e 911d 253e acc5 04bf 5ec8 9cbe
000002b0: 4893 30bd 3359 313f 2ef3 febe 3102 24bf
000002c0: 8770 bd3e 54b3 96bf ad88 0fbd 42c2 74be
000002d0: a4a2 91bd c80f ffbe e59b 81be 4856 2cbf
000002e0: 45ae 05bf 2da2 e6be 6ed8 90be 5d45 50be
000002f0: 6d3a 043e fa9d 87bf 9a02 123e 005f f2bc
00000300: d72c 2e3f 69d3 84be 9555 173f be2f dcbe
00000310: 2c22 233d f456 85be 911c fe3e ba4c 2f3f
0.43891665 0.7531028 -0.70723504 0.18453237 0.5826028 -0.7431963 -0.5059562 0.5334886
-1.0136098 0.3137068 -0.88744676 -0.89737177 0.5021933 -0.46396363 -0.3707645 0.24928676
0.6570321 0.26239365 -0.24734259 -0.051040437 0.45793214 -1.0268315 0.02623871 0.14250976
-0.52924335 -0.8481767 -0.6169631 0.60804546 -0.6894624 0.06607725 -0.40479222 0.35495356
-1.1548574 0.09363157 -0.0012400454 -0.81152606 -0.111812554 0.20253468 -0.24245061 -0.56757075
-0.13763566 -0.6964101 -0.15568493 0.6054414 -0.7793167 -0.75717175 -0.06857086 0.5616403
-0.73852444 0.6064401 -0.8564528 -0.2690465 0.086887054 0.112457454 -0.83901775 0.07662843
0.1551893 0.30204144 -0.41979808 -0.40762943 -0.18972531 0.19562733 -0.10765738 0.086050935
-0.49572864 -0.24150008 0.15427645 -0.22989981 0.2781063 0.37278554 -0.19140224 -0.9110089
-0.7320062 0.17856148 -0.5935743 0.271576 0.14385968 -0.28795925 -0.41025123 0.04311692
0.7067004 -0.7891409 0.459232 -0.2570402 -0.03393967 -0.24704872 -0.10166054 0.15265389
-0.36049432 0.6015673 -0.66686094 0.144531 -0.4825898 0.057109103 -0.7134399 0.28559774
-0.67408013 -0.30718562 0.08266692 -0.10179248 0.048300557 -0.17374071 0.49036068 -0.07038145
-1.1683174 -0.5377427 -0.1810991 -0.2199882 0.6238825 -0.16360469 0.017050188 0.034672264
0.42847073 -0.13870326 0.46385115 -0.35010314 -0.35462907 -0.48216593 -0.47083443 -0.49110645
0.77590656 -0.08261524 -0.43574736 0.53417706 -0.23957664 -0.21822503 -0.03604161 -0.1844678
-0.3059268 0.051721614 0.35784993 -0.029620204 0.40618393 1.0383852 -0.52316505 -0.49280557
0.1120067 0.09649497 -0.75373024 0.056013457 -0.6775384 -0.38044262 -0.94824415 -0.3569798
-0.05836218 -0.4971563 0.41243947 0.34488147 0.4449394 -0.55347335 -0.654829 -0.018047119
0.45978025 -0.47446594 -0.66512483 -0.12091565 -0.32694417 0.22051923 -0.23795424 0.31658462
0.13543525 0.50804615 -0.43601036 0.45996746 -1.2372432 0.3305551 -1.1044158 -0.31339628
0.3878543 0.1612456 -0.51864123 -0.30621618 -0.04310921 0.6927673 -0.49794906 -0.64065844
0.36999914 -1.1773477 -0.035042454 -0.23902228 -0.07111099 -0.49816728 -0.2531425 -0.67319155
-0.5221904 -0.45045605 -0.28290123 -0.2033896 0.12912913 -1.0595086 0.14258805 -0.029586315
0.6803717 -0.25942543 0.5911496 -0.43005174 0.03982751 -0.26042902 0.4963117 0.6847645

weight f4 [200, 200]
00000000: d1af a4bf 8f0a efbe e8a6 9ebd ba7d 0a3e
00000010: 5904 57c0 06d2 1abf 26ff 23bf b204 d9bf
00000020: b234 1abf c300 6b3f eec4 ab3f 9554 c63d
00000030: 1fc6 27c0 7039 16bf 0da8 1ebf cb53 2dbe
00000040: b10d 763e 88aa 1dc0 83f4 f7bd 18b4 32bf
00000050: 4813 17bd f578 ed3e 139a 5bbe 1f4d 14bf
00000060: c002 e9be 8cb6 cfbf cabb 12bf b7d3 543d
00000070: 8121 273f 733c 1d3f e0f9 c3be aba7 a9bd
00000080: 7363 76bf 8a82 d3be 56b3 c4bd acc7 4bbe
00000090: b7a6 413e 30c5 3bc0 1d59 833e a362 34be
000000a0: 35bb 0ac0 5f8b 22bf 71b4 a3be 8d14 0fbf
000000b0: 7bfc 4dbf 232a 193d 0cba 08bf bf9e 283f
000000c0: d87c 0dbe 8913 fb3e e429 8dbf 8ed2 8d3e
000000d0: 0636 9dbe 36dd 1bbe 1fd7 59bf f09c 49bf
000000e0: a091 b93e a021 bdbe 5c9a aebf 1e4e 5b3e
000000f0: 876a 6c3f b966 873e 6602 71be 54b5 4ac0
00000100: 90c9 803e 5256 9e3d afad babf 5f0a abbc
00000110: 989a b0bf cfc5 d3be cb5d 6fbd 73d8 a5bf
00000120: ede0 82be dc36 fcbe fa13 013f 7a19 9fbf
00000130: cff7 313e 82a0 d13b ea9b e33f 7338 16bf
00000140: 6ff0 f1bf 5a35 03bf 61c5 64bf efdc d83f
00000150: 9ca7 c0bf 11bc 1fbe e59b 36bf a428 b63e
00000160: 9b61 44bf 42dd 0cbf 284c 1dbe e728 d73e
00000170: 0f57 b83d a528 c5bf a305 003f 7aef 483e
00000180: 6cdd 7fbf b153 5cbf 42a6 3cbf 324a dcbf
00000190: 3b8e 08bf 967b 95be 2139 7a3f 2aed c73e
000001a0: 4aa4 ddbd ad83 03bf 59fd 9cbf c2ff 57bd
000001b0: a28c 96bf f9b0 0ebf 1260 0a3e 2567 423f
000001c0: 65b6 8e3d ad15 87be 26f2 11bf c9a8 8fbd
000001d0: 5392 b8bd 982c efbe 5f99 e73e 67d4 c3bd
000001e0: 9103 56bf 8f76 b93d 679e 39be 8132 e3be
000001f0: c396 f5bc 0815 b2be 3634 d5bd b16d 54bf
00000200: 3f8d 84bf 799a 75be 565a 20be c6eb 21bf
00000210: 4144 e5be 1ec8 9bbf 9b1e eebe 7c0f 48bf
00000220: bf5c debe 98cb 5f3f 6be9 80be 310a 2fbe
00000230: 5901 c03e f6b1 5e3d 20b2 0fc0 f7e9 1bbf
00000240: bb0f dbbf ee68 423f 85a4 df3e 9a8e 4f3e
00000250: 61e6 16bf db4e 97be 1d29 c83d e0e8 3abe
00000260: 537b 66bd cdc2 0c3f 21fc f2bd 8927 c5be
00000270: f5f3 8d3f 5be3 dbbd 22c2 52be 6435 fc3e
00000280: 711a b7bd 24ae 183e f882 9ebb 4c8a c7bf
00000290: 5127 1ebe 3300 ec3c 4196 b0be fe9c 92bf
000002a0: 8a6c 8b3f 2ea8 62be b1fd 35bf 0789 bbbd
000002b0: 1ed0 6f3f 484d 40c0 c88b b4bf d344 ecbe
000002c0: 32c0 593f 2047 083e c95c 863f b6cb 203d
000002d0: 060a 48bf 2329 c13f 49fd aa3e 7514 983d
000002e0: e440 e73e 23f5 5dbf 3481 babf 10f7 833f
000002f0: 0168 123f 81e2 68be 3a63 cc3f 3e69 9f3f
00000300: 362c 13bf fe27 ae3e 623c 34bf df33 a2be
00000310: 2498 923e c947 86bf e172 09bf 761e 273f
00000320: eeda 16bf 005f 033e 63f3 40c0 a7cf 133e
00000330: afd8 eabe 7a2d 20be 44ae bdbf 6eff c33e
00000340: 6e99 40bf e957 aebc a53a 88be 8fc1 20be
00000350: eeae adbf 93fd d2be f58f 073d 9bbc edbe
00000360: 7770 8cbd aba4 c2bf 89a2 74bf b03a 243f
00000370: 957b 9cbd 3af2 efbe ded9 17bf 4389 003f
00000380: 282d 0e3f 9f08 3dbf 0d12 9e3d c039 343e
00000390: fe35 1ebf 0127 903e 2f15 44bf 4086 b3bf
000003a0: 938e bdbe 4a21 88bf 827d db3e 36e0 a7be
000003b0: ba4e eb3d 1ce9 3a3f ed3e 963d b953 e73e
000003c0: 8efc 2bbf 4884 73bf 7274 80be 858d 02be
000003d0: aaf9 01bf 9ba4 593e b5f3 eebf 5536 96bf
000003e0: c7c8 01be aba8 e2be 3da6 04bf 6d37 6cbe
000003f0: 53a2 6bbe c379 f6be bacb e53e 5c98 0b3f
-1.2866155 -0.46687743 -0.077466786 0.13524523 -3.3596404 -0.6047672 -0.640612 -1.6954558
-0.60236657 0.9179804 1.3419473 0.096841015 -2.6214674 -0.5868139 -0.61975175 -0.16926496
0.2402866 -2.4635334 -0.12107184 -0.6980605 -0.036883622 0.46381345 -0.21445493 -0.5793018
-0.4550991 -1.6227584 -0.57317793 0.05195972 0.652855 0.61420363 -0.38276577 -0.08283933
-0.962455 -0.4131053 -0.09604518 -0.19900388 0.18911253 -2.9339104 0.25653926 -0.17615752
-2.1676762 -0.63493913 -0.31973603 -0.55890733 -0.8046338 0.0373937 -0.53408885 0.6586723
-0.13817155 0.49038342 -1.1028409 0.27699703 -0.3070528 -0.15221104 -0.85093874 -0.7875509
0.36243916 -0.36939716 -1.3640857 0.21416518 0.9235005 0.2644556 -0.23536071 -3.1673174
0.2515378 0.07731308 -1.4584254 -0.020878969 -1.3797178 -0.41361853 -0.058439057 -1.295668
-0.2556223 -0.49260604 0.50421107 -1.242965 0.17379688 0.006397308 1.7781956 -0.58679885
-1.89015 -0.51253283 -0.89363676 1.6942424 -1.505115 -0.15599085 -0.71331626 0.3557788
-0.76711434 -0.5502511 -0.15361083 0.42023394 0.0900098 -1.5403029 0.500086 0.19622603
-0.9994724 -0.860652 -0.7369119 -1.7210143 -0.53342026 -0.2919585 0.9774342 0.3904813
-0.10822351 -0.51372796 -1.2264816 -0.052734144 -1.1761668 -0.5573879 0.1351321 0.75938636
0.06968383 -0.26383725 -0.57010114 -0.07014615 -0.09012284 -0.4671371 0.452342 -0.09561997
-0.8359919 0.090558164 -0.18126832 -0.4437447 -0.029979115 -0.3478167 -0.10410349 -0.82979876
-1.0355605 -0.23984708 -0.1565946 -0.63250387 -0.44778636 -1.2170446 -0.46507725 -0.7814863
-0.43430135 0.87420034 -0.25178084 -0.17093731 0.37501028 0.054368936 -2.245247 -0.6090388
-1.7114176 0.7594136 0.43680206 0.20269242 -0.5894528 -0.2955235 0.09773467 -0.18252897
-0.056269955 0.5498474 -0.11864496 -0.38506725 1.1090075 -0.10736724 -0.20581868 0.49259484
-0.0894059 0.1491018 -0.00483739 -1.558908 -0.15444686 0.028808689 -0.34489635 -1.145416
1.0892498 -0.22134468 -0.7109023 -0.09156995 0.93676937 -3.0047169 -1.4105158 -0.4614626
0.8505889 0.13308382 1.0497066 0.039256774 -0.78140295 1.5090679 0.33396366 0.07425777
0.45166695 -0.86702174 -1.457068 1.0309772 0.5718995 -0.22742654 1.5967782 1.2453992
-0.57489336 0.34014887 -0.70404637 -0.316802 0.286317 -1.0490657 -0.53690916 0.65280855
-0.5892781 0.12829208 -3.0148551 0.14434682 -0.4586844 -0.15642348 -1.4818807 0.38280815
-0.75234115 -0.021282153 -0.26607242 -0.15698837 -1.3569009 -0.41209087 0.033096272 -0.46432957
-0.068573885 -1.5206503 -0.9556051 0.6415205 -0.07640759 -0.46864492 -0.59316814 0.50209445
0.5553765 -0.7384128 0.07718287 0.17600155 -0.61801136 0.28154758 -0.76594824 -1.4025345
-0.37022838 -1.0635159 0.42869192 -0.32788247 0.11489625 0.73011947 0.07336221 0.45181063
-0.6718224 -0.9512372 -0.2508884 -0.12749298 -0.5077158 0.21254198 -1.8668123 -1.1735331
-0.12674247 -0.44269308 -0.5181616 -0.23068018 -0.2301114 -0.48139772 0.44881994 0.54529357

bias f4 [200]
00000000: c8cc 01bf d771 0ebe 3206 c8bd 38bd b1bd
00000010: cb99 3cbf f3bd e9bd 8220 5ebd e980 c0bd
00000020: e163 ccbd ed36 0d3e 304d b6bd 3ed3 95be
00000030: c00e 11bd fb0f eabd 0c66 99be 0df3 05be
00000040: 0c8c ccbd 03a7 ebbd 1b5e 2bbf 2a56 ddbb
00000050: 0ccf 17bf ae96 97bd 91f5 41bc 2241 57bd
00000060: 8dbb 88bd e7f0 25bf d2c2 d7bd 661b c8bd
00000070: c556 88bd b933 4abe b9fb 8cbe 285e b2bd
00000080: 46eb 28bf e4a7 0abe c263 68bf b1aa 41bf
00000090: d528 1f3f 303b 80bd 10e4 77be 1e6b 1ebd
000000a0: fa43 02bf cf2e 2dbb d323 65bd be28 9bbd
000000b0: fd35 85bd ff7b a3bd 6e98 c93b a346 edbe
000000c0: a76d a5bd 539a e4be ad6c 07be 4e86 f9bc
000000d0: 79f2 6dbf 7cff 673e 5484 cdbe acc5 72bd
000000e0: ab83 64bd 892e 47be 0c19 573f 466f 1fbe
000000f0: 4391 d63d e84d 3cbd be48 d7be e8b6 03bf
00000100: 6c8c babe d96f cdbd ff26 2dbe f82d 5d3e
00000110: 2613 99be eaab d6bd 72ef 0b3e d1b9 4cbd
00000120: 2c1c 66be 9ab5 d1bd 0d25 993e 333a e7bd
00000130: 7ed9 1ebf f614 613e 079e 45be b168 40bd
00000140: f066 39bd 82ba d5bd 48c0 90be ac55 f4bd
00000150: e1fe c7bd 8ad6 5ebd 925d 503e 1a06 46be
00000160: 60b6 9dbe 4f60 abbe 3a76 ce3e 791b 10bf
00000170: fb42 eebd f2a8 6abe 4e03 15bd 9b40 27be
00000180: 2c82 84bd dd65 09be 741e 28bd 7581 9abd
00000190: 4aae 9d3d 0b5c 94be be50 95be e9b9 43bd
000001a0: d435 ad3d 4ec6 9abd 4c52 73bc 13bf 61bd
000001b0: ff38 aabc 0483 f1bd 20e9 bbbd b3a1 35be
000001c0: 1ae3 32bd e8d0 be3e febb 883e 603e d8be
000001d0: af05 89bd 4a31 d3bd d485 f6bd f282 debe
000001e0: 252f 0cbe 5aab a53e 9655 96bd 7730 e0bb
000001f0: 1049 b2bd 4949 cfbd cf22 afbd d37a a9be
00000200: e6d5 143e a969 47be 766d 9ebd 2e45 c8be
00000210: 7299 533e 4557 0abf 05bf 23bf 3ea4 8cbe
00000220: 593b 3abf 94a4 74bd ee27 1ebf 6ca5 96be
00000230: 4db8 b33e ba05 953e 0293 86be 98d5 f3bd
00000240: 347c d0be cb18 3abe b31c 0d3b 88c9 1bbf
00000250: f50c fdbe 5ba3 ecbd 8b49 693e 2e46 aa3e
00000260: 7651 92bd 50cf 3fbf 453c 30bf a4ad f9bd
00000270: 321b 2d3d e623 91be 1adc 55bd 5eb4 97bd
00000280: 469b 523f 7ee4 9cbd 6f19 afbd b353 e0be
00000290: d18e 9abd f3d2 9dbe a8b9 d23d 8263 d7bd
000002a0: 7c34 ffbd 5fab bdbe 5cd2 fb3e 507f 5ebe
000002b0: 4aa9 d8bd ce20 fbbe d863 b6bd 4d2a 82bd
000002c0: 479f 1abe 2e34 57be 52f3 51bd 0757 1e3f
000002d0: f150 c5bd 230c e4bd ea98 d5be e2e9 5dbd
000002e0: 4ae8 fb3e 465a 16be 3dbd c7be 7a4b f03e
000002f0: 9e5d 1abf fff3 28bf cd5e 0cbe 7a34 23bf
00000300: 824b 5bbe aca3 06bf fcdf a43d 86f5 12be
00000310: c945 41bd 67a9 24be debc e2be bb4e 7b3d
-0.50703096 -0.13910614 -0.09766807 -0.08678669 -0.7367217 -0.11413183 -0.05423022 -0.09399588
-0.09979988 0.13790484 -0.08901441 -0.29262727 -0.035414457 -0.11428829 -0.29960668 -0.13080998
-0.09987649 -0.11506464 -0.6694047 -0.0067546563 -0.59300303 -0.07401787 -0.011838333 -0.05255235
-0.066763975 -0.6482071 -0.10535206 -0.09770851 -0.06657175 -0.19746293 -0.275358 -0.08709365
-0.65984 -0.13540608 -0.9077722 -0.7565108 0.6217168 -0.06261289 -0.24208093 -0.038676374
-0.50884974 -0.0026425605 -0.055942368 -0.0757613 -0.06504438 -0.07982635 0.0061522042 -0.46342954
-0.08077555 -0.4464899 -0.1322505 -0.03045955 -0.9294811 0.22656053 -0.4014002 -0.059270546
-0.05578963 -0.19451346 0.84022593 -0.15569791 0.10476925 -0.045972735 -0.42047685 -0.5145097
-0.36435258 -0.10031099 -0.16909407 0.21599567 -0.29897422 -0.10482009 0.1366556 -0.049981896
-0.22471684 -0.10239716 0.2991108 -0.112903975 -0.62050617 0.21980652 -0.19298564 -0.04697484
-0.045264184 -0.10435964 -0.282717 -0.11930403 -0.09765411 -0.05440382 0.20348194 -0.19338265
-0.30803204 -0.33471915 0.40324575 -0.5629192 -0.11633869 -0.2291601 -0.036380105 -0.16333239
-0.06470141 -0.13417764 -0.041044667 -0.07544223 0.076992586 -0.28976473 -0.29163164 -0.04778472
0.084575325 -0.07557355 -0.014851164 -0.055113863 -0.020779131 -0.11792567 -0.091753244 -0.17737465
-0.043673612 0.37268758 0.26705927 -0.42235088 -0.06690537 -0.103121355 -0.120372444 -0.43459278
-0.13689859 0.32357293 -0.07340543 -0.006841715 -0.08705342 -0.101214 -0.08551561 -0.3310152
0.14534721 -0.194739 -0.07735722 -0.3911528 0.20664003 -0.5403941 -0.6396335 -0.27469057
-0.7274681 -0.059727266 -0.6177968 -0.29423082 0.35101548 0.29105932 -0.26284033 -0.11905974
-0.4071976 -0.1817352 0.0021531999 -0.6085439 -0.49423948 -0.11554595 0.2278196 0.33256668
-0.07144444 -0.7492571 -0.68841964 -0.121913224 0.042262264 -0.283477 -0.05221186 -0.07407449
0.8226818 -0.07660769 -0.08549773 -0.43813857 -0.07546771 -0.30825004 0.10289317 -0.105170265
-0.124611825 -0.37044808 0.4918393 -0.21728253 -0.10579164 -0.49048465 -0.089057624 -0.063557245
-0.15099822 -0.21015999 -0.05125744 0.61851543 -0.09634579 -0.111351274 -0.41718227 -0.054178126
0.4920066 -0.14682874 -0.39011565 0.46932584 -0.602991 -0.6599731 -0.13708039 -0.6375195
-0.21415523 -0.52593493 0.08050534 -0.14351472 -0.047185693 -0.16080247 -0.4428472 0.06135438
