Vehicles/ModRepeat_forest_2/ModRepeat_forest_2_actor.pth (torch, 176515 bytes, 5 tensors)

weight f4 [200, 14]
0	0x3f80b9e8	1.0056734
1	0xbf02449e	-0.5088595
2	0xbe1980b8	-0.14990509
3	0xbea25d97	-0.31712028
4	0x3d8f5f76	0.070006296
5	0xbedc5b21	-0.43038276
6	0xbe38433e	-0.17994401
7	0x3f296c51	0.661809
8	0xbed30aea	-0.41219264
9	0xbf9bc832	-1.217047
10	0x3e7091e2	0.2349315
11	0x3d59256c	0.053014204
12	0x3c417f9d	0.0118102105
13	0x3db2c95a	0.08729811
14	0xbecf8088	-0.4052775
15	0x3ee1c9bd	0.44099227
16	0xbee8cdce	-0.45469517
17	0x3ea40336	0.320337
18	0xbe9bbd64	-0.3041793
19	0xbe8c93e1	-0.27456573
20	0xbe859f4f	-0.26098105
21	0x3cfada26	0.0306216
22	0x3e200f46	0.15630826
23	0xbfdd6172	-1.7295363
24	0x3efc4688	0.4927256
25	0x3d9e5ef6	0.07732956
26	0x3ebf1504	0.3732072
27	0x3ec95b45	0.39327446
28	0x3e89d9d6	0.26924008
29	0x3f87bbcb	1.0604185
30	0x3e7438de	0.23849818
31	0x3ed11a69	0.40840462
32	0xc003d0c7	-2.0596178
33	0xbffd841d	-1.9805943
34	0xbfeb1231	-1.8364927
35	0xc00f8d6b	-2.2430065
36	0x3c6ee593	0.014581102
37	0x3ecda600	0.4016571
38	0x3e88fba2	0.2675448
39	0xbea9e15c	-0.33179748
40	0xbd8c01ed	-0.06836305
41	0xbe91f754	-0.2850901
42	0xbf75c6cb	-0.9600646
43	0x3f126dea	0.57198966
44	0x3f41db5c	0.7572534
45	0xbf25a173	-0.64699477
46	0xbe8ca889	-0.27472332
47	0x3f1f15a3	0.6214239
48	0x3f3a5335	0.72783214
49	0x3f40c521	0.75300795
50	0x3e08fde5	0.13378103
51	0xbd2b567f	-0.041830536
52	0x3e950786	0.29107302
53	0xbd293614	-0.04131134
54	0xbf0bfa4a	-0.54678786
55	0xbe5f7a77	-0.2182406
56	0xbe8cb3a9	-0.2748082
57	0xbc4a105b	-0.012333001
58	0xbd0871a0	-0.033311486
59	0x3e27baa4	0.16379791
60	0xbea6aabe	-0.3255214
61	0x3e2460cf	0.16052555
62	0x3da3e422	0.08002497
63	0x3d746c6c	0.05967371
64	0x3db7fa78	0.0898332
65	0xbe4ca410	-0.1998446
66	0xbe2af611	-0.1669543
67	0x3e2ed7da	0.17074528
68	0xbe12dd50	-0.14342237
69	0xbe997378	-0.29970908
70	0x3f36ff4d	0.7148331
71	0xbf029fdb	-0.5102517
72	0x3ebf9d2c	0.374246
73	0xbf2597da	-0.6468483
74	0x3f2f2139	0.6841007
75	0xbd8c097a	-0.06837745
76	0xbeac0bba	-0.33602697
77	0xbd08a2d2	-0.033358403
78	0x3e5a8250	0.21338773
79	0xbf8783d4	-1.0587106
80	0xbf19b82b	-0.60046643
81	0xbf22e58f	-0.6363153
82	0x3dae0dc4	0.08498719
83	0xbdf8d7ee	-0.1215056
84	0xbf94912d	-1.1606804
85	0x3e85cda5	0.26133457
86	0xbeb0337e	-0.34414285
87	0xbf03dd35	-0.5150941
88	0xbdd6707d	-0.10470674
89	0xbe591927	-0.21201001
90	0x3dea2a5d	0.114338614
91	0x3f2a83bd	0.66607267
92	0x3f22ee6c	0.6364505
93	0xbf8bcc1c	-1.0921664
94	0x3e573b29	0.21018662
95	0x3ee9c3c5	0.45657173
96	0xbdeaf740	-0.114729404
97	0x3cbe873d	0.023257846
98	0xbe970730	-0.2949767
99	0x3f08022d	0.5312832
100	0x3f2e0732	0.6797973
101	0x3f0ebcaf	0.5575666
102	0xbe5039cd	-0.20334549
103	0x3e8ee65a	0.2791012
104	0x3f01f0fb	0.5075833
105	0xbe92bbe6	-0.2865898
106	0x3ececa76	0.4038884
107	0xbf91e485	-1.1397864
108	0xbdbd6849	-0.092484064
109	0xbf422cbf	-0.7584953
110	0xbe893255	-0.26796213
111	0xbe011108	-0.12604153
112	0x3d5f3677	0.0544953
113	0xbf0e6dcf	-0.55636305
114	0x3ee4f058	0.44714618
115	0x3c214961	0.009844155
116	0xbf4eac50	-0.8073168
117	0xbf09f2b6	-0.5388597
118	0x3e846543	0.25858507
119	0x3f1b0719	0.60557705
120	0x3ed39f48	0.4133246
121	0x3d3a2332	0.04544372
122	0xbf0b2d6d	-0.5436619
123	0xbe0ed410	-0.13948083
124	0xbe40b4f8	-0.18819034
125	0x3d1d3a54	0.038385704
126	0xbf0db95b	-0.55360955
127	0x3fa1eda2	1.2650645
128	0xbe4c5c85	-0.19957168
129	0x3ee7e0b7	0.4528863
130	0xbf552f1f	-0.83275026
131	0xbf31e29d	-0.6948641
132	0xbf9a721a	-1.2066071
133	0xbf4f45a2	-0.80965626
134	0xbed113ef	-0.4083552
135	0x3d7563d1	0.059909645
136	0xbef14b23	-0.47127637
137	0xbea686c5	-0.32524696
138	0xbd95cceb	-0.073144756
139	0xbd5b6c77	-0.053570237
140	0xbe57faf8	-0.2109183
141	0x3f220f44	0.63304543
142	0xbd8cc523	-0.06873538
143	0xbed7dfa2	-0.42162806
144	0x3ed9c890	0.4253583
145	0x3f03e6a8	0.5152383
146	0x3e05cfaa	0.13067499
147	0xbf8bdc8e	-1.0926683
148	0x3ad6634f	0.00163565
149	0xbfdf2e83	-1.7436069
150	0x3eeae3a1	0.45876792
151	0x3dc033c5	0.09384874
152	0x3e2938db	0.16525595
153	0x3d455b72	0.048182912
154	0x3ee32813	0.44366512
155	0x3ef0157d	0.46891394
156	0xbf588b6c	-0.8458774
157	0x3f2ee425	0.6831687
158	0x3eac610e	0.33667797
159	0xbeace82a	-0.33770877
160	0x3c1cb507	0.009564645
161	0x3e48f6c9	0.19625391
162	0xbfe1daf7	-1.7644948
163	0xbda988f1	-0.082780726
164	0x3e55f22e	0.20893165
165	0xbf1e577b	-0.61852235
166	0x3e1edec6	0.15514669
167	0x3d2dfe70	0.04247898
168	0x3f1d14da	0.6135994
169	0x3f3e1f08	0.742661
170	0x3ebffa03	0.3749543
171	0x3d955126	0.072908685
172	0x3f198b15	0.5997785
173	0x3e85d284	0.26137173
174	0xbde1b961	-0.11021686
175	0xbf4bf4d8	-0.79670477
176	0xbf4ba68d	-0.7955101
177	0xbf9806c5	-1.1877066
178	0xbd9ddeba	-0.07708497
179	0xbed31415	-0.4122626
180	0x3e91e20d	0.28492776
181	0x3f0c9816	0.54919565
182	0xbef04f79	-0.46935633
183	0xbeff389f	-0.49847886
184	0xbd64737e	-0.055774204
185	0xbf7db365	-0.9910186
186	0xbf0b6ab3	-0.54459685
187	0xbf70cb4f	-0.94060224
188	0xc0088f66	-2.1337523
189	0x3ec8b2c0	0.39198875
190	0xbccb031a	-0.024781752
191	0x3c923f00	0.017852306
192	0x3f66cff9	0.9016109
193	0x3c8809b2	0.016606186
194	0xbdccea3e	-0.10005616
195	0xbe1ea261	-0.1549163
196	0xbe87ee66	-0.2654907
197	0xbf14c6e7	-0.58116
198	0xbc270ce7	-0.010195947
199	0xbb4dbc9e	-0.0031392942
200	0xbfb69c1f	-1.4266394
201	0xbf9e592b	-1.2370962
202	0xbfcae50d	-1.5851151
203	0xbfad8904	-1.3557439
204	0xbe4e8e6c	-0.20171517
205	0x3e698d4e	0.2280781
206	0x3e4dad1a	0.20085564
207	0x3f3be9f4	0.7340386
208	0xbca525f5	-0.0201597
209	0x3eb4ad16	0.35288304
210	0x3d8c3dfe	0.068477616
211	0xbf001e7b	-0.5004651
212	0x3da40ecd	0.080106355
213	0xbe4b63bb	-0.19862263
214	0x3f037f69	0.5136629
215	0x3ea9760f	0.33097884
216	0x3f029292	0.510049
217	0xbf06931f	-0.5256824
218	0x3f145db1	0.5795546
219	0xbfd8443c	-1.6895823
220	0x3ecbcc60	0.39804363
221	0x3ef2b3c1	0.47402766
222	0x3dde5750	0.10856497
223	0xbe3b2463	-0.18275599
224	0x3f2635b6	0.64925706
225	0x3f3cd339	0.737598
226	0xbfa88207	-1.3164681
227	0x3f21e7b0	0.6324415
228	0xbef205d5	-0.47270074
229	0xbeb4bc31	-0.3529983
230	0xbf1db171	-0.6159888
231	0xbf212ca6	-0.62958753
232	0xbea25aea	-0.31709987
233	0xbdbb4906	-0.091447875
234	0x3cef9ecd	0.029250527
235	0xbec14be0	-0.377532
236	0xbe41a023	-0.18908744
237	0x3da10fd2	0.078643456
238	0x3d58bccc	0.052914426
239	0x3d57cbb4	0.0526845
240	0xbf07250d	-0.5279091
241	0x3f0f9236	0.56082475
242	0xbf00c770	-0.5030432
243	0xbf4d09be	-0.8009299
244	0xbf1cf218	-0.61306906
245	0xbf4ee327	-0.80815357
246	0xbde194dd	-0.110147215
247	0xbf96501d	-1.1743199
248	0x3eeb4ecf	0.45958564
249	0x3eda2695	0.4260756
250	0x3e960f71	0.29308656
251	0x3e72d70a	0.23714843
252	0xbd54f44e	-0.0519908
253	0x3cd923c4	0.026506312
254	0x3e3a503a	0.18194667
255	0x3d23815e	0.039918296

bias f4 [200]
0	0x3d008476	0.031376325
1	0x3d9554c7	0.072915606
2	0xbf055f59	-0.52098614
3	0xbe366e0e	-0.1781542
4	0xbea564eb	-0.32303557
5	0x3e7f7d7f	0.24950217
6	0xbe6b622a	-0.22986665
7	0x3e42798a	0.18991676
8	0x3d55db81	0.05221129
9	0x3dd32a81	0.10310841
10	0x3e278f41	0.16363241
11	0x3eca85dd	0.39555255
12	0xbc46c435	-0.01213174
13	0x3e1ee7dc	0.15518135
14	0x3da1f45e	0.079079375
15	0x3c5b9b73	0.013403761
16	0x3d076be1	0.033061866
17	0x3da1fb6c	0.07909283
18	0xbe2d6e10	-0.16936517
19	0xbc64f9db	-0.013975586
20	0xbf1b7d76	-0.60738313
21	0x3e6a3e71	0.22875382
22	0xbe9468ba	-0.2898615
23	0xbcdc09d3	-0.026860153
24	0xbea9ae63	-0.3314086
25	0x3cbb4d71	0.022864075
26	0x3e4f1601	0.20223238
27	0xbe8a7d65	-0.27048793
28	0x3e76c8e6	0.24100074
29	0xbc133de5	-0.008986925
30	0x3eba58ef	0.36395976
31	0x3ebdf899	0.37103727
32	0xbf10ab1a	-0.5651108
33	0x3d9ea2e3	0.07745912
34	0xbcee8f46	-0.029121052
35	0xbf1623be	-0.5864829
36	0x3e67c9a2	0.2263551
37	0xbed90b92	-0.4239164
38	0xbf2a616e	-0.66554916
39	0xbee06258	-0.4382503
40	0x3e37d9f8	0.17954242
41	0xbe332307	-0.1749383
42	0x3ea3ae93	0.31969127
43	0xbe0529a7	-0.1300417
44	0x3ec44ae6	0.38338393
45	0xbe11b758	-0.14230096
46	0xbef778a5	-0.48334232
47	0xbce30b6c	-0.027715407
48	0xbea380be	-0.3193416
49	0x3e8858c6	0.2663023
50	0xbecb651a	-0.39725572
51	0xbf15b0c0	-0.58472824
52	0x3d4d21fb	0.050081234
53	0x3d975246	0.07388739
54	0xbe1a5f7a	-0.15075484
55	0xbf003362	-0.50078404
56	0x3e82644c	0.25467145
57	0x3d9ce096	0.07660024
58	0xbe1095f2	-0.141197
59	0xbf06808b	-0.5253989
60	0x3ebf224d	0.37330857
61	0xbf2837c7	-0.6571011
62	0xbe9f37e6	-0.31097335
63	0xbe42982b	-0.1900336
64	0xbda81685	-0.0820742
65	0xbe804f0c	-0.25060308
66	0xbd357dfe	-0.04430961
67	0xbd3c380d	-0.04595189
68	0xbb3df6f6	-0.0028986312
69	0x3e5a1e77	0.21300684
70	0xbbfd8037	-0.0077362317
71	0x3dd5917b	0.10428139
72	0xbe92a24b	-0.28639445
73	0x3cd51e24	0.026015349
74	0x3f140af7	0.5782923
75	0x3dc95f0a	0.098325804
76	0x3e941eed	0.28929844
77	0xbb0cc8b9	-0.0021481945
78	0x3e0da2f3	0.13831691
79	0x3ea31dc0	0.31858635
80	0x3c566c95	0.013087411
81	0x3e3fe9b1	0.1874149
82	0xbf16a88a	-0.5885092
83	0xbdd67da0	-0.1047318
84	0xbdd2db41	-0.102957256
85	0xbee9b529	-0.45646027
86	0xbe149280	-0.1450901
87	0xbe63ddc3	-0.22252564
88	0x3daf38f8	0.08555788
89	0x3ed976ce	0.42473453
90	0x3d495a49	0.04915837
91	0x3d912b0a	0.07088287
92	0xbeb67fa6	-0.35644263
93	0xbe84ddcc	-0.25950468
94	0xbe03c053	-0.12866335
95	0x3e169c12	0.14707974
96	0xbe9883e8	-0.29788136
97	0xbe338d75	-0.1753443
98	0xbe95c329	-0.29250458
99	0xbc758d23	-0.014987263
100	0x3944cc30	0.00018768082
101	0xbe5b9966	-0.21445236
102	0x3d7b864c	0.061407372
103	0x3e069358	0.13142145
104	0x3de9ebec	0.11421952
105	0x3cac82f1	0.021058531
106	0xbc25db0f	-0.010123028
107	0x3d832607	0.064037375
108	0xbe4a2258	-0.19739664
109	0xbc937bb4	-0.018003322
110	0x3ee553a1	0.44790366
111	0xbda1d147	-0.079012446
112	0xbe5e60f9	-0.2171668
113	0xbebb0e32	-0.36534268
114	0xbee5b774	-0.44866526
115	0xbe5b0a57	-0.21390663
116	0xbe40f2e7	-0.1884266
117	0x3e33b970	0.17551208
118	0xbd5c24a6	-0.05374589
119	0xbd58f43a	-0.052967288
120	0xbe295400	-0.1653595
121	0xbd541b91	-0.051784102
122	0xbf13c113	-0.5771648
123	0xbe863748	-0.2621405
124	0x3d2dc4fd	0.04242419
125	0xbe8552d7	-0.26039764
126	0x3e8f4d23	0.27988538
127	0xbebe6841	-0.37188914
128	0xbf58eed6	-0.84739435
129	0x3f0d9464	0.5530455
130	0xbead49ab	-0.33845267
131	0xbebb6258	-0.36598468
132	0x3ea6e389	0.3259547
133	0xbf1d53bc	-0.61455894
134	0x3eec67dc	0.46172988
135	0xbd3e1d15	-0.046414454
136	0xbdf628b8	-0.12019485
137	0x3d3ad91b	0.045617204
138	0x3c6f5d9f	0.014609723
139	0xbd192fb0	-0.037398994
140	0xbdb6f947	-0.08934265
141	0x3d023481	0.031788353
142	0xbe3224f5	-0.1739691
143	0xbea1d478	-0.31607413
144	0xbeb0a10a	-0.34497863
145	0xbe791777	-0.24325357
146	0xbefeca1d	-0.49763575
147	0xbf24ec1c	-0.64422774
148	0xbf2213c5	-0.63311416
149	0xbd2d8a4a	-0.04236821
150	0xbf24d1e3	-0.6438276
151	0x3e1dae18	0.15398443
152	0xbea0c92b	-0.3140348
153	0x3e4d2f78	0.20037639
154	0xbe3e9105	-0.18610008
155	0x3df06974	0.117388636
156	0xbe9f9581	-0.3116875
157	0x3e407956	0.18796286
158	0xbdb30403	-0.087409995
159	0x3d8e83ae	0.0695871
160	0xbf14198b	-0.57851475
161	0x3dc49f19	0.09600658
162	0xbd357bc9	-0.044307504
163	0x3ccd102f	0.025032131
164	0x3d95cd34	0.0731453
165	0x3db4305d	0.08798287
166	0x37df18fc	2.6595306e-05
167	0xbeecfd5b	-0.46287045
168	0xbca57e04	-0.02020169
169	0xbe9190dd	-0.28430834
170	0xbe66cbf1	-0.22538735
171	0xbe79c613	-0.24391966
172	0xbeb1d598	-0.34733272
173	0x3ddc1388	0.10745913
174	0xbe81e915	-0.2537314
175	0xbe82233a	-0.254175
176	0x3eda6eb4	0.42662585
177	0xbe167384	-0.14692503
178	0x3e6fff86	0.23437318
179	0xbe0e0d0f	-0.13872169
180	0xbea6633e	-0.3249759
181	0x3d24b562	0.040212043
182	0xbf441a8a	-0.76602995
183	0x3e34a766	0.17641982
184	0x3e18f137	0.14935766
185	0x3de66a0a	0.11250694
186	0xbd91fef6	-0.07128708
187	0xbea78898	-0.327214
188	0xbe050177	-0.1298884
189	0xbe800847	-0.25006315
190	0x3e0102db	0.12598746
191	0xbea15d8f	-0.31516692
192	0x3eae2754	0.3401438
193	0x3ec9b3a8	0.3939488
194	0xbf0d5e63	-0.5522215
195	0xbdda5def	-0.10662448
196	0xbe978fec	-0.2960199
197	0xbea6d88b	-0.32587084
198	0x3a1e6e32	0.0006043642
199	0xbe7338b1	-0.23752095

weight f4 [200, 200]
0	0x3f510d43	0.8166086
1	0xbedf9ff1	-0.43676713
2	0x3f0ea091	0.55713755
3	0xbf925040	-1.143074
4	0x3d79a1b7	0.06094524
5	0xbd60eb19	-0.054911707
6	0xbf8acfec	-1.0844703
7	0xbf2d6478	-0.6773143
8	0x3eaf0c60	0.3418913
9	0xbf836752	-1.0265906
10	0x3e5aba49	0.21360125
11	0xbf603d72	-0.8759376
12	0xbe478a3f	-0.1948633
13	0xbe21d066	-0.15802154
14	0x3e1d6dfc	0.15373987
15	0xbcb268e4	-0.021778531
16	0xbffb0d10	-1.9613361
17	0xbee25135	-0.4420258
18	0xbeb0270f	-0.344048
19	0x3e215c48	0.15757859
20	0xbf0ae3a0	-0.5425358
21	0x3e885fdf	0.26635644
22	0xbd9b4c0d	-0.07582865
23	0x3e87757b	0.26456818
24	0xbe8eefd5	-0.27917352
25	0xbf1841b9	-0.59475285
26	0xbf1f1fe7	-0.62158054
27	0xbe64e027	-0.22351132
28	0xbe9082ab	-0.28224692
29	0x3dd6a3a7	0.10480433
30	0x3f59e545	0.8511546
31	0x3ead2c58	0.33822894
32	0x3dd21a40	0.10258913
33	0xbf46fc48	-0.777287
34	0xbc134275	-0.008988013
35	0xbfe8cb7a	-1.8187096
36	0x3f68b9c3	0.9090845
37	0xbf428d44	-0.75996804
38	0xbffe4d84	-1.9867406
39	0xbf5b6ba5	-0.8571113
40	0xbf2b8932	-0.6700622
41	0xbddb129b	-0.10696908
42	0xbef963a7	-0.4870884
43	0x3e7133b4	0.2355488
44	0xbeedd311	-0.46450093
45	0xbf7ffaae	-0.9999188
46	0xbf2a3d93	-0.66500205
47	0xbe4707ad	-0.19436522
48	0xbc295d8f	-0.0103372475
49	0x3f8839b0	1.0642605
50	0xbe307efa	-0.17235938
51	0xbef7ee72	-0.48424107
52	0xbe8e4e51	-0.27794126
53	0xbf13271f	-0.5748157
54	0x3ee503bf	0.4472942
55	0xbc952de9	-0.018210368
56	0xbf3658c4	-0.71229196
57	0xbe2f9681	-0.17147256
58	0x3e807384	0.2508813
59	0x3e9c36d8	0.30510592
60	0xbed27b67	-0.41109774
61	0x3ef992dd	0.4874486
62	0xbe1994f3	-0.14998226
63	0x3ec3ba8b	0.38228258
64	0xbeaca14b	-0.33716807
65	0xbd8a6603	-0.067577384
66	0xbec96ec6	-0.39342326
67	0xbf0c4766	-0.54796445
68	0xbe8e110b	-0.27747378
69	0x3ebbfaa9	0.36714676
70	0xbeae56d5	-0.34050623
71	0x3ea81e29	0.3283551
72	0xbf6d5474	-0.9270699
73	0xbe41acea	-0.18913618
74	0xbe481796	-0.19540247
75	0xbf272e8c	-0.653054
76	0x3d004d0e	0.031323485
77	0xbfb50272	-1.4141371
78	0xbfc41d57	-1.5321454
79	0x3e498d0d	0.19682713
80	0x3f3938fc	0.72352576
81	0xbecb64bd	-0.39725295
82	0x3f1ed89d	0.62049276
83	0xbeb4a8fa	-0.3528517
84	0xbc7261ae	-0.014793796
85	0xbf2e1809	-0.68005425
86	0xbefaa507	-0.4895403
87	0xbec54e44	-0.38536274
88	0xbfd1264f	-1.6339816
89	0x3d98cb7f	0.07460689
90	0xbef3c8dd	-0.47614184
91	0xbf2f5180	-0.68483734
92	0xbf9e3ef1	-1.2362958
93	0x3de59c3a	0.112114385
94	0xbed7da80	-0.4215889
95	0xbd1ce804	-0.038307205
96	0xbd93c6ea	-0.07215674
97	0x3ea22a6c	0.3167299
98	0x3e8703ad	0.26369992
99	0x3d84fe34	0.06493798
100	0xbee66305	-0.4499742
101	0x3ea137f2	0.31487995
102	0x3ecdb950	0.40180445
103	0xbebb4d22	-0.36582285
104	0xbe9e9202	-0.3097077
105	0x3e1c4a94	0.15262824
106	0xbf56f843	-0.8397257
107	0xbeb81729	-0.3595517
108	0xbd6760c1	-0.056488756
109	0x3f4498bf	0.7679557
110	0xbecbfb52	-0.3984018
111	0xbf88638c	-1.0655379
112	0xbe05cd67	-0.13066636
113	0xbf1148ce	-0.56751716
114	0x3f33a60f	0.7017526
115	0x3e9e9a27	0.30976984
116	0xbf278ebc	-0.6545217
117	0xbf83c163	-1.0293392
118	0xbfaa2afd	-1.3294369
119	0xbaca98b0	-0.0015456881
120	0xbd35df43	-0.044402372
121	0xbf8750db	-1.057155
122	0xbf850d05	-1.0394598
123	0xbf42204b	-0.75830525
124	0xbe0e4edb	-0.13897268
125	0xbf2bc72d	-0.67100793
126	0xbf32dc1c	-0.6986711
127	0xbecc9d8e	-0.39963955
128	0xbf14aaea	-0.58073294
129	0xbf115776	-0.5677408
130	0x3eaa7073	0.33288917
131	0x3d44c8e3	0.048043143
132	0xbe774379	-0.24146833
133	0xbfcf517d	-1.6196743
134	0xbf007c13	-0.5018932
135	0xbf5104c5	-0.816479
136	0x3e88da5f	0.26729104
137	0x3e3cc864	0.18435818
138	0xbea58fbb	-0.3233622
139	0xbe4d40fd	-0.20044322
140	0x3e8684f3	0.26273307
141	0x3f850a47	1.0393761
142	0x3ead0223	0.33790693
143	0x3d587d81	0.052854065
144	0xbe3da8a7	-0.18521367
145	0x3d6d2854	0.057899788
146	0x3f3fe3da	0.7495705
147	0xbfc480d1	-1.5351812
148	0x3ec8d76f	0.39226863
149	0x3f082842	0.5318643
150	0x3e95a98c	0.29230917
151	0x3f64c8e7	0.8936905
152	0xbf07561a	-0.52865756
153	0xbe11de15	-0.14244874
154	0xbf18342d	-0.59454614
155	0x3e8df85f	0.27728555
156	0xbe8045be	-0.2505321
157	0x3e320ff5	0.173889
158	0xbfa15824	-1.2605023
159	0xbe89e286	-0.26930636
160	0xbd1a660b	-0.037694972
161	0x3e0717da	0.13192692
162	0x3f0fdfbb	0.5620076
163	0x3e9e4802	0.30914313
164	0xbef785d7	-0.483443
165	0xbfa83280	-1.3140411
166	0x3e011811	0.12606837
167	0xbf8b966a	-1.0905278
168	0x3f5208ad	0.8204449
169	0xbf2fb3c6	-0.6863369
170	0xbe8b8464	-0.27249444
171	0xbf3d85ec	-0.74032474
172	0x3d4d53c0	0.0501287
173	0xbf045f0e	-0.5170754
174	0xbd1e69b7	-0.038675036
175	0xbf34c40b	-0.7061164
176	0x3dc132c4	0.09433511
177	0x3ec85b58	0.3913219
178	0x3f7f05c8	0.99618196
179	0x3e6cf28e	0.23139402
180	0xbedcc334	-0.43117678
181	0x3f3b0b93	0.73064536
182	0xbd965a93	-0.073414944
183	0xbf809c6f	-1.004774
184	0x3e9a5017	0.3013923
185	0xbeb0eecd	-0.3455719
186	0xbe647397	-0.22309719
187	0xbf9314cf	-1.1490725
188	0x3f0089f3	0.50210494
189	0xbf3caa40	-0.7369728
190	0xbf41e5ad	-0.7574108
191	0xbe8143dc	-0.25247085
192	0xbf154e46	-0.5832256
193	0xbe885243	-0.2662526
194	0x3ec4b142	0.38416487
195	0xbf5b5e4f	-0.8569078
196	0xbf1ee00b	-0.6206061
197	0x3ed5ee89	0.4178355
198	0xbde17dc4	-0.11010316
199	0x3d0da52d	0.034581352
200	0xbfab2185	-1.3369604
201	0xbfb524de	-1.4151876
202	0xbdd1714d	-0.102266885
203	0xbf3b8332	-0.73247063
204	0x3d3b0a64	0.045664206
205	0xbe8384df	-0.2568731
206	0x3d3f1317	0.046649065
207	0x3e956acf	0.2918305
208	0x3d979ce7	0.074029736
209	0xbedb4d93	-0.42832622
210	0xbf1a84ef	-0.6035909
211	0xbef94d55	-0.48691812
212	0xbf7d8c9e	-0.9904269
213	0xbf261dda	-0.648893
214	0x3f171bb6	0.5902666
215	0xbe411437	-0.18855368
216	0xbf731f48	-0.94969606
217	0x3f1b0d59	0.6056724
218	0x3e1a3d25	0.15062387
219	0xbee513b8	-0.44741607
220	0xbda415ce	-0.080119714
221	0xbf4e52b3	-0.8059494
222	0xbecf3722	-0.4047175
223	0x3d8c4da4	0.06850746
224	0xbf5bf534	-0.85921025
225	0xbf6c7283	-0.9236223
226	0xbe7d8d14	-0.24760848
227	0xbe6acfb2	-0.22930792
228	0xbe0d5728	-0.13802779
229	0xbf847a0d	-1.0349747
230	0xbebe59f7	-0.37178013
231	0xbf9e9e91	-1.2392141
232	0xbe47a981	-0.19498254
233	0xbe9e5ade	-0.309287
234	0x3e1bc024	0.15210015
235	0x3d9f83e4	0.07788828
236	0xbd1681a4	-0.03674473
237	0xbeb599fc	-0.35469043
238	0x3f055dca	0.52096236
239	0xbe5fd198	-0.21857297
240	0xbec1beaf	-0.37840793
241	0x3d8b890c	0.06813249
242	0xbeed1737	-0.46306774
243	0xbfab9e68	-1.3407717
244	0x3eda3714	0.42620146
245	0x3f3f425e	0.74710643
246	0xbeac1933	-0.33612975
247	0x3d8954d9	0.067056365
248	0xbf738128	-0.9511895
249	0xbd730a2f	-0.059335884
250	0xbee46f3c	-0.44616115
251	0xbda6845e	-0.08130716
252	0x3f1f5449	0.62237984
253	0x3cb26f0c	0.021781467
254	0xbedcd385	-0.43130127
255	0xbc63eb41	-0.013911069

bias f4 [200]
0	0x3e61f7f0	0.22067237
1	0xbe1ffe99	-0.15624465
2	0xbdc24a18	-0.094867885
3	0xbd7d3de6	-0.06182661
4	0x3e19bdca	0.15013805
5	0xbd1cf428	-0.038318783
6	0x3eaeb2a9	0.34120682
7	0xbdcf367c	-0.10117814
8	0xbe4c6d22	-0.19963506
9	0xbcdc05b2	-0.026858184
10	0xbe81c2c1	-0.25343898
11	0x3f00bb15	0.50285465
12	0xbd179801	-0.037010197
13	0xbf011cc2	-0.50434506
14	0xbd5e159d	-0.05421983
15	0xbdcccf10	-0.100004315
16	0x3d9db0d1	0.07699741
17	0xbd481859	-0.048851345
18	0x3ef79cdf	0.4836187
19	0xbe14eb19	-0.14542808
20	0xbdbae010	-0.09124768
21	0xbebd67d5	-0.3699328
22	0xbda1bd8c	-0.07897481
23	0xbd86d864	-0.06584242
24	0x3e8944fd	0.26810446
25	0xbe3a1f37	-0.1817597
26	0xbe061eda	-0.13097706
27	0xbe9d0c39	-0.30673388
28	0xbf270b31	-0.6525145
29	0xbd218abd	-0.03943895
30	0xbe87b6d6	-0.2650668
31	0xbda76f3c	-0.08175513
32	0xbd9c1b0e	-0.07622348
33	0xbcc82d1f	-0.024435578
34	0xbdc87513	-0.09787955
35	0xbe16f68c	-0.14742488
36	0xbd591ecd	-0.05300789
37	0xbe120e3a	-0.1426324
38	0x3ab0482c	0.0013449243
39	0xbd964554	-0.07337442
40	0xbeb39ff7	-0.3508298
41	0xbde42171	-0.11139191
42	0xbd35e20c	-0.04440503
43	0xbe2119cd	-0.15732498
44	0xbd959e81	-0.07305623
45	0xbe98a620	-0.29814243
46	0xbea0035d	-0.31252566
47	0xbe099f72	-0.1343973
48	0xbf87596b	-1.0574163
49	0xbd298f2f	-0.041396316
50	0xbd59a65c	-0.05313717
51	0xbf6b6a9c	-0.9195955
52	0xbdbfcf5c	-0.093657225
53	0xbe7ef336	-0.24897465
54	0x3e66a8b5	0.22525294
55	0xbd79a54b	-0.06094865
56	0xbeb69a7f	-0.35664746
57	0xbe5ba225	-0.21448572
58	0xbe5b2f9d	-0.21404882
59	0xbdbfa49b	-0.09357568
60	0xbe0b3a29	-0.13596405
61	0xbf1a55d6	-0.60287225
62	0xbd4a92c4	-0.049456373
63	0x3d2f90ed	0.04286282
64	0xbd30870b	-0.043097537
65	0xbd34330c	-0.043993995
66	0xbeb218d8	-0.3478458
67	0xbd0e165a	-0.034689285
68	0xbe540055	-0.20703252
69	0xbdb16dd3	-0.086635254
70	0xbdd2c104	-0.10290721
71	0xbe8b8d40	-0.27256203
72	0xbdea74b3	-0.1144804
73	0xbd58395f	-0.05278909
74	0xbdafe29c	-0.08588144
75	0xbd913aa2	-0.070912614
76	0xbd539401	-0.05165482
77	0xbde90f73	-0.113799
78	0xbd6bd1da	-0.057573177
79	0xbccf390d	-0.025295759
80	0xbd6f72ba	-0.05845902
81	0x3e68f11c	0.22748226
82	0x3e8add80	0.27122116
83	0x3ebd2f59	0.36950186
84	0xbcca710e	-0.024712112
85	0x3d740a42	0.059580095
86	0xbec76a6b	-0.38948378
87	0xbecb6a6d	-0.39729634
88	0xbdef2043	-0.11676075
89	0xb90bdf60	-0.00013339287
90	0xbdab9e0b	-0.08379754
91	0x3dc33077	0.09530728
92	0xbd923b55	-0.07140223
93	0x3e1a4652	0.15065888
94	0xbc94993a	-0.01813947
95	0x3f0550fd	0.52076703
96	0xbd57ca29	-0.05268303
97	0x3d771563	0.06032313
98	0xbf01c49f	-0.50690645
99	0xbe32c920	-0.17459536
100	0xbde6d882	-0.11271764
101	0x3db4d64b	0.08829936
102	0xbddc784a	-0.10765131
103	0x3de56338	0.11200565
104	0xbebd0d93	-0.3692442
105	0xbef27f72	-0.47362858
106	0x3cc943e9	0.024568515
107	0xbd8eb318	-0.06967753
108	0x3d7c8028	0.061645657
109	0xbdc02215	-0.09381501
110	0xbe0a722c	-0.13520116
111	0xbdc08a0f	-0.094013326
112	0xbdc52181	-0.09625531
113	0xbf127da9	-0.5722299
114	0xbd95a8d1	-0.0730759
115	0xbd259116	-0.040421568
116	0xbeb22a01	-0.3479767
117	0xbe2af421	-0.1669469
118	0xbd2229e1	-0.03959072
119	0xbd6c6d31	-0.05772132
120	0xbd2b7c81	-0.041866783
121	0x3ec75074	0.38928568
122	0xbd658eab	-0.056044262
123	0xbddc067a	-0.10743423
124	0xbdd5fccc	-0.10448608
125	0xbe5d8fcb	-0.21636884
126	0xbd9c8477	-0.07642453
127	0xbe8e5af2	-0.2780376
128	0x3e735a6b	0.2376496
129	0xbe0a95fb	-0.13533776
130	0xbe6b486d	-0.22976847
131	0xbce63d6b	-0.028105458
132	0xbcc4c952	-0.024021778
133	0x3dd15f0a	0.102232054
134	0xbddb4680	-0.10706806
135	0xbf104d6c	-0.56368136
136	0x3cbc80a0	0.023010552
137	0xbdb37729	-0.08762962
138	0x3e2f6e25	0.1713186
139	0xbf037ee5	-0.513655
140	0xbd11e050	-0.03561431
141	0x3e90ef30	0.28307486
142	0xbf43c6fd	-0.7647551
143	0xbd24e1b9	-0.04025433
144	0xbd1a8864	-0.03772773
145	0xbe35af2b	-0.17742603
146	0xbeca258e	-0.39481777
147	0xbe9b532b	-0.3033689
148	0xbda6a49f	-0.08136868
149	0xbf6b0b7f	-0.91814417
150	0x3e87b2cd	0.26503602
151	0xbd8d48e5	-0.06898669
152	0xbdc69a01	-0.09697343
153	0xbc39543f	-0.01131159
154	0x3f05faa3	0.52335566
155	0xbdeceb91	-0.11568368
156	0xbe1c1b82	-0.15244868
157	0xbee747ef	-0.45172068
158	0xbdd924a5	-0.106026925
159	0xbe24e5fc	-0.16103357
160	0xbdecc29d	-0.11560557
161	0xbedb2c2d	-0.4280714
162	0xbd058e98	-0.03260669
163	0x3d0420e3	0.032257926
164	0xbda8ed47	-0.08248382
165	0xbdb190a9	-0.0867017
166	0x3e00736f	0.12544034
167	0xbe03b979	-0.12863721
168	0xbe229745	-0.15878017
169	0x3f1056bc	0.56382346
170	0xbd7595d4	-0.05995734
171	0xbef82280	-0.4846382
172	0xbebfd2b3	-0.37465438
173	0xbf15f9ca	-0.5858427
174	0x3eda989b	0.42694554
175	0xbe498d79	-0.19682874
176	0xbdf8a34c	-0.121405214
177	0x3e622d6c	0.2208764
178	0x3eabff2c	0.33593118
179	0xbd2e68fb	-0.042580586
180	0xbc815e08	-0.015791908
181	0x3cd4fbed	0.025999034
182	0x3f237a82	0.6385881
183	0xbcf36722	-0.029712263
184	0xbe427de0	-0.1899333
185	0xbd8d1e70	-0.06890571
186	0xbd7a4777	-0.06110331
187	0xbda7c39c	-0.081916064
188	0xbe2ec613	-0.17067747
189	0xbe24dab7	-0.16099058
190	0xbd5bb88a	-0.053642787
191	0xbd2154d8	-0.039387554
192	0xbef6bc35	-0.48190466
193	0xbe1365e7	-0.14394341
194	0xbe9f3b68	-0.3110001
195	0x3e2d9933	0.16952972
196	0xbe55403a	-0.20825282
197	0xbd9cf56a	-0.076639965
198	0xbcd93f8e	-0.026519563
199	0xbf1e0248	-0.6172223

weight f4 [1, 200]
0	0xbfe60028	-1.7968798
1	0x3f0536ff	0.5203704
2	0xbc25351f	-0.010083466
3	0xbf439ddc	-0.7641275
4	0xbe90f569	-0.28312233
5	0x3d7639e8	0.060113817
6	0x3e72377d	0.2365398
7	0xbbcb8f35	-0.00621214
8	0x3dee6f10	0.11642277
9	0x3cb5ef03	0.022208696
10	0x3e0675c7	0.13130866
11	0xbf8989f6	-1.0745227
12	0x3ca4ed77	0.020132763
13	0x3f7b6d7e	0.98213947
14	0x40249057	2.5713098
15	0x3cf8c36e	0.030366626
16	0xbf6ad55c	-0.9173181
17	0x3c949271	0.018136235
18	0xc04f7290	-3.2413673
19	0xbfddc7b9	-1.7326576
20	0xbbe56b9a	-0.0070013525
21	0xbe78806c	-0.24267739
22	0xbb1a5fa5	-0.0023555544
23	0xbc807525	-0.015680859
24	0xbf24c9fd	-0.6437071
25	0xc019c854	-2.402852
26	0x3d91133f	0.07083749
27	0x3dc3f361	0.09567905
28	0x3f9a952b	1.2076772
29	0xbbb78e32	-0.005601668
30	0x3f3f8af6	0.7482141
31	0xbcb5fb65	-0.0222146
32	0x3f42f250	0.7615099
33	0xbcc9b54d	-0.024622584
34	0xbf88f1a5	-1.0698744
35	0xbbae2d2d	-0.005315444
36	0xbc3012ba	-0.010746652
37	0x3e2ba8cd	0.16763611
38	0x3c65ad98	0.014018439
39	0xbc440300	-0.011963606
40	0xbfc44cd4	-1.5335946
41	0x3c9721ff	0.018448828
42	0xbd4c6fa8	-0.04991117
43	0xbde0429b	-0.10950204
44	0xbc258ef2	-0.010104882
45	0xbf45b0c3	-0.7722284
46	0x3f9ac688	1.2091837
47	0xbcf325df	-0.029681144
48	0xbf9d857b	-1.230636
49	0xbcad98a6	-0.021190953
50	0xbbc4a09e	-0.0060005924
51	0xc019e341	-2.4044955
52	0x3b0d422a	0.002155433
53	0xbe7da8b9	-0.24771394
54	0xbdc81e63	-0.09771421
55	0xbc11b6f8	-0.008893721
56	0x3e8ad0d9	0.27112463
57	0xbdb827fe	-0.08992003
58	0xbe75a40e	-0.23988363
59	0x3e13f5c3	0.1444922
60	0xb95007c3	-0.00019839317
61	0x3ec2162c	0.3790754
62	0xbb024681	-0.001987845
63	0x3e8250cb	0.25452265
64	0xbf93c2d2	-1.154383
65	0x3f856464	1.0421262
66	0x3f918203	1.1367801
67	0x3c92ded8	0.017928526
68	0x3e6d7485	0.2318898
69	0x3d062336	0.032748424
70	0x3c510c08	0.012759216
71	0xbc218d22	-0.009860309
72	0x3c44b3e4	0.01200578
73	0x3bf8693b	0.007580904
74	0x3d0258d5	0.031822998
75	0x3d661162	0.05616892
76	0x3ad1d6c5	0.0016009441
77	0xbd21eaf3	-0.039530706
78	0x3ca12df6	0.019675236
79	0xbc0580e8	-0.008148409
80	0xbc57dae5	-0.013174747
81	0x3e86ce90	0.2632947
82	0xc02e570d	-2.7240632
83	0x3deeb958	0.11656445
84	0xbc7c5e53	-0.015403348
85	0x3f412925	0.75453407
86	0x3f99b6a2	1.200886
87	0x3e71f3d4	0.2362817
88	0x3a8b6cb5	0.0010637256
89	0x3fbc66ee	1.4718912
90	0xba41d615	-0.00073942664
91	0x403b9898	2.9311886
92	0xbcc4fb04	-0.024045475
93	0x3de21f07	0.11041074
94	0x3c43a79b	0.011941816
95	0xbe473ecb	-0.19457547
96	0xbb2f6119	-0.0026760756
97	0xc0495f47	-3.1464403
98	0xbf6c7d48	-0.92378664
99	0x3f9c1056	1.2192485
100	0x3c907c61	0.017637433
101	0xc102d1c9	-8.176217
102	0x3c8785ec	0.016543351
103	0xbf99acf2	-1.2005904
104	0xbef07861	-0.46966842
105	0x3fa1af0b	1.2631544
106	0x3ff37b2f	1.9021968
107	0xbc49c011	-0.012313859
108	0xc048065f	-3.1253889
109	0xbc0712e5	-0.008244251
110	0xbfab9a77	-1.3406514
111	0x3f48bd90	0.7841425
112	0xbcf52eb2	-0.029929493
113	0xc0be3776	-5.94427
114	0x3c84cc4e	0.016210701
115	0x3b83347f	0.0040040608
116	0xbebef2d9	-0.37294653
117	0x3fe088be	1.754173
118	0xbbe8a10e	-0.0070992773
119	0x3d439f20	0.047759175
120	0x3ce074f6	0.027399521
121	0x3e5d51de	0.21613261
122	0x3dc65c67	0.09685593
123	0x3d2780c5	0.04089429
124	0xbb371110	-0.0027933754
125	0x3dcf6f15	0.10128609
126	0xbd8e6fe6	-0.06954937
127	0xbd100c08	-0.035167724
128	0x3e2cb34d	0.16865273
129	0xc074b31f	-3.8234327
130	0xbe8f7155	-0.28016153
131	0xbc8be98a	-0.017079134
132	0x3c12a965	0.00895152
133	0xbda0e404	-0.078559905
134	0xbecac1a5	-0.39600864
135	0xbf07ee91	-0.530984
136	0x3f03bbee	0.5145863
137	0x3c556a6b	0.01302586
138	0x3dea3034	0.11434975
139	0x3e113a5f	0.14182423
140	0xbb74b51b	-0.0037339393
141	0x3e549e7d	0.20763583
142	0x3fa9c9bf	1.3264693
143	0x3cb19404	0.021677025
144	0xbc4be5f6	-0.012444964
145	0xbe784bf4	-0.24247724
146	0xbfa59774	-1.2936845
147	0xbf59ba41	-0.85049826
148	0xbcbcb230	-0.023034185
149	0x3f28b10f	0.6589517
150	0xc06c23d3	-3.6896865
151	0xbc71059d	-0.014710811
152	0xbbd7fe10	-0.006591566
153	0x3ba4de6a	0.0050313966
154	0xbe6d9ec4	-0.23205096
155	0x4030a114	2.7598314
156	0x3b6071d9	0.0034247546
157	0x3ef297a0	0.47381306
158	0xbce48479	-0.0278952
159	0xbb337b60	-0.002738677
160	0xbcca3acf	-0.024686245
161	0xbf7b7eed	-0.9824055
162	0x3ccc62d5	0.02494947
163	0x3f0d2ce8	0.55146646
164	0x3bb39baa	0.005481203
165	0xbf9c556f	-1.2213572
166	0x3f9bae64	1.2162595
167	0x3d786d17	0.06065091
168	0xbf1e4d3b	-0.61836594
169	0x3f0bb96c	0.54579806
170	0xbd8d47dd	-0.068984725
171	0xbe69ac5f	-0.2281966
172	0xbe933d50	-0.28757715
173	0xbf5b4882	-0.85657513
174	0xbe1f66a5	-0.155665
175	0x3e4dfb00	0.2011528
176	0x3c99c1dd	0.018769199
177	0xbea6dd05	-0.325905
178	0x3db7258a	0.08942707
179	0xbc3a2fb9	-0.011363917
180	0xbe30d967	-0.17270432
181	0x3f4ab627	0.7918419
182	0xbe94a1f8	-0.29029822
183	0xbf810c0a	-1.0081799
184	0x3b8ecb6d	0.0043577463
185	0xbf497015	-0.7868665
186	0xbb167213	-0.0022956177
187	0xbc114a50	-0.008867815
188	0x3f7494f1	0.95539767
189	0x3e47d08d	0.1951315
190	0xbcd62103	-0.026138788
191	0xbe80e810	-0.2517705
192	0xbe84e902	-0.2595902
193	0xbb91e5ca	-0.004452442
194	0xbf5c5141	-0.86061484
195	0xbde0f869	-0.109848805
196	0x3fdcac04	1.7239995
197	0x3c6287ca	0.01382632
198	0x40569d35	3.3533452
199	0xc03dc343	-2.9650428
