Vehicles/ModForest_2/ModForest_2_critic.pth (torch, 353491 bytes, 10 tensors)

weight f4 [200, 15]
000000 a8 42 8a be 5c 5d 30 3d ca 21 3c 3e 70 92 28 3f
       -0.2700398 0.043057784 0.18372265 0.65848446
000010 8a d4 c8 3e d7 08 84 3d a5 c7 e1 3d 57 10 ef 3e
       0.39224654 0.064469986 0.11024407 0.46692154
000020 3f 9e 7f bc c5 33 95 c0 f0 0d 30 c0 aa 0d a1 3f
       -0.015601694 -4.6625695 -2.7508507 1.2582295
000030 1b 6f 16 3c 88 5f 92 3e 61 ec 65 3e 35 c4 50 bf
       0.009181763 0.2858851 0.22453453 -0.8154939
000040 0d e7 96 bf 5c 88 8f 3e b9 bd d9 be 06 96 fc 3e
       -1.1789261 0.2803372 -0.4252756 0.4933321
000050 5a a4 3a 3f 87 7d 79 3f 23 f4 0b bf eb 6e 1b 3f
       0.7290703 0.97457165 -0.546694 0.6071612
000060 cd 74 52 bf 8f f0 98 3d c3 d1 79 3e 47 3f 45 bf
       -0.82209474 0.07467758 0.24396424 -0.7704968
000070 55 79 6a bf e0 67 f3 be 20 56 aa be c3 3a d1 be
       -0.9159139 -0.47540188 -0.33268833 -0.40865144
000080 86 1f 6a 3e 5c 13 8e 3e c8 04 20 3f 2d 28 58 bf
       0.22863588 0.27749145 0.62507296 -0.84436303
000090 6f a8 c1 3e 91 bc 0e 3f 13 67 9f bf dc 6c c6 bf
       0.37823817 0.5575648 -1.2453331 -1.5501971
0000a0 9b 1a 0d 3f ba 8d 25 bf 20 91 b0 bc 77 48 a6 3e
       0.5511872 -0.6466938 -0.021553576 0.3247716
0000b0 6c af 8a bf f0 58 12 bf 83 ba 36 3f c9 dc 02 bc
       -1.0834785 -0.5716696 0.71378344 -0.00798721
0000c0 51 60 b7 3f 33 ef b9 bf a7 47 53 bf 91 e1 07 bf
       1.4326268 -1.4526123 -0.8253121 -0.5307856
0000d0 23 5f 17 bf cf 22 3a 3e a6 c2 92 bf ce 9d 4d bf
       -0.5912954 0.18177341 -1.1465652 -0.80318916
0000e0 4d 60 a7 bd 05 70 d3 3e 41 83 3c 3e 31 79 a4 3e
       -0.08172665 0.41296402 0.18409444 0.32123712
0000f0 e7 b8 cb bf fc 29 b3 bf 0f 6c 25 3c 8f 89 49 3e
       -1.5915803 -1.3997188 0.010096564 0.1968138
000100 a2 26 99 3d 20 b7 02 3f 47 a4 43 be 2d 02 8e 3f
       0.07478072 0.51060677 -0.19105636 1.1094414
000110 5a 5f bc 3e 56 80 9f 3e 59 d1 a5 bf 87 1a 9d bf
       0.36791497 0.311526 -1.2954513 -1.227372
000120 a1 f0 b3 3d 0f 6d ec 3e 08 98 02 bf 6d d3 57 bf
       0.08786131 0.46176955 -0.5101323 -0.84306985
000130 e6 64 09 bf d5 db 16 bd 0f 48 e0 3e 91 c0 9a be
       -0.53669584 -0.036830742 0.43804976 -0.30225042
000140 e3 d5 cd 3d 70 7d fe be c0 5d 79 bf 8f 73 26 bf
       0.10050561 -0.49705076 -0.97408676 -0.6502008
000150 37 00 38 bd a1 d8 15 3f b0 54 c6 be 1e dd 06 3e
       -0.04492208 0.58533674 -0.38736486 0.13170287
000160 f1 21 9d 3e b6 67 96 bf 13 12 bf bc 66 23 8d 3f
       0.30689958 -1.17504 -0.023324048 1.1026428
000170 57 6e 52 3f c3 84 6e be c1 ca f4 be 4f 6f 84 bf
       0.82199615 -0.23292832 -0.4781094 -1.0346469
000180 01 1b 9a bf 9c 8e 88 bf 88 c0 96 3e a4 56 d7 3e
       -1.2039491 -1.0668521 0.29443765 0.4205829
000190 03 3f 04 bf 67 9c a9 be 62 1a f4 3e 80 7e 83 bf
       -0.5165865 -0.33127138 0.47676378 -1.027298
0001a0 55 23 9b bd 1a e3 35 3f 71 d0 47 3f 46 ba 6e bf
       -0.075750984 0.71049654 0.7805243 -0.9325298
0001b0 3c 5a 43 3e df ef 1e bf f1 56 08 bf 30 31 04 bf
       0.1907739 -0.62084764 -0.5325766 -0.51637554
0001c0 96 ea 13 be f4 49 2e 3e 4f 76 ee 3e 3f eb c9 bf
       -0.14444956 0.17020398 0.46574637 -1.5774916
0001d0 7c 28 3c be c5 7d 9f 3e be 31 bf 3e 7d 3d 81 3e
       -0.18374819 0.31150642 0.37342638 0.25242224
0001e0 19 81 59 3e 89 53 7f 3e 38 df db be f0 27 3a be
       0.21240653 0.2493421 -0.4294374 -0.18179297
0001f0 8b 4c 45 bf 55 3a 49 be 4e c7 5c bf 5b 3b 82 be
       -0.7706992 -0.19651158 -0.86241615 -0.2543591
000200 c5 13 15 3f b8 dc b3 3e b1 7b 3f bf c6 60 9f be
       0.5823329 0.35129333 -0.74798113 -0.3112852
000210 9a 90 bf 3e 7e 5d 2d 3f 5d 01 87 bf 0c 5a 28 be
       0.3741501 0.6772078 -1.0547291 -0.164406
000220 fd 7f 90 be fd db 4b be d1 e6 bc 3e 65 85 7c 3d
       -0.28222647 -0.19908138 0.3689485 0.061650652
000230 b0 85 83 3f a3 75 26 3f 5c 6f 09 3f 84 6d 1d c0
       1.0275173 0.6502325 0.53685546 -2.4598093
000240 7d 86 9d 3e 0e c1 ce 3d 2f ed de 3b 43 e1 e3 be
       0.3076667 0.10095416 0.006803177 -0.445078
000250 73 fe cb 3d 08 99 35 bd 73 15 6a 3f 0c 2d 71 3f
       0.09960642 -0.044335395 0.9143898 0.9420936
000260 36 a1 1c 3e 3a 03 93 bd f1 93 de 3d 01 0e 4c c0
       0.15295872 -0.0717835 0.10868061 -3.1883547
000270 a2 55 48 c0 d8 3f 96 c0 50 f7 1f c0 85 b2 69 c0
       -3.1302266 -4.6952934 -2.4994698 -3.651521
000280 64 db d4 c0 56 bc 34 3f 51 0e bb c0 95 9f a2 c0
       -6.651781 0.7059988 -5.8454976 -5.08198
000290 1f 4b 61 bd 9b dd b6 bf aa af bd bf b0 45 fe 3d
       -0.05500328 -1.4286379 -1.4819233 0.124156356
0002a0 e3 43 26 3f fd 5a 59 bf 1d 6f 90 bf 66 76 66 bf
       0.64947337 -0.8490446 -1.1283909 -0.9002441
0002b0 c1 98 82 be b1 44 3f bf b3 0d ff be 02 50 ac be
       -0.25507167 -0.7471419 -0.4981514 -0.3365479
0002c0 4c e6 a8 3f cc d2 6c 3f d3 fd 00 3f 4b f8 4c 3e
       1.3195281 0.9250915 0.50387305 0.20016591
0002d0 be a4 45 3d 98 90 95 3e 23 16 8d bf 1a 1e 7b bd
       0.048252814 0.2921188 -1.102238 -0.061308004
0002e0 1a a6 00 c0 f4 05 62 bf ff ef b4 bf f9 ed 2d bf
       -2.010138 -0.88290334 -1.4135741 -0.6794124
0002f0 57 4c bb bf c7 02 06 3f 23 3b b4 3e 8f 49 31 3f
       -1.4632672 0.5234799 0.35201368 0.69252867
000300 9c 10 29 3e ca dc 5d 3e de 76 ac be 7f f3 8a bd
       0.16510242 0.21666256 -0.33684438 -0.067847244
000310 c8 fe ca 3c d2 ed 79 3f cf 6d 3d 3d 91 65 2b bf
       0.024779692 0.9762851 0.0462473 -0.66951853
000320 63 54 a2 be 59 c1 16 bf a0 a8 25 bf b7 ad 64 3f
       -0.31705007 -0.58888775 -0.64710426 0.8932757
000330 4c 04 17 3f 53 42 bf be 36 ac 97 bf 4c d9 1f bf
       0.5899093 -0.3735529 -1.184943 -0.62440944
000340 f3 bc bb bd 85 62 70 be c2 2f a6 bd d0 71 24 3e
       -0.091668986 -0.23475082 -0.08114578 0.16059041
000350 7a 90 0f c0 f0 7a 8e 3d 5d 2a 6b 3d 7d 85 78 be
       -2.2431931 0.06957042 0.057413448 -0.24269672
000360 01 1f ab bd 8a 2c 2a be e7 0d 9f bd ab ef f3 3e
       -0.08355523 -0.16618553 -0.077663235 0.4764379
000370 e2 a2 25 be 59 dc 2b be 14 23 0a be 1c 37 02 be
       -0.16175416 -0.16783275 -0.13489944 -0.12716335
000380 d3 0d b7 3d 02 d7 87 bf 3b 7d 3f 3f d5 03 9c bf
       0.08938184 -1.061249 0.7480046 -1.218867
000390 a2 71 ba 3e 07 ea c1 3d 23 8f 04 3f e2 6f 8c be
       0.3641482 0.09468465 0.5178091 -0.2742911
0003a0 79 3f 51 bf 87 d5 31 3d 49 7b e4 be 47 29 a0 bb
       -0.81737477 0.043416526 -0.4462531 -0.004887733
0003b0 66 86 05 bf e2 6b a7 3d 66 8b 49 3e 98 30 00 3e
       -0.521582 0.08174874 0.19682083 0.12518537
0003c0 99 87 28 be 2b ec de 3d 84 87 36 3f ef 2e 31 bf
       -0.16457976 0.10884889 0.7130053 -0.6921224
0003d0 40 24 af be dd 95 18 be 2a ce ad 3d b6 80 65 3f
       -0.34207344 -0.14900918 0.08486588 0.8964952
0003e0 2b 46 ad be 07 fd 06 3e 5e af a7 bf 90 bd a9 3f
       -0.33842596 0.1318246 -1.3100393 1.3260975
0003f0 b1 c6 91 3f 80 f1 dd 3e 71 90 af bc 38 1f 9e 3e
       1.1388761 0.43348312 -0.02143118 0.30883193

bias f4 [200]
000000 21 30 4f 3f 46 3c 58 bf f1 b9 5b 3c fa 0f 63 3e
       0.80932814 -0.8446697 0.013411031 0.22174063
000010 b2 89 22 be 08 bb ba bd 1f 85 88 3e 8d 96 74 be
       -0.15872839 -0.09117705 0.26664063 -0.23885556
000020 9e 64 37 be f7 e0 df 3d 99 d2 93 3f ef 48 01 3f
       -0.17909476 0.109315805 1.1548644 0.5050191
000030 e9 d1 90 be a6 8b 37 be 88 9f ed bb b2 3c 97 be
       -0.2828515 -0.17924365 -0.0072516836 -0.29538494
000040 cd 8c e2 bd 29 25 9e 3e d5 74 a5 be a4 d0 77 3e
       -0.11062012 0.30887726 -0.32315698 0.24200684
000050 07 35 be 3e da 7b 46 bf 62 f2 79 3e 31 72 fb 3d
       0.37149832 -0.7753273 0.24408868 0.1227764
000060 cc b1 2f be 0e 83 5d bf 60 b3 42 bf 17 62 32 3d
       -0.17157668 -0.865281 -0.76054955 0.043550577
000070 71 a5 10 3f 65 cc 22 bf 7c a4 26 3f 32 84 04 bf
       0.56502444 -0.6359313 0.65094733 -0.51764214
000080 1d c8 67 bf 5f 3e 02 3e f5 e8 d4 be f7 7b db 3e
       -0.90539724 0.12719105 -0.41583982 0.42868015
000090 a4 f8 af be b6 2b 07 bf f4 ac 0f bf 1b c2 ba be
       -0.34369385 -0.5280107 -0.5612328 -0.36476216
0000a0 dc c3 03 bf 96 85 ea 3d 94 1b 88 3e 00 ed e0 3e
       -0.5147073 0.11451261 0.2658354 0.43930817
0000b0 61 2f b6 be 85 5a 3d 3e d5 c3 2e bf 34 a0 dd 3e
       -0.35583022 0.18491562 -0.68267566 0.43286288
0000c0 36 aa fb 3e 04 7f 7f 3d 49 03 4a 3e 9d 28 d4 be
       0.49153298 0.06237699 0.19727816 -0.41437235
0000d0 ba 42 38 bf a5 1d 8e 3e 01 c8 1f bf cf 0c 09 bf
       -0.71976817 0.27756992 -0.62414557 -0.5353517
0000e0 5b 54 5a be 35 47 85 bf 78 c4 47 3d a0 e3 ac 3d
       -0.21321242 -1.0412356 0.04877135 0.084418535
0000f0 73 de 15 be 37 0c 82 be 35 85 0f 3f c7 32 2a bf
       -0.14635639 -0.25399944 0.5606263 -0.6648373
000100 ab 9d c0 3e d3 9e 32 bf 95 13 95 3d 52 5b 99 be
       0.3762029 -0.69773597 0.072791256 -0.29952484
000110 1c 62 a3 bd 48 4e c9 be 85 fc 69 3e 7a 73 14 3f
       -0.07977697 -0.39317536 0.22850235 0.57988703
000120 4f 80 4e be e0 f1 cf 3d 5c c5 4a 3e 03 14 03 3f
       -0.20166133 0.10153556 0.19801849 0.5120241
000130 c0 fb b1 3a 2d b8 5b bf c8 cf 8d bf 3b 4d 9e be
       0.0013579056 -0.85827905 -1.1079035 -0.30918297
000140 f7 4d 9b bd 18 98 72 bf 84 8f 91 bd e2 e9 d1 3e
       -0.0758323 -0.94763327 -0.071074516 0.4099875
000150 73 e1 0e bf c7 5d 87 be b1 ee d6 be c9 75 ab be
       -0.5581276 -0.26438734 -0.41978982 -0.334883
000160 8f 85 43 bf 42 70 83 be a6 e5 70 3e 94 12 17 bf
       -0.7637567 -0.25671583 0.23525104 -0.5901272
000170 ca 16 8d bf 9f bc d6 be 6c 9d a7 be 42 59 1b 3e
       -1.102258 -0.4194078 -0.3273729 0.15170768
000180 29 5b 4a 3e b7 8e 73 be 43 9e 1c 3e e5 5a a9 3e
       0.19761337 -0.2378491 0.15294747 0.3307716
000190 f0 f4 e7 3d f7 f7 f2 bd c3 e0 b1 3e 0f 7f 5b 3d
       0.11326015 -0.11863702 0.34741792 0.05358797
0001a0 e0 27 ef be 33 ab 4f 3e 91 fb b7 be b9 e1 e0 3c
       -0.4671011 0.20280151 -0.35934117 0.027451383
0001b0 27 35 a2 3e aa b5 eb be ed 27 87 bf 2e a8 ee be
       0.31681177 -0.46037036 -1.0559059 -0.46612686
0001c0 b2 88 19 bf 94 13 3a 3e b3 a8 57 3f 9d c2 fd 3e
       -0.59974205 0.18171531 0.8424179 0.4956254
0001d0 49 ac d1 be e3 06 34 bd eb 03 2e bf 96 98 90 be
       -0.40951756 -0.04395188 -0.6797473 -0.28241414
0001e0 63 7b 9e be 8a 16 50 3e 33 0f a6 bc b6 b4 36 3e
       -0.30953512 0.20321098 -0.02027092 0.17842373
0001f0 2f de 6c be 0f 0c a8 bd 87 62 0b bf b8 a0 dd be
       -0.23131631 -0.08205425 -0.54447216 -0.4328668
000200 f3 04 6b bd 66 5b 2a 3f 14 e6 7e bf 65 fa 82 be
       -0.057377767 0.6654571 -0.9956982 -0.2558166
000210 b8 e9 66 3e 76 ca 87 be 63 71 f9 bd 45 c0 48 be
       0.22550094 -0.26521653 -0.1217983 -0.19604595
000220 c7 5d 86 3e 6e d9 77 3e b1 ba 1b be 1c 2d 44 bf
       0.2624342 0.24204037 -0.15207936 -0.7663133
000230 86 5f 90 be 67 44 31 3e 3c fb a5 3c 2a bb 87 3e
       -0.2819788 0.1731125 0.0202614 0.26509982
000240 0e 74 3b 3e cd b3 21 3f 52 ef e3 3c 3f 9b ea be
       0.1830599 0.6316498 0.027824078 -0.45821568
000250 d0 0f 46 3d bf 38 8d be 0c bf 2c 3e a1 f4 fc 3e
       0.048354924 -0.27582356 0.16869754 0.49405387
000260 7c df 72 3f 18 88 58 bf 52 1b 0b be 6a 98 11 be
       0.9487226 -0.8458266 -0.1358464 -0.14218298
000270 5b b5 5e bf cc ab 45 be ae 55 45 bf 7e 3f 44 be
       -0.86995476 -0.19303817 -0.7708386 -0.19164845
000280 ff 12 38 bf e0 31 0b 3f 53 d8 61 bf dc a7 89 bf
       -0.71903986 0.5437298 -0.8822071 -1.0754352
000290 87 f6 e2 3d 94 bd 22 3e 71 a6 5e bf 72 49 95 be
       0.110821776 0.15892631 -0.8697272 -0.29157597
0002a0 c5 89 e7 3e 04 ff b7 3d e3 50 f9 bd 0b 86 97 3e
       0.45222297 0.08984187 -0.12173631 0.29594454
0002b0 89 e1 da 3e 5b ee 55 3e ca d7 8a be 72 a6 98 be
       0.42750195 0.20891707 -0.2711776 -0.29814488
0002c0 e0 a1 57 3e 0d b5 af 3e 86 d1 4b be 85 dd ab bd
       0.21057844 0.34317818 -0.19904146 -0.08391861
0002d0 67 0a 6e 3d 2c b9 41 be 37 c1 36 be 03 ae 57 3e
       0.05811539 -0.18918294 -0.17847143 0.21062474
0002e0 1e 9e 1a bf ca 65 a4 bd 02 45 8e bf 5f bf 0d bf
       -0.6039752 -0.08027227 -1.111481 -0.55370134
0002f0 02 dc 01 bf 51 d9 81 be 85 1b 19 bf 31 51 9e 3d
       -0.5072633 -0.25361112 -0.59807616 0.0773033
000300 42 68 c5 3e cd ad b4 bc 5c 58 43 3d 82 e2 98 3e
       0.38556105 -0.02205553 0.047691688 0.29860312
000310 e3 58 1e bf f4 cc d0 3d 4b 01 12 bf 6b a8 71 be
       -0.6185438 0.10195342 -0.5703322 -0.23599403

weight f4 [200, 200]
000000 0b c5 bd bf 96 20 79 3e ad d6 58 be c0 de 2f 3f
       -1.4825758 0.24328837 -0.21175642 0.68699265
000010 4b 3d e7 be 05 b4 05 bf eb a8 37 c0 78 45 f0 bf
       -0.4516395 -0.52227813 -2.869685 -1.87712
000020 09 cd 4f be 1c 0f ab be f0 54 86 bd 03 51 d5 be
       -0.20293058 -0.33409965 -0.06559169 -0.4166337
000030 33 a8 aa 3e 12 1a 16 3f 90 1b 27 3e 9e 20 64 3e
       0.3333145 0.5863353 0.16319108 0.22278067
000040 fb e6 ed be a5 7b 13 3f 24 07 8c 3d 35 3f 2f 3e
       -0.46465287 0.5761054 0.068372995 0.17113955
000050 45 c1 a1 3e 82 1b 74 bf a6 e4 e3 3e fc b1 21 be
       0.31592765 -0.95354474 0.44510382 -0.15790552
000060 a0 5e 7d bf d3 90 14 3e b8 7d 99 be d7 fa cc bd
       -0.9897251 0.14508371 -0.29978728 -0.100087814
000070 e8 26 f4 be 09 32 19 bf 5f 1f 9e bf 5a 13 8b be
       -0.47685933 -0.5984197 -1.2353324 -0.27163202
000080 8c 82 72 bd 74 00 0d bf 0e 81 58 3f b1 37 8f bd
       -0.05920653 -0.55078816 0.8457192 -0.06993044
000090 ca e9 9e bd 35 3d fc be 9e 26 d5 bc 6c 94 a8 bf
       -0.077594355 -0.49265447 -0.02601939 -1.3170295
0000a0 e9 1e 7e be fb de a1 bf 1d a9 c3 be bc f7 ac bd
       -0.24816479 -1.2646173 -0.3821496 -0.08445689
0000b0 80 de 89 3e 73 c3 6c be f6 c7 a3 be cc aa b0 3e
       0.26927567 -0.23121433 -0.31988496 0.34505308
0000c0 ee 44 23 bf 74 34 9b bf f1 46 84 bd 9e ef 95 bd
       -0.63777053 -1.2125382 -0.064588435 -0.07321094
0000d0 24 32 a5 3e e2 18 c3 bf 2b f4 3c c0 dd 92 01 bf
       0.32264817 -1.5241969 -2.9524028 -0.5061472
0000e0 2f ca 5c bf 6c 61 dc bf 39 29 99 3f 0f 2e ba be
       -0.8624601 -1.7217231 1.1965705 -0.36363265
0000f0 9e 61 37 3f e8 30 b8 3e 73 ef f7 bd 7c 6a e8 bf
       0.71633327 0.35974813 -0.12106218 -1.8157496
000100 8d 88 c3 3e 02 fb a6 bf a8 b7 79 bf 28 8b 3f bf
       0.38190117 -1.3045352 -0.9754586 -0.7482171
000110 10 8d 73 bf a5 91 9d bf 8c 5d b2 3e 4b a8 95 3e
       -0.9513712 -1.2310072 0.34836996 0.2922996
000120 2a e6 7f bf 10 6c 03 bf 73 19 41 bf 5a 59 75 bf
       -0.9996058 -0.51336765 -0.7542946 -0.95839465
000130 1c 0c 78 3d 15 8f 12 bf 24 9b 00 bf e7 7a cc be
       0.060558423 -0.57249576 -0.50236726 -0.39937517
000140 f6 da 15 c0 69 3c 54 bf 6c ec 66 be 01 a2 3e bf
       -2.3414893 -0.8290468 -0.22551125 -0.7446595
000150 74 05 21 bd f4 f6 0e bf 7f c8 a9 bd 57 a5 b3 be
       -0.03931184 -0.5584557 -0.08290195 -0.35087082
000160 97 27 fa be fe c2 75 be df 3d 7a bf e9 38 e6 3e
       -0.4885833 -0.24000165 -0.9775066 0.44965294
000170 86 15 3c 3f 49 1a e1 3d bd d8 47 bd c5 a4 ce be
       0.7347034 0.109913416 -0.048790682 -0.40360084
000180 3f 6d 08 bf ee 94 c6 bf 1f 3c dd 3e ad 95 7f bd
       -0.53291696 -1.55142 0.4320993 -0.0623986
000190 05 ab 59 bc 49 3d 3c bf 66 32 9e be 21 fb 32 3e
       -0.013285403 -0.73531014 -0.30897826 0.1747861
0001a0 15 61 58 3c d2 46 f1 3e 2d ac a6 3b 58 39 aa 3e
       0.01320674 0.47124344 0.005086443 0.33246875
0001b0 09 6c 0b c0 08 7d 65 be 65 12 01 bf ea 1c 04 bf
       -2.178469 -0.22410977 -0.5041869 -0.5160662
0001c0 46 e8 a0 be 86 a7 5d bf a6 82 da be 90 8e b7 bf
       -0.3142721 -0.86583745 -0.42677802 -1.4340382
0001d0 e1 12 2d be 1c dd 2e be 3e 19 b4 bf 12 8d 57 bf
       -0.16901733 -0.17076534 -1.4070203 -0.8419963
0001e0 c0 9a 77 ba c2 0b 47 bf 3e 31 10 bf f0 90 23 bf
       -0.0009445362 -0.77752316 -0.5632514 -0.6389303
0001f0 10 0b 09 bf c1 36 9b be 74 4c f2 bf f8 f1 08 bd
       -0.53532505 -0.3031521 -1.8929582 -0.033433884
000200 0c 72 dd 3d 78 89 5a bf dd a1 a2 3e c3 02 34 bd
       0.10812768 -0.8536601 0.31764117 -0.043947946
000210 ac d8 ac 3e 19 3a af be 67 2d 41 be 44 b3 b6 3e
       0.33759058 -0.34224012 -0.18864976 0.35683644
000220 87 50 bd bf 9e bc 02 be bd ba 98 be c8 c8 a6 bf
       -1.47902 -0.12767264 -0.2982997 -1.3030024
000230 1e 84 64 bf db 54 92 3e 62 be 56 be 2c bc 45 be
       -0.89264095 0.28580365 -0.20971063 -0.19310063
000240 85 62 60 bd f6 27 65 be bc 0b a2 be 66 1d e2 be
       -0.054781456 -0.22378525 -0.31649578 -0.44163054
000250 37 11 88 3e c4 a4 b5 be aa ec 4a bf 21 da 56 bf
       0.26575634 -0.3547727 -0.7926737 -0.8392659
000260 39 82 e3 be d9 71 b5 3e 9f 77 f9 bf 69 3f 9c 3f
       -0.4443529 0.3543842 -1.948963 1.2206851
000270 6d 23 5f be 3d 9b 81 bf 60 18 52 3e e4 0f 95 bc
       -0.21790858 -1.01255 0.20517111 -0.018196054
000280 40 80 16 c0 d1 ca 18 bf 64 d1 8b 3e 6c 74 62 3d
       -2.3515778 -0.59684473 0.2730819 0.05528681
000290 63 4b 13 3f 54 ba 16 be 5e 03 f7 3d 7a 4f a5 bf
       0.57536906 -0.14719516 0.12061189 -1.2914879
0002a0 b4 1a 6d c0 9f c5 87 be fe 3e d8 bd f3 72 e5 3e
       -3.7047548 -0.2651796 -0.1055889 0.44814262
0002b0 ae 0c 45 3f cd ff 08 3f de a8 8e bd 3e 3c 93 3e
       0.7697247 0.5351532 -0.069658026 0.287569
0002c0 5d aa ff be 7b 09 49 3e 7c de 01 be 8f 96 e4 3e
       -0.49934664 0.19632523 -0.12682527 0.44646117
0002d0 d4 10 e4 3d 7a 33 a4 3e 7d 46 6f 3d 71 71 07 3f
       0.11136022 0.32070524 0.058416832 0.5290747
0002e0 93 45 2b be 53 2b 98 bf 0e e0 eb be 8e 4e a5 bf
       -0.16725759 -1.1888222 -0.46069378 -1.2914598
0002f0 8b 56 5c 3e bb 88 77 3d d1 bc b9 bd 1a 76 cf 3e
       0.21517389 0.06043313 -0.09069217 0.40519792
000300 fd 9e c0 3e 78 ff 6f bd cf e1 59 3f a2 fc 08 be
       0.37621298 -0.058593243 0.8511018 -0.13377622
000310 d6 b5 ce 3e 0f 83 03 bf 8b 18 83 be d1 56 2a bf
       0.40373105 -0.51371855 -0.25604662 -0.6653872
000320 81 81 4c 3d 53 0c f5 3b 41 df c9 bd ba cb be bd
       0.049928192 0.007478276 -0.098570354 -0.093162015
000330 2c 76 ab bd 2e b4 d3 bc bb ac 34 bd 84 b1 3c bc
       -0.08372149 -0.025842752 -0.04411004 -0.011516932
000340 5c 58 b8 bd 79 4f 0e be bd 02 c6 bc 7c 16 16 be
       -0.09001228 -0.13897504 -0.024171228 -0.14657015
000350 8f e9 4a bd 84 fa c1 bd 85 97 03 3c 96 82 2c 3d
       -0.049539145 -0.0947161 0.008031731 0.042116724
000360 45 20 cf bd 4d 45 44 be ce 09 eb 3c 1a 5c d3 bd
       -0.10113577 -0.19167061 0.028691199 -0.10320301
000370 24 c1 b6 bd 65 9f 1b be 59 19 92 3c 1f 71 7e bd
       -0.089235574 -0.15197523 0.017834352 -0.0621196
000380 e7 9d ac bd c6 ac b1 3d 14 a2 7c 3c 89 3b 13 bd
       -0.08428555 0.08675532 0.015419502 -0.03594545
000390 3a 55 45 bd fb b2 08 be e9 2f 5e bc af 25 12 3d
       -0.04817698 -0.13349526 -0.013561227 0.03568047
0003a0 fe 70 83 bd 95 11 a5 3c 37 3f ec bc 83 7e 92 3b
       -0.06418036 0.020149985 -0.028838737 0.004470648
0003b0 8a 90 79 bd 85 1c 8c 3c de 7c 61 bd 72 e4 07 bd
       -0.06092886 0.017103443 -0.055050723 -0.033176847
0003c0 b3 b8 82 bc 8f 0a c4 bd d8 5e 75 3b 10 56 89 bd
       -0.015957212 -0.095723264 0.0037440564 -0.06705868
0003d0 19 44 ae bd f4 b3 ae bd c9 16 c5 bc 63 5f 81 bd
       -0.08509082 -0.08530417 -0.024058716 -0.06317022
0003e0 45 ab e4 3c de e4 c8 bd e1 47 6c 3e 39 b8 f5 3a
       0.027913699 -0.09809278 0.23074295 0.0018746919
0003f0 27 6b b9 bc 70 9b a0 bd a9 f8 38 bd a2 36 b0 bc
       -0.022634102 -0.07842147 -0.045159016 -0.021510426

bias f4 [200]
000000 8a 96 49 be df 5a 55 bd 7f e2 c2 be 1d 50 a7 bd
       -0.19686332 -0.052088615 -0.38063428 -0.08169577
000010 b2 b2 71 3e bc b2 09 bd fb 2e 04 bf c5 61 0f be
       0.23603323 -0.03361772 -0.51634187 -0.1400214
000020 d1 56 bc bd 22 b0 ec bd 7f 00 24 be c3 dd ae bd
       -0.091962464 -0.11557032 -0.16015814 -0.085383914
000030 ad 96 42 bd cf d4 6e be 38 cb 76 bd ec 21 b0 bd
       -0.047506977 -0.23323368 -0.0602524 -0.0860022
000040 d5 12 b7 be 0a f4 08 bf 0d 83 ca be c1 06 18 bf
       -0.35756555 -0.53497374 -0.3955311 -0.59385306
000050 ac 92 5f be e8 51 00 be ec 66 b4 bd 66 80 8b be
       -0.21833295 -0.12531245 -0.08808693 -0.27246398
000060 83 ee 40 3e 32 eb 12 bf ab fc e9 be e1 24 fe bc
       0.18840985 -0.5739013 -0.45700583 -0.031023445
000070 06 ce 02 be ae 28 93 bc 6e 61 bf be 19 56 23 bd
       -0.12773904 -0.017963734 -0.3737902 -0.03987703
000080 05 10 39 be 17 6d 08 be ce 9f 09 be 8e 20 95 bd
       -0.18072517 -0.13322864 -0.13439867 -0.072816
000090 02 27 3c bf 6e 9c b0 bd f0 0c 88 bd e1 82 e1 bd
       -0.7349702 -0.086235866 -0.06643093 -0.11011291
0000a0 67 6a b2 bc a4 c6 77 bd b5 46 0b bd 44 10 0c bd
       -0.021779252 -0.060492173 -0.03400298 -0.0341952
0000b0 2c 9b 1f bc 66 b1 e7 bd 0b 90 d0 bd 9d 4d 84 bd
       -0.009741586 -0.11313133 -0.10183724 -0.06460116
0000c0 e2 e9 51 3e 89 00 35 bd 56 74 08 3f f1 1f 92 bd
       0.20499375 -0.044189963 0.53302515 -0.071349986
0000d0 2f b1 c9 bd a0 1c b4 bd d9 d5 1a bf 55 f0 11 bf
       -0.09848248 -0.08794522 -0.60482556 -0.5700734
0000e0 10 e3 1c be ee 33 06 40 b7 4e 25 be 4a 90 22 bf
       -0.15320992 2.0969195 -0.16143309 -0.6350142
0000f0 29 41 94 bc 67 93 7d bd e6 38 8f bd 4f 2c da bd
       -0.018097477 -0.061908152 -0.069932744 -0.106529824
000100 f0 88 71 bf a6 bf 7c bd d5 35 fe be 90 0b f8 bd
       -0.94349575 -0.061706208 -0.49650446 -0.1211158
000110 b6 18 cd be a3 d9 3e be 1b 99 b1 bd a4 1f b1 bf
       -0.40057915 -0.1863771 -0.08671781 -1.3837781
000120 05 b8 4a bd 0a be 93 be cf db 73 be ee ba aa be
       -0.0494919 -0.28855926 -0.23814319 -0.3334574
000130 c3 d6 d5 bc e8 3d d4 bc 4a df 2f bf 88 6f 11 bc
       -0.026103383 -0.025908425 -0.6870009 -0.008876689
000140 a3 f2 c8 be 34 b2 e5 be 7c 26 6c bf d1 13 b6 bd
       -0.39247617 -0.4486252 -0.9224622 -0.088904984
000150 df 13 c9 bd 14 3f 5b bd d9 1a 9d be 16 2d 71 be
       -0.09818243 -0.053526953 -0.30684546 -0.23552355
000160 50 14 d0 be 09 69 58 3e 46 21 47 be 9d 66 a2 be
       -0.40640497 0.21133818 -0.19446287 -0.31718913
000170 b9 a3 bb bd db 37 01 be 70 d8 7b bd 05 ca 79 bd
       -0.09162087 -0.12618963 -0.061485708 -0.060983676
000180 a6 24 db 3f c9 29 f9 bd 92 5b e9 be 1f f9 94 bd
       1.7120559 -0.12166173 -0.45577675 -0.072740786
000190 9a 8d 87 ba dd 90 79 bc 45 f5 fe bd 6f 37 32 bf
       -0.0010341883 -0.015232292 -0.12449125 -0.69615835
0001a0 14 51 9f bd cc cc 88 be 2f 08 49 be f0 34 88 3c
       -0.07779136 -0.26718748 -0.19632028 0.016626805
0001b0 36 90 06 be 07 75 9b be 00 b9 f8 be 44 49 98 be
       -0.1314095 -0.30362722 -0.48578644 -0.29743397
0001c0 33 56 53 bd ed fd 94 be 45 6e bb be 25 70 59 be
       -0.051595878 -0.2909998 -0.36607566 -0.21234186
0001d0 1e 9c ab bc cd 83 68 be 6c b5 90 bd 24 46 1b bc
       -0.020948466 -0.22706528 -0.070658535 -0.009477172
0001e0 aa 06 95 3d db dd 80 bc 94 07 ce bd b0 7c 4f 3e
       0.07276662 -0.015730789 -0.10060039 0.20262408
0001f0 e3 7f 4f be ad be 3c be 05 a2 e9 bd c0 35 d9 bd
       -0.20263629 -0.18432112 -0.11407856 -0.10605955
000200 ed 79 89 39 8a f1 76 bd e9 77 8c bc 0d e6 73 be
       0.00026221518 -0.060288943 -0.017147021 -0.23818226
000210 d8 38 08 be 45 9f b0 bd b1 fe f4 bd ac 1a 58 be
       -0.13302934 -0.08624128 -0.11962641 -0.21103925
000220 78 7c 11 be c6 cc 9f 3d f0 17 72 be 39 6b f9 bd
       -0.14207637 0.07802729 -0.23641944 -0.12178654
000230 d7 bd 46 be 88 bb 08 bf f4 d2 e9 be 10 a1 91 be
       -0.19408356 -0.5341115 -0.45668757 -0.28443193
000240 f1 08 27 bf 3b dd 04 bf 25 23 91 be ed ad 8d 3d
       -0.6524802 -0.5190007 -0.28347126 0.06917939
000250 14 12 06 be 15 dc 8f bd 88 88 a0 be 18 33 a7 bc
       -0.13092834 -0.07024399 -0.31354165 -0.020410106
000260 ce d7 af bd f6 87 97 bc f7 a8 ee be 76 b0 3e bf
       -0.08586083 -0.018497448 -0.46613285 -0.7448801
000270 5f 62 a9 be e1 f6 24 bf d6 fc e6 bd ba a5 8d bd
       -0.33082864 -0.6443921 -0.112786934 -0.069163755
000280 7d d8 61 bd ea 54 11 bc 0a 54 08 be fc 3e d7 bd
       -0.0551381 -0.008870343 -0.13313308 -0.1051006
000290 10 8f 35 bf 6f f8 41 bd 6f 14 58 bf 22 02 93 be
       -0.7092142 -0.047356065 -0.8440618 -0.28712565
0002a0 4d 51 f4 bd a3 52 00 bf 47 b7 59 3c 17 07 fa bc
       -0.119295694 -0.50126094 0.013288326 -0.030520959
0002b0 b4 da 1c 3e db 2f ef be 9d bc c4 bd a0 72 9a bd
       0.15317804 -0.46716198 -0.09606288 -0.07541394
0002c0 01 c3 02 be da 90 9f be 86 1c 13 be d9 26 55 bd
       -0.127697 -0.311652 -0.1436635 -0.052039
0002d0 90 47 08 bf 57 94 be bd ac 22 9d bd 0b 79 50 be
       -0.53234196 -0.09305637 -0.07672629 -0.20358674
0002e0 7c 05 f3 be 49 41 08 be a5 45 f6 be 62 64 4b bf
       -0.47465122 -0.13306154 -0.4810001 -0.79450047
0002f0 e2 c0 e2 bd 89 1d fb 3d cb fd 8f bd 84 f3 1d be
       -0.11071946 0.12261493 -0.07030829 -0.15424925
000300 ef 53 a2 be cc 1d a9 be 12 43 82 be 56 71 84 bd
       -0.3170466 -0.33030546 -0.25441796 -0.064669296
000310 eb d9 39 bf 4c 11 1c be 9b 9e 3c be e0 1a d5 be
       -0.7259814 -0.15240973 -0.18419878 -0.41622066

weight f4 [1, 200]
000000 49 4a 8d bf df 6d d6 3c 6a 8a ad be f2 b3 0a bd
       -1.1038295 0.026175437 -0.33894664 -0.033863015
000010 27 57 c2 bd a0 98 21 3d f7 2f a0 3d 90 a7 96 bb
       -0.09489279 0.039452195 0.078216486 -0.0045976117
000020 79 b0 2b 3c fc fe 25 3c 20 f8 20 bf 04 2f d1 bb
       0.010479086 0.010131594 -0.6287861 -0.0063837785
000030 68 50 84 bb b4 f9 b6 be d7 25 86 3b cc 4b 0c bc
       -0.0040379055 -0.35737383 0.0040938663 -0.008562993
000040 09 99 63 be 41 82 07 bf f6 93 46 3e e2 42 ca 3e
       -0.22226347 -0.52933127 0.1939238 0.39504153
000050 a1 a6 8e bf f2 40 9b 3c 44 68 c6 bd 72 c0 7b 3f
       -1.1144601 0.018951867 -0.09687856 0.98340523
000060 a0 ed 0c bf 98 d5 bc 3d 37 22 fd be 61 cf d8 3b
       -0.55050087 0.09220427 -0.49440166 0.0066165184
000070 5e 62 43 3b 15 90 65 3a 62 2c aa be 12 e0 b0 3d
       0.002981327 0.00087571266 -0.33236986 0.08636488
000080 56 23 8e bf d1 a6 9c 3e a0 7c 48 3c 6f 1e 1c 3d
       -1.1104534 0.3059602 0.012236744 0.03811496
000090 b7 b9 6c be 85 49 4d bb 6b 0a d7 bc a7 22 e4 bc
       -0.2311772 -0.0031324339 -0.026250085 -0.027848555
0000a0 2d 18 a1 3b e1 5f e2 bc 30 84 4d 3b 73 16 ff bb
       0.004916212 -0.02763361 0.0031359307 -0.0077846586
0000b0 3a 91 b1 3b 0a 6e c9 3b 03 29 f5 3c 53 2d 72 bd
       0.0054189237 0.006147151 0.029926782 -0.059125256
0000c0 a4 0a 1a bf da 4b 2c 3b 33 21 d4 3d 14 77 56 bc
       -0.60172486 0.0026290328 0.10357895 -0.013089914
0000d0 b5 cc 0f 38 b2 b1 b1 3c ef bc bb 3d 16 f0 13 3e
       3.4284505e-05 0.021691177 0.091668956 0.14447054
0000e0 60 a1 b5 be 50 6e 98 3d ad 25 e2 3d 8e ea 0a bf
       -0.35474682 0.074429154 0.11042342 -0.5426415
0000f0 3a 50 7d bb 45 e7 59 3c 8b ac bb bf 3a a4 5f bc
       -0.0038652555 0.013299768 -1.4662031 -0.0136499945
000100 b4 ee 21 bf 7d 12 a3 3c 25 0c 22 bf 81 bf b2 bc
       -0.6325486 0.019906277 -0.6329978 -0.021819832
000110 2a 2a 90 be 18 dd 00 bf fc e3 c1 3b f2 95 b5 be
       -0.2815717 -0.5033736 0.0059170704 -0.35465962
000120 d3 3a 42 bc 6e 78 1f be 62 1a 2e 3f 1f 9a 91 be
       -0.011854845 -0.15573284 0.68009007 -0.28437898
000130 fe 37 7b 3d b1 5a 8b bf e2 3f 1d 3e f6 d0 12 bc
       0.061332695 -1.0887052 0.153564 -0.008960953
000140 04 19 9a be a3 a0 18 3f 0c e3 12 bf af fe 05 bd
       -0.3009721 0.5962011 -0.57377696 -0.03271359
000150 92 0e c9 3c b6 6e b1 3c 5d 58 5d bf a1 f0 db be
       0.02454308 0.021659236 -0.86462957 -0.42957023
000160 5c 39 98 3e a2 22 c5 be 9c 88 f3 3d a4 0c 64 bf
       0.29731262 -0.38502985 0.118912905 -0.8908179
000170 99 be f5 3c a2 d9 b1 bc 02 86 85 3c 11 2f a5 3c
       0.02999811 -0.02171022 0.016299251 0.020164045
000180 73 ed 8c 3d 7d de df 3e 69 df 5e be 37 be a0 be
       0.06881227 0.43724433 -0.21764912 -0.31395122
000190 8a 79 90 bb 29 26 25 bb 75 4c 27 3c 01 34 16 bf
       -0.00440902 -0.0025199747 0.0102111 -0.586731
0001a0 cb b4 75 bb 7c 3b d5 3d fa 07 87 be df 0f cb bf
       -0.0037491794 0.10411736 -0.26373273 -1.5864218
0001b0 c7 ca eb bc d1 1e 44 3e 27 8e 46 be 6c 1c 0f bf
       -0.028783215 0.1915238 -0.19390164 -0.55902743
0001c0 c6 90 73 bd d0 63 3b 3f a5 5e 25 bf f5 47 0d bf
       -0.05946424 0.73199177 -0.6459754 -0.5518792
0001d0 4a bd 6b 3d d6 03 0f 3e ac 4f cf 3b 24 b3 54 3f
       0.057553567 0.13966307 0.0063266363 0.83085847
0001e0 a9 51 da be b9 a8 28 3c 5e 32 bf 3c 1b 06 14 3f
       -0.42640427 0.010294133 0.023339447 0.57821816
0001f0 d2 b2 8c be 04 89 8d bd 0e 47 9f 3b 21 a2 89 bc
       -0.2748018 -0.06910899 0.0048607653 -0.016800942
000200 61 c3 07 3e 21 8f 6d 3e 86 6f 6e bc c5 1c 9d be
       0.13258125 0.2319913 -0.014552956 -0.30686012
000210 a5 96 fb 3c 46 6a 9d bc ff 5e 7e bc e4 f3 c4 3d
       0.030711481 -0.019215714 -0.0155255785 0.09616831
000220 c9 2e ab bc e6 f2 83 be 69 b9 07 bf 1b c4 bf 3c
       -0.020896332 -0.25771254 -0.5301729 0.02340894
000230 e1 eb cb 3e 54 82 74 3e 15 fe 78 be 14 e7 9a 3d
       0.398284 0.23877841 -0.24315675 0.07563606
000240 b2 72 2f bf 76 08 21 bf cb fa 78 bf 77 21 cd 3e
       -0.68534386 -0.62903535 -0.9725768 0.40064594
000250 bf 90 55 3e df 09 fd bb a2 6e 14 bf cb 6b be bb
       0.20855998 -0.007722124 -0.5798131 -0.0058111898
000260 3c f7 3b bc 65 85 2e 3f 10 21 d3 be ad d7 e7 be
       -0.0114725195 0.68172294 -0.41236162 -0.45281735
000270 0e b2 13 3e ae 6a a6 bf 65 f9 23 3c 78 1f 8e bc
       0.14423391 -1.3001306 0.010008191 -0.01734899
000280 2f 22 37 3c dd ad b0 bd 0f 79 c0 3e d1 2e d5 3c
       0.011177584 -0.08626912 0.3759236 0.0260233
000290 a5 6f 1b bf 36 cd b7 bb 45 91 a8 bf e2 63 dc bc
       -0.6071723 -0.00560918 -1.3169333 -0.026903097
0002a0 54 3f c4 3c e7 28 0b bf 40 34 e2 bf bf ae 34 3f
       0.023955978 -0.5435929 -1.7672195 0.7057914
0002b0 fb bf 4e 3d 55 59 fe 3d 21 26 2f bc c1 3a 55 3f
       0.050476056 0.124193825 -0.010690243 0.83292776
0002c0 be af 15 3f 32 36 34 3e 9f 4d fa bb 22 a6 f3 3c
       0.58471286 0.17598799 -0.0076386477 0.029742304
0002d0 9f ae 17 bf 4d a2 54 3e d8 ce 7b 3e 18 29 ff be
       -0.59250826 0.20765038 0.24590623 -0.4983604
0002e0 a1 de 80 be 76 33 bc 3c d0 3c 5a 3e 13 59 38 be
       -0.25169852 0.022973757 0.2131226 -0.18002729
0002f0 ae 4b 4d bb 2e 8a 0d 3e 5f 57 c2 be 59 6f b7 bc
       -0.0031325626 0.13822243 -0.37957284 -0.022391962
000300 11 83 90 3e f2 c7 19 3f 93 17 cf 3d ae 57 d4 3e
       0.28224996 0.6007072 0.10111918 0.41473144
000310 60 22 ce be f2 50 d9 3e b5 46 af 3d c2 bc eb be
       -0.402606 0.4244457 0.08558408 -0.46042448

weight f4 [200, 15]
000000 45 a4 85 bf 92 f5 10 bd b6 a9 61 3f a4 88 90 bf
       -1.0440756 -0.035390444 0.88149583 -1.12917
000010 05 a8 87 bd ae 35 31 3e 5a bd 02 bf da 11 49 bd
       -0.06623844 0.17305633 -0.5107018 -0.04908929
000020 cc 4a ae bd e8 98 fc 3e 83 e6 b6 3d 29 ae 19 bf
       -0.0851036 0.49335408 0.08930685 -0.6003137
000030 43 b8 81 3e cb e5 4d bf da 0e ed be 63 31 5c bd
       0.25335893 -0.8042876 -0.46300393 -0.053758036
000040 69 5d a1 bb 0f c4 31 3f 0f 5c 78 bf 40 59 28 3d
       -0.0049244654 0.69439787 -0.9701547 0.04110074
000050 64 9c 36 bd 1e 9b b7 3c bd 63 59 be 94 aa 0c bf
       -0.04458274 0.022412833 -0.21229453 -0.5494778
000060 43 f4 91 bf fe d4 96 3e 7f f7 05 be 52 60 ad 3f
       -1.1402668 0.29459375 -0.13082694 1.354502
000070 e4 c7 b7 3f 49 08 03 bc c2 6e 7f 3e bc ac e4 3e
       1.4357877 -0.007997581 0.24944595 0.44663036
000080 d0 ff 04 3c eb 94 fd 3e df ef 90 bf 8e e8 1d bf
       0.008117631 0.49527678 -1.1323203 -0.61682975
000090 40 25 d6 bf 6c 82 23 be 5f b7 37 be 8c 76 4c 3d
       -1.6730118 -0.15967721 -0.17941044 0.049917743
0000a0 cd 70 a8 be dd 2a 30 3f 2d b4 6a 3f 8e d7 97 3f
       -0.3289856 0.68815404 0.91681176 1.1862657
0000b0 42 0d 8c 3f e4 ab 4b bf da 0d b9 be 7d 77 ea 3e
       1.0941546 -0.7955916 -0.3614338 0.45794287
0000c0 f1 3b ff 3d 84 30 85 bd 60 2f 64 3e 68 d0 c5 3f
       0.12462605 -0.06503394 0.22283697 1.5454226
0000d0 44 c7 73 3f 40 e0 8c 3e ed b1 be 3e 06 ec 54 bf
       0.9522593 0.2751484 0.37245122 -0.83172643
0000e0 5d 2c fe 3e fd e4 eb 3e b9 f6 48 3d ac 8b fd 3d
       0.49643221 0.46073142 0.049063418 0.12380156
0000f0 fd 0c 7a be b6 e2 2c be 9d 43 df 3e a9 89 20 3f
       -0.24419017 -0.16883358 0.43606272 0.6271005
000100 75 c8 3d 3e f3 99 21 bd e0 e1 89 bd f1 de a5 3f
       0.185335 -0.039453458 -0.06732535 1.2958661
000110 7b 09 04 3f d6 47 90 3e 8b 34 5f bf c9 54 53 be
       0.51576966 0.28179806 -0.8718955 -0.20637812
000120 7b fc 00 bf 94 3f 69 be 7c 16 9f be c0 b9 35 bd
       -0.50385255 -0.2277816 -0.31071842 -0.044366598
000130 89 bb 39 3c d2 51 b4 bb b5 6e 00 3e 36 dc 2b be
       0.011336216 -0.005502918 0.12542231 -0.16783223
000140 3d ff 4a 3d 21 5c 3a 3d f3 06 8e be b4 a9 a5 bd
       0.04955982 0.045498017 -0.27739677 -0.08089009
000150 96 99 77 be 8a c6 82 be 6a 6a aa bd bd b7 63 be
       -0.24179682 -0.25542098 -0.08321078 -0.2223806
000160 b4 7c a5 bd 6d 6b f1 3d 08 9c 82 3f bf c3 6a 3f
       -0.08080426 0.11788068 1.0203867 0.91704935
000170 0a c7 52 3e 8b 5f 0a bf 44 fb 8c be 14 13 7f 3e
       0.2058374 -0.54052037 -0.2753545 0.24909621
000180 3b a6 84 3f a0 6f 01 c0 77 cf a1 be 89 6f 75 3e
       1.036323 -2.022438 -0.31603596 0.23968329
000190 31 ea 7a bd 3a 5b 70 bf aa ef 96 bf a8 cc d8 bf
       -0.0612585 -0.938892 -1.179189 -1.6937456
0001a0 ab c0 92 be d1 60 56 be 26 da 42 3d 78 d6 b8 3e
       -0.2866262 -0.2093537 0.047571324 0.36101127
0001b0 f6 91 d3 3e 9f 0e 24 3f 03 bd 04 bf 95 28 96 3d
       0.41322297 0.6408481 -0.5185091 0.07331959
0001c0 01 1a 47 bf 4b e2 c6 3e dd fc f5 be 8a 90 ea bd
       -0.77774054 0.38844523 -0.48044482 -0.1145335
0001d0 69 c0 b7 be c1 50 a8 be 23 f3 5a bf f1 98 0d 3e
       -0.35888985 -0.3287411 -0.8552725 0.13827874
0001e0 e3 d8 af be e1 8d 2b 3f 3d 5d 03 bf 9c 21 9d bf
       -0.3434516 0.67013365 -0.51314145 -1.2275882
0001f0 80 13 03 bf 9a 1c 30 bf dc 97 84 3e 5b a8 fd bb
       -0.5120163 -0.6879364 0.2589711 -0.007741017
000200 e5 ed 4c bf 17 eb 04 bf 40 a2 c7 bc 3f 08 95 3d
       -0.800505 -0.5192122 -0.024369359 0.072769634
000210 31 c8 7c 3f a5 29 f8 3f d3 c1 2d be bf fc ae bd
       0.9874297 1.9387709 -0.1696847 -0.08544301
000220 39 91 28 be 1d ac fc 3e 94 48 7d 3f de 19 44 3e
       -0.16461648 0.49350062 0.9893887 0.19150493
000230 59 67 25 3f 96 c3 3f bf 40 fb 16 3f 57 9a e4 bf
       0.6461082 -0.74907815 0.5897713 -1.7859601
000240 e2 f5 ab 3e 6c ca 30 be 5a 20 df 3e 25 69 c1 3e
       0.3358603 -0.17264718 0.4357937 0.3777553
000250 d3 df 16 bf 50 67 94 3f f6 5b 0a be b8 d0 d2 bd
       -0.5893528 1.1594028 -0.13511643 -0.10293716
000260 02 97 0e c0 6d 3c 63 bd a8 65 53 3e 6c 2f 98 3e
       -2.2279668 -0.05547755 0.20644248 0.2972368
000270 c6 0f c8 3e 41 43 b0 bd 73 49 9f be 78 f7 d2 3e
       0.39074534 -0.08606578 -0.31110725 0.4120443
000280 10 44 97 3c 85 f6 0a 3e fb 15 b2 3d 0a 57 a6 be
       0.018465072 0.13570602 0.08695599 -0.3248828
000290 b7 08 80 bd 2c 80 c6 be 28 6c b2 be b4 4e 8a bf
       -0.06251662 -0.38769662 -0.34848142 -1.0805268
0002a0 cd 34 cb be 0d 07 a9 3d 57 e1 b3 3a 89 25 8c be
       -0.3968872 0.08253298 0.0013723773 -0.27372387
0002b0 e7 ef 02 be e9 82 fe 3e 17 99 38 3f 95 4a 42 c0
       -0.12786828 0.49709252 0.72108597 -3.0358021
0002c0 d1 02 4f 3e 3f a6 24 3e ac f9 1a 3e 03 81 14 bf
       0.20215918 0.16079043 0.15134305 -0.58009356
0002d0 20 70 32 3f e7 7e be be 75 91 28 bf c7 13 5c 3f
       0.6970234 -0.37206194 -0.6584695 0.8596768
0002e0 3b da 4d bf 2b 0a 07 3e 50 f9 28 3e 9f 5e b1 3d
       -0.8041112 0.13187473 0.16501355 0.08660626
0002f0 33 fd 99 3d 75 f0 23 3e 69 f0 88 bf 28 e4 40 bf
       0.07518997 0.16009696 -1.0698367 -0.7534814
000300 64 28 ca 3d 4a 7b fd be 8b 71 51 3f d9 c3 20 bd
       0.09870985 -0.49508125 0.8181388 -0.039249275
000310 02 7d 87 3d bd d8 29 3e 37 5f 01 3e 48 d3 4c 3e
       0.0661564 0.16586585 0.12633978 0.20002472
000320 8b 29 a5 3e 42 44 f4 3d ed 74 32 c0 19 11 1b 3f
       0.32258257 0.11927082 -2.7883866 0.60572964
000330 ed c7 69 bd 09 01 8d 3e 67 fe db bf 6d 7e d9 bd
       -0.05707543 0.27539852 -1.7187012 -0.10619817
000340 3d 57 28 bf 48 5a 4b 3e f8 a3 2a be 28 39 b4 3d
       -0.65758115 0.19858658 -0.16664112 0.08799964
000350 6b 25 8e bf 6a b7 68 3e 2f 65 80 3e 5f e2 7b bd
       -1.1105169 0.22726217 0.25077197 -0.06149518
000360 2b 75 cc bc 6d 24 4d 3e 48 e4 57 bf ad c4 4c 3c
       -0.024958214 0.20033427 -0.84332705 0.012498063
000370 71 08 ca 3e fd fd ac ba fb 6b e9 3c 68 db c4 bd
       0.39459565 -0.0013198253 0.028493872 -0.09612161
000380 ba 62 79 3e a0 1c e2 3d 38 ad 7b bf 88 e8 8f be
       0.24354067 0.11040616 -0.98311186 -0.28107095
000390 62 08 87 bf 39 09 23 be bf 1f 07 bf 58 bb 00 bf
       -1.0549433 -0.15921487 -0.52782816 -0.50285864
0003a0 c4 2a 04 c0 b9 f6 2c 3f 14 89 b2 3e c2 91 c4 be
       -2.0651102 0.6756397 0.34870207 -0.38392454
0003b0 9a c8 08 bf cb 57 9b bf 7a 3b a8 bf fc 6c bb 3e
       -0.53431094 -1.2136167 -1.3143151 0.36606586
0003c0 88 c5 8a 3f 2c ac 25 3f 0e fa 14 bf 80 d4 52 3e
       1.0841532 0.6471584 -0.58194053 0.20588875
0003d0 c6 5c 48 bf 77 f3 d8 bd 8e a8 b3 be e9 c2 6f bf
       -0.7826656 -0.10593312 -0.35089535 -0.93656784
0003e0 e0 c8 97 bf 52 16 ab be 91 1a e7 3e dd c2 9b 3e
       -1.1858177 -0.33415467 0.45137456 0.30422106
0003f0 7f fc 28 3f a4 76 fe 3e 14 ff a2 3c 80 7d 16 bf
       0.6601028 0.4969989 0.019897021 -0.5878525

bias f4 [200]
000000 ed fa 98 3e e4 3c df 3e fc f9 c2 bd 67 bb 91 bf
       0.2987894 0.43601143 -0.09520337 -1.1385316
000010 c3 58 45 bf e0 ba be be f1 0e 14 bf 81 e8 fe 3e
       -0.77088565 -0.3725195 -0.578353 0.4978676
000020 71 7c e0 be f8 b2 6f be 02 4d ff bd 87 71 5f bc
       -0.4384494 -0.23408115 -0.1246586 -0.013637907
000030 26 bd 76 bb ea ea 18 3f 8e 73 56 3f 77 f4 e8 be
       -0.0037649362 0.5973345 0.8377007 -0.45499012
000040 50 86 0b bf 04 71 9a be 40 33 35 3f ef 36 b6 bd
       -0.5450182 -0.3016435 0.70781326 -0.088971965
000050 57 e7 66 bf c6 79 86 be 1c 08 4f 3e d2 cf f8 bd
       -0.90196747 -0.2626478 0.20217937 -0.121490136
000060 4b 83 c8 3e a0 4b ea be 8d 0b 72 bf 8c 8c b1 be
       0.3916267 -0.45760822 -0.94548875 -0.3467754
000070 5d 44 47 be fc 13 22 3e 3c 12 9e 3e e2 96 bf 3d
       -0.19459672 0.15827936 0.30873287 0.093549505
000080 e5 5c 3f bf 8c 34 b3 3e 7a e5 6c be c1 84 b2 be
       -0.7475112 0.35001028 -0.23134413 -0.34866908
000090 83 3a ac be 06 ca 19 bf 05 af e6 3e 2a 0f ba 3e
       -0.3363839 -0.6007389 0.45055404 0.36339694
0000a0 16 8b fd 3e b7 e7 ad bc dd 4c 35 be 8a b2 0a 3f
       0.49520177 -0.021228654 -0.17705102 0.5417868
0000b0 a0 8d 32 3e 0c 9a d5 3e fa c0 b4 bd 89 3e 9b bf
       0.17436838 0.4171909 -0.0882587 -1.2128459
0000c0 8c d3 9f bf b4 6f 52 bf 54 90 eb 3e 75 66 56 bf
       -1.2486434 -0.82201695 0.4600855 -0.8375009
0000d0 bd 8d ba 3e 92 b0 10 3d bc 5f cb 3d 4d 6f 0e 3f
       0.36436263 0.03532464 0.09930369 0.5563858
0000e0 04 ec 0d be 58 c9 97 3e cc 04 ad 3e 6f e1 d3 be
       -0.13859564 0.296458 0.33792722 -0.4138293
0000f0 d4 ee 21 3e 0f e1 54 3e 08 17 ff be 91 e4 ba be
       0.15813762 0.20788978 -0.4982226 -0.36502507
000100 66 02 8c 3e 2f 93 48 bf eb 26 90 3e 41 ed 84 be
       0.2734558 -0.78349584 0.28154692 -0.2596226
000110 a6 36 b4 be ef a0 06 3d 64 03 cc 3d d6 44 ff be
       -0.35197943 0.032868322 0.09961584 -0.49857205
000120 ac fa a8 3e f2 4f 24 bf 7c cd dc 3e 9c 79 3e 3e
       0.33003747 -0.64184487 0.43125522 0.18601078
000130 ca 08 0b bf 3b 7d 18 bf 3c e4 22 3e 28 3f 2b be
       -0.54310286 -0.59566087 0.15907377 -0.16723311
000140 a6 c6 01 be 6c 3f 3a bf 02 c3 ed be d3 7a 86 be
       -0.12673435 -0.72753024 -0.46437842 -0.26265582
000150 9c 6e b6 be f3 20 4f 3e 21 b4 b7 3e 4b 2d 89 3e
       -0.35631263 0.20227413 0.35879615 0.26792368
000160 6e a7 df be d8 83 b4 be 97 b5 31 bf 66 b8 b2 be
       -0.43682426 -0.3525684 -0.6941771 -0.3490631
000170 53 ca 93 bd 72 61 1d bf 0c 5a e2 be 0a d0 95 be
       -0.07216325 -0.61476815 -0.44209325 -0.29260284
000180 a9 3d 57 bf 52 d2 6c bf db 28 1b 3f 10 45 04 bf
       -0.8407846 -0.92508423 0.60609215 -0.5166788
000190 9a ef fb be fa 85 e9 be cc b3 d7 bd ab 63 7b be
       -0.4920624 -0.45610029 -0.105323404 -0.24549739
0001a0 24 c9 2a 3e cb bc 9f 3e dd 23 57 3e e0 08 c6 be
       0.16678292 0.31198725 0.21009775 -0.38678646
0001b0 1b ee cf 3d 0a 80 12 3f 7f 96 62 be ca 9c 43 bf
       0.10152837 0.5722662 -0.22127722 -0.76411116
0001c0 ed 91 39 be 48 33 5a 3e 90 8e 4d 3e b6 6f 15 bf
       -0.18122073 0.21308625 0.20073915 -0.5837358
0001d0 89 d6 87 be 32 22 86 be 69 22 11 3e 06 4b a0 bd
       -0.26530865 -0.26197964 0.14173283 -0.078268096
0001e0 22 80 83 bf 59 9c 82 bd 22 f3 f6 be 40 35 d5 3d
       -1.0273478 -0.06377477 -0.4823237 0.10410547
0001f0 42 ed 0b 3f 75 4c 01 3e 39 1c 33 3e 6b ad 3a bf
       0.546589 0.12626822 0.17491235 -0.72920865
000200 d5 b1 32 be ed 1d d6 be 99 ae 62 3e 9e 45 77 be
       -0.1745065 -0.41819707 0.22136916 -0.2414765
000210 18 d0 ab bd ff 3b c1 3e 45 57 0c 3e 62 51 e1 be
       -0.083893 0.37741086 0.13705166 -0.44007403
000220 cc 54 26 be 80 b8 d5 be 3c 0c 87 3e de cc 26 bf
       -0.16243285 -0.41742325 0.26376522 -0.6515635
000230 ea 91 52 3f 86 5e 09 be 8a c2 f5 bc 5e ab 56 3e
       0.822539 -0.13414964 -0.02999999 0.20963809
000240 66 18 a6 3e d3 64 f6 be fe 92 31 3d 06 6b 92 3e
       0.3244049 -0.48123798 0.043353073 0.28597277
000250 9f e9 da 3c 28 a7 4a be 99 22 bb be b2 7d 07 be
       0.026722727 -0.19790328 -0.36549833 -0.13231543
000260 b1 72 c3 be 04 fa ab be 53 d6 96 bd 63 98 e5 bd
       -0.3817344 -0.33589184 -0.07365098 -0.11210706
000270 6c 01 3b 3e 93 80 80 be 97 cf d5 bd b0 0d 5c be
       0.18262261 -0.25098094 -0.10439985 -0.21489596
000280 19 81 ea be b0 45 ad 3e 01 eb 34 3e 08 cf 8a 3d
       -0.4580162 0.3384223 0.17667772 0.06777769
000290 80 21 84 be 2f 19 7f 3e dc 8f 8f bf 4d 87 30 3e
       -0.25806808 0.2491195 -1.1215777 0.17239113
0002a0 f5 d4 d7 3c f5 19 9a 3e 56 fe 01 3f 5e da 96 be
       0.026346663 0.3009793 0.5077871 -0.29463476
0002b0 7c b1 22 3e a1 de e6 bb 41 fc ca 3d 17 91 10 3d
       0.15888017 -0.0070455824 0.09911395 0.03529462
0002c0 d2 cf 0d bf 2d ac fc 3d 34 94 c1 bd 6d cd ef be
       -0.55395234 0.123375274 -0.09452096 -0.46836415
0002d0 a6 b5 d7 be db 20 64 bf de 19 01 be 66 34 95 be
       -0.42130774 -0.89112633 -0.12607524 -0.2914154
0002e0 53 bf 0e 3f cd b0 12 bf b0 b2 9f 3e e9 87 f0 3e
       0.5576069 -0.57301027 0.31191015 0.4697869
0002f0 83 f3 3a bf 66 e5 a9 3e 5d 29 8e be ba 5e 00 3f
       -0.7302782 0.3318283 -0.27765933 0.5014454
000300 ec a9 0e 3f e6 30 ea 3d 34 af 0e bf 84 11 8a be
       0.5572803 0.11435108 -0.5573609 -0.26966488
000310 99 51 a0 be 0a c5 fa be 49 35 40 be eb af a5 be
       -0.31312254 -0.48978454 -0.18770327 -0.32360777

weight f4 [200, 200]
000000 72 b9 b8 bd 49 cb 83 bb f1 b5 ca 3c 6a 6d 80 bd
       -0.09019746 -0.004022036 0.02474496 -0.06270869
000010 71 ee 23 bd 35 d4 5e bd a0 3f 9f bd 37 59 e0 bd
       -0.040022317 -0.054401595 -0.077758074 -0.109545164
000020 97 4b 1d bd d8 94 6a bd 1f 71 ca bd a4 a0 50 bd
       -0.038402166 -0.057270855 -0.098848574 -0.05093445
000030 0e 28 98 3c a3 a9 95 bd 07 78 9e bd a8 9b 30 bd
       0.018573787 -0.07307746 -0.07737737 -0.043117195
000040 eb 3a 9d bd 22 5b 68 bc f3 27 35 bd c6 e6 b6 3c
       -0.07677253 -0.014181884 -0.04422755 0.022326838
000050 4a aa c4 bd 44 b0 79 bb 57 4a 1f 3c 67 c1 6b bb
       -0.096027926 -0.0038099447 0.009722314 -0.003597343
000060 23 48 8d bc fc f8 27 3c bd a4 28 bd 45 9b 7e bd
       -0.017246312 0.010252234 -0.04117273 -0.062159795
000070 c9 6e 45 bd 32 64 98 bd e8 d2 05 be c3 32 90 bc
       -0.048201356 -0.07440986 -0.13068736 -0.01760233
000080 14 57 ef bc 2e 43 6d bd 90 ca 4d 3c 78 3f 94 3c
       -0.029216327 -0.057925396 0.012560502 0.01809667
000090 d9 ee b6 bd 5a f3 fb 3c 55 6a 21 bd 72 1e 9d 3c
       -0.08932275 0.030755688 -0.039408047 0.019179557
0000a0 6c 19 8e bd 12 5d c4 b7 51 16 8a 3c 36 39 5d 3d
       -0.069384426 -2.340836e-05 0.016856344 0.05400964
0000b0 98 2e 89 bd 08 ad df bc 60 27 34 bc a5 c0 56 3c
       -0.0669834 -0.027304187 -0.010995716 0.0131074535
0000c0 bb 27 e5 bc 5c ba c7 3c cc 94 b1 bd 96 8a 98 bb
       -0.027973047 0.024380855 -0.08670959 -0.0046551926
0000d0 a1 e5 69 bd c7 2e 88 bd 1c b2 83 bd 9b bb a5 bd
       -0.057103757 -0.06649547 -0.06430456 -0.080924235
0000e0 96 02 26 bb a6 eb 45 bd e3 30 cd bd a9 41 ce bd
       -0.0025331131 -0.048320435 -0.1001909 -0.100711174
0000f0 1e 18 47 bd af a3 6e bc 10 f5 38 bd 4d 20 1c bd
       -0.048606984 -0.014565392 -0.045155585 -0.038116742
000100 73 92 3e 3d d6 82 ae 3c 3d 5a ac bd 6e ab 42 bd
       0.046526384 0.021302622 -0.08415649 -0.04752677
000110 fd dd ad bd e5 f8 bd 3c f5 85 d4 3c 0f b0 83 bc
       -0.084896065 0.023189971 0.025942782 -0.016075162
000120 c1 b2 1e 3c 9a 28 e4 bd 1f d0 9c 3c 6e 45 09 3d
       0.009686173 -0.11140557 0.019142209 0.03351348
000130 26 a6 37 3c 45 44 cc bc 89 f7 7d 39 96 f8 8f bd
       0.0112090465 -0.024934897 0.00024220174 -0.07029836
000140 ce 4b 18 3d 15 8e 43 bd 75 78 d5 bc 52 37 b4 bd
       0.037181668 -0.04774292 -0.026058415 -0.08799614
000150 3d bb 52 3d e8 f5 95 bd 9c 23 5b 3d 7c 84 1a 3d
       0.051448096 -0.073222935 0.053500757 0.037724003
000160 49 09 2a bd ab 83 27 bd f3 cc d9 bd 83 48 85 bd
       -0.04151276 -0.040897053 -0.10634794 -0.06507971
000170 87 5b ad 3c d2 e7 df bc d3 9b f1 bc bb 16 36 bd
       0.021161808 -0.02733222 -0.029493248 -0.04445527
000180 3b f7 a7 bd 78 d9 86 bd 3a 4a b0 3c e2 f1 4c bd
       -0.08201452 -0.065844476 0.021519769 -0.050035365
000190 54 d1 1c 3c 01 36 48 bd 93 95 a6 bd 8f 3e 7d bc
       0.009571392 -0.048879627 -0.08133998 -0.01545681
0001a0 13 17 87 3b fd 1d 70 3c 70 b3 f2 bc f8 8b 80 bc
       0.0041226237 0.014655587 -0.029626578 -0.015691742
0001b0 2a 48 cd bb 37 94 f3 bb 7e ed b9 3c 49 ad 86 3d
       -0.006264706 -0.00743344 0.022696253 0.0657602
0001c0 b7 e8 b9 bd e8 6a a2 3d 13 61 2c bd db 76 5e bd
       -0.0907759 0.07930547 -0.042084765 -0.05431257
0001d0 14 54 52 3c 44 8b 95 bd 15 5e 26 3c d2 85 c9 bd
       0.012837429 -0.073019534 0.010154267 -0.09839977
0001e0 5e 38 3b bd 85 49 59 bd 55 98 cf bc e0 27 d1 bd
       -0.045708053 -0.05304863 -0.025341192 -0.10212684
0001f0 a6 7b e0 3c b0 84 89 3d 0e e9 6b bd 89 63 86 bd
       0.02740271 0.06714761 -0.057595305 -0.065619536
000200 7d db e1 bc fc b5 85 3c 30 a0 22 3c 24 1d 15 3d
       -0.02757048 0.016322128 0.009925887 0.036404744
000210 b5 a0 2e bc 92 06 be 3c c3 ce 8b bd d0 af 8b bc
       -0.010658433 0.023196492 -0.06826546 -0.017051607
000220 b0 39 75 bd 6b fc a4 bd 7d 5f 18 3c 78 6b 85 3c
       -0.05986947 -0.080559574 0.00930011 0.016286597
000230 8e 80 c9 bc b2 a5 00 be 8c 27 b1 bc 36 25 b5 bd
       -0.024597432 -0.12563208 -0.021625303 -0.08844988
000240 e6 39 69 bb 19 76 1b 3d 1e ef 00 3c 28 72 4c 3a
       -0.0035587489 0.037954424 0.00786951 0.0007798993
000250 27 63 f0 3b 2f 7a 13 bd e2 fd 29 bd ce 6f 2b bd
       0.0073360386 -0.036005195 -0.041501887 -0.041854672
000260 b7 14 d8 bb 7a e5 15 3d 40 22 2f 3c 1c 4c dd bc
       -0.0065942663 0.0365958 0.010689318 -0.02701383
000270 93 1d 99 bd 06 48 1f bd c0 3d 8c 3b d9 77 5b 3d
       -0.07476344 -0.038887046 0.004279822 0.053581093
000280 d2 3b 45 bd 87 44 89 bb c7 8d 8a bd ed 53 66 bd
       -0.048152752 -0.0041890773 -0.06765323 -0.05623238
000290 d5 a6 75 bd 76 79 31 bc 79 ac ba bb 1c d9 9a bd
       -0.059973557 -0.010832181 -0.00569683 -0.075609416
0002a0 46 56 5c bd 8a a8 50 3c 50 88 a6 3c e5 4b e7 bd
       -0.053793214 0.012735495 0.02032867 -0.112937726
0002b0 5b 06 c9 bd b4 69 49 3c 0e c7 14 bd 0a cd 49 bd
       -0.09815665 0.012293268 -0.036322646 -0.049267806
0002c0 0c a6 82 bc 05 ce 59 3c 24 3f da bd 98 27 08 bc
       -0.015948318 0.013293748 -0.10656574 -0.008310221
0002d0 51 a2 21 bc f8 03 df bc 03 2e d8 bc 65 c0 1e bd
       -0.009865359 -0.027223572 -0.026389128 -0.0387577
0002e0 17 f6 9b bd fd a9 fb 3c 96 0f f3 bd 8d c5 4e 3c
       -0.07615297 0.030720705 -0.11868207 0.012620342
0002f0 5f ec 19 3c 1d 78 0d bd 94 c8 62 bd 9e 3b ee bd
       0.009394734 -0.034538377 -0.055367067 -0.11632465
000300 d5 78 6f bd 97 f6 6a bd 0e ba 3e bd 4e 7e 9d 3c
       -0.058464844 -0.057364073 -0.046564154 0.019225266
000310 26 a8 bc bd ff d0 06 3d 2f 04 53 bd bf 37 ad bc
       -0.09211759 0.032914158 -0.05151766 -0.021144746
000320 35 f3 d5 bd 3f fd 5a bf 61 6f 75 3d 04 79 31 bf
       -0.10446779 -0.8554267 0.059920672 -0.6932528
000330 fd 2c d6 be 31 56 bd 39 fd 54 4a be 30 81 ce bc
       -0.41831198 0.00036113107 -0.19758983 -0.025208086
000340 5b 60 48 ba e8 d2 9e be 93 96 10 bf 95 d6 86 3e
       -0.00076437526 -0.31020284 -0.5647976 0.26335588
000350 b0 6e 94 be 47 3f 11 bf 3a 39 b5 bf d4 2d 99 be
       -0.28990698 -0.5673718 -1.4158089 -0.29917777
000360 54 ab 4a bf 00 14 50 bd f6 9b 4f be 1c 7a 0e 3f
       -0.79167676 -0.050800323 -0.20274338 0.55655074
000370 4b 2f fd bf 80 a2 05 3f d2 79 29 bf db c9 0d bf
       -1.9780058 0.5220108 -0.6620151 -0.5538613
000380 8d 18 b7 3e 09 ad 0d 3f 04 b3 6f be 77 f1 a6 bc
       0.35760918 0.55342156 -0.23408133 -0.020378811
000390 26 f9 8d bf 55 e5 c1 be c7 72 1c 3e 0f df 78 3e
       -1.1091659 -0.3787028 0.15278159 0.2430384
0003a0 39 18 d5 be 26 29 52 bb ff ca 22 3f e4 6c 8a be
       -0.41620043 -0.0032067983 0.63591 -0.27036202
0003b0 ae 26 0d 3f 93 5b 5d bf 18 6d 8d be 58 f7 27 3d
       0.55137146 -0.86467856 -0.27622294 0.04100737
0003c0 57 e5 81 be 88 4a 08 bc 1e 3e 79 bd aa 3b 03 be
       -0.25370285 -0.008318551 -0.060850255 -0.12815729
0003d0 09 79 b2 3c cd b2 f1 3e 2c 3f db 3c 0e 1b 22 be
       0.02178623 0.47206727 0.026763521 -0.15830633
0003e0 a6 c9 d4 bf 5d a3 76 be d3 5e a5 be e4 d2 46 bf
       -1.6624038 -0.24085756 -0.32298908 -0.77665544
0003f0 67 77 43 bb 86 16 03 3f fb 56 02 bf e8 86 80 3d
       -0.0029825808 0.51206243 -0.5091397 0.06275731
