Vehicles/ModForest_2/ModForest_2_critic_target.pth (torch, 353491 bytes, 10 tensors)

weight f4 [200, 15]
0	0xbe8b42c5	-0.2719938
1	0x3d046b76	0.032329045
2	0x3e3b1c37	0.18272482
3	0x3f2749b2	0.65346825
4	0x3ec8b150	0.3919778
5	0x3d857a2c	0.06517443
6	0x3def0f4e	0.11672841
7	0x3ef09871	0.46991304
8	0xbc46d5ca	-0.012135932
9	0xc094b125	-4.646624
10	0xc02fae0b	-2.7449977
11	0x3fa27a17	1.2693509
12	0x3c889e62	0.016677085
13	0x3e92a94f	0.28644797
14	0x3e67ef54	0.2264989
15	0xbf5458b9	-0.8294788
16	0xbf973b4d	-1.1814972
17	0x3e9319c0	0.28730583
18	0xbed36e28	-0.4129498
19	0x3ef99067	0.48742983
20	0x3f3a399c	0.72744155
21	0x3f77e069	0.968268
22	0xbf0bef64	-0.54662156
23	0x3f188789	0.5958181
24	0xbf535b9c	-0.8256166
25	0x3d969b74	0.07353869
26	0x3e84f899	0.25970915
27	0xbf4526e6	-0.7701248
28	0xbf67f6b0	-0.9061079
29	0xbef9022a	-0.48634464
30	0xbea8c92b	-0.3296598
31	0xbecc6df2	-0.39927632
32	0x3e5aa753	0.21352892
33	0x3e847a5a	0.25874597
34	0x3f1f3364	0.6218779
35	0xbf58af16	-0.8464216
36	0x3ec05923	0.37568006
37	0x3f0e28c7	0.5553097
38	0xbfa01e2d	-1.2509209
39	0xbfc7307d	-1.5561672
40	0x3f07c643	0.530369
41	0xbf2cfaef	-0.67570394
42	0xbd241bbf	-0.040065523
43	0x3e9d3cf4	0.30710566
44	0xbf8a2940	-1.0793839
45	0xbf12bf3b	-0.57323045
46	0x3f37adfb	0.7174985
47	0xbcf56316	-0.029954474
48	0x3fb653eb	1.424436
49	0xbfba68f0	-1.4563274
50	0xbf53babc	-0.8270681
51	0xbf08642a	-0.5327784
52	0xbf18b6f0	-0.5965414
53	0x3e3d3b50	0.18479657
54	0xbf91a37e	-1.1378019
55	0xbf4cfbe6	-0.80071867
56	0xbda5bcdf	-0.08092665
57	0x3ed4c1ce	0.4155411
58	0x3e400acd	0.1875412
59	0x3ea50c3c	0.32235897
60	0xbfcaa645	-1.5831991
61	0xbfb2def1	-1.3974286
62	0xbb280688	-0.0025638659
63	0x3e4a2fed	0.19744845
64	0x3da0d602	0.07853319
65	0x3f034746	0.5128063
66	0xbe455d71	-0.19273926
67	0x3f8eb73c	1.1149669
68	0x3ebfc4f6	0.37454957
69	0x3e9ca98e	0.3059811
70	0xbfa5295d	-1.2903248
71	0xbf9c696e	-1.2219675
72	0x3dbbc5d8	0.09168595
73	0x3eee7f75	0.46581617
74	0xbf059bfb	-0.5219113
75	0xbf587bb5	-0.8456376
76	0xbf04adaa	-0.5182749
77	0xbd34015d	-0.043946613
78	0x3edd5522	0.43229014
79	0xbe9b8467	-0.30374452
80	0x3daf826e	0.08569799
81	0xbeff7b2c	-0.4989866
82	0xbf7ca3b0	-0.9868727
83	0xbf29b8df	-0.66297716
84	0xbd1a5dcc	-0.037687108
85	0x3f115586	0.56771123
86	0xbec779a7	-0.3896
87	0x3e0094cc	0.12556762
88	0x3e9b3414	0.3031317
89	0xbf9674b6	-1.1754367
90	0xbd00a75b	-0.031409603
91	0x3f8d1eaf	1.1024989
92	0x3f4fab5d	0.81120855
93	0xbe741e40	-0.23839664
94	0xbef83c1e	-0.48483366
95	0xbf84f82b	-1.0388235
96	0xbf9a9e42	-1.2079546
97	0xbf888a85	-1.0667273
98	0x3e97005c	0.29492462
99	0x3ed5954c	0.41715467
100	0xbf068d34	-0.5255921
101	0xbeaaa2a1	-0.333272
102	0x3ef37eec	0.4755777
103	0xbf842b0d	-1.0325638
104	0xbda24d33	-0.07924881
105	0x3f35ad5a	0.7096764
106	0x3f47dccb	0.7807128
107	0xbf6d68f2	-0.9273826
108	0x3e4d8f46	0.20074186
109	0xbf1f7cd5	-0.62299854
110	0xbf08bb10	-0.53410435
111	0xbf04328f	-0.51639646
112	0xbe16af13	-0.14715223
113	0x3e2baebf	0.16765879
114	0x3eeb5988	0.45966744
115	0xbfca5127	-1.5806016
116	0xbe3af2c3	-0.18256669
117	0x3ea016c0	0.31267357
118	0x3ebe9a31	0.37227014
119	0x3e7a12d0	0.24421239
120	0x3e56554e	0.20930979
121	0x3e724e89	0.23662771
122	0xbedb8ea3	-0.4288226
123	0xbe3c1ea2	-0.1837106
124	0xbf44e23a	-0.76907694
125	0xbe42a9af	-0.19010042
126	0xbf595a03	-0.8490297
127	0xbe81740f	-0.25283858
128	0x3f1567ab	0.5836131
129	0x3eb502d7	0.3535373
130	0xbf3ebf36	-0.74510515
131	0xbea149e1	-0.31501678
132	0x3ec242ea	0.37941676
133	0x3f2e93ac	0.6819408
134	0xbf867bbc	-1.0506511
135	0xbe2654e6	-0.16243324
136	0xbe90d1cf	-0.2828507
137	0xbe4f9e7e	-0.20275304
138	0x3eb9b52e	0.36271042
139	0x3d7c1032	0.061538883
140	0x3f831048	1.0239344
141	0x3f2654ef	0.6497335
142	0x3f0a85cc	0.5411041
143	0xc01d1cbc	-2.4548788
144	0x3e9e8edf	0.30968377
145	0x3dca30af	0.09872567
146	0x3ba085e0	0.0048987716
147	0xbee5d945	-0.44892326
148	0x3dc55099	0.096345134
149	0xbd4a63df	-0.04941165
150	0x3f6ad93a	0.9173771
151	0x3f7072d4	0.93925214
152	0x3e2476fc	0.16061014
153	0xbd98faf2	-0.07469739
154	0x3df30598	0.11866301
155	0xc04bedae	-3.1863818
156	0xc0474ee6	-3.1141906
157	0xc096f2c5	-4.717135
158	0xc020accc	-2.5105467
159	0xc068aaa4	-3.635415
160	0xc0d46aa7	-6.638019
161	0x3f3706be	0.7149466
162	0xc0bb1d85	-5.8473535
163	0xc0a299af	-5.08126
164	0xbd1e9804	-0.038719192
165	0xbfb62b53	-1.4231972
166	0xbfbe5fdf	-1.4873008
167	0x3dfa0c18	0.12209338
168	0x3f25e61d	0.6480425
169	0xbf562ea3	-0.8366491
170	0xbf8eb468	-1.1148806
171	0xbf64092e	-0.8907651
172	0xbe7e3807	-0.2482606
173	0xbf3ca28c	-0.73685527
174	0xbefdd248	-0.49574494
175	0xbea744f9	-0.3266981
176	0x3fa955b5	1.3229281
177	0x3f6e9a80	0.932045
178	0x3f0426a3	0.51621455
179	0x3e58e630	0.2118156
180	0x3d549946	0.051903985
181	0x3e96ad4e	0.29429096
182	0xbf8c13e3	-1.0943569
183	0xbd353684	-0.044241443
184	0xc00114aa	-2.0168862
185	0xbf65d834	-0.89783025
186	0xbfb35516	-1.4010341
187	0xbf2f0fde	-0.68383586
188	0xbfbc3d73	-1.4706253
189	0x3f08e98e	0.53481376
190	0x3eb55b4a	0.3542121
191	0x3f3242a1	0.6963292
192	0x3e2ccec1	0.16875745
193	0x3e5f2eb0	0.21795154
194	0xbeb6a98b	-0.35676226
195	0xbd92ab5d	-0.07161591
196	0x3ce0928e	0.027413633
197	0x3f7977e1	0.97448546
198	0x3d5b263e	0.053503267
199	0xbf2bf864	-0.6717589
200	0xbea3dd94	-0.32004988
201	0xbf17277b	-0.5904462
202	0xbf273e4a	-0.6532942
203	0x3f643811	0.8914805
204	0x3f15a8ec	0.5846088
205	0xbebfa7bc	-0.3743266
206	0xbf973e13	-1.1815819
207	0xbf1f7dd9	-0.62301403
208	0xbdb7d12f	-0.089754455
209	0xbe74928d	-0.2388403
210	0xbda62e0a	-0.0811425
211	0x3e2824e1	0.16420318
212	0xc00fe975	-2.248624
213	0x3d7dd8f7	0.061974492
214	0x3d845339	0.06461186
215	0xbe6ef22e	-0.23334572
216	0xbd9d8daa	-0.07693036
217	0xbe2ab53a	-0.16670695
218	0xbd9e20f8	-0.07721132
219	0x3ef2ffb9	0.47460726
220	0xbe241f78	-0.1602763
221	0xbe2fbf6b	-0.17162864
222	0xbe0bedb0	-0.1366489
223	0xbdffe529	-0.12494881
224	0x3db8bdb2	0.090205565
225	0xbf86bc1a	-1.0526154
226	0x3f3f855f	0.74812883
227	0xbf9d12c4	-1.2271352
228	0x3eba843d	0.36429015
229	0x3dcac9bb	0.09901758
230	0x3f05a118	0.52198935
231	0xbe88be5b	-0.2670773
232	0xbf4d6a0c	-0.8023994
233	0x3d6fbdbe	0.05853056
234	0xbee07beb	-0.43844542
235	0x3c2f7d07	0.010710961
236	0xbf024c23	-0.50897425
237	0x3dbf3a94	0.09337345
238	0x3e5508eb	0.20804183
239	0x3dfbe919	0.12300319
240	0xbe2b2c00	-0.16716003
241	0x3df3e206	0.11908345
242	0x3f36f732	0.7147094
243	0xbf2f22e3	-0.6841261
244	0xbeb01c53	-0.3439661
245	0xbe1974ee	-0.14986011
246	0x3dae421d	0.08508704
247	0x3f647691	0.8924342
248	0xbea95741	-0.33074382
249	0x3e057ed9	0.1303667
250	0xbfa6f503	-1.3043522
251	0x3fa96320	1.3233376
252	0x3f91783a	1.1364815
253	0x3ede7648	0.43449616
254	0xbcbdb98a	-0.023159761
255	0x3e9d0497	0.30667564

bias f4 [200]
0	0x3f4ee175	0.8081277
1	0xbf591b6d	-0.84807473
2	0x3bffe07c	0.007808743
3	0x3e620505	0.22072227
4	0xbe1edefe	-0.15514752
5	0xbdc04367	-0.09387856
6	0x3e8389f0	0.25691175
7	0xbe75b18c	-0.2399351
8	0xbe342e4c	-0.17595786
9	0x3ddf86dd	0.10914395
10	0x3f9469b7	1.1594762
11	0x3f03837e	0.51372516
12	0xbe9204c1	-0.28519252
13	0xbe398a28	-0.18119109
14	0xbb12d9b1	-0.0022407586
15	0xbe910a4d	-0.2832817
16	0xbde955c4	-0.113933116
17	0x3e9c61e5	0.30543438
18	0xbea574af	-0.32315585
19	0x3e7d5f22	0.24743322
20	0x3ebe8354	0.3720957
21	0xbf466165	-0.7749236
22	0x3e788bac	0.2427203
23	0x3dfc2198	0.12311095
24	0xbe2a0ef1	-0.16607262
25	0xbf5ad641	-0.85483176
26	0xbf415efa	-0.7553555
27	0x3d02f62d	0.031973053
28	0x3f106199	0.5639892
29	0xbf247b8c	-0.6425102
30	0x3f258690	0.6465845
31	0xbf0379b7	-0.513576
32	0xbf681a92	-0.90665543
33	0x3e010d66	0.12602767
34	0xbed30f08	-0.41222405
35	0x3ee001ae	0.43751281
36	0xbeabb00f	-0.3353276
37	0xbf0845a0	-0.5323124
38	0xbf123f92	-0.5712825
39	0xbec1597f	-0.37763593
40	0xbf02cee2	-0.5109693
41	0x3dec7b85	0.11546997
42	0x3e8b73da	0.27236825
43	0x3ee2d425	0.44302478
44	0xbebab8ac	-0.36469018
45	0x3e3c36ca	0.18380275
46	0xbf301352	-0.6877948
47	0x3ee1e163	0.4411727
48	0x3ef5501f	0.4791269
49	0x3d86bccb	0.06578978
50	0x3e406d4b	0.18791692
51	0xbed4282a	-0.41436893
52	0xbf3833b5	-0.719539
53	0x3e85ca56	0.26130933
54	0xbf1ef723	-0.6209585
55	0xbf07fb4d	-0.5311783
56	0xbe58e2ab	-0.21180217
57	0xbf85aa1f	-1.0442542
58	0x3d1bccfc	0.038037285
59	0x3dbbcd24	0.09169987
60	0xbe2251ee	-0.15851566
61	0xbe8510ca	-0.25989372
62	0x3f0f816e	0.5605687
63	0xbf2e3469	-0.6804872
64	0x3ebda7d8	0.37042117
65	0xbf3260bc	-0.69678855
66	0x3d9773d7	0.073951416
67	0xbe9650f6	-0.29358643
68	0xbd9cdc05	-0.07659153
69	0xbec95825	-0.3932506
70	0x3e71f52d	0.23628683
71	0x3f10aeb6	0.5651659
72	0xbe4f3648	-0.2023555
73	0x3dd7db5d	0.10539887
74	0x3e402930	0.18765712
75	0x3f043ee3	0.5165846
76	0xbbb7ebfd	-0.005612849
77	0xbf5a27bb	-0.85216874
78	0xbf8c782d	-1.0974175
79	0xbe9c4391	-0.305203
80	0xbd8d327f	-0.06894397
81	0xbf72b720	-0.94810677
82	0xbda9d377	-0.08292287
83	0x3ecdd275	0.40199628
84	0xbf0ebb72	-0.5575477
85	0xbe85d51d	-0.26139155
86	0xbed9c1f1	-0.42530778
87	0xbea885b6	-0.32914513
88	0xbf4188e7	-0.7559952
89	0xbe7cd1f0	-0.2468946
90	0x3e625a49	0.22104754
91	0xbf137fa9	-0.5761667
92	0xbf8c9c4c	-1.0985198
93	0xbed6c186	-0.41944522
94	0xbeae7349	-0.3407233
95	0x3e1dd5ed	0.15413637
96	0x3e4ff21d	0.20307203
97	0xbe76a31c	-0.24085659
98	0x3e174648	0.14772904
99	0x3eaadab8	0.33369994
100	0x3de473bc	0.11154887
101	0xbe019fc9	-0.1265861
102	0x3eaad5cf	0.33366248
103	0x3d4979b6	0.04918834
104	0xbeefde53	-0.46849307
105	0x3e53927e	0.20661351
106	0xbeb7fae0	-0.3593359
107	0x3d0d7c35	0.03454228
108	0x3ea7cf2a	0.3277524
109	0xbee81233	-0.45326385
110	0xbf8647c9	-1.0490657
111	0xbef192be	-0.47182268
112	0xbf1af974	-0.60536885
113	0x3e3cdc79	0.18443479
114	0x3f59de9b	0.85105294
115	0x3efaffeb	0.49023375
116	0xbed63b1a	-0.41841966
117	0xbd5cd5d8	-0.053914875
118	0xbf2d43f8	-0.6768184
119	0xbe94a749	-0.29033878
120	0xbe9e7abe	-0.3095302
121	0x3e4e3976	0.20139107
122	0xbcdfbdfd	-0.027312273
123	0x3e3692b1	0.17829396
124	0xbe691779	-0.2276286
125	0xbda95d9e	-0.08269809
126	0xbf0db71f	-0.55357546
127	0xbedd2291	-0.43190435
128	0xbd61d68c	-0.05513625
129	0x3f2845d0	0.65731525
130	0xbf7d74dc	-0.9900644
131	0xbe82fa1d	-0.25581446
132	0x3e66f7b1	0.22555424
133	0xbe849475	-0.25894514
134	0xbe053c27	-0.13011228
135	0xbe423ea1	-0.18969204
136	0x3e84c87f	0.25934216
137	0x3e7374b5	0.23774989
138	0xbe20ddee	-0.1570966
139	0xbf43bd1c	-0.76460433
140	0xbe917e69	-0.28416756
141	0x3e2cfdb2	0.16893652
142	0x3ca97bb1	0.020688863
143	0x3e8a049f	0.2695665
144	0x3e2e816c	0.17041558
145	0x3f1ff2aa	0.6247965
146	0x3cec9c0f	0.028883008
147	0xbeedce71	-0.46446565
148	0x3d50f9f5	0.051019628
149	0xbe8f72fa	-0.28017408
150	0x3e23e108	0.16003811
151	0x3efd6ba4	0.49496186
152	0x3f721e39	0.94577366
153	0xbf595257	-0.84891266
154	0xbe009dfa	-0.12560263
155	0xbe13064b	-0.1435787
156	0xbf5fc589	-0.8741079
157	0xbe3a2ecf	-0.18181919
158	0xbf461932	-0.77382195
159	0xbe443f81	-0.1916485
160	0xbf365c60	-0.71234703
161	0x3f0a8eff	0.54124445
162	0xbf6198c9	-0.88123757
163	0xbf883d0d	-1.0643631
164	0x3dea63ac	0.11444792
165	0x3e28eebb	0.16497318
166	0xbf5bcb9c	-0.8585756
167	0xbe9568fa	-0.29181653
168	0x3eee64a6	0.46561164
169	0x3dbadd12	0.09124197
170	0xbdfc15ff	-0.12308883
171	0x3e9a6656	0.301562
172	0x3edb17e3	0.42791662
173	0x3e578f6f	0.2105081
174	0xbe88e0f0	-0.26734114
175	0xbe96a2f0	-0.29421186
176	0x3e5c9134	0.21539766
177	0x3eaebade	0.34126943
178	0xbe4fdec8	-0.20299828
179	0xbdb5870d	-0.088636495
180	0x3d761e04	0.06008722
181	0xbe3f7df3	-0.1870039
182	0xbe3dff77	-0.18554483
183	0x3e5316dd	0.2061419
184	0xbf194d85	-0.5988391
185	0xbdb9471c	-0.09046766
186	0xbf8f4701	-1.1193544
187	0xbf0c1dab	-0.5473277
188	0xbf018465	-0.50592643
189	0xbe81d90d	-0.2536091
190	0xbf194b33	-0.5988037
191	0x3da42190	0.08014214
192	0x3ebd283c	0.3694476
193	0xbc5b069d	-0.013368276
194	0x3d444dee	0.047925882
195	0x3e99183b	0.299013
196	0xbf20fa1d	-0.6288164
197	0x3dd716f2	0.10502423
198	0xbf11ab9c	-0.5690248
199	0xbe86daf1	-0.26338914

weight f4 [200, 200]
0	0xbfbdc5af	-1.4825953
1	0x3e792103	0.24328999
2	0xbe5a5198	-0.21320188
3	0x3f2fdf16	0.6869978
4	0xbee73e1a	-0.45164567
5	0xbf0627b7	-0.5240435
6	0xc037a8d8	-2.8696804
7	0xbff045d3	-1.8771309
8	0xbe50cbf6	-0.20390305
9	0xbeab0f0f	-0.33409926
10	0xbd8654b5	-0.06559125
11	0xbed551d1	-0.41663983
12	0x3eaaa7ef	0.33331248
13	0x3f161a35	0.5863374
14	0x3e271c1e	0.1631932
15	0x3e64213a	0.222783
16	0xbeede6cb	-0.46465144
17	0x3f140111	0.5781413
18	0x3d8c0724	0.068372995
19	0x3e31bc54	0.17356998
20	0x3ea1c1ce	0.31593174
21	0xbf741bdb	-0.95355004
22	0x3ee3e512	0.44510704
23	0xbe21b167	-0.1579033
24	0xbf7d5ef3	-0.98973006
25	0x3e149076	0.14508232
26	0xbe997e2d	-0.29979077
27	0xbdccfaa9	-0.10008747
28	0xbef426cc	-0.4768585
29	0xbf19319e	-0.59841335
30	0xbf9e1f56	-1.2353313
31	0xbe8b12c5	-0.27162758
32	0xbd72827c	-0.05920647
33	0xbf0cfed8	-0.5507636
34	0x3f588171	0.8457251
35	0xbd8c43f2	-0.06848897
36	0xbd9eea75	-0.07759563
37	0xbefc3868	-0.49261785
38	0xbcd52612	-0.02601913
39	0xbfa893e7	-1.3170136
40	0xbe7e19a1	-0.24814464
41	0xbfa1deb7	-1.2646092
42	0xbec3a8b9	-0.38214663
43	0xbdacf757	-0.08445614
44	0x3e89def4	0.26927912
45	0xbe6cc363	-0.23121409
46	0xbea3c7c7	-0.31988356
47	0x3eb13082	0.3460732
48	0xbf234487	-0.6377644
49	0xbf9b3476	-1.2125385
50	0xbd8446ed	-0.064588405
51	0xbd95ef3e	-0.073210225
52	0x3ea53246	0.32264918
53	0xbfc31831	-1.5241758
54	0xc03cf388	-2.952364
55	0xbf0192bd	-0.5061453
56	0xbf5cc95c	-0.8624475
57	0xbfdc60da	-1.7217057
58	0x3f9929cd	1.1965882
59	0xbeba2d60	-0.36362743
60	0x3f3761bf	0.71633524
61	0x3eb830c8	0.35974717
62	0xbdf5ad13	-0.11995902
63	0xbfe86a1b	-1.8157381
64	0x3ec388b0	0.38190222
65	0xbfa6fa87	-1.3045205
66	0xbf79b704	-0.97544885
67	0xbf3f8b97	-0.7482237
68	0xbf738ce4	-0.9513686
69	0xbf9d9126	-1.2309921
70	0x3eb25e27	0.34837458
71	0x3e95a8ed	0.29230443
72	0xbf7fe5d4	-0.99960065
73	0xbf036b65	-0.51335746
74	0xbf411941	-0.7542916
75	0xbf75590c	-0.95839
76	0x3d780c1c	0.060558423
77	0xbf128e66	-0.5724853
78	0xbf0099fd	-0.5023497
79	0xbecc7a89	-0.39937237
80	0xc015daee	-2.3414874
81	0xbf543bb2	-0.8290359
82	0xbe66ec13	-0.22550993
83	0xbf3ea200	-0.7446594
84	0xbd2104bf	-0.039311167
85	0xbf0ef7a4	-0.5584662
86	0xbda9c946	-0.08290343
87	0xbeb3a4b8	-0.35086608
88	0xbefa2784	-0.48858273
89	0xbe7817ed	-0.24227877
90	0xbf7a3d64	-0.97749925
91	0x3ee6392a	0.44965488
92	0x3f3c14e0	0.7346935
93	0x3de11b02	0.109914795
94	0xbd47d899	-0.048790548
95	0xbecea471	-0.40359834
96	0xbf086d6c	-0.53291965
97	0xbfc69461	-1.5514032
98	0x3edd3c61	0.43210128
99	0xbd7f9623	-0.06239904
100	0xbc59aa52	-0.013285236
101	0xbf3cd154	-0.7375691
102	0xbe9e3216	-0.30897588
103	0x3e32fb2f	0.17478631
104	0x3c5860a2	0.013206633
105	0x3ef147a3	0.47124967
106	0x3ba6ab9f	0.005086377
107	0x3eaa38ff	0.3324661
108	0xc00b6bd5	-2.1784565
109	0xbe657ce3	-0.22410922
110	0xbf01129c	-0.5041902
111	0xbf041cbd	-0.5160635
112	0xbea0e7d7	-0.3142688
113	0xbf5da76a	-0.8658358
114	0xbeda82b9	-0.42677858
115	0xbfb78f0f	-1.4340533
116	0xbe2d12af	-0.16901658
117	0xbe2edc7f	-0.170763
118	0xbfb41920	-1.4070168
119	0xbf578cea	-0.8419939
120	0xba779ac0	-0.0009445362
121	0xbf470b21	-0.77751356
122	0xbf1030ee	-0.5632466
123	0xbf23affe	-0.6394042
124	0xbf090b3c	-0.5353277
125	0xbe9b36cd	-0.30315247
126	0xbff24bcc	-1.8929381
127	0xbd08f1f8	-0.033433884
128	0x3ddd7249	0.10812814
129	0xbf5a88fa	-0.8536526
130	0x3ea2a206	0.3176424
131	0xbd3402c3	-0.043947946
132	0x3ead0dc5	0.33799568
133	0xbeaf3977	-0.3422353
134	0xbe412cc9	-0.1886474
135	0x3eb6b387	0.35683843
136	0xbfbd5080	-1.4790192
137	0xbe02bc65	-0.1276718
138	0xbe98badd	-0.29830065
139	0xbfa6c887	-1.3029946
140	0xbf6483ab	-0.8926341
141	0x3e92555d	0.28580752
142	0xbe56bde2	-0.20970872
143	0xbe45bcc0	-0.19310284
144	0xbd6061db	-0.054780822
145	0xbe652882	-0.22378734
146	0xbea20c06	-0.31649798
147	0xbee21cd3	-0.44162616
148	0x3e881204	0.26576245
149	0xbeb5a470	-0.35477018
150	0xbf4bccd2	-0.79609406
151	0xbf56788e	-0.837777
152	0xbee381db	-0.4443501
153	0x3eb5726f	0.35438868
154	0xbff977bb	-1.9489664
155	0x3f9c3fa5	1.2206923
156	0xbe5f1e66	-0.2178894
157	0xbf819a8d	-1.012529
158	0x3e52180a	0.20516983
159	0xbc950fce	-0.018196013
160	0xc016808d	-2.351596
161	0xbf18ca7e	-0.5968398
162	0x3e8c2b9e	0.27377027
163	0x3d62751a	0.055287458
164	0x3f134b75	0.57537013
165	0xbe16b996	-0.14719233
166	0x3df7039b	0.120612346
167	0xbfa54ee3	-1.2914699
168	0xc06d1a1b	-3.7047184
169	0xbe87c63c	-0.26518428
170	0xbdd83f0a	-0.10558899
171	0x3ee57382	0.44814688
172	0x3f451b42	0.7699472
173	0x3f09004c	0.5351608
174	0xbd8eb788	-0.069685996
175	0x3e936fec	0.28796327
176	0xbeffaa73	-0.4993473
177	0x3e492fc1	0.19647123
178	0xbe01df4c	-0.12682837
179	0x3ee4ca85	0.4468576
180	0x3de4119a	0.1113617
181	0x3ea432cf	0.32070014
182	0x3d6f467d	0.058416832
183	0x3f0771dc	0.5290811
184	0xbe2b44f7	-0.16725527
185	0xbf982b1e	-1.1888158
186	0xbeebe00b	-0.4606937
187	0xbfa54e67	-1.2914551
188	0x3e5c56b1	0.21517445
189	0x3d778933	0.060433578
190	0xbdb9bc18	-0.09069079
191	0x3ecf75d1	0.40519574
192	0x3ec09f60	0.37621593
193	0xbd6fff83	-0.058593284
194	0x3f5a0b25	0.85173255
195	0xbe08fc65	-0.13377531
196	0x3eceb5a1	0.40372947
197	0xbf0382d5	-0.5137151
198	0xbe835625	-0.2565166
199	0xbf2a5776	-0.66539705
200	0x3d4c8190	0.049928248
201	0x3bf50bb4	0.0074782018
202	0xbdc9de91	-0.09856904
203	0xbdbecc2f	-0.09316289
204	0xbdab762f	-0.08372151
205	0xbcd3b3c2	-0.025842551
206	0xbd34ac00	-0.044109344
207	0xbc3cb120	-0.011516839
208	0xbdb857d8	-0.0900113
209	0xbe0e4ee5	-0.13897283
210	0xbcc602bd	-0.024171228
211	0xbe16164e	-0.14656946
212	0xbd4ae8f9	-0.049538586
213	0xbdc1fa41	-0.0947156
214	0x3c0397ec	0.0080318265
215	0x3d2c82ee	0.04211705
216	0xbdcf1fe1	-0.10113502
217	0xbe4444f9	-0.19166936
218	0x3ceb09ce	0.028691199
219	0xbdd35b7a	-0.10320182
220	0xbdb6c0d0	-0.08923495
221	0xbe1b9eb6	-0.15197262
222	0x3c9219fd	0.017834658
223	0xbd7e71f3	-0.06212039
224	0xbdac9d7f	-0.084284775
225	0x3db1ad97	0.08675688
226	0x3c7ca1e4	0.015419457
227	0xbd133b0e	-0.03594499
228	0xbd4554d9	-0.04817662
229	0xbe08b2f5	-0.13349517
230	0xbc5e2f5a	-0.013561094
231	0x3d12267d	0.035681237
232	0xbd8370dd	-0.06418011
233	0x3ca5123e	0.0201503
234	0xbcec3e93	-0.028838431
235	0x3b927ec5	0.0044706785
236	0xbd798ff4	-0.0609283
237	0x3c8c1d2c	0.017103754
238	0xbd617cab	-0.055050533
239	0xbd07e3ed	-0.03317635
240	0xbc82b87d	-0.015957111
241	0xbdc40a61	-0.09572292
242	0x3b755e84	0.003744037
243	0xbd895575	-0.06705753
244	0xbdae435f	-0.08508944
245	0xbdaeb3df	-0.085304014
246	0xbcc51659	-0.024058508
247	0xbd815f2d	-0.063169815
248	0x3ce4ab45	0.027913699
249	0xbdc8e491	-0.098092206
250	0x3e6c472b	0.23074023
251	0x3af5b839	0.0018746919
252	0xbcb96ad8	-0.022633955
253	0xbda09b47	-0.07842117
254	0xbd38f800	-0.045158386
255	0xbcb03698	-0.021510407

bias f4 [200]
0	0xbe48f63a	-0.19625178
1	0xbd555a6a	-0.05208818
2	0xbec397c4	-0.38201725
3	0xbda74faf	-0.08169495
4	0x3e77307f	0.24139594
5	0xbd09b26d	-0.033617426
6	0xbf044dc1	-0.51681143
7	0xbe0f611d	-0.1400189
8	0xbdbc5680	-0.09196186
9	0xbdecafdb	-0.11556979
10	0xbe2d0ef6	-0.16900238
11	0xbdaedd47	-0.08538299
12	0xbd429681	-0.047506813
13	0xbe64be2a	-0.22338167
14	0xbd76ca94	-0.060251787
15	0xbdb02180	-0.086001396
16	0xbeb790b1	-0.35852578
17	0xbf03b1af	-0.51443
18	0xbec8d20a	-0.39222747
19	0xbf16843f	-0.5879554
20	0xbe5f920a	-0.21833053
21	0xbe005173	-0.1253107
22	0xbdb46678	-0.08808607
23	0xbe8b8025	-0.27246204
24	0x3e46497d	0.19363971
25	0xbf134eee	-0.5754231
26	0xbeebfa1e	-0.46089262
27	0xbcfe249c	-0.031023316
28	0xbe02cd95	-0.12773736
29	0xbc93284e	-0.017963555
30	0xbebf622d	-0.3737959
31	0xbd650c12	-0.055919714
32	0xbe32b205	-0.17450722
33	0xbe0d93ce	-0.13825914
34	0xbe099fad	-0.13439818
35	0xbd952036	-0.072815344
36	0xbf3af516	-0.7303022
37	0xbdb09c28	-0.086235344
38	0xbd880c8d	-0.06643019
39	0xbde182eb	-0.11011299
40	0xbcb269e0	-0.021779
41	0xbd77c624	-0.060491696
42	0xbd0b4655	-0.03400262
43	0xbd0c0fe5	-0.034194846
44	0xbc1f9b06	-0.00974155
45	0xbde7ad70	-0.113123775
46	0xbdd08fda	-0.101836875
47	0xbd844d2d	-0.064600326
48	0x3e5cc82a	0.21560732
49	0xbd350060	-0.04418981
50	0x3f0770a0	0.5290623
51	0xbd921f76	-0.07134907
52	0xbdc9b079	-0.098481126
53	0xbdb41c40	-0.08794451
54	0xbf1b079f	-0.60558504
55	0xbf114c45	-0.56757003
56	0xbe1d402d	-0.15356512
57	0x400602cc	2.0939207
58	0xbe2ec99f	-0.170691
59	0xbf25357c	-0.64534736
60	0xbc9440c6	-0.018097293
61	0xbd7d934c	-0.06190805
62	0xbd868117	-0.06567591
63	0xbdda2c02	-0.10652925
64	0xbf6ea935	-0.9322694
65	0xbd7cbf94	-0.06170614
66	0xbefe35cc	-0.4965042
67	0xbdf80ae4	-0.12111452
68	0xbed0f6c8	-0.4081328
69	0xbe3c4407	-0.18385325
70	0xbdb19880	-0.08671665
71	0xbfaff34c	-1.3746123
72	0xbd4ab7c1	-0.049491648
73	0xbe97b0d8	-0.2962711
74	0xbe6e6195	-0.23279412
75	0xbeab7dec	-0.33494508
76	0xbcb65d98	-0.022261426
77	0xbcc25c89	-0.023725765
78	0xbf2f5473	-0.68488234
79	0xbc116ee6	-0.008876538
80	0xbec8f2a1	-0.3924761
81	0xbee5b203	-0.44862375
82	0xbf6c265b	-0.92246026
83	0xbdb61360	-0.08890414
84	0xbdc91371	-0.09818161
85	0xbd5b3f02	-0.053526886
86	0xbe9cb553	-0.3060709
87	0xbe73605e	-0.2376723
88	0xbed1381b	-0.40863118
89	0x3e5f5f7e	0.21813771
90	0xbe472101	-0.19446184
91	0xbea3f3cb	-0.32021937
92	0xbdbba398	-0.091620624
93	0xbe013755	-0.12618764
94	0xbd7bd854	-0.061485603
95	0xbd79c9c4	-0.060983434
96	0x3fda3f31	1.7050534
97	0xbdf26315	-0.11835305
98	0xbee95b83	-0.4557763
99	0xbda3d5ac	-0.07999739
100	0xba878d35	-0.0010341766
101	0xbc7990bc	-0.015232261
102	0xbdfef534	-0.124491125
103	0xbf32509e	-0.6965426
104	0xbd9f50ce	-0.07779084
105	0xbe8438c6	-0.25824565
106	0xbe372458	-0.17884958
107	0x3c88352c	0.016626917
108	0xbe069015	-0.131409
109	0xbe97fa14	-0.29682982
110	0xbefa5bbf	-0.48898122
111	0xbe94e177	-0.29078266
112	0xbd535602	-0.051595695
113	0xbe96ae7d	-0.2943
114	0xbebb6db0	-0.36607122
115	0xbe5a5ff1	-0.21325661
116	0xbcab9baf	-0.02094826
117	0xbe68831b	-0.22706263
118	0xbd90b4f6	-0.070657656
119	0xbba8323e	-0.0051329425
120	0x3d9e3d19	0.07726497
121	0xbc80dd7d	-0.015730614
122	0xbdce0769	-0.10060007
123	0x3e546cc5	0.20744617
124	0xbe52b8de	-0.20578334
125	0xbe4572d9	-0.19282092
126	0xbde9a1d3	-0.11407819
127	0xbdd93522	-0.106058374
128	0x3b813ae2	0.003943787
129	0xbd793471	-0.060841028
130	0xbc8c77cd	-0.01714697
131	0xbe724aff	-0.23661421
132	0xbe08384d	-0.13302727
133	0xbdb09f48	-0.086241305
134	0xbdf4fe6c	-0.119625896
135	0xbe52bfd3	-0.20580988
136	0xbe117c2e	-0.14207527
137	0x3d914c29	0.070946045
138	0xbe721774	-0.23641759
139	0xbdf96b3c	-0.121786565
140	0xbe3ffb06	-0.18748102
141	0xbf0a4f3e	-0.54027164
142	0xbeed0452	-0.4629236
143	0xbe9078b7	-0.28217098
144	0xbf2a37f5	-0.66491634
145	0xbf04dced	-0.51899606
146	0xbe91231e	-0.28347105
147	0x3d8dadf5	0.06917945
148	0xbe0966a7	-0.13418065
149	0xbd8fdbc5	-0.070243396
150	0xbea08007	-0.31347677
151	0xbca732c7	-0.020409955
152	0xbdafd747	-0.08585983
153	0xbcbc8df6	-0.023016911
154	0xbee69a6e	-0.45039696
155	0xbf3d9738	-0.74058867
156	0xbeb12db9	-0.34605196
157	0xbf215cbb	-0.6303212
158	0xbde6fc7b	-0.112786256
159	0xbd8da55d	-0.06916306
160	0xbd61d813	-0.055137705
161	0xbc115456	-0.008870205
162	0xbe085697	-0.13314281
163	0xbdd73eca	-0.10510023
164	0xbf358e90	-0.7092066
165	0xbd41f7e9	-0.047355566
166	0xbf581412	-0.84405625
167	0xbe930206	-0.2871248
168	0xbdf450fc	-0.11929509
169	0xbefe4288	-0.49660134
170	0x3c810b90	0.015752584
171	0xbca3b3d9	-0.019983219
172	0x3e1a993c	0.15097517
173	0xbeef3501	-0.46720126
174	0xbdc4a765	-0.096022405
175	0xbd9a71ee	-0.075412616
176	0xbe14d934	-0.14535981
177	0xbe9c59b0	-0.30537176
178	0xbe131bce	-0.14366075
179	0xbd5526da	-0.052039005
180	0xbf08e0e9	-0.53468186
181	0xbdca786d	-0.09886251
182	0xbda4c438	-0.08045238
183	0xbe4ecadd	-0.20194574
184	0xbeef1ff9	-0.4670408
185	0xbe0840e5	-0.13306005
186	0xbef69143	-0.481577
187	0xbf4bc8d6	-0.79603326
188	0xbde2c0e3	-0.110719465
189	0x3e0515e9	0.1299664
190	0xbd934352	-0.07190575
191	0xbe11dd13	-0.1424449
192	0xbe9a13f6	-0.30093354
193	0xbeb55b42	-0.35421187
194	0xbe851edd	-0.2600011
195	0xbd84711d	-0.06466887
196	0xbf3b0075	-0.7304757
197	0xbe2a9c53	-0.16661195
198	0xbe3902bf	-0.18067454
199	0xbecf733b	-0.405176

weight f4 [1, 200]
0	0xbf8d9122	-1.1059916
1	0x3cd66d6a	0.02617522
2	0xbeb217df	-0.34783837
3	0xbd0ab43c	-0.03386329
4	0xbdd1443f	-0.10218095
5	0x3d21992e	0.039452724
6	0x3d85eb53	0.06539025
7	0xbb96a6d6	-0.004597525
8	0x3c2bafff	0.010478972
9	0x3c25fef7	0.010131589
10	0xbf20f1a5	-0.6286872
11	0xbbd12f39	-0.006383803
12	0xbb845114	-0.0040379856
13	0xbeb974b7	-0.3622186
14	0x3b8625d5	0.0040938654
15	0xbc0c4b45	-0.0085628675
16	0xbe629c3f	-0.22129916
17	0xbf0aac56	-0.54169214
18	0x3e3d89c6	0.18509588
19	0x3ec85301	0.39125827
20	0xbf8ea72c	-1.1144767
21	0x3c9b41bd	0.018952245
22	0xbdc668a0	-0.096879244
23	0x3f7bc0e3	0.98341197
24	0xbf0b219a	-0.54348147
25	0x3dbee747	0.093214564
26	0xbefb8bc0	-0.49130058
27	0x3bd8ceca	0.006616448
28	0x3b436269	0.0029813296
29	0x3a658fa3	0.000875706
30	0xbea9f5f7	-0.3319547
31	0x3d8a35c7	0.067485385
32	0xbf8fb667	-1.122754
33	0x3e98bc10	0.2983098
34	0x3c487ca9	0.012236753
35	0x3d1c1ed5	0.03811534
36	0xbe6eac77	-0.23307978
37	0xbb4d4a58	-0.003132483
38	0xbcd70a72	-0.026250098
39	0xbce422ca	-0.02784862
40	0x3ba1177f	0.004916131
41	0xbce25f3b	-0.0276333
42	0x3b4d84f0	0.0031359755
43	0xbbff1604	-0.007784607
44	0x3bb190b0	0.0054188594
45	0x3bc942d5	0.006142
46	0x3cf52963	0.029926961
47	0xbd722e1b	-0.059126
48	0xbf2003f9	-0.6250606
49	0x3b2c4c3e	0.002629056
50	0x3dc8c584	0.09803298
51	0xbc5676ca	-0.013089845
52	0x380fccec	3.4284705e-05
53	0x3cb1b180	0.021691084
54	0x3db8ca28	0.09022933
55	0x3e1553d3	0.14582758
56	0xbeb5ec4e	-0.3553185
57	0x3d94bd17	0.072626285
58	0x3db63bb3	0.088981055
59	0xbf0a50e7	-0.540297
60	0xbb7d50e3	-0.0038652949
61	0x3c59e742	0.013299765
62	0xbfbb59d6	-1.4636791
63	0xbc5fa402	-0.013649942
64	0xbf25dfd1	-0.6479464
65	0x3ca3134e	0.019906666
66	0xbf220cce	-0.6330079
67	0xbcb2bf08	-0.021819606
68	0xbe88f181	-0.26746753
69	0xbf01530c	-0.50517344
70	0x3bc1e460	0.005917117
71	0xbeb50e2e	-0.3536238
72	0xbc423a51	-0.011854724
73	0xbe12d351	-0.14338423
74	0x3f2ed2ab	0.68290204
75	0xbe97e981	-0.29670337
76	0x3d785364	0.060626402
77	0xbf8bbe63	-1.0917476
78	0x3e245e98	0.1605171
79	0xbc12d0ce	-0.008960916
80	0xbe9a19a5	-0.3009769
81	0x3f18a115	0.5962079
82	0xbf12e38d	-0.57378465
83	0xbd05fec4	-0.032713667
84	0x3cc90df9	0.024542795
85	0x3cb16f17	0.021659417
86	0xbf5d6e8c	-0.86496806
87	0xbedbb0d8	-0.4290836
88	0x3e970e7e	0.29503244
89	0xbec51b43	-0.38497362
90	0x3df388fb	0.11891361
91	0xbf64d21d	-0.8938311
92	0x3cf5be9c	0.029998116
93	0xbcb1d958	-0.021710083
94	0x3c8585ad	0.016299093
95	0x3ca52f26	0.020164084
96	0x3d8fc040	0.07019091
97	0x3ede257d	0.43387976
98	0xbe5edfe9	-0.21765102
99	0xbe9e2948	-0.3089087
100	0xbb907995	-0.004409025
101	0xbb2525c7	-0.002519952
102	0x3c274c8e	0.010211123
103	0xbf18e0bb	-0.5971791
104	0xbb75b474	-0.0037491592
105	0x3dd4956f	0.10380065
106	0xbe86b98f	-0.26313445
107	0xbfcb1008	-1.5864267
108	0xbcebca2b	-0.028782925
109	0x3e51e484	0.20497328
110	0xbe4a091b	-0.19730036
111	0xbf0e1971	-0.5550757
112	0xbd739193	-0.059465002
113	0x3f3b7f84	0.7324145
114	0xbf255ece	-0.64597785
115	0xbf0a873c	-0.541126
116	0x3d6bbdaa	0.057553925
117	0x3e0f0424	0.13966423
118	0x3bcf4f89	0.00632662
119	0x3f522f0a	0.82103026
120	0xbedc5841	-0.43036082
121	0x3c28a837	0.010294012
122	0x3cbf3287	0.023339523
123	0x3f1816f3	0.5941002
124	0xbe8c5573	-0.27408943
125	0xbda9ebe4	-0.08296946
126	0x3b9f46a6	0.004860717
127	0xbc89a205	-0.01680089
128	0x3dfe1bdf	0.1240766
129	0x3e6f504f	0.23370479
130	0xbc6e6f83	-0.014552954
131	0xbe9f7119	-0.31140974
132	0x3cfb95ec	0.030711137
133	0xbc9d6add	-0.019215995
134	0xbc7e5e6c	-0.015525442
135	0x3dbc1e6d	0.09185491
136	0xbcab2e4f	-0.020896105
137	0xbe854ff8	-0.26037574
138	0xbf07b9bc	-0.53017783
139	0x3cbfc49f	0.023409186
140	0x3eca9306	0.39565295
141	0x3e8132d2	0.25234085
142	0xbe7f7afc	-0.24949259
143	0x3db04ba5	0.08608178
144	0xbf2ba75a	-0.67052233
145	0xbf2108a6	-0.6290382
146	0xbf78fb83	-0.97258776
147	0x3ecd20f1	0.40064195
148	0x3e534992	0.20633534
149	0xbbfd09cc	-0.007722115
150	0xbf14dab4	-0.58146214
151	0xbbbe6c17	-0.005811225
152	0xbc3bf730	-0.011472508
153	0x3f2de3e6	0.6792587
154	0xbed68382	-0.41897207
155	0xbee6d9b4	-0.4508797
156	0x3e0574e1	0.13032867
157	0xbfa7fa6f	-1.3123301
158	0x3c23f9c6	0.010008281
159	0xbc8e2004	-0.01734925
160	0x3c3721b0	0.011177465
161	0xbdb0ae1f	-0.08626961
162	0x3ec07785	0.37591186
163	0x3cd52eaa	0.026023228
164	0xbf1b6fd5	-0.6071752
165	0xbbb7cd8f	-0.0056092213
166	0xbfa8918e	-1.316942
167	0xbcdc63f9	-0.02690314
168	0x3cc43f80	0.02395606
169	0xbf0aab43	-0.54167575
170	0xbfe2a3bf	-1.7706221
171	0x3f33e870	0.70276546
172	0x3d554077	0.05206343
173	0x3e006022	0.12536672
174	0xbc2e7d1d	-0.0106499465
175	0x3f553b29	0.83293396
176	0x3f14c579	0.5811382
177	0x3e37bb14	0.17942458
178	0xbbfa4d04	-0.0076385755
179	0x3cf3a6ab	0.02974256
180	0xbf171ead	-0.5903118
181	0x3e537363	0.20649485
182	0x3e701c2f	0.23448251
183	0xbf00b6a8	-0.5027871
184	0xbe7624bd	-0.24037452
185	0x3cbc3358	0.022973701
186	0x3e50a8f1	0.20376946
187	0xbe37559e	-0.17903754
188	0xbb4d4b21	-0.0031325298
189	0x3e0e1a9c	0.13877338
190	0xbec56811	-0.3855596
191	0xbcbae12b	-0.022812447
192	0x3e8d67c3	0.27618226
193	0x3f1c6834	0.610965
194	0x3dbad1f8	0.091220796
195	0x3ed457d1	0.4147325
196	0xbece19f0	-0.40254164
197	0x3ed1b2a8	0.40956616
198	0x3dacb97c	0.08433816
199	0xbeed6bec	-0.463714

weight f4 [200, 15]
0	0xbf8599d5	-1.0437571
1	0xbd0519f7	-0.032495465
2	0x3f63e5fb	0.890228
3	0xbf8ff906	-1.1247871
4	0xbd881d94	-0.066462666
5	0x3e327ee7	0.17431222
6	0xbf027bc7	-0.5097012
7	0xbd4fd41d	-0.050739396
8	0xbdae8dad	-0.08523116
9	0x3ef8529b	0.48500523
10	0x3d9be2ec	0.07611641
11	0xbf1bf052	-0.60913575
12	0x3e7e62c5	0.24842365
13	0xbf4edc46	-0.8080486
14	0xbeedccf8	-0.4644544
15	0xbd6a842b	-0.05725495
16	0xbac5ac2f	-0.0015081222
17	0x3f310465	0.6914733
18	0xbf794714	-0.9737408
19	0x3d09e7c7	0.033668306
20	0xbd52f80b	-0.051506083
21	0x3caee4f4	0.021349408
22	0xbe594278	-0.21216762
23	0xbf0e79e9	-0.5565477
24	0xbf9238a9	-1.1423541
25	0x3e98429d	0.29738322
26	0xbe09daea	-0.13462415
27	0x3facbf10	1.3495808
28	0x3fb7c75d	1.4357716
29	0xbca1beeb	-0.019744357
30	0x3e7b7fa8	0.24560416
31	0x3ee1db76	0.44112748
32	0x3b6cd61c	0.0036138361
33	0x3efbbda8	0.49168134
34	0xbf90ea09	-1.1321422
35	0xbf1d7ece	-0.61521614
36	0xbfd5f3ef	-1.6715068
37	0xbe22a62d	-0.15883704
38	0xbe47380c	-0.19454974
39	0x3d647a9f	0.055781003
40	0xbeaa5105	-0.33264938
41	0x3f2fcecf	0.6867494
42	0x3f698ccc	0.91230464
43	0x3f976c52	1.1829932
44	0x3f8ce0c0	1.1006088
45	0xbf4a81ab	-0.7910411
46	0xbebb8fd7	-0.3663318
47	0x3eeaeecd	0.45885316
48	0x3decc462	0.115608945
49	0xbd7bd141	-0.061478857
50	0x3e67ba5d	0.22629686
51	0x3fc50269	1.539136
52	0x3f738d19	0.9513717
53	0x3e8f2b12	0.27962548
54	0x3ec1edec	0.37876832
55	0xbf54fbe9	-0.83196884
56	0x3ef82cfb	0.48471817
57	0x3ee78c77	0.45224354
58	0x3d120094	0.035645083
59	0x3e0c0514	0.13673812
60	0xbe85d004	-0.26135266
61	0xbe27e1cd	-0.1639473
62	0x3ede6410	0.43435717
63	0x3f21db24	0.6322501
64	0x3e2900e4	0.16504246
65	0xbd917b5a	-0.071036056
66	0xbdaeb7fd	-0.08531187
67	0x3fa48b86	1.2855079
68	0x3eff2a4c	0.49836957
69	0x3e8cd1e6	0.2750389
70	0xbf6120f0	-0.87940884
71	0xbe61048a	-0.21974388
72	0xbf03e87d	-0.51526624
73	0xbe749b2b	-0.23887317
74	0xbe9e26c7	-0.3088896
75	0xbd35b988	-0.04436639
76	0x3c39bc17	0.011336348
77	0xbbb45227	-0.0055029574
78	0x3e006f22	0.12542394
79	0xbe2bdc86	-0.16783342
80	0x3d4affa0	0.04956019
81	0x3d3a5b78	0.045497388
82	0xbe8e0704	-0.27739727
83	0xbda5a907	-0.0808888
84	0xbe779a63	-0.24179988
85	0xbe82c68d	-0.25542107
86	0xbdaa6afe	-0.083211884
87	0xbe63b88a	-0.22238365
88	0xbda57c7f	-0.08080386
89	0x3df16b93	0.11788096
90	0x3f838a75	1.0276629
91	0x3f64d404	0.8938601
92	0x3e6045ba	0.21901599
93	0xbf0c6ad4	-0.54850507
94	0xbe8d49e2	-0.2759543
95	0x3e7fc823	0.2497869
96	0x3f83d167	1.029828
97	0xc0016c21	-2.0222247
98	0xbea41019	-0.32043532
99	0x3e76161d	0.24031873
100	0xbd9085fb	-0.07056805
101	0xbf73329a	-0.94999087
102	0xbf98890d	-1.1916825
103	0xbfda169f	-1.7038153
104	0xbe8dff28	-0.2773373
105	0xbe590a4f	-0.21195339
106	0x3d598f25	0.05311503
107	0x3eb1a988	0.34699655
108	0x3ed3d5be	0.4137401
109	0x3f22a668	0.63535166
110	0xbf03d9e0	-0.51504326
111	0x3d889920	0.06669831
112	0xbf47018a	-0.77736723
113	0x3ec9685e	0.39337438
114	0xbef6e933	-0.48224792
115	0xbdf526b1	-0.119702704
116	0xbebb6972	-0.36603886
117	0xbeaa9164	-0.3331405
118	0xbf5c05b8	-0.85946226
119	0x3e0420a2	0.12903073
120	0xbeb6a6c6	-0.35674113
121	0x3f2a1386	0.6643604
122	0xbf02f264	-0.5115111
123	0xbf9c77cd	-1.222406
124	0xbefe7d4b	-0.49704966
125	0xbf2dd41b	-0.6790177
126	0x3e880498	0.26566005
127	0xbb40d590	-0.0029424168
128	0xbf50edd5	-0.816129
129	0xbf08114e	-0.53151405
130	0xbc7c823b	-0.015411909
131	0x3d9c9f7c	0.07647607
132	0x3f7e87c2	0.994259
133	0x3ff93617	1.9469632
134	0xbe371a25	-0.17881067
135	0xbdb1265b	-0.08649894
136	0xbe2f4bb3	-0.1711872
137	0x3efc22e3	0.49245366
138	0x3f808402	1.0040286
139	0x3e38cef3	0.18047695
140	0x3f22c53a	0.63582194
141	0xbf4153e2	-0.7551862
142	0x3f16267b	0.58652467
143	0xbfe4e84c	-1.7883391
144	0x3ea64b68	0.32479405
145	0xbe35ad98	-0.17742002
146	0x3edca558	0.43094897
147	0x3ebee07c	0.37280643
148	0xbf168ee4	-0.58811784
149	0x3f931488	1.1490641
150	0xbe08f716	-0.13375506
151	0xbdcdea8e	-0.100545034
152	0xc00de246	-2.2169356
153	0xbd5924f2	-0.05301375
154	0x3e584c53	0.21122865
155	0x3e9cbb91	0.30611852
156	0x3eca87c3	0.39556703
157	0xbdb1398b	-0.086535536
158	0xbe9eb29d	-0.30995646
159	0x3ed30739	0.41216448
160	0x3ca30341	0.019899013
161	0x3e0a02d8	0.13477647
162	0x3db6fd29	0.08935005
163	0xbea53d94	-0.32273543
164	0xbd7685d6	-0.06018623
165	0xbec8b6f4	-0.39202082
166	0xbead20bd	-0.3381404
167	0xbf8a67f7	-1.0812978
168	0xbec9add9	-0.39390448
169	0x3da21c23	0.07915523
170	0x3b04b4e0	0.0020249411
171	0xbe8bd868	-0.27313542
172	0xbe0a37ee	-0.13497898
173	0x3efd93b4	0.4952675
174	0x3f382f52	0.71947205
175	0xc0424e78	-3.0360394
176	0x3e4c64eb	0.19960372
177	0x3e248dc8	0.1606971
178	0x3e1ad66a	0.15120855
179	0xbf14099a	-0.5782715
180	0x3f2efddf	0.68356127
181	0xbebe39d7	-0.37153503
182	0xbf281cef	-0.6566915
183	0x3f5ae255	0.85501605
184	0xbf4fdb9d	-0.8119448
185	0x3dfe22db	0.12408992
186	0x3e1a92a7	0.15095006
187	0x3da6a5fd	0.081371285
188	0x3d86a2eb	0.06574043
189	0x3e1d3c4f	0.15355037
190	0xbf8a83e1	-1.0821496
191	0xbf43b899	-0.7645355
192	0x3db2e03e	0.08734177
193	0xbf01b5a3	-0.5066778
194	0x3f504bec	0.8136585
195	0xbd105eed	-0.03524678
196	0x3d7f7222	0.062364705
197	0x3e31e1d5	0.17371304
198	0x3e044174	0.12915593
199	0x3e4394c7	0.19099723
200	0x3ea081aa	0.31348926
201	0x3de24010	0.11047375
202	0xc0325bd0	-2.7868538
203	0x3f1c7bac	0.6112621
204	0xbd2a0cbb	-0.041516047
205	0x3e8e6063	0.27807912
206	0xbfdc2fdb	-1.7202104
207	0xbddd619d	-0.10809634
208	0xbf2942df	-0.6611766
209	0x3e462793	0.19351034
210	0xbe2d965e	-0.16951892
211	0x3dbd63d9	0.0924756
212	0xbf8e4fb8	-1.1118078
213	0x3e67ced8	0.22637498
214	0x3e7c5cbc	0.2464475
215	0xbd80f45f	-0.0629661
216	0xbced1b9f	-0.028943835
217	0x3e43bc20	0.19114733
218	0xbf5a1cec	-0.8520038
219	0x3bde24c8	0.006779287
220	0x3ec8c213	0.39210567
221	0xbb806e00	-0.003919363
222	0x3cd3fa58	0.02587621
223	0xbdccb766	-0.09995918
224	0x3e807445	0.25088707
225	0x3deb2ee7	0.11483555
226	0xbf7d8c94	-0.9904263
227	0xbe957ad7	-0.29195282
228	0xbf879d19	-1.0594817
229	0xbe1d87ce	-0.15383837
230	0xbf054736	-0.52061784
231	0xbefdd69a	-0.4957779
232	0xc003dd66	-2.060388
233	0x3f2f3f7d	0.6845625
234	0x3eb366a4	0.35039246
235	0xbebd2eae	-0.36949676
236	0xbf05eb68	-0.52312326
237	0xbf9a0aed	-1.2034584
238	0xbfa68253	-1.3008522
239	0x3ebe33bf	0.37148854
240	0x3f8b9a85	1.0906531
241	0x3f26c88f	0.6514978
242	0xbf14cf8f	-0.5812921
243	0x3e652cc6	0.22380361
244	0xbf46e87c	-0.77698493
245	0xbdcbd028	-0.09951812
246	0xbeb4d391	-0.35317662
247	0xbf6dce93	-0.9289333
248	0xbf96076c	-1.1721015
249	0xbea998b9	-0.3312433
250	0x3ef1475e	0.4712476
251	0x3ea07cb4	0.3134514
252	0x3f2a9431	0.6663237
253	0x3f01f62f	0.5076627
254	0x3cc98141	0.024597766
255	0xbf14db42	-0.5814706

bias f4 [200]
0	0x3e96fd5f	0.29490182
1	0x3edd75ea	0.43254024
2	0xbdc4e9e8	-0.096149266
3	0xbf919ff2	-1.1376936
4	0xbf493e63	-0.7861082
5	0xbebeba38	-0.3725145
6	0xbf12c471	-0.57330996
7	0x3efcd820	0.4938364
8	0xbee04e26	-0.43809623
9	0xbe76e7f2	-0.24111918
10	0xbdfa5822	-0.12223841
11	0xbc57cd70	-0.013171539
12	0xbc809b08	-0.015698925
13	0x3f181993	0.59414023
14	0x3f54e990	0.8316889
15	0xbee534b6	-0.44766778
16	0xbf09cf1a	-0.53831637
17	0xbe97d313	-0.29653224
18	0x3f34c7be	0.7061728
19	0xbdc43da2	-0.09582068
20	0xbf66faf0	-0.9022665
21	0xbe7e0826	-0.24807796
22	0x3e4e8029	0.20166077
23	0xbe0a3cef	-0.13499807
24	0x3ec94fda	0.39318734
25	0xbeea33fb	-0.45742783
26	0xbf71476e	-0.9424962
27	0xbeb36c25	-0.35043445
28	0xbe429fa7	-0.19006215
29	0x3e1cce6f	0.15313123
30	0x3e9bc19e	0.30421156
31	0x3db25789	0.08708102
32	0xbf41d988	-0.7572255
33	0x3eac5b37	0.3366334
34	0xbe68b1c6	-0.22724065
35	0xbeb167fa	-0.3464964
36	0xbeac2783	-0.33623895
37	0xbf1890db	-0.5959603
38	0x3ed8f86a	0.42377025
39	0x3eb906e8	0.36138082
40	0x3effd198	0.49964595
41	0xbcf77c04	-0.030210502
42	0xbe37b1a9	-0.17938866
43	0x3f09e80c	0.538697
44	0x3e2d9f9b	0.16955416
45	0x3ed4e00e	0.4157719
46	0xbd9c997c	-0.07646462
47	0xbf9c91f4	-1.2232041
48	0xbf9f711d	-1.2456394
49	0xbf4efdaf	-0.8085584
50	0x3eec2089	0.46118572
51	0xbf52b9bf	-0.82314676
52	0x3eb8eaf6	0.3611676
53	0x3d1e7849	0.03868893
54	0x3dcb5e1d	0.0993006
55	0x3f0e4bf0	0.5558462
56	0xbe158040	-0.14599705
57	0x3e943ab8	0.2895105
58	0x3ead899a	0.33894044
59	0xbedb3e8b	-0.42821154
60	0x3e1e5693	0.15462713
61	0x3e577ae4	0.21042973
62	0xbefbf471	-0.49209931
63	0xbebbe382	-0.36697012
64	0x3e8a436b	0.2700456
65	0xbf47ae5e	-0.7800044
66	0x3e91573c	0.28386867
67	0xbe850fd1	-0.2598863
68	0xbeb42145	-0.35181633
69	0x3d065da2	0.03280414
70	0x3dc6b1eb	0.09701904
71	0xbf0108bd	-0.5040396
72	0x3eab890c	0.33502996
73	0xbf222af9	-0.6334682
74	0x3ede09d2	0.43366867
75	0x3e306a9b	0.17228167
76	0xbf0a6282	-0.5405656
77	0xbf1a4f92	-0.60277665
78	0x3e1d816f	0.15381406
79	0xbe1eabd2	-0.15495232
80	0xbdf712a6	-0.12064104
81	0xbf3a1fc7	-0.7270474
82	0xbeec3ec3	-0.46141633
83	0xbe82840c	-0.2549137
84	0xbeb66e00	-0.35630798
85	0x3e493be1	0.19651748
86	0x3eb67e63	0.356433
87	0x3e8a3d84	0.27000058
88	0xbee06758	-0.43828845
89	0xbeb48360	-0.3525648
90	0xbf3274b6	-0.69709337
91	0xbeb278e2	-0.3485785
92	0xbd928979	-0.07155127
93	0xbf20efe2	-0.6286603
94	0xbee12300	-0.43972015
95	0xbe998f29	-0.29992035
96	0xbf54d079	-0.83130604
97	0xbf6eb294	-0.9324124
98	0x3f1a9cae	0.60395324
99	0xbf030308	-0.511765
100	0xbefcabf2	-0.49349934
101	0xbef024bb	-0.46903023
102	0xbdcf3d8e	-0.101191625
103	0xbe7b6324	-0.24549538
104	0x3e2d33c1	0.16914274
105	0x3e9c7664	0.30559075
106	0x3e5202c7	0.20508872
107	0xbec1324d	-0.3773369
108	0x3dd58fa0	0.10427785
109	0x3f0fb0bd	0.56129056
110	0xbe63f6f8	-0.2226218
111	0xbf415b80	-0.7553024
112	0xbe2c316f	-0.16815732
113	0x3e4fe1d4	0.2030099
114	0x3e512b05	0.20426567
115	0xbf1740f8	-0.5908351
116	0xbe898014	-0.26855528
117	0xbe800d16	-0.25009984
118	0x3e2239a2	0.15842298
119	0xbda11435	-0.07865182
120	0xbf840aee	-1.0315835
121	0xbd88f6cb	-0.06687697
122	0xbef41491	-0.4767194
123	0x3de33ded	0.11095796
124	0x3f0d27e5	0.55139
125	0x3e05d565	0.13069685
126	0x3e305102	0.17218402
127	0xbf38df93	-0.7221615
128	0xbe32b1c0	-0.17450619
129	0xbed7d7e6	-0.42156905
130	0x3e67fb41	0.2265444
131	0xbe7b101f	-0.24517868
132	0xbdbed55c	-0.09318039
133	0x3ec2abfb	0.38021836
134	0x3e0ca47c	0.13734621
135	0xbededb8e	-0.43526882
136	0xbe325947	-0.17416869
137	0xbecf5014	-0.40490782
138	0x3e848642	0.2588368
139	0xbf245040	-0.6418495
140	0x3f51146a	0.81671774
141	0xbe03dd94	-0.12877494
142	0xbcd9d403	-0.026590353
143	0x3e597544	0.2123614
144	0x3ea209a7	0.3164799
145	0xbef3f5b3	-0.4764839
146	0x3d2b85d2	0.041875668
147	0x3e89f1ec	0.26942384
148	0x3c80110c	0.015633129
149	0xbe4aa691	-0.19790103
150	0xbebef74a	-0.37298042
151	0xbe043057	-0.12909065
152	0xbec74a5b	-0.38923916
153	0xbeab2448	-0.33426118
154	0xbd9d37bf	-0.07676648
155	0xbdf8588f	-0.12126266
156	0x3e3dd30d	0.1853754
157	0xbe791c9a	-0.24327317
158	0xbddaaba0	-0.10677266
159	0xbe639e19	-0.22228278
160	0xbee3a224	-0.4445964
161	0x3eaaf901	0.333931
162	0x3e2f8c75	0.17143424
163	0x3da424da	0.080148414
164	0xbe8275e2	-0.25480562
165	0x3e7ba341	0.24573995
166	0xbf8fddf5	-1.1239611
167	0x3e3c8899	0.18411483
168	0x3cb03dcb	0.02151384
169	0x3e97234f	0.29519126
170	0x3f027460	0.50958824
171	0xbe907ab4	-0.28218615
172	0x3e25d76a	0.16195455
173	0xbc37cf1f	-0.011218815
174	0x3dc50d21	0.09621645
175	0x3d17f926	0.03710284
176	0xbf0cd0fb	-0.5500638
177	0x3df91da3	0.12163856
178	0xbdb4a3c0	-0.08820295
179	0xbeefc04d	-0.468264
180	0xbed8fb92	-0.42379433
181	0xbf608db9	-0.8771625
182	0xbdfe1725	-0.12406758
183	0xbe951b70	-0.29122496
184	0x3f109192	0.5647212
185	0xbf141b19	-0.5785385
186	0x3e9f147f	0.31070325
187	0x3eef5f8c	0.46752584
188	0xbf382278	-0.71927595
189	0x3eaa81e6	0.3330223
190	0xbe8f6c7d	-0.28012457
191	0x3efd1e48	0.49437165
192	0x3f0cc326	0.5498527
193	0x3dd957c6	0.106124446
194	0xbf0f01e0	-0.55862236
195	0xbe8b4e8a	-0.27208358
196	0xbea0f430	-0.314363
197	0xbef679b3	-0.48139724
198	0xbe4821d0	-0.19544148
199	0xbea367d5	-0.31915155

weight f4 [200, 200]
0	0xbdb8b8b8	-0.09019607
1	0xbb83cab5	-0.0040219673
2	0x3ccab630	0.024745077
3	0xbd806d2f	-0.06270825
4	0xbd23ee0f	-0.040021952
5	0xbd5ed435	-0.054401595
6	0xbd9f3f9e	-0.07775806
7	0xbde05943	-0.10954525
8	0xbd1d4c65	-0.038402934
9	0xbd6a94cb	-0.057270806
10	0xbdca70a9	-0.098847695
11	0xbd50a042	-0.050934084
12	0x3c9828c5	0.018574128
13	0xbd95a8ee	-0.073076114
14	0xbd9e779e	-0.07737659
15	0xbd309b60	-0.043116927
16	0xbd9d3a6e	-0.0767716
17	0xbc685b22	-0.014181884
18	0xbd352770	-0.044227064
19	0x3cb6e717	0.02232699
20	0xbdc4a9c1	-0.096026905
21	0xbb79affc	-0.003809928
22	0x3c1f4a8d	0.009722364
23	0xbb6bc0cb	-0.0035973068
24	0xbc8d479d	-0.017246062
25	0x3c27f936	0.010252288
26	0xbd28a44f	-0.041172322
27	0xbd7e9b45	-0.062159795
28	0xbd456ea1	-0.048201207
29	0xbd986426	-0.07440977
30	0xbe05d23d	-0.13068481
31	0xbc90327e	-0.017602202
32	0xbcef56c3	-0.029216176
33	0xbd6d42bb	-0.057924967
34	0x3c4dcb40	0.012560666
35	0x3c943ffd	0.018096918
36	0xbdb6ee20	-0.089321375
37	0x3cfbf3ab	0.030755838
38	0xbd216a4f	-0.039408024
39	0x3c9d1e72	0.019179557
40	0xbd8e19c4	-0.06938508
41	0xb7c45d12	-2.340836e-05
42	0x3c8a166c	0.016856395
43	0x3d5d3a09	0.054010425
44	0xbd892e65	-0.06698302
45	0xbcdfac9a	-0.027303983
46	0xbc342730	-0.010995671
47	0x3c56c101	0.013107539
48	0xbce527bb	-0.027973047
49	0x3cc7bae8	0.024381116
50	0xbdb19498	-0.0867092
51	0xbb988a6e	-0.004655174
52	0xbd69e5a1	-0.057103757
53	0xbd882e25	-0.06649426
54	0xbd83b1b5	-0.06430379
55	0xbda5baff	-0.08092307
56	0xbb260217	-0.0025330835
57	0xbd45eba6	-0.048320435
58	0xbdcd3091	-0.10019029
59	0xbdce4139	-0.10071034
60	0xbd471868	-0.04860726
61	0xbc6ea313	-0.014565247
62	0xbd38f5a7	-0.045156147
63	0xbd1c204d	-0.038116742
64	0x3d3e9327	0.046527054
65	0x3cae836e	0.021302905
66	0xbdac5987	-0.084155135
67	0xbd42ab6e	-0.04752677
68	0xbdadddcf	-0.08489572
69	0x3cbdf878	0.023189768
70	0x3cd486b1	0.025943132
71	0xbc83af5d	-0.01607483
72	0x3c1eb2fd	0.009686229
73	0xbde42843	-0.11140492
74	0x3c9cd02d	0.019142235
75	0x3d0945d4	0.03351386
76	0x3c37a67f	0.011209129
77	0xbccc44a0	-0.024935067
78	0x397df813	0.00024220375
79	0xbd8ff7e5	-0.07029704
80	0x3d184bed	0.037181783
81	0xbd438d61	-0.04774225
82	0xbcd5781a	-0.026058245
83	0xbdb436d0	-0.08799517
84	0x3d52bb3d	0.051448096
85	0xbd95f57e	-0.073222145
86	0x3d5b2470	0.053501546
87	0x3d1a84ad	0.037724186
88	0xbd2a0949	-0.04151276
89	0xbd2783ab	-0.040897053
90	0xbdd9ccb2	-0.10634746
91	0xbd8547f5	-0.06507865
92	0x3cad5c1e	0.021162089
93	0xbcdfe732	-0.027331922
94	0xbcf19b3c	-0.029492967
95	0xbd361680	-0.04445505
96	0xbda7f6df	-0.08201384
97	0xbd86d978	-0.065844476
98	0x3cb04a20	0.02151972
99	0xbd4cf149	-0.050034795
100	0x3c1cd1bd	0.00957149
101	0xbd483591	-0.04887921
102	0xbda694f7	-0.081338815
103	0xbc7d3e8f	-0.01545681
104	0x3b87173c	0.004122643
105	0x3c701ec3	0.014655772
106	0xbcf2b2ec	-0.029626332
107	0xbc808ba7	-0.015691591
108	0xbbcd4801	-0.006264687
109	0xbbf39437	-0.00743344
110	0x3cb9ee17	0.022696538
111	0x3d86adc4	0.06576112
112	0xbdb9e8a0	-0.09077573
113	0x3da26a8f	0.07930481
114	0xbd2c608f	-0.042084273
115	0xbd5e7672	-0.054312177
116	0x3c52536a	0.01283727
117	0xbd958b3e	-0.07301949
118	0x3c265e46	0.0101543125
119	0xbdc98581	-0.09839917
120	0xbd3b37c8	-0.045707494
121	0xbd594985	-0.05304863
122	0xbccf9831	-0.025341125
123	0xbdd1276a	-0.10212596
124	0x3ce07ba6	0.02740271
125	0x3d898455	0.067146935
126	0xbd6be8a3	-0.057594907
127	0xbd86638d	-0.065619566
128	0xbce1db7d	-0.02757048
129	0x3c85b61c	0.016322188
130	0x3c22a076	0.009925952
131	0x3d151ddd	0.036405433
132	0xbc2ea0b5	-0.010658433
133	0x3cbe074f	0.023196844
134	0xbd8bce45	-0.06826452
135	0xbc8bafcd	-0.017051602
136	0xbd753904	-0.059868827
137	0xbda4fc5f	-0.080559485
138	0x3c185f76	0.009300103
139	0x3c856be4	0.016286798
140	0xbcc9808e	-0.024597432
141	0xbe00a53d	-0.12563033
142	0xbcb12738	-0.021625146
143	0xbdb52518	-0.08844966
144	0xbb6939eb	-0.00355875
145	0x3d1b76dd	0.037955154
146	0x3c00ef74	0.00786959
147	0x3a4c72b8	0.0007799077
148	0x3bf06383	0.0073360815
149	0xbd137a2f	-0.036005195
150	0xbd29fde2	-0.041501887
151	0xbd2b6f27	-0.04185405
152	0xbbd81412	-0.0065941894
153	0x3d15e57a	0.0365958
154	0x3c2f2240	0.010689318
155	0xbcdd4c02	-0.027013782
156	0xbd991d4e	-0.074762926
157	0xbd1f476e	-0.03888648
158	0x3b8c3dfc	0.00427985
159	0x3d5b7809	0.05358127
160	0xbd453bd9	-0.04815278
161	0xbb894445	-0.0041890466
162	0xbd8a8d2d	-0.067652084
163	0xbd6653bb	-0.056232195
164	0xbd75a664	-0.059973136
165	0xbc317940	-0.010832131
166	0xbbbaabf0	-0.005696766
167	0xbd9ad90e	-0.07560931
168	0xbd5c5646	-0.053793214
169	0x3c50a812	0.012735384
170	0x3ca68876	0.020328742
171	0xbde74b63	-0.11293676
172	0xbdc90629	-0.09815628
173	0x3c496a28	0.012293376
174	0xbd14c65e	-0.03632199
175	0xbd49cc99	-0.049267385
176	0xbc82a5bd	-0.01594817
177	0x3c59ce41	0.013293804
178	0xbdda3ec2	-0.10656501
179	0xbc082798	-0.008310221
180	0xbc21a1c7	-0.009865231
181	0xbcdf03da	-0.027223516
182	0xbcd82dda	-0.026389051
183	0xbd1ec046	-0.038757585
184	0xbd9bf56e	-0.076151714
185	0x3cfba9fd	0.030720705
186	0xbdf30f1c	-0.11868116
187	0x3c4ec608	0.0126204565
188	0x3c19ed1d	0.009394911
189	0xbd0d780d	-0.034538317
190	0xbd62c7eb	-0.055366438
191	0xbdee3b2b	-0.11632379
192	0xbd6f785b	-0.05846439
193	0xbd6af673	-0.05736394
194	0xbd3eb970	-0.046563566
195	0x3c9d7e65	0.019225309
196	0xbdbca7c0	-0.09211683
197	0x3d06d1b4	0.032914832
198	0xbd5303fa	-0.051517464
199	0xbcad37bf	-0.021144746
200	0xbdd5f2c2	-0.10446693
201	0xbf5afc9a	-0.8554169
202	0x3d756fb3	0.059920978
203	0xbf317878	-0.69324446
204	0xbed62d59	-0.41831473
205	0x39bd5631	0.00036113107
206	0xbe4a5489	-0.1975881
207	0xbcce8081	-0.02520776
208	0xba48605b	-0.00076437526
209	0xbe9ed23e	-0.31019777
210	0xbf109745	-0.5648082
211	0x3e86d665	0.26335445
212	0xbe946e16	-0.2899024
213	0xbf113f3e	-0.56737125
214	0xbfb538a0	-1.4157906
215	0xbe992db6	-0.29917687
216	0xbf4aab41	-0.7916756
217	0xbd501400	-0.050800323
218	0xbe4f9c18	-0.20274389
219	0x3f0e7aa4	0.55655885
220	0xbffd2f4c	-1.9780059
221	0x3f05a294	0.522012
222	0xbf297997	-0.66201156
223	0xbf0dc94d	-0.55385286
224	0x3eb71917	0.3576133
225	0x3f0dac65	0.5534118
226	0xbe6fb3ba	-0.23408404
227	0xbca6f177	-0.020378811
228	0xbf8df9bc	-1.1091838
229	0xbec1e529	-0.37870148
230	0x3e1c7335	0.15278323
231	0x3e78df63	0.24303965
232	0xbed51802	-0.4161988
233	0xbb522872	-0.0032067564
234	0x3f22cb6e	0.6359166
235	0xbe8a6c5d	-0.270358
236	0x3f0d2605	0.5513614
237	0xbf5d5ada	-0.86466753
238	0xbe8d6d1d	-0.2762231
239	0x3d27f758	0.04100737
240	0xbe81e4c5	-0.2536985
241	0xbc084a45	-0.0083184885
242	0xbd793dec	-0.06085007
243	0xbe033af5	-0.12815459
244	0x3cb2797f	0.02178645
245	0x3ef1b373	0.4720722
246	0x3cdb3f02	0.026763443
247	0xbe221adf	-0.15830563
248	0xbfd4c91a	-1.6623871
249	0xbe76a2bc	-0.24085516
250	0xbea55f96	-0.3229949
251	0xbf46d2e1	-0.77665526
252	0xbb437767	-0.0029825808
253	0x3f031704	0.51206994
254	0xbf0256d5	-0.50913745
255	0x3d80875a	0.06275816
